SGE_Transformer/model/2_room/eil_2_room_198_model/EBC_model_105999.pth (torch, 319327 bytes, 27 tensors)

encoder.embedding.weight f4 [900, 16]
0	0x3e65172f	0.22372125
1	0xbf7a3ed7	-0.97752136
2	0x3f3858c3	0.7201044
3	0x3ffb3833	1.9626526
4	0x3ed4447e	0.41458505
5	0x3f3eae31	0.74484545
6	0x3e69660f	0.22792839
7	0x3f071182	0.5276109
8	0x3fab6a61	1.3391839
9	0x3f9c321d	1.2202793
10	0x3faf4716	1.3693569
11	0xbf66317e	-0.8991927
12	0x3ff070b0	1.878439
13	0xbec8631c	-0.39138114
14	0xbf754780	-0.95812225
15	0x3f3594e1	0.70930296
16	0xbf901fa2	-1.1259654
17	0xbc9170f3	-0.017754054
18	0x3ef35323	0.47524366
19	0xbf101c90	-0.5629358
20	0x3f1a014f	0.60158247
21	0x3f1ea542	0.61970913
22	0x3e9ec14a	0.31006843
23	0x3c281795	0.010259529
24	0xbf685165	-0.907492
25	0xbfc4b853	-1.5368751
26	0x40114a37	2.2701547
27	0xbfccd9f3	-1.6004013
28	0x3f5d1080	0.863533
29	0xbe53fff8	-0.20703113
30	0xbe3feb2c	-0.18742055
31	0xbfa4f7dc	-1.2888141
32	0x3f0fa3f7	0.56109565
33	0xbe5d42c6	-0.21607503
34	0xbf18d1ab	-0.5969493
35	0x3f036934	0.513324
36	0x3dba41ab	0.090945564
37	0x3e651936	0.22372898
38	0xbed02eb8	-0.40660644
39	0xbfed0186	-1.851609
40	0xbf34da34	-0.7064545
41	0x3f8c7260	1.0972404
42	0xbf63428c	-0.8877342
43	0xbe52ef69	-0.2059914
44	0xbf9a418d	-1.2051255
45	0x3dd6d81f	0.104904406
46	0xc05a6323	-3.4123008
47	0xbf8f2bab	-1.1185201
48	0x3ed01ce1	0.40647033
49	0xbf3b8377	-0.73247474
50	0xbfb5db83	-1.4207615
51	0xbf7d9ff0	-0.9907217
52	0x3f28e201	0.65969855
53	0x3fdc79cb	1.7224668
54	0xbf8e79e2	-1.1130946
55	0x3f00d5a0	0.50325966
56	0xbfb1eb18	-1.389987
57	0x3da6dcaa	0.08147557
58	0x3f46382b	0.77429456
59	0xbfc0293f	-1.5012587
60	0xbf8bfc21	-1.0936319
61	0xbf4230f8	-0.7585597
62	0xbf436fb2	-0.7634231
63	0xc01e2bb4	-2.4714174
64	0x3f636907	0.88832134
65	0x3ee9b1d0	0.45643473
66	0xbfca0bfe	-1.578491
67	0x4019380a	2.3940454
68	0xbf6b7f39	-0.91991
69	0x3c8ea818	0.017414138
70	0xbfbe0a2f	-1.4846858
71	0x3eef362b	0.46721014
72	0xbf5444e3	-0.8291761
73	0xbe2f3d81	-0.17113306
74	0x3d9d67f3	0.07685842
75	0xbfdbe6ea	-1.7179844
76	0xc003efc2	-2.0615087
77	0xbd6ac01a	-0.05731211
78	0xbef3b1f4	-0.47596705
79	0x3dbd326e	0.09238134
80	0x3e1918b5	0.14950831
81	0x3f2e8646	0.68173635
82	0x3fc8aa0d	1.5676895
83	0x3ef37d76	0.47556657
84	0xbf80a441	-1.0050126
85	0xbf82fb09	-1.023286
86	0x3f057d3c	0.5214422
87	0xbef6e35b	-0.48220333
88	0xbf45cac4	-0.7726252
89	0x402fa645	2.7445233
90	0xbffceabe	-1.9759138
91	0x3ed4f030	0.415895
92	0x3fc89d13	1.5672935
93	0xbd2321c3	-0.03982712
94	0xbf78e297	-0.9722075
95	0xbf3649b8	-0.71206236
96	0x3e75b7b5	0.2399586
97	0xbf997ce5	-1.199124
98	0x3f881e17	1.0634183
99	0xbf2d4c14	-0.6769421
100	0xbf29d40c	-0.6633918
101	0x3eac2e84	0.3362924
102	0x3f04b980	0.5184555
103	0x3f84d6c4	1.0378041
104	0x3d29e23d	0.041475523
105	0x3f57838d	0.84185106
106	0xbe06755a	-0.13130704
107	0xbfbf08fc	-1.4924617
108	0x3eba2620	0.36357212
109	0xbf02d54a	-0.51106703
110	0xbed64638	-0.41850448
111	0x3f97483d	1.181892
112	0xbe882c72	-0.2659641
113	0x3f4ddfd2	0.8041965
114	0xbe9d7ba6	-0.307584
115	0x3fad485f	1.3537711
116	0x3f2ac244	0.66702676
117	0xbe718f59	-0.23589839
118	0xbe2f5481	-0.1712208
119	0x3f0fc723	0.56163234
120	0x3e9d35dc	0.30705154
121	0x3eacf4c8	0.33780503
122	0x3e050074	0.12988454
123	0x3f13956f	0.5764989
124	0x3ca658d1	0.020306023
125	0x3fb2fdc0	1.3983688
126	0x3fb55e8f	1.4169482
127	0xbbc0bfc0	-0.0058822334
128	0xbf61e845	-0.8824504
129	0xbef9f6e3	-0.48821172
130	0xbfad94f9	-1.3561088
131	0xbe6f0e1a	-0.23345223
132	0x3fea3517	1.8297452
133	0x3fcb78ed	1.5896279
134	0x3e365e8a	0.17809501
135	0x3f030fba	0.5119587
136	0xbf0bd7f0	-0.5462637
137	0xbfb8c286	-1.4434364
138	0xbff63e32	-1.923773
139	0xbf9088af	-1.1291713
140	0x3f80de94	1.0067925
141	0xbc1011c2	-0.008793296
142	0xbf4df091	-0.804452
143	0x3ffba08a	1.9658368
144	0x3fd2f00a	1.6479504
145	0x3f11e735	0.5699342
146	0xbc4a2e9c	-0.012340214
147	0xbfbc443f	-1.4708327
148	0xbd3d77b9	-0.046256755
149	0xbf086699	-0.5328155
150	0x3f28e4bd	0.65974027
151	0x400bf57d	2.1868584
152	0x3ef9c545	0.48783317
153	0x400b8029	2.1796973
154	0xbfbb383a	-1.4626534
155	0xbfb20beb	-1.3909887
156	0xbedd4693	-0.43217906
157	0xbe1892f2	-0.14899805
158	0x3dd07cf7	0.10180085
159	0xbe33ebd6	-0.17570433
160	0x3ea4e7f3	0.32208213
161	0x3f9a135f	1.2037162
162	0x3daecc16	0.0853502
163	0xbfe162e8	-1.7608309
164	0x3d73f564	0.059560195
165	0xbfa77304	-1.3081975
166	0x3e6c1cd0	0.23057866
167	0x3f75be8b	0.9599387
168	0x3e10d040	0.14141941
169	0x3f5ca835	0.86194164
170	0xbf8c435c	-1.0958056
171	0xbf920f40	-1.1410904
172	0xbec09121	-0.37610725
173	0xbe830363	-0.2558852
174	0xbe914aa7	-0.28377268
175	0x3f8fa9bb	1.1223673
176	0x400414ac	2.0637617
177	0x3e062291	0.13099124
178	0x3f6948bd	0.91126615
179	0x3dca6884	0.09883216
180	0xbf2a85ba	-0.666103
181	0x3f6ea805	0.9322513
182	0x3fd155a0	1.6354256
183	0xbf8cdc17	-1.1004666
184	0x3f3c40bb	0.7353627
185	0x40019a7e	2.0250545
186	0xc03a7b37	-2.9137704
187	0x3e435f95	0.1907943
188	0x3e2db8c2	0.16965011
189	0xbf333487	-0.70002025
190	0xbdc8288a	-0.09773357
191	0x3f03a191	0.51418406
192	0x3f583760	0.84459496
193	0x3dabeb3b	0.08394476
194	0xbf8de0c8	-1.1084223
195	0x3ff4c735	1.9123293
196	0x3f000235	0.5000337
197	0xbf1e3191	-0.6179438
198	0xbf8791cf	-1.0591372
199	0xbf82bd44	-1.0214009
200	0x3fce32cc	1.6109252
201	0x3f9b15ba	1.2116005
202	0x3fbee7e5	1.4914519
203	0xbdafe1d1	-0.08587993
204	0xbf4d36a7	-0.8016152
205	0xbfd91364	-1.6959043
206	0xbfeb0e71	-1.8363782
207	0xbfe1aa1a	-1.7630036
208	0x3fec0fe8	1.8442354
209	0x3db554d2	0.08854069
210	0xbf272ac3	-0.65299624
211	0x3f2a5d34	0.66548467
212	0x3f123e76	0.5712656
213	0xbee11050	-0.43957758
214	0xbe27da41	-0.16391851
215	0xbed345a4	-0.4126407
216	0xbe81c5cf	-0.25346228
217	0xbf1f542c	-0.6223781
218	0x3f291660	0.66049767
219	0xbf22653e	-0.63435733
220	0x3f8b53f9	1.0885001
221	0x3fa7affb	1.310058
222	0x3f24c330	0.6436033
223	0xbf33742a	-0.7009913
224	0xbfa7f195	-1.31206
225	0xbfde7534	-1.7379518
226	0xbeec46ea	-0.46147853
227	0xbf05bb5f	-0.5223903
228	0x3f8931ff	1.0718383
229	0x3f4090e4	0.75221086
230	0xbfd4f8eb	-1.6638464
231	0xbfe8435c	-1.8145556
232	0x3f9d6b53	1.2298378
233	0x3f0ebf99	0.55761105
234	0x3eae118c	0.33997762
235	0xbfad8174	-1.3555131
236	0xbf882230	-1.0635433
237	0xbe7f0c70	-0.24907088
238	0xbe8c09ae	-0.27351135
239	0x3e9427bf	0.28936574
240	0x3c88a595	0.016680518
241	0xbed6822d	-0.4189619
242	0xbdc20c70	-0.094750285
243	0x3f73bb21	0.9520741
244	0x3ff85ea5	1.9403883
245	0x3f28efae	0.6599072
246	0xbd957ef6	-0.072996065
247	0xbfc98399	-1.5743285
248	0xbed56a04	-0.41682446
249	0xbff3611b	-1.9014009
250	0x3fa9d101	1.3266908
251	0xbe144ade	-0.14481685
252	0x3f801eaa	1.0009358
253	0x3d4d3a49	0.050104413
254	0x40183572	2.378262
255	0xbe187fa7	-0.14892446

encoder.lstm.weight_ih_l0 f4 [128, 16]
0	0xbf01dd63	-0.50728434
1	0x3e7a3dcb	0.24437635
2	0xbee4b0cf	-0.44666144
3	0xbf34c5fd	-0.70614606
4	0xbd93c077	-0.07214444
5	0x3ed716cd	0.42009583
6	0xbe351295	-0.1768287
7	0x3ea8a8db	0.32941326
8	0xbde8077a	-0.11329551
9	0xbebf926a	-0.37416393
10	0xbf1ce999	-0.6129394
11	0xbde1dcdc	-0.11028454
12	0x3eadd3f4	0.3395077
13	0xbe058083	-0.13037305
14	0x3c30dfce	0.010795547
15	0x3f01347c	0.5047071
16	0xbd1fa3d6	-0.038974606
17	0x3f160bfb	0.5861203
18	0xbf0ced33	-0.5504944
19	0xbe433696	-0.19063792
20	0xbe4148c9	-0.18875422
21	0xbf05eb6f	-0.5231237
22	0x3e42c195	0.19019158
23	0x3ea63ee2	0.3246985
24	0xbe523ca0	-0.20530939
25	0xbf7dbbd9	-0.9911476
26	0xbe95161a	-0.29118425
27	0xbe9d6cf1	-0.30747178
28	0x3d1c203b	0.038116675
29	0xbf82aab6	-1.0208347
30	0x3e423918	0.18967092
31	0xbae37f70	-0.0017356705
32	0x3a4a1fee	0.00077104464
33	0xbe93df5e	-0.28881353
34	0xbe1dbf7b	-0.15405075
35	0x3e48169e	0.19539878
36	0xbb7b44a3	-0.0038340471
37	0x3dde8f6b	0.108671986
38	0x3ea99a6a	0.3312562
39	0x3d34639c	0.044040307
40	0x3e38e4f1	0.18056084
41	0xbe9e0dbb	-0.3086985
42	0xbe995285	-0.2994577
43	0x3ec94a65	0.3931457
44	0x3d27ff7e	0.04101514
45	0x3dadc22f	0.08484303
46	0xbe62c505	-0.2214547
47	0x3f1164d7	0.56794494
48	0xbf152727	-0.58262867
49	0x3e42f432	0.19038466
50	0x3f3f9537	0.7483706
51	0x3e86897a	0.2627676
52	0xbd463216	-0.04838761
53	0x3e2e6864	0.1703201
54	0xbdf0f889	-0.11766154
55	0xbdc854fd	-0.09781835
56	0xbd24f4b6	-0.040272437
57	0x3eae0126	0.3398525
58	0x3d8c6244	0.0685468
59	0xbf8a4d9a	-1.0804932
60	0xbf15928a	-0.58426726
61	0xbe3d817c	-0.18506426
62	0x3e9711aa	0.29505664
63	0x3e017318	0.12641561
64	0x3c6e991a	0.014562869
65	0x3de6df82	0.112730995
66	0x3eb46887	0.35235998
67	0x3e366415	0.17811616
68	0x3edb00cd	0.42774048
69	0x3ec7f169	0.3905137
70	0xbdec4925	-0.11537389
71	0x3cd5a77d	0.026080841
72	0xbef8fa9e	-0.48628706
73	0xbd396233	-0.045259666
74	0x3edb0890	0.4277997
75	0xbd5a44fd	-0.05328845
76	0xbe28255f	-0.16420506
77	0x3e0f50fd	0.13995738
78	0xbde4c0bd	-0.111695744
79	0xbe689db1	-0.22716404
80	0x3e9fd11f	0.31214234
81	0x3f08c71f	0.53428835
82	0x3e1454a6	0.14485416
83	0x3db6e17b	0.08929726
84	0xbe2ace74	-0.16680318
85	0x3e268df2	0.16265085
86	0xbe91694d	-0.2840065
87	0x3e30031f	0.1718869
88	0x3d1348cb	0.035958093
89	0xbf6d63dc	-0.927305
90	0xbe49f591	-0.19722582
91	0x3e8b237d	0.27175513
92	0x3ed1c4c9	0.40970448
93	0x3efe7d11	0.49704793
94	0xbebcf5e8	-0.36906362
95	0x3ed4c99e	0.41560072
96	0xbda569dd	-0.080768324
97	0x3e8fd4d4	0.28092062
98	0x3d9d8fdd	0.07693455
99	0xbe9f13b3	-0.31069717
100	0x3f0cee43	0.5505106
101	0xbd827211	-0.06369413
102	0x3f062c78	0.52411604
103	0x3e845735	0.25847784
104	0x3e350f06	0.17681512
105	0x3f1c2309	0.6099096
106	0xbd9946a8	-0.0748418
107	0x3ebb709f	0.3660936
108	0x3ed58b3f	0.417078
109	0x3e4b38d2	0.19845894
110	0x3dc8cd9b	0.09804841
111	0x3e9e367d	0.30900946
112	0xbe535692	-0.20638493
113	0x3e18088d	0.14847012
114	0xbd003a5f	-0.031305667
115	0xbe4feecd	-0.20305939
116	0x3ea51feb	0.32250914
117	0x3f387dce	0.7206696
118	0x3c9bd1e0	0.019020975
119	0x3ea98f4a	0.33117133
120	0xbf08a5fd	-0.5337828
121	0xbe5c49d0	-0.21512532
122	0xbf7d6d0b	-0.9899451
123	0xbe5dde67	-0.21666871
124	0xbf022666	-0.5083984
125	0x3f8d2dd9	1.1029617
126	0x3ecedac4	0.4040128
127	0xbea3f35f	-0.32021615
128	0x3e1cce92	0.15313175
129	0xbea02df8	-0.3128507
130	0xbe2cb022	-0.16864064
131	0x3eb645f6	0.3560025
132	0x3de03895	0.10948292
133	0xbe5fb78e	-0.21847364
134	0x3e4699f7	0.1939467
135	0x3f38716a	0.72048056
136	0x3e027953	0.12741594
137	0x3e6a4f03	0.22881703
138	0x3d826840	0.0636754
139	0x3d9a8fae	0.07546936
140	0x3ec7f7da	0.39056283
141	0x3f124285	0.5713275
142	0xbe889bbe	-0.26681322
143	0x3de7f2be	0.11325596
144	0x3ea85db1	0.3288398
145	0x3ee039f8	0.43794227
146	0xbe4012c1	-0.18757154
147	0x3e172cd1	0.1476319
148	0xbef63fd4	-0.48095572
149	0xbe842159	-0.25806692
150	0xbd6dc252	-0.058046646
151	0x3ec7019f	0.38868424
152	0xbeab556c	-0.3346361
153	0x3df72b8c	0.12068853
154	0xbf2b1ea9	-0.6684366
155	0xbe840dbc	-0.25791728
156	0x3e92a0e8	0.28638387
157	0x3f143d23	0.5790579
158	0x3d3436d7	0.04399761
159	0x3ec7a3dc	0.38992202
160	0x3eb24972	0.3482166
161	0x3ece01a3	0.40235624
162	0x3e113336	0.14179692
163	0xbe8104d1	-0.25198987
164	0x3d7f1c0a	0.0622826
165	0x3d9dbbcc	0.07701835
166	0xbd1e0b30	-0.038584888
167	0x3eb7f15c	0.3592633
168	0xbe9302ba	-0.28713018
169	0xbf0de364	-0.55425096
170	0xbe2ab4f6	-0.16670594
171	0x3d5c7a76	0.053827725
172	0x3f26c780	0.6514816
173	0xbe0e7830	-0.13913035
174	0xbe2a18c4	-0.1661101
175	0xbcf17f2a	-0.029479582
176	0xbe66bcaf	-0.22532915
177	0x3f5fc679	0.8741222
178	0xbf2da60e	-0.67831504
179	0xbe40d9fc	-0.18833154
180	0x3e99ce7f	0.30040357
181	0xbeecde82	-0.4626351
182	0x3d18cd97	0.03730544
183	0x3f1954d8	0.59895086
184	0xbf4b9359	-0.7952171
185	0x3ec212c3	0.3790494
186	0xbd9fda04	-0.07805255
187	0x3eec8881	0.46197894
188	0xbee57ca8	-0.44821668
189	0xbd8c747b	-0.068581544
190	0x3e28e2e0	0.16492796
191	0x3e02a98e	0.12759992
192	0xbd0bd49e	-0.034138314
193	0x3f22554f	0.6341142
194	0xbeb50843	-0.35357866
195	0x3f37a4a6	0.7173561
196	0xbe8d1496	-0.27554768
197	0x3dd0a1fa	0.101871446
198	0xbf3edc97	-0.74555343
199	0x3e76be37	0.24095999
200	0x3e56dbca	0.2098228
201	0x3e837b26	0.25679892
202	0x3f179bd0	0.59222126
203	0x3d1b7dbe	0.037961714
204	0x3d81cfc7	0.063384585
205	0x3ef47f90	0.47753572
206	0x3f19bd96	0.6005491
207	0x3e632c08	0.22184765
208	0xbdcec95f	-0.10097002
209	0x3df2fc80	0.11864567
210	0xbdca9157	-0.098910026
211	0x3b299c0e	0.002588037
212	0xbebc8735	-0.36821905
213	0xbd31c89d	-0.04340421
214	0x3ecbbfe7	0.39794847
215	0xbe20a564	-0.15688092
216	0x3cf32b34	0.029683687
217	0xbe7a7860	-0.24459982
218	0xbd85a3d6	-0.0652539
219	0x3e9e61d2	0.30934006
220	0x3eb2fd49	0.34958866
221	0x3ec55a3b	0.38545403
222	0xbe7bccfb	-0.24589913
223	0x3e4af338	0.19819343
224	0x3e8fe15a	0.28101617
225	0xbdde5df8	-0.10857767
226	0xbe63b882	-0.22238353
227	0x3efacdea	0.48985225
228	0x3e30d182	0.17267421
229	0x3e0f65b6	0.14003643
230	0x3e2be301	0.16785814
231	0xbde8742e	-0.113502845
232	0xba54f5a0	-0.0008123759
233	0xbc399223	-0.011326346
234	0xbe831e90	-0.25609255
235	0xbdd8466f	-0.10560309
236	0xbd4dc6fe	-0.050238602
237	0xbe753fa5	-0.2395006
238	0xbd833387	-0.064063124
239	0x3da3e248	0.08002144
240	0x3e485c68	0.195665
241	0xbedc2be9	-0.4300225
242	0xbe788aa1	-0.24271633
243	0xbceeef44	-0.029166825
244	0xbe79c2be	-0.24390694
245	0x3f2d27f8	0.6763911
246	0xbecae9a0	-0.39631367
247	0xbe82c2ac	-0.25539148
248	0x3d8e5f68	0.06951791
249	0x3e2221b9	0.15833177
250	0x3eb63e80	0.3559456
251	0xbedaa1fa	-0.42701703
252	0xbf3132f6	-0.69218385
253	0x3e042a8e	0.12906858
254	0x3e766237	0.24060903
255	0x3eabb452	0.3353601

encoder.lstm.weight_hh_l0 f4 [128, 32]
0	0xbf80f8ec	-1.0075965
1	0xbdde3435	-0.108498015
2	0xbe6d9cca	-0.23204342
3	0x3e987fbf	0.29784963
4	0x3f0f4d42	0.5597726
5	0xbea8c705	-0.3296434
6	0xbc981ab8	-0.018567428
7	0xbf18277a	-0.59435236
8	0xbc67d575	-0.014150013
9	0xbf16059e	-0.5860232
10	0xbe363323	-0.17792945
11	0xbeb1caf9	-0.34725168
12	0x3eb46752	0.35235077
13	0xbddaa6a9	-0.10676319
14	0x3ed6fb74	0.41988719
15	0xbea4e965	-0.32209316
16	0x3ea9b846	0.33148402
17	0xbe08c1b0	-0.13355136
18	0xbee7e5d0	-0.4529252
19	0xbf7f1687	-0.9964375
20	0xbded7e4f	-0.11596357
21	0x3e5ac955	0.21365865
22	0xbf361760	-0.7112942
23	0xbf133594	-0.5750363
24	0x3e6404f3	0.22267513
25	0xbe2217bd	-0.15829368
26	0xbd971590	-0.073771596
27	0xbd7da4c8	-0.061924726
28	0xbf212705	-0.62950164
29	0x3e58958f	0.21150802
30	0x3c284c05	0.010272031
31	0xbe4fa722	-0.202786
32	0xbe2bd53a	-0.16780558
33	0x3e624e38	0.2210015
34	0xbf0d5dd4	-0.55221295
35	0xbd4d4753	-0.05011685
36	0x3f278458	0.65436316
37	0xbeb65d38	-0.35617995
38	0x3eaba702	0.33525854
39	0xbcdae3d9	-0.026719974
40	0x3dd089d3	0.10182538
41	0xbd66a601	-0.056310657
42	0xbea31798	-0.31853938
43	0xbe1f1ee8	-0.15539134
44	0xbe679927	-0.22617017
45	0xbdc905d8	-0.09815568
46	0x3f3f1f32	0.74656975
47	0xbd0ad068	-0.033890158
48	0x3e4f1fc1	0.20226957
49	0x3ededdea	0.43528682
50	0x3eda0913	0.42585048
51	0x3d3e9a90	0.04653412
52	0xbf71008c	-0.9414146
53	0x3efe1d92	0.49631935
54	0x3e6374d4	0.22212535
55	0x3edcb132	0.4310394
56	0x3f5a541c	0.8528459
57	0xbcf0a00d	-0.029373193
58	0xbdea20c9	-0.114320345
59	0xbecadcdc	-0.39621627
60	0xbf461118	-0.77369833
61	0x3f232fa5	0.63744575
62	0x3f24cc33	0.64374083
63	0x3d3eb963	0.046563517
64	0x3f345bff	0.70452875
65	0xbcaee8da	-0.021351267
66	0xbedcfc0d	-0.4316105
67	0xbe5dc35f	-0.2165656
68	0x3f9ab615	1.2086817
69	0xbed27dc8	-0.41111588
70	0x3e830b1c	0.25594413
71	0xbcb94c2a	-0.022619326
72	0xbeb014ff	-0.3439102
73	0xbf8a3e59	-1.0800277
74	0x3c9d8b22	0.019231383
75	0xbf9b375b	-1.2126268
76	0xbc7d2dba	-0.015452797
77	0xbf54cbc5	-0.8312343
78	0x3e3fa66d	0.1871583
79	0xbe40ef8a	-0.18841377
80	0x3dd72c36	0.105064794
81	0xbed73681	-0.4203377
82	0x3f3a1056	0.72681177
83	0xbecdc8c1	-0.40192226
84	0xbf140718	-0.57823324
85	0x3ddf805c	0.109131545
86	0xbe5cd0e9	-0.21564068
87	0xbdcf8a51	-0.10133804
88	0x3f13d7f7	0.5775141
89	0xbf22a966	-0.6353973
90	0xbdcd336c	-0.100195736
91	0xbf751c88	-0.9574666
92	0xbeabccaf	-0.335546
93	0x3dff7092	0.12472643
94	0xbdd6aa1d	-0.10481665
95	0xbeef3db5	-0.46726766
96	0xbddc119b	-0.107455455
97	0xbe6f319c	-0.23358768
98	0x3ed1fdda	0.41013986
99	0xbe4008d3	-0.18753366
100	0xbee8ee2e	-0.45494217
101	0xbf44107d	-0.7658766
102	0xbc7265af	-0.014794751
103	0x3edcbc4d	0.43112412
104	0x3cfdb889	0.030971782
105	0x3e65a421	0.22425891
106	0x3e1d292d	0.15347739
107	0xbf267e87	-0.65036815
108	0xbdbcd3ff	-0.092201225
109	0xbf7b819a	-0.9824463
110	0xbe67541c	-0.22590679
111	0x3eaa7842	0.33294874
112	0x3f1d2918	0.6139083
113	0xbef3a448	-0.47586274
114	0x3ed1e326	0.40993613
115	0xbe4da1ff	-0.20081328
116	0xbe25ec34	-0.16203386
117	0xbe819855	-0.25311533
118	0xbeaf97eb	-0.34295592
119	0x3e2b29fa	0.16715232
120	0xbe269ba9	-0.16270317
121	0x3f2cdeb2	0.67527306
122	0xbf2236c1	-0.633648
123	0xbe453615	-0.19258912
124	0xbefd5442	-0.49478346
125	0xbec827cf	-0.39092872
126	0xbe68ce12	-0.2273486
127	0x3e884b14	0.2661978
128	0xbf08f8e7	-0.53504795
129	0x3e88dfd3	0.26733264
130	0xbdc2dcc0	-0.09514761
131	0x3e60fc9b	0.21971361
132	0x3f195d4d	0.5990799
133	0xbf4aa678	-0.7916026
134	0xbe34dbbc	-0.17661947
135	0x3f71b8fe	0.944229
136	0xbef73f7c	-0.48290622
137	0xbe234aae	-0.15946457
138	0xbe82e841	-0.2556782
139	0x3e573b72	0.2101877
140	0x3ecfc776	0.40581864
141	0x3d4ac602	0.04950524
142	0x3f2bcc29	0.671084
143	0x3e017004	0.12640387
144	0x3ec6cc9f	0.38827989
145	0xbc99a66a	-0.01875611
146	0xbe005158	-0.1253103
147	0xbeb00276	-0.34376878
148	0xbf03eccb	-0.5153319
149	0x3eb520f2	0.35376698
150	0x3e3653ff	0.1780548
151	0xbecce2b4	-0.4001671
152	0x3ee0207a	0.43774778
153	0x3d8cc741	0.06873942
154	0xbefd942d	-0.49527112
155	0x3eede0e2	0.46460634
156	0xbf3bba31	-0.7333098
157	0x3fa61e16	1.2977931
158	0xbf03f69b	-0.51548165
159	0xbebe30d9	-0.37146643
160	0x3e445031	0.19171216
161	0xbdd1f3ac	-0.10251555
162	0xbf2d2bbb	-0.6764485
163	0xbed3d06c	-0.4136995
164	0x3e07ab2d	0.13248892
165	0xbedcbb69	-0.43111733
166	0x3f337904	0.7010653
167	0x3f9c8ec1	1.2231065
168	0xbeab6d52	-0.33481842
169	0x3b6825b6	0.0035422868
170	0xbf0bf397	-0.54668564
171	0xbdce7e18	-0.10082644
172	0xbda359bc	-0.079761
173	0xbe0ae55f	-0.1356406
174	0x3cc6ccd0	0.024267584
175	0xbe613e37	-0.2199639
176	0x3e8bb10f	0.27283522
177	0x3dbab11e	0.09115814
178	0x3e4fe2a7	0.20301305
179	0xbda9995b	-0.08281203
180	0x3d928e2c	0.071560234
181	0x3f287e8b	0.6581809
182	0x3ef31028	0.47473264
183	0xbf0de0ad	-0.55420953
184	0xbe071761	-0.13192512
185	0xbee9672f	-0.45586535
186	0xbefaaafc	-0.48958576
187	0xbf0fac66	-0.56122434
188	0xbea3a988	-0.3196528
189	0x3ec811d9	0.39076117
190	0xbf03c4a8	-0.5147195
191	0xbc8e2359	-0.01735084
192	0x3e8c5555	0.27408853
193	0x3f07a8d7	0.52992004
194	0xbe9fad88	-0.3118708
195	0x3e9549a4	0.29157746
196	0x3cddeae7	0.02708955
197	0xbf06c4b8	-0.5264392
198	0xbe4c30f8	-0.19940555
199	0x3f60fb97	0.87883896
200	0xbea7ae16	-0.32750005
201	0xbdbfa57a	-0.09357734
202	0xbf2c8036	-0.67383134
203	0xbf00f450	-0.5037279
204	0xbdc64697	-0.09681433
205	0xbf2a98c5	-0.6663936
206	0xbe628d06	-0.22124109
207	0x3e265a0d	0.16245289
208	0xbda83446	-0.08213095
209	0x3e152de3	0.14568286
210	0xbea52181	-0.32252124
211	0x3e8e4027	0.2778332
212	0xbf3b7c68	-0.73236704
213	0x3f42fdc1	0.7616845
214	0xba377c70	-0.00069994386
215	0xbe882ed5	-0.2659823
216	0x3fa3fe9e	1.2812078
217	0xbf18b3e9	-0.5964952
218	0x3d982d38	0.074305
219	0xbe2c247e	-0.16810796
220	0xbf96d132	-1.1782591
221	0x3ec41d46	0.38303584
222	0x3e1a2829	0.15054382
223	0xbe40660b	-0.18788926
224	0x3c9287a1	0.017886939
225	0xbe555971	-0.208349
226	0xbf5d85cc	-0.8653228
227	0xbeb0d32a	-0.34536105
228	0x3f82ae3a	1.020942
229	0xbf0cda63	-0.5502073
230	0xbe8994a1	-0.26871207
231	0x3d4b9c6f	0.049709734
232	0xbe467e2a	-0.19384065
233	0xbe7ccdb5	-0.24687846
234	0xbe934474	-0.28763163
235	0xbdb58d5f	-0.08864855
236	0x3e5d7bd5	0.2162927
237	0xbed16380	-0.40896225
238	0x3f38c0aa	0.7216898
239	0xbe5c342c	-0.21504277
240	0x3ecad145	0.39612785
241	0x3e502595	0.20326836
242	0xbe61f7f7	-0.22067247
243	0x3de46ccf	0.11153566
244	0xbe106a45	-0.14103039
245	0x3ecbd2a4	0.39809144
246	0xbf3012e0	-0.687788
247	0xbefbbd71	-0.4916797
248	0xbea5feba	-0.32420903
249	0xbf301c1b	-0.68792886
250	0xbf18c0fe	-0.5966948
251	0xbf7f1b9a	-0.9965149
252	0xbf1b8060	-0.6074276
253	0x3ec56991	0.38557103
254	0xbe73b974	-0.23801214
255	0xbe83174f	-0.2560372

encoder.lstm.bias_ih_l0 f4 [128]
0	0x3f4d525a	0.80203784
1	0x3ef6f229	0.4823163
2	0x3ecf505c	0.40490997
3	0x3d5541a3	0.05206455
4	0x3e81ef59	0.2537792
5	0x3eef41ca	0.4672988
6	0x3efed99a	0.49775392
7	0x3ec9f467	0.39444277
8	0x3eb3d821	0.3512583
9	0x3ef7c0f2	0.48389393
10	0x3e724251	0.2365811
11	0x3c1cf3a2	0.009579571
12	0xbcd24243	-0.025666362
13	0x3f6bb5c4	0.9207423
14	0x3e4ffac7	0.20310508
15	0x3dad9986	0.08476548
16	0x3f1dd4a1	0.6165257
17	0x3f304da9	0.688685
18	0x3f339362	0.70146763
19	0xbb8bb138	-0.0042630695
20	0x3be0a79c	0.006855918
21	0x3e0740d8	0.1320833
22	0x3f0abe45	0.5419658
23	0x3ec1d338	0.3785646
24	0x3e86e5c1	0.26347163
25	0x3e9f0c89	0.3106425
26	0x3ef2c04e	0.47412342
27	0x3e82b282	0.25526816
28	0x3f557cba	0.8339344
29	0x3f129455	0.57257587
30	0xbe08d3d6	-0.13362059
31	0x3e473b21	0.1945615
32	0x3eb0b856	0.34515637
33	0xbed2a495	-0.4114119
34	0x3ebe7ed2	0.3720613
35	0x3e338dd0	0.17534566
36	0x3cbc4eca	0.022986788
37	0x3ee1dc39	0.4411333
38	0x3e30ca3c	0.17264646
39	0x3e90250f	0.28153273
40	0x3e5508b3	0.208041
41	0x3ee64cec	0.44980562
42	0x3e422b0b	0.18961732
43	0x3f27c2fb	0.6553189
44	0x3e924f44	0.285761
45	0x3ea1096d	0.31452504
46	0x3eb67476	0.35635728
47	0x3e984593	0.2974058
48	0x3f070f18	0.52757406
49	0x3e4c91d3	0.19977503
50	0x3ee40ed1	0.44542554
51	0x3e725262	0.23664239
52	0x3df44c5f	0.11928629
53	0x3e7cbe4b	0.24681966
54	0x3e6cc6f7	0.23122774
55	0x3ee84a61	0.45369247
56	0x3eb77efe	0.35839075
57	0x3ec981a8	0.39356732
58	0x3e505ba8	0.20347464
59	0x3e14d09d	0.14532705
60	0x3ed747eb	0.42047057
61	0x3f16de55	0.58933
62	0x3e546983	0.20743375
63	0xbd2bd0da	-0.041947223
64	0x3cdf9da2	0.027296845
65	0x3ca2bbbd	0.019864911
66	0xbe162407	-0.14662181
67	0xbe678046	-0.22607526
68	0x3e3d7f98	0.18505704
69	0xbe0e6c57	-0.13908516
70	0x3dcec147	0.100954585
71	0x3dde1734	0.108442694
72	0xbe652a43	-0.22379403
73	0xbd7a1cc2	-0.06106258
74	0x3df2fd85	0.11864761
75	0xbe608611	-0.21926142
76	0xbe60a830	-0.21939158
77	0xbe20b66a	-0.15694585
78	0xbc9c0867	-0.019046975
79	0x3e3b6a61	0.18302299
80	0x3d2efdb5	0.042722423
81	0xbe127a45	-0.14304455
82	0x3d17f916	0.03710278
83	0xbe1fc76b	-0.15603416
84	0xbf0e8faf	-0.55687994
85	0x3eb603ab	0.35549673
86	0xbe3625c0	-0.17787838
87	0xbc692e98	-0.0142323
88	0x3e81ff6e	0.2539019
89	0xbe93472f	-0.28765246
90	0xbe00c21e	-0.1257405
91	0xbdfccc46	-0.123436496
92	0xbe9b7e87	-0.3036997
93	0x3eb06dfe	0.34458917
94	0xbe807d89	-0.25095776
95	0xbe0ff7b9	-0.14059342
96	0x3ec0b880	0.37640762
97	0x3e9ebece	0.31004947
98	0x3e243ea1	0.16039516
99	0x3ed6664c	0.4187492
100	0x3e2e0b2d	0.1699645
101	0xbd2f77bc	-0.042838797
102	0x3e8809b7	0.26569912
103	0x3d4277b3	0.047477435
104	0x3f351230	0.70730877
105	0x3e56759f	0.20943306
106	0xbe1a12ca	-0.1504623
107	0x3daf1a2f	0.08549916
108	0x3dc95865	0.09831313
109	0xbd3649c4	-0.044503942
110	0xbe9b4667	-0.3032715
111	0x3d90e1a2	0.07074286
112	0x3db5b573	0.08872499
113	0x3f0f0f8f	0.55883116
114	0x3e6284ea	0.22121015
115	0x3db14161	0.08655048
116	0xbcbe73cd	-0.023248577
117	0xbedcd106	-0.43128222
118	0xbdc6726b	-0.09689792
119	0xbd68a3d3	-0.05679686
120	0xbe050088	-0.12988484
121	0x3e3bd8b7	0.18344389
122	0x3df216b4	0.118207365
123	0x3d668d5f	0.056287166
124	0x3d84d128	0.06485206
125	0xbe84bff5	-0.25927702
126	0xbdda8bca	-0.10671194
127	0x3e0b6821	0.13613941

encoder.lstm.bias_hh_l0 f4 [128]
0	0x3f120d37	0.57051414
1	0x3eef8383	0.46780023
2	0x3e20a02a	0.15686098
3	0x3e57185e	0.21005389
4	0x3e9a4e6d	0.3013796
5	0x3e71fbbc	0.23631185
6	0x3ec2818d	0.37989464
7	0x3e9425d7	0.2893512
8	0x3e07ed6f	0.13274167
9	0x3eff8e94	0.49913466
10	0x3e818726	0.25298423
11	0x3e4a4fe3	0.19757037
12	0xbb9b815e	-0.0047456464
13	0x3f830789	1.0236675
14	0x3c8f6b26	0.017507147
15	0x3e8b6a5d	0.27229586
16	0x3ec57aac	0.38570154
17	0x3f401fbf	0.7504844
18	0x3eed3810	0.46331835
19	0xbdce8c51	-0.10085357
20	0xbe04886b	-0.12942664
21	0x3e7452bc	0.23859686
22	0x3f02ab3c	0.5104253
23	0x3e4e790c	0.20163363
24	0x3e89d5be	0.26920885
25	0x3efbf44c	0.4920982
26	0x3ead0f43	0.33800706
27	0x3d93fc80	0.07225895
28	0x3f1c3316	0.6101545
29	0x3f356829	0.7086206
30	0xbd8d2aca	-0.06892927
31	0x3e81f794	0.253842
32	0x3e6abc71	0.22923447
33	0xbee6cf8a	-0.45080215
34	0x3da4d7d8	0.080489814
35	0x3e1f3c43	0.15550332
36	0x3e550f82	0.20806697
37	0x3ee8ff26	0.45507163
38	0x3dbe5f0e	0.09295474
39	0x3eec8b44	0.462
40	0x3e3c8e94	0.18413764
41	0x3f149e6d	0.5805424
42	0x3e36ffb1	0.17870976
43	0x3f05dfab	0.52294415
44	0x3e71ca30	0.23612285
45	0x3f0a0bd0	0.53924274
46	0x3ea77b0e	0.3271107
47	0x3e9e11ba	0.308729
48	0x3eed4916	0.46344823
49	0x3e60e827	0.21963559
50	0x3e97f7e7	0.29681322
51	0xbc49cefa	-0.012317413
52	0x3dcf6f8e	0.10128699
53	0x3e9c45fa	0.30522138
54	0x3d0f1ef1	0.034941617
55	0x3ed86ca4	0.42270386
56	0x3ea975b8	0.33097625
57	0x3f0060e3	0.5014784
58	0x3e98de97	0.29857323
59	0x3ed3bbd2	0.41354233
60	0x3f06270e	0.5240334
61	0x3ee30d12	0.4434591
62	0x3ecba20f	0.39772078
63	0x3e3788c8	0.17923272
64	0x3e3119a9	0.17294945
65	0xbe50ef45	-0.20403774
66	0xbe93f34f	-0.28896567
67	0xbe5363be	-0.20643517
68	0x3da65544	0.08121732
69	0xbe4b8167	-0.19873582
70	0x3e4502c8	0.19239342
71	0x3d7a3a56	0.06109079
72	0xbdcc54b3	-0.099770926
73	0xbe330d4e	-0.17485544
74	0xbd5e0e83	-0.05421306
75	0xbe3c6fa4	-0.18401963
76	0x3bd2ef99	0.0064372537
77	0xbd57a8de	-0.05265128
78	0x3c908846	0.017643105
79	0xbda070da	-0.07834025
80	0x3e7526e0	0.23940611
81	0xbe21a2bc	-0.15784734
82	0xbd531443	-0.051532995
83	0xbde119c0	-0.109912395
84	0xbf0fa69b	-0.56113595
85	0x3e0f157e	0.13973042
86	0xbe97641d	-0.29568568
87	0xbe2dfbc7	-0.16990577
88	0x3e5d1ceb	0.21593063
89	0xbe725d41	-0.23668386
90	0xbeacf6b5	-0.33781973
91	0xbe44e30e	-0.1922724
92	0xbe9534ca	-0.29141837
93	0x3e9aa300	0.30202484
94	0xbea7995e	-0.32734197
95	0xbe606f78	-0.21917522
96	0x3edb5100	0.42835236
97	0x3e8b1d38	0.2717073
98	0x3e30ae18	0.17253911
99	0x3e910ab7	0.28328487
100	0x3e825259	0.2545345
101	0xbe00c0cc	-0.12573546
102	0x3e616ea2	0.2201486
103	0xbe7be075	-0.24597342
104	0x3f14503a	0.57934916
105	0x3e8898e6	0.26679152
106	0xbdb767e4	-0.089553624
107	0xbcbb5ea4	-0.022872277
108	0xbbb431b1	-0.0054990877
109	0x3ddb581d	0.10710166
110	0xbe157492	-0.1459525
111	0xbda01879	-0.07817168
112	0xbd87a952	-0.06624092
113	0x3f482775	0.78185207
114	0x3cc767f9	0.02434157
115	0x3e73f020	0.23822069
116	0xbde6483e	-0.11244248
117	0xbeb3c114	-0.35108244
118	0xbddfb0a7	-0.10922366
119	0x3e2293d9	0.15876712
120	0xbe41c76a	-0.18923727
121	0xbc8ebb87	-0.017423404
122	0xbbc617b0	-0.0060453042
123	0x3e2ea21d	0.17054029
124	0x3df114b8	0.1177153
125	0xbe603a7d	-0.21897312
126	0x3e112b56	0.14176688
127	0x3e8542a3	0.26027402

policy.net.0.weight f4 [128, 32]
0	0xbe2e0983	-0.16995816
1	0xbe52cb01	-0.20585252
2	0x3d91ce33	0.071194075
3	0xbe309de6	-0.17247733
4	0x3cae5753	0.021281874
5	0x3cbd543d	0.023111457
6	0x3dc9a3d7	0.09845703
7	0x3ed104b5	0.40823904
8	0x3e83d996	0.25751942
9	0xbe7f0a54	-0.24906284
10	0xbe8faeef	-0.2806315
11	0xbed5d032	-0.41760403
12	0xbec8ec70	-0.39242887
13	0xbcf6307d	-0.030052418
14	0xbe8e60eb	-0.27808318
15	0xbe30f1a9	-0.17279686
16	0xbe855dc9	-0.26048115
17	0xbc9a676b	-0.018848142
18	0xbeca0f82	-0.39464957
19	0x3ef79daa	0.48362476
20	0x3ee3128c	0.44350088
21	0xbe25b33d	-0.16181655
22	0xbdf7e300	-0.12103844
23	0xbddb0c23	-0.10695674
24	0xbe4e7b14	-0.20164138
25	0x3e9e3fca	0.30908042
26	0xbe67d3f1	-0.22639443
27	0xbdda8982	-0.10670759
28	0x3de07a8e	0.109608755
29	0xbe491661	-0.19637443
30	0xbe24b982	-0.1608639
31	0xbe7d5b5a	-0.24741879
32	0xbc0409ac	-0.008058947
33	0xbd695012	-0.056961127
34	0xbdfbf685	-0.12302879
35	0x3e20c92a	0.15701738
36	0x3e9493cc	0.2901901
37	0x3dd24dca	0.10268743
38	0xbea9eb8b	-0.33187518
39	0x3d9d57aa	0.07682736
40	0x3eceb293	0.40370616
41	0xbc9ffc6b	-0.019529542
42	0xbe0bf49d	-0.13667531
43	0xbeaddbc9	-0.33956745
44	0xbe8e4830	-0.2778945
45	0x3e263924	0.16232735
46	0xbe10c752	-0.14138535
47	0xbe019037	-0.1265267
48	0xbe1da862	-0.15396264
49	0xbe162d9e	-0.14665839
50	0xbd791645	-0.060812254
51	0x3e180d94	0.1484893
52	0xbe74dcac	-0.23912305
53	0xbd433b63	-0.047664057
54	0xbc935ee5	-0.017989585
55	0x3e121df0	0.14269233
56	0x3e27587b	0.16342346
57	0x3e82d505	0.25553146
58	0x3ed5e897	0.41779014
59	0x3e77ef59	0.24212398
60	0x3cfa2146	0.030533444
61	0xbca61de3	-0.020277923
62	0x3e0bfc21	0.13670398
63	0xbec42f80	-0.3831749
64	0xbe87919f	-0.26478288
65	0xbe9550b8	-0.29163146
66	0xbd160660	-0.036627173
67	0xbd8ac6b3	-0.0677618
68	0x3d7aa8e0	0.061196208
69	0xbeafa249	-0.343035
70	0xbe2e9ca6	-0.17051944
71	0x3e8b4693	0.2720228
72	0x3f49b846	0.78796804
73	0xbce1a1a1	-0.027542891
74	0xbeaf6c84	-0.34262478
75	0xbe447ff1	-0.19189431
76	0xbf4a7dac	-0.7909801
77	0x3dca9744	0.09892133
78	0xbef6a8fd	-0.48175803
79	0x3e5ec5d5	0.21755154
80	0xbe1e2383	-0.15443234
81	0xbe3c1b07	-0.18369685
82	0xbe83b6e7	-0.2572548
83	0x3ea4b0b3	0.3216606
84	0xbee39d7e	-0.44456095
85	0xbdf0882e	-0.11744724
86	0xbc70e821	-0.014703781
87	0xbe6932a4	-0.22773224
88	0xbe56ce20	-0.20977068
89	0x3ef59ed8	0.4797275
90	0x3e2c88cb	0.16849057
91	0x3ccdff77	0.02514623
92	0x3e2baf81	0.16766168
93	0xbe4d880b	-0.20071428
94	0x3bb4dcdf	0.005519494
95	0xbe845b68	-0.25850987
96	0x3ee0ec2b	0.43930182
97	0xbf083b04	-0.5321505
98	0xbedbe715	-0.4294974
99	0x3ef2fd67	0.47458956
100	0x3eafff10	0.34374285
101	0xbef44c29	-0.47714356
102	0xbf63f5f3	-0.89047164
103	0x3e3fb386	0.18720827
104	0x3f202859	0.62561566
105	0xbe78c113	-0.24292402
106	0x3e24c20e	0.16089651
107	0xbf0d25e4	-0.5513594
108	0xbf4ed8c4	-0.8079951
109	0xbef326b6	-0.47490472
110	0x3cc319bc	0.023815982
111	0xbef6a807	-0.4817507
112	0xbe002749	-0.12514986
113	0x3f14eb82	0.58171856
114	0xbccb7f12	-0.024840865
115	0x3d503880	0.050835133
116	0xbf363d98	-0.71187735
117	0xbe46f525	-0.19429453
118	0x3e3147f8	0.1731261
119	0xbf01bc7b	-0.50678223
120	0xbebc026a	-0.36720592
121	0x3d75b6a3	0.05998863
122	0x3e7ec5af	0.24880098
123	0x3f33cf30	0.7023802
124	0x3e851d75	0.25999036
125	0xbe85030f	-0.25978896
126	0x3efac60c	0.48979223
127	0xbf0b3a37	-0.54385704
128	0x3e35f05c	0.17767471
129	0x3f28b223	0.65896815
130	0xbdc1f8bf	-0.09471273
131	0xbe5c6eb8	-0.21526611
132	0xbd825db9	-0.063655324
133	0x3ed728e6	0.4202339
134	0xbef941de	-0.48683065
135	0xbe27e588	-0.16396153
136	0xbeb386f9	-0.35063913
137	0xbe0c2a94	-0.13688117
138	0x3ebeda98	0.3727615
139	0xbf42bf24	-0.7607291
140	0xbf876f91	-1.0580922
141	0x3dbf656f	0.09345519
142	0xbedef4c1	-0.43546107
143	0xbee0f19b	-0.4393433
144	0xbeb9463e	-0.36186403
145	0xbf411c5a	-0.75433886
146	0x3cce6634	0.025195219
147	0xbe891416	-0.26773137
148	0xbf0f920e	-0.56082237
149	0xbf0ed614	-0.5579541
150	0xbdf646c1	-0.12025214
151	0x3b5a0c65	0.0033271548
152	0xbf141a13	-0.57852286
153	0x3e6766b7	0.22597776
154	0x3f2e659d	0.681238
155	0xbe572da8	-0.2101351
156	0x3dfd1669	0.1235779
157	0xbf233e73	-0.63767165
158	0x3e62a974	0.22134954
159	0xbe8f1194	-0.279431
160	0xbdfba451	-0.122872
161	0xbef8e8b6	-0.48615044
162	0xbeb9473f	-0.3618717
163	0x3eaeb01d	0.3411874
164	0x3e709c85	0.23497207
165	0xbf2b8342	-0.6699716
166	0x3f1991e6	0.5998825
167	0xbe4959f9	-0.19663228
168	0xbe8e4b5d	-0.27791873
169	0x3e567e15	0.20946534
170	0xbe8c59ee	-0.2741236
171	0xbdb87a76	-0.090077326
172	0x3e426c92	0.18986729
173	0xbf21df1c	-0.6323106
174	0xbd2a4b9e	-0.04157602
175	0xbe633088	-0.22186482
176	0x3d476d52	0.04868824
177	0x3ef7ebe4	0.48422158
178	0xbe2bf1dc	-0.16791481
179	0xbdf8860c	-0.121349424
180	0xbdfdd989	-0.12395007
181	0x3b0b86d9	0.0021290092
182	0xbe80832b	-0.25100073
183	0xbed7e5e9	-0.42167595
184	0xbf4986ba	-0.787212
185	0x3e0c4a02	0.13700107
186	0xbe58a931	-0.21158291
187	0x3eb38054	0.35058844
188	0x3e4dcd66	0.20097885
189	0x3bf345f8	0.0074241124
190	0xbe221035	-0.15826495
191	0x3f0a28a8	0.53968287
192	0xbd5efee2	-0.054442294
193	0x3efceef7	0.49401066
194	0x3ef211c9	0.47279194
195	0xbf3db25b	-0.74100274
196	0x3f4b35a2	0.7937871
197	0x3dc11c71	0.09429253
198	0x3e50d77d	0.20394702
199	0xbebb97c8	-0.36639237
200	0xbdce9109	-0.10086257
201	0xbcbe634e	-0.023240712
202	0xbe529841	-0.20565893
203	0xbe0c4c96	-0.1370109
204	0xbefc99eb	-0.4933618
205	0x3df9879e	0.1218407
206	0xbf1314b3	-0.5745346
207	0xbcf93c28	-0.030424193
208	0xbe17f9a1	-0.1484132
209	0xbf07297b	-0.5279767
210	0xbeb447bd	-0.35210982
211	0xbf174d49	-0.591023
212	0xbd3d6ff1	-0.046249334
213	0xbe530b6f	-0.2060983
214	0x3d9c7adb	0.0764062
215	0x3ec32f98	0.3812225
216	0x3e3df996	0.1855224
217	0x3e128cd8	0.1431154
218	0xbc365872	-0.011129485
219	0xbe47972d	-0.19491263
220	0x3e195f42	0.14977744
221	0xbed52027	-0.41626093
222	0xbeb693aa	-0.35659534
223	0xbea57d16	-0.32321995
224	0x3c955e81	0.01823354
225	0x3eb74d77	0.35801288
226	0x3ec65ab6	0.38741082
227	0xbe4eb0ec	-0.20184678
228	0x3d9da721	0.07697893
229	0x3e8f6a75	0.28010908
230	0xbde5bf5e	-0.11218141
231	0xbef35c74	-0.47531474
232	0xbe0731be	-0.13202569
233	0x3e8218bd	0.254095
234	0x3b5ef8d0	0.0034022816
235	0xbec1491c	-0.3775109
236	0xbe749964	-0.23886639
237	0x3e1f8c98	0.15580976
238	0x3d8829a3	0.066485666
239	0x3b7586e8	0.0037464444
240	0xbded2fff	-0.1158142
241	0xbe211acc	-0.15732878
242	0xbe1ec4b8	-0.1550473
243	0x3d8d57a9	0.069014855
244	0x3e3719b4	0.17880899
245	0xb72a05b9	-1.0134122e-05
246	0xbeddb935	-0.43305364
247	0x3d045b4b	0.032313626
248	0x3e258646	0.16164503
249	0x3e758fb2	0.23980597
250	0xbe3ffba5	-0.18748339
251	0xbda74c1d	-0.08168814
252	0x3d13d453	0.03609116
253	0x3e138588	0.14406407
254	0xbed0ff23	-0.40819654
255	0x3e4e9bd8	0.20176637

policy.net.0.bias f4 [128]
0	0xbe656136	-0.22400364
1	0xbe8bab08	-0.27278924
2	0xbee77adc	-0.45210922
3	0x3e179133	0.14801483
4	0xbe3ddd19	-0.18541373
5	0xbf014cbb	-0.50507706
6	0xbf0fa2bb	-0.5610768
7	0xbee6a421	-0.45047095
8	0xbe74a341	-0.23890401
9	0x3e016946	0.12637815
10	0xbe9fbd2a	-0.31199008
11	0xbea2155f	-0.3165693
12	0xbebb16b2	-0.36540753
13	0x3cfdf6b0	0.031001419
14	0xbedc5fc7	-0.43041822
15	0xbeb125a3	-0.34599027
16	0xbe9e5a34	-0.30928195
17	0x3dc7af11	0.09750188
18	0xbedf38ac	-0.43597925
19	0xbeb5516c	-0.35413682
20	0xbc29ab31	-0.010355757
21	0xbec24adf	-0.37947747
22	0x3d108b01	0.035288814
23	0xbe61878f	-0.22024368
24	0xbe2d1fb1	-0.1690662
25	0xbedb3207	-0.42811605
26	0xbeadd6ad	-0.33952847
27	0xbe016429	-0.12635864
28	0xbea0772c	-0.3134092
29	0xbe94e282	-0.29079062
30	0xbefa8c06	-0.48934954
31	0xbee24b3b	-0.4419802
32	0xbe857a9f	-0.26070115
33	0xbeb88d58	-0.36045337
34	0xbe7410de	-0.2383456
35	0x3c9abccf	0.01888886
36	0xbee6e073	-0.45093116
37	0xbe9da386	-0.3078882
38	0xbdfa4ab2	-0.12221278
39	0xbea08e10	-0.31358385
40	0xbd182963	-0.037148844
41	0xbe27ddae	-0.16393158
42	0xbddd1ece	-0.10796891
43	0xbef7510a	-0.48304015
44	0xbec916d6	-0.39275235
45	0x3b9f4125	0.0048600608
46	0xbeedc48b	-0.46439013
47	0xbedcd569	-0.4313157
48	0xbc3a9a79	-0.011389368
49	0xbc56590b	-0.013082753
50	0xbeec8915	-0.46198335
51	0xbedd5f75	-0.4323689
52	0xbda0c5d6	-0.07850234
53	0xbedc4f3c	-0.430292
54	0xbf08ff29	-0.53514344
55	0xbebc9399	-0.36831358
56	0xbe05ba29	-0.13059296
57	0x3d055ef9	0.032561276
58	0xbeb79f34	-0.3586365
59	0xbeaf0ec9	-0.34190968
60	0xbe95f724	-0.29290116
61	0xbec8c0d3	-0.39209613
62	0xbe47aefe	-0.19500348
63	0xbe2d8ff4	-0.16949445
64	0xbeaa72dc	-0.33290756
65	0xbe591518	-0.21199453
66	0xbeb01a5b	-0.34395108
67	0xbdc4aaa8	-0.096028626
68	0xbec22cd3	-0.37924823
69	0xbe597602	-0.21236423
70	0xbf0bfece	-0.54685676
71	0xbebe22f1	-0.37136033
72	0xbcebed88	-0.028799787
73	0xbe954a57	-0.2915828
74	0xbe597424	-0.2123571
75	0xbed60ce2	-0.41806704
76	0xbdf8b148	-0.12143189
77	0xbd69d844	-0.057091013
78	0x3dca7c2d	0.09886966
79	0xbe84cf94	-0.2593962
80	0xbe79d37b	-0.2439708
81	0xbecf9d39	-0.4054964
82	0xbe8e3944	-0.27778065
83	0xbea21089	-0.3165324
84	0xbe32537e	-0.17414662
85	0xbeea700f	-0.4578862
86	0xbee3d686	-0.44499606
87	0x3d59e422	0.05319608
88	0x3d385757	0.04500517
89	0xbe735e6e	-0.23766491
90	0xbeda2b67	-0.42611238
91	0x3e256cf0	0.16154838
92	0xbedcf8fe	-0.43158716
93	0x3dc912f7	0.098180704
94	0xbe947933	-0.28998718
95	0xbddd11b5	-0.10794393
96	0xbee6c518	-0.45072246
97	0xbe9a36c4	-0.30119908
98	0xbece3e2f	-0.40281817
99	0xbef30d1f	-0.47470948
100	0x3e47bc01	0.19505312
101	0xbeb7c0fa	-0.35889417
102	0xbe853bef	-0.26022288
103	0x3d731593	0.059346747
104	0x3d9ee2db	0.07758113
105	0x3dc0e372	0.09418382
106	0xbe337137	-0.17523657
107	0xbece8bee	-0.40341133
108	0x3d04c8ef	0.032418188
109	0xbeb827d0	-0.35967875
110	0xbee569a4	-0.4480716
111	0x3d95c3cc	0.07312736
112	0xbd2bb4db	-0.041920524
113	0xbe291c9f	-0.16514824
114	0xbecc040b	-0.39846835
115	0x3e39227b	0.1807956
116	0xbe583e83	-0.21117596
117	0xbe841f2f	-0.2580504
118	0xbe8c99f0	-0.27461195
119	0xbe7c4fe4	-0.24639851
120	0xbee5d208	-0.44886804
121	0xbe616a61	-0.22013237
122	0x3de52b1e	0.111898646
123	0xbe8d3fce	-0.27587742
124	0xbe9ab797	-0.30218193
125	0xbe720c24	-0.23637444
126	0x3d693c0b	0.056942027
127	0xbe3007ac	-0.17190427

policy.net.2.weight f4 [5, 128]
0	0xbf85c01e	-1.0449255
1	0xbecd1575	-0.40055433
2	0xbfa9739f	-1.323841
3	0xbf28798d	-0.6581047
4	0xc04eecfd	-3.2332146
5	0xbfd5243f	-1.6651686
6	0xbfe232fd	-1.767181
7	0x3cb5acd9	0.022177147
8	0xbe94ef8f	-0.2908902
9	0xbfc2ca86	-1.5218055
10	0xbfafa164	-1.3721128
11	0xbf6eadd7	-0.9323401
12	0xbeaa49a6	-0.33259314
13	0xbfafac1d	-1.37244
14	0xbf005ccb	-0.5014159
15	0xbf5de342	-0.8667489
16	0xbfa7d8d3	-1.3113045
17	0xc00f1de4	-2.2361994
18	0xbe44df54	-0.19225818
19	0xbfd51def	-1.664976
20	0xc050e38a	-3.263888
21	0xbf0427b7	-0.516231
22	0xbf579964	-0.8421843
23	0xc081ddf4	-4.058344
24	0xbfbd4796	-1.4787471
25	0xbf985874	-1.1901994
26	0xbeac7887	-0.33685705
27	0xbe98db78	-0.2985494
28	0xbef7bf71	-0.48388246
29	0xbeaf233d	-0.34206572
30	0xbf054599	-0.5205932
31	0xbea83e80	-0.32860184
32	0xbf3d1912	-0.7386638
33	0xbe3dff85	-0.18554504
34	0xbf04348f	-0.516427
35	0xbf17454c	-0.59090114
36	0xbfd0574e	-1.6276643
37	0xc0236eea	-2.5536447
38	0xbf5c14ff	-0.8596954
39	0xbf728fab	-0.9475047
40	0xc001a8a1	-2.0259173
41	0xbe6bee0d	-0.23040028
42	0xbf8695cb	-1.0514463
43	0xbe9cf9ac	-0.30659235
44	0xbfd35d6c	-1.6512885
45	0xbf63a4d8	-0.88923407
46	0xbe625c8f	-0.22105621
47	0xbe8cb71a	-0.27483445
48	0xbf2469a6	-0.64223707
49	0xc0240c10	-2.5632362
50	0xbf66f0de	-0.90211284
51	0xbede559c	-0.4342469
52	0xbf6d0bf9	-0.92596394
53	0xbf4ec6d4	-0.8077214
54	0xbed18661	-0.40922835
55	0xbf66ecb2	-0.9020492
56	0xc05b08fc	-3.4224234
57	0xbfb40941	-1.4065324
58	0xbf36663b	-0.7124974
59	0xc00ba669	-2.1820319
60	0xbf049cee	-0.51801956
61	0xbef323b1	-0.47488168
62	0xbf1afef9	-0.6054531
63	0xc089460e	-4.2898016
64	0xc070a661	-3.760155
65	0xc0398e51	-2.8993113
66	0xbe8d7d84	-0.27634823
67	0xc0662831	-3.596203
68	0xbfea5ebe	-1.8310163
69	0xbf16d80f	-0.5892343
70	0xbfc1b2eb	-1.5132726
71	0xc0452689	-3.080477
72	0xbfae1fde	-1.3603475
73	0xbf3733ec	-0.715636
74	0xbfa10080	-1.2578278
75	0xbd8c6869	-0.06855852
76	0xbf2b9877	-0.6702952
77	0xbf4184cb	-0.7559325
78	0xbf10cb27	-0.56559986
79	0xbfc4be3b	-1.5370554
80	0xbfc8e6e6	-1.5695465
81	0xbe9fff06	-0.31249255
82	0xbe7f75a3	-0.24947219
83	0xbea75c4b	-0.326876
84	0xbf22a069	-0.63526016
85	0xbe20383a	-0.15646449
86	0xbf87b1ea	-1.060117
87	0xc010c04b	-2.2617366
88	0xc077e8c8	-3.8735828
89	0xbf139cb5	-0.5766099
90	0xbf317154	-0.6931355
91	0xbf2fc24f	-0.68655866
92	0xbf264078	-0.6494212
93	0xc0256dac	-2.5848188
94	0xbf35aedc	-0.7096994
95	0xbed73dc6	-0.42039317
96	0xbe83ab53	-0.25716648
97	0xbf4119e4	-0.7543013
98	0xbf8c7542	-1.0973284
99	0xbe8da2ae	-0.27663177
100	0xbfdbd353	-1.7173866
101	0xbf23b970	-0.6395483
102	0xbf17ffed	-0.59374887
103	0xbfd84927	-1.6897324
104	0xbf9ff2d4	-1.249598
105	0xbf951dc5	-1.164971
106	0xbf65b54d	-0.8972977
107	0xbf095a0e	-0.5365304
108	0xc041d41c	-3.0285711
109	0xbe0de010	-0.13855004
110	0xbf021994	-0.5082028
111	0xc0ace1f9	-5.4025846
112	0xc06857a5	-3.6303494
113	0xbf877253	-1.0581764
114	0xbe85277f	-0.26006696
115	0xc05c042c	-3.4377546
116	0xbf9ca8d3	-1.2239021
117	0xbfb5675e	-1.417217
118	0xbfb4c02c	-1.4121146
119	0xbeb907d2	-0.3613878
120	0xbec83287	-0.3910105
121	0xbf0a15ec	-0.539397
122	0xbfae97ae	-1.3640039
123	0xbe7f7a89	-0.24949087
124	0xbea9589f	-0.33075425
125	0xbec5c3f2	-0.38626057
126	0xbf45350b	-0.7703406
127	0xbfae77a9	-1.3630267
128	0xbc9f94c4	-0.019480117
129	0xbd60b967	-0.054864313
130	0xbe832503	-0.25614175
131	0x3dd3066e	0.10303961
132	0xbf909d1a	-1.1297944
133	0x3f81b228	1.0132494
134	0xbee87f24	-0.454095
135	0x3d5ba507	0.05362418
136	0x3d908477	0.07056516
137	0x3e37c3e4	0.1794582
138	0x3e254399	0.16139068
139	0xbc749704	-0.014928583
140	0xbe83b3a2	-0.25722986
141	0x3dc0d457	0.094155006
142	0x3cfa3138	0.030541047
143	0x3e7fb497	0.24971233
144	0x3d9a6ce9	0.07540304
145	0x3de8085c	0.113297194
146	0xbf06d71a	-0.5267197
147	0x3d6e8c25	0.05823912
148	0x3d9fa409	0.07794959
149	0x3d3bccdc	0.045849666
150	0x3e016e86	0.12639818
151	0xbd274133	-0.040833663
152	0x3f170a28	0.5899987
153	0x3e4f82c3	0.20264725
154	0xbcbb1d35	-0.022841075
155	0xbf19a931	-0.6002379
156	0x3d99b276	0.07504742
157	0x3e516f55	0.20452626
158	0x3eafce19	0.34336928
159	0x3e801736	0.2501771
160	0x3f253211	0.6452952
161	0xbe9e27ac	-0.30889642
162	0xbf126a58	-0.5719352
163	0x3daef3be	0.08542584
164	0x3db4171c	0.0879347
165	0xbf412a94	-0.75455594
166	0xbc50bf17	-0.012740872
167	0x3d1c3138	0.038132876
168	0xbe10daa8	-0.1414591
169	0xbe4cf834	-0.20016557
170	0xbc546e2f	-0.012965723
171	0xbe6d6aca	-0.23185268
172	0x3dfbb54e	0.122904405
173	0x3e664f82	0.22491267
174	0x3dfad83a	0.12248273
175	0xbeb19549	-0.34684208
176	0x3d139328	0.03602901
177	0x3eb90cec	0.3614267
178	0xbf28e976	-0.65981233
179	0xbe8957a2	-0.2682467
180	0x3d9c985b	0.07646247
181	0x3e13e71a	0.14443627
182	0xbeac9690	-0.3370862
183	0xbf49f45e	-0.788885
184	0x3f1de495	0.61676913
185	0xbe0a8c03	-0.13529973
186	0xbef66b75	-0.48128858
187	0xbe45210e	-0.1925089
188	0x3d1f19ec	0.03884308
189	0x3d1b16d0	0.037863553
190	0x3dd041ee	0.10168825
191	0x3e39de1a	0.18151131
192	0xbdad419e	-0.08459781
193	0xbd925a50	-0.07146132
194	0xbce4cfc5	-0.027931103
195	0xbd544df9	-0.051832173
196	0xbe15714a	-0.14593998
197	0x3c98ec84	0.018667467
198	0xbef99924	-0.4874965
199	0x3d522c1a	0.05131159
200	0xbeaa15d5	-0.33219782
201	0x3e20f6c6	0.15719137
202	0x3dc8271c	0.097730845
203	0x3d8533ef	0.06504046
204	0xc00220ab	-2.033244
205	0x3dfc8875	0.123307146
206	0xbf402096	-0.7504972
207	0x3d792132	0.060822673
208	0x3d164f73	0.036696862
209	0x3c9a1a52	0.018811379
210	0x3d7c17c4	0.061546102
211	0x3d3383bb	0.0438268
212	0x3e13cf5d	0.14434572
213	0xbf5f65b3	-0.87264556
214	0xbfaaddcc	-1.3348937
215	0xbf814bb3	-1.0101227
216	0x3d91cbc6	0.07118945
217	0x3d986103	0.074403785
218	0x3cc60d29	0.024176197
219	0x3ee34f46	0.44396418
220	0x3ea29c2a	0.3175977
221	0x3d97aeca	0.07406385
222	0xbf831bef	-1.02429
223	0xc017be70	-2.3709984
224	0xbe3dd24d	-0.18537255
225	0xbd72dea5	-0.05929436
226	0x3cd8ff7e	0.026489016
227	0xbefa6a93	-0.48909435
228	0x3dfd106c	0.12356648
229	0x3dcc5ddb	0.09978839
230	0x3d54913c	0.05189632
231	0x3d909776	0.07060139
232	0x3d5d0ba6	0.053966187
233	0xbdd03d2a	-0.10167916
234	0x3dccc5f2	0.099986926
235	0xc00f803c	-2.2422018
236	0xbe49f89c	-0.19723743
237	0xbf832fff	-1.0249022
238	0x3e0a5808	0.13510144
239	0x3de03947	0.10948425
240	0x3e2b145e	0.16706988
241	0x3eaa2186	0.332287
242	0x3e60df24	0.21960121
243	0xbea6a2bc	-0.3254603
244	0x3e65497c	0.22391313
245	0xbe828ac9	-0.2549651
246	0x3d65a100	0.056061745
247	0x3b42be84	0.0029715607
248	0xbeae8f34	-0.3409363
249	0x3d0a5d90	0.033780634
250	0xbfa36eae	-1.2768152
251	0xbf5aec30	-0.85516644
252	0x3e684c37	0.22685324
253	0x3d313f6f	0.043273386
254	0x3dcff6d9	0.10154504
255	0x3dc7fc88	0.097649634

policy.net.2.bias f4 [5]
0	0xc0df404e	-6.9765997
1	0xbd95cb6e	-0.07314192
2	0x3da19b68	0.078909695
3	0xbd3f2900	-0.04666996
4	0x3e4d47ae	0.20046875

exp_avg f4 [900, 16]
0	0xb5861de4	-9.992477e-07
1	0xb7ce11cc	-2.4565401e-05
2	0x34228ab9	1.5137893e-07
3	0xb66f6b2a	-3.5676153e-06
4	0xb82c9975	-4.1150914e-05
5	0xb6d203ba	-6.2589215e-06
6	0xb788c368	-1.6303457e-05
7	0x373e4837	1.1341696e-05
8	0x371eeea1	9.473094e-06
9	0x37a5f0ca	1.9781659e-05
10	0x3702a1ab	7.786245e-06
11	0x359b88b2	1.1588183e-06
12	0xb6b72e18	-5.459191e-06
13	0xb7784790	-1.4798614e-05
14	0xb7d6ff6e	-2.5629732e-05
15	0x381f1d12	3.7935628e-05
16	0xb7337895	-1.0697307e-05
17	0xb801cc58	-3.0946307e-05
18	0x378af94b	1.6566968e-05
19	0xb753dd76	-1.2628143e-05
20	0xb80c26a3	-3.3414584e-05
21	0xb78bb346	-1.6653572e-05
22	0xb8162bf3	-3.5803718e-05
23	0x37af9c8c	2.0934523e-05
24	0x3635770b	2.7040394e-06
25	0x37974d67	1.8036646e-05
26	0x35cb2111	1.5134302e-06
27	0xb7067e44	-8.016421e-06
28	0x36bf12e9	5.694445e-06
29	0x37fc5ae9	3.0083074e-05
30	0xb7c46d28	-2.341585e-05
31	0x3703be7a	7.852557e-06
32	0x3782cc77	1.5592419e-05
33	0x35fc79f2	1.8810954e-06
34	0x37661b57	1.3715434e-05
35	0x375f3364	1.3303801e-05
36	0x36061150	1.9977633e-06
37	0xb731145c	-1.0554762e-05
38	0xb77d3e94	-1.5094545e-05
39	0xb7fe3788	-3.0305018e-05
40	0x377bff9a	1.5020278e-05
41	0x37fa071a	2.980563e-05
42	0x36204635	2.3882724e-06
43	0x367a2b1f	3.7278003e-06
44	0x368aab45	4.132659e-06
45	0x36e61552	6.857016e-06
46	0xb36f8614	-5.5768467e-08
47	0xb734a65a	-1.0767568e-05
48	0x35016d06	4.8214895e-07
49	0xb6c8154d	-5.962944e-06
50	0xb750a092	-1.2435152e-05
51	0x361552a9	2.2250845e-06
52	0xb6120594	-2.1758942e-06
53	0xb72c2b98	-1.0262149e-05
54	0x36b950aa	5.52282e-06
55	0xb47c1191	-2.347572e-07
56	0x35775580	9.213909e-07
57	0x370ebbf1	8.507618e-06
58	0xb71332ee	-8.773741e-06
59	0x36626182	3.3733381e-06
60	0xb77b86d4	-1.4992158e-05
61	0xb714f675	-8.87887e-06
62	0x3752d108	1.2565644e-05
63	0xb717d9fa	-9.051053e-06
64	0x38143e29	3.534384e-05
65	0xb8bdc00f	-9.047996e-05
66	0xb8e92956	-0.00011118005
67	0x386833f1	5.5361485e-05
68	0x38b14e0a	8.4545536e-05
69	0xb8522ee1	-5.011156e-05
70	0x37d7909d	2.5697338e-05
71	0xb71bc338	-9.284173e-06
72	0x387571d4	5.8518563e-05
73	0x3925a5ee	0.0001579744
74	0x384c13ff	4.8656013e-05
75	0x37613b0d	1.3424794e-05
76	0xb7f5d01c	-2.9303184e-05
77	0xb9393955	-0.00017664333
78	0x3704f33c	7.9244455e-06
79	0xb7fcaa79	-3.0120123e-05
80	0x00000000	0.0
81	0x00000000	0.0
82	0x00000000	0.0
83	0x00000000	0.0
84	0x00000000	0.0
85	0x00000000	0.0
86	0x00000000	0.0
87	0x00000000	0.0
88	0x00000000	0.0
89	0x00000000	0.0
90	0x00000000	0.0
91	0x00000000	0.0
92	0x00000000	0.0
93	0x00000000	0.0
94	0x00000000	0.0
95	0x00000000	0.0
96	0x00000000	0.0
97	0x00000000	0.0
98	0x00000000	0.0
99	0x00000000	0.0
100	0x00000000	0.0
101	0x00000000	0.0
102	0x00000000	0.0
103	0x00000000	0.0
104	0x00000000	0.0
105	0x00000000	0.0
106	0x00000000	0.0
107	0x00000000	0.0
108	0x00000000	0.0
109	0x00000000	0.0
110	0x00000000	0.0
111	0x00000000	0.0
112	0x00000000	0.0
113	0x00000000	0.0
114	0x00000000	0.0
115	0x00000000	0.0
116	0x00000000	0.0
117	0x00000000	0.0
118	0x00000000	0.0
119	0x00000000	0.0
120	0x00000000	0.0
121	0x00000000	0.0
122	0x00000000	0.0
123	0x00000000	0.0
124	0x00000000	0.0
125	0x00000000	0.0
126	0x00000000	0.0
127	0x00000000	0.0
128	0x00000000	0.0
129	0x00000000	0.0
130	0x00000000	0.0
131	0x00000000	0.0
132	0x00000000	0.0
133	0x00000000	0.0
134	0x00000000	0.0
135	0x00000000	0.0
136	0x00000000	0.0
137	0x00000000	0.0
138	0x00000000	0.0
139	0x00000000	0.0
140	0x00000000	0.0
141	0x00000000	0.0
142	0x00000000	0.0
143	0x00000000	0.0
144	0x00000000	0.0
145	0x00000000	0.0
146	0x00000000	0.0
147	0x00000000	0.0
148	0x00000000	0.0
149	0x00000000	0.0
150	0x00000000	0.0
151	0x00000000	0.0
152	0x00000000	0.0
153	0x00000000	0.0
154	0x00000000	0.0
155	0x00000000	0.0
156	0x00000000	0.0
157	0x00000000	0.0
158	0x00000000	0.0
159	0x00000000	0.0
160	0x00000000	0.0
161	0x00000000	0.0
162	0x00000000	0.0
163	0x00000000	0.0
164	0x00000000	0.0
165	0x00000000	0.0
166	0x00000000	0.0
167	0x00000000	0.0
168	0x00000000	0.0
169	0x00000000	0.0
170	0x00000000	0.0
171	0x00000000	0.0
172	0x00000000	0.0
173	0x00000000	0.0
174	0x00000000	0.0
175	0x00000000	0.0
176	0x00000000	0.0
177	0x00000000	0.0
178	0x00000000	0.0
179	0x00000000	0.0
180	0x00000000	0.0
181	0x00000000	0.0
182	0x00000000	0.0
183	0x00000000	0.0
184	0x00000000	0.0
185	0x00000000	0.0
186	0x00000000	0.0
187	0x00000000	0.0
188	0x00000000	0.0
189	0x00000000	0.0
190	0x00000000	0.0
191	0x00000000	0.0
192	0x36856a43	3.9760794e-06
193	0x36e58829	6.840583e-06
194	0x36bddde4	5.6584704e-06
195	0xb6570619	-3.2041046e-06
196	0xb70ea81d	-8.5030015e-06
197	0xb72e5774	-1.039157e-05
198	0xb7844620	-1.576828e-05
199	0xb5efdfc8	-1.7872017e-06
200	0x3610bba4	2.1566893e-06
201	0x366731f2	3.4450754e-06
202	0x370ae78f	8.279355e-06
203	0xb707d972	-8.097255e-06
204	0xb641bde9	-2.8869783e-06
205	0x3663133d	3.3836834e-06
206	0x36a892b2	5.0238677e-06
207	0xb62d9069	-2.5863067e-06
208	0x378dc4df	1.6900185e-05
209	0x36119a35	2.1696444e-06
210	0xb37e8a37	-5.926469e-08
211	0x35e34ac1	1.6934574e-06
212	0xb69611c0	-4.4724147e-06
213	0xb75d7b12	-1.3201281e-05
214	0xb7793ca8	-1.4855679e-05
215	0x363c210b	2.8033417e-06
216	0xb63b6618	-2.7924598e-06
217	0x36977b89	4.514532e-06
218	0x3665b7b9	3.42306e-06
219	0x35b53ac8	1.3502658e-06
220	0xb70cb38c	-8.386454e-06
221	0xb70348fd	-7.825202e-06
222	0x37075aef	8.067799e-06
223	0x36e5830d	6.839988e-06
224	0x36d6bc6a	6.3996313e-06
225	0xb65921cb	-3.235519e-06
226	0xb771cc8b	-1.4412343e-05
227	0xb665b30c	-3.4227878e-06
228	0xb696343d	-4.4764297e-06
229	0x36b93365	5.5194128e-06
230	0xb38fc3b3	-6.694554e-08
231	0xb4a321ab	-3.0385613e-07
232	0xb6cb6881	-6.0620373e-06
233	0xb71efcd6	-9.476402e-06
234	0xb5cb0602	-1.5126427e-06
235	0x366b8914	3.5097519e-06
236	0xb6213418	-2.4021192e-06
237	0xb74bd13e	-1.2148461e-05
238	0x33e54dbe	1.0677785e-07
239	0xb69cf2c7	-4.6774253e-06
240	0x350f1e83	5.331605e-07
241	0xb62b7425	-2.554859e-06
242	0x34e2adc3	4.222221e-07
243	0xb4e8a441	-4.3332878e-07
244	0x35f7c44e	1.8460066e-06
245	0x349f47bf	2.966826e-07
246	0x36a4dd04	4.9133105e-06
247	0xb68d6eda	-4.2150323e-06
248	0x353af1dd	6.9642357e-07
249	0xb4b3a792	-3.3463272e-07
250	0xb6860b0a	-3.9947963e-06
251	0x35e1555c	1.6788649e-06
252	0xb5fe46cb	-1.8945078e-06
253	0xb6431594	-2.9069824e-06
254	0x36dbe847	6.5537492e-06
255	0xb5a87801	-1.2551901e-06
