SGE_Transformer/model/2_room/eil_2_room_198_model/EBC_model_3999.pth (torch, 319185 bytes, 27 tensors)

encoder.embedding.weight f4 [900, 16]
0	0x3e81012e	0.25196213
1	0xbf2a015b	-0.6640832
2	0x3f9ca629	1.2238208
3	0x3fd4b181	1.661667
4	0x3f14e913	0.58168143
5	0x3f8ded36	1.1088016
6	0xbcfd6848	-0.030933514
7	0x3f68ab5c	0.90886474
8	0x3fb8a62e	1.4425714
9	0x3f054d83	0.520714
10	0x3fa330fc	1.2749324
11	0xbf92a780	-1.1457367
12	0x3fbdc941	1.4827043
13	0xbf5b1a06	-0.85586584
14	0xbf8e2a4f	-1.1106662
15	0x3f4092e4	0.7522414
16	0xbf89cd81	-1.076584
17	0x3ef7e813	0.48419246
18	0x3ecf15ab	0.4044622
19	0xbe0add02	-0.1356087
20	0x3efe94fd	0.49723044
21	0x3f24b242	0.643345
22	0x3e86ad9b	0.26304325
23	0x3ec6b94c	0.38813245
24	0xbf87697f	-1.057907
25	0xbfb8acc3	-1.4427723
26	0x3fe71b9f	1.8055304
27	0xbff83b99	-1.9393188
28	0x3ef9d73a	0.48797017
29	0xbe00a6dc	-0.12563652
30	0xbf300987	-0.6876454
31	0xbfbd51cf	-1.4790591
32	0x3f55b0e1	0.8347302
33	0x3e5abc66	0.21360931
34	0xbe6a59ea	-0.22885862
35	0x3f58b965	0.8465789
36	0xbe808041	-0.2509785
37	0x3e832c63	0.25619802
38	0xbf14496c	-0.5792453
39	0xbff5f478	-1.9215231
40	0xbebee4e4	-0.37284005
41	0x3f8c04ba	1.0938942
42	0xbf89337f	-1.071884
43	0x3eb7fb93	0.35934123
44	0xbf9662bb	-1.174888
45	0xbd474ed9	-0.04865918
46	0xc0543e25	-3.316293
47	0xbf253a4c	-0.6454208
48	0x3eab9e08	0.33519006
49	0xbf4ed8d2	-0.8079959
50	0xbf6d12f7	-0.92607063
51	0xbe037cc8	-0.12840569
52	0x3f89bf50	1.0761509
53	0x3fe2e07c	1.7724757
54	0xbfaba1f8	-1.3408804
55	0x3f170a95	0.5900052
56	0xbf892f0a	-1.071748
57	0x3e785300	0.24250412
58	0x3f0e93d9	0.5569435
59	0xbfca69b1	-1.5813504
60	0xbf55eda7	-0.83565754
61	0xbeabb3fd	-0.33535758
62	0xbf221943	-0.63319796
63	0xbff54429	-1.9161426
64	0x3f5c07a2	0.85949147
65	0x3dbc4c00	0.09194183
66	0xbfa4f0cf	-1.2885989
67	0x400262c0	2.0372772
68	0xbf48bb89	-0.78411156
69	0xbeb19ac3	-0.34688386
70	0xbfaf8823	-1.3713421
71	0x3e884c3f	0.2662067
72	0xbeb2b5dd	-0.34904376
73	0xbe7db1d4	-0.24774867
74	0x3dac12d2	0.08402027
75	0xbfbd2b53	-1.4778847
76	0xc01c8938	-2.4458752
77	0xbdff9402	-0.12479402
78	0xbe37dfda	-0.17956486
79	0xbd193eb2	-0.037413307
80	0x3e1918b5	0.14950831
81	0x3f2e8646	0.68173635
82	0x3fc8aa0d	1.5676895
83	0x3ef37d76	0.47556657
84	0xbf80a441	-1.0050126
85	0xbf82fb09	-1.023286
86	0x3f057d3c	0.5214422
87	0xbef6e35b	-0.48220333
88	0xbf45cac4	-0.7726252
89	0x402fa645	2.7445233
90	0xbffceabe	-1.9759138
91	0x3ed4f030	0.415895
92	0x3fc89d13	1.5672935
93	0xbd2321c3	-0.03982712
94	0xbf78e297	-0.9722075
95	0xbf3649b8	-0.71206236
96	0x3e75b7b5	0.2399586
97	0xbf997ce5	-1.199124
98	0x3f881e17	1.0634183
99	0xbf2d4c14	-0.6769421
100	0xbf29d40c	-0.6633918
101	0x3eac2e84	0.3362924
102	0x3f04b980	0.5184555
103	0x3f84d6c4	1.0378041
104	0x3d29e23d	0.041475523
105	0x3f57838d	0.84185106
106	0xbe06755a	-0.13130704
107	0xbfbf08fc	-1.4924617
108	0x3eba2620	0.36357212
109	0xbf02d54a	-0.51106703
110	0xbed64638	-0.41850448
111	0x3f97483d	1.181892
112	0xbe882c72	-0.2659641
113	0x3f4ddfd2	0.8041965
114	0xbe9d7ba6	-0.307584
115	0x3fad485f	1.3537711
116	0x3f2ac244	0.66702676
117	0xbe718f59	-0.23589839
118	0xbe2f5481	-0.1712208
119	0x3f0fc723	0.56163234
120	0x3e9d35dc	0.30705154
121	0x3eacf4c8	0.33780503
122	0x3e050074	0.12988454
123	0x3f13956f	0.5764989
124	0x3ca658d1	0.020306023
125	0x3fb2fdc0	1.3983688
126	0x3fb55e8f	1.4169482
127	0xbbc0bfc0	-0.0058822334
128	0xbf61e845	-0.8824504
129	0xbef9f6e3	-0.48821172
130	0xbfad94f9	-1.3561088
131	0xbe6f0e1a	-0.23345223
132	0x3fea3517	1.8297452
133	0x3fcb78ed	1.5896279
134	0x3e365e8a	0.17809501
135	0x3f030fba	0.5119587
136	0xbf0bd7f0	-0.5462637
137	0xbfb8c286	-1.4434364
138	0xbff63e32	-1.923773
139	0xbf9088af	-1.1291713
140	0x3f80de94	1.0067925
141	0xbc1011c2	-0.008793296
142	0xbf4df091	-0.804452
143	0x3ffba08a	1.9658368
144	0x3fd2f00a	1.6479504
145	0x3f11e735	0.5699342
146	0xbc4a2e9c	-0.012340214
147	0xbfbc443f	-1.4708327
148	0xbd3d77b9	-0.046256755
149	0xbf086699	-0.5328155
150	0x3f28e4bd	0.65974027
151	0x400bf57d	2.1868584
152	0x3ef9c545	0.48783317
153	0x400b8029	2.1796973
154	0xbfbb383a	-1.4626534
155	0xbfb20beb	-1.3909887
156	0xbedd4693	-0.43217906
157	0xbe1892f2	-0.14899805
158	0x3dd07cf7	0.10180085
159	0xbe33ebd6	-0.17570433
160	0x3ea4e7f3	0.32208213
161	0x3f9a135f	1.2037162
162	0x3daecc16	0.0853502
163	0xbfe162e8	-1.7608309
164	0x3d73f564	0.059560195
165	0xbfa77304	-1.3081975
166	0x3e6c1cd0	0.23057866
167	0x3f75be8b	0.9599387
168	0x3e10d040	0.14141941
169	0x3f5ca835	0.86194164
170	0xbf8c435c	-1.0958056
171	0xbf920f40	-1.1410904
172	0xbec09121	-0.37610725
173	0xbe830363	-0.2558852
174	0xbe914aa7	-0.28377268
175	0x3f8fa9bb	1.1223673
176	0x400414ac	2.0637617
177	0x3e062291	0.13099124
178	0x3f6948bd	0.91126615
179	0x3dca6884	0.09883216
180	0xbf2a85ba	-0.666103
181	0x3f6ea805	0.9322513
182	0x3fd155a0	1.6354256
183	0xbf8cdc17	-1.1004666
184	0x3f3c40bb	0.7353627
185	0x40019a7e	2.0250545
186	0xc03a7b37	-2.9137704
187	0x3e435f95	0.1907943
188	0x3e2db8c2	0.16965011
189	0xbf333487	-0.70002025
190	0xbdc8288a	-0.09773357
191	0x3f03a191	0.51418406
192	0x3f8a2ced	1.079496
193	0x3f0fcc5c	0.561712
194	0xbfc04272	-1.5020278
195	0x3fffaf98	1.9975462
196	0x3f70bde3	0.94039744
197	0xbf00d959	-0.50331646
198	0xbf88a6a0	-1.067585
199	0xbee770ac	-0.4520315
200	0x3f897b8a	1.0740826
201	0x3f67bc10	0.90521336
202	0x3fb55377	1.4166096
203	0xbe23c4aa	-0.1599299
204	0xbf960ee8	-1.1723299
205	0xbfc1ff39	-1.5156013
206	0xbfe3c089	-1.7793132
207	0xbfd8e936	-1.694617
208	0x3fe7e099	1.8115417
209	0x3dd05276	0.10171978
210	0xbf85d2e7	-1.0454987
211	0x3ebe5210	0.37171984
212	0x3e6319c3	0.22177796
213	0xbf00afac	-0.50268054
214	0xbeb7b592	-0.35880715
215	0xbd421c25	-0.047390122
216	0x3e89c004	0.2690431
217	0xbf068568	-0.5254731
218	0x3f83e10c	1.0303054
219	0xbf45cefd	-0.77268964
220	0x3f7c3273	0.9851448
221	0x3f874785	1.0568701
222	0x3f41152c	0.7542293
223	0xbf533a00	-0.82510376
224	0xbf7cae65	-0.98703605
225	0xbfb4ea7e	-1.4134061
226	0xbf4faae7	-0.8112015
227	0xbea53f00	-0.32274628
228	0x3f91acdf	1.1380881
229	0x3f325de0	0.6967449
230	0xbfd331d0	-1.6499577
231	0xbfdce2c3	-1.7256702
232	0x3f9628b2	1.1731169
233	0x3f66ee2f	0.9020719
234	0xb90738af	-0.0001289572
235	0xbfad5ab5	-1.3543307
236	0xbfa54dd3	-1.2914375
237	0xbf1f9245	-0.62332565
238	0xbf08e8c8	-0.53480196
239	0x3f0145a2	0.50496876
240	0xbd52e41f	-0.051487084
241	0xbe2e7346	-0.17036161
242	0x3dba8c91	0.09108842
243	0x3f25794b	0.64638203
244	0x3fdc4b91	1.7210561
245	0x3f2f62f9	0.68510395
246	0xbeda6c90	-0.42660952
247	0xbf9de137	-1.2334355
248	0x3eb6ee24	0.35728562
249	0xbfda94be	-1.7076643
250	0x3faa4b7b	1.3304285
251	0xbd92e961	-0.0717342
252	0x3f49e777	0.7886881
253	0x3e81f735	0.25383916
254	0x401e8b65	2.477258
255	0xbe5809be	-0.21097466

encoder.lstm.weight_ih_l0 f4 [128, 16]
0	0x3d9c17e8	0.07621747
1	0x3e88f6be	0.2675075
2	0xbe3df916	-0.1855205
3	0xbef8a464	-0.4856292
4	0x3d9b5a18	0.075855434
5	0xbd9ee358	-0.07758206
6	0x3ce92428	0.028459623
7	0x3ddb1ee6	0.10699253
8	0xbe199ba4	-0.15000778
9	0xbd44a170	-0.04800552
10	0xbecbb6ce	-0.39787906
11	0xbd4c21a2	-0.049836762
12	0x3eab67e7	0.3347771
13	0xbd42a0b3	-0.047516536
14	0xbe0a2111	-0.13489176
15	0x3dbc6f0d	0.09200869
16	0xbd155da6	-0.036466263
17	0x3e61be60	0.22045279
18	0xbea46025	-0.32104602
19	0xbcd24525	-0.025667736
20	0x3e1951a1	0.14972545
21	0xbe565fcb	-0.2093498
22	0xbd621c27	-0.05520263
23	0x3e157e03	0.14598851
24	0xbea316fa	-0.31853467
25	0xbf22300b	-0.6335456
26	0xbe234a59	-0.1594633
27	0xbec96aa0	-0.3933916
28	0x3d4c5a60	0.049890876
29	0xbf1a492c	-0.602679
30	0xbd9cb1bf	-0.0765109
31	0x3db50293	0.088383816
32	0xbdbaa49c	-0.09113428
33	0xbe38de20	-0.18053484
34	0xbdb82912	-0.089922085
35	0x3d6bb57d	0.057546128
36	0xbe225837	-0.15853964
37	0x3de6b3c3	0.112647556
38	0x3e17566c	0.14779061
39	0xbd23c8d9	-0.039986465
40	0x3dcb27ae	0.09919678
41	0xbe2722cb	-0.16321866
42	0xbda63529	-0.08115608
43	0x3daec1ab	0.08533033
44	0xbe42d228	-0.19025481
45	0x3ddc10ce	0.10745393
46	0xbe6c3571	-0.23067261
47	0x3e1cb15a	0.15302029
48	0xbec1190e	-0.37714428
49	0x3cfe56d2	0.031047259
50	0x3ef55e19	0.47923353
51	0x3d66d2f8	0.05635354
52	0xb99f9925	-0.00030440945
53	0x3e003d57	0.125234
54	0xbc9373e2	-0.017999593
55	0xbd78458f	-0.06061321
56	0xbdbf42fc	-0.09338948
57	0xbc0cc13a	-0.008590991
58	0xbd2b71a2	-0.041856416
59	0xbf105d62	-0.5639249
60	0xbdc1e3e4	-0.09467295
61	0x3ed738e6	0.42035598
62	0x3e155bbd	0.14585777
63	0x3c8c3482	0.017114881
64	0xbe843ece	-0.25829166
65	0x3e3f2e23	0.18669944
66	0x3e56706b	0.20941322
67	0x3dfc9082	0.1233225
68	0x3e3ac66f	0.18239759
69	0x3e188ee2	0.14898255
70	0x3ce094b6	0.02741466
71	0xbc94702c	-0.018119894
72	0xbe0f9508	-0.14021695
73	0xbc6b29a6	-0.0143531915
74	0x3e7e3653	0.2482541
75	0xbe40186e	-0.18759319
76	0xbe9fda36	-0.3122117
77	0x3e673d22	0.22581914
78	0xbd8fcdc1	-0.07021666
79	0xbe07ffb6	-0.1328114
80	0x3e09581b	0.13412516
81	0x3eb756e3	0.35808477
82	0x3e2b6685	0.16738327
83	0xbcd365d6	-0.025805395
84	0x3ec35720	0.3815241
85	0xbcfab46e	-0.030603614
86	0xbd8da671	-0.06916512
87	0xbd8114ee	-0.0630282
88	0x3e176d6e	0.14787838
89	0xbe928c39	-0.28622606
90	0x3d9ee5dd	0.07758687
91	0xbc4df738	-0.012571149
92	0xbd3ddb33	-0.046351623
93	0x3e8b773d	0.2723941
94	0xbdba2b5e	-0.09090303
95	0x3e11a156	0.14221701
96	0xbea96897	-0.33087608
97	0xbca4bf6c	-0.020110808
98	0x3e05b134	0.13055879
99	0xbe210fe4	-0.15728718
100	0x3eaa7077	0.3328893
101	0x3de1cfa8	0.110259354
102	0x3ea0c07b	0.3139685
103	0x3e7fd37e	0.24983022
104	0xbd9fdec4	-0.07806161
105	0x3e9d151e	0.30680174
106	0xbc727c7b	-0.014800186
107	0x3eb44253	0.3520685
108	0x3dfaa920	0.12239289
109	0xbd8d9ca7	-0.06914645
110	0x3da5bbf9	0.080924936
111	0x3dafe2ea	0.08588202
112	0xbea2d5ca	-0.31803733
113	0x3e25bae7	0.16184579
114	0xbe1a5bdd	-0.15074106
115	0xbe71b707	-0.23604976
116	0x3e90668d	0.2820324
117	0x3e892f25	0.2679378
118	0xbda3af25	-0.079923905
119	0x3ea91b83	0.33028802
120	0xbee82996	-0.45344228
121	0x3e1ac3c7	0.15113746
122	0xbeec7eef	-0.46190593
123	0xbccc8cd2	-0.024969492
124	0xbdbfcf21	-0.093656786
125	0x3f242d4e	0.6413163
126	0x3e408515	0.18800767
127	0xbe39042d	-0.18067999
128	0x3e18837f	0.14893912
129	0x3db26a37	0.08711665
130	0xbd925dd8	-0.071468055
131	0x3eaa8baa	0.3330968
132	0x3e3a3dd3	0.18187647
133	0xbe126093	-0.14294653
134	0x3d5d572a	0.054038204
135	0x3ea09b2a	0.3136838
136	0xbd0b23ab	-0.033969563
137	0x3e9784c9	0.29593495
138	0x3eb1a921	0.34699348
139	0xbc91392a	-0.017727453
140	0x3e61aabf	0.2203779
141	0x3e108f52	0.14117172
142	0xbe7de173	-0.24793033
143	0xbde66a05	-0.1125069
144	0xbdb179c2	-0.086658016
145	0x3e400b4d	0.18754311
146	0x3d9e22c8	0.07721478
147	0xbdc18a3e	-0.09450196
148	0xbe3bdac7	-0.18345176
149	0xbe2492b7	-0.16071592
150	0xbdab86e0	-0.08375335
151	0x3e813447	0.25235197
152	0xbdf0aa0e	-0.11751185
153	0x3e18a89f	0.14908074
154	0xbea5a65f	-0.32353494
155	0xbe8b807d	-0.27246466
156	0x3ce8d00a	0.028419513
157	0x3f0e78bb	0.5565297
158	0x3dec0a75	0.11525432
159	0x3e83bda3	0.2573062
160	0x3e7e857e	0.2485561
161	0xbd413a4c	-0.047174737
162	0xbdb5d08f	-0.0887767
163	0xbcd5fc10	-0.02612117
164	0x3decb2c1	0.11557532
165	0x3e30c809	0.17263807
166	0xbdfc7a6e	-0.12328039
167	0x3e227d74	0.15868169
168	0xbdcb5923	-0.09929111
169	0xbe84de70	-0.25950956
170	0xbd682c94	-0.056683138
171	0xbe793eef	-0.24340414
172	0x3eee083f	0.46490666
173	0x3d9fcd8d	0.078028776
174	0xbd95dd84	-0.073176414
175	0x3b297264	0.0025855536
176	0x3d9ede21	0.077572115
177	0x3e98c61d	0.29838648
178	0xbeeadb12	-0.45870262
179	0x3d8d84a3	0.06910064
180	0x3ce3c3f8	0.027803406
181	0xbdfae38d	-0.12250433
182	0xbd891743	-0.0669389
183	0x3e97b528	0.296304
184	0xbe99075a	-0.2988842
185	0x3ea701d6	0.32618588
186	0x3ea005bb	0.31254372
187	0x3e4b46c9	0.19851221
188	0x3c07c1ab	0.00828592
189	0xbe64f25c	-0.22358078
190	0xbde94052	-0.11389221
191	0x3e015fe4	0.12634236
192	0x3c9591d1	0.018258007
193	0x3ec5dc76	0.3864476
194	0xbd93cd52	-0.07216896
195	0x3e5e5bbb	0.2171468
196	0xbe472c3d	-0.1945047
197	0x3d038c57	0.03211626
198	0xbf0f624e	-0.56009376
199	0x3e8b1684	0.27165616
200	0x3d4b54c2	0.04964138
201	0x3e111c72	0.14171007
202	0x3e07cbfd	0.13261409
203	0xbd674a7e	-0.056467526
204	0xbe0f481b	-0.1399235
205	0x3eec624b	0.46168742
206	0x3e90bf1f	0.28270814
207	0x3dba034c	0.0908266
208	0xbd1bf121	-0.038071755
209	0x3e617332	0.220166
210	0x3d40af60	0.04704225
211	0xbdd66159	-0.10467786
212	0x3d1d1c8d	0.038357306
213	0xbd6aa5a1	-0.057286862
214	0x3e43500c	0.19073504
215	0x3e419277	0.18903528
216	0xbdfb19d5	-0.122607864
217	0xbe41543e	-0.18879792
218	0x3d8cc278	0.068730295
219	0x3e84bfbc	0.25927532
220	0xbd3646ca	-0.044501103
221	0x3e370105	0.17871483
222	0xbd5fd868	-0.05464974
223	0x3e257ed3	0.16161661
224	0x3d5f4860	0.05451238
225	0xbda7c433	-0.08191719
226	0xbe4c4236	-0.19947132
227	0x3e61ef63	0.22063975
228	0xbd9e2511	-0.077219136
229	0x3d82b0f7	0.063814096
230	0xbc3a788c	-0.01138128
231	0xbcb30835	-0.0218545
232	0xbd7b7a1a	-0.061395742
233	0xbe77abe6	-0.24186668
234	0xbd849779	-0.064742036
235	0xbe2774d0	-0.16353154
236	0x3dc21ff3	0.0947875
237	0xbe7511b9	-0.23932542
238	0xbe1a571b	-0.1507229
239	0x3df47c81	0.1193781
240	0xbddeee29	-0.10885269
241	0x3caf8558	0.021425888
242	0xbd383626	-0.044973515
243	0x3e207cb8	0.15672576
244	0xbc8de511	-0.017321141
245	0x3f0921ad	0.5356701
246	0xbe91bee5	-0.28465953
247	0x3dd4104f	0.10354673
248	0xbd93e607	-0.072216086
249	0xbd679fc7	-0.05654886
250	0x3ce5d1b6	0.0280541
251	0xbe8da3ea	-0.2766412
252	0xbebc77a6	-0.36810035
253	0xbde34a39	-0.11098141
254	0xbd8a5a0a	-0.06755455
255	0x3d9a7aba	0.075429395

encoder.lstm.weight_hh_l0 f4 [128, 32]
0	0xbea04650	-0.31303644
1	0xbde7552d	-0.11295543
2	0xbea09832	-0.31366116
3	0x3e1282da	0.14307728
4	0x3efebfe3	0.49755773
5	0xbdff7f6f	-0.12475478
6	0x3d968f36	0.07351534
7	0xbe3e1592	-0.18562916
8	0xbeb12f7c	-0.3460654
9	0xbe09516b	-0.13409965
10	0xbe48236b	-0.19544761
11	0xbd298707	-0.041388538
12	0x3e7c5d1f	0.24644898
13	0xbe4c7fea	-0.1997067
14	0x3ed42188	0.41431832
15	0xbda887f1	-0.08229054
16	0x3da91ac8	0.08257061
17	0xbc4c8524	-0.012482915
18	0xbdc114ef	-0.09427821
19	0xbeb64267	-0.35597536
20	0xbe655cd3	-0.22398691
21	0x3ea945e4	0.33061135
22	0xbed48004	-0.41503918
23	0xbe826e3f	-0.25474736
24	0x3e765fb8	0.24059951
25	0xbd443d92	-0.04791028
26	0xbe0ea893	-0.13931493
27	0xbdef3e4b	-0.11681803
28	0xbe771809	-0.24130262
29	0x3e903890	0.28168154
30	0xbd5c63b0	-0.053806007
31	0xbdb0e581	-0.086375244
32	0xbd0f634b	-0.035006803
33	0x3d1e061b	0.03858004
34	0xbeb54ebb	-0.3541163
35	0xbd33104c	-0.043716714
36	0x3e801583	0.25016412
37	0xbea7eae8	-0.32796407
38	0x3e8baee2	0.27281862
39	0x3c1df2b7	0.009640387
40	0xbdba5a14	-0.09099212
41	0xbe38c244	-0.18042856
42	0xbea1ce0b	-0.3160251
43	0xbc75fb06	-0.015013462
44	0xbe711ea0	-0.23546839
45	0xbe6816e5	-0.22664984
46	0x3eeba1ea	0.46021968
47	0xbd9e82ee	-0.077398166
48	0x3e8c00c1	0.27344325
49	0x3e8ca797	0.2747161
50	0xbb28fa5f	-0.0025783998
51	0xbea03dfe	-0.31297296
52	0xbebc2693	-0.3674818
53	0x3e261137	0.16217504
54	0xbe0f7c3d	-0.14012237
55	0xbde14fa5	-0.11001519
56	0x3ea6ee81	0.3260384
57	0x3d72adf7	0.059247937
58	0xbd4f9ecc	-0.05068855
59	0xbdb4176b	-0.08793529
60	0xbec22c1b	-0.37924275
61	0x3ee78b8f	0.45223662
62	0x3e04aac9	0.12955774
63	0xbd466f4c	-0.048445985
64	0x3d8e7721	0.06956316
65	0x3d5d6aaf	0.05405682
66	0xbd62f310	-0.055407584
67	0xbe332467	-0.17494355
68	0x3eda698f	0.4265866
69	0xbe8c80a0	-0.27441883
70	0x3e828034	0.25488436
71	0xbcc859e3	-0.024456924
72	0xbd943562	-0.072367445
73	0xbea3b633	-0.31974944
74	0xbd8d20ad	-0.06890998
75	0xbec6bdd3	-0.388167
76	0xbd0e38a2	-0.034721978
77	0xbe85aa97	-0.26106712
78	0x3e566bff	0.20939635
79	0xbe1701de	-0.14746806
80	0x3e3ba751	0.18325545
81	0xbdf79677	-0.12089246
82	0xbc7b9682	-0.015355708
83	0xbedde2b0	-0.4333701
84	0xbe2e4cce	-0.17021486
85	0x3e47a3eb	0.19496123
86	0xbe4f033e	-0.2021608
87	0x3da98872	0.08277978
88	0x3da5cf16	0.08096139
89	0x3d7bdb69	0.061488543
90	0xbd798a32	-0.06092281
91	0xbe72bafc	-0.23704141
92	0xbe61bcda	-0.22044697
93	0x3e6364df	0.22206448
94	0xbe080d48	-0.13286316
95	0xbc9d65a5	-0.019213507
96	0xbe0e242a	-0.13880983
97	0xbec5703a	-0.38562185
98	0xbe2460cc	-0.1605255
99	0xbe6601ba	-0.22461596
100	0xbda05f37	-0.07830661
101	0xbebf0d8c	-0.37315023
102	0xbda028ae	-0.07820259
103	0x3e6d1d27	0.23155652
104	0x3dd129fc	0.10213086
105	0x3e2739fb	0.16330712
106	0xbc7b51a9	-0.0153392935
107	0xbe8a33ce	-0.2699265
108	0xbca2e485	-0.019884357
109	0xbe8d46e4	-0.27593148
110	0xbbffe67d	-0.0078094588
111	0x3e8ab1b9	0.27088717
112	0x3e041e03	0.12902074
113	0xbd98b7e0	-0.074569464
114	0x3e5a4e0a	0.21318832
115	0xbe0423a3	-0.1290422
116	0xbdede707	-0.116163306
117	0xbd42da98	-0.04757175
118	0xbeb5c476	-0.3550145
119	0xbe85f065	-0.2615997
120	0xbca8cc63	-0.020605272
121	0x3e7a2dbe	0.24431512
122	0xbec50c60	-0.38486004
123	0x3dce2674	0.10065928
124	0xbeaed08c	-0.34143484
125	0xbc3ce833	-0.01152997
126	0x3ca1b1df	0.019738136
127	0x3db96c57	0.09053867
128	0xbd82807a	-0.06372161
129	0xbd68b4bc	-0.056812987
130	0xbe943e45	-0.28953758
131	0xbdf23839	-0.1182713
132	0x3e9b0408	0.30276513
133	0xbe7ae168	-0.24500048
134	0x3d7e2d07	0.06205466
135	0x3e0915f9	0.13387288
136	0xbc78b8dd	-0.015180794
137	0x3da286de	0.0793588
138	0xbe783fb5	-0.24243052
139	0xbe20b5bb	-0.15694325
140	0x3e0e54e8	0.13899577
141	0xbba035c7	-0.0048892233
142	0x3e6f0342	0.23341087
143	0x3e7776ec	0.24166459
144	0x3e857e18	0.26072764
145	0xbe7cefe6	-0.24700889
146	0x3d3f407a	0.04669235
147	0xbe5c20ae	-0.21496841
148	0xbe47b28f	-0.19501708
149	0x3e4ab58b	0.19795816
150	0xbe615d7f	-0.22008322
151	0x3c89bb86	0.016813051
152	0x3d01e779	0.03171489
153	0xbc852794	-0.016254224
154	0xbec8a890	-0.39191103
155	0xbd437071	-0.047714654
156	0xbebd1cf4	-0.36936152
157	0x3e933968	0.28754735
158	0xbe4877df	-0.19576977
159	0xbe3ce12e	-0.18445274
160	0x3e3fbda0	0.1872468
161	0xbe28ddd3	-0.16490869
162	0xbd8b7c46	-0.06810813
163	0xbd4422c8	-0.047884732
164	0x3dd2cc12	0.102928296
165	0xbe10d192	-0.14142445
166	0x3e0207a0	0.12698221
167	0x3e063bbf	0.13108729
168	0xbe8b41d9	-0.27198675
169	0x3bcbe58b	0.006222432
170	0xbd63fe2c	-0.05566232
171	0xbe34b846	-0.1764842
172	0xbdaec6cd	-0.08534012
173	0xbe70e5d7	-0.23525177
174	0x3d4deb5b	0.05027328
175	0x3ce65170	0.028115004
176	0x3ea8b4f5	0.3295056
177	0xbe12940b	-0.14314286
178	0x3dbd4789	0.0924216
179	0xbd9f3a8f	-0.07774841
180	0xbd41a6ed	-0.047278333
181	0x3e94bbd9	0.29049566
182	0xbe0a6520	-0.13515139
183	0x3b87674c	0.004132187
184	0x3dcb8f62	0.099394575
185	0xbdceb681	-0.100934036
186	0xbd59f1dc	-0.05320917
187	0xbe8781e1	-0.26466277
188	0xbe8e58e5	-0.27802196
189	0x3ecd52b8	0.40102172
190	0xbeed593d	-0.46357146
191	0xbd87953f	-0.06620263
192	0x3cf3cf49	0.029761927
193	0x3e98a849	0.2981589
194	0xbda903ce	-0.08252679
195	0x3e30b876	0.17257866
196	0x3e5e21fc	0.21692652
197	0xbeb62564	-0.35575402
198	0x3d6a6442	0.05722452
199	0x3ec9457e	0.3931083
200	0xbd6f2717	-0.05838689
201	0xbd9c2973	-0.07625093
202	0xbe1ac642	-0.15114692
203	0xbe85a0aa	-0.2609914
204	0xbe14b54e	-0.14522287
205	0xbe3529fb	-0.17691796
206	0xbe45728c	-0.19281977
207	0x3e5e8213	0.21729307
208	0xbe6b2d88	-0.22966588
209	0xbdb45e5d	-0.08807061
210	0xbea622f5	-0.32448545
211	0x3def94ab	0.11698278
212	0xbda54871	-0.08070458
213	0x3e3d8eeb	0.1851155
214	0x3cc72a4d	0.024312163
215	0xbeb2f4f8	-0.3495252
216	0x3ec8327c	0.39101017
217	0x3d8d06af	0.068860404
218	0x3e40cc65	0.1882797
219	0xbe889837	-0.2667863
220	0xbed1b974	-0.40961802
221	0x3deaaae8	0.11458379
222	0x3d791f1d	0.060820688
223	0x3c17df1b	0.009269501
224	0xbca273f1	-0.019830676
225	0xbe2d1818	-0.16903722
226	0xbef32e19	-0.47496107
227	0xbe18c296	-0.14917979
228	0x3f05ea03	0.523102
229	0xbe63027f	-0.22168921
230	0xbcfbcfb4	-0.030738689
231	0xbe2c84ea	-0.16847578
232	0xbda64a38	-0.08119625
233	0xbe1ffbfa	-0.15623465
234	0xbe84cbb0	-0.2593665
235	0xbe4a6368	-0.19764483
236	0xbcec07ad	-0.028812254
237	0xbe0039cc	-0.12522048
238	0x3e189e6d	0.14904185
239	0xbe1752ee	-0.14777729
240	0x3b637465	0.0034706828
241	0x3da4185c	0.08012459
242	0xbe5e6647	-0.21718703
243	0xbd1c6eab	-0.03819148
244	0xbe27e31b	-0.16395228
245	0x3dea5cf5	0.114435114
246	0xbef16ecc	-0.47154844
247	0xbf008bae	-0.50213134
248	0x3cd362b8	0.025803909
249	0xbe867d15	-0.26267305
250	0xbe58bbab	-0.2116534
251	0xbf34eb8b	-0.7067191
252	0xbeb5a77c	-0.35479343
253	0x3e66fdb8	0.22557724
254	0x3e420551	0.1894734
255	0x3d6821d8	0.0566729

encoder.lstm.bias_ih_l0 f4 [128]
0	0x3e9e5af7	0.30928776
1	0x3e289970	0.16464782
2	0x3ea9cb9e	0.3316316
3	0x3d74a0ab	0.059723537
4	0x3dc7ca8d	0.0975543
5	0x3ed0f029	0.40808228
6	0x3e5ac4c6	0.21364126
7	0x3ea5ebf6	0.32406586
8	0x3ea943ce	0.33059543
9	0x3e889146	0.26673335
10	0xbc00f7a1	-0.007871539
11	0x3d74558a	0.05965189
12	0x3d8eb312	0.06967749
13	0x3ee3605d	0.44409457
14	0x3e6a109b	0.22857897
15	0x3d4d86cd	0.050177384
16	0x3e9bf525	0.30460468
17	0x3e8151d0	0.2525773
18	0x3ebfe190	0.37476778
19	0x3d43e2ea	0.047823824
20	0x3e53a0d3	0.20666818
21	0x3d004d7f	0.031323906
22	0x3eab03c2	0.33401304
23	0x3e8e2f27	0.2777035
24	0x3e22c684	0.1589604
25	0x3e0f241a	0.13978615
26	0x3e8b5b55	0.27218118
27	0x3e5d0cf2	0.2158697
28	0x3eced289	0.40395
29	0x3e9090a6	0.28235358
30	0xbd39c600	-0.045354843
31	0x3dc78e1a	0.097439006
32	0x3e443b8e	0.19163343
33	0xbdb6cb1f	-0.08925461
34	0x3e5193c1	0.2046652
35	0x3d6b496a	0.05744306
36	0xbda273ea	-0.07932265
37	0x3ea0a2a8	0.31374097
38	0x3e2781a0	0.16358042
39	0x3de51de7	0.11187344
40	0x3da2b201	0.07944108
41	0x3e19d072	0.15020922
42	0x3db17f61	0.08666874
43	0x3e586318	0.21131551
44	0x3e6e9151	0.23297621
45	0x3d80d3b3	0.062903784
46	0x3e1bef6e	0.15228054
47	0x3e43af38	0.1910981
48	0x3e975ce9	0.29563072
49	0x3d1b8fcf	0.037978943
50	0x3e568b25	0.20951517
51	0x3e313826	0.17306575
52	0x3e0c5e6a	0.13707891
53	0x3cdd4f5a	0.027015377
54	0x3e010f41	0.12603475
55	0x3e4d0152	0.20020035
56	0x3e5d5b22	0.21616796
57	0x3e05258f	0.13002609
58	0x3d582e03	0.052778255
59	0xbbef9a36	-0.0073120845
60	0x3c8a21e7	0.016861869
61	0x3ea445bb	0.3208445
62	0x3d8315fd	0.06400678
63	0xbd574a67	-0.05256119
64	0xbd84901b	-0.064727984
65	0x3caf3b6f	0.021390645
66	0xbd2dca5c	-0.042429313
67	0xbe007754	-0.1254552
68	0x3e1efa55	0.15525182
69	0xbdf0b164	-0.117525846
70	0x3d867e39	0.06567044
71	0x3dded002	0.10879518
72	0xbdf211a3	-0.1181977
73	0xbc90e2b8	-0.017686233
74	0x3c48c0bb	0.012252982
75	0xbe684b00	-0.2268486
76	0xbe2facaf	-0.17155717
77	0xbe29d2d1	-0.16584326
78	0xbcc1e461	-0.02366847
79	0x3e31dfa0	0.17370462
80	0x3d250514	0.040288046
81	0xbdfabbd4	-0.122428566
82	0x3dbbb80d	0.09165964
83	0xbdc67e1a	-0.09692021
84	0xbe8d874e	-0.27642292
85	0x3e81c54c	0.25345838
86	0xbc8236f5	-0.015895346
87	0xbc45741a	-0.012051607
88	0x3e2d920f	0.16950248
89	0xbdbe778a	-0.09300144
90	0x3d3c90a6	0.046036385
91	0xbcef7ece	-0.02923527
92	0xbe119182	-0.14215663
93	0x3e4159c8	0.18881905
94	0xbe0ff936	-0.1405991
95	0xbd4a6973	-0.04941697
96	0x3e1959b4	0.14975625
97	0x3e9f6660	0.31132793
98	0x3e5eaf27	0.21746503
99	0x3e85eb06	0.2615587
100	0x3e7023c5	0.23451145
101	0x3e551be4	0.2081142
102	0x3e36764b	0.17818563
103	0x3e89e2e1	0.26930907
104	0x3ed4c67d	0.41557685
105	0x3e10145f	0.14070271
106	0x3d59629d	0.05307256
107	0x3e934718	0.28765178
108	0x3e8734df	0.26407525
109	0x3e1bd093	0.15216284
110	0xbce40af2	-0.02783725
111	0x3e75bcd0	0.23997808
112	0x3e673f4d	0.22582741
113	0x3daaa952	0.083330765
114	0x3e855c8c	0.2604717
115	0x3dad82cc	0.08472213
116	0x3e32c4cb	0.17457883
117	0x3cde49f0	0.027134866
118	0x3e9ffc86	0.31247348
119	0xbcff8506	-0.03119136
120	0x3d7b5d60	0.061368346
121	0x3ebd22b4	0.3694054
122	0x3e4c1d6a	0.19933096
123	0x3e081d52	0.13292435
124	0x3e256cdd	0.1615481
125	0x3d2ad913	0.041710924
126	0xbd0e94dc	-0.034809932
127	0x3dba1740	0.09086466

encoder.lstm.bias_hh_l0 f4 [128]
0	0x3d9f3fcd	0.07775841
1	0x3e19bc34	0.150132
2	0x3dab2d12	0.08358206
3	0x3e5ef069	0.21771397
4	0x3e14a350	0.14515424
5	0x3e35597e	0.1770992
6	0x3dc42a75	0.095784105
7	0x3e603bab	0.21897762
8	0x3de58a05	0.11207966
9	0x3e905ee0	0.28197384
10	0x3c0bc88f	0.008531704
11	0x3e7d9676	0.24764428
12	0x3db98b10	0.09059727
13	0x3f0c09bf	0.5470237
14	0x3d300a48	0.042978555
15	0x3e736a3a	0.23770991
16	0x3d97183e	0.07377671
17	0x3ea0f633	0.31437835
18	0x3e0be856	0.13662848
19	0xbd47bee7	-0.048766043
20	0x3d90277a	0.070387796
21	0x3e0d2592	0.13783863
22	0x3e9add72	0.30247074
23	0x3dce611e	0.100771174
24	0x3e28a6b0	0.16469836
25	0x3ea47a0d	0.32124367
26	0x3e0b541b	0.13606302
27	0x3d069ae2	0.03286255
28	0x3e387d69	0.1801659
29	0x3ed638e1	0.4184027
30	0x3c9e6665	0.019335935
31	0x3e207aac	0.15671796
32	0x3d9b0f2b	0.075712524
33	0xbe03bbcd	-0.12864609
34	0xbdb1faea	-0.08690436
35	0x3d1a0302	0.037600525
36	0x3dd896ef	0.10575663
37	0x3ea7c595	0.3276793
38	0x3dabcf8a	0.08389194
39	0x3e95ad7a	0.29233915
40	0x3d637b71	0.055537645
41	0x3e8fd841	0.28094676
42	0x3d9b285c	0.07576057
43	0x3da1a890	0.07893479
44	0x3e3bbc86	0.18333635
45	0x3e9342ea	0.2876199
46	0x3dfbf98f	0.12303459
47	0x3e4f47a3	0.20242171
48	0x3e6d0ec6	0.23150167
49	0x3d6ce9df	0.057840224
50	0x3d796f24	0.060897008
51	0xbd9b6dea	-0.07589324
52	0x3df3e07b	0.119080506
53	0x3daeefc9	0.08541829
54	0xbd8fe047	-0.070251994
55	0x3e2d45c3	0.16921143
56	0x3e41487b	0.18875305
57	0x3e73a62e	0.23793861
58	0x3e176cac	0.14787549
59	0x3e859491	0.2608991
60	0x3df69f60	0.12042117
61	0x3e332b9e	0.17497107
62	0x3e823348	0.2542975
63	0x3e2caab4	0.16861993
64	0x3da5bce5	0.080926694
65	0xbe4f5f2a	-0.20251146
66	0xbe3d359d	-0.18477483
67	0xbdd8b550	-0.105814576
68	0x3d52967c	0.051413044
69	0xbe356dea	-0.1771771
70	0x3e20e14f	0.15710948
71	0x3d7bac2d	0.061443496
72	0x3bbecf95	0.0058230856
73	0xbe06a2b5	-0.13148005
74	0xbe247687	-0.1606084
75	0xbe44342b	-0.19160526
76	0x3d5e4a3d	0.054270018
77	0xbd7c1b00	-0.061549187
78	0x3c55589f	0.013021617
79	0xbdb386f2	-0.08765973
80	0x3e72a86c	0.2369706
81	0xbe0c865f	-0.13723134
82	0x3b4620f2	0.003023204
83	0xbd5011fa	-0.050798394
84	0xbe8fb4db	-0.2806767
85	0x3d1a6011	0.037689272
86	0xbe08e991	-0.13370349
87	0xbe2bbf36	-0.1677216
88	0x3e06b0e3	0.13153414
89	0xbd2c2a2d	-0.04203241
90	0xbe2a07ed	-0.16604586
91	0xbdc8d938	-0.09807056
92	0xbe04fddd	-0.12987466
93	0x3e15c3e7	0.14625512
94	0xbe5e2fec	-0.21697968
95	0xbe03125b	-0.12799971
96	0x3e4e8b24	0.20170265
97	0x3e8bc4f5	0.27298704
98	0x3e6b1e76	0.22960839
99	0x3e011f18	0.12609518
100	0x3ea35e4c	0.3190788
101	0x3e0038e2	0.12521699
102	0x3e07d0bc	0.1326322
103	0xbcc5cb32	-0.024144743
104	0x3e93422b	0.2876142
105	0x3e4acfb9	0.19805802
106	0x3de96fac	0.11398253
107	0x3e379500	0.17927933
108	0x3e241be8	0.1602627
109	0x3e9b8784	0.30376828
110	0x3e049794	0.12948447
111	0x3dba7ee5	0.091062345
112	0x3d911d99	0.070857234
113	0x3e9cd9d4	0.3063494
114	0x3d8243b4	0.063605696
115	0x3e72108c	0.23639125
116	0x3daedd4b	0.08538302
117	0x3ddbd247	0.107334666
118	0x3e99acce	0.30014652
119	0x3e3ccc84	0.18437392
120	0x3b042452	0.002016325
121	0x3e2c94a2	0.16853574
122	0x3d99c36d	0.07507978
123	0x3e7d1c64	0.24717861
124	0x3e5b8f2e	0.21441337
125	0x3da7f7e7	0.082015805
126	0x3e5acccd	0.21367188
127	0x3e5c27dd	0.21499582

policy.net.0.weight f4 [128, 32]
0	0xbeb6369e	-0.35588545
1	0x3ba6c198	0.005088996
2	0xbdcedc3f	-0.10100602
3	0xbec49e14	-0.38401854
4	0xbccfeb83	-0.025380855
5	0xbe4033a3	-0.18769698
6	0x3b5d7336	0.0033790595
7	0x3ec47c08	0.38375878
8	0x3f131214	0.5744946
9	0xbe6db8d6	-0.2321504
10	0xbd490515	-0.049077112
11	0xbe408410	-0.18800378
12	0xbee0b3a8	-0.43887067
13	0x3e007f71	0.12548615
14	0xbc9c5d6e	-0.01908752
15	0x3e29464c	0.16530722
16	0xbd5fc0e0	-0.0546273
17	0xbe12dfd0	-0.1434319
18	0xbe809184	-0.2511102
19	0x3e892f3c	0.2679385
20	0x3cadc3d0	0.021211535
21	0x3d7aa00c	0.06118779
22	0xbde4387a	-0.111435845
23	0xbd7c3a8d	-0.061579276
24	0x3e0970ef	0.13421987
25	0x3ea62615	0.3245093
26	0xbe1899ef	-0.14902471
27	0xbeaf9c9d	-0.34299174
28	0xbe185525	-0.1487623
29	0xbd269a81	-0.04067469
30	0xbe251f74	-0.1612528
31	0xbe83b049	-0.25720432
32	0x3bd2ca3f	0.006432801
33	0xbda623c5	-0.08112291
34	0xbdbf9e71	-0.09356392
35	0xbd401d34	-0.04690285
36	0xbe0ff480	-0.14058113
37	0xbd75c925	-0.06000628
38	0xbeb2454e	-0.348185
39	0x3efd89a2	0.49519068
40	0x3f02c11b	0.51075906
41	0xbdbe33fc	-0.09287259
42	0xbc50e6aa	-0.012750307
43	0x3d59f064	0.05320777
44	0xbe91e32d	-0.28493634
45	0xbdd3684c	-0.103226274
46	0xbdb09f3e	-0.08624123
47	0x3d48c958	0.04902014
48	0x3d94ed93	0.07271876
49	0xbd9c4508	-0.07630354
50	0xbb2ee1fa	-0.0026684985
51	0x3decd08a	0.11563213
52	0xbe9b56b5	-0.3033959
53	0xbd69a302	-0.057040222
54	0xbcb114bd	-0.021616334
55	0x3d399113	0.04530437
56	0x3e1c7c1a	0.15281716
57	0x3cce81b8	0.02520834
58	0x3e6ae2c5	0.22938068
59	0x3bf5ccd8	0.007501226
60	0xbe1bae9a	-0.15203324
61	0x3e12d081	0.1433735
62	0x3e8f4f91	0.27990392
63	0xbe505e21	-0.20348407
64	0xbe81a342	-0.25319868
65	0xbde24fb9	-0.11050362
66	0xbd602f63	-0.05473269
67	0xbe530a58	-0.20609415
68	0x3d0a49e8	0.03376189
69	0xbe285be5	-0.16441305
70	0xbd2c5673	-0.042074632
71	0x3eb844ac	0.35989892
72	0x3efabdea	0.48973018
73	0xbd9f08e7	-0.0776537
74	0x3e4dae8f	0.2008612
75	0x3e1a42dc	0.15064567
76	0xbec09af7	-0.3761823
77	0xbc5f7b60	-0.013640255
78	0xbe6f0a62	-0.23343804
79	0x3e1a6b09	0.15079893
80	0xbe075305	-0.13215263
81	0x3d0ed584	0.034871593
82	0xbe4846e5	-0.19558294
83	0x3efa1edc	0.4885167
84	0xbd3bf034	-0.045883372
85	0x3e2fb2f2	0.17158106
86	0xbdf0418e	-0.117312536
87	0xbe3ac3ae	-0.18238708
88	0xbddfab11	-0.109213
89	0x3e74c90c	0.23904818
90	0xbd308733	-0.043097686
91	0x3d502d92	0.05082471
92	0xbdda6de1	-0.10665489
93	0xbd1de318	-0.03854665
94	0x3db932c9	0.090428896
95	0xbeb252c5	-0.34828773
96	0x3e291e51	0.16515471
97	0xbebed5c2	-0.3727246
98	0xbdbed02c	-0.093170494
99	0x3d6fd590	0.05855328
100	0x3e13e001	0.1444092
101	0x3d09a96c	0.03360884
102	0xbe4aac3b	-0.19792263
103	0xbe0d28b8	-0.13785064
104	0x3e290de8	0.16509211
105	0xbd74046d	-0.059574533
106	0x3ea1e0e2	0.31616884
107	0x3d907f13	0.070554875
108	0xbf1552bf	-0.58329386
109	0x3d2f0875	0.042732675
110	0x3e1945c2	0.14968017
111	0xbe3e4976	-0.1858271
112	0xbe9cb9bc	-0.30610454
113	0x3d1e6e7c	0.038679585
114	0xbc85d51b	-0.016336968
115	0x3e9c232b	0.3049558
116	0x3dddfbac	0.10839018
117	0xbe7cc37f	-0.24683951
118	0x3d9c4125	0.07629613
119	0xbe4928c0	-0.19644451
120	0x3d65037a	0.05591152
121	0xbe2359b9	-0.15952195
122	0x3eb45f54	0.3522898
123	0x3cf8359a	0.030298997
124	0x3df7f299	0.12106819
125	0xbd34d1a1	-0.04414523
126	0x3e85f1d0	0.2616105
127	0xbd911cb1	-0.070855506
128	0x3cd02e57	0.025412722
129	0x3d615a3f	0.055017706
130	0xbdb4e4f9	-0.088327356
131	0xbe974550	-0.2954507
132	0xbd374966	-0.044747733
133	0x3e7bf345	0.24604519
134	0xbd32a6fc	-0.04361628
135	0xbeb26c61	-0.34848312
136	0xbea6bc42	-0.32565504
137	0xbd3246a4	-0.0435244
138	0x3f1063da	0.5640236
139	0xbea47381	-0.32119372
140	0xbf0354af	-0.5130109
141	0xbe91aed6	-0.28453702
142	0x3c1219d5	0.008917292
143	0xbd0917f2	-0.0334701
144	0xbe755d9d	-0.23961492
145	0xbe74a8aa	-0.23892465
146	0x3d0dbd72	0.034604497
147	0x3ceb0683	0.028689628
148	0x3b65b779	0.0035051985
149	0xbf01cc87	-0.5070271
150	0xbce03bc8	-0.027372256
151	0x3deca3a5	0.1155465
152	0xbe1b7c59	-0.15184154
153	0xbe191061	-0.14947654
154	0x3e8ad573	0.27115974
155	0xbe07e2b7	-0.13270079
156	0x3e59b61b	0.21260874
157	0xbed9c899	-0.42535856
158	0x3e50a91b	0.20377009
159	0xbccdddd3	-0.025130188
160	0x3dc1c4b3	0.094613455
161	0xbe98ff6a	-0.29882365
162	0xbe6f06b0	-0.23342395
163	0x3e6fcc5a	0.23417798
164	0x3e63e4d6	0.22255263
165	0xbea69678	-0.32536674
166	0x3e957b52	0.29195648
167	0xbe52a185	-0.20569427
168	0xbe1928e4	-0.14957005
169	0x3cce8cca	0.025213618
170	0xbd4ecf6b	-0.050490778
171	0x3e2ef914	0.17087203
172	0x3ed24b41	0.4107304
173	0xbe66405b	-0.22485487
174	0x3de8a606	0.113597915
175	0xbe134e6d	-0.14385386
176	0x3df0fca1	0.11766935
177	0x3e6127d2	0.21987846
178	0xbdbac050	-0.09118712
179	0xbd0ed794	-0.03487356
180	0xbd4cb87f	-0.049980637
181	0xbe410f43	-0.18853478
182	0xbbaf0902	-0.00534165
183	0xbd078881	-0.033089165
184	0xbdcb3992	-0.0992309
185	0xbe66b120	-0.22528505
186	0xbdef730d	-0.11691866
187	0x3e8fb5ab	0.2806829
188	0xbde16306	-0.11005215
189	0xbdb859f3	-0.090015315
190	0xbe7abe6c	-0.24486703
191	0x3ea8136b	0.32827315
192	0xbd3b0620	-0.045660138
193	0xbc1491aa	-0.009067932
194	0x3e8866e5	0.26641002
195	0xbe86b781	-0.26311877
196	0x3e09804c	0.13427848
197	0xbe3a8738	-0.18215644
198	0x3ddc3f0e	0.10754214
199	0x3d9285e9	0.071544476
200	0xbea4963f	-0.3214588
201	0xbd255acb	-0.04036979
202	0x3ec1b667	0.37834474
203	0x3e741362	0.23835519
204	0xbe24326a	-0.16034856
205	0xbde318cd	-0.11088715
206	0xbcef6879	-0.029224621
207	0x3bdd70aa	0.0067578154
208	0xbe32e206	-0.17469034
209	0xbc9e5b4a	-0.01933064
210	0xbc805adf	-0.01566833
211	0xbda10ca0	-0.07863736
212	0xbe13f379	-0.14448346
213	0xbe968aad	-0.29402676
214	0x3e485c44	0.19566447
215	0x3e88630c	0.26638067
216	0xbc02719c	-0.007961657
217	0x3e51de61	0.20494987
218	0xbd92f09a	-0.07174797
219	0xbd49b365	-0.04924335
220	0x3d852f60	0.06503177
221	0xbecc8de5	-0.39952007
222	0x3d7870e1	0.060654525
223	0xbdabfd76	-0.08397953
224	0x3e0ca0e7	0.13733254
225	0x3e156442	0.14589027
226	0x3d88e04c	0.06683406
227	0x3e002f4b	0.12518041
228	0xbe44a3e6	-0.19203147
229	0xbd161e05	-0.036649723
230	0xbd854a21	-0.065082796
231	0xbd989f2e	-0.07452236
232	0x3de350f5	0.11099426
233	0xbdcd3759	-0.10020322
234	0xbddd29e9	-0.10799009
235	0x3c13c23a	0.009018475
236	0xbe3186aa	-0.17336527
237	0x3c9d7883	0.019222504
238	0xbc947525	-0.018122265
239	0x3d2670b8	0.04063484
240	0xbc8888b8	-0.016666755
241	0x3d4fcbcf	0.050731476
242	0x3dfb2325	0.12262563
243	0xbd159605	-0.036520023
244	0x3e1cb11e	0.1530194
245	0xbe4a8a14	-0.19779235
246	0x3ca9e8b8	0.020740852
247	0xbd4155fd	-0.047201145
248	0xbb9d5f79	-0.004802641
249	0x3d709649	0.058737073
250	0xbdca8de7	-0.09890347
251	0x3e3f927a	0.1870822
252	0x3b724f80	0.0036973655
253	0xbbd43458	-0.0064759664
254	0x3cefa361	0.02925271
255	0x3e281186	0.16412935

policy.net.0.bias f4 [128]
0	0x3e3b1020	0.1826787
1	0x3e1bdfb7	0.15222059
2	0x3d52d2ca	0.051470555
3	0x3de9cf1e	0.114164576
4	0xbd48fe9d	-0.049070943
5	0x3d48e92e	0.049050502
6	0xbdc44cfd	-0.09584997
7	0xbe685148	-0.22687256
8	0x3dd0cb0a	0.10194977
9	0x3da29fa3	0.079406045
10	0x3e3dc797	0.18533169
11	0xbcee6f4d	-0.029105807
12	0x3e333699	0.17501296
13	0x3d87d502	0.06632425
14	0x3ceaf702	0.028682236
15	0x3d429099	0.04750118
16	0x3bde2bfe	0.0067801466
17	0x3e200aea	0.15629163
18	0x3dde1ffd	0.10845945
19	0x3c854ba0	0.016271412
20	0xbdbd7027	-0.09249907
21	0xbaaa8597	-0.0013009784
22	0x3e3cb94a	0.18430057
23	0xbd13028d	-0.035891104
24	0xbd8d3484	-0.06894782
25	0xbe01146c	-0.12605447
26	0xbdfbf1b0	-0.123019576
27	0x3cdf681d	0.027271325
28	0x3d8f3ecf	0.06994402
29	0x3da49e26	0.08037977
30	0x3e26c9c0	0.16287899
31	0x3d97fba6	0.07421045
32	0xbe2c2da9	-0.16814293
33	0x3bad0b94	0.0052809212
34	0x3db00599	0.08594818
35	0x3e089642	0.13338569
36	0xbc457b08	-0.012053259
37	0x3bd00707	0.006348494
38	0x3e24183d	0.16024871
39	0x3dfbc93c	0.12294242
40	0x3c1d3115	0.009594222
41	0x3e14798e	0.14499494
42	0x3ddc9ec3	0.10772469
43	0xbd11e9a5	-0.03562321
44	0x3de4a1f0	0.111636996
45	0x3e593031	0.2120979
46	0x3d3941f1	0.045228902
47	0xbd0e8321	-0.034793023
48	0x3e627cea	0.22117963
49	0x3c9a5d73	0.018843388
50	0xbe6a1a1a	-0.2286152
51	0x3ca8960e	0.020579364
52	0x3ddf867d	0.109143235
53	0xbe54f8cc	-0.20798033
54	0x3d77f6a0	0.060537934
55	0x3d8588a4	0.06520203
56	0xbdf1ebbf	-0.11812543
57	0xbb95b165	-0.004568266
58	0x3dfa3934	0.12217942
59	0xbdd6e4a4	-0.104928285
60	0x3e29ccaf	0.16581987
61	0x3e613b7c	0.21995348
62	0x3e455c4e	0.19273493
63	0xbe0c4cd2	-0.1370118
64	0x3c798bc7	0.015231079
65	0xbe11c949	-0.1423694
66	0x3e1b12a3	0.15143828
67	0xbdf49a1b	-0.11943456
68	0xbde079f9	-0.109607644
69	0x3d9ee5fb	0.07758709
70	0xbe5105ee	-0.20412418
71	0x3d1d26a6	0.038366936
72	0x3d945dcb	0.07244452
73	0x3e4f3125	0.20233591
74	0x3ddb2788	0.10700899
75	0xbe48df75	-0.19616492
76	0x3ce1e59a	0.027575303
77	0x3deece55	0.116604485
78	0x3def40a1	0.11682249
79	0x3e6c0721	0.23049594
80	0x3dc1d645	0.09464697
81	0x3dc06d6f	0.09395873
82	0x3e0bbad4	0.13645488
83	0x3cec5791	0.028850349
84	0x3ddafa45	0.106922664
85	0xbd1eaa7f	-0.038736816
86	0xbcbf61c6	-0.023362052
87	0xbe0ac71c	-0.13552517
88	0x3dec77ae	0.115462646
89	0xbc094f0a	-0.008380661
90	0xbbc8befe	-0.0061262837
91	0x3e9e4582	0.30912405
92	0x3e417ced	0.18895312
93	0x3db7c8bb	0.08973833
94	0x3e86fc10	0.26364183
95	0xbd3d056b	-0.046147745
96	0x3e60ce80	0.21953773
97	0x3d97c749	0.074110575
98	0x3d9df355	0.077124275
99	0x3e083dc9	0.13304819
100	0x3e0e13fc	0.13874811
101	0xbd407ae5	-0.0469922
102	0x3e5b190e	0.21396276
103	0xbd4dbb71	-0.050227586
104	0x3d2b9d88	0.04189828
105	0x3e3ac222	0.18238118
106	0x3da6f782	0.08152677
107	0xbcbf9596	-0.023386758
108	0xbcd76b77	-0.02629636
109	0x3e27c9a1	0.16385509
110	0xbd899c18	-0.06719226
111	0x3d1a5e6f	0.037687715
112	0x3e41e91e	0.18936583
113	0xbd18f3b5	-0.037341792
114	0x3e2e5583	0.17024808
115	0x3e06379d	0.13107152
116	0xbc5eb4f3	-0.013592946
117	0xbda115e3	-0.07865503
118	0x3dd53b60	0.104117155
119	0x3e38143e	0.17976472
120	0x3e857338	0.26064467
121	0x3e664849	0.22488512
122	0xbcc92fb6	-0.024558883
123	0x3e43cf06	0.19121942
124	0x3e4a76db	0.19771902
125	0x3e4cd05e	0.20001361
126	0x3e0ca124	0.13733345
127	0xbda90e05	-0.08254627

policy.net.2.weight f4 [5, 128]
0	0xbdd9281f	-0.106033556
1	0xbdcab7b7	-0.09898322
2	0xbe078440	-0.13234043
3	0x3a59c7f3	0.0008307688
4	0xbfcdf924	-1.6091657
5	0xbf0936f7	-0.53599495
6	0xbeb955db	-0.36198315
7	0x3d39b92c	0.04534261
8	0xbe0ea974	-0.13931829
9	0xbdba61a3	-0.09100654
10	0xbd3a7b70	-0.045527875
11	0xbe912fb3	-0.28356704
12	0xbe201318	-0.15632284
13	0xbe34b883	-0.1764851
14	0xbd1a90ec	-0.037735865
15	0xbe313351	-0.17304732
16	0xbd7a85c5	-0.06116273
17	0xbdc9dc13	-0.09856429
18	0xbdbfefa8	-0.09371883
19	0xbed97ba6	-0.4247715
20	0xbf1c7a88	-0.6112447
21	0xbded5455	-0.11588351
22	0xbb13fa16	-0.0022579483
23	0xbe42bb84	-0.19016844
24	0xbf4c2663	-0.79746073
25	0xbf303f90	-0.6884699
26	0xbe91b94b	-0.2846168
27	0xbdf8f250	-0.121555924
28	0xbe3e7302	-0.1859856
29	0xbe2e4a99	-0.17020644
30	0xbdb92f19	-0.09042186
31	0xbe588e5b	-0.21148054
32	0xbea276c0	-0.31731224
33	0xbe13d242	-0.14435676
34	0xbe077fcf	-0.13232349
35	0xbdd2e43e	-0.1029744
36	0xbe142b90	-0.14469743
37	0xbfc8534e	-1.5650423
38	0xbdd146a4	-0.10218552
39	0xbe964015	-0.29345766
40	0xbe6e5c48	-0.2327739
41	0xbc7ac3ae	-0.015305443
42	0xbb87fd44	-0.0041500647
43	0xbe51a74c	-0.20473975
44	0xbe894aee	-0.2681498
45	0x3bbb2952	0.005711713
46	0xbe111ed6	-0.14171919
47	0xbe413c71	-0.18870713
48	0xbd8119cf	-0.06303751
49	0xbe6cda60	-0.23130178
50	0xbe1dfa42	-0.15427497
51	0xbe5861c5	-0.21131046
52	0xbdf0ebd9	-0.11763734
53	0xbcfdacd6	-0.030966204
54	0xbdcf3bdd	-0.1011884
55	0xbe4efae4	-0.20212895
56	0xbf1bae38	-0.6081271
57	0xbe91cb71	-0.28475526
58	0xbda12084	-0.0786753
59	0xbf5f477f	-0.8721847
60	0xbd47d423	-0.048786294
61	0xbe1cd7ae	-0.1531665
62	0xbde32951	-0.11091865
63	0xbfaaf3b1	-1.3355619
64	0xbf9cd349	-1.2251979
65	0xbf56182f	-0.8363065
66	0xbe078901	-0.13235857
67	0xbfc5a3d8	-1.5440626
68	0xbf250569	-0.6446138
69	0x3b70dfaf	0.003675442
70	0xbf18f090	-0.5974207
71	0xbfe2e7e0	-1.7727013
72	0xbd30fa39	-0.04320738
73	0xbe23d398	-0.15998685
74	0xbe8ff55f	-0.2811689
75	0xbd52172c	-0.05129163
76	0xbe6719aa	-0.22568384
77	0xbe11da4b	-0.14243428
78	0xbdb2427a	-0.08704086
79	0xbdc05028	-0.093902886
80	0xbea3f1b2	-0.32020336
81	0xbdebce75	-0.11513988
82	0xbe312a0f	-0.173012
83	0x3c605f50	0.013694599
84	0xbe2193f7	-0.157791
85	0xbd9dba6a	-0.07701571
86	0xbee9c5ff	-0.45658872
87	0xbfa5fd0c	-1.2967849
88	0xbe17858b	-0.14797036
89	0xbe49ebe6	-0.19718894
90	0xbe3617c5	-0.17782505
91	0x3c88a10e	0.01667836
92	0xbad5cc6a	-0.001631153
93	0xbeddb68b	-0.43303332
94	0xbe430f7d	-0.19048877
95	0xbe4799c7	-0.19492255
96	0xbe068a20	-0.13138628
97	0xbe30e088	-0.17273152
98	0xbe7bcd7a	-0.24590102
99	0xbe37ae5b	-0.17937605
100	0xbe1c1e88	-0.15246022
101	0xbe1e17dd	-0.1543879
102	0xbcf52d8d	-0.029928947
103	0xbe92a83c	-0.28643978
104	0xbd7ad8f8	-0.061242074
105	0xbcf8a40c	-0.030351661
106	0xbe3850b0	-0.1799953
107	0xbe8a1a82	-0.2697335
108	0xbf2f49fd	-0.6847227
109	0xbddd7e2a	-0.108150795
110	0xbe71e786	-0.23623475
111	0xbdcacf66	-0.09902839
112	0xbe1ac30c	-0.15113467
113	0xbe76c7e3	-0.24099688
114	0xbe03be23	-0.128655
115	0xbe2df90d	-0.16989537
116	0xbec00937	-0.3750703
117	0xbec8d764	-0.3922683
118	0xbeefa265	-0.46803585
119	0xbcee775b	-0.029109647
120	0xbe2e01d7	-0.1699289
121	0xbe3288f3	-0.17435054
122	0xbe46a5a2	-0.19399121
123	0xbde7d07d	-0.11319063
124	0xbdaa56cd	-0.08317337
125	0xbd357411	-0.044300143
126	0xbe248229	-0.16065277
127	0xbf0bbf33	-0.5458862
128	0xbea33b76	-0.31881303
129	0xbdd3d085	-0.10342506
130	0xbb99d590	-0.004694648
131	0xbe4c8367	-0.19972001
132	0xbefe9d73	-0.497295
133	0x3ebc6515	0.3679587
134	0x3dfefb07	0.124502234
135	0x3d991746	0.07475142
136	0x3e48ca98	0.19608533
137	0x3ec48b70	0.38387632
138	0x3d1202aa	0.035647072
139	0x3cdedb3b	0.027204147
140	0xbcaeda5f	-0.021344362
141	0x3ea8b444	0.32950032
142	0xbe2dfb55	-0.16990407
143	0x3e994e10	0.2994237
144	0x3e4ffe77	0.20311914
145	0x3e36a358	0.17835748
146	0xbdab3e66	-0.08361511
147	0xbe557b9f	-0.20847939
148	0x3e10ca6f	0.14139722
149	0x3e37830b	0.17921083
150	0x3e84004b	0.25781474
151	0x3db2aa77	0.0872392
152	0x3f25e12a	0.647967
153	0x3d77ea88	0.0605264
154	0xba474591	-0.0007601614
155	0xbdcb3bcd	-0.099235155
156	0x3c16d0eb	0.009205083
157	0x3e077030	0.1322639
158	0x3e3948b4	0.1809414
159	0x3e6dd044	0.23223978
160	0x3ef666b1	0.48125222
161	0xbe465da5	-0.1937166
162	0xbe99100c	-0.29895055
163	0x3df5851e	0.11988281
164	0x3d5a6645	0.053320188
165	0xbeb0e6c9	-0.34551075
166	0x3de078c3	0.109605335
167	0xbe98bfc4	-0.29833806
168	0xbe49ca26	-0.1970602
169	0xbebdb323	-0.37050733
170	0xbecad5cf	-0.39616248
171	0xbd377541	-0.044789556
172	0x3e8b57b1	0.2721534
173	0x3d1c571e	0.03816902
174	0x3e3d9e51	0.18517424
175	0xbe2305b1	-0.1592014
176	0x3eb3c9ba	0.35114843
177	0x3f060edf	0.5236644
178	0xbd83a9e0	-0.064288855
179	0x3e0e3ee0	0.13891172
180	0xbdc202be	-0.09473179
181	0xbda5e63f	-0.081005566
182	0x3e24cb74	0.16093236
183	0xbe4ee492	-0.2020438
184	0x3f298887	0.6622395
185	0xbe4044b7	-0.18776213
186	0xbdd53ba9	-0.1041177
187	0x3e182bc4	0.14860445
188	0xbe0a5157	-0.13507591
189	0xbd79b1e0	-0.06096065
190	0x3daa1db0	0.08306444
191	0x3ec96dfb	0.3934172
192	0x3e0cf942	0.1376696
193	0xbec0f09f	-0.3768358
194	0x3c0bd914	0.008535642
195	0xbec2061b	-0.37895283
196	0xbf00bc1a	-0.5028702
197	0x3d925524	0.071451455
198	0xbe9fdb47	-0.31221983
199	0x3d2c7e95	0.042112906
200	0xbe6fb7d0	-0.23409963
201	0xbbe6b10b	-0.007040148
202	0x3e9b16df	0.30290887
203	0x3cd1b2b0	0.0255979
204	0xbe2e722b	-0.17035739
205	0x3d1e2c4f	0.038616475
206	0xbec9d652	-0.39421326
207	0xbd042155	-0.03225835
208	0x3e701a61	0.23447563
209	0xbe9a2915	-0.30109468
210	0xbde7be3e	-0.11315583
211	0xbe1c2614	-0.152489
212	0x3ddcf79f	0.107894175
213	0xbda8553b	-0.082193814
214	0xbeb56d79	-0.35435084
215	0xbe99d4f7	-0.30045292
216	0x3e40bd6b	0.18822257
217	0xbd308402	-0.043094642
218	0x3ec4b1a5	0.38416782
219	0x3f0f2c31	0.55926806
220	0x3ea33058	0.3187282
221	0x3e8ac458	0.27102923
222	0xbc81dca3	-0.015852278
223	0xbe5a5b81	-0.21323968
224	0xbdbc89e0	-0.09205985
225	0x3db4188d	0.08793745
226	0x3e8c3342	0.27382857
227	0xbe3ec0ed	-0.18628283
228	0xbd1afde1	-0.037839774
229	0x3e2098b6	0.15683255
230	0xbd9692ba	-0.073522046
231	0x3e308b7f	0.17240714
232	0x3e40cfe6	0.18829307
233	0xbe181ea2	-0.14855435
234	0xbcbb1d1d	-0.02284103
235	0xbd33c595	-0.0438896
236	0xbee05d8e	-0.43821377
237	0xbd3dcb09	-0.046336208
238	0x3e0627dd	0.13101144
239	0x3eeb23ab	0.4592565
240	0x3e5d2de2	0.21599534
241	0x3819c38c	3.666016e-05
242	0x3e01971a	0.12655297
243	0xbec7c39f	-0.39016435
244	0x3eafc600	0.3433075
245	0xbf01479b	-0.50499886
246	0x3e440b79	0.19145001
247	0x3d069c78	0.032864064
248	0xbdb9392c	-0.09044108
249	0x3d5fcc19	0.054638002
250	0xbf06bcc0	-0.5263176
251	0xbe5673e3	-0.20942645
252	0x3e92ffbf	0.28710744
253	0x3e8180ec	0.25293672
254	0x3e903a21	0.2816935
255	0xbda575ea	-0.08079131

policy.net.2.bias f4 [5]
0	0xbd7c5012	-0.0615998
1	0x3c83b8fb	0.016079416
2	0x3d5aba75	0.053400476
3	0x3d587c78	0.052853078
4	0x3ca72e50	0.020407826

exp_avg f4 [900, 16]
0	0xb90b62f6	-0.00013292939
1	0x39cb5193	0.00038779955
2	0x37d3d1e6	2.5250902e-05
3	0x38a8a134	8.040891e-05
4	0xb980c4ee	-0.00024560787
5	0x39a9462e	0.0003228648
6	0xb9f81fed	-0.00047326033
7	0x3922a547	0.00015511095
8	0x3991c13f	0.00027800535
9	0xb95be327	-0.00020970088
10	0xba16a09f	-0.00057459803
11	0x390102fc	0.0001230351
12	0x39d47258	0.00040520984
13	0xb855ea99	-5.1001643e-05
14	0x370d3cfa	8.418452e-06
15	0x388a7a7f	6.6031695e-05
16	0xb81a4bd1	-3.678707e-05
17	0x39c1eb31	0.0003698706
18	0x39a294bd	0.00031009867
19	0x39879832	0.000258626
20	0x39585f1f	0.000206348
21	0x3a3d1f45	0.00072144374
22	0xb7fb844b	-2.9983135e-05
23	0xb8ae2969	-8.30468e-05
24	0x3a009ef0	0.0004906496
25	0xb978dfbc	-0.0002373447
26	0xb96b52bd	-0.00022442169
27	0xb8692e98	-5.5594923e-05
28	0x3a04bf57	0.0005063912
29	0xb8ed5ddd	-0.00011318524
30	0x3845d9f0	4.717143e-05
31	0x3981bc2f	0.00024745005
32	0x3a092e39	0.0005233023
33	0xb8e474b3	-0.00010893624
34	0x38fcf73e	0.00012062349
35	0x37d9b9a4	2.5954861e-05
36	0x39552ad8	0.00020329223
37	0x39e642c5	0.00043918766
38	0xb95060e6	-0.00019872523
39	0xb9fa18d5	-0.00047702217
40	0x39dcbb50	0.0004210123
41	0xb955dc20	-0.00020395266
42	0xb9a58240	-0.00031568296
43	0x390253ed	0.00012429031
44	0x39195b7a	0.00014625295
45	0xb94fe2a6	-0.00019825491
46	0xb9a00f0f	-0.00030528798
47	0x39c8d908	0.00038308674
48	0x39288fcf	0.00016075301
49	0xb8396041	-4.419708e-05
50	0x3974dd2f	0.0002335205
51	0x37cedf68	2.4661145e-05
52	0x391b5da7	0.0001481684
53	0x39a91c9e	0.00032255513
54	0x39996be4	0.0002926282
55	0x38bbb767	8.951016e-05
56	0x39be4c6c	0.00036296563
57	0xb96fa9b0	-0.0002285603
58	0xb9968526	-0.00028709433
59	0x3904a6af	0.00012650595
60	0x39b236eb	0.00033991723
61	0xb94a02bb	-0.00019265238
62	0xb88275d9	-6.220834e-05
63	0x391c32f1	0.00014896296
64	0x39d4f730	0.0004061996
65	0x38e69d1a	0.00010996517
66	0x395a7a49	0.00020835655
67	0x37577ddd	1.28443035e-05
68	0x387128d4	5.74969e-05
69	0x39ab0f4f	0.00032627067
70	0x394e7c33	0.00019691959
71	0x38782c0a	5.9168822e-05
72	0x39d2db53	0.0004021773
73	0xb94791a3	-0.00019032373
74	0xb99c0649	-0.00029759321
75	0x3952fd7a	0.00020121588
76	0x391964c0	0.0001462875
77	0xb9768f44	-0.00023513759
78	0xb792e327	-1.7510332e-05
79	0x390a2d43	0.00013177567
80	0x00000000	0.0
81	0x00000000	0.0
82	0x00000000	0.0
83	0x00000000	0.0
84	0x00000000	0.0
85	0x00000000	0.0
86	0x00000000	0.0
87	0x00000000	0.0
88	0x00000000	0.0
89	0x00000000	0.0
90	0x00000000	0.0
91	0x00000000	0.0
92	0x00000000	0.0
93	0x00000000	0.0
94	0x00000000	0.0
95	0x00000000	0.0
96	0x00000000	0.0
97	0x00000000	0.0
98	0x00000000	0.0
99	0x00000000	0.0
100	0x00000000	0.0
101	0x00000000	0.0
102	0x00000000	0.0
103	0x00000000	0.0
104	0x00000000	0.0
105	0x00000000	0.0
106	0x00000000	0.0
107	0x00000000	0.0
108	0x00000000	0.0
109	0x00000000	0.0
110	0x00000000	0.0
111	0x00000000	0.0
112	0x00000000	0.0
113	0x00000000	0.0
114	0x00000000	0.0
115	0x00000000	0.0
116	0x00000000	0.0
117	0x00000000	0.0
118	0x00000000	0.0
119	0x00000000	0.0
120	0x00000000	0.0
121	0x00000000	0.0
122	0x00000000	0.0
123	0x00000000	0.0
124	0x00000000	0.0
125	0x00000000	0.0
126	0x00000000	0.0
127	0x00000000	0.0
128	0x00000000	0.0
129	0x00000000	0.0
130	0x00000000	0.0
131	0x00000000	0.0
132	0x00000000	0.0
133	0x00000000	0.0
134	0x00000000	0.0
135	0x00000000	0.0
136	0x00000000	0.0
137	0x00000000	0.0
138	0x00000000	0.0
139	0x00000000	0.0
140	0x00000000	0.0
141	0x00000000	0.0
142	0x00000000	0.0
143	0x00000000	0.0
144	0x00000000	0.0
145	0x00000000	0.0
146	0x00000000	0.0
147	0x00000000	0.0
148	0x00000000	0.0
149	0x00000000	0.0
150	0x00000000	0.0
151	0x00000000	0.0
152	0x00000000	0.0
153	0x00000000	0.0
154	0x00000000	0.0
155	0x00000000	0.0
156	0x00000000	0.0
157	0x00000000	0.0
158	0x00000000	0.0
159	0x00000000	0.0
160	0x00000000	0.0
161	0x00000000	0.0
162	0x00000000	0.0
163	0x00000000	0.0
164	0x00000000	0.0
165	0x00000000	0.0
166	0x00000000	0.0
167	0x00000000	0.0
168	0x00000000	0.0
169	0x00000000	0.0
170	0x00000000	0.0
171	0x00000000	0.0
172	0x00000000	0.0
173	0x00000000	0.0
174	0x00000000	0.0
175	0x00000000	0.0
176	0x00000000	0.0
177	0x00000000	0.0
178	0x00000000	0.0
179	0x00000000	0.0
180	0x00000000	0.0
181	0x00000000	0.0
182	0x00000000	0.0
183	0x00000000	0.0
184	0x00000000	0.0
185	0x00000000	0.0
186	0x00000000	0.0
187	0x00000000	0.0
188	0x00000000	0.0
189	0x00000000	0.0
190	0x00000000	0.0
191	0x00000000	0.0
192	0x396c4e91	0.00022535982
193	0x39ddfca3	0.00042340634
194	0xb9a26029	-0.00030970693
195	0x39270c89	0.00015931031
196	0xb8a152c7	-7.692497e-05
197	0xb81cf4b9	-3.7421214e-05
198	0x39a4aaab	0.00031407675
199	0xb9dd9e95	-0.00042270558
200	0xb9c00e4a	-0.0003663174
201	0xb8d9838a	-0.000103718674
202	0xb69fa78f	-4.7580756e-06
203	0x39ada300	0.00033118576
204	0x3900c00c	0.00012278574
205	0xba07f1e3	-0.0005185885
206	0x398a3087	0.00026357567
207	0xb9e9e4e6	-0.00044611766
208	0x3a02d9b0	0.00049915444
209	0x3a0db6f7	0.0005405987
210	0xb9b3fd30	-0.0003433018
211	0x39132292	0.00014031891
212	0x3824642c	3.919394e-05
213	0x38cc9f16	9.75711e-05
214	0x386c4f80	5.6340825e-05
215	0xb9ad2590	-0.00033025118
216	0xb9b6bc09	-0.00034853842
217	0xb90dacdf	-0.00013511207
218	0x39453de4	0.0001881044
219	0x3a11eefd	0.0005566923
220	0x39067bb0	0.00012825313
221	0xb9ffcbe7	-0.0004878931
222	0x3a1d3ff4	0.00059986045
223	0xb99737c5	-0.00028842516
224	0x3a094916	0.0005237026
225	0x39aa309d	0.00032461146
226	0xb9ac9ce9	-0.00032923304
227	0x384c9c0b	4.8782716e-05
228	0x39079f7d	0.00012934017
229	0x38aa50ed	8.121305e-05
230	0x375c2080	1.3120589e-05
231	0xba26571f	-0.00063453795
232	0xb7806f8c	-1.5310732e-05
233	0xb8f43fd7	-0.00011646718
234	0x399fa608	0.00030450546
235	0x39f65fb7	0.0004699209
236	0x389f0dec	7.584304e-05
237	0xba106c6e	-0.00055093213
238	0x3973aff4	0.00023239834
239	0xb9b00ecb	-0.00033580358
240	0x39e3f7e7	0.00043481516
241	0x39b36e26	0.00034223608
242	0xb9cc4b31	-0.00038965934
243	0x3901a4a6	0.00012363735
244	0x37ef544e	2.8530278e-05
245	0xb860c192	-5.3586038e-05
246	0xb898f57c	-7.29365e-05
247	0xb9d9f45d	-0.0004157153
248	0xb9448b40	-0.00018743891
249	0xb8460e6d	-4.7220314e-05
250	0x39995079	0.0002924239
251	0x3a0762ae	0.0005164546
252	0xb728f8d8	-1.0071519e-05
253	0xba0326ef	-0.0005003055
254	0x39bf974e	0.0003654309
255	0xb9b5ef3d	-0.00034701257
