SGE_Transformer/model/2_room/eil_2_room_198_model/EBC_model_67999.pth (torch, 319288 bytes, 27 tensors)

encoder.embedding.weight f4 [900, 16]
00000000: e020 943e dd3f 4cbf ae61 453f 58dc f73f
00000010: be00 0b3f 841f 433f 4ed3 b43d cbda 153f
00000020: df2c c83f d763 983f 4e34 c13f 8809 43bf
00000030: 8964 e83f eb1d 1cbf 2df6 81bf 2b7c 2a3f
00000040: bb49 97bf f49b 743d ec19 053f efc9 13bf
00000050: 6aed 073f dc9b 133f 7618 a43e 95e7 ef3d
00000060: c3fd 83bf daa1 b6bf ba3b 0d40 abdf ccbf
00000070: d33e 603f fdea 57be 7bd6 dbbe 3428 c2bf
00000080: 1a20 1e3f 19b5 96bd 2694 f6be c9c8 fb3e
00000090: ca9d 4ebd 59bd 4b3e 8cd9 c6be 45ef ffbf
000000a0: 6ac0 3abf 1ed2 8f3f e7a6 7cbf 8323 e8bc
000000b0: baf0 a3bf 6ed4 ac3d e3b1 5cc0 9a97 95bf
000000c0: 8115 b03e 5036 5fbf f5cf b3bf 4c2a 4bbf
000000d0: 407d 423f e576 de3f f56f 90bf b3fa e63e
000000e0: a714 b3bf eb48 003e d6a6 303f de2f adbf
000000f0: 9940 8cbf b6de 28bf 9572 3fbf 9436 27c0
00000100: 08ae 893f f262 e83e 671f c1bf 9519 1f40
00000110: f0ae 6dbf 38ff 88bd 5ca3 babf 6e7f 9d3e
00000120: 2ed4 16bf c715 4ebe c1e5 ab3d d0e5 e9bf
00000130: 48c8 07c0 5ecd 59be fb86 1abf 71d2 053d
00000140: b518 193e 4686 2e3f 0daa c83f 767d f33e
00000150: 41a4 80bf 09fb 82bf 3c7d 053f 5be3 f6be
00000160: c4ca 45bf 45a6 2f40 beea fcbf 30f0 d43e
00000170: 139d c83f c321 23bd 97e2 78bf b849 36bf
00000180: b5b7 753e e57c 99bf 171e 883f 144c 2dbf
00000190: 0cd4 29bf 842e ac3e 80b9 043f c4d6 843f
000001a0: 3de2 293d 8d83 573f 5a75 06be fc08 bfbf
000001b0: 2026 ba3e 4ad5 02bf 3846 d6be 3d48 973f
000001c0: 722c 88be d2df 4d3f a67b 9dbe 5f48 ad3f
000001d0: 44c2 2a3f 598f 71be 8154 2fbe 23c7 0f3f
000001e0: dc35 9d3e c8f4 ac3e 7400 053e 6f95 133f
000001f0: d158 a63c c0fd b23f 8f5e b53f c0bf c0bb
00000200: 45e8 61bf e3f6 f9be f994 adbf 1a0e 6fbe
00000210: 1735 ea3f ed78 cb3f 8a5e 363e ba0f 033f
00000220: f0d7 0bbf 86c2 b8bf 323e f6bf af88 90bf
00000230: 94de 803f c211 10bc 91f0 4dbf 8aa0 fb3f
00000240: 0af0 d23f 35e7 113f 9c2e 4abc 3f44 bcbf
00000250: b977 3dbd 9966 08bf bde4 283f 7df5 0b40
00000260: 45c5 f93e 2980 0b40 3a38 bbbf eb0b b2bf
00000270: 9346 ddbe f292 18be f77c d03d d6eb 33be
00000280: f3e7 a43e 5f13 9a3f 16cc ae3d e862 e1bf
00000290: 64f5 733d 0473 a7bf d01c 6c3e 8bbe 753f
000002a0: 40d0 103e 35a8 5c3f 5c43 8cbf 400f 92bf
000002b0: 2191 c0be 6303 83be a74a 91be bba9 8f3f
000002c0: ac14 0440 9122 063e bd48 693f 8468 ca3d
000002d0: ba85 2abf 05a8 6e3f a055 d13f 17dc 8cbf
000002e0: bb40 3c3f 7e9a 0140 377b 3ac0 955f 433e
000002f0: c2b8 2d3e 8734 33bf 8a28 c8bd 91a1 033f
00000300: 82dc 8e3f e2b9 103e b794 9ebf cc8d 0640
00000310: 03aa 113f d54f 1bbf 6eca 91bf bc16 6ebf
00000320: 026b c83f 766c 943f 6a23 be3f f64c 3bbe
00000330: 9e9f 5abf aae0 cdbf 78c0 efbf fec0 e5bf
00000340: adc7 de3f c455 fe3c c4b5 58bf f6a0 353f
00000350: 61c0 fe3e 3886 01bf 356b 0cbe bc3c b1be
00000360: baa7 53be f6ac f7be 15e4 1c3f 5421 37bf
00000370: b607 903f e77c a63f 056d 093f a542 40bf
00000380: b1ce adbf 5c1d d3bf 5e5c 22bf 4789 afbe
00000390: 7e63 8b3f 2106 243f e70b d5bf 9358 e2bf
000003a0: 05e0 963f 2d97 1e3f 49ca 2c3e 283f aabf
000003b0: 2e65 96bf bd24 88be fd6a cfbe 5bc6 c33e
000003c0: 6db8 62be 7e36 bfbe 18d1 29be 463d 5a3f
000003d0: 7aeb f63f 8563 183f 4ad3 87be b8c7 c1bf
000003e0: 4636 81be 5df8 e4bf 02df a03f 8c2e 19be
000003f0: fe99 723f 48c6 a63d ac1d 1540 b1e7 b03c
0.28931332 -0.7978495 0.7710217 1.9364119 0.5429801 0.76219964 0.08829366 0.58536977
1.5638694 1.1905469 1.5094087 -0.7618642 1.8155681 -0.6098315 -1.0153252 0.66595715
-1.1819376 0.05971904 0.5199268 -0.5773 0.5309664 0.576597 0.32049912 0.11714093
-1.0311817 -1.4268143 2.2067704 -1.6005758 0.8759586 -0.21085735 -0.42937073 -1.5168519
0.61767733 -0.073587604 -0.48159903 0.49176624 -0.050443448 0.19896449 -0.3883785 -1.9994894
-0.7294985 1.1235998 -0.9869217 -0.028337246 -1.2807839 0.08438955 -3.4483573 -1.168689
0.34391406 -0.8719225 -1.4047838 -0.79361415 0.75972366 1.7380034 -1.1284167 0.45113143
-1.3990678 0.12527816 0.6900457 -1.3530233 -1.0957214 -0.6596483 -0.74784213 -2.6127062
1.0756235 0.4538799 -1.5087708 2.4859364 -0.9284506 -0.06689304 -1.4581103 0.30761284
-0.5891751 -0.20125495 0.083934315 -1.8273258 -2.1215992 -0.21269748 -0.60362214 0.032671396
0.14950831 0.68173635 1.5676895 0.47556657 -1.0050126 -1.023286 0.5214422 -0.48220333
-0.7726252 2.7445233 -1.9759138 0.415895 1.5672935 -0.03982712 -0.9722075 -0.71206236
0.2399586 -1.199124 1.0634183 -0.6769421 -0.6633918 0.3362924 0.5184555 1.0378041
0.041475523 0.84185106 -0.13130704 -1.4924617 0.36357212 -0.51106703 -0.41850448 1.181892
-0.2659641 0.8041965 -0.307584 1.3537711 0.66702676 -0.23589839 -0.1712208 0.56163234
0.30705154 0.33780503 0.12988454 0.5764989 0.020306023 1.3983688 1.4169482 -0.0058822334
-0.8824504 -0.48821172 -1.3561088 -0.23345223 1.8297452 1.5896279 0.17809501 0.5119587
-0.5462637 -1.4434364 -1.923773 -1.1291713 1.0067925 -0.008793296 -0.804452 1.9658368
1.6479504 0.5699342 -0.012340214 -1.4708327 -0.046256755 -0.5328155 0.65974027 2.1868584
0.48783317 2.1796973 -1.4626534 -1.3909887 -0.43217906 -0.14899805 0.10180085 -0.17570433
0.32208213 1.2037162 0.0853502 -1.7608309 0.059560195 -1.3081975 0.23057866 0.9599387
0.14141941 0.86194164 -1.0958056 -1.1410904 -0.37610725 -0.2558852 -0.28377268 1.1223673
2.0637617 0.13099124 0.91126615 0.09883216 -0.666103 0.9322513 1.6354256 -1.1004666
0.7353627 2.0250545 -2.9137704 0.1907943 0.16965011 -0.70002025 -0.09773357 0.51418406
1.1161044 0.14133409 -1.2389134 2.1024046 0.5690004 -0.6066869 -1.1389902 -0.9300344
1.5657656 1.15956 1.4854558 -0.18291077 -0.85399806 -1.6084187 -1.8730612 -1.7949522
1.7404686 0.031046756 -0.8465235 0.7094873 0.49756148 -0.50595427 -0.13712771 -0.3461665
-0.20669451 -0.48374146 0.61285526 -0.7153523 1.1252353 1.3006867 0.53681976 -0.7510169
-1.3578702 -1.6493335 -0.6342219 -0.34284422 1.0889738 0.6407185 -1.6644257 -1.7683281
1.1787115 0.61949426 0.1687404 -1.3300524 -1.1749628 -0.2659053 -0.40511313 0.3823727
-0.22140665 -0.37346262 -0.16583669 0.85249746 1.9290612 0.59526855 -0.26528388 -1.5139074
-0.2523672 -1.7888294 1.2568057 -0.14959162 0.94766223 0.08143288 2.329936 0.021594854

encoder.lstm.weight_ih_l0 f4 [128, 16]
00000000: f075 a5be 2591 523e a903 d3be fd6a 32bf
00000010: fac6 a03d a549 d53e 7e61 04be 7da7 553e
00000020: 6aa9 56be fe86 8fbe fab0 0ebf 1a32 3bbe
00000030: db75 8e3e 9b23 763d 3f3f ffbc e79a c33e
00000040: caee 163d 7b14 083f 70ca e6be e728 08be
00000050: 34b5 693d 0aee ddbe 1796 4c3d 6d1b bc3e
00000060: 3f88 72be 8b49 5cbf b5fb fbbe 8834 a9be
00000070: a96d 393e b207 54bf eed7 df3d b1b6 75bc
00000080: 76d9 073d 91c5 3bbe edfa 6dbe 08e7 633e
00000090: ecb3 5fbe 6311 123d c01b 903e 6012 d43d
000000a0: 4bad 813d 081f b5be 7aa9 c9be edb4 243e
000000b0: ef6e db3b c02e b33d 257d 54be c357 a83e
000000c0: 3af1 27bf 369c 143e 583c 5a3f ede0 1a3e
000000d0: 439e 27bc de1e 1a3e 0489 49be 4acc efbd
000000e0: 9349 fdbd 6e86 343e b94d 2b3d 9bf3 7bbf
000000f0: 9cb7 f5be 2f7b c2ba a862 3d3e ac9e 603d
00000100: 1274 2ebe 304c 2b3d 0917 9a3e dfc5 9f3d
00000110: 9035 113f 5b8b 8f3e 72f6 15be 99b5 18bc
00000120: 758b f6be 51e0 debb e545 b53e 004f a4bd
00000130: e685 90be 011b 623e fdd6 35be f718 89be
00000140: faf9 a13e 678e 103f 6d02 f33d 0a21 ee3d
00000150: 0a0f 0ebd 4e46 e0bd eb13 54be b725 38bd
00000160: 71d1 023d bc41 3bbf f434 6abe de65 3a3e
00000170: 6108 023e 08a8 093f df80 b4be 7865 9e3e
00000180: f57d 5ebe ed20 373e efe4 d23d 4320 b8bd
00000190: 48b7 ed3e ffae 07bd 571e f33e 2f63 413e
000001a0: 0393 973d c166 1b3f 8b47 333d db96 e13e
000001b0: abf8 863e c366 cabd 4e25 023e ed03 2b3e
000001c0: 0f5b e4be e990 3abd 2213 39be f528 91be
000001d0: 5420 f53e c463 1b3f 456b 21bc c1df ca3e
000001e0: 3866 edbe 3e29 fcbd fc37 74bf a004 0cbe
000001f0: 16ab 71be a557 8a3f a3ec e23e e26c 95be
00000200: 4b06 d83d e696 bdbe 3080 3ebe 28e7 c53e
00000210: e2b5 653d 9568 b2be 84d8 473e 1c17 133f
00000220: 7973 0a3e 6547 733e 2cb6 2a3e 927c f83d
00000230: 5937 9e3e 8f22 0f3f ac89 6dbe 0715 d3b9
00000240: 5b58 743e 3fe8 893e 23a7 74bd a6e0 223e
00000250: b83c d9be 502b 8fbe 8064 85bd a6e9 c53e
00000260: 8413 99be 4f5d 423d cb08 37bf f492 54be
00000270: 5616 2d3e af98 3a3f 6254 f73c e838 9a3e
00000280: e3b8 8d3e a879 293e 7ec5 443e fe41 45be
00000290: 31d5 b33d 643b 4b3e 5775 a6bd 6c51 be3e
000002a0: f413 a9be ae4a ddbe 3b6a 90be f55c fabc
000002b0: 7635 073f ffaf 863d 7ba1 4cbd 8b7e 783d
000002c0: 21ec a1bd f0d8 043f 64b9 55bf 69e3 64bc
000002d0: 119e 3f3e aa51 cbbe 7a83 8b3d c37b 073f
000002e0: 4949 24bf 8cca e23e 1c01 e73a de6a b43e
000002f0: 52fd 9dbe 3596 a1bd 0cb2 713e d21b 533e
00000300: 7ea9 9a3b a676 1c3f b2ed adbe c62f 443f
00000310: 6246 5ebe 5f1e d83d 2028 26bf f0d9 843e
00000320: edf3 1a3e 502a a43e a764 113f b671 133e
00000330: 69b6 8d3c 0de2 d23e d029 053f 272e 433e
00000340: 48aa 1cbd 8780 4d3e d7c1 c6bd 85cc 58bd
00000350: 50e0 95be 0bda b33d d60f 953e b305 18be
00000360: 9008 30bd a3e2 03be 6183 55bc 7177 d33e
00000370: aa49 df3d ebc1 e33e d73b 89be a7de 803e
00000380: 3394 223e ba22 84be 0e60 a1be e1fe d23e
00000390: e3fe 193e effa 4f3e 7dba 453e 2951 9ebd
000003a0: 1221 50be 8953 263a 0495 1fbe d431 0abe
000003b0: 78c3 3abd 0949 98be fb28 b6bd 38ef a53d
000003c0: 8d83 ff3d b051 96be a398 a3be 1974 103e
000003d0: 5a31 9cbd be28 2a3f dd33 d4be 6fb1 11be
000003e0: 9551 973c 568a 9a3d dd89 483e 2766 c1be
000003f0: 3510 f4be 8baa 343e 786b be3d a01d fc3d
-0.32316542 0.2056318 -0.4121373 -0.696945 0.07850452 0.4165775 -0.12927815 0.20864673
-0.20963064 -0.28032678 -0.55738795 -0.18280831 0.27824292 0.06009255 -0.031158088 0.3820412
0.03684882 0.5315625 -0.45076323 -0.13296853 0.057057574 -0.43345672 0.049947824 0.36739674
-0.23684786 -0.8604972 -0.49215475 -0.3304789 0.18108238 -0.8282424 0.10929857 -0.01499717
0.03316637 -0.18337084 -0.23240252 0.222561 -0.21845978 0.035661113 0.28146172 0.10355067
0.06331881 -0.35375237 -0.39387113 0.16084643 0.006696574 0.08749151 -0.20750864 0.32879457
-0.6560246 0.14512715 0.8524833 0.15124865 -0.010230604 0.15050837 -0.19681174 -0.11708887
-0.12367549 0.17629406 0.04182217 -0.9841859 -0.47991645 -0.0014837737 0.18494666 0.05483882
-0.17036465 0.041820705 0.300957 0.07801413 0.56722355 0.28036007 -0.14644793 -0.00932064
-0.48153272 -0.006801643 0.35404888 -0.080228806 -0.28227156 0.22080614 -0.17757793 -0.2677686
0.3163603 0.5646729 0.11865697 0.116273955 -0.03468231 -0.109509096 -0.20710723 -0.044957843
0.03193802 -0.7314718 -0.22871763 0.18202922 0.12698509 0.5377202 -0.3525457 0.3093679
-0.21727736 0.17883654 0.10297572 -0.089905284 0.46428895 -0.033125874 0.47484085 0.18885492
0.07401087 0.60703665 0.0437694 0.44060406 0.26361594 -0.098828815 0.12709543 0.16700716
-0.44600722 -0.045548353 -0.18073705 -0.2835156 0.47876227 0.60699105 -0.009852235 0.39623836
-0.4636705 -0.12312554 -0.95397925 -0.1367364 -0.2360042 1.0807997 0.44321164 -0.29184633
0.10548075 -0.3702919 -0.18603587 0.3865292 0.05608166 -0.34845415 0.19516188 0.5745714
0.13520612 0.23757704 0.16671056 0.12133135 0.30901602 0.5591211 -0.23197049 -0.00040260723
0.2386183 0.26935002 -0.059729706 0.15906009 -0.42429137 -0.27962732 -0.065133095 0.38654822
-0.29897702 0.047452267 -0.7149779 -0.20759183 0.16903052 0.72889227 0.030191604 0.3012154
0.2768012 0.16550314 0.19215962 -0.19263455 0.087808974 0.19846874 -0.081278495 0.37171495
-0.33023036 -0.4322104 -0.28206047 -0.030561903 0.5281595 0.06576537 -0.049958687 0.060667556
-0.07906366 0.5189352 -0.8348601 -0.013970234 0.18712641 -0.39710742 0.068121865 0.5292322
-0.64174324 0.44295156 0.0017624232 0.35237783 -0.3085733 -0.07889978 0.23603076 0.20616081
0.004719912 0.61118543 -0.3397041 0.76635396 -0.21706536 0.10552668 -0.64904976 0.25947523
0.15132113 0.32063532 0.5679421 0.14398846 0.017298894 0.41188088 0.52016926 0.19060574
-0.03824833 0.2006856 -0.09704941 -0.05292942 -0.292727 0.08781823 0.29113644 -0.14845924
-0.042976916 -0.12879424 -0.013031811 0.41302064 0.10902722 0.44483885 -0.26803467 0.2516987
0.15876846 -0.25807744 -0.31518596 0.41210082 0.15038638 0.20310567 0.19309421 -0.07730324
-0.20325115 0.0006344845 -0.15584189 -0.1349557 -0.04559657 -0.2974322 -0.08894535 0.08102268
0.12476263 -0.29359198 -0.3195239 0.14106788 -0.076266006 0.6646842 -0.4144582 -0.14227842
0.018471519 0.07545917 0.1958384 -0.3777325 -0.47668615 0.17643182 0.09297842 0.12310338

encoder.lstm.weight_hh_l0 f4 [128, 32]
00000000: e84d 5fbf 6c3b 3cbe fae9 88be 8410 aa3e
00000010: 54a4 2b3f 466e 8ebe d218 0b3d 0bb6 0abf
00000020: aed5 04be 8d49 eabe 9183 debd d2b8 bbbe
00000030: ad9a c03e 7b4f 0cbe 2c52 f03e 22a6 40be
00000040: 6e71 c43e 1e2b 49bd 5e8f 00bf 3e71 4cbf
00000050: 22f9 3dbe e898 833e ee38 42bf f94a f1be
00000060: fba6 663e 2fbe 2dbe 5987 a53d 0437 60be
00000070: 5715 f7be 34da 783e 2eb4 2abd 8584 42be
00000080: f1c3 00be 7c31 9a3e e101 0bbf 8561 73bd
00000090: 8128 0a3f f613 f9be a723 e43d 0678 e2bd
000000a0: 5637 a3bd 0da1 8dbd b9c3 d7be 6de4 bbbd
000000b0: dac9 6fbe 8f1c d1bd 50d1 603f b322 88bc
000000c0: 2228 f33d 6ffc 113f d08c b63e 41a4 9cbd
000000d0: f5b3 34bf e26b 003f d7f5 993d 6993 963e
000000e0: 1d42 283f 7483 5c3d ee43 afbd de36 86be
000000f0: dba1 44bf 2733 1e3f 5ecd 383f cbc8 7fbd
00000100: b9eb 103f 031d 003e eca2 a7bd 2776 81be
00000110: f044 8a3f 65da 39bf b9c3 8a3e 478e 993c
00000120: c404 d6be 4487 5bbf 5435 113e 6397 95bf
00000130: a6f0 a43d 05fd 5abf f112 823e a015 92be
00000140: f792 2b3e 9506 a2be b854 0a3f 682d ccbe
00000150: 9503 05bf 9915 013e f550 72be 1e68 03be
00000160: 2c79 ba3e b77c 19bf a171 383d 42b6 54bf
00000170: f67a aebe 22d8 ecbc 2f4e 04be 2f36 05bf
00000180: 5b34 32be 1fce 90be 5fab ee3d 44a8 71be
00000190: 1845 a3be fb36 47bf 2bab fdbd 5cd7 883e
000001a0: 651e d23c 3f7c 8e3e 5f16 913d 288f 04bf
000001b0: 21c7 35be 73c1 34bf d986 51be 2ab4 b13e
000001c0: 261e ed3e 1052 e8be ed74 b43e cd81 e1bd
000001d0: 829b 33be 9033 4bbe 74dd a2be b399 b23d
000001e0: 1273 1ebe 8aec 0f3f ab93 2bbf e13c d7bd
000001f0: 36bf dbbe baf1 74be b1d0 e03d a488 b63e
00000200: 767a a1be ad45 523d 3ee2 27be f904 413e
00000210: b222 143f 5315 2dbf 81f2 80bd aed4 373f
00000220: bb88 96be c814 a1bd 3ae5 24be 79ad 3a3e
00000230: 1d1a ee3e 6a80 633d cb46 303f 2595 4f3e
00000240: f096 993e 4638 4fbe 0a6b 54bd 10e4 b4be
00000250: 2e86 c0be 0782 a13e 997a 083e 2be4 8bbe
00000260: b8fe ca3e c34e 853d 716c b5be d18d be3e
00000270: eeae 1ebf ed3e 6f3f 1370 ebbe 6b1b ddbe
00000280: 32bc 863e cd75 8bbe c2f5 d2be 1aa7 eabe
00000290: 908f ddbc 654c cdbe 1a91 173f c193 723f
000002a0: 59cd f7be 8dd8 5a3d 78b7 18bf b1a8 09be
000002b0: cc2a 7bbe d1f9 bcbd d3db ee3d 6521 5ebe
000002c0: e057 653e 5bb0 993b 0486 8e3e 7bc7 5d3c
000002d0: ec83 253c 924a da3e 5023 d53e adf4 00bf
000002e0: 4f6d 4dbe df10 c1be 85a3 d4be 929e 04bf
000002f0: 066a 27be 3f21 c03e e8f3 12bf 8df3 24bb
00000300: 4dee 913e 72ee f03e 7f62 9bbe 3810 593e
00000310: 6e7e 0f3e 03fc d0be 7a78 eebd 6e99 343f
00000320: dfcb a2be 4a19 a8bc 6cb0 fcbe 2e6b 16bf
00000330: a3c0 8cbd 8605 07bf 915d a5be 7b70 203e
00000340: 736d a03c 2ec2 a73d 3fe3 05bf f923 533e
00000350: 14c3 0abf 268b 303f 27e7 a1bd f411 81be
00000360: da47 a43f 73dc e0be 25c0 af3d 53e8 a4be
00000370: 2355 64bf d4b4 9b3e c025 6ebb a08c 77be
00000380: 94b8 4a3d 8841 8ebe 8c69 4ebf 862d 55be
00000390: 5486 7f3f 9543 edbe d286 60be daec 8e3d
000003a0: a989 78be 9e11 84be 0606 b3be f908 ba3d
000003b0: 591e 613e 7512 00bf 6583 0a3f 3639 52bd
000003c0: dc76 c53e e237 3d3e fb11 89be f6a1 0fbe
000003d0: 1be2 593d c4cc 5b3e dc9a 39bf e9b4 dcbe
000003e0: cf26 6fbe c6e7 2ebf 306a e2be b694 6dbf
000003f0: b809 f4be 9f10 e13e 6e8b 1cbe ba2e 8bbe
-0.8722825 -0.18382043 -0.2674101 0.33215725 0.6704762 -0.27818507 0.033959217 -0.54184026
-0.12972137 -0.4575924 -0.10864938 -0.36664444 0.37618008 -0.13702194 0.46937692 -0.18813375
0.3836779 -0.049113385 -0.5021876 -0.79860294 -0.18552068 0.25702596 -0.7586812 -0.47127512
0.22524635 -0.1696708 0.08082456 -0.21895987 -0.48258469 0.24301988 -0.04167574 -0.18995865
-0.12574746 0.3011588 -0.5429974 -0.059419174 0.53968054 -0.4864804 0.11139613 -0.11058049
-0.07969539 -0.069154836 -0.42141512 -0.09174428 -0.23416844 -0.10210525 0.87819386 -0.016618108
0.11872889 0.5702581 0.35654306 -0.076485164 -0.7058709 0.50164616 0.07517593 0.2940934
0.6572588 0.0538363 -0.085578784 -0.26213735 -0.7680947 0.617968 0.72188365 -0.06244735
0.56609684 0.12511067 -0.08185372 -0.25285456 1.0802288 -0.7259887 0.2710245 0.018744601
-0.4180051 -0.85753274 0.141805 -1.1686825 0.080537125 -0.8554233 0.25405076 -0.28532124
0.16755281 -0.31645647 0.5403552 -0.39878392 -0.5195859 0.12605895 -0.23663695 -0.12832686
0.36420572 -0.59955925 0.04503024 -0.83090603 -0.34078187 -0.028911654 -0.1292045 -0.520358
-0.17402785 -0.28282258 0.1165378 -0.23599344 -0.31888652 -0.7781827 -0.12386163 0.26726806
0.025649259 0.27829167 0.07084345 -0.5178094 -0.17751743 -0.7060768 -0.20461597 0.34707767
0.46312064 -0.4537511 0.35245457 -0.11011086 -0.1753979 -0.19843888 -0.3180958 0.08720722
-0.15473583 0.56220305 -0.670222 -0.105096586 -0.4291932 -0.23920336 0.10977305 0.35651124
-0.31538743 0.05133598 -0.16394898 0.18849553 0.5786544 -0.67610663 -0.06296254 0.718089
-0.29401192 -0.07865292 -0.16103068 0.18230237 0.46504298 0.055542387 0.6885802 0.20271738
0.2999797 -0.2023631 -0.051859893 -0.35330248 -0.3760237 0.31544515 0.13328017 -0.27322516
0.3964746 0.06509163 -0.35434297 0.37217572 -0.6198567 0.9345539 -0.45983943 -0.4318498
0.26315457 -0.27238312 -0.41203123 -0.45830613 -0.027045995 -0.40097347 0.5920578 0.94756705
-0.48398855 0.053429175 -0.5965495 -0.13443257 -0.24528044 -0.09227336 0.11663022 -0.21692427
0.22396803 0.0046902127 0.2783662 0.013536329 0.010102253 0.42635018 0.41628504 -0.50373346
-0.20061229 -0.37708184 -0.41531006 -0.5180446 -0.16349038 0.37525365 -0.5740342 -0.0025169582
0.28502122 0.4705692 -0.30348584 0.21197593 0.14013073 -0.4081727 -0.11644073 0.70546615
-0.31796166 -0.020519871 -0.4935335 -0.58757293 -0.0687268 -0.52742803 -0.32297948 0.15667908
0.01958344 0.08191334 -0.52299875 0.20619191 -0.54203916 0.68962324 -0.07905417 -0.2520901
1.2834427 -0.4391819 0.085815705 -0.322085 -0.8919241 0.30411398 -0.0036338419 -0.24174738
0.049492434 -0.2778437 -0.806298 -0.20818147 0.99814343 -0.46340623 -0.2192643 0.069787696
-0.24271263 -0.2579469 -0.34965533 0.09083743 0.21984233 -0.50028163 0.5410674 -0.05132409
0.38567245 0.18478349 -0.2677153 -0.14026627 0.053194147 0.2146483 -0.7250192 -0.43106773
-0.23354648 -0.6832241 -0.4422164 -0.9280504 -0.47663665 0.43957993 -0.15287563 -0.27184087

encoder.lstm.bias_ih_l0 f4 [128]
00000000: 0be2 1d3f b8c3 bf3e f5ee bd3e 1eb4 c83d
00000010: 3464 6c3e 9bf6 f03e a212 dc3e 43bd c13e
00000020: 5586 a13e c62c cd3e 484c ac3d de63 673d
00000030: c99c 073d 4b4b 3d3f ac23 693e a0d4 443e
00000040: 8b1d fb3e 9b59 ff3e b508 253f 25da 883c
00000050: 92ab 403e 62a2 1b3e a04e ca3e 2c37 843e
00000060: c607 a63e 9242 9e3e 823c cf3e b60e 6a3e
00000070: 5bce 213f 5dd5 aa3e 5098 e5bd 6a20 693e
00000080: 820c 893e dee0 85be 0174 a93e a939 0c3e
00000090: 5344 933b 1663 c93e 7693 223e d06d 7e3e
000000a0: 2f27 713e 4a9c b43e 2f7a 1c3e d2c1 113f
000000b0: 87b8 a13e 1f75 833e 6072 a33e e3e8 833e
000000c0: 2d74 d63e 6c73 9a3d 382f 9c3e c576 7a3e
000000d0: dfa4 4e3e 9679 473e a0eb 293e abde ab3e
000000e0: 4837 d13e 216d 943e 25ab 573e eb0b a53d
000000f0: 2b03 403e aba5 ec3e 7f97 ee3d ac4f 99bd
00000100: a65a 413c ea59 86bc d52e 0dbe 52b7 5bbe
00000110: 496a 383e 4023 a2bd 0e9f ae3d dcdc e13d
00000120: 8eaf 3cbe f963 32bd 3121 043d 45c8 71be
00000130: db2a 33be 78a0 51be 57e3 18bd dbc2 0c3e
00000140: f067 203d d5a7 48be b466 5c3d d0b3 e6bd
00000150: 3a08 07bf 2fc3 8c3e 7345 27be 6a9d c33b
00000160: f0b1 7a3e 383e 59be 6cc6 99bd 8283 98bd
00000170: a968 80be 8e68 ad3e 9cf3 7fbe c150 23be
00000180: 3cdb 863e a910 b63e 0f50 573e 4348 c33e
00000190: a726 753e 43da a43d 1cb1 063e e275 e83d
000001a0: 043f 2e3f 5d91 993e 3d48 29be 5e17 593e
000001b0: 8c6b 2f3e e01e 783d a84a 9ebe 0c96 e33d
000001c0: a407 073e bf0c fa3e 615d 553e d11e 8a3d
000001d0: 0b81 233d 8c38 86be 59a7 4e3d 3138 90bc
000001e0: be88 3abb cdca 923e 7aa6 383e 340e 893d
000001f0: d6b0 ab3d e382 eabd 77ad 57bd fdff ee3d
0.6167304 0.3745401 0.37096372 0.097999796 0.230851 0.47063145 0.42982966 0.37839708
0.315478 0.40073222 0.08412987 0.056491725 0.033108506 0.7394301 0.22767514 0.19221735
0.49045977 0.4987305 0.6446641 0.016705582 0.18815449 0.15198663 0.3951311 0.25823343
0.32427806 0.30910164 0.4047585 0.22857174 0.632055 0.33365908 -0.11210692 0.22766271
0.26767355 -0.26148123 0.33096316 0.1369387 0.004494229 0.3933341 0.15876564 0.24846578
0.23550104 0.3527549 0.15280984 0.5693637 0.31586096 0.25675294 0.319232 0.25763616
0.4188551 0.07541546 0.30504775 0.2445937 0.20180081 0.19479975 0.1659379 0.3356832
0.4086249 0.2898951 0.2106138 0.08058914 0.18751208 0.46220145 0.11649989 -0.07485899
0.011801397 -0.016400296 -0.13787396 -0.2145665 0.18009295 -0.0791688 0.08526431 0.11028454
-0.18426344 -0.043552373 0.032258216 -0.23611553 -0.17496817 -0.2047137 -0.037326183 0.13746206
0.039161623 -0.19595273 0.053808883 -0.11264765 -0.5274693 0.27492663 -0.16335087 0.005969693
0.2448194 -0.21215141 -0.07508549 -0.07446958 -0.2507985 0.3386883 -0.24995273 -0.15948774
0.26339138 0.35559586 0.21026634 0.3814107 0.23940526 0.080494426 0.131535 0.11350609
0.68064904 0.29993716 -0.16531463 0.2120032 0.1713087 0.06057632 -0.30916333 0.111126035
0.13186508 0.4883785 0.20836402 0.06744159 0.039917987 -0.26215017 0.050452564 -0.01760492
-0.0028462852 0.2867035 0.18032256 0.06692162 0.08383338 -0.11450746 -0.052655663 0.1166992

encoder.lstm.bias_hh_l0 f4 [128]
00000000: 0639 c53e 1255 b83e 77b9 fb3d c610 833e
00000010: 4d91 8e3e 6665 753e 9eba 9f3e b7ee 8b3e
00000020: 5f93 c63d 60fa d43e 3be4 cd3d 265a 7a3e
00000030: 844d 5d3d a9a4 573f f958 2c3d 4b6e c23e
00000040: f9ee 843e b87e 0f3f 0223 d03e e19a a3bd
00000050: bd78 543d 775a 843e 5028 ba3e 1581 a63d
00000060: d1f7 a83e 9b2a fb3e 6a8b 893e c6a0 3a3d
00000070: a609 d13e 987d f03e 4237 42bd 4fea 923e
00000080: b964 1b3e d30b 9abe 1c59 213d e2cf ef3d
00000090: 2d20 423e 0386 d03e 1ff2 a13d c19c db3e
000000a0: 1cad 583e 2e8c f73e d54e 113e b2bc df3e
000000b0: 1a4e 883e 0983 f63e f778 943e 19b5 893e
000000c0: ce9e b53e 8d20 c33d 2b30 203e 9513 8fbb
000000d0: 8036 3c3e c0a3 813e 529c f8bc ee00 9c3e
000000e0: 022e c33e 4ead cb3e ce85 9c3e 2396 b23e
000000f0: 7207 953e b6f5 a13e 1b13 9d3e 50d5 153e
00000100: b73b 213e dc11 76be 8978 8fbe c79a 47be
00000110: ff2a 9c3d ea26 0ebe acf1 343e bee2 803d
00000120: 7ebf 76bd 0f1f 21be 6dfa 0fbe e3b1 4dbe
00000130: 5e52 503d 0ba9 cdbd 87d0 26ba aabf fdbd
00000140: 9981 713e 4cd0 57be baa6 0ebd 853e 88bd
00000150: 281f 08bf 2e51 723d 33f4 8fbe 544b 19be
00000160: 9cd0 533e 160d 25be 5607 93be 78be 12be
00000170: e23d 74be 909d 973e dc15 a7be adc8 73be
00000180: bc73 a13e 116f a23e 80bf 633e 1ad9 7b3e
00000190: d3df a53e e46f 1dbb d817 b03d bf43 38be
000001a0: 0e7d 0d3f 48ef b63e 21d2 d5bd 103d d43d
000001b0: 793b 8a3d 2b46 593e 607c 1bbe 7cc7 1abd
000001c0: 713f bdbc 4f1e 363f b053 3c3c dd5e 603e
000001d0: e4d5 49bd 3751 3abe b72a 1c3d bbb5 4a3e
000001e0: e1c3 7ebd aec9 af3d 4ba9 653d b485 393e
000001f0: a3fa 0b3e 38f8 97bd 3686 483e 879c 763e
0.38520068 0.36002403 0.12291234 0.25598735 0.2784523 0.23964462 0.31197065 0.27330562
0.096960776 0.4159727 0.10053297 0.24448451 0.054029003 0.84235626 0.04207704 0.37974772
0.25963572 0.5605273 0.4065171 -0.07988525 0.051872957 0.2585027 0.3635888 0.08130089
0.3300157 0.49055943 0.26864177 0.04556348 0.40827674 0.4697082 -0.04741598 0.28694388
0.15175141 -0.30087146 0.039391622 0.117095724 0.18957587 0.40727243 0.07907509 0.4289303
0.21159786 0.48349136 0.14190228 0.4369865 0.26622087 0.48146847 0.2899854 0.2689598
0.3547272 0.09527693 0.15643375 -0.004366348 0.18380165 0.25320244 -0.030347977 0.3046946
0.3812104 0.39780658 0.30570835 0.3488017 0.29107243 0.31632775 0.3067864 0.14632154
0.15745436 -0.2403025 -0.2802165 -0.19492637 0.07625388 -0.13882032 0.17670316 0.06293248
-0.060241215 -0.15734504 -0.14060374 -0.2008739 0.0508598 -0.10042008 -0.00063634705 -0.12390073
0.23584594 -0.21075553 -0.03482697 -0.0665255 -0.5317254 0.05915945 -0.28115997 -0.14970142
0.20685047 -0.16118273 -0.28716534 -0.1433047 -0.23851731 0.29612398 -0.32633865 -0.2380702
0.3153361 0.31725362 0.2224102 0.24594536 0.32397327 -0.002402299 0.08598298 -0.17994593
0.55268943 0.35729432 -0.104404695 0.10363209 0.06749625 0.21218173 -0.15184164 -0.0377879
-0.02310154 0.7114 0.011494562 0.21911187 -0.049276248 -0.18195044 0.038126674 0.19795887
-0.062198523 0.08583389 0.056069653 0.1811741 0.13669829 -0.07420391 0.19582447 0.24083148

policy.net.0.weight f4 [128, 32]
00000000: e6a5 89be baea ffbc 0d03 323c 6513 8bbe
00000010: b92a a93d 4778 1e3d 2e34 403e 09fb 953e
00000020: fe38 fd3e 6975 2bbe 316b 24be 9b3a bbbe
00000030: 1a41 9abe 3a96 973d e53b 0bbe 41a4 1d3d
00000040: a4f5 f0bd 9a46 9bbe 24c3 b9be e004 683e
00000050: 07ba 0b3e bb55 e53d 1440 12be 0168 adbd
00000060: 3518 1d3e 39fe 943e 4a38 68be 7ea0 a1be
00000070: 6e93 3fbd 8789 393d 4b49 96be 3c10 33be
00000080: 5c08 683d 9c86 e8bc 4925 ddbd 7209 0e3e
00000090: c325 273d 2cef f93d c852 98be 1cde aa3e
000000a0: 8a65 cd3e d696 303d 7eb2 62be 94bc 6fbe
000000b0: af6a 03be 678a c2bd b0f1 28be ceb1 44be
000000c0: 9f50 673c f12a 34be bcbd 153d 7e9d 683c
000000d0: 3d93 adbe 84e4 233c 7f56 41bc b0e0 133e
000000e0: dd54 7e3e 8fa9 3b3d b238 893e 9c7a 3b3e
000000f0: 4436 15bd a594 7f3c f8dd 063e 8691 97be
00000100: 16e6 6dbe 3288 5cbe 0680 683c b4cb 183c
00000110: 1728 00bc e3e0 5bbc 54f5 78bd bd1a 893e
00000120: c6fe 083f d29d 92bc b314 d5bd 0cdc 453c
00000130: ec39 aabe fbc8 eabc a75b 43be b615 d23d
00000140: f7fb a0bd 8ad6 23bd 1960 c0bd e00f 9c3e
00000150: 6e12 f3bc 96ca 9d3c fe3d 22bd 4df2 dabc
00000160: 961d 37be 94c3 d33e 0aae 7a3c ab9b ee3c
00000170: 5dd0 e53d 064a dfbd 027c 803d 6ed7 50be
00000180: 6533 163f 139d f6be bb3b 7ebe e57f cf3e
00000190: b50b bf3e 91f7 9dbe 1767 26bf aab1 19bd
000001a0: a0a0 033f 8428 6fbe 2b48 493d 1f12 1dbf
000001b0: b7c2 20bf e91e a4be aed5 393e ceae bbbe
000001c0: 8e45 41be 772d 773e 0ddd 1ebe 29af 6f3d
000001d0: 7fa3 04bf 9ae6 ecbd b838 173e ca7f d9be
000001e0: 3639 00be 088b 7a3d e966 823e 93ec 183f
000001f0: 2493 5d3e 9d23 0cbd 0766 c43e d82a cbbe
00000200: 4314 de3d 6277 be3e 9d51 33be 20e4 a3be
00000210: 942f 2cbe 7cf2 9e3e 11fd bebe e530 69be
00000220: 35b2 b7be e41b 57be 5312 bf3e 4d44 16bf
00000230: 063b 79bf 4482 e2bd 5399 b4bd 5978 c7be
00000240: 115a a5be 92e5 27bf 1a35 96bc 4e2e 54be
00000250: 90cf bebe e155 2bbf f263 62bd 57c0 af3c
00000260: 37fa d6be f12a 113d efb6 023f 3b89 23be
00000270: 7c79 333e d070 0bbf 0c6d 813e 49f0 bbbd
00000280: c595 f5bb 372b d3be 813e 81be 8602 933e
00000290: c126 2a3e efd4 d8be 910e e53e 1fde cfbd
000002a0: f388 14be 18e7 483e d3a8 3abe 81ba bbbc
000002b0: 3a75 903e 5440 07bf e5ae 33bd 2781 47be
000002c0: 4856 d8bc 4dca 663e ecc6 04be 8076 b9bc
000002d0: b254 d1bc 87bf 4fbe 493e 44bd 3707 a1be
000002e0: 340b a2be 72ec cc3d 656e 03be 7ee5 a43e
000002f0: 487f 073e af10 b8bc 796f 44be 3490 053f
00000300: 2567 a8bb 1f08 693e a90d 043f 0b14 1cbf
00000310: c50d ea3e 8595 77bc c315 cb3d 1499 7cbe
00000320: d0df d2bd c672 10ba 047d 3b3e 8066 a83d
00000330: d5cc a5be f999 9d3d 70c1 ffbe c2e7 e9bd
00000340: f0ef b4bd d80f 4cbe 9f8f 52be a0ba 0ebf
00000350: bb43 3dbe 8022 cabe 80c8 ea3d b6f8 973e
00000360: db36 b6ba 3b24 683e 5ba0 843d d0ae 5b3b
00000370: 26dc 7c3e 2588 d6be 54d7 2bbd 0f10 afbd
00000380: 36a7 a63d d089 1c3e 3669 ba3e 157c a8bd
00000390: f62c 203e 6153 323e d43f 63be 1535 bbbe
000003a0: b96b 043d bff3 013e 1108 d9bd a5c3 81be
000003b0: 222c 1cbe eb63 de3c fbcd 0a3e aa53 013d
000003c0: 5b01 a2bd dfd6 2cbd 41bf 44be 1a5a e7bd
000003d0: e3c7 383d 0c95 19bd 78cf abbe 3983 633b
000003e0: 1e81 573e ff3b 1a3e 0e5b 33be 0452 ca3c
000003f0: a811 4bbb 90e8 983d 2d8d 0dbe 87ea 1e3e
-0.26884383 -0.031239856 0.010864985 -0.27163234 0.08260102 0.038688924 0.18769905 0.29293087
0.49457544 -0.16744007 -0.16056515 -0.3656815 -0.30127794 0.074017 -0.13597067 0.038486723
-0.11765602 -0.30327302 -0.36281693 0.2265811 0.13645183 0.111979924 -0.14282256 -0.08467103
0.15341265 0.29100206 -0.22677723 -0.31567758 -0.04677146 0.045297172 -0.29352793 -0.17486662
0.056648597 -0.0283845 -0.10798127 0.1387079 0.040807497 0.122038215 -0.29750657 0.3337258
0.4011653 0.0431126 -0.22138402 -0.2341178 -0.12833665 -0.094990544 -0.16498446 -0.19208452
0.014118343 -0.17594506 0.036557898 0.014197705 -0.33901396 0.010003213 -0.011800407 0.1444118
0.2483706 0.045816 0.26801068 0.1830849 -0.036428705 0.015599404 0.13170612 -0.29603213
-0.23232302 -0.2153633 0.014190679 0.00932591 -0.007822058 -0.013420316 -0.060780838 0.26778212
0.53513753 -0.01789752 -0.10404339 0.012076389 -0.33247316 -0.028660288 -0.19077931 0.10258047
-0.078605585 -0.039999522 -0.09393329 0.30480862 -0.029671874 0.01926164 -0.0396099 -0.026726866
-0.1788238 0.41360152 0.015300283 0.029126963 0.11221383 -0.10902791 0.062736526 -0.2039468
0.5867217 -0.48166713 -0.24827473 0.40527263 0.3731362 -0.3085294 -0.6500105 -0.03752295
0.5141697 -0.23355299 0.04914109 -0.61355776 -0.6279711 -0.32054833 0.18147919 -0.36656803
-0.1887419 0.24138437 -0.15514012 0.058516655 -0.51811975 -0.11567421 0.1476773 -0.42480308
-0.12521824 0.061167747 0.2546914 0.59735984 0.21638161 -0.03421365 0.3835909 -0.39681125
0.10843708 0.37200457 -0.17511602 -0.32009983 -0.16815025 0.31044376 -0.3730245 -0.22772558
-0.3587815 -0.21006733 0.37318668 -0.5869797 -0.9735569 -0.110600024 -0.08818307 -0.38959005
-0.32295278 -0.6558467 -0.018335868 -0.20720789 -0.37267733 -0.66927916 -0.055271097 0.02145402
-0.41987774 0.035441343 0.51060385 -0.15970318 0.17526811 -0.54469013 0.2527851 -0.0917669
-0.0074946606 -0.41243908 -0.25243 0.28712863 0.16616346 -0.42349955 0.44737676 -0.10149788
-0.14505367 0.19619405 -0.18228464 -0.02291608 0.28214437 -0.5283253 -0.043867964 -0.19482861
-0.02640833 0.22538109 -0.12966508 -0.022639513 -0.025553081 -0.20287906 -0.047910962 -0.31450817
-0.31649172 0.10006036 -0.12835081 0.3220634 0.13232148 -0.022468893 -0.19183148 0.5217316
-0.005139249 0.22757004 0.51583344 -0.60968083 0.4571363 -0.015111332 0.0991626 -0.2466777
-0.10296595 -0.00055102666 0.18309408 0.08222675 -0.32382837 0.076953836 -0.4995227 -0.114211574
-0.08834827 -0.19927919 -0.205626 -0.5575352 -0.18482868 -0.39479446 0.114640236 0.2968194
-0.0013901846 0.22670071 0.06475898 0.0033520944 0.24693355 -0.41900745 -0.0419534 -0.08547985
0.08137362 0.15286946 0.36408395 -0.08226792 0.15642151 0.17414619 -0.22192317 -0.36563936
0.032329295 0.12690638 -0.10597242 -0.25344577 -0.1525121 0.027147254 0.13555138 0.03157393
-0.07910415 -0.042197105 -0.19213583 -0.112964824 0.0451125 -0.037495658 -0.33556724 0.0034715666
0.21045348 0.15061949 -0.17515203 0.024697311 -0.0030985866 0.07466233 -0.13823386 0.15519153

policy.net.0.bias f4 [128]
00000000: 72e7 703d f841 13bd e410 90be 8378 9e3d
00000010: fc93 22be bd54 e7be 5cf9 b5be 975a b4be
00000020: e410 53bd be9e df3d 7f70 003e 6daf 66be
00000030: 0243 74be d311 053d 831a 54be f1dd 03be
00000040: 30f0 8f3d f66b 003e 7b3f c3be f5d8 6a3c
00000050: 89fd f33c 096a c3bd dee5 1c3e a8ff 63bd
00000060: 407c eebd 6288 c0be 3157 8bbe 3707 0b3c
00000070: aa3e 71be 10e8 81be de1b 6fbe 9c37 e2be
00000080: 5644 94be 1bce 84be 5b5a 62be 324c 223e
00000090: cc2d 1bbe 1c8a 5cbe 01fa 943d 1012 2cbe
000000a0: 70a8 b73c 8435 443b 23e6 163e 0969 c7be
000000b0: 28f3 223d 23c5 423d a59c cfbe 5797 c7be
000000c0: 6cfe 4e3d 65dd 623d 2a7d 9fbe b922 91be
000000d0: fb4d e33d cd95 dbbe a810 d0be c787 aebc
000000e0: 954d 9bbd c97d cb3c 086d 3cbd 8e4d 8ebe
000000f0: adea 02bc f779 3dbe 9940 613e 840e e7bd
00000100: e295 fcbd bff3 61bc ffb0 41bd 47a7 973d
00000110: 75b4 37bd 01d1 4ebe b264 dbbe c817 3abe
00000120: e214 a73d f1b8 24be 4a40 38bd 9e5b adbe
00000130: c505 abbd 1bdc 2b3e 7ae2 fd3d c382 563e
00000140: a789 893d 9a50 84be 5d12 afbd 8764 303d
00000150: 62a4 b8bd aacc c0be 632f b5be 184b debc
00000160: c57e 233e 34f2 c8bc ac18 2bbc f7d6 503e
00000170: 0cb9 3dbe daaa 213e 7d83 57be 57a4 12be
00000180: 5e04 82be 359c 57be f2f4 afbe c523 d8be
00000190: 34ff 6f3e 48e5 99bd 123c 7cbb f9fb d73d
000001a0: 0bd4 da3d 644a 003e eb9f 99bd e5a1 a3be
000001b0: 0319 3b3e b3d3 8abe 926a c7bd 29d9 be3d
000001c0: baba 1d3e 1b0a 92bd c6c7 a0be 8748 453e
000001d0: d84a 0abe 3d30 623d 6633 58be 62b4 b7bd
000001e0: be27 94be d973 873d 5619 bc3d 5ace 17be
000001f0: 9f71 6abe b0cb c23d a827 893d 8424 19be
0.058814473 -0.035951585 -0.28137887 0.077378295 -0.15876764 -0.45181838 -0.3554181 -0.35225365
-0.05152978 0.109189495 0.12542914 -0.22527857 -0.23853686 0.0324877 -0.20713238 -0.12877633
0.07028234 0.12541184 -0.3813437 0.014333953 0.02978398 -0.09541709 0.15322062 -0.055663735
-0.116447926 -0.37604052 -0.2721496 0.008485607 -0.2355906 -0.25372362 -0.23350474 -0.44183052
-0.28958386 -0.25938496 -0.2210478 0.15849379 -0.15154189 -0.2153706 0.07274247 -0.16803765
0.022419184 0.0029939124 0.14736228 -0.38947323 0.039782673 0.047551285 -0.40549198 -0.3898265
0.050535604 0.05538692 -0.3115018 -0.28346804 0.11098858 -0.42887726 -0.40637708 -0.021304978
-0.07583157 0.024840252 -0.046002418 -0.27793545 -0.007990521 -0.18503557 0.21997298 -0.112820655
-0.123332754 -0.013791024 -0.047287937 0.074049525 -0.04484983 -0.20196916 -0.42850262 -0.18173134
0.0815828 -0.16086175 -0.044983186 -0.3385896 -0.0835071 0.16783182 0.123967126 0.20948319
0.06715708 -0.25842744 -0.085484244 0.04306462 -0.090157285 -0.37656146 -0.35387716 -0.027135417
0.15966327 -0.024529554 -0.010442894 0.20394503 -0.18527621 0.15787831 -0.21046253 -0.14320503
-0.25393957 -0.21055682 -0.34366566 -0.4221479 0.23437196 -0.07514435 -0.0038487953 0.10546107
0.10684975 0.12528378 -0.07501205 -0.31959453 0.1827126 -0.2711464 -0.097371235 0.09318764
0.15403262 -0.07130834 -0.31402415 0.19265948 -0.13505113 0.055221785 -0.21113357 -0.08969952
-0.2893657 0.06613893 0.0918452 -0.1482481 -0.22894906 0.095115066 0.06697017 -0.14955336

policy.net.2.weight f4 [5, 128]
00000000: 1006 57bf cd84 ccbe e564 a9bf 4b2b 00bf
00000010: e608 4bc0 5305 d5bf 3c32 e2bf d0c7 b53c
00000020: 932e 91be ca05 4dbf 674a 97bf 97ab 6ebf
00000030: 1c07 aabe 7a5c 61bf 9e47 00bf 1ebe 5dbf
00000040: e26c 8cbf 5299 13bf f647 44be f4be b1bf
00000050: 7159 22c0 e769 e5be 1643 a7be 59b5 e5bf
00000060: 33e5 a1bf 3d4a 98bf 2759 abbe 15c6 7bbe
00000070: 7d54 f7be e4b3 aebe 0eee 00bf 051b a5be
00000080: e3c9 3cbf ab97 3bbe bbfd f5be 17b4 cebe
00000090: a8df cbbf b752 23c0 bcb1 48bf 258e 72bf
000000a0: bc44 42bf 6425 4fbe ebfd 63bf 39f8 9cbe
000000b0: a3bb c3bf 00f8 efbe 7d7f 60be b63d 85be
000000c0: cade 1abf 26a7 04c0 394f 63bf 1a4e debe
000000d0: a59b 53bf 7b90 3abf 8c4d d1be 0e08 61bf
000000e0: 8f86 5ac0 c96f adbf 9d06 34bf 88a2 0bc0
000000f0: 216b cfbe 480e f3be 9fdd c3be 9f48 60c0
00000100: 087b 6dc0 e442 34c0 fa7b 8dbe 4bc0 55c0
00000110: 4fdb e7bf d2aa 55be a3aa c0bf ded7 42c0
00000120: 897e 46bf 5115 a3be 9110 9dbf ed12 8bbd
00000130: 8b7b 16bf c0cb b6be 20db a5be c5d9 18bf
00000140: 25ff b0bf 5a72 98be 7029 7cbe 3e64 8cbe
00000150: c141 d4be 7e0f 20be e903 86bf d820 0ec0
00000160: e164 99bf 3000 fcbe 7600 2cbf 6b73 25bf
00000170: c811 25bf 5c84 17c0 5c64 35bf 4e7b adbe
00000180: 38ab 83be 4942 3abf 351a 8cbf d244 8dbe
00000190: aaf8 6bbf 242f 23bf e20e 17bf 7be4 a1bf
000001a0: df98 b2be a681 66bf 3fa1 49bf 1160 efbe
000001b0: de50 16c0 2f01 0cbe d2d7 01bf c668 1cc0
000001c0: 2c03 c2bf 9148 86bf 9b0e 85be 8925 80bf
000001d0: 5d6b 9cbf c9f9 a7bf 97c0 afbf f1c2 b8be
000001e0: e584 b8be 643d 00bf 9fb8 11bf f1f8 76be
000001f0: 044e a9be 6e54 c4be d16d d6be 428a a4bf
00000200: 521a 6fbd a180 0cbe 1d0a 9a3d 2334 903d
00000210: 27a7 82bf 22b6 2f3f c5e1 6bbd 2716 26be
00000220: fc4e 593d 4565 2f3e 3a7a d03d f73c 7f3d
00000230: ac68 56bc 24f8 ba3d ad1a 2a3d 7d5b 233d
00000240: 9f80 143c 04bf 0b3e db3f 18be 8025 183d
00000250: 8daa d13d 015d 343c 0c80 d13d 04f0 23bd
00000260: cf48 5c3f 8a57 ef3d 5236 25bd 70f4 c0be
00000270: 91aa 84bd 0d3e 033e 2d43 cb3c d167 913e
00000280: cbb3 883f eef0 bcbd c989 04bf be58 6d3d
00000290: ab46 d63d 6143 1fbf f141 cd3c be6e 263c
000002a0: 00a6 85be 7a9b 7dbe 69ff 58be 1934 07be
000002b0: 828e 0ebb 907d 853e 1dc8 e23d 5256 1fbe
000002c0: 2ce8 c63d 4a10 cd3e 57db 30bf 58b9 0c3d
000002d0: 6e6b 943d bbe2 e53d 260d 49be 9a4f 8ebc
000002e0: 1e11 213f 7ee9 01be 06e9 ab3c a8b2 883c
000002f0: c09e 9e3d 210b f53c 5533 d03d a7d3 823e
00000300: 0af0 6f3e 96b1 27be 5eb2 e23c 257c 8dbe
00000310: c7e6 72be a83e c43d 894a ffbe ec1d 853d
00000320: 6807 e3be 3b29 ba3d 3cd0 0e3e a3c9 1f3d
00000330: ea4f 2dbf ae39 e73d 7df8 1ebf 0b14 3ebc
00000340: 433f 52bb 598a 003d 84a6 be3d ea2e 653d
00000350: 36a6 143e f68c fabe 60f2 c9be 72af 81bf
00000360: ae16 6f3d 7efa dd3d 2cfa 233e e8e7 ff3e
00000370: 437e 833d 63fc 2a3e 51a8 84be 305e 8fbf
00000380: e483 0e3d 8263 693d 4b3f 223d 7726 8cbe
00000390: f991 933d 5ba6 9d3d 4b40 0d3d ce05 7e3d
000003a0: f7e9 f93c 4246 19be 053b d83d 5e4f 8fbf
000003b0: b6f1 82be 8142 7fbf 55dd e23d 85b0 6b3e
000003c0: b45a 3c3e 0dd6 ea3e b28e 953c afe3 efbe
000003d0: f8a3 993e e1f2 29be 30d7 943d dab8 88bc
000003e0: 134b dfbc c1ed 433d b29e 89bf d934 05bf
000003f0: 5a2c c93d 2e2b 1c3d fff6 c73d 7020 b23b
-0.83993626 -0.3994507 -1.3233916 -0.5006606 -3.172418 -1.664225 -1.767158 0.022190005
-0.28355846 -0.8008696 -1.1819581 -0.93230575 -0.3320855 -0.88031733 -0.5010928 -0.8661822
-1.0970728 -0.57655823 -0.19168076 -1.3886399 -2.536709 -0.4480736 -0.3266837 -1.7945968
-1.2648071 -1.1897656 -0.33466455 -0.24587281 -0.48306647 -0.3412162 -0.5036324 -0.32247177
-0.73745555 -0.18319575 -0.48045143 -0.40371773 -1.592763 -2.5519235 -0.783962 -0.94748145
-0.7588613 -0.20229107 -0.89059323 -0.3065813 -1.5291637 -0.46868896 -0.21923633 -0.26023644
-0.604962 -2.072702 -0.8879276 -0.43418962 -0.8265937 -0.7287671 -0.40879476 -0.87902915
-3.4144628 -1.3549739 -0.7032259 -2.1817951 -0.4051142 -0.47471833 -0.3825502 -3.5044324
-3.7106342 -2.8165827 -0.2763365 -3.3398616 -1.8113803 -0.20865944 -1.5052074 -3.0444255
-0.7753683 -0.318522 -1.2270681 -0.06790719 -0.5878226 -0.35702324 -0.32393742 -0.5970729
-1.3827864 -0.29774743 -0.24625182 -0.2742023 -0.41456416 -0.1563091 -1.0469943 -2.2207546
-1.1983911 -0.49218893 -0.67188203 -0.6462924 -0.6448026 -2.3674536 -0.7085626 -0.33883137
-0.25716567 -0.72757393 -1.0945498 -0.27591568 -0.92176306 -0.63743806 -0.59007084 -1.2647852
-0.34882256 -0.9004158 -0.78761667 -0.4675298 -2.3486857 -0.13672327 -0.5071994 -2.4438949
-1.5157218 -1.0490896 -0.25987706 -1.0011455 -1.2220265 -1.3123103 -1.3730649 -0.36086228
-0.3603889 -0.50093675 -0.56922334 -0.24118401 -0.33067334 -0.38345665 -0.41880658 -1.2854693
-0.05837471 -0.13720943 0.0752146 0.07041194 -1.0207261 0.6863729 -0.057588357 -0.16219388
0.05305384 0.17128475 0.10179563 0.062314 -0.013086479 0.0912936 0.041529346 0.039882172
0.009063869 0.13647085 -0.14868109 0.037145138 0.10237608 0.011008502 0.10229501 -0.04002382
0.860486 0.116866186 -0.040335007 -0.3768649 -0.064778455 0.12816639 0.024812305 0.28399518
1.0679868 -0.09225641 -0.51772743 0.05794596 0.104626976 -0.6221219 0.025055857 0.010158239
-0.2610321 -0.24766341 -0.21191181 -0.13203467 -0.0021752422 0.2607236 0.11073325 -0.15560272
0.09712252 0.4005149 -0.69084686 0.034356445 0.07247053 0.11224886 -0.19633922 -0.017371941
0.62916744 -0.12686726 0.020985138 0.016686752 0.07745123 0.029912533 0.10166041 0.25552103
0.23431411 -0.16376337 0.027672943 -0.27633777 -0.23720847 0.09582263 -0.49861553 0.06499848
-0.44341588 0.09089895 0.13946623 0.039010655 -0.67700064 0.112902984 -0.62097913 -0.011601458
-0.0032081164 0.03138194 0.09309104 0.055952944 0.1451653 -0.4893567 -0.3944273 -1.0131667
0.05837124 0.10838793 0.16013402 0.49981618 0.06420567 0.1669784 -0.25909665 -1.1200619
0.03479375 0.056979664 0.039611142 -0.27373096 0.072055764 0.076977454 0.034485143 0.062017255
0.030507071 -0.14968207 0.10558132 -1.1196096 -0.25575036 -0.9971085 0.11077372 0.23016556
0.18393975 0.45866433 0.018256519 -0.46853396 0.3000791 -0.16596557 0.07267606 -0.016689707
-0.027257478 0.04783416 -1.0751555 -0.52033764 0.098229125 0.038127117 0.09763908 0.0054359958

policy.net.2.bias f4 [5]
00000000: b0ee 0dc0 f544 d5bd 3720 f33d cfbd 26bd
00000010: da11 413e
-2.2176933 -0.10413543 0.11871379 -0.04070836 0.18854466

exp_avg f4 [900, 16]
00000000: c20f 08b8 096c 7fb6 62c9 7838 8672 d7b7
00000010: 0c66 22b7 ef43 ab37 732b fb37 fbab 63b8
00000020: 79bf 1338 c5e7 ce37 0b8f b138 ef2a d237
00000030: 255f 2eb8 6abf 2538 0cb8 d237 016a 66b8
00000040: b0be 0938 ef3f 02b8 5aa7 3b37 98ad f9b7
00000050: c5bf 5036 ddaa e5b7 51a5 3637 0ce3 c1b6
00000060: 3d23 7236 56f8 3937 56c3 e0b6 fe40 9237
00000070: c62b a937 359e ad37 30e5 bc36 adca 63b7
00000080: 49b0 6535 991a db37 a582 8fb7 d104 d737
00000090: 3365 0437 e4bd e1b7 ce9c c5b6 212f 8135
000000a0: 6d80 4337 8f07 2736 fc44 6db5 c840 0fb7
000000b0: fced eab7 c710 d636 0341 8db6 388e 6eb5
000000c0: 7baf 8c37 0d1f 9c37 ab6b 1ab7 e28a 08b6
000000d0: 4d2d 3e37 c412 afb6 b68a 82b7 fc44 8937
000000e0: 3f20 1037 c241 da35 62a9 4737 1a86 9235
000000f0: 2622 56b7 3d65 8836 316f 46b7 331b 06b7
00000100: c180 7c37 7867 ecb4 c805 2ab8 9cdb 2538
00000110: 8321 11b7 6fc0 aeb7 0cfb f136 2c25 b7b7
00000120: c24e 7737 4583 4038 3180 9b37 bab9 dbb7
00000130: 3ac0 1cb7 e4d0 c937 1b6e 0536 5b21 8bb7
00000140: 0000 0000 0000 0000 0000 0000 0000 0000
00000150: 0000 0000 0000 0000 0000 0000 0000 0000
00000160: 0000 0000 0000 0000 0000 0000 0000 0000
00000170: 0000 0000 0000 0000 0000 0000 0000 0000
00000180: 0000 0000 0000 0000 0000 0000 0000 0000
00000190: 0000 0000 0000 0000 0000 0000 0000 0000
000001a0: 0000 0000 0000 0000 0000 0000 0000 0000
000001b0: 0000 0000 0000 0000 0000 0000 0000 0000
000001c0: 0000 0000 0000 0000 0000 0000 0000 0000
000001d0: 0000 0000 0000 0000 0000 0000 0000 0000
000001e0: 0000 0000 0000 0000 0000 0000 0000 0000
000001f0: 0000 0000 0000 0000 0000 0000 0000 0000
00000200: 0000 0000 0000 0000 0000 0000 0000 0000
00000210: 0000 0000 0000 0000 0000 0000 0000 0000
00000220: 0000 0000 0000 0000 0000 0000 0000 0000
00000230: 0000 0000 0000 0000 0000 0000 0000 0000
00000240: 0000 0000 0000 0000 0000 0000 0000 0000
00000250: 0000 0000 0000 0000 0000 0000 0000 0000
00000260: 0000 0000 0000 0000 0000 0000 0000 0000
00000270: 0000 0000 0000 0000 0000 0000 0000 0000
00000280: 0000 0000 0000 0000 0000 0000 0000 0000
00000290: 0000 0000 0000 0000 0000 0000 0000 0000
000002a0: 0000 0000 0000 0000 0000 0000 0000 0000
000002b0: 0000 0000 0000 0000 0000 0000 0000 0000
000002c0: 0000 0000 0000 0000 0000 0000 0000 0000
000002d0: 0000 0000 0000 0000 0000 0000 0000 0000
000002e0: 0000 0000 0000 0000 0000 0000 0000 0000
000002f0: 0000 0000 0000 0000 0000 0000 0000 0000
00000300: ec97 a737 8bf5 a537 65b3 9137 6140 87b6
00000310: 2b65 05b7 d28d d3b7 897c 66b7 ddb3 25b7
00000320: f881 97b5 f54e 83b6 c7d6 af36 3166 84b6
00000330: 6943 e4b7 1854 0437 0740 61b7 454f c134
00000340: ca4f d436 c773 adb7 fcc5 b837 64b0 2537
00000350: 2626 d737 2d85 e3b7 7614 b3b6 14b4 bf37
00000360: 8522 f136 8d95 6a37 4c5d eb37 b422 2436
00000370: 4ed4 9cb7 9a31 5f37 d8d3 92b6 cbbb 9f37
00000380: 0a0a cc36 a8dd d7b7 cc21 02b8 af1e 3437
00000390: d8a0 0835 08f7 e336 8463 cd37 a99e e936
000003a0: 428e 5b37 478e 3ab8 a936 98b5 e96d 82b6
000003b0: 88a8 9635 b29e 07b8 5929 08b8 3729 2237
000003c0: f6de 73b7 ed6f 17b7 4cc4 89b7 faca 0b38
000003d0: b98b 9437 04fd e636 af5c 4238 4fe5 4d36
000003e0: 178c 1037 186f 96b5 ed4c 0cb8 f327 1138
000003f0: b447 3238 c6a9 31b7 08ae 85b5 807e f037
-3.2439602e-05 -3.8060846e-06 5.931536e-05 -2.5683326e-05 -9.679712e-06 2.0416423e-05 2.9941764e-05 -5.4281187e-05
3.5225854e-05 2.466504e-05 8.4666615e-05 2.5053943e-05 -4.1573443e-05 3.9517334e-05 2.5119654e-05 -5.4934997e-05
3.2840937e-05 -3.1053958e-05 1.1185033e-05 -2.9763949e-05 3.110604e-06 -2.7378492e-05 1.0886536e-05 -5.77828e-06
3.6081321e-06 1.10846795e-05 -6.6984603e-06 1.743482e-05 2.0166754e-05 2.0696878e-05 5.6295175e-06 -1.35774435e-05
8.5565676e-07 2.611922e-05 -1.7107765e-05 2.563224e-05 7.891375e-06 -2.6910515e-05 -5.889312e-06 9.624965e-07
1.1652807e-05 2.488934e-06 -8.8389766e-07 -8.538547e-06 -2.8005794e-05 6.37965e-06 -4.209696e-06 -8.8868865e-07
1.6771015e-05 1.8611108e-05 -9.204184e-06 -2.034642e-06 1.133543e-05 -5.217591e-06 -1.55618e-05 1.6363796e-05
8.590577e-06 1.6261404e-06 1.1900762e-05 1.0916876e-06 -1.2763345e-05 4.0649015e-06 -1.1827608e-05 -7.993355e-06
1.5050348e-05 -4.403371e-07 -4.0536543e-05 3.9543593e-05 -8.650476e-06 -2.0832025e-05 7.2115854e-06 -2.183261e-05
1.47406845e-05 4.589862e-05 1.8537134e-05 -2.619332e-05 -9.343081e-06 2.405834e-05 1.9882634e-06 -1.6585624e-05
0.0 0.0 0.0 0.0 0.0 0.0 0.0 0.0
0.0 0.0 0.0 0.0 0.0 0.0 0.0 0.0
0.0 0.0 0.0 0.0 0.0 0.0 0.0 0.0
0.0 0.0 0.0 0.0 0.0 0.0 0.0 0.0
0.0 0.0 0.0 0.0 0.0 0.0 0.0 0.0
0.0 0.0 0.0 0.0 0.0 0.0 0.0 0.0
0.0 0.0 0.0 0.0 0.0 0.0 0.0 0.0
0.0 0.0 0.0 0.0 0.0 0.0 0.0 0.0
0.0 0.0 0.0 0.0 0.0 0.0 0.0 0.0
0.0 0.0 0.0 0.0 0.0 0.0 0.0 0.0
0.0 0.0 0.0 0.0 0.0 0.0 0.0 0.0
0.0 0.0 0.0 0.0 0.0 0.0 0.0 0.0
0.0 0.0 0.0 0.0 0.0 0.0 0.0 0.0
0.0 0.0 0.0 0.0 0.0 0.0 0.0 0.0
1.9978695e-05 1.9783873e-05 1.7368884e-05 -4.030808e-06 -7.950973e-06 -2.52192e-05 -1.3738064e-05 -9.876644e-06
-1.1288203e-06 -3.913296e-06 5.24041e-06 -3.945803e-06 -2.7211108e-05 7.887393e-06 -1.3425953e-05 3.6006728e-07
6.327381e-06 -2.067712e-05 2.2026703e-05 9.8758355e-06 2.5647762e-05 -2.7122524e-05 -5.3369977e-06 2.285283e-05
7.1863783e-06 1.3982307e-05 2.8057628e-05 2.4458104e-06 -1.8695511e-05 1.3303385e-05 -4.375801e-06 1.9041725e-05
6.0808425e-06 -2.5733214e-05 -3.102589e-05 1.073598e-05 5.0898007e-07 6.7938854e-06 2.4484245e-05 6.9624116e-06
1.3086539e-05 -4.447836e-05 -1.1340791e-06 -3.887097e-06 1.122492e-06 -3.2334305e-05 -3.2463435e-05 9.6655485e-06
-1.4535841e-05 -9.026361e-06 -1.642308e-05 3.332922e-05 1.7708038e-05 6.883989e-06 4.6339523e-05 3.0680856e-06
8.615686e-06 -1.1208203e-06 -3.3450244e-05 3.46079e-05 4.2505286e-05 -1.0589551e-05 -9.959922e-07 2.8669136e-05
