SGE_Transformer/model/2_room/eil_2_room_198_model/EBC_model_75999.pth (torch, 319288 bytes, 27 tensors)

encoder.embedding.weight f4 [900, 16]
000000 5d 1f 74 3e 6e 6f 48 bf 34 fd 3d 3f 21 58 f7 3f
       0.23840089 -0.7829503 0.7421448 1.932377
000010 b7 a0 02 3f ef 18 51 3f 46 7d cf 3d 7f fd 14 3f
       0.5102648 0.8167867 0.10131316 0.58199304
000020 6a 2f c4 3f d4 23 97 3f 05 b8 be 3f d1 60 49 bf
       1.532697 1.1807809 1.4899908 -0.78663355
000030 5a 7a f4 3f b9 5b 0b bf df cc 7d bf 07 85 31 3f
       1.9099839 -0.5443683 -0.99140733 0.6934361
000040 b4 a2 9c bf 01 22 f4 ba 2d 38 f2 3e 09 90 1f bf
       -1.2237153 -0.0018625857 0.47308484 -0.62329155
000050 c9 c5 03 3f a6 da 09 3f c9 ee a7 3e 6c bc e5 3d
       0.5147367 0.53849256 0.32799366 0.11217579
000060 73 b0 83 bf ec a2 b6 bf 89 83 0f 40 e3 12 d5 bf
       -1.0288223 -1.426847 2.2424033 -1.6646389
000070 20 e0 6b 3f 5e 43 3c be 6a da bb be 93 5d bf bf
       0.9213886 -0.18385074 -0.36690074 -1.4950432
000080 44 7f 1a 3f 34 48 3e bd 22 2b 10 bf fa 31 0c 3f
       0.6035044 -0.046455577 -0.56315815 0.5476376
000090 64 c2 84 bd 92 d7 fc 3d af 59 a8 be 8e f6 fd bf
       -0.064823896 0.12345804 -0.32880923 -1.9840868
0000a0 b0 60 3b bf 6a 76 8e 3f 9b d1 77 bf e3 cb 5c bc
       -0.7319441 1.1129887 -0.9680421 -0.013476345
0000b0 27 83 b0 bf 24 c4 c4 3d 4d 4e 59 c0 ea 73 92 bf
       -1.3790025 0.09607723 -3.395404 -1.1441624
0000c0 4e 83 b1 3e 57 b4 53 bf b1 44 bf bf b0 42 4b bf
       0.3467049 -0.8269705 -1.4942838 -0.7939863
0000d0 8a 11 41 3f 01 55 d8 3f cf 6b 8c bf 76 4c e8 3e
       0.7541739 1.6900941 -1.09704 0.45370835
0000e0 ab 5d b3 bf af b0 0e 3e 3c ca 3c 3f 24 b1 b6 bf
       -1.401296 0.13934587 0.73746085 -1.4272809
0000f0 c5 7e 90 bf e0 51 34 bf a4 f7 46 bf 9d 7e 27 c0
       -1.1288687 -0.7043743 -0.7772162 -2.6171029
000100 89 ab 83 3f fa a5 f2 3e 6f 4f c1 bf 20 98 1c 40
       1.0286723 0.47392255 -1.5102366 2.446785
000110 73 01 6d bf c9 a6 99 bd 0b 3f c1 bf 4c 5c c6 3e
       -0.92580336 -0.07502515 -1.5097364 0.38742292
000120 7a 56 2b bf c7 1d 56 be f3 1f f8 3d b7 ca e5 bf
       -0.6692883 -0.20909797 0.12115469 -1.7952489
000130 5e 7a 08 c0 a4 45 df bd 8b f8 11 bf 7f cb 9e 3d
       -2.1324687 -0.10901955 -0.5701987 0.077536575
000140 b5 18 19 3e 46 86 2e 3f 0d aa c8 3f 76 7d f3 3e
       0.14950831 0.68173635 1.5676895 0.47556657
000150 41 a4 80 bf 09 fb 82 bf 3c 7d 05 3f 5b e3 f6 be
       -1.0050126 -1.023286 0.5214422 -0.48220333
000160 c4 ca 45 bf 45 a6 2f 40 be ea fc bf 30 f0 d4 3e
       -0.7726252 2.7445233 -1.9759138 0.415895
000170 13 9d c8 3f c3 21 23 bd 97 e2 78 bf b8 49 36 bf
       1.5672935 -0.03982712 -0.9722075 -0.71206236
000180 b5 b7 75 3e e5 7c 99 bf 17 1e 88 3f 14 4c 2d bf
       0.2399586 -1.199124 1.0634183 -0.6769421
000190 0c d4 29 bf 84 2e ac 3e 80 b9 04 3f c4 d6 84 3f
       -0.6633918 0.3362924 0.5184555 1.0378041
0001a0 3d e2 29 3d 8d 83 57 3f 5a 75 06 be fc 08 bf bf
       0.041475523 0.84185106 -0.13130704 -1.4924617
0001b0 20 26 ba 3e 4a d5 02 bf 38 46 d6 be 3d 48 97 3f
       0.36357212 -0.51106703 -0.41850448 1.181892
0001c0 72 2c 88 be d2 df 4d 3f a6 7b 9d be 5f 48 ad 3f
       -0.2659641 0.8041965 -0.307584 1.3537711
0001d0 44 c2 2a 3f 59 8f 71 be 81 54 2f be 23 c7 0f 3f
       0.66702676 -0.23589839 -0.1712208 0.56163234
0001e0 dc 35 9d 3e c8 f4 ac 3e 74 00 05 3e 6f 95 13 3f
       0.30705154 0.33780503 0.12988454 0.5764989
0001f0 d1 58 a6 3c c0 fd b2 3f 8f 5e b5 3f c0 bf c0 bb
       0.020306023 1.3983688 1.4169482 -0.0058822334
000200 45 e8 61 bf e3 f6 f9 be f9 94 ad bf 1a 0e 6f be
       -0.8824504 -0.48821172 -1.3561088 -0.23345223
000210 17 35 ea 3f ed 78 cb 3f 8a 5e 36 3e ba 0f 03 3f
       1.8297452 1.5896279 0.17809501 0.5119587
000220 f0 d7 0b bf 86 c2 b8 bf 32 3e f6 bf af 88 90 bf
       -0.5462637 -1.4434364 -1.923773 -1.1291713
000230 94 de 80 3f c2 11 10 bc 91 f0 4d bf 8a a0 fb 3f
       1.0067925 -0.008793296 -0.804452 1.9658368
000240 0a f0 d2 3f 35 e7 11 3f 9c 2e 4a bc 3f 44 bc bf
       1.6479504 0.5699342 -0.012340214 -1.4708327
000250 b9 77 3d bd 99 66 08 bf bd e4 28 3f 7d f5 0b 40
       -0.046256755 -0.5328155 0.65974027 2.1868584
000260 45 c5 f9 3e 29 80 0b 40 3a 38 bb bf eb 0b b2 bf
       0.48783317 2.1796973 -1.4626534 -1.3909887
000270 93 46 dd be f2 92 18 be f7 7c d0 3d d6 eb 33 be
       -0.43217906 -0.14899805 0.10180085 -0.17570433
000280 f3 e7 a4 3e 5f 13 9a 3f 16 cc ae 3d e8 62 e1 bf
       0.32208213 1.2037162 0.0853502 -1.7608309
000290 64 f5 73 3d 04 73 a7 bf d0 1c 6c 3e 8b be 75 3f
       0.059560195 -1.3081975 0.23057866 0.9599387
0002a0 40 d0 10 3e 35 a8 5c 3f 5c 43 8c bf 40 0f 92 bf
       0.14141941 0.86194164 -1.0958056 -1.1410904
0002b0 21 91 c0 be 63 03 83 be a7 4a 91 be bb a9 8f 3f
       -0.37610725 -0.2558852 -0.28377268 1.1223673
0002c0 ac 14 04 40 91 22 06 3e bd 48 69 3f 84 68 ca 3d
       2.0637617 0.13099124 0.91126615 0.09883216
0002d0 ba 85 2a bf 05 a8 6e 3f a0 55 d1 3f 17 dc 8c bf
       -0.666103 0.9322513 1.6354256 -1.1004666
0002e0 bb 40 3c 3f 7e 9a 01 40 37 7b 3a c0 95 5f 43 3e
       0.7353627 2.0250545 -2.9137704 0.1907943
0002f0 c2 b8 2d 3e 87 34 33 bf 8a 28 c8 bd 91 a1 03 3f
       0.16965011 -0.70002025 -0.09773357 0.51418406
000300 f7 c0 8a 3f d3 74 08 3e aa e4 9d bf 60 c1 02 40
       1.0840138 0.13325815 -1.2335408 2.0430527
000310 48 67 09 3f 29 b8 32 bf ef 05 8f bf eb 0d 6d bf
       0.5367322 -0.69812256 -1.1173686 -0.9259936
000320 b9 96 ca 3f 1f 6a 91 3f 0a 8a b7 3f a2 18 2e be
       1.5827247 1.136051 1.4339001 -0.17001584
000330 08 9e 4d bf b2 7c d0 bf b2 86 f2 bf be 76 e4 bf
       -0.8031926 -1.6288054 -1.8947356 -1.7848737
000340 79 66 da 3f 87 5f 38 3c fe f7 45 bf 33 72 34 3f
       1.7062522 0.011253244 -0.7733153 0.70486754
000350 14 56 01 3f 77 72 05 bf 80 99 fe bd f3 b8 a8 be
       0.5052197 -0.52127784 -0.124316216 -0.32953605
000360 55 71 49 be a5 42 03 bf ff 58 22 3f 53 24 3c bf
       -0.19672139 -0.51273566 0.6341705 -0.73492926
000370 c2 0f 92 3f d1 66 a8 3f de 6d 15 3f c2 d3 42 bf
       1.1411059 1.3156377 0.5837077 -0.76104367
000380 cf 61 b7 bf 40 66 d6 bf e1 aa 07 bf 23 5f c2 be
       -1.4326724 -1.6749954 -0.52995116 -0.3796321
000390 47 eb 86 3f 9b 9f 22 3f 05 07 d4 bf 26 6e e4 bf
       1.0540551 0.6352479 -1.6564642 -1.7846115
0003a0 e2 49 9b 3f e8 5a 2a 3f b2 de 36 3e a9 e4 a6 bf
       1.2131922 0.6654496 0.17858389 -1.3038532
0003b0 5f ed 8e bf 92 2e 6d be 02 4c b8 be 05 6f e4 3e
       -1.116619 -0.23162296 -0.3599549 0.4461595
0003c0 ca cf f3 bd b2 1e ce be a2 48 27 be 43 2f 5d 3f
       -0.11904867 -0.40257794 -0.16336301 0.8640024
0003d0 62 40 fe 3f ae 8a 1c 3f 49 ac 76 be 23 09 c8 bf
       1.9863398 0.6114911 -0.24089159 -1.5627788
0003e0 38 3b 98 be bb f4 e7 bf fb d5 a1 3f 0f 78 38 be
       -0.2973268 -1.8121561 1.2643427 -0.18014549
0003f0 80 73 65 3f e3 f7 d3 3d f1 40 16 40 e0 27 aa bc
       0.89629364 0.10350015 2.3477137 -0.020770967

encoder.lstm.weight_ih_l0 f4 [128, 16]
000000 9d 12 c4 be 98 df 2d 3e 81 50 df be e2 4b 3f bf
       -0.3829545 0.16979825 -0.43616107 -0.74725163
000010 8b df 6f bc 78 28 d3 3e e0 93 dc bd 0c 65 4f 3e
       -0.014640699 0.41241813 -0.107703924 0.2025339
000020 c2 a5 58 be 74 8e 9b be d4 f8 0f bf 09 b4 43 be
       -0.21156982 -0.3038212 -0.56239057 -0.19111647
000030 a2 66 99 3e d2 4d 3e 3d 50 93 c2 bc 20 eb f1 3e
       0.29961115 0.046460934 -0.023751885 0.472497
000040 61 28 eb 3c 93 f9 03 3f 3d 1b 0a bf a4 ab 1e be
       0.028705778 0.51552695 -0.5394781 -0.15495163
000050 55 bd 21 3d 85 a7 e3 be e6 fb 97 3d 32 9a cb 3e
       0.0394872 -0.44463745 0.07421093 0.3976608
000060 d1 39 7e be ab c8 5d bf 93 6f cb be 1b ee af be
       -0.24826743 -0.8663432 -0.39733562 -0.34361348
000070 2c 13 fb 3d 27 0f 75 bf 40 c4 26 3e 67 38 c0 bc
       0.12259516 -0.95726246 0.16285801 -0.023464395
000080 fb e3 9c 3d f2 d9 64 be ac c9 6a be 3f 46 67 3e
       0.07660671 -0.22348765 -0.22928494 0.2258539
000090 6d 20 33 be c5 b5 ad 3d ae 45 77 3e 17 b5 fc 3d
       -0.17492838 0.084819354 0.24147674 0.12339228
0000a0 67 a8 06 3e e8 b9 bb be 7a f9 9f be cc 51 7f 3e
       0.13150178 -0.36665273 -0.31245023 0.24933547
0000b0 aa f8 c6 ba 5d 73 27 3d c2 a7 7f be 54 ac a1 3e
       -0.0015180309 0.040881503 -0.24966338 0.31576788
0000c0 2c 16 2a bf 50 27 17 3e a4 33 4a 3f 6c b9 33 3e
       -0.6644008 0.1476109 0.7898505 0.17551202
0000d0 1b 51 32 bd 7a d0 75 3e 9c 03 f5 bd 61 1a 06 be
       -0.04353438 0.24005309 -0.11963579 -0.13096
0000e0 2f ae c0 bd eb 76 35 3e f0 b9 82 3d 1e 53 7d bf
       -0.09408223 0.17721145 0.06383121 -0.9895495
0000f0 64 7f fd be 64 e9 99 bd 92 1e 91 3e 95 80 b8 3d
       -0.49511254 -0.07515219 0.28343636 0.090089
000100 6e bb a4 bd b6 76 ff 3d 3b 5d a7 3e df 05 14 3e
       -0.08043562 0.12473814 0.32688317 0.14455365
000110 91 2f 19 3f 87 ed a7 3e c6 6a f8 bd c9 84 03 bc
       0.59838206 0.32798406 -0.121297404 -0.008027264
000120 bd 3d f0 be 7d 4f 2b bd b5 bb bc 3e d0 a7 2b bd
       -0.46922103 -0.041823853 0.3686196 -0.041908085
000130 35 9e 71 be a9 a9 47 3e 7a 68 31 be d6 ad 90 be
       -0.23595507 0.19498314 -0.17325011 -0.28257626
000140 70 42 b8 3e 68 14 28 3f 8b e2 f9 3d 42 8d d4 3d
       0.35988188 0.6565614 0.12201413 0.10378505
000150 03 6a 6b bd bd 43 6e bd f1 11 8b be 0e 18 c7 bc
       -0.057474148 -0.05817007 -0.27162126 -0.024303462
000160 f6 10 69 b9 6d 99 42 bf 71 6a 3f be 24 c3 48 3e
       -0.0002222693 -0.7601536 -0.18692948 0.1960569
000170 50 be 41 3e 86 eb fd 3e 66 e4 c8 be 0d 66 8a 3e
       0.18920255 0.49593753 -0.39236754 0.27030984
000180 c1 cb 20 be ac 25 51 3e c2 98 52 3d c2 67 36 be
       -0.15702726 0.20424527 0.051415212 -0.17813018
000190 02 54 ef 3e af 5d 18 3b 0e f8 ed 3e b9 99 3f 3e
       0.4674378 0.00232492 0.46478313 0.18710984
0001a0 04 f0 bc 3d a7 9d 10 3f 94 48 78 3b 19 69 e2 3e
       0.09225467 0.5649056 0.0037885057 0.44220808
0001b0 5e 68 a5 3e 75 87 98 bd d1 4b bf 3d f7 1f 60 3e
       0.32306188 -0.074477114 0.09340633 0.21887194
0001c0 ae 9e db be 61 ff 48 3d 7d 4b 1e be cf 98 7a be
       -0.428945 0.049071673 -0.15458484 -0.24472354
0001d0 f1 38 e0 3e 7d 60 26 3f 80 44 28 3c 99 ba e7 3e
       0.43793443 0.6499098 0.010270238 0.4525955
0001e0 a5 81 e1 be 43 f4 32 be d8 23 82 bf bf c3 3d be
       -0.44044223 -0.17475991 -1.0167189 -0.18531702
0001f0 31 fa 83 be 5a 3e 8e 3f f6 89 e0 3e 09 54 95 be
       -0.25776818 1.1112778 0.43855256 -0.29165676
000200 42 16 d2 3d 2c 6d a4 be 3a cc 4e be 33 f7 d2 3e
       0.102581516 -0.32114542 -0.20195094 0.41204223
000210 1e 00 82 3d 2c 54 a4 be e8 47 68 3e 15 52 17 3f
       0.063476786 -0.32095468 0.2268368 0.5910962
000220 87 60 f9 3d c4 18 89 3e fc fb 14 3e 9d 5b 00 3e
       0.12176614 0.26776707 0.1454925 0.12534948
000230 8b d0 ba 3e 90 3c 10 3f cb 4d 5e be 73 99 1b 3d
       0.3648723 0.5634241 -0.21709363 0.037988137
000240 18 d6 81 3e 2c 76 a5 3e 18 40 d9 bd d7 fa 1d 3e
       0.25358653 0.3231672 -0.10607928 0.15427719
000250 cb 40 c7 be f9 a1 7c be d6 bb 2a bd de 06 a7 3e
       -0.3891662 -0.24671163 -0.04168304 0.32622427
000260 1b 83 94 be 44 15 c3 3d a5 27 3f bf 66 f3 56 be
       -0.29006276 0.095255405 -0.7466987 -0.20991287
000270 2b 6a 54 3e fc 23 37 3f 02 8e 9c 3c 3f be 96 3e
       0.20743625 0.7153928 0.019110683 0.2944202
000280 5d 49 91 3e 53 e5 90 3e 73 29 75 3e 7d 89 1d be
       0.28376284 0.2829996 0.23941593 -0.15384479
000290 5c 0e 10 3d 21 1f 5a 3e af c6 9d bd b0 b6 aa 3e
       0.035169944 0.21300937 -0.077039115 0.33342505
0002a0 78 31 b7 be e3 23 d5 be 58 ee 65 be 60 1d 46 bd
       -0.3577993 -0.41628942 -0.22454202 -0.048367858
0002b0 3f 5e 03 3f 60 ee 3e 3d 33 bf 14 be 5f 6d 86 3d
       0.51315683 0.04661405 -0.14526062 0.0656383
0002c0 ff bd 3a bd 45 a6 1b 3f 5a a1 5b bf c8 7d 8e bd
       -0.04559135 0.6080058 -0.8579308 -0.069575846
0002d0 7c 0e 70 3e 3c 30 d2 be e9 98 00 bc 09 5e f5 3e
       0.23443025 -0.41052425 -0.007848957 0.47923306
0002e0 fd 35 31 bf f1 ef c3 3e e6 9b bd 3b a2 c2 bf 3e
       -0.69223005 0.38268998 0.005786407 0.3745318
0002f0 69 a2 b1 be a6 e8 90 bd f9 c1 3d 3e 05 cb 45 3e
       -0.34694222 -0.07075624 0.18531026 0.19315727
000300 20 05 1a b7 7f 7f 16 3f 98 48 b1 be f7 59 4a 3f
       -9.180309e-06 0.58788294 -0.34625697 0.79043525
000310 3a 44 64 be bd d1 0b 3e 04 61 27 bf df fe 8a 3e
       -0.22291651 0.13654228 -0.6538241 0.27147576
000320 6f 65 39 3e 18 c7 98 3e d7 e3 12 3f cf 7d db 3d
       0.181051 0.29839396 0.57378906 0.107173555
000330 3a 51 41 3d ef de b1 3e a2 3a 08 3f 1e 73 3f 3e
       0.047196604 0.34740397 0.53214467 0.18696257
000340 38 12 39 3b d9 e1 01 3e 74 2e ec bd 90 46 32 bd
       0.002823962 0.1268381 -0.11532298 -0.043524325
000350 9c dc a1 be 32 46 b3 3d 8d e5 9d 3e f5 dd 0b be
       -0.31613624 0.08753623 0.30839196 -0.13658889
000360 e0 6c 4c bd 0a ad 2b be 97 18 87 bc 18 2b c8 3e
       -0.04990852 -0.16765228 -0.016491218 0.39095378
000370 2d ad 14 3e 31 5f ea 3e ca eb 86 be eb 5b 4b 3e
       0.14519186 0.4577575 -0.26351768 0.19859283
000380 00 a5 3f 3e e2 06 74 be 0d aa 8a be 32 96 e0 3e
       0.18715286 -0.2383075 -0.27082863 0.4386459
000390 ee 2b 41 3e 9f e6 1f 3e a1 dd 67 3e 38 76 32 bd
       0.18864414 0.15615319 0.22643138 -0.043569773
0003a0 93 f0 18 be a9 5a 52 bd 2a e8 61 be 45 0c 09 be
       -0.14935522 -0.05135599 -0.2206122 -0.13383587
0003b0 6d 4d 4d bd e3 16 8d be 9a b9 ef bd 6f e4 f1 3d
       -0.050122667 -0.27556524 -0.117053226 0.118111484
0003c0 bb 28 1a 3e eb aa ac be 20 c9 8f be 6a d3 11 3d
       0.150546 -0.3372415 -0.28083134 0.03560201
0003d0 ee ad f6 bd eb b4 2c 3f 69 d9 cb be cb 0b 67 be
       -0.12044893 0.6746356 -0.39814308 -0.22563092
0003e0 83 5c 98 bc 5d 4c a8 3c c3 8e 5a 3e 8a 71 ce be
       -0.0185988 0.020544225 0.21343522 -0.40320998
0003f0 8d 45 08 bf 70 3a 1f 3e b0 a2 d6 3d 36 58 5d 3e
       -0.53231126 0.15549636 0.10480249 0.21615681

encoder.lstm.weight_hh_l0 f4 [128, 32]
000000 a7 fc 6c bf 11 48 2c be d8 1f 84 be cc d0 8d 3e
       -0.92573017 -0.16824366 -0.25805545 0.27698362
000010 38 98 38 3f 01 8c 84 be 09 df 3e 3d 4a dc 08 bf
       0.7210727 -0.25888065 0.04659942 -0.53461134
000020 3e 74 e8 bd a5 23 f6 be fe 49 ac bd f0 9d d1 be
       -0.113502964 -0.4807407 -0.084125504 -0.4094081
000030 2e eb b8 3e b6 14 02 be 8c 22 db 3e 5e 81 73 be
       0.36116928 -0.12703213 0.42799795 -0.23779818
000040 22 5f b2 3e d8 fc ad bd e9 b5 01 bf b4 0d 5e bf
       0.34838206 -0.08495492 -0.506682 -0.8673966
000050 e0 e6 31 be 2a a3 85 3e 3b a5 36 bf 15 20 07 bf
       -0.17373228 0.26101047 -0.7134587 -0.5278333
000060 32 25 86 3e 42 c0 0f be e8 3a b6 3d d5 5e 44 be
       0.26200253 -0.14038184 0.08897954 -0.191768
000070 7c a9 00 bf 06 60 91 3e 11 8c 28 3d 49 ff 83 be
       -0.5025861 0.28393573 0.041149203 -0.25780705
000080 a0 84 f2 bd ae 10 85 3e bd 88 11 bf f0 7b f2 bd
       -0.118417025 0.25989288 -0.5684927 -0.118400455
000090 16 51 0d 3f 8e 5a 07 bf f9 11 1a 3e 23 58 8e bd
       0.5520185 -0.5287255 0.15045919 -0.069504045
0000a0 5e 75 48 bd b9 ab 7b bd 63 03 d8 be fc 44 ea bd
       -0.048940055 -0.061443064 -0.42190084 -0.11438939
0000b0 0d 76 56 be 32 85 ca bd cf e5 56 3f 92 b7 2e bd
       -0.2094347 -0.09888686 0.8394441 -0.042655535
0000c0 09 bf 37 3e d3 79 14 3f 2b 7e b2 3e b0 e6 92 bd
       0.17943968 0.5799839 0.34861884 -0.071729064
0000d0 b1 79 3f bf bb 36 fb 3e a8 c6 f8 3d 82 08 b7 3e
       -0.7479506 0.49065194 0.12147266 0.35748678
0000e0 a7 3d 3b 3f 31 42 64 bc 5b 84 e9 bd f6 76 a2 be
       0.7314095 -0.013931797 -0.11402198 -0.31731385
0000f0 19 fe 3c bf e5 1f 21 3f 32 3f 36 3f 0a e0 e5 bc
       -0.7382522 0.6293929 0.7119018 -0.028060932
000100 53 29 17 3f 1c 2a ee 3d 47 97 c0 be 4e 4f 87 be
       0.5904743 0.116291255 -0.37615415 -0.26427692
000110 8a 8c 88 3f af a0 26 bf 53 f3 a6 3e 27 a4 84 bb
       1.0667889 -0.65088934 0.32607517 -0.004047889
000120 c3 5f fb be 57 c5 77 bf 76 d5 28 3e ff 38 a0 bf
       -0.49096498 -0.9678549 0.16487679 -1.2517394
000130 fa f7 a0 bb 72 5c 62 bf 6f 0d 8c 3e fc ce bb be
       -0.0049123736 -0.8842231 0.27354 -0.36681354
000140 a3 ec 47 3e c1 a6 a8 be 8d d8 1a 3f f9 7d b8 be
       0.19523863 -0.32939723 0.6048668 -0.3603361
000150 42 48 e8 be bd 7f 85 3d 8e ac 3c be 52 82 be bd
       -0.45367628 0.06518505 -0.184252 -0.093022004
000160 44 80 e5 3e 63 85 1e bf fa 04 18 bb 7a ec 4d bf
       0.4482442 -0.6192228 -0.0023196326 -0.8043896
000170 a1 38 a2 be c6 9f 52 3c 29 49 6e 3c fb 07 ff be
       -0.3168383 0.012855476 0.01454381 -0.49810776
000180 a7 ee 10 be f1 71 ae be 16 4f 2f 3e 6c a9 7d be
       -0.14153539 -0.34071305 0.17120013 -0.2477166
000190 ea 91 d2 be 72 6f 55 bf 7b e9 7d bd 45 a5 9d 3e
       -0.4112695 -0.8337318 -0.061990242 0.30790153
0001a0 3f d0 61 3d 89 f5 97 3e 9c a7 f7 3c 64 ba 11 bf
       0.05513024 0.29679516 0.03023129 -0.56925035
0001b0 92 48 38 be ce 9f 4e bf 69 53 71 be 51 84 85 3e
       -0.17996433 -0.8071259 -0.23566975 0.26077512
0001c0 eb 9e 0e 3f f3 dc e7 be 05 6f c6 3e 81 61 ca bd
       0.5571124 -0.45285758 0.38756576 -0.09881879
0001d0 44 89 40 be 84 59 57 be 8e fc ad be 22 f3 83 3d
       -0.18802363 -0.21030241 -0.33981746 0.06442858
0001e0 ee d9 ee bd 02 2f 15 3f 85 bb 2f bf f4 6f 79 bd
       -0.116626605 0.58274853 -0.6864551 -0.060897782
0001f0 79 b0 cc be fb 38 87 be 4d 6d 58 bc 6e 98 d3 3e
       -0.39978388 -0.2641066 -0.013209653 0.41327232
000200 04 6f a7 be f3 b2 ed 3d 2b af 6a be 81 a4 1f 3e
       -0.32701886 0.116063975 -0.22918384 0.15590097
000210 7a 68 23 3f c9 4d 4a bf 1a 82 d6 bd 8d 0b 4b 3f
       0.63831294 -0.7902494 -0.10474034 0.793145
000220 f7 b1 a1 be 4e ce 70 bd 78 1f 17 be 03 17 81 3e
       -0.3158109 -0.058790497 -0.14758098 0.2521287
000230 8a ed f4 3e 28 cb 3f 3d e8 a9 2f 3f 1c b9 26 3e
       0.47837478 0.046824604 0.6861863 0.16281551
000240 f3 ed ab 3e 7a a5 54 be 37 e4 f3 bc f9 e5 c9 be
       0.33579978 -0.2076625 -0.029771907 -0.39433268
000250 9c 73 c5 be 52 6c a7 3e 46 59 39 3e 6b 7a 88 be
       -0.38564765 0.3269983 0.18100461 -0.26655897
000260 e4 8b d6 3e 83 12 0d 3d 62 88 b5 be b5 a8 b8 3e
       0.41903603 0.034441482 -0.35455614 0.36066213
000270 89 d0 13 bf ac c0 81 3f 41 e3 d8 be 73 29 e2 be
       -0.57740074 1.0136924 -0.4236088 -0.44172248
000280 40 eb 47 3e fe 02 83 be 0d c3 f8 be ae c3 f7 be
       0.19523335 -0.2558822 -0.48586312 -0.4839148
000290 c4 e5 a5 bd bd f1 fc be 9a b8 14 3f 19 54 85 3f
       -0.08100465 -0.49403182 0.5809418 1.041629
0002a0 45 4c de be a1 58 be bc 35 42 02 bf af 43 f2 bd
       -0.43417564 -0.02323562 -0.50882274 -0.11829316
0002b0 30 4d 41 be d3 2d b9 bd 82 ba f3 3d 3a 44 2e be
       -0.18877101 -0.090419434 0.11900808 -0.17018214
0002c0 12 1a 4c 3e c1 95 a1 3d 34 94 75 3e 3d a0 07 3d
       0.1993182 0.078898914 0.23982316 0.0331118
0002d0 9a be bf 3d bb 2f fe 3e 94 ae d9 3e 8e db 06 bf
       0.09362526 0.4964579 0.42516005 -0.52678764
0002e0 d3 ef 54 be 9e 5c be be ea 02 fd be d8 89 09 bf
       -0.2079461 -0.37180036 -0.49416286 -0.5372596
0002f0 8e c4 5b be a0 26 d8 3e e2 ff f1 be 55 26 fa bc
       -0.21461698 0.4221697 -0.47265536 -0.030535856
000300 52 ca 8f 3e 6e 15 03 3f 9a 64 b4 be 9e 98 64 3e
       0.28084046 0.51204574 -0.35233003 0.22323844
000310 c9 ee 04 3e 3b c4 e2 be f7 45 35 be 85 17 3a 3f
       0.12981714 -0.44290337 -0.1770247 0.7269214
000320 51 89 a8 be d2 b5 26 3c 72 ac 05 bf b9 d3 20 bf
       -0.32917264 0.010175185 -0.52216256 -0.62823063
000330 fa 50 be bd 65 fe 04 bf a8 3a 91 be 0e c8 25 3e
       -0.09292789 -0.51950675 -0.28365064 0.16189596
000340 a8 ed 5b 3c 63 8d e6 3d c3 bb ea be 4d cc 1d 3e
       0.013423361 0.11257436 -0.45846376 0.15409966
000350 36 74 15 bf fa 78 3d 3f 13 74 44 bd 86 67 67 be
       -0.5838045 0.7401272 -0.04796226 -0.22598085
000360 7a c9 a6 3f ba d7 ef be 33 bc 9f 3d 97 02 aa be
       1.3030236 -0.46844274 0.07799568 -0.332051
000370 d7 4e 6d bf ff 07 b2 3e 9b f1 8c 3d 90 bb 47 be
       -0.92698425 0.34771726 0.0688202 -0.19505143
000380 33 16 98 3d ad 19 85 be ea 05 54 bf 42 e3 5d be
       0.07426109 -0.25996152 -0.82821524 -0.21668723
000390 a8 44 69 3f 7b 6a dc be cf 44 85 be 4f fa 01 3e
       0.91120386 -0.43049988 -0.2602906 0.12693141
0003a0 0b a9 4f be b1 7f 5f be cc 9d b7 be 50 af b4 3d
       -0.20279329 -0.21826054 -0.35862577 0.08822501
0003b0 4f ab 6e 3e 55 b6 0a bf eb 6d 0c 3f 11 3f d8 bd
       0.23307537 -0.54184467 0.5485522 -0.10558904
0003c0 a0 c0 c3 3e e6 e2 27 3e aa 1c 59 be 1a 78 b5 bd
       0.382329 0.16395149 -0.2120234 -0.08860798
0003d0 3f dd 29 3e d4 36 56 3e 65 65 2d bf 04 9e e6 be
       0.16588305 0.20919353 -0.6773284 -0.4504243
0003e0 4c f3 8f be b8 19 3a bf d1 7a f7 be 9c 1b 66 bf
       -0.28115308 -0.72695494 -0.4833589 -0.8988588
0003f0 52 97 05 bf 56 df cb 3e f5 13 21 be eb 86 92 be
       -0.5218402 0.3981883 -0.15730269 -0.2861856

encoder.lstm.bias_ih_l0 f4 [128]
000000 56 48 25 3f 1d 1e c2 3e 24 ff d1 3e 4c 3f da 3d
       0.645635 0.379136 0.4101497 0.10656604
000010 de 77 71 3e 3c 95 e2 3e b2 83 ef 3e c9 86 c2 3e
       0.23580882 0.44254482 0.46780163 0.37993458
000020 dd 75 a3 3e fb 52 da 3e 6c 72 0e 3e c7 f7 1e 3d
       0.3192586 0.42641434 0.13910836 0.038810518
000030 98 e3 9a bb 8d 9e 4b 3f 10 7b 3c 3e 19 28 3e 3e
       -0.0047268383 0.79538804 0.1840632 0.18569984
000040 57 8f 04 3f 2a 89 05 3f 67 cf 27 3f db 85 3a 3d
       0.5178122 0.5216242 0.65550846 0.04553781
000050 62 68 2c 3e fb 65 47 3e 09 b8 d9 3e af 06 8c 3e
       0.16836694 0.19472496 0.4252322 0.2734885
000060 4b 51 8f 3e 91 12 9f 3e 84 fe e3 3e b0 51 8e 3e
       0.2799171 0.31068853 0.44530118 0.27796698
000070 61 bd 29 3f f2 50 c8 3e 9c 87 12 be 7c dc 92 3e
       0.66304594 0.39124256 -0.14309543 0.2868384
000080 3a 01 83 3e b9 2f 8f be ff 01 a8 3e da 14 3c 3e
       0.25586873 -0.27966097 0.32814023 0.18367329
000090 d1 d1 b4 bc 1e 9c c7 3e e2 33 3d 3e 3b 8d 9b 3e
       -0.022072705 0.38986295 0.18476823 0.30381188
0000a0 c2 9d 70 3e 7c 70 bc 3e 35 2e 37 3e 12 cf 0e 3f
       0.2349768 0.3680457 0.1788872 0.55784714
0000b0 1b 43 97 3e 3c 5b 81 3e 27 32 ab 3e 9d 81 80 3e
       0.29543385 0.2526492 0.334367 0.25098887
0000c0 6f 06 ee 3e a3 1f 86 3d d2 56 b5 3e c4 8d 87 3e
       0.46489283 0.06549003 0.354178 0.26475346
0000d0 47 48 39 3e b8 ec 35 3e 62 38 3c 3e f7 6e c4 3e
       0.18093978 0.17766082 0.18380883 0.3836591
0000e0 9c 97 e2 3e 71 c4 a4 3e bc 3e 65 3e cc 77 30 3d
       0.44256294 0.32181123 0.22387213 0.043082997
0000f0 29 77 58 3e b3 eb ed 3e ae 88 15 3e 79 e2 d3 bd
       0.21139206 0.46468887 0.1460292 -0.103459306
000100 e9 ef bd 3c f5 92 d4 bc e1 53 12 be 83 5e 5e be
       0.023185687 -0.02594898 -0.1428981 -0.21715741
000110 55 00 30 3e b5 2b c3 bd c8 5f d4 3d 95 49 07 3e
       0.17187627 -0.09529821 0.10369831 0.13211663
000120 0e 4e 2a be eb ec d8 bc 90 39 0c 3d 0a b7 62 be
       -0.16631338 -0.026480159 0.034234583 -0.22140136
000130 c0 62 26 be 8f 48 60 be 76 12 bb bc ce 35 3e 3e
       -0.16248608 -0.21902679 -0.022835951 0.18575212
000140 a1 a1 c3 3c c1 1e 44 be 3f 50 62 3d 56 5a 0e be
       0.023880782 -0.19152357 0.05525231 -0.13901648
000150 e1 01 02 bf 9b 34 9b 3e 43 3b 19 be 98 41 a9 bb
       -0.50784117 0.30313572 -0.14964013 -0.00516529
000160 b8 64 72 3e 43 57 7a be 91 1e 91 bd c2 af 06 be
       0.23671234 -0.2444735 -0.07085908 -0.13152984
000170 37 a3 87 be b8 15 a2 3e 5e 0c 80 be 0c fb 37 be
       -0.2649171 0.31657195 -0.25009435 -0.1796686
000180 03 18 a1 3e dc b3 b9 3e 91 3d 3a 3e 52 28 c5 3e
       0.31463632 0.36270034 0.18187548 0.38507324
000190 5a 4a 82 3e 77 ed 66 3d 07 f1 eb 3d dd 8e f5 3d
       0.2544735 0.056378808 0.11520582 0.1199014
0001a0 3c aa 2d 3f bc 48 a2 3e 4c 76 3a be a4 ec 3e 3e
       0.6783788 0.31696117 -0.18209189 0.18644959
0001b0 27 81 0b 3e e7 f7 b9 bb 16 fc 98 be 6a 6c ea 3d
       0.13623486 -0.005675304 -0.29879826 0.114464596
0001c0 af 8d 1a 3e 38 a3 07 3f 8f 88 78 3e 71 df c1 3d
       0.1509311 0.5298343 0.24270843 0.09466446
0001d0 b3 2f 53 3d 74 f5 97 be 0b b8 f6 3a be 11 43 bd
       0.05155916 -0.29679453 0.001882316 -0.047624342
0001e0 f9 30 30 bd fd c9 84 3e 67 d6 23 3e 2c 60 62 3d
       -0.043015454 0.25935355 0.15999757 0.055267498
0001f0 f6 75 bb 3d 35 78 4e be a4 7e a3 bd d8 51 0e 3e
       0.09153359 -0.20163043 -0.07983139 0.13898408

encoder.lstm.bias_hh_l0 f4 [128]
000000 3d 06 d4 3e 77 af ba 3e 89 fd 25 3e c7 73 87 3e
       0.4141101 0.36461994 0.16209997 0.2645552
000010 28 1b 91 3e e0 a2 58 3e ae 2b b3 3e 45 b8 8c 3e
       0.2834103 0.21155882 0.34994262 0.27484336
000020 d4 51 ce 3d 95 20 e2 3e 57 3e 1f 3e 2b 3f 68 3e
       0.10074201 0.44165483 0.15551125 0.22680347
000030 d8 a8 84 3c eb f7 65 3f 2d 2b c9 ba 10 18 bf 3e
       0.016193792 0.8983142 -0.001534795 0.37323046
000040 a7 f0 92 3e 30 5b 15 3f 7f b0 d5 3e 58 1d 51 bd
       0.28699228 0.58342266 0.41736218 -0.051053375
000050 53 6c 03 3d 2a 3c 9a 3e b9 91 c9 3e 86 bf c5 3d
       0.032085728 0.30124027 0.3936899 0.09655671
000060 56 41 92 3e ec fa fb 3e 6c 4d 9e 3e 73 79 c2 3d
       0.28565472 0.49214876 0.30918443 0.09495821
000070 99 e7 e0 3e 96 fc 06 3f bd 92 a0 bd a1 36 b1 3e
       0.43926695 0.52729166 -0.07840488 0.3461199
000080 b2 4d 0f 3e aa 5a a3 be ab c9 15 3d 4e c3 27 3e
       0.13994482 -0.3190511 0.03656928 0.16383097
000090 96 eb 26 3e 0b bf ce 3e 94 32 d7 3d 1a f3 f7 3e
       0.16300806 0.4038013 0.10507694 0.4842766
0000a0 af 23 58 3e 7a 60 ff 3e db 02 2c 3e 5e d7 d9 3e
       0.21107362 0.49878293 0.16797964 0.42547125
0000b0 80 b1 7b 3e 22 69 f4 3e bf 38 9c 3e c5 4d 86 3e
       0.2457943 0.4773646 0.30512044 0.26231208
0000c0 10 31 cd 3e ca cc ae 3d 7c 7f 52 3e 89 62 81 3c
       0.40076494 0.08535154 0.20556444 0.015794056
0000d0 e8 d9 26 3e e6 ba 71 3e 46 6d 4c bc 3a 91 b4 3e
       0.16294062 0.23606452 -0.012477225 0.3526705
0000e0 56 8e d4 3e 9e 04 dc 3e ca 4f a3 3e 11 62 9f 3e
       0.41514844 0.42972273 0.31896812 0.31129506
0000f0 44 41 a1 3e b6 3b a3 3e 74 31 ac 3e c8 17 f1 3d
       0.31495106 0.31881493 0.3363148 0.11772114
000100 30 e4 2c 3e 35 d9 7f be 33 0b 92 be f8 41 4a be
       0.16883922 -0.24985202 -0.2852417 -0.19751728
000110 24 57 8b 3d 40 ab 1e be fa d1 47 3e 30 99 ad 3d
       0.0680373 -0.15495014 0.19513693 0.08476484
000120 95 39 2d bd ba a3 0f be 2e f4 0d be 9b a0 3e be
       -0.042291243 -0.140273 -0.13862678 -0.18615954
000130 48 b9 81 3d f2 f8 ea bd 93 fb 62 3c ec d9 9a bd
       0.06334168 -0.11473264 0.013853925 -0.075610965
000140 af db 61 3e 38 47 53 be 14 bd 08 bd 3d 3f be bd
       0.22056459 -0.20632637 -0.033383444 -0.092894055
000150 cc 18 03 bf 46 ee b2 3d fa ee 88 be 56 b2 24 be
       -0.5120971 0.08736853 -0.26744825 -0.16083655
000160 58 83 4b 3e 20 26 46 be 3c dd 90 be a0 2c 4d be
       0.19874322 -0.19350481 -0.28293788 -0.20036554
000170 87 59 81 be ba 4a 8c 3e 90 28 a7 be 5f 39 84 be
       -0.25263616 0.27400762 -0.32648134 -0.2582502
000180 83 b0 bb 3e 44 12 a6 3e 02 ad 46 3e 0c 99 7f 3e
       0.36658105 0.3243581 0.19401935 0.24960726
000190 c1 96 ad 3e 4f 3c d9 bc 98 a6 8e 3d 2b b7 31 be
       0.3390408 -0.026518015 0.06965369 -0.1735503
0001a0 46 e8 0c 3f a7 a6 bf 3e 91 2e f8 bd 1f e7 9f 3d
       0.5504192 0.37431833 -0.12118257 0.07807755
0001b0 d8 cd 04 3d be 6e 15 3e 94 df 10 be f7 1a 0d bd
       0.03242287 0.14593026 -0.14147788 -0.034449544
0001c0 0b 3a 84 bb 27 bb 40 3f ab c1 3b 3d 3b 3f 7c 3e
       -0.0040352396 0.7528557 0.045838993 0.24633496
0001d0 63 27 1a bd e5 ca 5d be 5c 1b 2b bc 39 f8 2b 3e
       -0.03763522 -0.2165943 -0.010443535 0.16793908
0001e0 27 a6 d1 bd 91 8d 6f 3d b4 68 12 3d b0 96 2d 3e
       -0.10236769 0.058484618 0.035744384 0.16952014
0001f0 4c dd 13 3e ee 32 25 be 26 b2 2c 3e 02 b7 86 3e
       0.14439887 -0.1613271 0.16864833 0.263115

policy.net.0.weight f4 [128, 32]
000000 f3 4d 85 be aa 55 3c bd d2 10 0f 3d a6 7c 54 be
       -0.26036033 -0.045980133 0.03492815 -0.20750675
000010 8f bc d7 3d b9 97 6c 3d 00 fc 5f 3e 94 fc 95 3e
       0.105340116 0.05776188 0.21873474 0.29294264
000020 a5 b3 ed 3e a9 7c f9 bd 9a d8 08 be 1a 5f bc be
       0.4642612 -0.1218198 -0.13363877 -0.36791307
000030 54 9e b0 be 8b 3d 21 3d c9 95 03 be 41 b5 de bc
       -0.34495795 0.039365333 -0.12850107 -0.027186038
000040 76 fe 2c be d1 ac 8c be 4d 6b b4 be ca 38 56 3e
       -0.16893944 -0.27475598 -0.35238114 0.20920101
000050 dd 38 37 3e 4e 87 d9 3d f7 62 15 be 0d a4 93 bd
       0.17892785 0.106215104 -0.14588533 -0.072090246
000060 c4 39 b6 3d 9c 8d 94 3e 2b 99 25 be 63 34 90 be
       0.08897737 0.2901429 -0.1617171 -0.28164968
000070 0b f4 ff 3c 62 57 f4 bc c1 62 99 be fb 07 07 be
       0.031244298 -0.029826824 -0.29958156 -0.13186638
000080 2b f6 7c 3d 4a 3b 1a 3c fe ee 87 bd 5c d5 24 3e
       0.0617582 0.00941355 -0.06637381 0.16097015
000090 db 49 e2 3d 42 01 03 3e c0 99 83 be 31 9b 6b 3e
       0.11049243 0.12793449 -0.2570324 0.2300842
0000a0 15 cb bf 3e 24 c5 d2 3d ff 52 64 be 59 b5 8d be
       0.37459627 0.10291508 -0.22297285 -0.2767742
0000b0 e0 a5 33 be 6e af 9d bd 1f 0a 36 be c6 7e 6f be
       -0.17543745 -0.07699476 -0.17777298 -0.23388204
0000c0 80 2f d2 3c ed b4 0f be b8 e9 ba 3c a3 e7 b3 3d
       0.025657415 -0.14033861 0.022816524 0.087844156
0000d0 52 75 9b be b6 5d 01 3c 78 a3 63 bd 3e 1a 2d 3e
       -0.30362946 0.007895878 -0.055575818 0.16904542
0000e0 94 cc 11 3e 92 c3 a8 3d e3 89 91 3e 66 28 52 3e
       0.14238197 0.08240427 0.28425512 0.20523223
0000f0 01 dc 19 3d 31 d4 81 bd c5 73 27 3e e2 18 45 be
       0.037563328 -0.063393004 0.16352756 -0.19247773
000100 c9 45 5b be 72 61 42 be a5 f8 cc bc ac 18 3a 3d
       -0.2141334 -0.18982485 -0.025020907 0.045433685
000110 e4 7c c3 bc 3c 4b dc bd 52 60 29 bd 61 b6 b2 3e
       -0.023863263 -0.10756537 -0.041351624 0.3490477
000120 b9 dd 16 3f 66 85 3b 3d 3a be 88 be ed 3e 69 bc
       0.5893207 0.045781516 -0.2670763 -0.014236194
000130 99 4f ce be 5a c0 0d 3d 1d bb 56 be 19 33 60 3d
       -0.40295103 0.03460727 -0.20969816 0.05473623
000140 4e 10 b4 bd df a9 57 bd db 5d 15 be a0 47 94 3e
       -0.08792172 -0.052652236 -0.14586584 0.28960896
000150 68 2a 4c be c1 42 28 3d 4e de 2e bd 6d f6 da bd
       -0.19938052 0.041079286 -0.042692475 -0.10691533
000160 7d 7d 20 be a3 2c cb 3e 9d 6a 81 3d bd 46 b7 bc
       -0.1567287 0.39682493 0.06319163 -0.022372598
000170 df 9c 15 3e ff fe 5d be ed 9e 5a b8 3a ee 7c be
       0.14610623 -0.21679305 -5.212326e-05 -0.24700251
000180 00 ee 0f 3f 84 f9 db be 43 c4 99 be a1 ac e1 3e
       0.56222534 -0.42963803 -0.30032548 0.44077018
000190 bd 19 91 3e 8a 72 ca be fb 37 31 bf 84 f4 c8 3d
       0.2833995 -0.3954051 -0.69226044 0.09812263
0001a0 f7 d3 14 3f 0d 5b 8c be 2c 0c ae 3d 15 7f 1a bf
       0.5813593 -0.27413216 0.08498415 -0.6035016
0001b0 86 8b 2c bf 92 85 cb be c0 89 41 3e 06 e6 e7 be
       -0.67400396 -0.39750344 0.18900204 -0.4529268
0001c0 a0 0b 00 be 72 07 b3 3e 29 45 ce bd 95 8f b7 3d
       -0.12504435 0.34966618 -0.10071785 0.08962933
0001d0 ce 80 12 bf 68 45 03 be 68 f4 47 3e b1 eb ea be
       -0.5722779 -0.12819445 0.19526827 -0.45882943
0001e0 65 05 4d be f6 a0 98 3c 7f 0d 7c 3e 7d df 1f 3f
       -0.20021589 0.01863144 0.24614523 0.6245039
0001f0 d3 00 71 3e 58 6c d3 bd 1b 96 e7 3e d3 21 04 bf
       0.2353547 -0.10323399 0.4523171 -0.5161411
000200 e9 2a d9 3d 39 ee c3 3e 98 10 20 be c7 c9 87 be
       0.106038876 0.38267687 -0.1563133 -0.2652113
000210 6c 84 23 be d5 33 b2 3e 30 a2 c9 be 95 6d 61 be
       -0.15968484 0.3480517 -0.39381552 -0.22014458
000220 f8 3c e5 be 03 61 67 be 5a af be 3e 23 ac 20 bf
       -0.44773078 -0.22595601 0.37243158 -0.6276266
000230 c6 06 79 bf 52 47 a2 bd 46 9f 16 be db bb b5 be
       -0.9727596 -0.079237595 -0.14709195 -0.35494885
000240 83 c7 a9 be 5e a9 3a bf 13 86 9a bc e1 15 9b be
       -0.33160028 -0.72914684 -0.01886276 -0.3029013
000250 8a 83 c6 be 44 b7 29 bf 37 f0 51 bd 42 85 1c bc
       -0.3877223 -0.66295266 -0.051254477 -0.0095532555
000260 d4 2f d8 be f5 ad c2 3d 57 45 0e 3f b0 ba 12 be
       -0.4222399 0.09505836 0.55574554 -0.14329028
000270 76 8c 1e 3e 58 51 09 bf 04 6b 70 3e 6b 54 f3 bd
       0.15483269 -0.53639746 0.23478323 -0.11881336
000280 8b 10 23 bd f7 b2 d7 be 26 44 6f be 21 2a 8b 3e
       -0.0398107 -0.42128727 -0.2336584 0.2718058
000290 e0 5c 2f 3e 7d 11 fd be 4a 5b 03 3f 49 97 2e be
       0.17125273 -0.49427405 0.5131117 -0.17049898
0002a0 67 c7 3d be 80 28 86 3e 41 ff 72 be d3 d7 1e bd
       -0.18533097 0.26202774 -0.23730184 -0.038780045
0002b0 14 66 62 3e 83 4c 14 bf 77 53 8d bc b2 44 52 be
       0.22109252 -0.5792925 -0.017251713 -0.20534018
0002c0 ea 99 82 3d f1 c1 9f 3e 2d 69 b0 bd f4 6f f8 bc
       0.06377013 0.31202653 -0.08613811 -0.03032682
0002d0 00 6c 98 bd 28 2d 39 be 84 63 d5 bd ff 15 9f be
       -0.07442474 -0.18083632 -0.10419372 -0.3107147
0002e0 77 50 e3 be 35 02 1c 3e c3 1d 31 be e0 93 b9 3e
       -0.44397327 0.15235217 -0.1729651 0.36245632
0002f0 cd aa 10 3e 0b b0 bc 3d b9 ce 51 be c4 e3 09 3f
       0.14127655 0.09213265 -0.20489015 0.5386317
000300 9f ac dc bc fd f3 79 3e 04 93 f8 3e 49 da 0f bf
       -0.02693778 0.2440948 0.48549664 -0.5619245
000310 75 1a 09 3f 81 a3 97 3d 29 a3 45 3d 65 77 8d be
       0.53555995 0.07404233 0.048251305 -0.27630153
000320 76 47 09 bd 17 d0 37 bb 30 0e 66 3d af 9a 15 3d
       -0.033515416 -0.0028047615 0.056165874 0.03652447
000330 39 ab be be 34 fb 13 3d 2e 6a d6 be 2e 9a 8a bd
       -0.37240008 0.036128238 -0.41877884 -0.06767689
000340 2b ed a4 bd c4 91 a3 be e1 d6 7d be 39 8b 13 bf
       -0.08053049 -0.31947148 -0.24789001 -0.5763431
000350 a3 0f 0e be 58 61 aa be ae ba cf 3d 80 58 ad 3e
       -0.13873152 -0.33277392 0.10143028 0.33856583
000360 2b 9d 98 3d 57 dd 0c 3e e8 cf 0c 3d ed e5 1e bc
       0.074518524 0.1375631 0.034377962 -0.009698373
000370 27 bd 6b 3e a6 70 cf be f5 9e ad bd 23 69 1b be
       0.23021375 -0.4051563 -0.08477584 -0.15176825
000380 81 19 64 3d f5 e3 8c 3e ce d8 b5 3e dd 2d fa bd
       0.055688385 0.27517667 0.3551697 -0.12215779
000390 b8 ba 31 3e c6 08 83 3e df 03 60 be 23 25 d5 be
       0.17356384 0.2559263 -0.21876477 -0.41629896
0003a0 da 43 43 bd 36 fb 1e 3e 03 dc 84 bd 25 88 76 be
       -0.04767213 0.15525517 -0.064872764 -0.24075373
0003b0 26 35 7f be d1 68 98 3d 3e 97 52 3e ac ae 04 3d
       -0.24922618 0.07441867 0.20565507 0.032393143
0003c0 c0 ca c7 bd 1f dc 3f bd 27 33 3c be da 62 97 bd
       -0.09755468 -0.046840783 -0.18378888 -0.07391901
0003d0 4d 14 63 3d 39 86 f6 bc 51 cf b2 be 6d 09 8a 3c
       0.055439282 -0.0300933 -0.34923795 0.016850198
0003e0 dd 8b 68 3e 23 6f 1d 3e 38 02 48 be 79 d5 fd 3b
       0.22709604 0.15374427 -0.19532096 0.007746395
0003f0 d0 92 4f 3c 79 3a b3 3d 96 a6 10 be 3b 77 fe 3d
       0.01266928 0.08751387 -0.14126047 0.12425085

policy.net.0.bias f4 [128]
000000 02 6a 4f bd 64 44 f4 bd 58 5f b2 be 88 99 ce 3d
       -0.050638206 -0.11927107 -0.34838367 0.100878775
000010 eb 5c ed bd 80 c9 e0 be db 9b ea be e9 3c b6 be
       -0.11589988 -0.43903732 -0.45822033 -0.35593346
000020 a5 a8 e8 bd 02 f1 06 3e 07 45 fa bc ae ba 83 be
       -0.113602914 0.13177875 -0.030550493 -0.25728363
000030 2b 21 89 be d3 78 b6 3d aa ce 96 be c2 3a 89 be
       -0.26783118 0.08909764 -0.29454547 -0.2680264
000040 10 63 74 3d c0 da fb 3d 21 01 d4 be d2 18 7c bc
       0.059664786 0.122975826 -0.4140711 -0.015386777
000050 2e 17 47 3d 35 53 5e be 3c 96 a5 3d 59 e8 62 bd
       0.04860609 -0.21711428 0.080852956 -0.055397365
000060 89 0d 05 be 5d 53 d5 be 78 d9 8e be ee bc dc bc
       -0.12993445 -0.41665164 -0.2790029 -0.026945557
000070 e5 a8 5a be aa c8 87 be 16 89 9c be c3 e7 df be
       -0.2135349 -0.26520282 -0.30573338 -0.43731508
000080 4c 3e a0 be 45 6e ae be 6d 35 68 be 4d 4e 18 3e
       -0.3129753 -0.34068504 -0.2267663 0.1487362
000090 25 65 8c be a2 fe 84 be 01 19 6a 3d 80 15 85 be
       -0.27420917 -0.2597552 0.05715275 -0.25992966
0000a0 f8 1c 42 3c 7f d6 0d bd c8 67 d7 3d c1 4b e7 be
       0.011847727 -0.034628388 0.105178416 -0.45174983
0000b0 70 1c c5 bd a1 81 10 3d ab 0a d3 be 24 cd bb be
       -0.09624565 0.035279874 -0.41219077 -0.36679947
0000c0 51 1d d8 bb d5 5c 3c 3d 79 c3 b1 be 0a da a8 be
       -0.0065952917 0.04598697 -0.34719446 -0.3297885
0000d0 cb 4d b0 3d d6 5a e8 be fc 93 e3 be c4 8f 34 be
       0.08608588 -0.45381802 -0.4444884 -0.17632967
0000e0 21 cf 00 be 7c a3 af 3c 55 5a 42 be b5 57 b3 be
       -0.12579013 0.02144026 -0.18979771 -0.35027853
0000f0 7d 4c 98 bd 3c 3b 8b be 63 a9 26 3e ed 78 16 be
       -0.07436464 -0.2719363 0.16275553 -0.14694567
000100 dd f7 25 be 35 16 68 bd b8 54 bc bd 84 06 dd 3c
       -0.16207834 -0.056661803 -0.09195846 0.026980646
000110 65 35 1c be ff ed 8c be 15 c1 06 bf 16 3c 54 be
       -0.15254743 -0.27525327 -0.5263837 -0.20726046
000120 51 a7 8f 3d 1a 2b 48 be 01 3a 9a bd 81 67 a7 be
       0.07014335 -0.19547692 -0.075305946 -0.32696155
000130 58 15 0c be 06 89 2a 3e 69 68 e7 3d 1c 06 34 3e
       -0.13680017 0.16653833 0.112992115 0.17580456
000140 d2 38 4f bc a4 2d b5 be bc 3a 2f be 13 84 e1 3c
       -0.012647824 -0.35386384 -0.17112249 0.027528798
000150 57 89 de bd ba 9a c7 be e6 37 c1 be 84 01 7e bc
       -0.10866039 -0.38985234 -0.3773796 -0.015503291
000160 a0 1b 2e 3e a1 b5 3d bd 6e 07 68 bd c0 d6 4e 3e
       0.17002726 -0.046315793 -0.05664771 0.20199108
000170 14 23 a9 be 23 d7 00 3e dd 97 63 be 59 a9 cb bd
       -0.33034575 0.12582068 -0.222259 -0.0994441
000180 a4 cc a2 be 54 f5 53 be 5b 36 a6 be 52 32 db be
       -0.31796753 -0.20699054 -0.32463345 -0.4281183
000190 a6 d3 65 3e ca ba 1f be c4 4c ad bd d7 57 f3 3d
       0.22444019 -0.15598598 -0.084619075 0.118819885
0001a0 d2 ae bd 3d fe ec e3 3d 1f 74 b9 bd 20 be a8 be
       0.0926186 0.11129187 -0.090553515 -0.32957554
0001b0 0a d9 1d 3e b5 cb 90 be a2 94 57 be 25 40 bf 3d
       0.15414825 -0.28280416 -0.21052793 0.093384065
0001c0 68 eb d6 3d 6f 65 b4 bd 4d d7 a6 be d9 60 54 3e
       0.10494119 -0.088084094 -0.32586136 0.2074007
0001d0 23 c2 02 be ae a7 eb bc ea 48 66 be 73 3c 23 be
       -0.1276937 -0.02876648 -0.22488752 -0.15941028
0001e0 c2 56 9e be 90 ff 00 bd e0 2c 0a 3e a2 fc 2b be
       -0.30925566 -0.031493723 0.13493681 -0.1679559
0001f0 62 ba 6f be e4 00 e0 bb 63 c3 ee 3a 2a 0f 35 be
       -0.23410943 -0.0068360437 0.0018216189 -0.17681566

policy.net.2.weight f4 [5, 128]
000000 bd 2e 6b bf 84 13 cd be e5 72 a9 bf e9 f5 0b bf
       -0.9186819 -0.40053952 -1.3238188 -0.54672104
000010 5e ba 4c c0 23 24 d5 bf 98 32 e2 bf d0 c7 b5 3c
       -3.198875 -1.6651653 -1.767169 0.022190005
000020 b1 97 93 be 29 ae 66 bf c7 9a af bf d3 ad 6e bf
       -0.2882667 -0.901095 -1.3719109 -0.93233985
000030 db 0f aa be ea 72 63 bf 85 48 00 bf 11 d0 5d bf
       -0.33215222 -0.8884722 -0.50110656 -0.8664561
000040 7f 1c a6 bf 6b b1 47 bf 8d 77 44 be d0 bf bf bf
       -1.2977446 -0.78005093 -0.1918623 -1.4980412
000050 cd b0 32 c0 8a 0e 04 bf e8 af d3 be a0 ae 1e c0
       -2.792041 -0.51584685 -0.41345143 -2.4794083
000060 c3 81 af bf 4a 4a 98 bf ea 6e ac be 4b 19 8d be
       -1.3711475 -1.1897671 -0.3367837 -0.2755836
000070 29 82 f7 be 43 0a af be f8 f8 04 bf 79 59 a6 be
       -0.48341492 -0.34187517 -0.51942396 -0.32490137
000080 9d f7 3c bf 98 ba 3b be 62 16 02 bf 9e 82 04 bf
       -0.7381533 -0.18332899 -0.50815403 -0.51761806
000090 dc 56 d0 bf 7d 55 23 c0 3c 2e 59 bf 25 8e 72 bf
       -1.6276507 -2.5520928 -0.84836173 -0.94748145
0000a0 b4 65 67 bf f4 50 62 be 14 59 7e bf 39 f8 9c be
       -0.9038956 -0.22101194 -0.9935467 -0.3065813
0000b0 fb 5c d3 bf 8b 91 24 bf 91 b3 61 be c3 45 85 be
       -1.651275 -0.6428458 -0.22041155 -0.26029786
0000c0 d1 31 1f bf 6b 60 08 c0 2f 03 65 bf b1 4f de be
       -0.6218539 -2.130885 -0.8945798 -0.43420175
0000d0 03 b9 67 bf bf d2 49 bf ff 4d d1 be d9 e6 66 bf
       -0.9051668 -0.788372 -0.4087982 -0.90195996
0000e0 2d a5 5a c0 63 4c af bf 0e 63 36 bf 69 a6 0b c0
       -3.4163315 -1.3695186 -0.71244895 -2.1820319
0000f0 3a 8c 04 bf 7c 1e f3 be 7e 3b f0 be 08 68 74 c0
       -0.5177647 -0.47484195 -0.4692039 -3.8188496
000100 86 0f 70 c0 e0 43 38 c0 4c 7c 8d be f9 c3 58 c0
       -3.7509475 -2.8791428 -0.27633893 -3.3869612
000110 c6 e8 e9 bf 4c af 55 be 9c a1 c1 bf c4 d2 44 c0
       -1.8274162 -0.20867652 -1.5127444 -3.075364
000120 07 f8 a5 bf e4 b5 a5 be 8b a3 a0 bf 30 2d 8b bd
       -1.2966317 -0.32365334 -1.2549909 -0.06795728
000130 d2 db 1b bf 99 9b bb be 51 44 eb be d6 fb 52 bf
       -0.60882294 -0.3664215 -0.4595056 -0.8241552
000140 d6 d1 c7 bf f3 db 9f be 48 5c 7d be 43 cd a3 be
       -1.5610912 -0.31222495 -0.24742234 -0.3199254
000150 16 98 d6 be 51 23 20 be ef 03 86 bf 6f 0c 0f c0
       -0.41912907 -0.15638472 -1.046995 -2.235134
000160 a7 4e f2 bf a9 81 12 bf af d0 2f bf fb 3b 29 bf
       -1.8930253 -0.57229096 -0.686778 -0.6610715
000170 ba e6 25 bf de 3e 24 c0 c2 66 35 bf 92 01 b3 be
       -0.64805186 -2.566337 -0.7085992 -0.34962136
000180 46 ab 83 be 6c b0 3f bf da 24 8c bf 65 9e 8d be
       -0.2571661 -0.74878573 -1.0948746 -0.27659908
000190 e8 92 8c bf 21 b2 23 bf 17 b8 17 bf be 24 a3 bf
       -1.0982332 -0.6394368 -0.59265274 -1.2745588
0001a0 92 54 b7 be 6e 43 83 bf d4 7d 59 bf ed e5 f8 be
       -0.3580671 -1.0254953 -0.84957623 -0.4861292
0001b0 28 91 23 c0 b3 11 0c be e2 18 02 bf 2a e9 45 c0
       -2.5557346 -0.13678627 -0.5081922 -3.0923562
0001c0 fd ed 10 c0 cf 1c 87 bf 17 10 85 be ac 2b c7 bf
       -2.2645257 -1.0555667 -0.25988838 -1.5560203
0001d0 73 a2 9c bf a2 32 b3 bf 39 c8 af bf 0a ff b8 be
       -1.2237076 -1.3999827 -1.3732978 -0.3613208
0001e0 a1 92 b8 be 5c e8 09 bf 32 54 44 bf c5 62 7b be
       -0.3604937 -0.5387018 -0.7669097 -0.24549396
0001f0 be 53 a9 be bb c1 c5 be 06 ab dd be 10 45 a7 bf
       -0.33071703 -0.38624367 -0.43294543 -1.3067951
000200 52 4b 09 bc 47 bb 93 bd 9d 02 7f bc b1 df a6 3d
       -0.008379774 -0.07213455 -0.015564588 0.081481345
000210 e2 a2 88 bf 54 1d 3e 3f ab 2e 68 bd d3 52 92 bd
       -1.0674708 0.742635 -0.05668513 -0.07144704
000220 49 ed 85 3d f7 5b 1e 3e 2b 38 ce 3d db 25 50 3d
       0.06539399 0.1546477 0.10069307 0.05081735
000230 5e e9 ad bc 1a 1e a9 3d 00 4c 89 3d 5f 79 8a 3d
       -0.021229442 0.082576945 0.06703949 0.06761431
000240 41 9d 9d 3c c1 8d 0c 3e 3a a8 8c be ac 18 ca 3d
       0.019240024 0.1372595 -0.27472097 0.09867987
000250 f9 45 ef 3d 57 9d 2a 3d db 35 a7 3d 70 2f 2f bd
       0.11683268 0.041653957 0.08164569 -0.04276985
000260 ab c2 48 3f fc 22 32 3e ba 0f 54 bd ea 08 d0 be
       0.7842204 0.17396158 -0.05177281 -0.406318
000270 58 45 70 bd fb c3 1b 3e dd 21 24 3d 60 d4 99 3e
       -0.05865988 0.1521148 0.040071357 0.30044842
000280 22 4d 79 3f 89 51 a2 bd b7 c4 f5 be fa 1f 82 3d
       0.9738332 -0.07925708 -0.48001644 0.06353755
000290 06 8b be 3d 8a e3 25 bf ad 8a 52 3d 62 9e d1 3c
       0.0930386 -0.6480032 0.051401783 0.025588218
0002a0 a7 f9 58 be 0b f1 62 be f4 25 de bd 74 63 1d be
       -0.21188985 -0.22162263 -0.10847083 -0.1536997
0002b0 f3 a9 2a 3c 2d 45 8c 3e de 61 ed 3d 20 8a 24 be
       0.010416496 0.27396527 0.11590932 -0.16068316
0002c0 7b e5 d4 3d ba 48 d2 3e fa 5f 2a bf 68 08 02 3d
       0.103953324 0.4107111 -0.665527 0.031746298
0002d0 75 ff bd 3d 91 c0 04 3e 5b f8 6a be 2a 67 e3 ba
       0.0927724 0.12964083 -0.22946303 -0.0017349471
0002e0 be 06 22 3f 66 1a d8 bd f9 7c 69 3d fd 42 05 bc
       0.6329154 -0.1055191 0.05700395 -0.008133647
0002f0 04 29 6a 3d 9c 95 32 3d 66 ec e8 3d 45 e5 69 3e
       0.05716802 0.04359971 0.113732144 0.22841366
000300 53 a1 62 3e 2c 27 eb bd 91 ff 2b 3d f6 70 7a be
       0.22131853 -0.11482081 0.041991774 -0.24457154
000310 49 df 28 be ef 96 07 3d 70 a5 e7 be 80 aa a6 3d
       -0.16491427 0.033102926 -0.45243406 0.08137989
000320 77 20 db be 29 f0 ec 3d bb e0 ee 3d 2b cf e4 3c
       -0.42798206 0.115692444 0.11663958 0.027930817
000330 05 62 78 bf 77 54 f1 3d ca 7c 2b bf db e1 bd 3c
       -0.97024566 0.117836885 -0.6698729 0.023178985
000340 98 82 8b 3b 6c 35 2e 3d 4f 08 ea 3d 35 be 9a 3d
       0.0042575113 0.042531416 0.11427366 0.0755581
000350 e5 a3 1b 3e 31 5f 0b bf 90 ea 30 bf af 7b 83 bf
       0.1519924 -0.54442126 -0.69107914 -1.027212
000360 09 b6 5a 3d 4f d0 ee 3d e6 1b c2 3d ba 3f ff 3e
       0.05339626 0.116608255 0.094779775 0.49853307
000370 b8 66 a8 3d 64 80 0b 3e 22 1f 24 bf bc 72 b9 bf
       0.08222717 0.13623196 -0.64110005 -1.4488139
000380 b9 dc ad 3d 64 28 11 3e de 2c f3 3d 81 8a ba be
       0.08489365 0.14175564 0.11873792 -0.36433795
000390 14 17 c2 3d 9c 73 8e 3d b6 54 07 3d 49 e2 74 3d
       0.09477058 0.069556445 0.03303977 0.059786115
0003a0 33 52 f8 3c 41 1e be bd ee 34 e4 3d b0 34 c6 bf
       0.030312633 -0.09283114 0.11142908 -1.5484829
0003b0 b3 a2 5f be f9 89 7e bf 7b 2a bf 3d 84 1d 42 3e
       -0.21839409 -0.9942928 0.093342744 0.18956572
0003c0 db 5c 33 3e fb dc d9 3e 10 b4 1e 3e 5c dc de be
       0.1751589 0.42551407 0.15498376 -0.43527496
0003d0 fe 3b 8f 3e 52 9f f4 bd b7 06 4e 3d 90 6b 24 3c
       0.27975458 -0.119444504 0.050299373 0.0100354105
0003e0 2a a4 2b be fe 22 50 3d b8 20 8f bf cc 0e 41 bf
       -0.16761842 0.05081462 -1.118186 -0.75413203
0003f0 ee ad ed 3d 20 17 1b 3d 31 9f cb 3d a0 3f 4a 3d
       0.1160544 0.03786385 0.09942473 0.049377084

policy.net.2.bias f4 [5]
000000 2e 9e 4c c0 4c ac b5 bd cd 27 dd 3d 86 b7 51 bd
       -3.1971545 -0.08870754 0.10798607 -0.051200412
000010 c0 83 47 3e
       0.19483852
