SGE_Transformer/model/2_room/eil_2_room_198_model/EBC_model_101999.pth (torch, 319327 bytes, 27 tensors)

encoder.embedding.weight f4 [900, 16]
00000000: 3e1d 8f3e 8b4c 70bf f0ab 3a3f 0b1f fe3f
00000010: 15c6 dc3e 5461 443f 42a0 2c3e c998 ea3e
00000020: 0393 b73f 8f58 9b3f f8c6 b63f 528c 61bf
00000030: 59e6 f23f ebb0 ccbe cf71 7bbf a274 2c3f
00000040: f210 8ebf be99 003c 4d34 eb3e e6ee 0bbf
00000050: b9cf 133f 61c8 1b3f 9aea ad3e 329d d33c
00000060: 431d 6ebf fa8f c5bf ebd1 0f40 f33d cebf
00000070: 04b4 633f 4278 4dbe 8ca8 61be b7cd acbf
00000080: 8586 0d3f 9322 41be 0ffd 11bf 80e9 073f
00000090: 266f c33d 3145 643e 78fa cabe 2813 edbf
000000a0: d2d8 2bbf 8bb9 913f 2ad3 5dbf 0404 25be
000000b0: b671 9abf 3f9c d33d 3d7d 56c0 eac2 8ebf
000000c0: 7007 a53e c0a8 40bf 47a0 b3bf 5801 6bbf
000000d0: 2afb 343f 55bf d73f 8293 89bf 7bf1 013f
000000e0: 25ac aebf 7f83 033e 15c8 433f 5c72 bdbf
000000f0: 10d7 87bf 4893 31bf 4245 38bf 5565 21c0
00000100: 6127 643f a184 f63e eefe c5bf d19b 1b40
00000110: b3b2 6dbf dab5 c2bc 0f7b c0bf 0aef da3e
00000120: 35e6 4fbf 8800 26be e0a7 083e 455f d6bf
00000130: bfd4 01c0 2691 98bd 10e7 e3be 0962 a03d
00000140: b518 193e 4686 2e3f 0daa c83f 767d f33e
00000150: 41a4 80bf 09fb 82bf 3c7d 053f 5be3 f6be
00000160: c4ca 45bf 45a6 2f40 beea fcbf 30f0 d43e
00000170: 139d c83f c321 23bd 97e2 78bf b849 36bf
00000180: b5b7 753e e57c 99bf 171e 883f 144c 2dbf
00000190: 0cd4 29bf 842e ac3e 80b9 043f c4d6 843f
000001a0: 3de2 293d 8d83 573f 5a75 06be fc08 bfbf
000001b0: 2026 ba3e 4ad5 02bf 3846 d6be 3d48 973f
000001c0: 722c 88be d2df 4d3f a67b 9dbe 5f48 ad3f
000001d0: 44c2 2a3f 598f 71be 8154 2fbe 23c7 0f3f
000001e0: dc35 9d3e c8f4 ac3e 7400 053e 6f95 133f
000001f0: d158 a63c c0fd b23f 8f5e b53f c0bf c0bb
00000200: 45e8 61bf e3f6 f9be f994 adbf 1a0e 6fbe
00000210: 1735 ea3f ed78 cb3f 8a5e 363e ba0f 033f
00000220: f0d7 0bbf 86c2 b8bf 323e f6bf af88 90bf
00000230: 94de 803f c211 10bc 91f0 4dbf 8aa0 fb3f
00000240: 0af0 d23f 35e7 113f 9c2e 4abc 3f44 bcbf
00000250: b977 3dbd 9966 08bf bde4 283f 7df5 0b40
00000260: 45c5 f93e 2980 0b40 3a38 bbbf eb0b b2bf
00000270: 9346 ddbe f292 18be f77c d03d d6eb 33be
00000280: f3e7 a43e 5f13 9a3f 16cc ae3d e862 e1bf
00000290: 64f5 733d 0473 a7bf d01c 6c3e 8bbe 753f
000002a0: 40d0 103e 35a8 5c3f 5c43 8cbf 400f 92bf
000002b0: 2191 c0be 6303 83be a74a 91be bba9 8f3f
000002c0: ac14 0440 9122 063e bd48 693f 8468 ca3d
000002d0: ba85 2abf 05a8 6e3f a055 d13f 17dc 8cbf
000002e0: bb40 3c3f 7e9a 0140 377b 3ac0 955f 433e
000002f0: c2b8 2d3e 8734 33bf 8a28 c8bd 91a1 033f
00000300: 9bd6 783f e28b 453d 54ed 9bbf 3a87 fe3f
00000310: a740 ee3e 8b09 19bf 3d03 8cbf 4369 7bbf
00000320: 4aee ca3f 03be 993f d03c bd3f 228d 1fbe
00000330: bc08 5abf efe5 debf 87c2 e5bf 460b e0bf
00000340: d229 e73f 5446 a23d 3d6a 36bf b519 393f
00000350: e4ab 073f b538 dabe 9f82 3abe 5662 c7be
00000360: dd3d 5cbe 2e6f 06bf 3982 2e3f 3a7c 20bf
00000370: 652c 883f 2be1 a73f 66b3 203f f2b8 35bf
00000380: 2224 adbf 5465 e0bf abf6 f1be a118 08bf
00000390: bd25 8a3f 52e8 393f b453 d6bf 4184 e5bf
000003a0: bf37 9e3f d1c3 283f 3719 a13e 000a acbf
000003b0: 8b4c 86bf 3377 8fbe f811 89be b8aa 8d3e
000003c0: d040 6f3c 76fb d6be 0bce 63be acbe 723f
000003d0: 94aa f63f d7a8 263f 6cdc a9bd 4586 bfbf
000003e0: ee06 f4be 8117 fcbf e1b6 a53f 4f13 1cbe
000003f0: d9fb 813f b18f 893c 2df1 1440 a961 1dbe
0.27951998 -0.93866795 0.72918606 1.9853224 0.43119875 0.7671101 0.16858009 0.4581969
1.434174 1.2136401 1.427947 -0.88104737 1.8976547 -0.39978728 -0.98220533 0.6736547
-1.1098921 0.007849155 0.4593834 -0.54661405 0.57738835 0.6085263 0.3396805 0.025831793
-0.930134 -1.5434563 2.2471874 -1.6112655 0.8894656 -0.20065406 -0.22036952 -1.3500279
0.55283386 -0.18860845 -0.5702676 0.5309067 0.09542684 0.2229202 -0.39644217 -1.8521471
-0.67127717 1.1384748 -0.86650336 -0.16114813 -1.2065952 0.10332536 -3.351394 -1.1153233
0.32232237 -0.7525749 -1.4033288 -0.91798925 0.70695746 1.6855265 -1.0748141 0.50759095
-1.3646284 0.1284313 0.76477176 -1.4800525 -1.0612507 -0.6936536 -0.7198068 -2.5218098
0.8912259 0.48148063 -1.5468423 2.4313853 -0.928508 -0.023768354 -1.5037555 0.42760497
-0.81210643 -0.1621114 0.13345289 -1.6747824 -2.02861 -0.0744956 -0.44512224 0.07831199
0.14950831 0.68173635 1.5676895 0.47556657 -1.0050126 -1.023286 0.5214422 -0.48220333
-0.7726252 2.7445233 -1.9759138 0.415895 1.5672935 -0.03982712 -0.9722075 -0.71206236
0.2399586 -1.199124 1.0634183 -0.6769421 -0.6633918 0.3362924 0.5184555 1.0378041
0.041475523 0.84185106 -0.13130704 -1.4924617 0.36357212 -0.51106703 -0.41850448 1.181892
-0.2659641 0.8041965 -0.307584 1.3537711 0.66702676 -0.23589839 -0.1712208 0.56163234
0.30705154 0.33780503 0.12988454 0.5764989 0.020306023 1.3983688 1.4169482 -0.0058822334
-0.8824504 -0.48821172 -1.3561088 -0.23345223 1.8297452 1.5896279 0.17809501 0.5119587
-0.5462637 -1.4434364 -1.923773 -1.1291713 1.0067925 -0.008793296 -0.804452 1.9658368
1.6479504 0.5699342 -0.012340214 -1.4708327 -0.046256755 -0.5328155 0.65974027 2.1868584
0.48783317 2.1796973 -1.4626534 -1.3909887 -0.43217906 -0.14899805 0.10180085 -0.17570433
0.32208213 1.2037162 0.0853502 -1.7608309 0.059560195 -1.3081975 0.23057866 0.9599387
0.14141941 0.86194164 -1.0958056 -1.1410904 -0.37610725 -0.2558852 -0.28377268 1.1223673
2.0637617 0.13099124 0.91126615 0.09883216 -0.666103 0.9322513 1.6354256 -1.1004666
0.7353627 2.0250545 -2.9137704 0.1907943 0.16965011 -0.70002025 -0.09773357 0.51418406
0.9720246 0.048229106 -1.2181802 1.9885018 0.465337 -0.59780186 -1.0938488 -0.9820749
1.585397 1.2011112 1.4784184 -0.15581182 -0.8516958 -1.741392 -1.794999 -1.750344
1.8059638 0.0792357 -0.71255857 0.7230485 0.5299666 -0.4262139 -0.1821389 -0.38942212
-0.21507974 -0.52513397 0.68167454 -0.62689555 1.0638548 1.3115591 0.6277374 -0.7098533
-1.3526652 -1.7530923 -0.47258505 -0.5316258 1.0792767 0.7262012 -1.6744294 -1.7930986
1.2360762 0.6592379 0.3146455 -1.3440552 -1.0492109 -0.2802063 -0.26771522 0.2766931
0.014602855 -0.41988724 -0.22246568 0.9482219 1.9270806 0.6510138 -0.08293995 -1.4962851
-0.47661537 -1.9694673 1.2946435 -0.1524174 1.0154983 0.01679215 2.3272202 -0.15369286

encoder.lstm.weight_ih_l0 f4 [128, 16]
00000000: 7a75 f0be 87bf 7a3e 37c3 f1be 4752 36bf
00000010: f463 f4bd 85a2 b13e df20 05be 27d7 a43e
00000020: 6e3b 50be 8d39 aabe 8b92 23bf b765 febd
00000030: 39aa 9e3e 1238 afbc db10 40bd 6a41 fb3e
00000040: c1f6 2bbd 8c52 143f efcc 0dbf 58f1 45be
00000050: 158a edbd 9faf 0cbf 6db0 2c3e 2814 9c3e
00000060: 5979 25be 27ab 7cbf 9171 98be b47b b1be
00000070: 27f8 993d 613e 83bf d900 253e 0ab8 16bd
00000080: 7b25 4a3d ba16 9cbe e026 66be 29c5 6a3e
00000090: 40d2 34bd ebf6 103e 6067 ac3e 8b9a 843d
000000a0: 2dc3 083e 989d aebe c7ef 98be eecf bc3e
000000b0: 0fec 543d 525f 603d 0131 46be 4a82 0e3f
000000c0: 924e 1cbf 0ec5 363e 39f5 4d3f 35f1 693e
000000d0: 3e30 50bd 49ab 193e 8794 36be 52c0 85bd
000000e0: 97a7 70bd e00a 903e 4d02 9c3d a82c 84bf
000000f0: c88c 00bf 2522 37be bc3e ac3e 293d ad3d
00000100: 1784 433d ffe0 b23c 143e c23e 2c1f 4c3e
00000110: a908 f43e d919 a73e 14fc d2bd c595 9c3c
00000120: c84f d9be c05f d5bd 00a2 df3e f74b 67bc
00000130: 0678 2dbe 36d8 333e f3a8 f8bd f791 2bbe
00000140: 263f 653e a3c6 043f 09f0 243e 73d4 ab3d
00000150: c2a5 27be cebe 103e 65a8 4dbe 2caa bc3d
00000160: 4daf ef3c 7644 75bf 55c7 4bbe 892d 823e
00000170: cbea e23e 7815 f83e 5642 b2be 6995 fb3e
00000180: 63a3 cabd bde9 903e 4f13 9d3d 25bc 9abe
00000190: cba2 023f dbd3 b2bd 8a06 073f 9279 4b3e
000001a0: d299 333e f374 223f 7327 93bc 092e c23e
000001b0: 4e7b e43e 96c3 213e 60a3 053e de6b 993e
000001c0: a6cd 7cbe 3fd1 6b3d 45a9 ad39 8d73 58be
000001d0: 49e1 b33e fc26 433f 73a7 873c 7f2c b43e
000001e0: e569 0cbf 24e6 66be 24b3 74bf 3b5c 5ebe
000001f0: f45d f4be 51ab 903f 6437 e93e 7dd3 a6be
00000200: 1a21 683e 2f3e abbe 5bf7 53be 2b25 b43e
00000210: 9ca2 773d 733a 53be 94c2 5d3e 7ec8 2e3f
00000220: 77b0 0e3e ffde 683e 1d87 743d 3b84 0a3d
00000230: 76b0 b13e d29c 083f 09fb 8dbe 69e6 c33d
00000240: 0155 b63e 437b f03e 4a4c 52be c7bf db3d
00000250: 156f e9be fb74 87be 1d72 95bd 488e d43e
00000260: 00b5 abbe 8d91 6c3d ad28 32bf 487c 77be
00000270: 516e 8b3e 862f 0e3f 4d1f 673d 9359 c63e
00000280: bd7c bd3e e988 c73e 6ca5 563e 4d84 60be
00000290: 0488 883d 42e6 f43d bba5 1fbd dd7e d63e
000002a0: 7552 a7be ca57 08bf 176a 78be 3f97 70bb
000002b0: e067 2c3f a489 cdbd f31e 10be eb89 d43d
000002c0: f374 78be effd 4a3f 3d38 37bf 6136 e4bd
000002d0: 3130 9b3e 088d dcbe 83cd 853d a61e 223f
000002e0: d3ec 3fbf db66 d63e c41f cebd 4eb3 fb3e
000002f0: f81d e0be 7c89 00be f190 7a3e 4197 1a3e
00000300: 45a0 3fbc 61e0 193f 3c31 aabe 66da 3b3f
00000310: 5ebd 9abe 50bb 1e3e 7e7c 4dbf f3a3 743e
00000320: 1f6a 3f3e c5c7 8f3e 5538 0f3f 123e b03c
00000330: 0117 d53d e693 e33e ed78 253f 833f 903e
00000340: 0bca 56bd e64e 013e c128 cabd 6ef5 e93c
00000350: ec5b b8be 1693 1bbd ebfa b63e 2da9 4abe
00000360: d6b5 3b3d e6aa 54be bbd2 04be b339 ae3e
00000370: 1f10 913e 4921 ec3e ab93 82be 487a 2d3e
00000380: 0435 503e a24a 12be c5fc 68be 5e05 003f
00000390: 1e0c 283e 20b4 173e 0802 463e 7584 e4bd
000003a0: 3bb7 9dbb f410 f9bc a213 75be 7f67 e2bd
000003b0: c4f0 71bd ec71 8abe 83cb a6bd 6d5e d83d
000003c0: 616d 2b3e a960 cbbe 951a 77be 73eb 073d
000003d0: 7f8e 88be cce7 343f 234d b5be 6171 7dbe
000003e0: 010c 8e3d 6e52 1c3e b1e9 7e3e ca0e eabe
000003f0: d49c 21bf a59f cf3d f701 603e 155f 9b3e
-0.46964628 0.24487124 -0.4721925 -0.71219295 -0.11933127 0.34694305 -0.1300082 0.32195398
-0.2033517 -0.33247033 -0.6389548 -0.12421744 0.30989245 -0.021389041 -0.046891075 0.49073344
-0.04198337 0.57938457 -0.5539083 -0.19330347 -0.11598603 -0.54955477 0.16864176 0.30484128
-0.16159572 -0.9869866 -0.29774144 -0.3466469 0.075180344 -1.0253412 0.16113605 -0.036796607
0.04935215 -0.3048609 -0.22475767 0.22926773 -0.044145823 0.14156692 0.3367262 0.06474789
0.13355704 -0.3410461 -0.29870436 0.36877388 0.051982936 0.054778405 -0.19354631 0.55667555
-0.6105739 0.17848608 0.80452305 0.2284592 -0.050827257 0.15006746 -0.17830096 -0.06530823
-0.058753576 0.28133297 0.07617626 -1.0326128 -0.50214815 -0.17884119 0.33641613 0.08458931
0.047733393 0.021835802 0.37937987 0.19933766 0.47662857 0.32636908 -0.10301986 0.019114384
-0.4244368 -0.104186535 0.43678284 -0.0141172325 -0.16940317 0.17562947 -0.121415995 -0.167549
0.2238737 0.51865596 0.16107191 0.08390131 -0.16371825 0.14135286 -0.20083769 0.09212145
0.029258395 -0.9580759 -0.19900258 0.25425366 0.44319758 0.4845388 -0.34816235 0.49137428
-0.09894445 0.28303328 0.076696984 -0.30221668 0.5102965 -0.087318145 0.5274435 0.19870594
0.17539147 0.634597 -0.017963147 0.37925747 0.44625324 0.15797266 0.13050604 0.2996511
-0.24687824 0.0575726 0.00033123247 -0.21137829 0.35132816 0.7623136 0.016559338 0.35190198
-0.5484908 -0.22548729 -0.95585847 -0.2171487 -0.4772793 1.1302282 0.45550072 -0.32583228
0.22668877 -0.3344588 -0.20699827 0.35184607 0.06045781 -0.20627765 0.21656257 0.68274677
0.13934503 0.22741316 0.059699167 0.03381751 0.34704942 0.5336429 -0.27730587 0.095654316
0.35611728 0.4696904 -0.20536914 0.10729938 -0.4559256 -0.26456437 -0.07297156 0.41514802
-0.3353653 0.057755996 -0.69593316 -0.24168503 0.27232602 0.55541265 0.056426335 0.38740215
0.3700923 0.38971642 0.20961541 -0.21925469 0.06666568 0.11957981 -0.038976412 0.41893664
-0.32680097 -0.53258955 -0.2425922 -0.0036711243 0.67346 -0.100360185 -0.14074306 0.10377868
-0.24263363 0.7929372 -0.7157019 -0.111431845 0.30310205 -0.43076348 0.06533339 0.63328016
-0.7497074 0.41875347 -0.100646526 0.49160236 -0.43772864 -0.12552446 0.24469353 0.15096761
-0.011695926 0.60108 -0.33240688 0.73380125 -0.302226 0.15501142 -0.80268085 0.23890667
0.18692826 0.280821 0.5594533 0.021513972 0.10404778 0.44448775 0.64637643 0.28173456
-0.052438777 0.12627754 -0.098710544 0.028559413 -0.3600763 -0.03798207 0.3573831 -0.19791098
0.04582771 -0.20768318 -0.12971012 0.34028396 0.28332612 0.46119145 -0.25503287 0.16941178
0.20332724 -0.14286283 -0.22752674 0.5000819 0.16410872 0.14814806 0.19336712 -0.11158077
-0.0048131025 -0.030403592 -0.2393327 -0.110548966 -0.059067503 -0.2704004 -0.081442855 0.10564885
0.16740943 -0.39722183 -0.24131234 0.033183526 -0.26671216 0.70666194 -0.35410413 -0.24750282
0.06935883 0.1526582 0.24893834 -0.45714408 -0.63129926 0.10137872 0.2187575 0.3034598

encoder.lstm.weight_hh_l0 f4 [128, 32]
00000000: a332 81bf 33fe d1bd 8dfb a3be 77e3 a33e
00000010: 8c52 113f 0a83 a9be c2c5 22bd 7b74 05bf
00000020: 02fc febc ebdf 1bbf 5b7e 1ebe 45ad 99be
00000030: dd92 cc3e beac c4bd 401a fb3e e954 8bbe
00000040: d1b1 ab3e f45b abbd 4cf9 f8be 8fa9 75bf
00000050: 6bbc edbd 9343 8a3e f139 35bf d17a 08bf
00000060: cdeb 403e a966 3abe 543a 9c3b e80e 98bd
00000070: a00a 0dbf 5839 323e 08fd bd3c 19dd 8dbe
00000080: 9396 14be b7c7 503e 6a09 06bf 1f84 78bd
00000090: 3827 283f 20d2 aebe bfe4 b83e 90e6 89bd
000000a0: 10b4 783d 83d9 f5bc 8a59 d6be 6f4b d1bd
000000b0: af43 8abe 4550 c2bd 2e25 393f a81d acbc
000000c0: 7ca8 3d3e eb54 f43e bfd6 f13e cfde f03c
000000d0: ea3a 59bf aba6 da3e 4c16 5e3e 884a ea3e
000000e0: 0df4 503f eb85 153d 9ea6 b2bd e86f dabe
000000f0: 4685 3cbf ca6c 233f c5e8 313f 84b5 fc3d
00000100: 4b51 333f 3545 f6bc 7628 edbe 471b 58be
00000110: 787b 963f 8932 d7be 405c 933e 6387 e7bc
00000120: 247e ccbe 7c31 88bf 7f60 3b3d 49f2 95bf
00000130: 2dd3 9cbc 86a6 5fbf d09d f93d e951 55be
00000140: 2da2 2e3e 5609 d7be 3bac 323f d5f7 adbe
00000150: 1a68 12bf 3250 883d a36e 70be c267 fbbd
00000160: df14 0f3f f6cd 26bf f6c3 abbd 9f6b 71bf
00000170: 3be3 99be cf96 3a3e 52e8 dabd 088f eabe
00000180: a0e8 ddbd 0630 90be cd88 ac3e 96ad 7cbe
00000190: a289 04bf 6ffd 59bf f37c 3abd 0e41 e63e
000001a0: b577 983d b40f 693e 4c9e 083e b9d8 30bf
000001b0: fac2 01be 4ad0 7dbf 0c3f 5dbe 6687 8b3e
000001c0: 46da 173f de31 e6be 2c7e e83e 8973 19be
000001d0: f452 19be ccc5 4abe 5fed abbe f12a ff3d
000001e0: f474 1cbe a60f 203f dc4c 15bf c4cd f5bd
000001f0: a3f0 03bf 6b06 cabe e9cc 30be b5b1 993e
00000200: 8b46 0dbf 368a 4f3e 3a82 1ebd ac98 3f3e
00000210: 0ec1 133f 999a 4abf 1572 53be 9eea 6e3f
00000220: 93b2 b4be d052 04be 7ace 5ebe 0a20 773e
00000230: 5985 b73e 61b0 703d 331c 253f aecb 103e
00000240: 565a de3e 3266 dabd 4f9b 26be 3940 ddbe
00000250: 70d2 0dbf b41f ae3e 940f 373e 3dce c1be
00000260: d3c5 c03e 792e dc3d d94c 0bbf 6e31 e43e
00000270: 8ee8 29bf 1893 a63f 902e 0dbf 3779 c4be
00000280: a3b5 003e 0415 94bd 70a4 20bf 47c1 c5be
00000290: abbc cc3d 5569 e2be 3ecc 333f f89b 983f
000002a0: dd16 cebe 80ed b63a 87cc 05bf b249 36be
000002b0: 8aa4 4cbd 5212 9ebd 4645 dd3c 6b4e 53be
000002c0: ea0f 983e 72f6 c03d 9b59 5d3e 7d0a c8bd
000002d0: e3bb a13d 32fc 1e3f e47a e03e ec09 10bf
000002e0: 1656 21be d1d0 cbbe 2b62 f1be eebf 0abf
000002f0: b184 98be ecd4 c63e dc03 eebe 008d 3c3c
00000300: aa0f 9d3e a0b9 0f3f 221c afbe c1ef 9b3e
00000310: 3c87 243b a4b5 efbe 3b02 50be 4d33 603f
00000320: 36ca afbe c497 b6bd f449 35bf 85b4 f5be
00000330: 5c35 a2bc ed17 20bf 205d 9bbe eac3 443e
00000340: 9dde 83bb 766d f33d fb6a 98be 3d30 9a3e
00000350: a27d 21bf 2f90 403f 9d2a 923d 1a69 8cbe
00000360: e3d4 a13f c6b6 19bf ca75 803d 0314 31be
00000370: 505b 8cbf 175c ab3e 811f 2c3e 5635 4ebe
00000380: 1753 7f3d 7a41 79be 16de 6bbf fab3 a8be
00000390: 7baf 753f f574 02bf 35fe 97be 6fb9 403d
000003a0: c58a 58be 9277 84be 275b 9fbe 443b 61bd
000003b0: 412e 313e 2a3d e7be 3735 3a3f 9c27 7abe
000003c0: bf8e c43e 3708 6d3e adee 0fbe 32e2 8e3d
000003d0: 15b5 ccbd 5d60 b53e 93a6 2ebf c107 eebe
000003e0: df53 98be 8346 45bf 85f8 03bf 3bad 78bf
000003f0: 2de0 0bbf 7dbb aa3e 4fb2 4dbe 5a44 84be
-1.0093578 -0.10253563 -0.32027856 0.3200948 0.5676658 -0.33107787 -0.039739378 -0.5213086
-0.031126026 -0.60888547 -0.15477888 -0.30015007 0.39955798 -0.096032605 0.49043465 -0.2721322
0.335341 -0.08367148 -0.48627698 -0.9596185 -0.116082035 0.2700468 -0.70791537 -0.533124
0.18839951 -0.18203224 0.0047676954 -0.07424718 -0.5509434 0.17404687 0.023191944 -0.27707747
-0.14510565 0.20388685 -0.52358115 -0.060672875 0.65684843 -0.34144688 0.3611202 -0.067334294
0.060718596 -0.030010944 -0.41865188 -0.10219466 -0.27004763 -0.094879664 0.72322357 -0.021010235
0.18521303 0.47721037 0.4723415 0.029403118 -0.8485552 0.42705283 0.21688193 0.45759988
0.8162239 0.036504667 -0.08723186 -0.42663503 -0.7364086 0.63837874 0.69495803 0.12339309
0.7004592 -0.030062297 -0.46319932 -0.21104155 1.175643 -0.42030743 0.2878132 -0.0282628
-0.39939988 -1.0640101 0.045746323 -1.1714565 -0.019143665 -0.8736347 0.121883035 -0.20832027
0.17054053 -0.4199931 0.6979405 -0.33978143 -0.57190096 0.06655921 -0.23479705 -0.122756496
0.5589122 -0.6515802 -0.08386986 -0.9430484 -0.30056176 0.18221591 -0.10688843 -0.4581225
-0.10835385 -0.2816164 0.3369812 -0.24675593 -0.5177251 -0.85152334 -0.045529317 0.44971508
0.07444707 0.22759897 0.13341635 -0.6908069 -0.12672034 -0.9914595 -0.21606082 0.27251738
0.59317434 -0.4495992 0.45408762 -0.1498548 -0.1497305 -0.19802016 -0.33579537 0.12459362
-0.15278989 0.6252388 -0.58320403 -0.12002137 -0.5153906 -0.39458022 -0.17265667 0.30018392
-0.55185765 0.20267567 -0.038698412 0.18710583 0.57716453 -0.7914215 -0.20648988 0.9332675
-0.3529249 -0.12922215 -0.21758452 0.24133316 0.35843924 0.058761958 0.64496154 0.14140198
0.43428296 -0.106640235 -0.16270183 -0.4321306 -0.5539923 0.34008563 0.17877036 -0.3785266
0.37650928 0.107510515 -0.54414135 0.44568962 -0.66370475 1.301364 -0.55149174 -0.3837373
0.12569289 -0.07230571 -0.6275091 -0.3862402 0.09996923 -0.44220987 0.70233524 1.1922598
-0.40251818 0.0013956279 -0.5226521 -0.1780155 -0.049961604 -0.07718338 0.027010571 -0.20635383
0.2969964 0.09422006 0.21616213 -0.097676255 0.07897165 0.6210357 0.43843758 -0.5626514
-0.15755495 -0.39807752 -0.4714521 -0.5419911 -0.29788736 0.38834321 -0.4648732 0.011508226
0.30676013 0.56142616 -0.3420115 0.30456355 0.002510502 -0.46818268 -0.20313351 0.8757828
-0.34333962 -0.08915666 -0.7081597 -0.47989288 -0.019800834 -0.6253651 -0.30344486 0.1921536
-0.0040243403 0.118861124 -0.2976912 0.30114928 -0.63082325 0.75220007 0.07137034 -0.27423936
1.2643093 -0.60044515 0.062724665 -0.1729279 -1.0965366 0.33468696 0.16808893 -0.20137534
0.0623351 -0.24341384 -0.9213575 -0.3294981 0.95970887 -0.5095971 -0.29686132 0.047051843
-0.21146686 -0.25872475 -0.3112423 -0.05498816 0.173028 -0.45163852 0.7273745 -0.24429172
0.38390157 0.23147665 -0.14055891 0.06976737 -0.09995476 0.35425082 -0.6822292 -0.4649029
-0.2975149 -0.7706072 -0.51551086 -0.9713933 -0.5463894 0.33346167 -0.2008755 -0.25833398

encoder.lstm.bias_ih_l0 f4 [128]
00000000: e384 433f b351 d93e aeae ca3e a223 d63d
00000010: 43d3 5c3e 6719 063f 4289 ea3e a8ef bc3e
00000020: cfb7 a83e 1bef e13e edf2 583e b3aa 39bd
00000030: 55bf 693b 9ebd 533f 2707 373e 7176 f73d
00000040: 75e7 233f 8b22 243f 55cc 303f c2af 38bd
00000050: 6f1c 153d d354 5c3e 8c5d 043f 2fb5 b93e
00000060: dade 963e 9a96 953e 7911 ef3e ee00 6a3e
00000070: 5907 4f3f 4306 153f b8d9 02be ffc2 4a3e
00000080: 9d44 a73e c8ff c3be cd37 b13e 3430 4b3e
00000090: f0f4 0a3d 0dc5 db3e 4e19 313e 5493 983e
000000a0: 338a 863e 21ba e63e 2d7d 583e 023e 223f
000000b0: 563a 9c3e fb96 ab3e 6c80 b93e be49 923e
000000c0: 06a8 023f b7e8 113e daeb dc3e a6ff 863e
000000d0: fff6 fb3d 73f4 663e 5f11 533e 1a37 c33e
000000e0: b125 c93e abfd bb3e f8b4 343e 7145 e93d
000000f0: e572 bd3e 38b3 143f 2e91 3a3e d55d afbd
00000100: 57e7 433d ee6d 0cbc 2dde 12be 468f 7cbe
00000110: 8d6b 4a3e 66ea 05be 9710 ef3d 3ad6 fe3d
00000120: 8293 4ebe 3346 88bd 4a86 783d ef3d 6abe
00000130: 78a1 4fbe 6d52 27be 0185 cbbc 3131 5a3e
00000140: c43e e2bb 666f 1bbe 9ca8 0e3d 6e53 22be
00000150: 2024 10bf 148d c53e 6b8e 25be 48a9 863c
00000160: 71d5 843e 8f37 93be a22c cdbd eec0 02be
00000170: 452d 8ebe f663 b93e 3b6b 6dbe 3e8d 2dbe
00000180: e6d5 be3e 64db b13e 7ec8 483e b957 ca3e
00000190: 186d 473e b015 85bc 040a 433e 3ab6 3c3d
000001a0: 3669 323f cff7 9a3e 3d8a 24be c2ca 9d3d
000001b0: 4852 b43d a648 10bb 9915 9dbe e3ef 6e3d
000001c0: 182f 093e b73f 003f 114b 723e 29e9 e03d
000001d0: f51e 28bd 0768 dbbe 123a b4bc b20b 153c
000001e0: a974 d0bd f64d 383e 4165 193e fdf8 023d
000001f0: 08c5 c03d 88e4 62be 5af5 97bd 57c9 0c3e
0.76374644 0.42445144 0.39586395 0.10456015 0.21564965 0.5238251 0.45807844 0.36901593
0.32952735 0.44127735 0.21186419 -0.045328807 0.0035667021 0.8271121 0.17873822 0.12083138
0.6402505 0.6411521 0.69061786 -0.04508949 0.03640407 0.21516733 0.5170524 0.36271045
0.29466897 0.29216462 0.46693018 0.22851917 0.80870587 0.5821268 -0.12778366 0.19800948
0.32669535 -0.38281083 0.34612885 0.19842607 0.033924997 0.42923775 0.17294809 0.29799902
0.26277313 0.4506388 0.21141501 0.63375866 0.30513257 0.33513626 0.3623079 0.28571886
0.51037633 0.1424893 0.4314869 0.2636692 0.1230297 0.22554187 0.20612095 0.38127977
0.3928657 0.3671697 0.17647159 0.11390198 0.3700172 0.58085966 0.18219444 -0.08562819
0.047828045 -0.008571131 -0.14342566 -0.2466403 0.1976759 -0.13077697 0.11673086 0.12443204
-0.20173457 -0.066540144 0.060674943 -0.22875188 -0.20276439 -0.16340037 -0.024843695 0.21307828
-0.006904455 -0.15179214 0.034828767 -0.15852138 -0.5630512 0.38584197 -0.1616761 0.016438141
0.25944093 -0.28753325 -0.10018279 -0.1276891 -0.27768913 0.36209077 -0.23185436 -0.16948411
0.37272567 0.34737694 0.19607732 0.39520052 0.1947521 -0.016245693 0.1904679 0.046072222
0.6969179 0.30267188 -0.16068359 0.077046886 0.088047564 -0.0022015958 -0.3068054 0.058334243
0.13396871 0.5009722 0.23661448 0.10981972 -0.041045148 -0.42852804 -0.022000346 0.009097027
-0.10178501 0.1799849 0.14980032 0.031975735 0.09412581 -0.2215749 -0.07419844 0.1374868

encoder.lstm.bias_hh_l0 f4 [128]
00000000: c03f 083f 0de3 d13e b35c 173e e76c 863e
00000010: aac8 863e deee 953e 3e31 ae3e 1921 873e
00000020: 8059 e33d b5bc e93e d9be 693e 0616 123e
00000030: a799 c83c fc16 6e3f f4c4 e0bb a0e1 9d3e
00000040: 61a0 d13e a1f4 333f 06aa e73e a214 11be
00000050: e88c ccbd 65b3 a43e d594 f83e d63c 3e3e
00000060: e2ce 993e 5d7e f23e 6e60 a93e c168 3a3d
00000070: b5bd 153f 17da 373f af36 81bd 74bb 833e
00000080: b4d4 573e bd2a d8be e377 5f3d a8de 363e
00000090: e342 603e fae7 e23e 43fd be3d 89f9 f43e
000000a0: 3d9a 743e 03d5 143f d351 4d3e b75a 003f
000000b0: 11d0 823e a752 0f3f 0487 aa3e e515 983e
000000c0: ca7a e43e 0b3f 263e f0d4 903e e3ff 703c
000000d0: 291a d73d 1361 913e 2e23 213c 5d59 b33e
000000e0: 6b1c bb3e d83d f33e 1a0b 8b3e dfa4 c33e
000000f0: c478 f23e 0cb7 de3e ebb5 be3e 01ce 0a3e
00000100: e01f 463e 970d 6ebe 8950 92be d672 68be
00000110: 262d c03d 87ff 42be 4d2a 553e 44dc 9d3d
00000120: 4527 9fbd 2ba9 38be a7c1 e5bd 8227 46be
00000130: 89f0 bc3c ed18 72bd 7217 423c 87c6 45bd
00000140: 6b55 423e dd97 2abe b164 5cbd c631 e6bd
00000150: 0c3b 11bf 7828 2e3e 7a18 8fbe a393 0ebe
00000160: 13c9 623e 073e 72be c1e0 9fbe cc3d 49be
00000170: 88e3 87be f898 a33e 72d1 9dbe f604 7ebe
00000180: 666e d93e cc39 9e3e f437 553e 1dfc 843e
00000190: 3c03 8f3e 240b cbbd 2165 143e cc50 7dbe
000001a0: 40a7 113f e655 b83e 9956 ccbd 094e 00bd
000001b0: cb24 81bc 5afd 183e cc12 19be 2f82 b9bd
000001c0: a702 acbc a357 393f 58cc 223d 19e2 853e
000001d0: 6a5d 05be 1558 b2be 8499 0cbd 870d 663e
000001e0: 5101 25be 4012 abbc 9949 d13c 0ebd 153e
000001f0: 4f84 163e 3e9f 39be 9276 323e 4bf3 853e
0.53222275 0.40993538 0.14781456 0.2625496 0.2632497 0.29283804 0.34021944 0.2639244
0.11101055 0.45651785 0.22826709 0.14266214 0.02448733 0.9300382 -0.006859416 0.308362
0.40942672 0.7029515 0.45246905 -0.14168027 -0.09987813 0.32168117 0.4855105 0.18577895
0.30040652 0.47362033 0.33081383 0.045510057 0.58492595 0.71817154 -0.06309258 0.25728953
0.21077234 -0.42220107 0.054557692 0.17858374 0.21900515 0.4431761 0.093256496 0.4784663
0.23886962 0.5813753 0.20050745 0.5013842 0.25549367 0.5598549 0.33306134 0.29704204
0.4462493 0.16234986 0.28287458 0.014709446 0.105030365 0.28394374 0.009835048 0.35029116
0.3654512 0.4750812 0.27156907 0.38211724 0.47357762 0.4349903 0.37248167 0.13555147
0.19348097 -0.23247372 -0.28577068 -0.22700056 0.093836114 -0.19042788 0.20816918 0.07708028
-0.07771162 -0.18033282 -0.11218577 -0.19351009 0.023063915 -0.059105802 0.01184641 -0.048285034
0.18977897 -0.16659494 -0.053806964 -0.11239962 -0.56730723 0.17007625 -0.27948362 -0.13923506
0.22147016 -0.23656474 -0.3122616 -0.1965248 -0.2654078 0.31952643 -0.30823857 -0.2480658
0.4246704 0.3090347 0.20822126 0.25973597 0.27932155 -0.09914234 0.14491703 -0.24737853
0.5689583 0.36003035 -0.09977455 -0.03132442 -0.015764615 0.14940396 -0.14948577 -0.09058034
-0.020997358 0.7239935 0.03974566 0.2614906 -0.13023916 -0.34832826 -0.03432609 0.22466098
-0.16113783 -0.020882726 0.02554779 0.146229 0.14698909 -0.18127152 0.17428043 0.2616218

policy.net.0.weight f4 [128, 32]
00000000: c162 41be 349c 44be ee43 db3c 0cd8 6fbe
00000010: d335 823a df40 41bc bad4 823d 537a e33e
00000020: 56f4 503e 5385 83be 6263 9fbe 8856 e6be
00000030: af33 bfbe a0d0 31bd e9e8 8ebe 638f fabd
00000040: 6ec7 4ebe 599f fc38 bc80 dfbe daee eb3e
00000050: 9265 d43e e680 2dbe 8b7b aebd 3318 a6bd
00000060: cd27 8abe 4894 913e ebc4 86be d081 d4bd
00000070: 0374 ad3d 44de 5fbe ce9c c4bd 7313 8bbe
00000080: 8a16 2fbd 886c 7cbd 4f0c e8bd 5d2f 043e
00000090: bdb6 713e 9058 ec3d 0fdb 96be 74cb 193e
000000a0: 8ef2 be3e 5aff 913c 7be9 28be 7dd6 b0be
000000b0: 6d9f 66be d1d5 183e 3e78 24be 60e4 15be
000000c0: dbb3 0fbe d688 33be 12c7 95bd 6f35 f13d
000000d0: bd3c 8bbe ea10 4abd 8e4e c0bd 34b5 d03d
000000e0: e96d 5a3e 3ee8 9a3e 1ffb c33e 66db 5b3e
000000f0: 6dab 4bbc 323a 34bd 6176 e33d 9ca2 87be
00000100: b13c 8dbe 38bb 97be a630 99bc 9d98 76bd
00000110: efe1 ed3c 4c75 9dbe e6d1 1bbe 5f1f 923e
00000120: bdc3 413f a095 b7bb df9c abbe 327b 02be
00000130: d2ad 2fbf b134 ad3d 3556 d1be b3f0 533e
00000140: 2675 4bbe df0f 20be 6252 3bbe f568 893e
00000150: 9354 a5be e42c 07be b646 823c f4b2 4ebe
00000160: fbd4 35be 17e4 fa3e 5799 ff3d 7d30 a83c
00000170: e65f 243e c305 5dbe 3f1e bd3b e962 46be
00000180: dd02 c43e 566c f8be d21b b8be 9bc7 013f
00000190: 8009 b33e c807 dbbe 8a3e 56bf 449e 253e
000001a0: fef5 213f 27ec 80be aff2 143e a8c2 09bf
000001b0: ae11 4ebf c1a5 ddbe 9d8a 703d 1be4 e0be
000001c0: c7e8 e8bd a2a7 153f f34a c8bd 42c9 d03d
000001d0: 16c0 39bf 5f83 5dbe 321b 3b3e cef3 05bf
000001e0: 1b9c b4be 7297 933d 8f6c 623e 5385 383f
000001f0: fbba 803e 4685 76be c7a4 053f c9e2 13bf
00000200: d85b d13d 3e3d 193f 9cea 0abe 6310 46be
00000210: 043c c8bd ec04 be3e d8eb fcbe 5f82 1abe
00000220: e21d bdbe 09af 2ebe 84c6 b73e 6bd8 33bf
00000230: 92b9 82bf 1735 9f3d b76d dcbe 638a cabe
00000240: 89ba c5be 9238 48bf 3c06 5fbd 62f7 a6be
00000250: a3a5 04bf 37bf 18bf 0487 e8bd dd88 ac3c
00000260: 193a 0bbf 0068 813e ec57 343f 264d 2fbe
00000270: 83ed 093e 5a49 19bf d778 833e 02a4 75be
00000280: d9f3 fcbd 5611 ecbe c9f6 93be 2d4d a73e
00000290: 167f 2f3e a1ff 2bbf 1099 133f f3e7 22be
000002a0: e5d0 91be b5ef 873e 54cc 86be 4f31 a5bd
000002b0: 5b96 263e 0b50 23bf 9906 b8bc 9b17 71be
000002c0: c838 903d 0adf e23e 152f 0cbe b885 d0bd
000002d0: cd0c d2bd 695b babc d550 53be 055d d7be
000002e0: 17aa 3bbf 3888 0d3e 9a10 3bbe 93d4 be3e
000002f0: 08b1 783e f619 083d 4b95 5bbe e799 0d3f
00000300: 6383 b4bc c76d 033f ccf4 df3e f101 37bf
00000310: be8a 473f 39f9 173e 2541 493e 0096 d5be
00000320: 160f 28be 996a 3cbd 5f03 48be d20f 02be
00000330: b38e f8be e74c f33d e901 1fbf 5e68 3cbb
00000340: fe1a 14be 6e83 04bf 7f15 9fbe d9d1 12bf
00000350: dea0 543d 1fcd 46be adc9 063e 2e87 a73e
00000360: 9c7a 103e c6b3 f63d bc3d 2bbd 3741 46be
00000370: 7203 0a3e 50b1 b3be 6ca1 9fbe b9f8 bbbe
00000380: 310a b83c c1f7 b33e d2b3 c43e 7b96 69be
00000390: 3567 303d 1270 873e eee8 12be d76b e8be
000003a0: a4e4 13be f70f 8e3e 37a7 fd3b ef41 c2be
000003b0: d787 57be 63ad fb3d d973 e03d cb5c cfbc
000003c0: 95e2 08be 76b7 21be 052c 1dbe 52e8 813d
000003d0: 55a1 003e 91b7 013d 64bc e1be be47 f03c
000003e0: 69d0 423e e628 853e cfdf 51be 4c05 cfbd
000003f0: e7d3 933c 9b85 ea3d a8f1 ddbe e355 783e
-0.18885328 -0.19200212 0.02676579 -0.23422259 0.0009934254 -0.011795252 0.063882306 0.44429263
0.20405707 -0.25687656 -0.3113051 -0.44987893 -0.3734412 -0.04341185 -0.2791207 -0.1223438
-0.20193264 0.00012045977 -0.43652904 0.46080667 0.41483742 -0.16943702 -0.08519658 -0.081100844
-0.2698349 0.28433442 -0.2632211 -0.10376322 0.08469393 -0.21862131 -0.096002206 -0.27163276
-0.042746104 -0.06162694 -0.11330473 0.12908693 0.23604865 0.115403295 -0.29464003 0.15019017
0.3729443 0.017821956 -0.16495316 -0.34538642 -0.22521754 0.14925314 -0.16061494 -0.146379
-0.14033453 -0.17532668 -0.0731336 0.1177777 -0.27194777 -0.049332537 -0.09389983 0.10190812
0.2133099 0.30255312 0.38277528 0.21470413 -0.012431008 -0.044000812 0.11106563 -0.2649125
-0.27585366 -0.29635024 -0.018699955 -0.060204137 0.029038398 -0.30753553 -0.15216789 0.2853956
0.756893 -0.0056025535 -0.3351812 -0.12742308 -0.68624604 0.08457316 -0.40886083 0.20697288
-0.19868907 -0.15631054 -0.18293145 0.26837888 -0.32291088 -0.13200718 0.015902858 -0.20185453
-0.17757027 0.49002144 0.12480419 0.020530934 0.16052207 -0.21584229 0.005771428 -0.19373669
0.38283435 -0.48520154 -0.35958725 0.506952 0.34968185 -0.42779374 -0.8368918 0.16173655
0.6326598 -0.2518017 0.14545701 -0.53812647 -0.8049573 -0.43290523 0.058725942 -0.4392403
-0.11372524 0.5845891 -0.097799204 0.10194637 -0.72558725 -0.21632145 0.18272093 -0.5232514
-0.3527535 0.0720662 0.22111724 0.72078437 0.25142655 -0.24074277 0.52204555 -0.5776792
0.10222596 0.59859073 -0.13566059 -0.19342189 -0.09777072 0.3711313 -0.49398685 -0.15088795
-0.3693686 -0.17058958 0.35893643 -0.702521 -1.0212882 0.07773798 -0.43052456 -0.39558706
-0.38618878 -0.7821132 -0.054449305 -0.32610613 -0.5181524 -0.5966677 -0.11353877 0.021061355
-0.54385525 0.25274658 0.7044666 -0.17119274 0.1346951 -0.5987755 0.2567813 -0.23988345
-0.12351198 -0.46106976 -0.2889922 0.32676068 0.17138323 -0.67186934 0.5765543 -0.15908794
-0.28479686 0.2655007 -0.26327765 -0.080660455 0.16268294 -0.6379401 -0.022464084 -0.23544161
0.0704208 0.4431079 -0.13689835 -0.10181755 -0.10256348 -0.022748666 -0.20636304 -0.42063156
-0.7330641 0.13821495 -0.18268052 0.37271556 0.24286282 0.033227883 -0.2144367 0.5531296
-0.022035306 0.5133938 0.43741453 -0.7148734 0.7794608 0.14841165 0.19653757 -0.41716003
-0.16412005 -0.046000097 -0.19532536 -0.12701347 -0.4854637 0.11879902 -0.6211229 -0.002874873
-0.14463422 -0.51763046 -0.31071088 -0.5735145 0.051911227 -0.19414185 0.1316287 0.3272032
0.14109272 0.12046008 -0.04180692 -0.19360815 0.13477877 -0.35096216 -0.31177843 -0.36713198
0.022465797 0.3514996 0.38418442 -0.2281131 0.043067176 0.2645269 -0.14346668 -0.45394775
-0.14442688 0.27746555 0.007740881 -0.37940928 -0.21047913 0.1228893 0.10959596 -0.025312802
-0.13367684 -0.15792641 -0.15348823 0.0634314 0.12561543 0.031669203 -0.44089043 0.029331084
0.19024815 0.26007766 -0.20495532 -0.10108432 0.018045379 0.114512645 -0.43348432 0.24251513

policy.net.0.bias f4 [128]
00000000: 2a02 39be c3d5 89be 985b d7be 87d5 103e
00000010: 376b 34be 709a fbbe f8c8 05bf a636 dcbe
00000020: 8a07 70be 251b f43d 8e61 8cbe f3a7 99be
00000030: c3c7 abbe 2046 963d 1907 c0be ccab b9be
00000040: bc51 82be e256 e33d f750 e1be b21a 75be
00000050: 8ac7 d63b 4e12 ccbe 3e48 8a3c 18df 31be
00000060: 73e8 24be 982e d8be 08f9 92be 9451 d6bd
00000070: 4233 91be 46ce 90be 43f9 f0be 7e91 e7be
00000080: 4c96 86be a6e1 a7be e75d 78be d99e 163d
00000090: e0dc d2be 41cb 94be 2110 acbd 6b9a 90be
000000a0: 1d31 fbbc eabe 17be 4391 91bd 432d f5be
000000b0: 407e a9be 1ddb 86bc 0f8d f0be 740f e9be
000000c0: c35b bbba 4675 223c 1147 e9be ce62 e3be
000000d0: ad08 2bbd 8b5d e0be e436 00bf 18f0 aebe
000000e0: 3fd5 e1bd de8e 983c 21ce b9be 7867 c0be
000000f0: d9da 83be 9dc2 afbe 0507 2bbe 8497 5ebe
00000100: 501b aabe 4f57 6cbe e0e8 9abe 9a85 8ebd
00000110: 2eaa b0be 7ce9 57be b5c7 11bf 01f7 a3be
00000120: e6e7 06bc f841 85be 6eec 76be 7997 c8be
00000130: 9162 c2bd bcc8 a5bc ab9b a93d a4a9 61be
00000140: 5421 8abe 60c8 c9be 62df a4be 0c3e 77be
00000150: df68 3fbe 9cc7 ddbe 0c02 efbe 0fd8 8d3d
00000160: 434e 9a3d 2c23 52be 5c8a cdbe 7b52 f83d
00000170: f044 f7be 3b11 a03d f293 94be 239a b8bd
00000180: 06b5 f3be aa2b 9cbe 7624 c9be c9ed f9be
00000190: 18f5 443e aab7 a4be 9b31 8abe a5eb 1e3d
000001a0: 5000 a53d b8b6 e93d 82af 3cbe 8c88 d1be
000001b0: c23f ab3c 5169 b2be 1684 e8be 7979 9e3c
000001c0: 6c0e 31bd 2587 40be ad11 b2be 761a 2a3e
000001d0: ebb7 4fbe 7f46 80be 14cc 9bbe b374 a1be
000001e0: 3d7d e0be cde5 88be 8729 993d 8956 7ebe
000001f0: fd4d 9cbe 3e7e 44be 140b 653d 075f 44be
-0.18067232 -0.269209 -0.42062068 0.14143954 -0.17619024 -0.49141264 -0.5225978 -0.43010443
-0.23440376 0.1191924 -0.27418178 -0.30010948 -0.33550844 0.07337594 -0.37505415 -0.36263883
-0.25452983 0.11100556 -0.44007084 -0.23935965 0.0065545486 -0.39857715 0.01688015 -0.1737026
-0.16104297 -0.42223048 -0.2870562 -0.104647785 -0.2835942 -0.28282374 -0.47065172 -0.4522819
-0.26286542 -0.32789344 -0.24254571 0.036772583 -0.4118414 -0.2906132 -0.08401514 -0.28242812
-0.030663067 -0.14818922 -0.071077846 -0.47886094 -0.33104134 -0.016461903 -0.4698262 -0.45519602
-0.0014294315 0.0099156555 -0.45562032 -0.4441132 -0.04175632 -0.43821368 -0.50083756 -0.34167552
-0.110270016 0.018622812 -0.36290076 -0.3757894 -0.25752905 -0.34328166 -0.16701896 -0.21737486
-0.33223963 -0.2308018 -0.30255795 -0.06959076 -0.34504837 -0.21085161 -0.56945354 -0.32024387
-0.008234 -0.26026893 -0.24113628 -0.39178064 -0.09491456 -0.02023732 0.082816444 -0.22037369
-0.26978552 -0.39410686 -0.32201678 -0.24144763 -0.18692349 -0.43316352 -0.4668125 0.069259755
0.075344585 -0.2052123 -0.40144622 0.12125107 -0.48294783 0.078157865 -0.29019123 -0.09013774
-0.47599047 -0.30502063 -0.3928563 -0.48814228 0.19234121 -0.32171375 -0.2699097 0.038798947
0.080567 0.11411804 -0.18426326 -0.4092449 0.020904426 -0.34845975 -0.45413274 0.019345032
-0.043226644 -0.18801554 -0.3477911 0.16611657 -0.20285003 -0.25053784 -0.30429137 -0.31534347
-0.4384555 -0.26737824 0.07478624 -0.24837698 -0.3052825 -0.19188783 0.055918768 -0.19176875

policy.net.2.weight f4 [5, 128]
00000000: 6249 85bf 7515 cdbe 9c73 a9bf fdbc 21bf
00000010: 3edc 4ec0 3a24 d5bf fd32 e2bf d9ac b53c
00000020: 77ee 94be 3904 bdbf 64a1 afbf d7ad 6ebf
00000030: dc37 aabe cee2 a7bf cb5c 00bf 42e3 5dbf
00000040: d3d8 a7bf 5853 03c0 37df 44be b11b d5bf
00000050: a0a5 4dc0 b727 04bf c190 4bbf 95c5 81c0
00000060: 9647 bdbf 2257 98bf 7677 acbe 2fb9 98be
00000070: a3b8 f7be 3d23 afbe 9945 05bf 61d2 a6be
00000080: 6815 3dbf 4af6 3dbe 0232 04bf b708 17bf
00000090: 4e57 d0bf 7e64 23c0 4e12 5cbf ab8f 72bf
000000a0: f9ad f2bf b7ed 6bbe ccef 84bf acf9 9cbe
000000b0: 6c5d d3bf a4cf 62bf 8d5c 62be 09b7 8cbe
000000c0: 048c 23bf a682 20c0 7dae 66bf 9c55 debe
000000d0: c6ff 6cbf 476e 4ebf 5986 d1be 0ee9 66bf
000000e0: 87de 5ac0 9bff b3bf 3b66 36bf 69a6 0bc0
000000f0: 5399 04bf b123 f3be f9fe 1abf 5745 89c0
00000100: 61a6 70c0 5480 39c0 847d 8dbe 65d8 62c0
00000110: be5e eabf d1c5 16bf dbb2 c1bf 9e22 45c0
00000120: aa1c aebf 8f23 29bf d4fc a0bf 543c 8cbd
00000130: 4063 27bf db79 3fbf f3c7 0fbf 3bbe c4bf
00000140: e6e6 c8bf d9fe 9fbe c578 7ebe 4b5c a7be
00000150: 262c 1dbf 2438 20be eab1 87bf 5eae 10c0
00000160: 6fc5 77c0 b59c 13bf 5471 31bf 50ba 2ebf
00000170: 74ea 25bf ac52 25c0 8fae 35bf e71d cebe
00000180: 53ab 83be e10b 41bf 2a25 8cbf 5ea2 8dbe
00000190: 2bff dabf 70b9 23bf edff 17bf 64b5 d1bf
000001a0: a4ee 95bf 3d8e 8fbf 42a9 65bf 1045 03bf
000001b0: fed3 41c0 612d 0dbe 9419 02bf 2443 abc0
000001c0: 1e98 66c0 5372 87bf 7f27 85be ce67 4ec0
000001d0: aea5 9cbf 4667 b5bf 0199 b4bf d207 b9be
000001e0: 7432 c8be 8e12 0abf 9e07 aebf 696e 7fbe
000001f0: 9f58 a9be b1c3 c5be ba19 3abf 7e61 aabf
00000200: ffdb 63bd 3a82 21bd ee41 81be 0d03 b23d
00000210: e72c 8ebf 2746 793f fe16 efbe 6599 6e3d
00000220: ecee 4d3d f22a e63d dda9 083e 039b c9bc
00000230: 1c2f 59be 123a d53d b4a0 503d 51d9 6d3e
00000240: 450a 433d ce86 073e cca9 12bf 8433 7d3d
00000250: 5003 ab3d 28e6 b53c 934f f33d 1837 37bd
00000260: cc10 193f 025d 443e 3ea0 5abc acee 03bf
00000270: 9117 323d f691 483e a372 993e e166 5f3e
00000280: 31d4 2c3f f7cd 98be e238 06bf 14f8 b13d
00000290: 6ec4 c43d cace 41bf 6ce8 8b3c ae81 e53c
000002a0: 867b efbd b4c1 d8bd 948d 1d3b 63ff 39be
000002b0: d87d f53d d818 643e 9743 003e 27b2 a9be
000002c0: 70d2 9e3d 663b b63e 8c08 31bf 7c0f 92be
000002d0: cb6d 963d aac9 033e eeca b6be 7ce3 2abf
000002e0: 060a 193f 8292 cbbd 41f0 b8be fc62 31be
000002f0: 55b8 793d dd51 8cbc 16c5 ae3d 4c33 3d3e
00000300: 2085 ad3d 2cab 06bd 684c 91bc b84c 95bd
00000310: 1bd1 36be 1306 aa3c f5ae d2be e30f 4d3d
00000320: c134 bdbe d1bb 143e d47c a23d 60ea 993d
00000330: 776c 02c0 bfe0 043e 3c2e 3ebf d4d8 803d
00000340: 5e1d 833d 0c90 ef3c c9dc f03c b11b 433d
00000350: ed0a 1c3e 202f 52bf d2ce a7bf 1759 82bf
00000360: 78d0 743d 13e5 9e3d b7cd bb3b a3cf da3e
00000370: 4d92 943e 4169 bc3d fc24 77bf ec1c 0ec0
00000380: 6076 c6bd 794e cbbc 38a5 4d3d 9886 f7be
00000390: 32df de3d 41e9 a03d 5def 893c bc69 ad3d
000003a0: 6a85 7c3d 525f bbbd 6a0f c83d 352a 08c0
000003b0: 6e59 1cbe ffff 82bf cd09 0c3e 7a6f a33d
000003c0: 4306 133e 0ba4 9b3e ea36 4d3e 32bc acbe
000003d0: f6a7 743e 0f18 82be 0e26 3b3d a541 35bc
000003e0: ee8a 95be 6c75 7f3d 4e78 a1bf 382a 61bf
000003f0: 56de 4b3e 54aa 523c a12a d83d 73ae e33d
-1.041302 -0.40055433 -1.3238406 -0.63179 -3.2321925 -1.665168 -1.767181 0.022177147
-0.29088184 -1.4766914 -1.3721128 -0.9323401 -0.33245742 -1.311609 -0.5014159 -0.8667489
-1.3113045 -2.051962 -0.19225775 -1.6649076 -3.213234 -0.516231 -0.7951775 -4.055369
-1.4787471 -1.1901591 -0.3368489 -0.29828784 -0.48383054 -0.34206572 -0.5205932 -0.3258238
-0.7386079 -0.18550983 -0.51638806 -0.5899767 -1.6276643 -2.5530086 -0.8596543 -0.9475047
-1.8959342 -0.230399 -1.038568 -0.30659235 -1.6512885 -0.88598084 -0.22105618 -0.27483395
-0.6388552 -2.5079741 -0.9011 -0.4342469 -0.9257778 -0.8063702 -0.40922812 -0.90199363
-3.419832 -1.406238 -0.7124974 -2.1820319 -0.51796454 -0.47488168 -0.6054531 -4.2897143
-3.760155 -2.8984575 -0.27634823 -3.5444577 -1.8310163 -0.58895594 -1.5132707 -3.0802379
-1.3602498 -0.66069883 -1.2577157 -0.06847444 -0.6538582 -0.7479531 -0.56164473 -1.5370554
-1.5695465 -0.3124912 -0.24850757 -0.326876 -0.6139549 -0.15646416 -1.060117 -2.2606425
-3.8714254 -0.5766099 -0.6931355 -0.6825304 -0.6481087 -2.583171 -0.7096948 -0.4025719
-0.25716648 -0.7540875 -1.0948842 -0.2766294 -1.7109121 -0.6395483 -0.59374887 -1.6383481
-1.1713452 -1.1215283 -0.8971139 -0.51277256 -3.028564 -0.13786842 -0.5082028 -5.351946
-3.6030345 -1.0581764 -0.26006696 -3.2250857 -1.2238061 -1.4172142 -1.4109193 -0.3613878
-0.39100993 -0.5393456 -1.3596075 -0.24944462 -0.33075425 -0.38625863 -0.72695506 -1.3311002
-0.055629726 -0.039430834 -0.25245613 0.08691988 -1.1107453 0.9737267 -0.4669723 0.058251757
0.05027668 0.1123866 0.13346048 -0.024610048 -0.21209377 0.10411467 0.05093451 0.23227431
0.047617216 0.13235018 -0.5729034 0.061816707 0.08350241 0.022204474 0.11880412 -0.044730276
0.59791255 0.19176105 -0.013343869 -0.5153606 0.043479506 0.1958693 0.29970273 0.21816589
0.6751128 -0.2984464 -0.52430546 0.08689895 0.096077785 -0.7570616 0.0170786 0.028015938
-0.11693482 -0.10583821 0.0024040686 -0.18163829 0.119868934 0.22275102 0.12525783 -0.33143732
0.077549815 0.35592192 -0.69153666 -0.2852744 0.0734516 0.12869897 -0.35701698 -0.66753364
0.5978092 -0.099400535 -0.361208 -0.17322916 0.06096681 -0.01712888 0.08533685 0.184766
0.08472657 -0.032878086 -0.017736629 -0.072900236 -0.17853205 0.02075485 -0.41149107 0.05006398
-0.3695431 0.14524771 0.07933965 0.075154066 -2.0378702 0.12976359 -0.742893 0.06291357
0.06402086 0.029243492 0.029402154 0.04763383 0.15238543 -0.8210316 -1.3109992 -1.0183438
0.059769124 0.07758536 0.00573131 0.4273654 0.2901787 0.09199763 -0.9654081 -2.2205153
-0.09690547 -0.024817692 0.050206393 -0.48344874 0.10882415 0.0785699 0.01683777 0.08467433
0.06165067 -0.0914904 0.09768565 -2.127576 -0.1526849 -1.0234374 0.13675614 0.07980247
0.14357857 0.30398592 0.2004048 -0.33737332 0.23892197 -0.2540898 0.04569059 -0.011063014
-0.29207557 0.06236784 -1.2614839 -0.87955046 0.19909033 0.012857992 0.10555006 0.11117258

policy.net.2.bias f4 [5]
00000000: 0c8b d4c0 002d cfbd fd04 b33d 4127 e1bc
00000010: aabb 4e3e
-6.6419735 -0.10116005 0.08741186 -0.027484538 0.20188776

exp_avg f4 [900, 16]
00000000: 75c7 6435 1f33 a136 6e84 3637 f4f7 1136
00000010: 5cc7 cbb7 1f22 7136 706e 8d36 0762 0d37
00000020: d4d6 e936 56ef 06b7 e7f4 58b4 ec29 f835
00000030: af30 0cb6 39f0 1036 8ec3 bab6 a945 3a37
00000040: 5760 6437 824e 84b6 748d e5b6 f604 bdb6
00000050: 4c1a 5db7 5a49 83b6 970a 46b5 8bad df34
00000060: d142 7434 9f3d f1b6 3715 4737 d218 00b7
00000070: 8141 66b6 0406 2e37 ae11 18b6 8860 5537
00000080: 2340 dcb6 d4b6 5836 3cec e8b3 9143 f1b6
00000090: 5f45 07b7 6cc1 9db6 728b 2337 ef43 f536
000000a0: 73f9 0637 f1aa a334 5e5d 2037 14d0 2736
000000b0: 3980 45b7 7e7f 4d36 2c9d 4a35 447a 2b36
000000c0: 276f 2036 6888 6a36 6fc4 23b7 c275 eb33
000000d0: 1054 03b6 d0f8 a4b5 b63e 6d33 0f04 cf36
000000e0: 11e1 cdb5 aa15 a9b6 f782 84b5 8f94 a336
000000f0: 434b eab6 c06a 94b6 4347 c236 5b48 5c36
00000100: 964c 9036 eb8e 5ab6 c068 afb6 69d3 d435
00000110: 560e 0937 abfc f835 7746 1737 e185 5f36
00000120: 5e65 55b4 9c3d 0837 9446 8236 f065 80b6
00000130: 8372 abb4 91b6 06b7 22f2 a637 d515 8c36
00000140: 0000 0000 0000 0000 0000 0000 0000 0000
00000150: 0000 0000 0000 0000 0000 0000 0000 0000
00000160: 0000 0000 0000 0000 0000 0000 0000 0000
00000170: 0000 0000 0000 0000 0000 0000 0000 0000
00000180: 0000 0000 0000 0000 0000 0000 0000 0000
00000190: 0000 0000 0000 0000 0000 0000 0000 0000
000001a0: 0000 0000 0000 0000 0000 0000 0000 0000
000001b0: 0000 0000 0000 0000 0000 0000 0000 0000
000001c0: 0000 0000 0000 0000 0000 0000 0000 0000
000001d0: 0000 0000 0000 0000 0000 0000 0000 0000
000001e0: 0000 0000 0000 0000 0000 0000 0000 0000
000001f0: 0000 0000 0000 0000 0000 0000 0000 0000
00000200: 0000 0000 0000 0000 0000 0000 0000 0000
00000210: 0000 0000 0000 0000 0000 0000 0000 0000
00000220: 0000 0000 0000 0000 0000 0000 0000 0000
00000230: 0000 0000 0000 0000 0000 0000 0000 0000
00000240: 0000 0000 0000 0000 0000 0000 0000 0000
00000250: 0000 0000 0000 0000 0000 0000 0000 0000
00000260: 0000 0000 0000 0000 0000 0000 0000 0000
00000270: 0000 0000 0000 0000 0000 0000 0000 0000
00000280: 0000 0000 0000 0000 0000 0000 0000 0000
00000290: 0000 0000 0000 0000 0000 0000 0000 0000
000002a0: 0000 0000 0000 0000 0000 0000 0000 0000
000002b0: 0000 0000 0000 0000 0000 0000 0000 0000
000002c0: 0000 0000 0000 0000 0000 0000 0000 0000
000002d0: 0000 0000 0000 0000 0000 0000 0000 0000
000002e0: 0000 0000 0000 0000 0000 0000 0000 0000
000002f0: 0000 0000 0000 0000 0000 0000 0000 0000
00000300: f66e 2bb7 efcd dd35 5e81 3b36 ac62 9ab6
00000310: 7f6d 8537 f2b4 0fb7 fcfa 2a37 9e81 c5b6
00000320: 27f0 01b7 61c4 0f36 9e09 8535 7e66 9737
00000330: b046 c7b4 242e ca36 7758 6936 4387 34b7
00000340: 072c c335 90e9 8536 f85a 14b6 f267 bcb6
00000350: c78e b437 a07b ddb5 58eb f136 3c7e c9b5
00000360: fe57 0d35 78a5 fa35 bf77 b636 4437 b837
00000370: 06af 6f35 c5a0 2937 c9a9 9836 868c bbb7
00000380: e3a8 ff37 18ed a335 1eaa be37 65a4 0d37
00000390: 4e8a 6437 a641 6ab7 4d31 43b7 0c49 5137
000003a0: 46f6 c635 4e28 07b7 d524 8837 563f 9537
000003b0: a767 33b7 ca85 c636 3a35 dfb7 0db7 edb7
000003c0: 7575 6c37 cfbf 04b7 c1b4 fab3 ef34 0137
000003d0: f904 f6b6 d5c5 c636 6e4d 44b7 915a 0d37
000003e0: b47e 15b7 dc9c 28b6 9541 5cb7 29e8 a537
000003f0: 3a85 c6b6 63cb 5a37 4333 68b7 d4c9 e336
8.5226867e-07 4.804125e-06 1.0878879e-05 2.1751011e-06 -2.429232e-05 3.593166e-06 4.214984e-06 8.427079e-06
6.9689504e-06 -8.042747e-06 -2.0205663e-07 1.8489641e-06 -2.0889963e-06 2.15975e-06 -5.5659975e-06 1.1102683e-05
1.361229e-05 -3.943046e-06 -6.841199e-06 -5.6332165e-06 -1.3178749e-05 -3.9126435e-06 -7.377616e-07 4.1663256e-07
2.2748578e-07 -7.1895333e-06 1.1866264e-05 -7.6351735e-06 -3.43108e-06 1.0372609e-05 -2.2660056e-06 1.2718265e-05
-6.5639774e-06 3.2292928e-06 -1.0846313e-07 -7.1902255e-06 -8.062779e-06 -4.701482e-06 9.748024e-06 7.3094775e-06
8.045102e-06 3.0485492e-07 9.558482e-06 2.5006057e-06 -1.1771969e-05 3.062159e-06 7.547958e-07 2.5552154e-06
2.3906557e-06 3.4948116e-06 -9.761293e-06 1.096446e-07 -1.9569452e-06 -1.2291366e-06 5.5237898e-08 6.169553e-06
-1.5339193e-06 -5.0391145e-06 -9.872882e-07 4.875073e-06 -6.982505e-06 -4.423171e-06 5.7899465e-06 3.282467e-06
4.30045e-06 -3.256772e-06 -5.227601e-06 1.5856759e-06 8.169174e-06 1.8550976e-06 9.016708e-06 3.3307517e-06
-1.9874048e-07 8.120576e-06 3.8825183e-06 -3.8265644e-06 -3.193455e-07 -8.029529e-06 1.9901494e-05 4.1748667e-06
0.0 0.0 0.0 0.0 0.0 0.0 0.0 0.0
0.0 0.0 0.0 0.0 0.0 0.0 0.0 0.0
0.0 0.0 0.0 0.0 0.0 0.0 0.0 0.0
0.0 0.0 0.0 0.0 0.0 0.0 0.0 0.0
0.0 0.0 0.0 0.0 0.0 0.0 0.0 0.0
0.0 0.0 0.0 0.0 0.0 0.0 0.0 0.0
0.0 0.0 0.0 0.0 0.0 0.0 0.0 0.0
0.0 0.0 0.0 0.0 0.0 0.0 0.0 0.0
0.0 0.0 0.0 0.0 0.0 0.0 0.0 0.0
0.0 0.0 0.0 0.0 0.0 0.0 0.0 0.0
0.0 0.0 0.0 0.0 0.0 0.0 0.0 0.0
0.0 0.0 0.0 0.0 0.0 0.0 0.0 0.0
0.0 0.0 0.0 0.0 0.0 0.0 0.0 0.0
0.0 0.0 0.0 0.0 0.0 0.0 0.0 0.0
-1.0218229e-05 1.6525718e-06 2.7940473e-06 -4.6010446e-06 1.5905824e-05 -8.565594e-06 1.01912265e-05 -5.886147e-06
-7.744914e-06 2.1422968e-06 9.912071e-07 1.804833e-05 -3.711807e-07 6.0254406e-06 3.47712e-06 -1.0760329e-05
1.4541446e-06 3.990899e-06 -2.210667e-06 -5.6149374e-06 2.1524158e-05 -1.6501763e-06 7.2097573e-06 -1.5012406e-06
5.265464e-07 1.8674609e-06 5.437963e-06 2.1960244e-05 8.928913e-07 1.0110617e-05 4.5497186e-06 -2.2357573e-05
3.0477013e-05 1.221345e-06 2.2728982e-05 8.442531e-06 1.3622061e-05 -1.3962772e-05 -1.16343845e-05 1.2474378e-05
1.4823825e-06 -8.056011e-06 1.6229615e-05 1.7791677e-05 -1.0693365e-05 5.916435e-06 -2.6608457e-05 -2.8337841e-05
1.4094044e-05 -7.912472e-06 -1.1674411e-07 7.701324e-06 -7.33195e-06 5.9238905e-06 -1.1700538e-05 8.425342e-06
-8.910592e-06 -2.5125255e-06 -1.3128291e-05 1.977764e-05 -5.9163694e-06 1.3041167e-05 -1.3840213e-05 6.788623e-06
