SGE_Transformer/model/2_room/eil_2_room_198_model/EBC_model_25999.pth (torch, 319288 bytes, 27 tensors)

encoder.embedding.weight f4 [900, 16]
00000000: c7fa 823d 88da 3dbf c210 8e3f f61b cb3f
00000010: 83bd 2d3f 40f0 703f 8b94 a5bd 99e0 683f
00000020: afc0 c33f f3ac 393f fdbd bd3f e993 80bf
00000030: 03f1 c13f dcd0 57bf ae37 7dbf 2d93 303f
00000040: 3151 8ebf a00b a23e 44e4 053f 8f39 fbbe
00000050: 7814 103f 37c8 0e3f b207 693e 425d b43e
00000060: e172 67bf 609e b1bf 28d7 0140 e074 ddbf
00000070: 07a6 393f bf19 9cbd 0042 23bf 1588 bbbf
00000080: 8b9e 423f 9fe5 5e3c 23d0 8abe 4d8a 1b3f
00000090: 41f7 d2bd 7656 823e a798 06bf 3119 ffbf
000000a0: 3289 d5be c64d 823f 672a 73bf 132a 113b
000000b0: a08c a3bf a65c 553c a7e0 5fc0 e98f 69bf
000000c0: d10c b13e 9be2 69bf 547a 8fbf d67c 02bf
000000d0: a4d2 6a3f 05a9 d23f 0bbd 95bf 5f72 ff3e
000000e0: dc00 9abf 511e a73d 481e 323f a26c bcbf
000000f0: dac0 77bf e239 0ebf df2a 48bf d763 11c0
00000100: b56c 813f f3a1 d83e 2f39 b4bf 0b98 0f40
00000110: 5747 67bf 57f9 93be 1d44 b0bf 7345 9d3e
00000120: 30ca d8be 5d3a 90be e000 913d dbe8 e3bf
00000130: 29fa 17c0 f4b0 14be 81f6 acbe 88c2 ad3d
00000140: b518 193e 4686 2e3f 0daa c83f 767d f33e
00000150: 41a4 80bf 09fb 82bf 3c7d 053f 5be3 f6be
00000160: c4ca 45bf 45a6 2f40 beea fcbf 30f0 d43e
00000170: 139d c83f c321 23bd 97e2 78bf b849 36bf
00000180: b5b7 753e e57c 99bf 171e 883f 144c 2dbf
00000190: 0cd4 29bf 842e ac3e 80b9 043f c4d6 843f
000001a0: 3de2 293d 8d83 573f 5a75 06be fc08 bfbf
000001b0: 2026 ba3e 4ad5 02bf 3846 d6be 3d48 973f
000001c0: 722c 88be d2df 4d3f a67b 9dbe 5f48 ad3f
000001d0: 44c2 2a3f 598f 71be 8154 2fbe 23c7 0f3f
000001e0: dc35 9d3e c8f4 ac3e 7400 053e 6f95 133f
000001f0: d158 a63c c0fd b23f 8f5e b53f c0bf c0bb
00000200: 45e8 61bf e3f6 f9be f994 adbf 1a0e 6fbe
00000210: 1735 ea3f ed78 cb3f 8a5e 363e ba0f 033f
00000220: f0d7 0bbf 86c2 b8bf 323e f6bf af88 90bf
00000230: 94de 803f c211 10bc 91f0 4dbf 8aa0 fb3f
00000240: 0af0 d23f 35e7 113f 9c2e 4abc 3f44 bcbf
00000250: b977 3dbd 9966 08bf bde4 283f 7df5 0b40
00000260: 45c5 f93e 2980 0b40 3a38 bbbf eb0b b2bf
00000270: 9346 ddbe f292 18be f77c d03d d6eb 33be
00000280: f3e7 a43e 5f13 9a3f 16cc ae3d e862 e1bf
00000290: 64f5 733d 0473 a7bf d01c 6c3e 8bbe 753f
000002a0: 40d0 103e 35a8 5c3f 5c43 8cbf 400f 92bf
000002b0: 2191 c0be 6303 83be a74a 91be bba9 8f3f
000002c0: ac14 0440 9122 063e bd48 693f 8468 ca3d
000002d0: ba85 2abf 05a8 6e3f a055 d13f 17dc 8cbf
000002e0: bb40 3c3f 7e9a 0140 377b 3ac0 955f 433e
000002f0: c2b8 2d3e 8734 33bf 8a28 c8bd 91a1 033f
00000300: 59a8 953f 40b3 f83e aa98 b3bf 78aa 0440
00000310: 592d 4a3f cc0b 04bf 9c0f 88bf 553a 28bf
00000320: 18f6 af3f ac04 8a3f ddd5 b33f 471e 2bbe
00000330: 5a87 6ebf 187c c2bf 67e8 e9bf 1bf5 e2bf
00000340: 7357 d93f 46da 303d 03e8 6cbf 832c 143f
00000350: 8c79 8a3e 4749 01bf ba16 5cbe 6fdf 7cbe
00000360: 951f a33c 7aa2 04bf 9318 523f 9939 3ebf
00000370: 8601 893f f631 8e3f 4768 193f cc0a 64bf
00000380: 8f1b 99bf 14e5 b9bf 16d7 48bf 2b7c aabe
00000390: 1308 913f 91b0 1f3f eb87 dfbf 4d06 ddbf
000003a0: 6ee0 963f 864b 493f 7008 c93d 3f5d a2bf
000003b0: b7c1 a1bf c76f f5be b837 f0be 7c56 e13e
000003c0: e413 1bbe 4666 52be eb1f 973d 7167 1d3f
000003d0: f02c ee3f c5fa 1e3f f966 bfbe 9347 b3bf
000003e0: 7dff 96bc c404 e9bf b06f a23f eef0 5cbe
000003f0: d163 663f 5256 363e adfe 1240 eb63 15be
0.06395488 -0.7416158 1.1098864 1.5867908 0.67867297 0.9411659 -0.08084973 0.9096771
1.5293177 0.72529525 1.4823605 -1.0045139 1.5151676 -0.8430307 -0.98913085 0.6897457
-1.1118528 0.31649494 0.5230143 -0.4906735 0.5628123 0.55774254 0.22756842 0.352274
-0.90409666 -1.3876457 2.028757 -1.7301292 0.7251896 -0.07622098 -0.63772583 -1.4650904
0.7602317 0.013604551 -0.2711192 0.60757905 -0.10301066 0.2545659 -0.5257668 -1.9929563
-0.41706234 1.0179985 -0.94986576 0.0022150322 -1.277729 0.013022577 -3.4980867 -0.91235214
0.3458009 -0.913614 -1.1209207 -0.50971735 0.9172766 1.6457831 -1.1698316 0.49891946
-1.2031512 0.08160079 0.69577456 -1.4720652 -0.96778643 -0.5555707 -0.78190416 -2.2717187
1.01113 0.42311057 -1.4079951 2.243655 -0.9034323 -0.2890117 -1.3770787 0.30717048
-0.42341757 -0.28169528 0.07080245 -1.7805437 -2.3746436 -0.14520627 -0.33781818 0.084843695
0.14950831 0.68173635 1.5676895 0.47556657 -1.0050126 -1.023286 0.5214422 -0.48220333
-0.7726252 2.7445233 -1.9759138 0.415895 1.5672935 -0.03982712 -0.9722075 -0.71206236
0.2399586 -1.199124 1.0634183 -0.6769421 -0.6633918 0.3362924 0.5184555 1.0378041
0.041475523 0.84185106 -0.13130704 -1.4924617 0.36357212 -0.51106703 -0.41850448 1.181892
-0.2659641 0.8041965 -0.307584 1.3537711 0.66702676 -0.23589839 -0.1712208 0.56163234
0.30705154 0.33780503 0.12988454 0.5764989 0.020306023 1.3983688 1.4169482 -0.0058822334
-0.8824504 -0.48821172 -1.3561088 -0.23345223 1.8297452 1.5896279 0.17809501 0.5119587
-0.5462637 -1.4434364 -1.923773 -1.1291713 1.0067925 -0.008793296 -0.804452 1.9658368
1.6479504 0.5699342 -0.012340214 -1.4708327 -0.046256755 -0.5328155 0.65974027 2.1868584
0.48783317 2.1796973 -1.4626534 -1.3909887 -0.43217906 -0.14899805 0.10180085 -0.17570433
0.32208213 1.2037162 0.0853502 -1.7608309 0.059560195 -1.3081975 0.23057866 0.9599387
0.14141941 0.86194164 -1.0958056 -1.1410904 -0.37610725 -0.2558852 -0.28377268 1.1223673
2.0637617 0.13099124 0.91126615 0.09883216 -0.666103 0.9322513 1.6354256 -1.1004666
0.7353627 2.0250545 -2.9137704 0.1907943 0.16965011 -0.70002025 -0.09773357 0.51418406
1.1692001 0.48574257 -1.4030964 2.0729046 0.78975445 -0.515805 -1.0629764 -0.6571401
1.3746977 1.0782676 1.4049641 -0.16710769 -0.9317528 -1.519412 -1.8274049 -1.773105
1.6979812 0.04317691 -0.9254152 0.5788042 0.27045858 -0.5050244 -0.21493044 -0.24694608
0.01991252 -0.5181042 0.8206875 -0.7430664 1.070359 1.1108997 0.5992474 -0.89078975
-1.1961535 -1.4523034 -0.78453195 -0.33297858 1.1330589 0.62378794 -1.7463354 -1.7267548
1.178724 0.78630865 0.098160625 -1.2684706 -1.2637242 -0.47936842 -0.4691751 0.44011295
-0.15144306 -0.20546827 0.07379135 0.61485964 1.8607464 0.62101394 -0.3738325 -1.4006218
-0.018432373 -1.8204579 1.2690334 -0.21576282 0.8999606 0.17806366 2.2967942 -0.14588897

encoder.lstm.weight_ih_l0 f4 [128, 16]
00000000: 9ea2 97bd 64f1 8c3e 1a01 94be fba2 e6be
00000010: e4ab d63d eacb 8e3e 7851 ccbd af15 bb3d
00000020: 918c 69be 7b6a 43be 73fd 03bf 4cff aabd
00000030: 5141 af3e 20da e23c 6fe9 f3bd e108 893e
00000040: 9806 833d 6022 bc3e 8058 edbe d0b8 77bc
00000050: 023a 263c 0e39 a3be e801 cb3c 86b2 7a3e
00000060: aae7 86be b491 45bf ea70 d7be efc1 bfbe
00000070: 12e1 073e ef58 24bf 99ca 7ebd 3bd4 a33c
00000080: b776 f1bc 46e1 77be cc38 80be 2a9a 9e3d
00000090: 6482 44be 9df2 cf3d e1ad 233e 3e1e d53d
000000a0: d37c 9d3d 0c0b 6fbe 0b89 8cbe b352 293e
000000b0: 7a40 26be 8e77 c83d 558c 7abe 0dbc a73e
000000c0: cde0 00bf 4199 d63c 5c1c 223f 9480 db3d
000000d0: 93af 153d 2a86 823d 7cb1 b13c 7da5 c2bd
000000e0: a238 44be 4ae7 db3d ccb6 aebb 1794 40bf
000000f0: 868b a9be 6717 143e 18db f83d b187 443d
00000100: 6f6a 6dbe b8db ba3d 936a 8a3e bb29 623d
00000110: bf76 d93e 376b f43c 389c d3bc 53e1 15bd
00000120: 9092 8ebe 5db7 03be 5cd5 b13e b1f0 d2bd
00000130: 9f01 9dbe 53da 533e ceeb b5bd 543f 81be
00000140: c48b 8c3e e5c5 d73e 5ea3 9f3d 9e52 0d3e
00000150: a355 923d 1a95 bfbd 1cdd 63bc bc95 16bd
00000160: 512d b03d a758 04bf eb59 2dbe e8dd aa3d
00000170: b834 b9bc fb7a e83e fe28 abbe 5520 a23e
00000180: de5c a9be 26f0 68bb 892d 173e 2456 2cbe
00000190: a2af b73e 4da7 a23d 1022 ce3e d0b9 353e
000001a0: 0a6f ab3d 7a4b f13e 462c 1ebc 3cb4 af3e
000001b0: 6509 cf3d 5d1c 4fbc 8501 043e 3274 0f3d
000001c0: d89f d8be 8796 5ebd 9edc 3cbe b7d3 73be
000001d0: a80d e13e f28c d63e 154c 823d 74b6 b23e
000001e0: f7ca d8be 3235 f63c 60b0 45bf 1c35 a2bd
000001f0: 8eb3 3dbe 03f0 643f b56c 953e 791e a7be
00000200: 41ef 373e 8cbe 60be d4fd 28be dd2a d63e
00000210: a00e 0b3e 9b98 afbe 88ac 073e dcba d33e
00000220: 309c 6b3d dc32 b43e 56c6 1d3e 833a c13d
00000230: 8264 793e da6c e23e 16f0 94be a813 88bd
00000240: 1b45 1c3e b1ac 7e3e 4aa0 39bd 82f5 0bbd
00000250: 6d27 bdbe 1e9a 22be 7b5e d7bd a440 ae3e
00000260: 8d66 4abe 9a55 9a3c a4d2 1ebf acb2 20be
00000270: 052b bc3d 0311 163f c45d 883d b048 923e
00000280: 3625 803e b7ce a8bc 4210 1f3c 0a3f cabd
00000290: 01c7 d13d 5b9d 973e de76 ebbc 0b3d b53e
000002a0: ec9d 6dbe 09dd 9bbe 3f89 34be 41d3 20be
000002b0: 3466 093f e91c 6a3d 0fae 23bd df3b 753d
000002c0: 7666 e73d a602 8a3e 6ecd 24bf ebd6 053e
000002d0: f184 233e b7a1 87be 9e78 1e3d 8cd4 ab3e
000002e0: b990 eabe ec0a cc3e 914e 273e 8f17 6f3e
000002f0: 2322 81bd 332e 18be 7d80 afbb 6bb1 733e
00000300: c7c0 cfbc c92e ed3e 98cb 48be cf3b fb3e
00000310: baff 22be 7570 e13d f6c0 0fbf 3135 453e
00000320: 240e 4b3e 1942 933e a634 bc3e 0ce9 083b
00000330: 98ba 89bd b8d6 c53e 0db9 c63e 2fd2 5d3e
00000340: 0866 cfbd 17f8 1f3e 8e56 40bc d42b 1abe
00000350: 700f d1bd bff5 84bc c9db b43e 3d16 da3d
00000360: 1596 06be bd71 32be f4bc 78bd cfe9 b93e
00000370: 8429 83bc a05e 6f3e c40a 15be 6f51 8e3e
00000380: 8205 3c3d 65f8 5abe b326 93be 993a 5f3e
00000390: cc66 2b3d a3ae 2a3e 9519 c33d a5e8 47bd
000003a0: 0ddf c6bd 0b34 dcbd 9d7e d7bd e9e1 28be
000003b0: c672 803d a812 6cbe 2680 14be 3d50 353d
000003c0: 4f1e 753d f906 cbbd 21bc 97be cca2 343e
000003d0: eb1f 0ebd efcb ef3e 2c76 bebe bba2 c5bc
000003e0: 9c95 1d3e bf1d 043e 5253 0b3e 4e11 c1be
000003f0: 89d2 ecbe a99b a13c 03b7 c6bc 0812 ea3d
-0.07404064 0.27527916 -0.2890709 -0.4504622 0.10482004 0.2788995 -0.099764764 0.09134995
-0.22807528 -0.19083588 -0.5155861 -0.08349475 0.3422952 0.0276919 -0.11909758 0.26764587
0.06397742 0.36744976 -0.46356583 -0.015119746 0.010145666 -0.31879467 0.024781182 0.24482164
-0.2634862 -0.7717545 -0.42078334 -0.37452647 0.13269451 -0.641982 -0.06220493 0.01999866
-0.029475553 -0.24207029 -0.25043333 0.07744248 -0.19190365 0.10153697 0.15984298 0.10406159
0.07689824 -0.23344058 -0.27448305 0.16535453 -0.16235533 0.09788428 -0.24467595 0.3276066
-0.5034302 0.026196124 0.6332452 0.10717884 0.036544394 0.06373246 0.021691076 -0.09504221
-0.19162229 0.10737474 -0.0053318497 -0.7522597 -0.3311426 0.14462052 0.12151164 0.047980968
-0.23185132 0.09123939 0.27034435 0.05521558 0.4247341 0.02983628 -0.025831327 -0.03659184
-0.27846193 -0.12862916 0.34733093 -0.102998145 -0.306653 0.20688753 -0.08882867 -0.25243628
0.27450383 0.4214317 0.07794832 0.13801047 0.0714524 -0.09354611 -0.013907697 -0.03676389
0.086023934 -0.5169777 -0.16928832 0.083431065 -0.022608146 0.45406327 -0.33429712 0.31665292
-0.33078665 -0.003554353 0.14763464 -0.16829735 0.35876185 0.07942066 0.40260363 0.17746663
0.083707884 0.47127897 -0.00965411 0.34317195 0.10109214 -0.01264104 0.12891205 0.03502292
-0.4230945 -0.054342773 -0.18443534 -0.23811232 0.4395573 0.41904408 0.06362168 0.34904826
-0.4234235 0.030054662 -0.7722225 -0.07920286 -0.18525526 0.8942873 0.291845 -0.32640436
0.17962362 -0.21947688 -0.16503078 0.41829577 0.13579798 -0.34296116 0.13249409 0.413535
0.057522 0.35195053 0.1540769 0.09434988 0.24354747 0.44223672 -0.2908942 -0.06644374
0.15260737 0.24870564 -0.04531888 -0.03416968 -0.36944142 -0.15879104 -0.105160676 0.34033692
-0.19765683 0.018839646 -0.6204016 -0.15693158 0.09187893 0.5861971 0.066585094 0.2857108
0.2502839 -0.020606382 0.009708466 -0.09875305 0.10243035 0.2961224 -0.028743204 0.35398135
-0.23204774 -0.30442074 -0.1763048 -0.15705587 0.53671575 0.057156477 -0.039960917 0.05987155
0.1129884 0.26955146 -0.6437596 0.13070266 0.15968682 -0.26490566 0.03868925 0.33560598
-0.4581354 0.39852083 0.16338564 0.2334883 -0.06305339 -0.14861374 -0.005355893 0.23798148
-0.025360478 0.46324757 -0.19608915 0.49069068 -0.15917864 0.110077776 -0.5615381 0.19258572
0.19829613 0.28761366 0.36758918 0.002089086 -0.06725043 0.3864038 0.38813058 0.2166221
-0.10126883 0.15621983 -0.011739386 -0.15055782 -0.102080226 -0.016230462 0.35323933 0.10648773
-0.13143189 -0.174262 -0.060727075 0.36311194 -0.016011007 0.2337594 -0.14554888 0.27796504
0.04590369 -0.21383817 -0.28740463 0.21799697 0.04184608 0.16668181 0.09526364 -0.04880585
-0.09710512 -0.10752114 -0.105221964 -0.16492428 0.06271891 -0.23053992 -0.1450201 0.044265974
0.059843358 -0.09913439 -0.29635718 0.17640227 -0.034698408 0.46835276 -0.37199533 -0.024125447
0.15389103 0.12901972 0.13606003 -0.37708515 -0.46254376 0.019727545 -0.024257189 0.114292204

encoder.lstm.weight_hh_l0 f4 [128, 32]
00000000: 34e6 27bf 2df5 24be c357 9dbe 9555 073e
00000010: ceb1 3e3f bb6b 5fbe 36fc 8a3c d53b cbbe
00000020: 5c1f 5cbe ee83 79be d5af 47be 0cc8 0ebe
00000030: da82 e63e 9eab 01be fdeb eb3e 2084 47be
00000040: b2c2 fc3d a810 af3c 144d d9be 3800 e1be
00000050: 6b71 2abe b39b 8a3e d65f 27bf 2c74 bebe
00000060: 96cd 8a3e ad0c c4bc 1011 48bd 0e5f 6ebe
00000070: e9db abbe d5ff 273e 2bb0 9bbd 78b9 c13c
00000080: 59b4 3ebd ea48 1e3e f50e 01bf dd02 883d
00000090: 423c c23e e282 eebe 6b69 2d3e be0d 5abd
000000a0: 0fa0 7cbe 78b6 06be 5baf dfbe cdeb eabc
000000b0: a50a 11be 0811 babd e876 343f 5951 0a3c
000000c0: f53f 313e 1172 d23e 793c 4e3e 06d3 90be
000000d0: dda4 c0be 77c9 a83e d882 4fbd d3c4 083e
000000e0: b59a c73e 99d7 abbb 99a9 193c b638 56be
000000f0: 1a23 06bf 8b68 1b3f 70c0 f23e 4ee3 f2bd
00000100: 97d9 b23e f946 0b3e 69ff c9bd 8ef9 70be
00000110: d4b4 463f f0af 06bf d571 bc3e f7e2 2abd
00000120: 23e7 a9be a3f7 02bf 5ebd 39bc c69b 5abf
00000130: 5f52 0d3d 6adf eabe 0e50 693e 42bd 52be
00000140: cb49 2d3e 4e3d 3abe 519a fc3d 255e d0be
00000150: 191f bcbe d294 963e 8923 27be 5d13 993d
00000160: bd8a c03e 7076 b8be e156 333d 52cf 01bf
00000170: dbf7 81be 914c 7bbc ef37 90be 7e62 cebe
00000180: 471b 4dbe d823 76be fdc2 babd 59cd 99be
00000190: a765 08be 30f2 35bf 6701 06be b5d7 2e3e
000001a0: 8e59 f6bc ae16 893e 9926 f33d eca7 abbe
000001b0: db69 0abd 47ce 02bf 2865 89bd 2db0 923e
000001c0: 2893 6f3e 3e53 30be 6b9a b93e f782 edbd
000001d0: 632c 04be 9cb2 81bd 8b2f 95be fda1 4ebe
000001e0: f1ed 5bbe 9611 d53e 4ea0 00bf 656e b23d
000001f0: d875 b2be a808 8bbd 703b e03d 76c6 8c3e
00000200: 68f4 3cbe 9968 fbbd cae6 ddbd 016a 493d
00000210: 90fa bc3e c37f 1ebf 2510 043d bcba b03e
00000220: a9be 04be a86b 523d d7bf 75be d1c8 c4bc
00000230: da38 bc3e 4b4e 003b 5f7c 203f ee16 303e
00000240: f8d8 973e 6363 a2be 3b32 6abb f3fd d5be
00000250: 5d5a d1be 80ad 9f3e 542b cebd 7b3a c8bd
00000260: 4e36 593e 1cbd a53d d69e cdbe 3ab1 583e
00000270: b902 15bf ace1 243f 48ac 04bf c4eb 9bbe
00000280: 8035 973e c79a 2abe 04df 23be a470 71be
00000290: f0f4 dcbc 8e95 92be f890 e43e 312b 0e3f
000002a0: 26c8 04bf 4e23 383e 5a35 c8be 2d07 0ebe
000002b0: 5609 c6bd fd2c 59be 4279 c33c 7dda 43be
000002c0: d671 c53e d5db a4bc a307 833e 353b fbbd
000002d0: 0d51 adba 0a2c aa3e 4ebc 5d3e d364 98be
000002e0: 23ed 04be 3358 b5be 9d02 3ebe 23a7 fdbe
000002f0: 50c6 27be 30ca c73e 5b0c 24bf 7723 11be
00000300: f3f8 0a3e e98a cf3e 0a35 87be dec2 543d
00000310: e582 3b3e 46e4 e4be 990e c73d ecb2 043f
00000320: 6964 53be 5c2b 0f3d d118 5bbe 6f17 f2be
00000330: 31fc 02be d06d d2be 2b51 a6be 4f5c 203e
00000340: 9241 a5bd 6c91 b4bd b423 f2be d3b5 2e3e
00000350: 32a4 79be 3480 e43e 829d dfbc 9519 9abe
00000360: 1faa 5c3f 2b2e 30be 0f13 f43d a8f3 5ebe
00000370: 0e87 16bf 5cc2 973e a817 ab3c f855 bebd
00000380: 06be c83d db5a 68be 36e6 19bf c8ed 76be
00000390: c670 613f 706b a3be df77 73bd 12ee e5bd
000003a0: 8187 5fbe 5a52 29be f05c a5be 0c8f f1bd
000003b0: f16e 153e ac97 a5be 46e6 423e 22fa acbd
000003c0: ad57 033e 14c6 143e 69f9 7bbe d63a 2ebe
000003d0: b90b 673d a873 f33d d857 20bf f660 0cbf
000003e0: 27a7 15be defb 0ebf a936 8dbe 108e 65bf
000003f0: 7145 a8be ad4d 953e bc09 a939 e139 1ebd
-0.6558564 -0.16109152 -0.3073102 0.1321624 0.7449006 -0.2181844 0.016965967 -0.39694086
-0.21496338 -0.24366733 -0.19500668 -0.139435 0.45021707 -0.12663123 0.46078482 -0.19483995
0.12341823 0.021370247 -0.42441618 -0.4394548 -0.16644828 0.27071914 -0.6538061 -0.37198007
0.27109975 -0.023931826 -0.048844397 -0.23278448 -0.33566216 0.16406186 -0.07601961 0.023648009
-0.04655871 0.15457502 -0.5041345 0.06641171 0.37936598 -0.4658423 0.16934745 -0.05323576
-0.24670433 -0.13155544 -0.43688473 -0.028676892 -0.14164217 -0.0908528 0.70493937 0.008442246
0.17309554 0.4110265 0.20140256 -0.28285998 -0.3762578 0.32966205 -0.05066189 0.13356332
0.3898522 -0.005244207 0.009378814 -0.20920071 -0.5239731 0.60706395 0.47412443 -0.11859761
0.34931633 0.13601293 -0.09863169 -0.23532698 0.7761967 -0.5261221 0.36805597 -0.041720357
-0.33184156 -0.51159114 -0.011336653 -0.8539394 0.034502383 -0.45873576 0.22784445 -0.20580009
0.16922681 -0.18187448 0.12334121 -0.40696827 -0.36742476 0.29410416 -0.1632215 0.074743964
0.3760585 -0.3602786 0.043784026 -0.5070697 -0.2538441 -0.015338079 -0.28167674 -0.4030952
-0.20029937 -0.24037111 -0.09119222 -0.3003948 -0.13320027 -0.71072674 -0.13086472 0.17074473
-0.030072 0.26775116 0.11872596 -0.33526552 -0.033792358 -0.51096004 -0.06708747 0.28650036
0.2339598 -0.17219254 0.36250624 -0.11597245 -0.12907557 -0.06332895 -0.29137835 -0.20178981
-0.21477486 0.4161498 -0.50244606 0.08712462 -0.34855533 -0.067887604 0.10948837 0.27495164
-0.18452609 -0.1227581 -0.10835035 0.04917336 0.36909914 -0.619137 0.03224196 0.34517467
-0.12963356 0.0513722 -0.23998962 -0.024021538 0.36762124 0.0019577916 0.62689775 0.17196247
0.29657722 -0.3171645 -0.0035735506 -0.4179531 -0.40889254 0.31187057 -0.10066858 -0.09776779
0.21212122 0.080927104 -0.40160245 0.21161357 -0.5820728 0.6440685 -0.5182538 -0.30453312
0.29533005 -0.16660605 -0.16003042 -0.23578125 -0.026972264 -0.28629726 0.44641852 0.55534655
-0.518679 0.17982218 -0.39103204 -0.13869925 -0.096697494 -0.21208568 0.023861531 -0.19126315
0.38563412 -0.020124355 0.25591764 -0.12267152 -0.0013223008 0.33236724 0.21653864 -0.29764423
-0.12981085 -0.35418853 -0.18555684 -0.49541578 -0.16384244 0.39021444 -0.6408135 -0.14173685
0.13571529 0.40535668 -0.26407653 0.051943652 0.18311651 -0.4470541 0.09719581 0.51835513
-0.20643772 0.03495346 -0.21396185 -0.47283503 -0.12791516 -0.41099405 -0.324838 0.15660213
-0.08069147 -0.088167995 -0.47292864 0.17061548 -0.24379042 0.4462906 -0.027296785 -0.30097643
0.86197084 -0.17205112 0.11917698 -0.21772635 -0.5879983 0.29640472 0.020885304 -0.09293741
0.09801869 -0.22690909 -0.601169 -0.24114144 0.88062704 -0.31917906 -0.05944049 -0.11227049
-0.21829034 -0.16535321 -0.32297468 -0.11794862 0.14593102 -0.3234228 0.19033155 -0.084461465
0.12826414 0.14528686 -0.24606861 -0.17014632 0.056407664 0.11887294 -0.6263404 -0.5483545
-0.14614545 -0.5585307 -0.27580765 -0.89669895 -0.3286548 0.29160824 0.00032241445 -0.038629416

encoder.lstm.bias_ih_l0 f4 [128]
00000000: 0405 df3e c771 603e 5f79 bf3e 74d0 f23d
00000010: 000a 193e 9409 d73e 21c5 b13e 55ee a13e
00000020: 6a65 743e cd2e b23e 777c 043d 81a5 f33c
00000030: 9d42 5c3d d4cb 123f 5080 8c3e 9ddd 9d3d
00000040: c7c4 9d3e 36c6 b53e 1d42 f63e 16e4 afbb
00000050: 588e 433e 55f5 5f3e 297e c43e 6e38 993e
00000060: 7b38 7a3e 19d9 8f3e 0e69 b83e abd3 753e
00000070: 7144 0b3f feb2 943e 1e4b 6bbc 2b95 0f3e
00000080: bb62 8f3e a575 24be 4014 933e 13ab a13d
00000090: 4e66 d93c c4e9 b33e cc2a 203e d7f1 3a3e
000000a0: 7f46 5e3e 8643 873e 7d6c 1b3e a64f ac3e
000000b0: e753 973e 84b5 363e f583 943e 27e4 5e3e
000000c0: 2c0a bc3e 18d4 713d 9088 8f3e c4fa 7f3e
000000d0: f978 203e 2eb7 033e 97af 253e 870b 8b3e
000000e0: 229c a13e 7f91 4a3e 7a1f c43d faf3 833c
000000f0: 4434 ac3d 606f ef3e 6490 0c3e 9220 54bd
00000100: 13ef 04bd 0ca5 10bc a896 a7bd 7519 21be
00000110: 6a95 393e 9a61 cbbd e200 713d 6597 bb3d
00000120: a120 27be 9baf 5abd c3d9 793c cc2b a2be
00000130: f70c 48be 2abc 33be 5e06 c9bc 9c88 293e
00000140: 8f74 9c3d 594b 1ebe 9eda a13d e270 a6bd
00000150: 754d cfbe e631 613e 0bde cdbd 9df6 423c
00000160: 6698 643e ca8a 05be 49f8 95bc f886 4fbd
00000170: 6051 1abe fcf6 763e aec0 3bbe d730 abbd
00000180: 886e 723e 4ee1 9d3e da6e 863e 3355 a33e
00000190: 318f b53e 28cd 413e 53c5 233e 4513 4f3e
000001a0: b7a5 fd3e 01da 5e3e 987e e33c b353 423e
000001b0: 485c 483e a8c7 1f3e 6b4f 15be 62cf 433e
000001c0: cd38 453e de86 883e 2aee 753e 9495 e93d
000001d0: 1ced f13d bc8e fcbc 4028 6d3e d7d6 d4bc
000001e0: e72f 903d 875c b63e 2abf 583e 2695 b43d
000001f0: 27be 2d3e c928 a3bd ab59 713c 34da b83d
0.43558514 0.21918403 0.37397286 0.118561655 0.14945221 0.41999495 0.3472071 0.31627145
0.23866811 0.3480133 0.03234526 0.029742004 0.053774465 0.5734227 0.27441645 0.07708285
0.30814192 0.35502785 0.48097315 -0.005367766 0.19097269 0.2187093 0.38377503 0.29925865
0.24435608 0.2809532 0.3601765 0.24006526 0.5440131 0.2904281 -0.014361171 0.14021747
0.28005013 -0.16060503 0.28726387 0.07893958 0.02653804 0.35139287 0.15641326 0.18256317
0.2170658 0.26418704 0.15178104 0.33654517 0.295562 0.1784268 0.29006925 0.2176672
0.3672651 0.05904016 0.28033876 0.24998003 0.15671147 0.12862846 0.16180263 0.27157232
0.31564432 0.19782065 0.09576316 0.016107548 0.084084064 0.4676466 0.13726956 -0.051788874
-0.03245456 -0.008828413 -0.08183032 -0.15732367 0.18123403 -0.099307254 0.058838733 0.091597356
-0.1632104 -0.053390127 0.015249672 -0.3167404 -0.19536196 -0.17552248 -0.024539169 0.16556019
0.07639419 -0.1545843 0.07903026 -0.081269994 -0.40488783 0.21991691 -0.10052117 0.0118996175
0.2232376 -0.13041225 -0.018306868 -0.050665826 -0.15070105 0.24117655 -0.1833522 -0.08358925
0.23674977 0.30835956 0.26256448 0.3190094 0.3546081 0.18925917 0.15993242 0.20222194
0.49540493 0.2176285 0.027770326 0.18977241 0.19566453 0.15603507 -0.14581077 0.19122079
0.19259949 0.26665395 0.24016634 0.11405483 0.11812803 -0.03082978 0.23159885 -0.02598135
0.07040387 0.35617468 0.21166673 0.0881751 0.16967069 -0.079667635 0.014730851 0.09025994

encoder.lstm.bias_hh_l0 f4 [128]
00000000: d1f3 503e 8b94 513e 1af2 003e 2498 8d3e
00000010: 0fc8 493e b08b 413e 39da 6a3e 1940 583e
00000020: 0b13 a53c 67fc b93e abac 473d f3f5 5e3e
00000030: b3f9 983d 3225 2d3f ede5 b53d c17b 873e
00000040: 6857 9e3d 9b6a d53e a0a8 783e 58cf d0bd
00000050: 4004 603d e183 a63e d957 b43e 1c86 fa3d
00000060: 5a0c 803e 35c1 ec3e d26f 653e aab5 693d
00000070: 58f5 a33e 395b da3e 2826 4e3d ba48 4c3e
00000080: b211 283e d8cb 4cbe bd1f 8dbb 820f 723d
00000090: 60b2 583e b10c bb3e fb21 9d3d f7de b93e
000000a0: 80cc 453e 7333 ca3e 0c41 103e 9510 513e
000000b0: 23d3 7b3e 0269 ce3e 928a 853e 927c 6a3e
000000c0: cd34 9b3e 1397 a13d 6be1 063e f4b7 853a
000000d0: 9b0a 0e3e 3985 3f3e a340 0dbd 825b 763e
000000e0: dc92 933e 2689 9c3e f270 433e 6192 913e
000000f0: a325 403e 7fbf a43e bab5 a73e 0775 2d3e
00000100: 20d5 e73d c950 6ebe 508e 65be ddfc 0cbe
00000110: 8e80 9e3d f7c5 22be 8ae2 193e 743a 353d
00000120: b384 20bd 3932 2bbe fe64 21be 5c20 90be
00000130: 0493 f93c f4df 91bd 6614 473c 1135 c4bd
00000140: e5d0 8b3e d073 2dbe c661 1dbc 7ff7 0fbd
00000150: 027b d1be 5bed 873b aa91 5fbe c638 13be
00000160: 39b7 3d3e feb2 a2bd 0deb 6bbe e5bc f4bd
00000170: c1bd 0dbe e760 4b3e cefb 84be 7110 26be
00000180: decf 933e e33f 8a3e 86a6 8c3e 32f3 3b3e
00000190: a1db e03e 73d4 d93d ae3f ea3d 1bd7 babd
000001a0: 4721 bc3e 88ca 8c3e 059e b53d 5bb5 a63d
000001b0: 161d bc3d c882 9d3e 2499 3c3c cf48 2d3d
000001c0: 7823 1a3d 4fb6 fa3e 2359 313d fd0c 883e
000001d0: e106 ed3c 1f39 4a3d ed88 603e eb21 423e
000001e0: 8612 353c 6808 1f3e 8706 b33d 7e49 4f3e
000001f0: 75e0 633e 423b 21bd cac3 863e 9e89 5b3e
0.20405509 0.20466821 0.12592354 0.27655137 0.19705223 0.18900943 0.22934808 0.21118201
0.020150682 0.3632538 0.048748653 0.2177351 0.07469501 0.6763488 0.088817455 0.26461604
0.07731515 0.41682896 0.24283075 -0.10195798 0.054691553 0.3252249 0.35223272 0.122326106
0.25009423 0.46241155 0.22405937 0.057058014 0.3202312 0.42647722 0.050329357 0.19949618
0.16413 -0.19999635 -0.004306762 0.05909682 0.21161795 0.3653312 0.07672497 0.3630292
0.19316292 0.39492378 0.14087313 0.20416482 0.24592261 0.4031449 0.26082283 0.22899082
0.3031372 0.07890143 0.13171928 0.0010201917 0.13871233 0.18703164 -0.03448547 0.24058345
0.28822982 0.30573386 0.19086054 0.2843199 0.18764357 0.3217735 0.32755834 0.16939174
0.11319947 -0.23273005 -0.22417569 -0.13768335 0.077393636 -0.1589583 0.15027824 0.0442452
-0.03918905 -0.16718377 -0.15761182 -0.28149688 0.03046561 -0.07122794 0.012150859 -0.09580434
0.2730781 -0.1693871 -0.009605831 -0.03514814 -0.4091416 0.004148168 -0.2183291 -0.14377126
0.18526925 -0.07944296 -0.23038884 -0.11950091 -0.13841917 0.19861184 -0.25973362 -0.1621721
0.28869528 0.27001867 0.27470797 0.1835449 0.43917564 0.106362246 0.11437927 -0.09123059
0.3674414 0.2749827 0.088680305 0.081400596 0.09185235 0.3076384 0.011511121 0.042305764
0.037631482 0.48967215 0.043297898 0.2657241 0.028933944 0.04937088 0.21927233 0.18958251
0.01105178 0.1553055 0.08741479 0.20242879 0.22253592 -0.039363153 0.2632125 0.21439216

policy.net.0.weight f4 [128, 32]
00000000: dcfe a2be b8c5 25bc b479 cebd fef7 d2be
00000010: 3b00 2d3d c01c 44be 5c98 7fbb cfe5 c63e
00000020: b0d2 023f bdc6 6cbe c517 0fbe bd8d 94be
00000030: c76d b6be 5b71 743d d7e8 12bc 51b8 373e
00000040: b656 febc c409 35be 3126 abbe d6ae 5c3e
00000050: fe72 9f3d 9bf0 af3d 47f0 1dbe ad61 e1bd
00000060: 5759 533e 9bb3 833e bf20 5fbe 496c cfbe
00000070: 7e64 31be cf09 9b3c 1e0f 43be 1653 96be
00000080: 72e4 ab3c f387 01bd e6f8 1dbe f269 06bd
00000090: af59 c9bd 8203 babd d0e2 c0be c59a c83e
000000a0: 235a f13e d8a9 1cbe 63d8 d8bd 0692 f3bb
000000b0: 49ea 3dbe 9ce3 c2bd 4087 16be 8afa c63a
000000c0: e65a e33d 9352 0abe 648b 06bd 7177 a93d
000000d0: c4e8 c8be 8cc0 7cbd 9057 ee3b f0d3 f03c
000000e0: 34e7 3b3e 85ee 8e3d eba4 5a3e f3e7 723d
000000f0: 6f5d 31be 11b3 1a3e aff8 7c3e 589b 8ebe
00000100: 5fd3 6fbe f0a3 21be 1596 bdbd 15b5 76be
00000110: b8d7 e6bc 338a 4abe 89bf f8bd 7127 c43e
00000120: 87b9 203f 8320 05be bf92 003e 77dc 1b3e
00000130: ce13 c4be 5b1f b4bd 5b90 77be d966 243e
00000140: 4ae3 93bd c1ff 833c 393d 29be efcd df3e
00000150: 5b0e c3bd adb7 fe3d 89dc afbd b90d 5dbe
00000160: 0d54 b1bd 01f5 6c3e 0248 7dbd e6aa 863d
00000170: 0c84 d2bd d573 9abc 3684 c83d 5c1b ccbe
00000180: d929 c63e 3aa8 a9be f0f7 2bbd 679a 513e
00000190: 8799 253e 67d8 173d 5738 5fbe 6799 5dbe
000001a0: 40c7 9a3e a16e b5bd 6237 4c3e 97e9 bbbd
000001b0: 3ec1 0ebf cc6c 7abc 68e1 723e 998f 63be
000001c0: 3d5c b9be 0ea5 c63d 5b0f a4bd 997a b53d
000001d0: 609d 9fbd f9ff 76be 2dc0 b33d 18ed a0be
000001e0: e34b 9ebd b9a6 91bd 8f28 c43e efe8 c73e
000001f0: 5435 133e 5b32 8ebd acd5 453e 0fa9 0fbe
00000200: 4826 b33d 263c b13e 5cde 49be 4034 7abe
00000210: e12e bcbd d03a 8b3e 445f 1ebe 3adb c2be
00000220: a970 b4be c69d ecbd 9164 de3e 60c3 fabe
00000230: de3f 47bf c0ba 7fbe 4ac7 37bc 0ea1 07be
00000240: 3944 55be 32d7 f0be 4159 04bc 4daf d3bd
00000250: ccc0 3abd 091e 32bf 93ab d73c 13cb 0d3d
00000260: c750 82be 4156 f0bd 9e1b a03e 7d27 33bd
00000270: 9c5b 853e d256 16bf d8db 9c3e 431e 47bd
00000280: 9a88 6b3d 3997 4dbe 6467 53be f837 623e
00000290: 0267 693e 6a04 9abe 8e23 aa3e 4116 60be
000002a0: a933 6ebe 7562 503d 988e 8abc d3bf 113e
000002b0: 4324 b83e 2130 39be c82d 493d fd96 14be
000002c0: dfc8 923d 9b7d 493e 3248 d7bc a1b4 47bd
000002d0: 5ea1 34bd 95ef 0fbe c188 1c3c dcb8 12be
000002e0: 7062 eebd 560b 2fbe 8d9a b4bd 56fa 613e
000002f0: 164c 17bd 3122 9dbd 6816 84be cbdd cf3e
00000300: 1d8d c0bd 60fb f33d 5e61 013f f45c d6be
00000310: 41c3 053e 2183 1abe 47e3 193d 41e0 53bb
00000320: 80ba 9cbe 4535 42bd 6c2d 993e 5374 773e
00000330: 01b0 93be 9364 713c 9e07 c6be 7efc 13be
00000340: dee9 26be b497 0fbe 68b2 f2bd d049 9bbe
00000350: d3c9 a8be 2d47 09bf 0997 533e 384f c63e
00000360: 6406 bdbd 52dc 973e 0301 84bd 0e4e 873d
00000370: 9dcc a53e 0e50 f0be 7f59 393d 4afb 6d3c
00000380: 4c27 013e 0363 f83d 0918 893d 44a4 f73d
00000390: da1c 07be 98db 06bd 6d72 edbd fc30 08be
000003a0: b6cb ae3d 069b 09bd f08c a8bd 5005 35bc
000003b0: ffc9 00be d00a 113d ada7 933d a581 713c
000003c0: 401f afbc d807 543d 6000 8c3d 846b debc
000003d0: 7415 2b3e 135b 69be e9fb 04bc 2fc7 a33c
000003e0: 1e6a 97bd 66dc ab3d f996 d5bd fe73 e83d
000003f0: 873c a73c 2cf7 423c d0d1 d03c 998f 083e
-0.31835067 -0.010117941 -0.10081807 -0.41204828 0.042236548 -0.19151592 -0.0039000725 0.38847205
0.51102734 -0.23122688 -0.13973911 -0.29014388 -0.35630628 0.059678417 -0.008966646 0.17941405
-0.031047206 -0.17679507 -0.33427575 0.2155107 0.07785605 0.08590814 -0.1542369 -0.11004958
0.20639549 0.25722966 -0.21789835 -0.40512303 -0.17323491 0.018925576 -0.19048735 -0.29360265
0.020982955 -0.031623792 -0.15426978 -0.03281588 -0.09831559 -0.090827 -0.37673044 0.3918058
0.4713908 -0.15299165 -0.105881475 -0.007433179 -0.18546404 -0.09516069 -0.14700031 0.0015180868
0.11101322 -0.13508062 -0.032847777 0.08274735 -0.39240086 -0.061707065 0.007273622 0.029397935
0.18349916 0.06979088 0.21351974 0.059303235 -0.17320798 0.15107371 0.2470424 -0.27852893
-0.23420475 -0.15785193 -0.092571415 -0.24092515 -0.028179035 -0.19779281 -0.121459074 0.3831134
0.6278309 -0.13000683 0.12555979 0.1522082 -0.3829636 -0.08795043 -0.24176161 0.16054858
-0.07221086 0.016113164 -0.16527261 0.43711802 -0.095242225 0.12437377 -0.085869856 -0.21587266
-0.086586095 0.23140337 -0.06183625 0.06575565 -0.10279092 -0.018854061 0.09790842 -0.39864624
0.38703802 -0.3313616 -0.0419845 0.20469056 0.16171847 0.03707161 -0.21798836 -0.2164055
0.3023014 -0.088589914 0.19943002 -0.09175413 -0.55763614 -0.015284728 0.23718798 -0.22222747
-0.36203185 0.096994504 -0.08010741 0.08861274 -0.07793689 -0.24121083 0.08776889 -0.31430888
-0.07729318 -0.07111878 0.38312194 0.39044902 0.14375812 -0.06943198 0.1931979 -0.14029334
0.08747536 0.34616202 -0.1971373 -0.24433994 -0.09188629 0.27193308 -0.15466028 -0.38057882
-0.35242203 -0.115535304 0.434361 -0.48977184 -0.7783183 -0.24973583 -0.011216948 -0.13245031
-0.20826806 -0.4703918 -0.00807792 -0.1033617 -0.04559402 -0.6957708 0.02632693 0.034617495
-0.25452253 -0.117352016 0.3127107 -0.04373883 0.26046455 -0.5872623 0.30636477 -0.048612844
0.05750332 -0.20077218 -0.20644909 0.22091663 0.227932 -0.30081493 0.3323025 -0.21883489
-0.23261894 0.050875146 -0.016913697 0.14233331 0.35965165 -0.18084766 0.049115926 -0.14510722
0.07167219 0.19676821 -0.026279543 -0.048756246 -0.044099204 -0.14056237 0.009554089 -0.14328331
-0.11639869 -0.17094168 -0.08818541 0.22068152 -0.036937796 -0.07672537 -0.25798345 0.40598902
-0.09401915 0.1191318 0.50539196 -0.41867793 0.13062765 -0.15089084 0.037570264 -0.003232971
-0.30611038 -0.047414083 0.29917467 0.24165468 -0.28845218 0.014733451 -0.38677686 -0.14451787
-0.16300151 -0.14022714 -0.118504345 -0.30329752 -0.3296648 -0.5362423 0.20663084 0.38732314
-0.092297345 0.2966028 -0.064455055 0.066066846 0.3238267 -0.46936077 0.045251366 0.014525244
0.12612647 0.1212826 0.066940375 0.12091878 -0.131946 -0.032924265 -0.115940906 -0.13299936
0.085349485 -0.033595107 -0.08230007 -0.01104863 -0.12577055 0.035410702 0.07209716 0.014740382
-0.021377206 0.051765293 0.06836009 -0.027150877 0.16707402 -0.22788648 -0.008116701 0.01999244
-0.07393287 0.08391647 -0.104291864 0.11350249 0.020414604 0.011899751 0.025490671 0.13336028

policy.net.0.bias f4 [128]
00000000: d350 6f3e 38ad 3c3e c8a0 803d 1f32 bc3d
00000010: f7ab a5bd bdb6 713d 4003 e3bd fa33 9dbe
00000020: 115f ae3d f997 ba3d 01fc 833e 72de d9bb
00000030: 2145 833e b6b9 bf3d d021 f23d b8cd 723d
00000040: dd38 223d a713 263e d829 5dbd 294e 933d
00000050: 1b15 483d 425b ca3c c2c3 273e da9d e4bc
00000060: 71f2 86bd 6809 34be d8e5 39be 8fb6 53bb
00000070: e2f9 8d3d 108d 513d 8ac0 033e dd6d 1f3d
00000080: 7188 7bbe 9edc f4bc bcbe 663d b1f3 023e
00000090: 36d9 57bd e058 7bbd 0d4a 363e 794e 3c3e
000000a0: 76c3 603d 5293 493e 6728 263e 45f7 5bbd
000000b0: b856 ca3d 110b 253e b1ab 8ebd 69fa 2cbd
000000c0: 6ffc 5b3e 946a a93d abd5 58be 8657 d6bb
000000d0: 2992 323e 15e1 98be f028 a03d 2df5 ca3d
000000e0: b7fb d7bd cae8 743c 0551 c83d 9c7e 45bc
000000f0: ac71 313e 15ec 7a3e c3d8 833e 5374 f6bd
00000100: a2ad e93a f86a 16bd 04db 943d 51bd 793b
00000110: b416 a7bd 630f ab3d d18f 75be c9c7 853c
00000120: 1fee 713d 9032 e33d b2ac 6a3d 214d 73be
00000130: 64bc 943c bfb4 573e f6da 213e be96 793e
00000140: ea98 de3d aaf4 0e3e 0f77 e03d ab5f 913d
00000150: eaf2 a23d 0b39 18bb d530 ccbc 7fc8 88bd
00000160: b3ae e43d 7395 c13c ec52 253d 1126 9e3e
00000170: bb72 013e e5be 263e c858 933e 22e4 34bc
00000180: 698d 2e3e 934b 023e 26be 063d 0ae0 a73d
00000190: 9b23 493e 19cf 82bd f7be 3b3e f5f9 7c3d
000001a0: 3619 d43d 7ee5 163e fcdf 143e 4931 34bd
000001b0: f2a2 f93d 4d17 ee3c d80d 99bd 413a c93d
000001c0: e53a 6d3e c770 3fbd 42c1 0b3e 96ab 1e3e
000001d0: 1f4d 3abd 9f9f 303d 84b4 bf3d eb29 223e
000001e0: bcde 8a3e 4555 733e 1861 fb3b 0fd8 1b3e
000001f0: 47dd d73d 5a1a 283e dbaa 103e b909 c1bd
0.23370676 0.18425453 0.062806666 0.09189247 -0.0808944 0.059012163 -0.11084604 -0.30703717
0.08514226 0.09111018 0.257782 -0.006648832 0.2563868 0.093615934 0.118228555 0.05927822
0.03960501 0.16218434 -0.053994983 0.07192642 0.048848253 0.024701718 0.1638327 -0.0279073
-0.06589211 -0.17581713 -0.18154085 -0.0032304858 0.06932427 0.05115992 0.12866417 0.038923133
-0.24563767 -0.029890355 0.056334242 0.12788273 -0.052697383 -0.061364055 0.17801686 0.1838931
0.054873906 0.19685104 0.1622635 -0.05370261 0.098798215 0.16117503 -0.06966341 -0.042230997
0.21483015 0.08272281 -0.21175258 -0.0065411953 0.17438568 -0.29859224 0.07820308 0.09910045
-0.10546058 0.014948079 0.09781078 -0.012054112 0.17328519 0.2450412 0.25751314 -0.12033906
0.0017828236 -0.036723107 0.072683364 0.0038107226 -0.08158627 0.08352544 -0.23980643 0.016330617
0.05906498 0.110936284 0.0572936 -0.23759891 0.018156238 0.21065043 0.15806183 0.2437391
0.1086901 0.1396052 0.109602086 0.07098325 0.079564884 -0.002322736 -0.024925629 -0.066788666
0.11166134 0.023630833 0.040362284 0.30888417 0.12641422 0.16283758 0.28778672 -0.011040719
0.17046131 0.12724142 0.032896183 0.08197029 0.19642489 -0.06387157 0.18334566 0.061761815
0.10356371 0.14735982 0.14538568 -0.043992314 0.121892825 0.029063845 -0.074733436 0.09825564
0.23166998 -0.046738412 0.13647941 0.15495142 -0.045483705 0.043120977 0.093606025 0.15836303
0.27123058 0.23762996 0.0076714866 0.15219139 0.10540252 0.16416302 0.14127676 -0.094256826

policy.net.2.weight f4 [5, 128]
00000000: 9017 3fbe a4d4 54be 4408 63bf 3321 55be
00000010: 52bc 42c0 9e6d cbbf de03 d6bf 8ee9 b53c
00000020: 4f52 56be 35bc a4be c1b7 2abe ba5e 5dbf
00000030: 7a23 72be 6689 03bf 707b 97be 15f4 bcbe
00000040: 4032 a4be 9ecf 7bbe 733d 39be d155 95bf
00000050: 7555 e6bf c37e 46be 6bd8 89bd 9016 37bf
00000060: 61c7 97bf 8804 97bf 8ce7 aabe 8b51 18be
00000070: 4c50 c4be 9993 95be 32f7 49be 3abe 9cbe
00000080: 677d 3cbf 84b3 22be 31b8 b6be ce4b 17be
00000090: 3582 48bf 4a8b 20c0 1f5c a6be abe4 2abf
000000a0: b4ac d7be 7fbd ccbd e798 c3be 4aef 92be
000000b0: 9c02 54bf 1c6e 02be 2d9d 51be ad36 83be
000000c0: 40da 98be 40fd debf 0759 5cbf 73cd bfbe
000000d0: a8e7 a7be 465c f2be ce2b aebe 231f f4be
000000e0: ef4f 53c0 0f72 93bf c3ec a4be af10 f7bf
000000f0: 1d6b 0bbe 2880 76be 1100 36be d998 42c0
00000100: 4005 56c0 2a63 1bc0 c6e6 52be c5bf 42c0
00000110: affb d3bf d493 e2bd 3266 b3bf 8e63 38c0
00000120: 9458 84bd f1e1 87be 0629 80bf e4e9 88bd
00000130: 1ac4 dfbe 7403 7cbe 44ee e4bd 7b64 34be
00000140: 59a9 3ebf 78ef 4bbe 93b3 58be 115d c2bc
00000150: fb99 babe 6c2d 08be 5122 78bf aea5 09c0
00000160: f4ce 70be 4ef4 9bbe d36c eabe 5d32 8abe
00000170: f627 37be b5e2 dabf 1704 eebe 6700 88be
00000180: e5c5 36be df8b e4be f1ff 70bf 5dfb 84be
00000190: cc14 cdbe a026 cfbe 42df 24be e5fd 89bf
000001a0: 908b 6fbe 41ad 93be 97df adbe f7f9 e7be
000001b0: 633b d6bf b415 0bbe 9457 cbbe c1f5 97bf
000001c0: c18a 91be ccb7 72bf d0d8 45be 4afb 9dbe
000001d0: 95a4 86bf dc18 52bf 15ff 9bbf 31c4 32be
000001e0: bc73 63be f2e4 86be cc0b 8bbe d048 3bbe
000001f0: a2f9 2bbe e240 49be c4de 8ebe a54e 98bf
00000200: b5da a2be 4ff0 86bd 72a6 0b3e d397 d3bd
00000210: 82b7 52bf 1c8b f83d d4ce dcbb 546d 743d
00000220: 78cc 913d 2dc3 da3e cc14 843d 5115 3abc
00000230: bad7 9eba 2333 543e a390 c9bd 73d8 313e
00000240: 7a3c d93d 6a22 5c3e 2651 973d dd5f 1fbe
00000250: 972e 513e ad19 0c3e b93c 3a3e fd2a 1a3d
00000260: c434 753f 1f9b 1d3d 2d43 713c 05f2 21bd
00000270: 3159 153d bc2a ba3d 1acb 293e ba09 dc3d
00000280: f79b 8d3f 05c2 2cbd 3e3d 29be e151 ca3c
00000290: 6064 bc3d f90d e9be f256 a83d 420a 67be
000002a0: 1ca3 7fbe 692d 55be da19 bdbe d5ab 893c
000002b0: 3e58 1a3e 4298 413e 2d49 153d 94d1 9d3c
000002c0: df59 2b3e 13e2 f53e f703 babe 1f06 7e3d
000002d0: 81f7 1bbd 11de 34bc 4033 cc3d 7ef6 27be
000002e0: 21e8 3f3f 0813 5dbe 63fd b7bd 42eb 013e
000002f0: e8c3 38ba b058 6abd d774 b63d 0176 ab3e
00000300: bf37 963e 8a53 a6be a01f 8c3c 98dd a3be
00000310: 75e5 e6be d6a7 433d 7183 bfbe 0f81 bcbc
00000320: 8bca 66be 1c01 ac3b a210 543e 4e17 8fbb
00000330: fe78 e1bd d2b4 303d 94dc 99be 988d 01bd
00000340: d65f dc3d fdff e3bd 8bec baba 79cf c6bd
00000350: fe13 d33d e70a eebb 45fb 28be 8bd4 29bf
00000360: 8744 f23d 1821 2d3d 6dfc d73e 9927 0f3f
00000370: 7f73 673e 5192 7e3e dc5a 02bc c9f8 a5bd
00000380: f213 84bd 95c2 a83d 4ff6 053e cc68 20bc
00000390: 1cf3 c33b d129 eb3d d131 05bd c60b f63d
000003a0: f8c5 873d 0365 4ebe 5a55 003d 34cf e13b
000003b0: 99ee dabe 3913 cc3c 36f3 ea3d 5b50 cd3e
000003c0: 0d0f 7d3e 19da c13e 073d 6a3d c634 9fbe
000003d0: 55f8 bc3e c664 c3be 6c44 f43d 2385 2f3b
000003e0: d8d3 2cbd 6df7 f43c 8eb1 20bf e77d c5bd
000003f0: b59e 0f3e c833 1e3e 5886 453e 1b9c 96bd
-0.18661332 -0.20784241 -0.8868449 -0.20813446 -3.0427442 -1.5892828 -1.671993 0.022206094
-0.20929836 -0.3217484 -0.16671659 -0.86472666 -0.23646346 -0.5138153 -0.29586363 -0.3690497
-0.32069588 -0.24590918 -0.18089847 -1.1666814 -1.799483 -0.19384293 -0.067307316 -0.715188
-1.1857721 -1.1798258 -0.3337978 -0.14874856 -0.38342512 -0.2921417 -0.19723204 -0.3061388
-0.7362885 -0.15888792 -0.35687402 -0.14775011 -0.7832368 -2.5085015 -0.32492158 -0.6675517
-0.4212395 -0.09997081 -0.38202593 -0.28698188 -0.8281648 -0.12737316 -0.20470114 -0.25627652
-0.29854012 -1.7421036 -0.86073345 -0.37461433 -0.32793927 -0.47336024 -0.34017795 -0.47680005
-3.3017538 -1.1519183 -0.32211885 -1.9301966 -0.13615079 -0.24072325 -0.17773463 -3.040579
-3.3440704 -2.4279275 -0.20595846 -3.0429547 -1.6561183 -0.11063352 -1.4015563 -2.8810763
-0.064622074 -0.26539567 -1.0012519 -0.06685236 -0.437043 -0.24610692 -0.11178258 -0.17616455
-0.74477154 -0.19915569 -0.21162252 -0.023726018 -0.36445603 -0.13298577 -0.9692736 -2.1507373
-0.23516446 -0.30459827 -0.4578615 -0.2699155 -0.17886338 -1.7100435 -0.46487495 -0.26562807
-0.17848928 -0.44637963 -0.94140536 -0.25973025 -0.4005493 -0.40459156 -0.16100791 -1.0780607
-0.23393083 -0.2884312 -0.33959648 -0.45307896 -1.6736873 -0.13582498 -0.39715254 -1.1871873
-0.28426173 -0.948117 -0.19320989 -0.3085578 -1.0518976 -0.8206918 -1.218722 -0.17457654
-0.22212118 -0.26346546 -0.27157438 -0.18289495 -0.16794446 -0.19653657 -0.27904332 -1.1899
-0.31807485 -0.06588804 0.13637713 -0.103316925 -0.8231126 0.12135908 -0.006738523 0.059674576
0.071190774 0.42727032 0.06449279 -0.011357621 -0.0012118735 0.20722632 -0.098420404 0.17367725
0.10607238 0.21497503 0.07388525 -0.15563913 0.20427929 0.1368167 0.18187226 0.037638653
0.9578364 0.038478013 0.014725489 -0.03953745 0.036462013 0.09090182 0.16581383 0.10744043
1.1063222 -0.04217722 -0.16527268 0.024697246 0.091988325 -0.45518473 0.082197085 -0.22562507
-0.24964565 -0.20818104 -0.36933786 0.016805569 0.15072724 0.18905738 0.03644674 0.019264974
0.16733502 0.48024043 -0.3633115 0.062017556 -0.038077835 -0.011039273 0.09970713 -0.16402623
0.74963576 -0.21589291 -0.089838766 0.126874 -0.0007048235 -0.057213485 0.08909004 0.33488467
0.29339406 -0.3248561 0.017104924 -0.32005 -0.45096937 0.047767483 -0.3740497 -0.023010759
-0.22538202 0.0052491557 0.2070947 -0.004366792 -0.110094056 0.043141194 -0.300511 -0.031629175
0.10760467 -0.1113281 -0.0014261169 -0.09707541 0.103065476 -0.0072644833 -0.16502102 -0.6633994
0.11829477 0.04226789 0.42184773 0.55919796 0.22602652 0.24860503 -0.007956233 -0.08104093
-0.06449117 0.082402386 0.1308224 -0.0097906105 0.0059799086 0.11482585 -0.03251821 0.12013964
0.066295564 -0.2015572 0.031331398 0.0068911556 -0.4276016 0.02491151 0.1147217 0.4010037
0.24712773 0.37861708 0.057187106 -0.3109495 0.36908212 -0.38162822 0.11927113 0.0026782237
-0.042194217 0.029903138 -0.62770927 -0.096431546 0.14025386 0.1544944 0.1928953 -0.073539935

policy.net.2.bias f4 [5]
00000000: 86bf 10be 766a 12bd 9d2d c73d b777 88bb
00000010: 0917 c23d
-0.1413556 -0.03574606 0.09725497 -0.0041646617 0.0947705

exp_avg f4 [900, 16]
00000000: 4b32 6138 21af 5e38 fc0a 5538 4353 c7b7
00000010: 7c30 7eb8 f78f acb8 92f4 b0b8 fb5f b1b7
00000020: abfb 3ab7 2cc3 7038 ae47 f538 534b 0838
00000030: bc99 fd38 c478 5e37 da91 15b7 b4ec 0438
00000040: 79a2 c138 9fd0 d837 9543 0d38 9ca9 0eb9
00000050: 599b c2b7 603c fdb7 202b ecb8 e26e 4235
00000060: 6948 80b8 465a 2136 ef23 5038 4afe 3537
00000070: 5db8 1239 91cc c338 2bc9 0c38 f439 36b8
00000080: cb27 3a39 e3ba 9c39 2e87 4cb8 5928 1e39
00000090: bd92 62b9 e9a7 cdb8 d8d9 d338 cadf c9b7
000000a0: fa64 1ab9 c784 a2b8 e3d1 92b8 0feb aa39
000000b0: 8cc8 76b8 5b65 c8b8 7c19 9637 12ff 56b9
000000c0: bfb8 d938 cd63 0bb8 5d2f 94b6 e529 17b8
000000d0: b2e2 f638 d01d 7538 e0af 1130 cce6 3a38
000000e0: 088d 2ab7 4b68 5eb8 6624 0f39 6f98 ce38
000000f0: 13fd 08b8 c76e fab8 b476 a538 dea0 8ab8
00000100: c42c 4f3a 7a98 bb39 cfa4 2fb9 ba27 fa39
00000110: 9dd1 35ba 0894 98b9 0770 09ba f2e6 4eb9
00000120: 4793 18ba 5890 54ba 47b9 8639 1057 8eb8
00000130: d579 f939 eb35 cd3a e23c 85b9 b2e8 b639
00000140: 0000 0000 0000 0000 0000 0000 0000 0000
00000150: 0000 0000 0000 0000 0000 0000 0000 0000
00000160: 0000 0000 0000 0000 0000 0000 0000 0000
00000170: 0000 0000 0000 0000 0000 0000 0000 0000
00000180: 0000 0000 0000 0000 0000 0000 0000 0000
00000190: 0000 0000 0000 0000 0000 0000 0000 0000
000001a0: 0000 0000 0000 0000 0000 0000 0000 0000
000001b0: 0000 0000 0000 0000 0000 0000 0000 0000
000001c0: 0000 0000 0000 0000 0000 0000 0000 0000
000001d0: 0000 0000 0000 0000 0000 0000 0000 0000
000001e0: 0000 0000 0000 0000 0000 0000 0000 0000
000001f0: 0000 0000 0000 0000 0000 0000 0000 0000
00000200: 0000 0000 0000 0000 0000 0000 0000 0000
00000210: 0000 0000 0000 0000 0000 0000 0000 0000
00000220: 0000 0000 0000 0000 0000 0000 0000 0000
00000230: 0000 0000 0000 0000 0000 0000 0000 0000
00000240: 0000 0000 0000 0000 0000 0000 0000 0000
00000250: 0000 0000 0000 0000 0000 0000 0000 0000
00000260: 0000 0000 0000 0000 0000 0000 0000 0000
00000270: 0000 0000 0000 0000 0000 0000 0000 0000
00000280: 0000 0000 0000 0000 0000 0000 0000 0000
00000290: 0000 0000 0000 0000 0000 0000 0000 0000
000002a0: 0000 0000 0000 0000 0000 0000 0000 0000
000002b0: 0000 0000 0000 0000 0000 0000 0000 0000
000002c0: 0000 0000 0000 0000 0000 0000 0000 0000
000002d0: 0000 0000 0000 0000 0000 0000 0000 0000
000002e0: 0000 0000 0000 0000 0000 0000 0000 0000
000002f0: 0000 0000 0000 0000 0000 0000 0000 0000
00000300: b436 7d38 e635 76b8 8fe9 d5b5 943d 9538
00000310: 20e2 bcb8 736c dab7 edff 09b9 b571 e432
00000320: 44e2 b937 9212 b3b6 8657 6237 acc9 b1b8
00000330: 34a5 18b7 e35c 91b7 8ed3 4838 93a8 1638
00000340: 1c3a 0f38 6596 0ab8 77ee b4b7 1c12 c037
00000350: a020 b1b8 b36f e0b8 fbab 05b9 e21b 2a38
00000360: b964 b2b7 5848 0638 9484 1db7 3472 10b7
00000370: f920 0bb6 4f1a bf37 f82d 3238 fd32 9b38
00000380: c7ec 6b38 1fcf 9936 bed0 bfb7 45c7 a837
00000390: 80b4 3ab8 b47f b6b8 bbd4 17b9 bbd9 3338
000003a0: 0880 42b7 23ca f837 f061 6db7 bae0 4037
000003b0: 7531 8c36 9faa e037 7728 ea37 e9f3 8c38
000003c0: 0a0b 9b38 ef80 b237 75e1 dbb7 7328 0a37
000003d0: d5df 74b8 ac57 acb8 00c9 9fb8 b4f8 b4b7
000003e0: faa8 13b8 0fa4 1138 5863 dfb7 1374 5e38
000003f0: 2f03 5438 0152 1b38 72c0 5938 5abd 5438
5.369102e-05 5.3092026e-05 5.0793387e-05 -2.376142e-05 -6.0603474e-05 -8.228415e-05 -8.437889e-05 -2.1144739e-05
-1.114506e-05 5.7402227e-05 0.00011695862 3.2495078e-05 0.00012092615 1.3260349e-05 -8.915051e-06 3.16917e-05
9.23322e-05 2.5846353e-05 3.367996e-05 -0.0001360536 -2.3198942e-05 -3.0188065e-05 -0.000112613896 7.243199e-07
-6.117003e-05 2.4043416e-06 4.962453e-05 1.0847647e-05 0.00013992326 9.336428e-05 3.3565953e-05 -4.3446154e-05
0.00017753166 0.0002989388 -4.8763286e-05 0.00015083085 -0.00021607704 -9.8064374e-05 0.000101018406 -2.4065277e-05
-0.00014724201 -7.749494e-05 -7.000917e-05 0.0003260006 -5.8837744e-05 -9.555622e-05 1.789326e-05 -0.00020503651
0.00010381778 -3.323313e-05 -4.4162575e-06 -3.6040223e-05 0.000117724194 5.8440317e-05 5.3000626e-10 4.4560802e-05
-1.0165626e-05 -5.3026055e-05 0.00013651102 9.8512384e-05 -3.266062e-05 -0.00011941563 7.889923e-05 -6.6103166e-05
0.0007903094 0.00035781023 -0.00016750697 0.00047713314 -0.0006935837 -0.0002910199 -0.00052428286 -0.00019731725
-0.0005820286 -0.0008108667 0.00025696514 -6.787304e-05 0.00047583753 0.0015656328 -0.00025413098 0.00034887117
0.0 0.0 0.0 0.0 0.0 0.0 0.0 0.0
0.0 0.0 0.0 0.0 0.0 0.0 0.0 0.0
0.0 0.0 0.0 0.0 0.0 0.0 0.0 0.0
0.0 0.0 0.0 0.0 0.0 0.0 0.0 0.0
0.0 0.0 0.0 0.0 0.0 0.0 0.0 0.0
0.0 0.0 0.0 0.0 0.0 0.0 0.0 0.0
0.0 0.0 0.0 0.0 0.0 0.0 0.0 0.0
0.0 0.0 0.0 0.0 0.0 0.0 0.0 0.0
0.0 0.0 0.0 0.0 0.0 0.0 0.0 0.0
0.0 0.0 0.0 0.0 0.0 0.0 0.0 0.0
0.0 0.0 0.0 0.0 0.0 0.0 0.0 0.0
0.0 0.0 0.0 0.0 0.0 0.0 0.0 0.0
0.0 0.0 0.0 0.0 0.0 0.0 0.0 0.0
0.0 0.0 0.0 0.0 0.0 0.0 0.0 0.0
6.0370847e-05 -5.8701167e-05 -1.5937711e-06 7.1163435e-05 -9.006658e-05 -2.6038126e-05 -0.00013160678 2.6594401e-08
2.2159082e-05 -5.3367776e-06 1.3491028e-05 -8.477582e-05 -9.09837e-06 -1.73286e-05 4.788074e-05 3.5919784e-05
3.4147975e-05 -3.304183e-05 -2.1568716e-05 2.2896616e-05 -8.4460946e-05 -0.00010701958 -0.00012747936 4.0557126e-05
-2.1266156e-05 3.2015465e-05 -9.3887975e-06 -8.609659e-06 -2.0731807e-06 2.2781225e-05 4.248132e-05 7.400473e-05
5.6248882e-05 4.5838674e-06 -2.2866177e-05 2.0119953e-05 -4.451396e-05 -8.702223e-05 -0.0001447973 4.2879703e-05
-1.1593111e-05 2.9658031e-05 -1.4149104e-05 1.1496415e-05 4.1780827e-06 2.6782332e-05 2.7913817e-05 6.721152e-05
7.393032e-05 2.1279293e-05 -2.6211821e-05 8.234859e-06 -5.8382593e-05 -8.217929e-05 -7.61915e-05 -2.1573484e-05
-3.5204903e-05 3.4723485e-05 -2.6629932e-05 5.3037027e-05 5.0547704e-05 3.7031252e-05 5.191606e-05 5.0721086e-05
