SGE_Transformer/model/2_room/eil_2_room_198_model/EBC_model_69999.pth (torch, 319288 bytes, 27 tensors)

encoder.embedding.weight f4 [900, 16]
0	0x3e81dfbd	0.2536601
1	0xbf44a947	-0.76820797
2	0x3f437cdc	0.76362395
3	0x3ff60185	1.9219214
4	0x3f0ad5f0	0.5423269
5	0x3f453c5a	0.77045214
6	0x3dbd5db8	0.09246391
7	0x3f1ae181	0.6050034
8	0x3fc6cc6d	1.5531136
9	0x3f98b5ed	1.1930519
10	0x3fbececc	1.4906859
11	0xbf4cdc2c	-0.80023456
12	0x3feb1f85	1.8368994
13	0xbf15ccbd	-0.5851553
14	0xbf81552e	-1.010412
15	0x3f2e47da	0.68078387
16	0xbf984faf	-1.1899318
17	0x3d115b9e	0.035487764
18	0x3efd8f06	0.4952318
19	0xbf16f92b	-0.5897395
20	0x3f1a757e	0.6033553
21	0x3f0b1b0a	0.54338133
22	0x3ea8469a	0.32866365
23	0x3e0f92a3	0.14020781
24	0xbf80f72d	-1.0075432
25	0xbfb44852	-1.408457
26	0x400e5d44	2.2244425
27	0xbfd7b496	-1.6851985
28	0x3f618ccb	0.8810546
29	0xbe47c513	-0.19508772
30	0xbeb9cbe8	-0.3628838
31	0xbfbbebb2	-1.4681304
32	0x3f1931c2	0.5984155
33	0xbd8c2a6b	-0.06844028
34	0xbf0ee258	-0.55814123
35	0x3f06b77c	0.52623725
36	0xbd3ba793	-0.045814108
37	0x3e22e32f	0.15906976
38	0xbeb0be4d	-0.34520188
39	0xbffd0ba9	-1.9769183
40	0xbf394156	-0.7236532
41	0x3f8930a5	1.071797
42	0xbf757ec9	-0.95896584
43	0xbd271635	-0.040792663
44	0xbfb66364	-1.4249082
45	0x3daa2735	0.083082594
46	0xc05b2e12	-3.424687
47	0xbf9a44fc	-1.2052302
48	0x3eac2494	0.33621657
49	0xbf5a6213	-0.853059
50	0xbfb9f9be	-1.452934
51	0xbf521298	-0.8205962
52	0x3f46a75c	0.7759912
53	0x3fd8474a	1.6896756
54	0xbf8b8a69	-1.0901614
55	0x3eecc378	0.4624288
56	0xbfb5485a	-1.4162705
57	0x3e17e346	0.14832792
58	0x3f37a857	0.7174124
59	0xbfafe790	-1.3742542
60	0xbf9278d1	-1.144312
61	0xbf3222e8	-0.6958451
62	0xbf5016b3	-0.81284636
63	0xc02692e7	-2.6027162
64	0x3f8b6267	1.0889405
65	0x3efcdafe	0.49385828
66	0xbfc39e46	-1.5282676
67	0x401f3fe3	2.4882743
68	0xbf6bbdb6	-0.9208635
69	0xbd314bef	-0.043285307
70	0xbfb8886c	-1.4416633
71	0x3eae5622	0.3405009
72	0xbf222078	-0.63330793
73	0xbe60d724	-0.2195707
74	0x3df080ab	0.117432915
75	0xbfe8ae7f	-1.8178252
76	0xc00a8add	-2.1647255
77	0xbe1361bd	-0.14392753
78	0xbf18c934	-0.5968201
79	0x3c7791f0	0.015110478
80	0x3e1918b5	0.14950831
81	0x3f2e8646	0.68173635
82	0x3fc8aa0d	1.5676895
83	0x3ef37d76	0.47556657
84	0xbf80a441	-1.0050126
85	0xbf82fb09	-1.023286
86	0x3f057d3c	0.5214422
87	0xbef6e35b	-0.48220333
88	0xbf45cac4	-0.7726252
89	0x402fa645	2.7445233
90	0xbffceabe	-1.9759138
91	0x3ed4f030	0.415895
92	0x3fc89d13	1.5672935
93	0xbd2321c3	-0.03982712
94	0xbf78e297	-0.9722075
95	0xbf3649b8	-0.71206236
96	0x3e75b7b5	0.2399586
97	0xbf997ce5	-1.199124
98	0x3f881e17	1.0634183
99	0xbf2d4c14	-0.6769421
100	0xbf29d40c	-0.6633918
101	0x3eac2e84	0.3362924
102	0x3f04b980	0.5184555
103	0x3f84d6c4	1.0378041
104	0x3d29e23d	0.041475523
105	0x3f57838d	0.84185106
106	0xbe06755a	-0.13130704
107	0xbfbf08fc	-1.4924617
108	0x3eba2620	0.36357212
109	0xbf02d54a	-0.51106703
110	0xbed64638	-0.41850448
111	0x3f97483d	1.181892
112	0xbe882c72	-0.2659641
113	0x3f4ddfd2	0.8041965
114	0xbe9d7ba6	-0.307584
115	0x3fad485f	1.3537711
116	0x3f2ac244	0.66702676
117	0xbe718f59	-0.23589839
118	0xbe2f5481	-0.1712208
119	0x3f0fc723	0.56163234
120	0x3e9d35dc	0.30705154
121	0x3eacf4c8	0.33780503
122	0x3e050074	0.12988454
123	0x3f13956f	0.5764989
124	0x3ca658d1	0.020306023
125	0x3fb2fdc0	1.3983688
126	0x3fb55e8f	1.4169482
127	0xbbc0bfc0	-0.0058822334
128	0xbf61e845	-0.8824504
129	0xbef9f6e3	-0.48821172
130	0xbfad94f9	-1.3561088
131	0xbe6f0e1a	-0.23345223
132	0x3fea3517	1.8297452
133	0x3fcb78ed	1.5896279
134	0x3e365e8a	0.17809501
135	0x3f030fba	0.5119587
136	0xbf0bd7f0	-0.5462637
137	0xbfb8c286	-1.4434364
138	0xbff63e32	-1.923773
139	0xbf9088af	-1.1291713
140	0x3f80de94	1.0067925
141	0xbc1011c2	-0.008793296
142	0xbf4df091	-0.804452
143	0x3ffba08a	1.9658368
144	0x3fd2f00a	1.6479504
145	0x3f11e735	0.5699342
146	0xbc4a2e9c	-0.012340214
147	0xbfbc443f	-1.4708327
148	0xbd3d77b9	-0.046256755
149	0xbf086699	-0.5328155
150	0x3f28e4bd	0.65974027
151	0x400bf57d	2.1868584
152	0x3ef9c545	0.48783317
153	0x400b8029	2.1796973
154	0xbfbb383a	-1.4626534
155	0xbfb20beb	-1.3909887
156	0xbedd4693	-0.43217906
157	0xbe1892f2	-0.14899805
158	0x3dd07cf7	0.10180085
159	0xbe33ebd6	-0.17570433
160	0x3ea4e7f3	0.32208213
161	0x3f9a135f	1.2037162
162	0x3daecc16	0.0853502
163	0xbfe162e8	-1.7608309
164	0x3d73f564	0.059560195
165	0xbfa77304	-1.3081975
166	0x3e6c1cd0	0.23057866
167	0x3f75be8b	0.9599387
168	0x3e10d040	0.14141941
169	0x3f5ca835	0.86194164
170	0xbf8c435c	-1.0958056
171	0xbf920f40	-1.1410904
172	0xbec09121	-0.37610725
173	0xbe830363	-0.2558852
174	0xbe914aa7	-0.28377268
175	0x3f8fa9bb	1.1223673
176	0x400414ac	2.0637617
177	0x3e062291	0.13099124
178	0x3f6948bd	0.91126615
179	0x3dca6884	0.09883216
180	0xbf2a85ba	-0.666103
181	0x3f6ea805	0.9322513
182	0x3fd155a0	1.6354256
183	0xbf8cdc17	-1.1004666
184	0x3f3c40bb	0.7353627
185	0x40019a7e	2.0250545
186	0xc03a7b37	-2.9137704
187	0x3e435f95	0.1907943
188	0x3e2db8c2	0.16965011
189	0xbf333487	-0.70002025
190	0xbdc8288a	-0.09773357
191	0x3f03a191	0.51418406
192	0x3f8ca836	1.0988834
193	0x3e013671	0.12618424
194	0xbf968583	-1.1759495
195	0x4009b362	2.1515737
196	0x3f0ef2b9	0.55839115
197	0xbf231202	-0.6369935
198	0xbf8ea714	-1.1144738
199	0xbf675b8a	-0.9037405
200	0x3fce966a	1.6139653
201	0x3f953bd6	1.1658885
202	0x3fbae9bf	1.4602584
203	0xbe4b80d5	-0.19873364
204	0xbf529d0d	-0.8227089
205	0xbfce3374	-1.6109452
206	0xbff2d4b0	-1.8971157
207	0xbfe54f09	-1.7914745
208	0x3fd8255b	1.68864
209	0x3c07ee9a	0.008296633
210	0xbf440dfc	-0.7658384
211	0x3f3fe0b1	0.74952227
212	0x3efc73b9	0.4930704
213	0xbefd9301	-0.49526218
214	0xbdddf54f	-0.108378045
215	0xbea57e2a	-0.32322818
216	0xbe2f7861	-0.17135765
217	0xbf03b0fb	-0.51441926
218	0x3f1bf43e	0.6091956
219	0xbf4391b7	-0.7639422
220	0x3f90d47a	1.1314843
221	0x3fa764bf	1.307762
222	0x3f0c5af2	0.5482627
223	0xbf418f1e	-0.75609004
224	0xbfb5bf58	-1.4199018
225	0xbfd66eae	-1.6752527
226	0xbf0ead51	-0.5573321
227	0xbeb6e4d1	-0.35721448
228	0x3f8a77d4	1.0817819
229	0x3f21d0e1	0.6320935
230	0xbfd43484	-1.6578526
231	0xbfe01ecd	-1.75094
232	0x3f9849ce	1.1897523
233	0x3f264390	0.6494684
234	0x3e4f063b	0.2021722
235	0xbfabe01d	-1.3427769
236	0xbf95e81f	-1.1711463
237	0xbe843a10	-0.25825548
238	0xbebebd60	-0.37253857
239	0x3eced5f9	0.40397623
240	0xbe04f409	-0.12983717
241	0xbec051e9	-0.37562492
242	0xbe19a57a	-0.1500453
243	0x3f5f6b32	0.8727294
244	0x3ff76dac	1.9330344
245	0x3f1aca4d	0.60464936
246	0xbe8b6486	-0.2722513
247	0xbfc48b66	-1.5355041
248	0xbe8da9d2	-0.27668625
249	0xbfe8fcf1	-1.8202192
250	0x3fa8854f	1.3165683
251	0xbe3c24c2	-0.18373397
252	0x3f60b007	0.87768596
253	0x3e100bbf	0.14066981
254	0x4012d124	2.294015
255	0x3b367579	0.0027841015

encoder.lstm.weight_ih_l0 f4 [128, 16]
0	0xbec4b336	-0.38417977
1	0x3e173790	0.14767289
2	0xbed9e28f	-0.42555663
3	0xbf401274	-0.7502816
4	0x3cabe58e	0.020983484
5	0x3ec52c2c	0.38510263
6	0xbda8f910	-0.0825063
7	0x3e5287c8	0.20559609
8	0xbe39c875	-0.18142875
9	0xbe92be43	-0.28660783
10	0xbf0981a0	-0.5371342
11	0xbe1794aa	-0.14802805
12	0x3e8e3e8b	0.27782091
13	0x3d4aa761	0.04947603
14	0xbcd96894	-0.026539125
15	0x3eeaebda	0.45883065
16	0x3c164eb9	0.009174042
17	0x3efe2f71	0.4964557
18	0xbf09cf4d	-0.5383194
19	0xbe1ed821	-0.15512134
20	0x3d24a56f	0.040196832
21	0xbed26268	-0.41090703
22	0x3de334cd	0.11094055
23	0x3ec144f1	0.3774791
24	0xbe85a5e1	-0.26103118
25	0xbf66276c	-0.89903903
26	0xbeee1cea	-0.46506435
27	0xbea3e6e8	-0.32012105
28	0x3e3feb96	0.18742213
29	0xbf595123	-0.8488943
30	0x3e34bd17	0.17650257
31	0x3cb1a242	0.021683816
32	0x3de2cb84	0.11073974
33	0xbe7a6c18	-0.24455297
34	0xbe7ed804	-0.24887091
35	0x3e7f0d99	0.24907531
36	0xbe478cde	-0.1948733
37	0x3d2cffcc	0.042236134
38	0x3e71285c	0.23550552
39	0x3e072ab9	0.13199891
40	0x3dac9c20	0.08428216
41	0xbebb37a3	-0.36565885
42	0xbe99f3c1	-0.30068782
43	0x3e61675d	0.22012086
44	0xbd6b6418	-0.057468504
45	0x3d489867	0.048973467
46	0xbe62d93f	-0.22153185
47	0x3e947736	0.289972
48	0xbf2e5ea9	-0.6811319
49	0x3dbd3165	0.09237937
50	0x3f470b01	0.77751166
51	0x3e0732c2	0.13202956
52	0xbc59d234	-0.013294745
53	0x3e8356b3	0.25652084
54	0xbe27ae04	-0.16374975
55	0xbe23a788	-0.15981877
56	0xbe1c4516	-0.15260729
57	0x3e331976	0.17490181
58	0x3d83eac6	0.06441264
59	0xbf7e2da9	-0.9928842
60	0xbeefb5c0	-0.46818352
61	0xbd55b804	-0.052177444
62	0x3e6da07e	0.23205754
63	0x3d821405	0.06351475
64	0xbdf990a8	-0.12185794
65	0x3dccfaec	0.10008797
66	0x3e8e7920	0.27826786
67	0x3de84846	0.1134191
68	0x3f14cff0	0.5812979
69	0x3e98e5f4	0.2986294
70	0xbe1021b1	-0.14075352
71	0xbd0717e2	-0.03298176
72	0xbf00e300	-0.50346375
73	0xbcb5a68d	-0.022174144
74	0x3eb62d67	0.35581514
75	0xbd9ba9d6	-0.07600753
76	0xbe7ec035	-0.24878009
77	0x3e637cdd	0.222156
78	0xbe14be0b	-0.1452562
79	0xbe899a77	-0.2687566
80	0x3ebfe442	0.37478834
81	0x3f21e063	0.6323301
82	0x3e1eb355	0.15498097
83	0x3dc47472	0.09592523
84	0xbd1c363d	-0.038137663
85	0xbd606f86	-0.054793857
86	0xbe7d3fab	-0.24731319
87	0xbc3e9bb5	-0.011633803
88	0x3c8b70f3	0.017021632
89	0xbf3629fa	-0.711578
90	0xbe6017b0	-0.21884036
91	0x3e34e6ea	0.17666212
92	0x3de228d2	0.11042942
93	0x3f055c64	0.520941
94	0xbeaa7328	-0.33290982
95	0x3e93a06b	0.28833327
96	0xbe4eb8a6	-0.20187625
97	0x3e33cbdd	0.17558236
98	0x3da7ff9a	0.08203049
99	0xbe19ab25	-0.15006693
100	0x3ef4c9ff	0.4781036
101	0xbc389b96	-0.011267563
102	0x3f01e93b	0.50746506
103	0x3e2b9c0d	0.16758747
104	0x3d8ca5c9	0.068675585
105	0x3f16427f	0.58695215
106	0x3d01f5e7	0.03172865
107	0x3eea180a	0.45721465
108	0x3e8b84eb	0.27249846
109	0xbdb08086	-0.08618264
110	0x3dd87ca9	0.10570652
111	0x3e420fa0	0.18951273
112	0xbed79aef	-0.42110392
113	0x3d37e07a	0.044891812
114	0xbe110b05	-0.1416436
115	0xbe659c48	-0.22422898
116	0x3ee63da6	0.4496891
117	0x3f1d4793	0.6143734
118	0xbc9eff3b	-0.019408813
119	0x3eec454c	0.4614662
120	0xbef09df6	-0.46995515
121	0xbe2130e5	-0.15741308
122	0xbf82d625	-1.0221602
123	0xbe3cb70e	-0.18429205
124	0xbe9d396b	-0.3070787
125	0x3f8ea61d	1.1144444
126	0x3ee017d6	0.43768185
127	0xbea3126b	-0.3184999
128	0x3dc3c03d	0.09558151
129	0xbebedac2	-0.37276274
130	0xbe51a3ac	-0.20472592
131	0x3ece514d	0.40296403
132	0x3d1d23e2	0.0383643
133	0xbea6f637	-0.32609722
134	0x3e783ac1	0.24241163
135	0x3f1bcef6	0.6086267
136	0x3dc1114d	0.09427128
137	0x3e778845	0.24173076
138	0x3e20ef7f	0.1571636
139	0x3e1ac559	0.15114345
140	0x3ea266e9	0.3171914
141	0x3f073d8d	0.52828294
142	0xbe5a8e35	-0.2134331
143	0x3c4f332f	0.01264648
144	0x3e49bfbb	0.19702046
145	0x3e924636	0.28569192
146	0xbdbfeaec	-0.0937098
147	0x3dfc7051	0.1232611
148	0xbedc7c1c	-0.43063438
149	0xbe8ac96e	-0.27106804
150	0xbd353532	-0.044240184
151	0x3eaf652e	0.3425688
152	0xbe910eaa	-0.283315
153	0x3da886b8	0.082288206
154	0xbf3b53fd	-0.7317503
155	0xbe4987e3	-0.19680743
156	0x3e554e99	0.20830764
157	0x3f39369b	0.72348946
158	0x3d181e6b	0.037138384
159	0x3e98223d	0.29713622
160	0x3e8ec52e	0.2788481
161	0x3e8cdfea	0.27514583
162	0x3e612fbe	0.21990868
163	0xbe3baf93	-0.18328695
164	0x3db92b5e	0.09041475
165	0x3e36b455	0.17842229
166	0xbd8189f9	-0.06325144
167	0x3eac2689	0.3362315
168	0xbeb5cf95	-0.35509935
169	0xbec12b49	-0.37728336
170	0xbe721ac0	-0.23643017
171	0xbc093d45	-0.008376424
172	0x3f08acc2	0.5338861
173	0x3d356815	0.044288713
174	0xbe09c3f3	-0.13453655
175	0x3d72056e	0.05908721
176	0xbdb1d333	-0.08682861
177	0x3f124bcf	0.57146925
178	0xbf5252e9	-0.8215776
179	0xbd0b39e9	-0.033990774
180	0x3e7a3fd8	0.24438417
181	0xbed7a2bc	-0.42116344
182	0x3c697c3a	0.014250809
183	0x3ef659cd	0.48115388
184	0xbf258715	-0.64659244
185	0x3ecce3c5	0.40017524
186	0x3cc719df	0.024304328
187	0x3ec9b4ca	0.39395744
188	0xbeac67d3	-0.33672962
189	0xbd915de2	-0.07097985
190	0x3e5c4e5f	0.21514271
191	0x3e22d3dd	0.15901132
192	0xbbf3a090	-0.007434912
193	0x3f128987	0.572411
194	0xbeb84103	-0.359871
195	0x3f432fc7	0.7624478
196	0xbe5641be	-0.20923516
197	0x3e1a7995	0.15085442
198	0xbf28095e	-0.65639293
199	0x3e895e11	0.2682958
200	0x3e4763dc	0.19471687
201	0x3e8b10bc	0.27161205
202	0x3f1036b8	0.56333494
203	0x3e013fd9	0.12622012
204	0x3d1801c9	0.037111077
205	0x3eaac534	0.3335358
206	0x3f07e837	0.53088707
207	0x3e69bfec	0.22827119
208	0xbbf7c304	-0.0075610895
209	0x3e114f42	0.1419039
210	0xbdc30834	-0.09523049
211	0xbd97e80c	-0.07417306
212	0xbeaeb745	-0.341242
213	0x3d7c71a8	0.06163183
214	0x3e9d6b84	0.3074609
215	0xbe11bcc2	-0.14232162
216	0xbda114e4	-0.07865313
217	0xbe214feb	-0.15753143
218	0xbd0acb37	-0.033885207
219	0x3ecb7fd4	0.39745963
220	0x3d897fad	0.06713805
221	0x3eee3991	0.46528295
222	0xbe8975b1	-0.26847604
223	0x3e5d2dab	0.21599452
224	0x3e1d5c9e	0.15367362
225	0xbe872126	-0.26392478
226	0xbe900d89	-0.28135327
227	0x3ed974a2	0.42471796
228	0x3dffa323	0.12482288
229	0x3e1e3439	0.15449609
230	0x3e5297d5	0.20565732
231	0xbd3a66f4	-0.04550834
232	0xbe4fce3e	-0.20293519
233	0xbd73c577	-0.05951449
234	0xbe4edac9	-0.20200647
235	0xbe0ce97d	-0.13760944
236	0xbda4e382	-0.08051206
237	0xbe976d05	-0.29575363
238	0xbdfdf5f5	-0.12400428
239	0x3e04e100	0.12976456
240	0x3e0714ca	0.13191524
241	0xbeba279a	-0.3635834
242	0xbe96c0e6	-0.29444045
243	0x3d3049d2	0.04303915
244	0xbd9e27c5	-0.07722429
245	0x3f2d1378	0.6760783
246	0xbed3d4b1	-0.41373208
247	0xbe39e29d	-0.18152852
248	0xbbe63d4d	-0.0070263506
249	0x3d5f506b	0.054520052
250	0x3e6cc19b	0.2312073
251	0xbec6e6d7	-0.38847992
252	0xbf00eb38	-0.50358915
253	0x3e17ffeb	0.14843719
254	0x3e0a41dc	0.13501686
255	0x3e2de9c2	0.16983703

encoder.lstm.weight_hh_l0 f4 [128, 32]
0	0xbf5c028e	-0.859414
1	0xbe531c83	-0.20616345
2	0xbe891218	-0.26771617
3	0x3e9e6fc0	0.30944633
4	0x3f340c8d	0.7033165
5	0xbe86d9c2	-0.2633801
6	0x3c8c0fe2	0.017097417
7	0xbf0b380a	-0.54382384
8	0xbd594eba	-0.053053595
9	0xbef59f64	-0.47973168
10	0xbdc5a46e	-0.09650503
11	0xbed45c1f	-0.41476533
12	0x3ec311be	0.38099474
13	0xbddfce0e	-0.10927974
14	0x3ee6b002	0.45056158
15	0xbe6e5d4b	-0.23277776
16	0x3eafecb9	0.34360293
17	0xbd657b2d	-0.056025673
18	0xbef2d775	-0.47430006
19	0xbf4c3cf4	-0.7978051
20	0xbe5198db	-0.20468466
21	0x3e8cedb3	0.275251
22	0xbf3306b5	-0.6993211
23	0xbf01584f	-0.50525373
24	0x3e929892	0.28632027
25	0xbe2ee87b	-0.17080872
26	0x3d932d0f	0.071863286
27	0xbe52403c	-0.20532316
28	0xbf054475	-0.5205758
29	0x3e95fe72	0.2929569
30	0x3d02e18f	0.03195339
31	0xbe7df25d	-0.24799486
32	0xbde361ba	-0.11102624
33	0x3e98910d	0.29798165
34	0xbf0af361	-0.54277617
35	0xbd237859	-0.039909694
36	0x3f0b0a8a	0.54312956
37	0xbefcf04b	-0.4940208
38	0x3e1d6271	0.15369584
39	0xbde38aba	-0.11110444
40	0xbd5f3b3a	-0.054499842
41	0xbd4442f5	-0.047915418
42	0xbebe9438	-0.37222457
43	0xbd56be8a	-0.052427806
44	0xbe865ca6	-0.2624256
45	0xbd85f926	-0.06541662
46	0x3f691362	0.910452
47	0xbc415cc0	-0.0118018985
48	0x3def492b	0.116838776
49	0x3f121636	0.5706514
50	0x3ebf4a71	0.37361482
51	0xbd2f363a	-0.042776324
52	0xbf358849	-0.7091108
53	0x3eebedc2	0.46079832
54	0x3e25a30b	0.16175477
55	0x3eb76661	0.35820296
56	0x3f35fc03	0.71087664
57	0x3c8aa4db	0.016924312
58	0xbd7b1b4d	-0.061305333
59	0xbe8ef63a	-0.2792223
60	0xbf39a6f5	-0.7252038
61	0x3f19ca8b	0.6007468
62	0x3f386daf	0.72042364
63	0xbd88c5f9	-0.06678385
64	0x3f181799	0.5941101
65	0x3daf5e5e	0.08562921
66	0xbe88eeed	-0.26744786
67	0xbe933f43	-0.28759202
68	0x3f818b22	1.0120585
69	0xbf2ec2a5	-0.68265754
70	0x3eaebfce	0.3413071
71	0xbcac999d	-0.021069342
72	0xbeecc202	-0.46241766
73	0xbf6d3586	-0.92659795
74	0x3e2dbcc5	0.16966541
75	0xbf9cd1e9	-1.225156
76	0x3d02ec73	0.031963777
77	0xbf70a85f	-0.94006914
78	0x3e94bd30	0.2905059
79	0xbec14581	-0.3774834
80	0x3e2492a2	0.16071561
81	0xbe9690b1	-0.29407266
82	0x3f19d16b	0.6008517
83	0xbeb280f8	-0.3486402
84	0xbf0631f1	-0.52419955
85	0x3d787c5f	0.060665485
86	0xbdf861a4	-0.121279985
87	0xbddd071a	-0.1079237
88	0x3eef9668	0.46794438
89	0xbf20d113	-0.6281902
90	0x3d01a583	0.031651985
91	0xbf4eee1e	-0.8083209
92	0xbe946101	-0.28980258
93	0x3bdf0ae2	0.0068067173
94	0xbc636214	-0.013878364
95	0xbee8c39d	-0.4546174
96	0xbe0c5112	-0.13702801
97	0xbeab500d	-0.3345951
98	0x3e0845c0	0.13307858
99	0xbe6ff882	-0.23434642
100	0xbeb8deaa	-0.3610738
101	0xbf4fe513	-0.81208915
102	0xbd9727b8	-0.073806226
103	0x3e8ce4b1	0.27518228
104	0x3d8577cf	0.06516992
105	0x3e90a5e5	0.28251567
106	0x3d609e8a	0.054838695
107	0xbf0a9f71	-0.5414954
108	0xbe4a74c2	-0.19771102
109	0xbf42655c	-0.7593591
110	0xbe5159eb	-0.20444457
111	0x3ea0e66e	0.31425804
112	0x3f048120	0.5175953
113	0xbedd1e7c	-0.4318732
114	0x3ec4b98d	0.38422814
115	0xbde892b3	-0.11356106
116	0xbe3ac0c4	-0.18237597
117	0xbe5b6c25	-0.21427973
118	0xbebad46b	-0.36490187
119	0x3d53d33d	0.051715124
120	0xbe251108	-0.16119778
121	0x3f148f0a	0.5803076
122	0xbf238aed	-0.6388386
123	0xbd99997b	-0.07499977
124	0xbee52402	-0.44754034
125	0xbe85ba72	-0.2611881
126	0x3d1ba325	0.037997384
127	0x3ed507d0	0.41607523
128	0xbe9919c5	-0.29902473
129	0x3dd89e79	0.10577101
130	0xbe617b1f	-0.22019623
131	0x3e3507d7	0.17678772
132	0x3f1d4e0b	0.6144721
133	0xbf3dd768	-0.7415681
134	0xbda8bfdd	-0.0823972
135	0x3f3e6a7f	0.7438125
136	0xbea4a5f1	-0.32157853
137	0xbd66f020	-0.056381345
138	0xbdee0f75	-0.11624042
139	0x3e569011	0.20953394
140	0x3edb04ba	0.42777044
141	0x3d47de68	0.048796088
142	0x3f2f4994	0.68471646
143	0x3e3172e7	0.17328988
144	0x3e8ddda6	0.27708167
145	0xbe8f99f8	-0.28047156
146	0xbcb2f880	-0.02184701
147	0xbecd7a2b	-0.4013227
148	0xbebf10f4	-0.37317622
149	0x3eacc245	0.33741966
150	0x3e23b6e4	0.15987736
151	0xbe9675a0	-0.29386616
152	0x3ed3edf4	0.4139248
153	0x3d1d376f	0.038382944
154	0xbeb6d335	-0.35708013
155	0x3eab1073	0.33410987
156	0xbf164326	-0.5869621
157	0x3f76666e	0.96250045
158	0xbeccc4c3	-0.39993867
159	0xbeda05ae	-0.42582458
160	0x3e64e5fd	0.22353359
161	0xbe8ad964	-0.2711898
162	0xbef048ca	-0.46930534
163	0xbef6e384	-0.48220456
164	0xbd0ea1e4	-0.03482236
165	0xbedf03f7	-0.43557712
166	0x3f0e80f5	0.5566552
167	0x3f8104ee	1.007963
168	0xbec53ac0	-0.38521385
169	0x3c94f6e1	0.018184127
170	0xbf013b13	-0.50480765
171	0xbdfd725b	-0.12375327
172	0xbe52a4ee	-0.20570728
173	0xbdd06b0d	-0.10176668
174	0x3de438c1	0.111436374
175	0xbe2bca37	-0.16776358
176	0x3e6c334d	0.23066445
177	0x3d5dccda	0.05415044
178	0x3e5e202a	0.21691957
179	0x3af255b8	0.0018488681
180	0x3d34d79f	0.044150945
181	0x3eed409b	0.46338353
182	0x3eca5a58	0.39522052
183	0xbf0c6403	-0.54840106
184	0xbe630751	-0.2217076
185	0xbec3bfc4	-0.38232243
186	0xbef178e7	-0.47162554
187	0xbf03b816	-0.5145277
188	0xbe5dc425	-0.21656854
189	0x3ee20128	0.44141507
190	0xbf028b3b	-0.509937
191	0xbd9a838a	-0.0754462
192	0x3e8f2d3c	0.279642
193	0x3ef67ac6	0.48140544
194	0xbeab52b4	-0.33461535
195	0x3e598503	0.21242146
196	0x3df405df	0.11915182
197	0xbee1bbb6	-0.44088525
198	0xbe0cce3c	-0.13750547
199	0x3f2e791a	0.68153536
200	0xbeb1b6cd	-0.34709778
201	0xbc63924d	-0.013889861
202	0xbeeef042	-0.46667677
203	0xbf1579e3	-0.5838911
204	0xbdd74785	-0.10511688
205	0xbf091ebb	-0.53562516
206	0xbe90a1b1	-0.2824836
207	0x3e062ca2	0.13102964
208	0xbb3460b9	-0.0027523472
209	0x3dffc652	0.124889985
210	0xbf016520	-0.5054493
211	0x3e1baaf8	0.15201938
212	0xbf0faa20	-0.56118965
213	0x3f328499	0.6973358
214	0xbd5e4158	-0.054261535
215	0xbe79c166	-0.24390182
216	0x3f9ca9e4	1.2239347
217	0xbef5a774	-0.4797932
218	0x3da77346	0.081762835
219	0xbea07cce	-0.31345218
220	0xbf61d628	-0.882174
221	0x3eaf4cdb	0.34238324
222	0x3d496d75	0.049176652
223	0xbe6f007f	-0.23340033
224	0x3daf6112	0.085634366
225	0xbe7766b0	-0.24160266
226	0xbf49c5b2	-0.78817284
227	0xbe4721d0	-0.19446492
228	0x3f6b687b	0.919563
229	0xbeceaad5	-0.4036471
230	0xbe6d8ad2	-0.23197487
231	0x3dfeb917	0.12437647
232	0xbe514bb1	-0.2043903
233	0xbe5cdf57	-0.21569572
234	0xbec0e191	-0.37672094
235	0x3dc32ab2	0.09529628
236	0x3e5c9a38	0.21543205
237	0xbf06c71a	-0.52647555
238	0x3f0b3673	0.5437996
239	0xbd7a9b88	-0.061183482
240	0x3eb64135	0.35596624
241	0x3e2aa907	0.16666041
242	0xbe6f32c6	-0.23359212
243	0xbddd660d	-0.1081048
244	0x3e2aaa5e	0.16666552
245	0x3e4271a0	0.18988657
246	0xbf2b0e73	-0.6681892
247	0xbedfb59d	-0.43693247
248	0xbe75bfb0	-0.23998904
249	0xbf365fb3	-0.71239775
250	0xbee5dd5c	-0.44895446
251	0xbf744c6a	-0.954291
252	0xbf027b0b	-0.50969
253	0x3ec82d09	0.3909686
254	0xbe271cc6	-0.1631957
255	0xbe8881a0	-0.26661396

encoder.lstm.bias_ih_l0 f4 [128]
0	0x3f2a8b7c	0.66619086
1	0x3ebeb35d	0.37246218
2	0x3ebfd336	0.3746583
3	0x3db7383b	0.08946272
4	0x3e79979c	0.2437424
5	0x3ef221c3	0.47291383
6	0x3ee56028	0.44799924
7	0x3eab9d47	0.3351843
8	0x3e965baf	0.29366824
9	0x3ed629d0	0.41828775
10	0x3e199375	0.14997657
11	0x3d04685f	0.0323261
12	0x3b6335a2	0.0034669419
13	0x3f406df3	0.7516777
14	0x3e6822dc	0.22669548
15	0x3e319c06	0.17344674
16	0x3efee8f1	0.49787095
17	0x3f0632ec	0.5242145
18	0x3f2e2d59	0.68037945
19	0x3d6fb06c	0.05851786
20	0x3e329158	0.17438257
21	0x3e5c5dd6	0.2152017
22	0x3ed2ac83	0.4114724
23	0x3e86786c	0.2626375
24	0x3e9b95ea	0.30387813
25	0x3ea84ca7	0.3287098
26	0x3ed349b2	0.41267163
27	0x3e857abf	0.2607021
28	0x3f279ed6	0.6547674
29	0x3ec7023c	0.38868892
30	0xbe03bee4	-0.12865788
31	0x3e7f6b56	0.24943289
32	0x3e907cae	0.28220123
33	0xbe81bd91	-0.2533994
34	0x3ea743c9	0.32668903
35	0x3e082002	0.1329346
36	0xba01e09f	-0.00049544306
37	0x3ed244b4	0.4106804
38	0x3e3c3760	0.18380499
39	0x3e9572a5	0.2918903
40	0x3e54efb1	0.2079456
41	0x3eb585ff	0.35453793
42	0x3e56c2c2	0.20972732
43	0x3f0f657a	0.56014216
44	0x3e939faf	0.28832766
45	0x3e83f08d	0.25769463
46	0x3e9d4303	0.30715188
47	0x3e87b274	0.26503336
48	0x3edad977	0.42744038
49	0x3d5c2f48	0.05375603
50	0x3ea17a51	0.31538633
51	0x3e6f2091	0.23352267
52	0x3e6ec5d2	0.2331765
53	0x3e51d6ff	0.20492171
54	0x3e3b11ef	0.1826856
55	0x3eb26d3d	0.34848967
56	0x3eea8ebb	0.4581202
57	0x3ea1d97e	0.31611246
58	0x3e514e33	0.20439987
59	0x3d173fca	0.03692607
60	0x3e61a0fe	0.2203407
61	0x3ee4ea7e	0.44710153
62	0x3e30f689	0.17281546
63	0xbda96fe2	-0.08273293
64	0x3adf518c	0.0017037853
65	0xbbfe9a88	-0.0077698864
66	0xbe0d9c84	-0.13829237
67	0xbe4c4228	-0.19947112
68	0x3e3521ff	0.1768875
69	0xbdd7658c	-0.105174154
70	0x3ddb0b24	0.10695484
71	0x3e0d169c	0.13778156
72	0xbe2cf765	-0.16891249
73	0xbd31bc82	-0.043392666
74	0x3d40a65d	0.047033656
75	0xbe7d7ada	-0.24753895
76	0xbe317bf3	-0.17332439
77	0xbe3e2685	-0.18569382
78	0xbcfb693a	-0.030689824
79	0x3e26726f	0.1625459
80	0x3d510160	0.051026702
81	0xbe451559	-0.19246425
82	0x3d942dbd	0.072352864
83	0xbe0530aa	-0.13006845
84	0xbf0867c1	-0.53283316
85	0x3ea29373	0.3175312
86	0xbe2706cb	-0.16311185
87	0xbbfa9989	-0.0076476973
88	0x3e662b39	0.22477426
89	0xbe7596d6	-0.2398332
90	0xbdb138e0	-0.08653426
91	0xbdf36a75	-0.118855394
92	0xbe8b48dc	-0.27204025
93	0x3ea0f132	0.31434017
94	0xbe73d96c	-0.23813409
95	0xbe35534d	-0.17707558
96	0x3ea68fde	0.32531637
97	0x3eb0adbc	0.3450755
98	0x3e4e02c8	0.20118248
99	0x3eb6ed31	0.35727838
100	0x3e828357	0.2549083
101	0x3dd2df0b	0.10296448
102	0x3e0bdfbc	0.13659567
103	0x3de57108	0.112031996
104	0x3f284ddc	0.65743804
105	0x3e903d8c	0.28171957
106	0xbe0ceb88	-0.13761723
107	0x3e47bf4e	0.1950657
108	0x3e18b972	0.14914492
109	0x3cf96bdf	0.030446945
110	0xbe8dc42a	-0.27688724
111	0x3dc94b7f	0.09828853
112	0x3e210d17	0.1572765
113	0x3f06b632	0.5262176
114	0x3e66c5e5	0.22536428
115	0x3da488c6	0.080339
116	0x3d9003ea	0.070319965
117	0xbe82506d	-0.25451985
118	0x3adc8478	0.0016824147
119	0xbd2f12f6	-0.042742692
120	0xbb9f81b1	-0.0048677553
121	0x3e9108a1	0.28326896
122	0x3e253b10	0.16135812
123	0x3d2d1766	0.042258643
124	0x3e074da6	0.13213214
125	0xbe39a00a	-0.18127456
126	0xbd82bdfa	-0.063838914
127	0x3dea11ed	0.114292

encoder.lstm.bias_hh_l0 f4 [128]
0	0x3ede8c1d	0.43466273
1	0x3eb744b7	0.35794613
2	0x3e01a53e	0.12660691
3	0x3e7d63a6	0.24745044
4	0x3e952b0f	0.29134414
5	0x3e77bbcb	0.24192731
6	0x3ea90824	0.33014023
7	0x3e6b9d79	0.2300929
8	0x3d99e909	0.07515151
9	0x3eddf76a	0.43352824
10	0x3e2a5f70	0.16637969
11	0x3e619b4f	0.22031902
12	0x3cc7c84c	0.024387501
13	0x3f5ac751	0.8546038
14	0x3d2855ad	0.04109733
15	0x3eb8d20a	0.36097747
16	0x3e88ba8a	0.26704818
17	0x3f1604eb	0.58601254
18	0x3ee26c5c	0.44223297
19	0xbd1bf276	-0.038073026
20	0x3d1c1040	0.038101435
21	0x3ea4b820	0.32171726
22	0x3ec28633	0.3799301
23	0x3daf85df	0.08570456
24	0x3e9e85f5	0.30961576
25	0x3f029a6e	0.5101689
26	0x3e8d989a	0.27655488
27	0x3d9f1da9	0.07769329
28	0x3edcaaa0	0.43098927
29	0x3f06553f	0.52473825
30	0xbd830107	-0.0639668
31	0x3e9e0fd3	0.30871448
32	0x3e2a44f6	0.16627869
33	0xbe95e881	-0.2927895
34	0x3d0fd6df	0.035117026
35	0x3de79ccf	0.11309206
36	0x3e3d0417	0.18458591
37	0x3ed967a1	0.42461875
38	0x3dd539ef	0.104114406
39	0x3ef1d884	0.472355
40	0x3e3c759e	0.18404242
41	0x3ef875e3	0.4852744
42	0x3e4b9768	0.19881976
43	0x3edb0425	0.427766
44	0x3e746a7a	0.23868743
45	0x3ef6fe7d	0.48241034
46	0x3e8e499b	0.27790532
47	0x3e8d7eaf	0.27635714
48	0x3eba0418	0.36331248
49	0x3d96c4c7	0.07361751
50	0x3e2ac67b	0.16677277
51	0xbc7cebe3	-0.015437099
52	0x3e5c5773	0.21517734
53	0x3e86d26d	0.26332417
54	0xbc5ed4c2	-0.01360053
55	0x3ea28f80	0.31750107
56	0x3edc8575	0.4307057
57	0x3ed919ab	0.42402396
58	0x3e995766	0.29949492
59	0x3e9c3b30	0.30513906
60	0x3ea5d658	0.32390094
61	0x3e9a3a89	0.30122784
62	0x3eb9e870	0.36310148
63	0x3e0dc524	0.13844734
64	0x3e16e4d0	0.14735723
65	0xbe6d3b74	-0.23167211
66	0xbe8faf54	-0.28063452
67	0xbe38259d	-0.17983098
68	0x3d959a79	0.07304854
69	0xbe28c818	-0.1648258
70	0x3e4b27bd	0.19839378
71	0x3db93300	0.090429306
72	0xbd37df18	-0.044890493
73	0xbe20f536	-0.1571854
74	0xbe00d91f	-0.12582825
75	0xbe59646a	-0.21229711
76	0x3d570e10	0.052503645
77	0xbda6b4fc	-0.08139989
78	0x3bc49bdd	0.0060000257
79	0xbdca6092	-0.098817006
80	0x3e7da7fd	0.24771114
81	0xbe543dd0	-0.20726705
82	0xbc8563cf	-0.016282944
83	0xbdabec2a	-0.08394654
84	0xbf097eaf	-0.5370893
85	0x3dd069d5	0.10176436
86	0xbe8fd4d6	-0.28092068
87	0xbe273cff	-0.16331862
88	0x3e3f49d9	0.18680514
89	0xbe4165b4	-0.18886453
90	0xbe98e3ef	-0.298614
91	0xbe403208	-0.18769085
92	0xbe84ff2a	-0.25975925
93	0x3e8b2634	0.27177584
94	0xbea108cc	-0.31452024
95	0xbe82e599	-0.25565794
96	0x3ec1285e	0.3772611
97	0x3e9d0c24	0.30673325
98	0x3e5a7239	0.21332635
99	0x3e632300	0.2218132
100	0x3eadcfe9	0.33947685
101	0x3ca4653d	0.020067805
102	0x3dba7508	0.09104353
103	0xbe39c634	-0.18142015
104	0x3f078be6	0.52947843
105	0x3ead9b77	0.33907673
106	0xbd9d18df	-0.076707594
107	0x3db18cdd	0.08669446
108	0x3d39aec8	0.0453327
109	0x3e3a6c06	0.1820527
110	0xbdf4dec2	-0.1195655
111	0xbd4f5cb1	-0.050625507
112	0x3b176034	0.0023098113
113	0x3f3fce21	0.749239
114	0x3ce96daa	0.028494675
115	0x3e6d93f7	0.23200975
116	0xbc9a9e39	-0.018874275
117	0xbe32811d	-0.17432065
118	0xbc2e61eb	-0.010643463
119	0x3e30f804	0.1728211
120	0xbd8385c5	-0.06421999
121	0x3da8c164	0.08240011
122	0x3d17fb74	0.03710504
123	0x3e204480	0.1565113
124	0x3e3d6fe8	0.1849972
125	0xbe105ac0	-0.14097118
126	0x3e3d12a2	0.18464139
127	0x3e74257c	0.23842424

policy.net.0.weight f4 [128, 32]
0	0xbe8f2f03	-0.27965555
1	0x3c06fa60	0.008238405
2	0x3c591608	0.013249882
3	0xbe759d30	-0.23985744
4	0x3d83a1d5	0.064273514
5	0x3cdc7002	0.026908878
6	0x3e57b16a	0.21063772
7	0x3e96a4a1	0.29422477
8	0x3efbf58b	0.49210772
9	0xbe2da318	-0.16956747
10	0xbe369209	-0.17829145
11	0xbebef03e	-0.37292665
12	0xbea64583	-0.32474908
13	0x3d9f0950	0.07765448
14	0xbe0baa7e	-0.13639256
15	0x3d0809b6	0.033212386
16	0xbde92ac9	-0.11385114
17	0xbe9efdbb	-0.31052956
18	0xbebe8b22	-0.37215525
19	0x3e4c6b6e	0.19962856
20	0x3e090bf1	0.13383462
21	0x3de8db00	0.11369896
22	0xbe304bff	-0.1721649
23	0xbdb0daba	-0.08635469
24	0x3e12f6fd	0.14352031
25	0x3e8ffedc	0.2812413
26	0xbe6df117	-0.232365
27	0xbe8ea72a	-0.2786191
28	0xbd0e57bb	-0.034751635
29	0x3d14ff99	0.03637657
30	0xbea276fe	-0.3173141
31	0xbe3b3687	-0.1828252
32	0x3d81452f	0.06312024
33	0xbd1658aa	-0.03670565
34	0xbd9a1847	-0.07524162
35	0x3e299836	0.1656197
36	0x3d6b1e88	0.057402164
37	0x3dde6728	0.10859519
38	0xbe9bb059	-0.3040798
39	0x3ea0570b	0.3131641
40	0x3ee084fd	0.43851462
41	0x3db310aa	0.08743413
42	0xbe3f77ae	-0.18697998
43	0xbe6a7594	-0.22896415
44	0xbe0acf69	-0.13555683
45	0xbdbbf339	-0.091772504
46	0xbe18da55	-0.14927037
47	0xbe48a9d0	-0.19596028
48	0x3cb92202	0.022599224
49	0xbe1e7d8c	-0.1547758
50	0x3d144fb9	0.036208842
51	0x3d38e540	0.045140505
52	0xbeb5b699	-0.35490873
53	0x3c33540e	0.010945333
54	0xbc4f84e6	-0.012665963
55	0x3e3bea77	0.1835116
56	0x3e58ea07	0.21183024
57	0x3d1a9f58	0.03774962
58	0x3e90e3db	0.2829884
59	0x3e36b667	0.17843018
60	0xbcf4d988	-0.029888883
61	0xba6363d0	-0.0008674236
62	0x3e0b1659	0.13582744
63	0xbe97696d	-0.2957262
64	0xbe64c736	-0.22341618
65	0xbdabd332	-0.08389892
66	0x3d587220	0.052843213
67	0x3d7f3985	0.062310714
68	0xbd33feae	-0.043944053
69	0xbd83fbfc	-0.064445466
70	0xbc9e67c2	-0.019336585
71	0x3e89da59	0.269244
72	0x3f098b02	0.53727734
73	0x3b5266bf	0.0032104698
74	0xbe782efa	-0.2423667
75	0x3d5d64bd	0.05405115
76	0xbee19075	-0.44055524
77	0x3cb05d05	0.02152873
78	0xbe571138	-0.21002662
79	0x3db6c882	0.089249626
80	0xbdbad8ab	-0.091233574
81	0xbd613de3	-0.05499066
82	0xbda927e2	-0.0825956
83	0x3ea4fe92	0.32225472
84	0xbd35ede6	-0.04441633
85	0x3d5d97c9	0.05409983
86	0x3ad0d3bb	0.0015932241
87	0xbde66cfc	-0.11251256
88	0xbe3faecf	-0.18719028
89	0x3ecd1f92	0.4006315
90	0x3d0d61d7	0.034517135
91	0x3d9740b6	0.073853895
92	0x3e2385b8	0.15968978
93	0xbe375d9e	-0.17906806
94	0xbbaa9004	-0.0052051563
95	0xbe5d31f5	-0.21601088
96	0x3f0ce774	0.5504067
97	0xbee1ab46	-0.44075984
98	0xbe7d15e1	-0.24715377
99	0x3ed66510	0.4187398
100	0x3ea9304a	0.33044654
101	0xbeb49e4c	-0.3527702
102	0xbf258e09	-0.64669853
103	0xbccc3310	-0.024926692
104	0x3f0ee81d	0.55822927
105	0xbe8e1daa	-0.27757007
106	0x3dde60aa	0.10858281
107	0xbf1d7a8f	-0.61515135
108	0xbf26f525	-0.6521781
109	0xbea031db	-0.31288037
110	0x3e3de584	0.18544585
111	0xbecb967e	-0.39763254
112	0xbe44d387	-0.19221316
113	0x3e8c662a	0.27421695
114	0xbe25c5b1	-0.16188695
115	0x3d88fadd	0.066884734
116	0xbf0c82f6	-0.5488733
117	0xbe0db60b	-0.13838975
118	0x3e3cc7b4	0.18435556
119	0xbef0c363	-0.47024068
120	0xbe06d921	-0.13168766
121	0x3d453823	0.04814924
122	0x3e808af9	0.25106028
123	0x3f25b5ab	0.6473033
124	0x3e74e9b6	0.23917279
125	0xbd966ad1	-0.07344592
126	0x3ec5c460	0.38626385
127	0xbef47cb9	-0.47751406
128	0x3dc15b36	0.09441225
129	0x3eacb806	0.3373415
130	0xbe2add3e	-0.1668596
131	0xbeaa58f2	-0.33270985
132	0xbe1a020a	-0.1503984
133	0x3ea5bf8a	0.32372695
134	0xbec713c0	-0.38882256
135	0xbe818bfc	-0.25302112
136	0xbec6e103	-0.38843545
137	0xbe45c984	-0.19315153
138	0x3ec7fd0b	0.39060244
139	0xbf199b8e	-0.6000298
140	0xbf718263	-0.9433958
141	0xbdc2ac32	-0.095055
142	0xbd4748d5	-0.048653442
143	0xbec26cc2	-0.379736
144	0xbea9b1e9	-0.33143547
145	0xbf2dcaad	-0.67887384
146	0xbcbbd6f8	-0.022929654
147	0xbe780407	-0.24220286
148	0xbec626f0	-0.38701582
149	0xbf2bff1d	-0.67186147
150	0xbdacfdda	-0.08446856
151	0xbbc87aa5	-0.006118136
152	0xbed92e58	-0.4241817
153	0x3d89327f	0.066990845
154	0x3f033bbb	0.51263016
155	0xbe281279	-0.16413297
156	0x3e26f59b	0.16304629
157	0xbf0ac8ff	-0.54212946
158	0x3e78bb20	0.24290133
159	0xbdc8b813	-0.09800734
160	0xbd0c842c	-0.034305736
161	0xbed41511	-0.41422322
162	0xbe63e1e2	-0.22254136
163	0x3e7d2439	0.24720849
164	0x3e0b3d70	0.13597655
165	0xbed3c6ef	-0.41362712
166	0x3efcee6b	0.49400648
167	0xbdd46ba7	-0.103720956
168	0xbe1187cc	-0.14211959
169	0x3e85da87	0.26143286
170	0xbe4cfb12	-0.2001765
171	0x3c862983	0.016377216
172	0x3e8ead10	0.2786641
173	0xbf0c98a8	-0.54920435
174	0xbd303a79	-0.043024514
175	0xbe435ed2	-0.1907914
176	0x3cef2614	0.029192962
177	0x3e7d8442	0.24757484
178	0xbdb9e282	-0.09076406
179	0x3b4ea919	0.0031533896
180	0xbbaa469d	-0.005196406
181	0xbe302303	-0.17200856
182	0xbd2218a1	-0.03957427
183	0xbe8a7fbd	-0.27050582
184	0xbec38187	-0.3818476
185	0x3e03d7ce	0.12875292
186	0xbe17fb03	-0.14841847
187	0x3ea68bbd	0.32528487
188	0x3e1840d4	0.1486848
189	0xbc10679a	-0.008813763
190	0xbe5aae1c	-0.2135548
191	0x3f08f1f2	0.5349418
192	0x3cc173db	0.023614815
193	0x3e80b3b8	0.25137115
194	0x3f0136b9	0.50474125
195	0xbf1a46c9	-0.6026426
196	0x3eed46c1	0.46343043
197	0xbcdc04f5	-0.026857832
198	0x3dc3ee6d	0.095669605
199	0xbe9732e5	-0.29531017
200	0xbdbbeee2	-0.09176423
201	0xbcd1f9ec	-0.025631867
202	0x3e3aac5b	0.18229811
203	0x3db0ce4d	0.08633099
204	0xbeb657f6	-0.35613984
205	0x3dc39b3f	0.09551095
206	0xbed81475	-0.42203107
207	0xbe0753f4	-0.1321562
208	0xbe084544	-0.13307673
209	0xbe2fb1f4	-0.17157727
210	0xbe4dc10c	-0.20093173
211	0xbf11a3dd	-0.5689066
212	0xbe2a5db1	-0.16637303
213	0xbecb57b5	-0.39715353
214	0x3e00f95c	0.12595123
215	0x3ea151f6	0.31507844
216	0xbd03f570	-0.03221649
217	0x3e211665	0.15731199
218	0x3dd3e786	0.10346894
219	0xbced5cb9	-0.028974878
220	0x3e79eccd	0.24406739
221	0xbed6b82b	-0.41937384
222	0xbcbff41b	-0.023431828
223	0xbe07bf18	-0.1325649
224	0x3d8865a9	0.06660015
225	0x3e6d2ace	0.2316086
226	0x3ebd735a	0.3700207
227	0xbdaaf0de	-0.08346723
228	0x3e37fb80	0.17967033
229	0x3e4935de	0.19649455
230	0xbe63a3c1	-0.22230436
231	0xbec990c8	-0.39368272
232	0x3ccf0db7	0.025275094
233	0x3e1a7d28	0.15086806
234	0xbdd37cd5	-0.10326544
235	0xbe7b13bd	-0.24519248
236	0xbe38698e	-0.18009016
237	0x3d9fb6ab	0.07798513
238	0x3e2b8071	0.16748215
239	0x3c49e6cc	0.012323093
240	0xbda430e5	-0.080171384
241	0xbca81efc	-0.020522587
242	0xbe301f16	-0.17199358
243	0xbe0a5d24	-0.13512093
244	0x3d43cbce	0.047801785
245	0xbd5637ff	-0.052299496
246	0xbeadcdae	-0.33945984
247	0x3c8d617e	0.017258402
248	0x3e43de57	0.19127785
249	0x3e11ad3c	0.1422624
250	0xbe2f0dd3	-0.17095117
251	0x3cc92c91	0.024557384
252	0x3cb26296	0.021775525
253	0x3dc8405a	0.09777899
254	0xbe1410dd	-0.14459558
255	0x3e1d0e7f	0.15337561

policy.net.0.bias f4 [128]
0	0x3d32c0cb	0.043640893
1	0xbd801b48	-0.062552035
2	0xbe957bee	-0.29196113
3	0x3dcfcd28	0.10146552
4	0xbe1543bb	-0.14576618
5	0xbeeba22b	-0.46022162
6	0xbebe805c	-0.37207305
7	0xbeb835f6	-0.3597867
8	0xbd623598	-0.055226892
9	0x3dda8d12	0.10671438
10	0x3df26b1d	0.118368365
11	0xbe78332a	-0.24238268
12	0xbe812685	-0.252247
13	0x3d53dcb1	0.05172414
14	0xbe9343a9	-0.28762558
15	0xbe321cc6	-0.17393789
16	0x3d8c22b6	0.06842558
17	0x3e16e838	0.14737022
18	0xbece1d11	-0.4025655
19	0xbb7c6dcd	-0.0038517595
20	0x3d16fdd7	0.036863174
21	0xbe019f3f	-0.12658404
22	0x3e20b0fd	0.15692516
23	0xbd3d8d3c	-0.04627727
24	0xbdfb8181	-0.1228056
25	0xbecd9fce	-0.40160984
26	0xbe7701fb	-0.24121849
27	0xbcbe821d	-0.023255402
28	0xbe781572	-0.2422693
29	0xbe8c31d9	-0.2738178
30	0xbe860aab	-0.26180014
31	0xbed85619	-0.42253187
32	0xbe9cea73	-0.3064762
33	0xbe8af695	-0.27141252
34	0xbe6cc2f6	-0.23121247
35	0x3e2963a9	0.16541924
36	0xbe53cd99	-0.20683898
37	0xbe7216e8	-0.2364155
38	0x3d64c9d0	0.055856526
39	0xbe624c12	-0.22099331
40	0x3c849c92	0.01618794
41	0xbb1f6215	-0.0024319936
42	0x3e0333ac	0.1281268
43	0xbee1178a	-0.4396327
44	0x3c66257b	0.014047022
45	0x3d2f6559	0.042821262
46	0xbecb570c	-0.3971485
47	0xbee3507e	-0.44397348
48	0x3cad8bb1	0.021184774
49	0x3d1f24e0	0.038853526
50	0xbea19548	-0.31559205
51	0xbea0c4b7	-0.31400082
52	0x3de367c5	0.11103777
53	0xbef44a9b	-0.4771317
54	0xbece8a80	-0.40340042
55	0xbd4c926e	-0.049944334
56	0xbdc83afe	-0.09776877
57	0x3cc47893	0.023983276
58	0xbdc7eb32	-0.09761657
59	0xbe8ee1dc	-0.27906692
60	0xbbadda40	-0.0053055584
61	0xbe31662b	-0.1732413
62	0x3e44db86	0.19224367
63	0xbe020f18	-0.1270107
64	0xbe0ef479	-0.13960446
65	0xbc02ca96	-0.007982871
66	0xbd78d03e	-0.06074547
67	0x3da2fa81	0.07957936
68	0xbd5f5f8a	-0.054534473
69	0xbe84754e	-0.25870746
70	0xbeeda185	-0.46412292
71	0xbe36c092	-0.17846897
72	0x3d9fb27b	0.07797714
73	0xbe246e3a	-0.16057673
74	0xbd1ba058	-0.037994713
75	0xbeae4041	-0.34033397
76	0xbd99e2f0	-0.07513988
77	0x3e32675b	0.1742224
78	0x3def8857	0.11695927
79	0x3e4d98c6	0.2007781
80	0x3d469c60	0.048488975
81	0xbea6cdc3	-0.3257886
82	0xbe0d73d5	-0.13813718
83	0x3d6885dd	0.056768287
84	0xbdc5fe3b	-0.09667631
85	0xbed2be00	-0.41160583
86	0xbeb58321	-0.35451606
87	0xbb04cf78	-0.0020265263
88	0x3e2fc669	0.17165531
89	0xbce7a9c1	-0.028279187
90	0xbcd70644	-0.026248105
91	0x3e48785a	0.1957716
92	0xbe64fdf7	-0.22362505
93	0x3dddca59	0.108296104
94	0xbe590a02	-0.21195224
95	0xbe16f728	-0.1474272
96	0xbe95da75	-0.29268232
97	0xbe861541	-0.2618809
98	0xbeb62a4e	-0.3557915
99	0xbedf46df	-0.43608758
100	0x3e6f8485	0.23390396
101	0xbdb012a2	-0.08597304
102	0xbd6f72eb	-0.058459204
103	0x3dbf0b5e	0.0932834
104	0x3ddcd7d0	0.107833505
105	0x3e08e661	0.13369133
106	0xbd9318b7	-0.07182448
107	0xbeb4c470	-0.3530612
108	0x3e30b55c	0.17256683
109	0xbe8b2f7b	-0.27184662
110	0xbdf25714	-0.11833015
111	0x3d97f168	0.074190915
112	0x3e023e9d	0.12719198
113	0xbd9f4781	-0.0777731
114	0xbeaa0ab6	-0.33211297
115	0x3e518137	0.20459448
116	0xbe193ed1	-0.14965369
117	0x3d25408a	0.040344752
118	0xbe8c1aa6	-0.2736408
119	0xbe293355	-0.16523488
120	0xbeac1ba6	-0.33614844
121	0x3da0e228	0.07855636
122	0x3df5a992	0.119952336
123	0xbe17de83	-0.14830975
124	0xbe5dc656	-0.2165769
125	0x3d9b5029	0.07583649
126	0x3cec33e6	0.02883334
127	0xbe17fe05	-0.14842995

policy.net.2.weight f4 [5, 128]
0	0xbf61e074	-0.88233113
1	0xbeccf4c0	-0.4003048
2	0xbfa96fde	-1.3237264
3	0xbf03b40f	-0.5144662
4	0xc04b7d7b	-3.1795337
5	0xbfd50553	-1.664225
6	0xbfe23298	-1.767169
7	0x3cb5c7d0	0.022190005
8	0xbe915e90	-0.28392458
9	0xbf543713	-0.82896537
10	0xbfa1104b	-1.2583097
11	0xbf6eabcb	-0.93230885
12	0xbeaa0fdb	-0.33215222
13	0xbf6183fe	-0.8809203
14	0xbf00479e	-0.5010928
15	0xbf5dce4c	-0.8664291
16	0xbf95b6d8	-1.1696424
17	0xbf1c8770	-0.6114416
18	0xbe44764b	-0.1918575
19	0xbfb452bb	-1.4087747
20	0xc025eead	-2.5926926
21	0xbef0c133	-0.470224
22	0xbeaf44a5	-0.3423206
23	0xbff3b73c	-1.9040294
24	0xbfa3f543	-1.2809223
25	0xbf984a4a	-1.1897671
26	0xbeab61c0	-0.33473015
27	0xbe85326e	-0.26015037
28	0xbef762b1	-0.48317483
29	0xbeaec2e4	-0.34133065
30	0xbf01f517	-0.507646
31	0xbea51fac	-0.32250726
32	0xbf3ccaa4	-0.73746705
33	0xbe3b9cd1	-0.1832154
34	0xbefd7687	-0.49504492
35	0xbed9ed76	-0.4256398
36	0xbfcfdff4	-1.624022
37	0xc0235515	-2.552068
38	0xbf4f541e	-0.8098773
39	0xbf728e25	-0.94748145
40	0xbf4a4e9c	-0.790262
41	0xbe607195	-0.21918328
42	0xbf6fdc7b	-0.936958
43	0xbe9cf839	-0.3065813
44	0xbfcb9875	-1.5905901
45	0xbefccd32	-0.49375302
46	0xbe608a60	-0.21927786
47	0xbe853db6	-0.26023644
48	0xbf1cce41	-0.6125222
49	0xc0069eab	-2.1034343
50	0xbf63d88c	-0.890023
51	0xbede4fb1	-0.43420175
52	0xbf5a8288	-0.85355425
53	0xbf3f6d7f	-0.7477645
54	0xbed14dff	-0.4087982
55	0xbf64b547	-0.8933911
56	0xc05a910c	-3.415103
57	0xbfadd98c	-1.3582015
58	0xbf364b4d	-0.7120865
59	0xc00ba448	-2.181902
60	0xbedf7a83	-0.43648157
61	0xbef30e52	-0.47471863
62	0xbecd6f90	-0.40124178
63	0xc0620f02	-3.532166
64	0xc06efbbb	-3.7341144
65	0xc035ca4c	-2.8404722
66	0xbe8d7c30	-0.2763381
67	0xc056db8e	-3.3571506
68	0xbfe8e70f	-1.8195513
69	0xbe55af4c	-0.20867652
70	0xbfc16fde	-1.5112264
71	0xc04363d3	-3.0529678
72	0xbf6050b0	-0.8762312
73	0xbea34de8	-0.31895375
74	0xbf9e3c1b	-1.2362093
75	0xbd8b2090	-0.0679332
76	0xbf173f6a	-0.5908114
77	0xbeb732bf	-0.35780904
78	0xbeb2fe63	-0.34959707
79	0xbf231ae6	-0.6371292
80	0xbfb800dd	-1.4375263
81	0xbe9fdbeb	-0.31222472
82	0xbe7c412f	-0.2463424
83	0xbe96a7c2	-0.29424864
84	0xbed4af04	-0.41539776
85	0xbe200f7e	-0.1563091
86	0xbf8603e9	-1.0469943
87	0xc00e5733	-2.2240722
88	0xbfa6f101	-1.3042299
89	0xbf028d46	-0.50996816
90	0xbf2d2274	-0.67630696
91	0xbf268bf7	-0.6505732
92	0xbf25876c	-0.6465976
93	0xc01d8059	-2.4609587
94	0xbf356633	-0.7085907
95	0xbeaeeaac	-0.34163415
96	0xbe83ab46	-0.2571661
97	0xbf3bb02c	-0.7331569
98	0xbf8c1a35	-1.0945498
99	0xbe8d9c02	-0.27658087
100	0xbf748b91	-0.9552546
101	0xbf2375cf	-0.63851637
102	0xbf17719c	-0.5915773
103	0xbfa203e1	-1.2657434
104	0xbeb309fd	-0.34968558
105	0xbf7518ad	-0.9574078
106	0xbf51a298	-0.81888723
107	0xbef02a6c	-0.46907365
108	0xc01b43fd	-2.4260247
109	0xbe0c0229	-0.13672699
110	0xbf01edd5	-0.5075353
111	0xc022eb6a	-2.5456185
112	0xbfcede5a	-1.6161606
113	0xbf869022	-1.0512736
114	0xbe850e9b	-0.25987706
115	0xbf8d81fa	-1.1055291
116	0xbf9c9c29	-1.2235156
117	0xbfac6fdc	-1.3471637
118	0xbfafc097	-1.3730649
119	0xbeb8fd53	-0.3613077
120	0xbeb884f6	-0.3603894
121	0xbf03f93c	-0.51552176
122	0xbf208a55	-0.6271108
123	0xbe788859	-0.24270763
124	0xbea94e04	-0.33067334
125	0xbec4828c	-0.3838085
126	0xbedbb0cd	-0.42908326
127	0xbfa5a5c8	-1.2941217
128	0xbd8732eb	-0.06601509
129	0xbe228881	-0.15872385
130	0x3cae81e6	0.021302175
131	0x3d8c0b31	0.06838072
132	0xbf8419d9	-1.0320388
133	0x3f29af9f	0.662836
134	0xbd90af24	-0.070646554
135	0xbe19a467	-0.15004121
136	0x3d7d216c	0.06179945
137	0x3e1b5a82	0.15171245
138	0x3dc0009f	0.093751185
139	0x3d2f3593	0.0427757
140	0x3ac24f35	0.0014824631
141	0x3db37399	0.08762283
142	0x3d506925	0.050881524
143	0x3d4566c6	0.048193716
144	0x3be46f29	0.006971259
145	0x3dfd3564	0.12363699
146	0xbe72f92f	-0.23727868
147	0x3d32c3a4	0.04364361
148	0x3e00e55d	0.12587495
149	0xbb44d16e	-0.0030032056
150	0x3dc9f0a8	0.09860355
151	0xbd6ee8e3	-0.058327567
152	0x3f576ad4	0.8414738
153	0x3e0706b8	0.13186157
154	0xbd2233e2	-0.03960026
155	0xbeb59c65	-0.35470882
156	0xbd991efe	-0.074766144
157	0x3dec2374	0.115302
158	0x3d35e572	0.04440827
159	0x3e8c8e6c	0.2745241
160	0x3f878f5f	1.0590628
161	0xbd513795	-0.051078398
162	0xbef9ec8d	-0.48813286
163	0x3d336165	0.043794055
164	0x3dbdce24	0.09267834
165	0xbf26e7e8	-0.6519761
166	0x3cf9f3bb	0.030511728
167	0x3c597ea1	0.01327482
168	0xbe8318c8	-0.25604844
169	0xbe5dd3cb	-0.21662824
170	0xbe3f4d21	-0.18681766
171	0xbdf5c041	-0.1199956
172	0x3c1112c6	0.008854574
173	0x3e83d8b3	0.25751266
174	0x3dfe19f9	0.12407298
175	0xbe0e865b	-0.1391844
176	0x3dbc9481	0.09208012
177	0x3ece5435	0.4029862
178	0xbf39ef03	-0.7263033
179	0x3c0bb7a1	0.008527667
180	0x3da64c03	0.08119967
181	0x3decbe8b	0.11559781
182	0xbe7bf326	-0.24604473
183	0xbcf65633	-0.0300704
184	0x3f2141e0	0.6299114
185	0xbddb9a7f	-0.10722827
186	0x3d16b5ea	0.03679458
187	0x3bedee7b	0.007261095
188	0x3d265496	0.04060801
189	0x3ce1706f	0.027519433
190	0x3dcb8052	0.099365845
191	0x3e77ca21	0.241982
192	0x3e6c736e	0.23090908
193	0xbe2c5440	-0.16829014
194	0x3cfe5a98	0.031049058
195	0xbe8e77f5	-0.27825895
196	0xbe581d9e	-0.21105048
197	0x3dc285ca	0.094981745
198	0xbef5120c	-0.4786533
199	0x3d88fe47	0.066891246
200	0xbee3175a	-0.44353753
201	0x3dcc3618	0.09971255
202	0x3e05a70d	0.13052006
203	0x3d6b22d7	0.057406273
204	0xbf4625a1	-0.7740117
205	0x3de929f2	0.113849536
206	0xbf23c2bf	-0.63969034
207	0xbb966231	-0.004589342
208	0x3c1060e3	0.008812162
209	0x3d22d6ed	0.03975575
210	0x3da9c6e3	0.08289888
211	0x3d38bb2f	0.045100387
212	0x3e157d73	0.14598636
213	0xbeff074c	-0.49810255
214	0xbee30773	-0.4434162
215	0xbf8488d0	-1.0354252
216	0x3d70c3d7	0.058780517
217	0x3dc86ea6	0.097867295
218	0x3e0f1211	0.13971736
219	0x3efff3b7	0.49990627
220	0x3d9f77ab	0.07786497
221	0x3e26d65a	0.16292706
222	0xbe9cd30d	-0.3062977
223	0xbf8d23ad	-1.1026512
224	0x3ce4b5d1	0.027918728
225	0x3da21589	0.07914264
226	0x3da5bce7	0.08092671
227	0xbebde022	-0.37085062
228	0x3d8a21f5	0.06744758
229	0x3db85a3d	0.090015866
230	0x3d013284	0.031542316
231	0x3d82af53	0.06381097
232	0x3d0daa5b	0.03458629
233	0xbe0e085d	-0.13870378
234	0x3dcbb67e	0.09946917
235	0xbf94edd1	-1.1635076
236	0xbe750bd1	-0.23930289
237	0xbf7e13aa	-0.99248755
238	0x3decd52c	0.11564097
239	0x3e54b46f	0.20771955
240	0x3e2c7c9c	0.1684441
241	0x3ed85965	0.42255703
242	0x3cca6dfb	0.024710646
243	0xbeed1f61	-0.46313003
244	0x3e9a70fc	0.30164325
245	0xbe3026c1	-0.17202283
246	0x3d4dd884	0.050255314
247	0x3b124cea	0.0022323676
248	0xbd62cca8	-0.055370957
249	0x3d3c1182	0.045915134
250	0xbf8ad5f0	-1.0846539
251	0xbf0ebae4	-0.5575392
252	0x3db43484	0.08799079
253	0x3d3d7e0a	0.04626278
254	0x3dcd6540	0.100290775
255	0x3c4fa626	0.01267389

policy.net.2.bias f4 [5]
0	0xc019372b	-2.3939922
1	0xbddf42a8	-0.109013855
2	0x3dede2e1	0.11615539
3	0xbd2602c9	-0.04053
4	0x3e49304b	0.19647329

exp_avg f4 [900, 16]
0	0x378fe6bd	1.7154374e-05
1	0xb7acf268	-2.0616877e-05
2	0xb6d709af	-6.4086266e-06
3	0x371b98e5	9.2743185e-06
4	0x377f5b8e	1.5220501e-05
5	0xb74fcbb2	-1.2385588e-05
6	0xb5b537e2	-1.3501815e-06
7	0x35e0c6b1	1.6747127e-06
8	0x36a9559c	5.0465587e-06
9	0x37dff165	2.669608e-05
10	0xb81dd4a2	-3.7629747e-05
11	0xb6f0ef2f	-7.180402e-06
12	0x36efd230	7.147224e-06
13	0x36157ff8	2.2277218e-06
14	0x38272d0b	3.9857852e-05
15	0x37535098	1.2595345e-05
16	0x36cad144	6.044431e-06
17	0x37b13ae4	2.1127467e-05
18	0xb70f05e8	-8.524839e-06
19	0x37a04f75	1.9110486e-05
20	0xb5fa113f	-1.8631471e-06
21	0x366b57d8	3.506886e-06
22	0xb7c93ece	-2.3990313e-05
23	0xb727595a	-9.9747795e-06
24	0x378b927b	1.6638302e-05
25	0xb774db8c	-1.4594651e-05
26	0xb6ddcc12	-6.61007e-06
27	0xb71c42f6	-9.313915e-06
28	0xb6a1f49c	-4.82665e-06
29	0xb75287c2	-1.2548584e-05
30	0x36f6853f	7.346883e-06
31	0x368fbbd3	4.2835977e-06
32	0x37cea5e4	2.4634362e-05
33	0x36e52537	6.829064e-06
34	0xb77b55c0	-1.4980731e-05
35	0xb789a505	-1.6408516e-05
36	0xb646826d	-2.9580217e-06
37	0x37a63b20	1.9816274e-05
38	0xb7e1d760	-2.6922382e-05
39	0x348b559f	2.5953065e-07
40	0xb751eef6	-1.2513008e-05
41	0x36a4f5fd	4.9162177e-06
42	0x373d1f2d	1.12725365e-05
43	0x369982a8	4.5749657e-06
44	0x37a19647	1.9262674e-05
45	0xb6e6dd38	-6.8802874e-06
46	0xb778116e	-1.478601e-05
47	0xb6c57690	-5.88486e-06
48	0x36e8aba8	6.934122e-06
49	0x36ba0eff	5.5449777e-06
50	0xb74dc8bd	-1.226569e-05
51	0xb54d6a2c	-7.652295e-07
52	0x365e2b7b	3.3105887e-06
53	0x362d6427	2.5837305e-06
54	0xb7bfc26f	-2.2859515e-05
55	0xb667c2de	-3.453511e-06
56	0xb6feccc2	-7.593627e-06
57	0xb5c90e33	-1.49798e-06
58	0x3603b68a	1.9626773e-06
59	0x371ea41a	9.455742e-06
60	0xb5bbcf1e	-1.3992865e-06
61	0xb702ad31	-7.788928e-06
62	0x375c55b1	1.3132973e-05
63	0x36ca7192	6.0332904e-06
64	0x36ad100b	5.1576694e-06
65	0x36b0ebd0	5.272661e-06
66	0x36628895	3.3756126e-06
67	0xb610a3de	-2.1553055e-06
68	0x3644868b	2.928459e-06
69	0xb61a7573	-2.3016153e-06
70	0x373c4c1d	1.1223395e-05
71	0x378f0ff6	1.705436e-05
72	0x36c1c037	5.774225e-06
73	0xb7147d64	-8.850682e-06
74	0xb75897f5	-1.29099835e-05
75	0x3601f482	1.936482e-06
76	0x3751e303	1.2510226e-05
77	0xb1d185c3	-6.0979075e-09
78	0x3800edd0	3.073906e-05
79	0x37442c44	1.1692817e-05
80	0x00000000	0.0
81	0x00000000	0.0
82	0x00000000	0.0
83	0x00000000	0.0
84	0x00000000	0.0
85	0x00000000	0.0
86	0x00000000	0.0
87	0x00000000	0.0
88	0x00000000	0.0
89	0x00000000	0.0
90	0x00000000	0.0
91	0x00000000	0.0
92	0x00000000	0.0
93	0x00000000	0.0
94	0x00000000	0.0
95	0x00000000	0.0
96	0x00000000	0.0
97	0x00000000	0.0
98	0x00000000	0.0
99	0x00000000	0.0
100	0x00000000	0.0
101	0x00000000	0.0
102	0x00000000	0.0
103	0x00000000	0.0
104	0x00000000	0.0
105	0x00000000	0.0
106	0x00000000	0.0
107	0x00000000	0.0
108	0x00000000	0.0
109	0x00000000	0.0
110	0x00000000	0.0
111	0x00000000	0.0
112	0x00000000	0.0
113	0x00000000	0.0
114	0x00000000	0.0
115	0x00000000	0.0
116	0x00000000	0.0
117	0x00000000	0.0
118	0x00000000	0.0
119	0x00000000	0.0
120	0x00000000	0.0
121	0x00000000	0.0
122	0x00000000	0.0
123	0x00000000	0.0
124	0x00000000	0.0
125	0x00000000	0.0
126	0x00000000	0.0
127	0x00000000	0.0
128	0x00000000	0.0
129	0x00000000	0.0
130	0x00000000	0.0
131	0x00000000	0.0
132	0x00000000	0.0
133	0x00000000	0.0
134	0x00000000	0.0
135	0x00000000	0.0
136	0x00000000	0.0
137	0x00000000	0.0
138	0x00000000	0.0
139	0x00000000	0.0
140	0x00000000	0.0
141	0x00000000	0.0
142	0x00000000	0.0
143	0x00000000	0.0
144	0x00000000	0.0
145	0x00000000	0.0
146	0x00000000	0.0
147	0x00000000	0.0
148	0x00000000	0.0
149	0x00000000	0.0
150	0x00000000	0.0
151	0x00000000	0.0
152	0x00000000	0.0
153	0x00000000	0.0
154	0x00000000	0.0
155	0x00000000	0.0
156	0x00000000	0.0
157	0x00000000	0.0
158	0x00000000	0.0
159	0x00000000	0.0
160	0x00000000	0.0
161	0x00000000	0.0
162	0x00000000	0.0
163	0x00000000	0.0
164	0x00000000	0.0
165	0x00000000	0.0
166	0x00000000	0.0
167	0x00000000	0.0
168	0x00000000	0.0
169	0x00000000	0.0
170	0x00000000	0.0
171	0x00000000	0.0
172	0x00000000	0.0
173	0x00000000	0.0
174	0x00000000	0.0
175	0x00000000	0.0
176	0x00000000	0.0
177	0x00000000	0.0
178	0x00000000	0.0
179	0x00000000	0.0
180	0x00000000	0.0
181	0x00000000	0.0
182	0x00000000	0.0
183	0x00000000	0.0
184	0x00000000	0.0
185	0x00000000	0.0
186	0x00000000	0.0
187	0x00000000	0.0
188	0x00000000	0.0
189	0x00000000	0.0
190	0x00000000	0.0
191	0x00000000	0.0
192	0xb9942b30	-0.00028260937
193	0xb70e8e05	-8.496926e-06
194	0xb90d61a2	-0.00013483179
195	0x38b30c94	8.537728e-05
196	0xb909026a	-0.00013066237
197	0xb897a671	-7.231243e-05
198	0x39203633	0.0001527898
199	0xb80036c2	-3.0568575e-05
200	0xb8314cff	-4.2271797e-05
201	0xb9738aa7	-0.00023225938
202	0xb97fb1ab	-0.00024384882
203	0xb88bf10c	-6.672935e-05
204	0x39ebe05b	0.0004498985
205	0x38b991dc	8.848656e-05
206	0x37b2e000	2.1323562e-05
207	0xb8da7ef6	-0.000104186984
208	0xb784d003	-1.583249e-05
209	0xb7b39c87	-2.1411352e-05
210	0xb6780cb0	-3.6962265e-06
211	0xb6c898b3	-5.978241e-06
212	0x360094e6	1.9160157e-06
213	0x37dcb303	2.6309403e-05
214	0x382d56db	4.1327305e-05
215	0xb7c2719b	-2.3179504e-05
216	0xb712c7a9	-8.748765e-06
217	0xb7df0824	-2.6587462e-05
218	0xb82b36a0	-4.082045e-05
219	0xb8161696	-3.578382e-05
220	0x369c1161	4.6511855e-06
221	0xb6bf87d2	-5.708055e-06
222	0xb84c9329	-4.8774444e-05
223	0xb809d283	-3.28594e-05
224	0xb71c798f	-9.326627e-06
225	0xb761a931	-1.3450438e-05
226	0xb60833ec	-2.0295802e-06
227	0x37fdb50d	3.0244259e-05
228	0x37ed204e	2.8267645e-05
229	0x37050363	7.928206e-06
230	0x3773f0af	1.4539967e-05
231	0x3816832e	3.5884957e-05
232	0xb83adae7	-4.4549724e-05
233	0xb8083018	-3.2469718e-05
234	0xb8229540	-3.876281e-05
235	0x3816e07a	3.5971847e-05
236	0x38141442	3.5304816e-05
237	0x37dfabc4	2.6663656e-05
238	0xb825021e	-3.9341037e-05
239	0x37b8a660	2.2011984e-05
240	0xb896d381	-7.191953e-05
241	0x375bef75	1.310917e-05
242	0x382f8e3f	4.185573e-05
243	0x36ee7bb9	7.107356e-06
244	0x3888566d	6.5010834e-05
245	0xb749c51c	-1.2026427e-05
246	0x38987f94	7.271688e-05
247	0x37d8ee64	2.5860216e-05
248	0x37e79b9d	2.7609809e-05
249	0x374b51e8	1.2118813e-05
250	0xb7908a8a	-1.723065e-05
251	0x3867a83b	5.523137e-05
252	0xb784eead	-1.5846768e-05
253	0x36c7a446	5.949786e-06
254	0xb7540781	-1.2637932e-05
255	0xb75a1e89	-1.3000922e-05
