SGE_Transformer/model/2_room/eil_2_room_198_model/EBC_model_141999.pth (torch, 319327 bytes, 27 tensors)

encoder.embedding.weight f4 [900, 16]
000000 90 86 1f 3e 90 eb 84 bf fa 8e 3c 3f da ad 01 40
       0.15578675 -1.0384388 0.73655665 2.026236
000010 94 f9 e0 3e 4b 1a 4c 3f f6 a8 1c 3e aa 32 07 3f
       0.43940413 0.7972762 0.15298828 0.5281168
000020 d8 e6 c2 3f 6b 9c b3 3f 6e 50 b5 3f 50 30 57 bf
       1.5226698 1.403211 1.416517 -0.84058094
000030 de 34 de 3f 69 84 ae be 6e 16 67 bf 8d e8 25 3f
       1.7359884 -0.34085396 -0.902686 0.6480797
000040 49 9d 7e bf 16 2c 89 bd 2e 48 c9 3e 88 6d 0f bf
       -0.9945875 -0.06697862 0.3931288 -0.56026506
000050 4b 2d d9 3e a9 9b 0e 3f 45 5f 8a 3e 59 9c 2f be
       0.42417368 0.5570627 0.2702581 -0.17149486
000060 d4 e5 84 bf 96 73 c5 bf dd b1 0d 40 89 2e c2 bf
       -1.0382638 -1.5425899 2.213981 -1.5170451
000070 55 1f 7f 3f eb 32 02 be b9 5b 84 be 77 30 a9 bf
       0.99657184 -0.12714736 -0.2585123 -1.3217915
000080 00 17 15 3f 46 ed 04 be 28 e2 0e bf a0 2d f3 3e
       0.5823822 -0.12981138 -0.5581384 0.47495747
000090 55 6d 75 3d 95 dd c4 3c 9e 92 b9 be 49 f4 f1 bf
       0.05991872 0.02403144 -0.36244673 -1.8902675
0000a0 bf db 62 bf 21 b4 94 3f 94 17 6c bf ee 34 79 be
       -0.88616556 1.1617471 -0.9222348 -0.24336597
0000b0 d9 d0 8e bf 8e 66 93 3e 54 73 66 c0 89 73 8f bf
       -1.1157485 0.2878918 -3.600789 -1.1207134
0000c0 17 28 0d 3f f0 81 1d bf ba f8 bf bf 70 f0 77 bf
       0.551393 -0.61526394 -1.499778 -0.96851254
0000d0 46 9a 4a 3f 31 e6 d3 3f 98 6d 9b bf b2 38 0b 3f
       0.7914165 1.6554624 -1.214282 0.54383385
0000e0 41 e5 bd bf a7 ec cd 3d a0 7e 5a 3f e4 8e ca bf
       -1.4835588 0.100549035 0.85349464 -1.5824857
0000f0 10 f3 94 bf 5f e2 3d bf fa 53 48 bf 95 1e 22 c0
       -1.1636677 -0.7417354 -0.7825314 -2.5331166
000100 93 4e 58 3f 50 ca d0 3e 99 39 dc bf 6a da 14 40
       0.84494895 0.40779352 -1.7205077 2.325831
000110 a1 78 83 bf ba c0 0f 3e 58 d6 cc bf 4b 82 0e 3f
       -1.0271188 0.14038363 -1.6002913 0.5566756
000120 d1 91 60 bf 0d c1 74 be e7 ea 51 3e f8 93 e2 bf
       -0.877225 -0.23901768 0.20499764 -1.7701406
000130 d1 94 0c c0 62 6c 1b bc 89 9f 0e bf dc 97 df 3d
       -2.196583 -0.00948629 -0.5571218 0.10917637
000140 b5 18 19 3e 46 86 2e 3f 0d aa c8 3f 76 7d f3 3e
       0.14950831 0.68173635 1.5676895 0.47556657
000150 41 a4 80 bf 09 fb 82 bf 3c 7d 05 3f 5b e3 f6 be
       -1.0050126 -1.023286 0.5214422 -0.48220333
000160 c4 ca 45 bf 45 a6 2f 40 be ea fc bf 30 f0 d4 3e
       -0.7726252 2.7445233 -1.9759138 0.415895
000170 13 9d c8 3f c3 21 23 bd 97 e2 78 bf b8 49 36 bf
       1.5672935 -0.03982712 -0.9722075 -0.71206236
000180 b5 b7 75 3e e5 7c 99 bf 17 1e 88 3f 14 4c 2d bf
       0.2399586 -1.199124 1.0634183 -0.6769421
000190 0c d4 29 bf 84 2e ac 3e 80 b9 04 3f c4 d6 84 3f
       -0.6633918 0.3362924 0.5184555 1.0378041
0001a0 3d e2 29 3d 8d 83 57 3f 5a 75 06 be fc 08 bf bf
       0.041475523 0.84185106 -0.13130704 -1.4924617
0001b0 20 26 ba 3e 4a d5 02 bf 38 46 d6 be 3d 48 97 3f
       0.36357212 -0.51106703 -0.41850448 1.181892
0001c0 72 2c 88 be d2 df 4d 3f a6 7b 9d be 5f 48 ad 3f
       -0.2659641 0.8041965 -0.307584 1.3537711
0001d0 44 c2 2a 3f 59 8f 71 be 81 54 2f be 23 c7 0f 3f
       0.66702676 -0.23589839 -0.1712208 0.56163234
0001e0 dc 35 9d 3e c8 f4 ac 3e 74 00 05 3e 6f 95 13 3f
       0.30705154 0.33780503 0.12988454 0.5764989
0001f0 d1 58 a6 3c c0 fd b2 3f 8f 5e b5 3f c0 bf c0 bb
       0.020306023 1.3983688 1.4169482 -0.0058822334
000200 45 e8 61 bf e3 f6 f9 be f9 94 ad bf 1a 0e 6f be
       -0.8824504 -0.48821172 -1.3561088 -0.23345223
000210 17 35 ea 3f ed 78 cb 3f 8a 5e 36 3e ba 0f 03 3f
       1.8297452 1.5896279 0.17809501 0.5119587
000220 f0 d7 0b bf 86 c2 b8 bf 32 3e f6 bf af 88 90 bf
       -0.5462637 -1.4434364 -1.923773 -1.1291713
000230 94 de 80 3f c2 11 10 bc 91 f0 4d bf 8a a0 fb 3f
       1.0067925 -0.008793296 -0.804452 1.9658368
000240 0a f0 d2 3f 35 e7 11 3f 9c 2e 4a bc 3f 44 bc bf
       1.6479504 0.5699342 -0.012340214 -1.4708327
000250 b9 77 3d bd 99 66 08 bf bd e4 28 3f 7d f5 0b 40
       -0.046256755 -0.5328155 0.65974027 2.1868584
000260 45 c5 f9 3e 29 80 0b 40 3a 38 bb bf eb 0b b2 bf
       0.48783317 2.1796973 -1.4626534 -1.3909887
000270 93 46 dd be f2 92 18 be f7 7c d0 3d d6 eb 33 be
       -0.43217906 -0.14899805 0.10180085 -0.17570433
000280 f3 e7 a4 3e 5f 13 9a 3f 16 cc ae 3d e8 62 e1 bf
       0.32208213 1.2037162 0.0853502 -1.7608309
000290 64 f5 73 3d 04 73 a7 bf d0 1c 6c 3e 8b be 75 3f
       0.059560195 -1.3081975 0.23057866 0.9599387
0002a0 40 d0 10 3e 35 a8 5c 3f 5c 43 8c bf 40 0f 92 bf
       0.14141941 0.86194164 -1.0958056 -1.1410904
0002b0 21 91 c0 be 63 03 83 be a7 4a 91 be bb a9 8f 3f
       -0.37610725 -0.2558852 -0.28377268 1.1223673
0002c0 ac 14 04 40 91 22 06 3e bd 48 69 3f 84 68 ca 3d
       2.0637617 0.13099124 0.91126615 0.09883216
0002d0 ba 85 2a bf 05 a8 6e 3f a0 55 d1 3f 17 dc 8c bf
       -0.666103 0.9322513 1.6354256 -1.1004666
0002e0 bb 40 3c 3f 7e 9a 01 40 37 7b 3a c0 95 5f 43 3e
       0.7353627 2.0250545 -2.9137704 0.1907943
0002f0 c2 b8 2d 3e 87 34 33 bf 8a 28 c8 bd 91 a1 03 3f
       0.16965011 -0.70002025 -0.09773357 0.51418406
000300 f4 ad 40 3f f8 b3 16 be 21 b5 88 bf 77 bc f5 3f
       0.7526543 -0.1471709 -1.0680276 1.919814
000310 9d 1f cc 3e 6d 2a 07 bf 40 25 93 bf 00 52 96 bf
       0.3986787 -0.5279911 -1.1495743 -1.1743774
000320 7d b9 dc 3f 04 19 8f 3f eb f7 b0 3f bb f8 c3 bd
       1.7244107 1.1179509 1.3825659 -0.09568926
000330 cc 06 4e bf d2 26 d7 bf b8 96 eb bf 49 64 ce bf
       -0.8047912 -1.6808722 -1.8405371 -1.6124355
000340 5a 47 ed 3f f5 98 c6 bd 9d b8 20 bf 97 85 db 3e
       1.85374 -0.09697143 -0.627817 0.42875358
000350 cc 18 39 3f 42 b3 0b bf be 59 81 be c5 7b f6 be
       0.7230346 -0.545704 -0.2526378 -0.48141304
000360 72 84 5b be c9 7f 31 bf 06 78 25 3f d5 4c 04 bf
       -0.21437243 -0.6933561 0.64636266 -0.51679736
000370 cf 62 7c 3f d2 f3 b6 3f 83 17 33 3f 72 12 20 bf
       0.9858827 1.4293158 0.6995775 -0.62528145
000380 50 dd a1 bf 0f 72 d7 bf 8b d3 c6 be 3c 90 25 bf
       -1.2645664 -1.6831683 -0.3883327 -0.6467321
000390 83 c9 84 3f ae f4 37 3f b6 20 da bf 2f 10 f1 bf
       1.0373996 0.71857727 -1.7041233 -1.8833064
0003a0 02 c6 9f 3f df 53 0a 3f c2 9b c8 3e d1 dd b1 bf
       1.2482302 0.5403423 0.39181334 -1.3895818
0003b0 d5 e0 83 bf 01 40 94 be 6b 20 81 be 1d b0 d9 3e
       -1.0302988 -0.2895508 -0.25220045 0.42517176
0003c0 a0 c9 de bc 8a b3 90 be 9f 99 b2 3d 77 66 75 3f
       -0.027195752 -0.28261977 0.08720707 0.95859474
0003d0 fc 3d e4 3f a4 90 14 3f 78 ee bc 3d 3f 66 d5 bf
       1.7831416 0.58033204 0.09225172 -1.6671828
0003e0 53 20 07 bf b4 64 f4 bf 54 12 bf 3f 7f 4c 61 be
       -0.527837 -1.9093232 1.4927468 -0.22001837
0003f0 aa 6d 68 3f 34 2f b1 bd 3f 58 18 40 dc 65 2d be
       0.90792334 -0.086515814 2.380386 -0.16933388

encoder.lstm.weight_ih_l0 f4 [128, 16]
000000 6b cf d8 be 36 86 5d 3e a1 71 f6 be e3 61 46 bf
       -0.42345747 0.21633229 -0.48133567 -0.77493113
000010 f2 e4 36 be f7 cf ff 3e c3 b1 63 be b8 be b3 3e
       -0.17860773 0.49963352 -0.2223578 0.35106444
000020 29 72 86 bc 7e b2 82 be 91 2e 30 bf 8a a0 cc bd
       -0.016411858 -0.25526804 -0.68821055 -0.09991558
000030 9c b2 e2 3e 91 35 83 be ac fd 37 bd 2c fb e4 3e
       0.44276893 -0.25626805 -0.044919655 0.4472288
000040 59 c4 5d bb bd 14 24 3f 1c 61 26 bf 5b ac 8b be
       -0.0033838956 0.64094144 -0.6499193 -0.27279934
000050 df ce 6f be 69 d6 f9 be 81 c5 ac 3e 64 dc c6 3e
       -0.23418759 -0.48796394 0.33744434 0.3884002
000060 3f ed 69 be d7 de 8a bf e9 e8 bf be ed 52 58 be
       -0.22844408 -1.0849255 -0.37482384 -0.21125384
000070 48 2d b4 bd c7 a0 8e bf 20 7a 46 3e 5b 4d 8f bc
       -0.08797699 -1.1142815 0.19382524 -0.01749294
000080 a6 ed 07 3c a7 a2 8f be fd f9 32 be 58 94 17 3e
       0.008296406 -0.2805378 -0.17478175 0.14802682
000090 08 07 47 3d 38 fd e1 3d e9 de ec 3e db a8 af bb
       0.04859069 0.11034626 0.46263817 -0.0053607053
0000a0 39 62 8a 3e fa 0a 46 be 33 30 c6 be 99 aa f4 3e
       0.27028063 -0.19340125 -0.38708648 0.47786406
0000b0 e1 5c 4a 3d 76 ba f1 3d f8 8c a4 be 6e 6c fd 3e
       0.049404982 0.11803143 -0.321388 0.49496788
0000c0 d0 41 07 bf be d6 a0 3e f9 ca 55 3f 39 39 92 3e
       -0.52834797 0.31413835 0.83512837 0.28559282
0000d0 af 98 90 bd 59 f8 27 3e cc 92 50 be f6 c7 34 bd
       -0.07060372 0.16403331 -0.20368499 -0.04413601
0000e0 fa bb f3 3d 5d 56 cc 3e d8 d3 e9 3d 68 fb 8f bf
       0.11901088 0.3990964 0.11417359 -1.1248598
0000f0 79 9b 18 bf dd 6c 63 be eb 32 6c 3e ba 08 5d 3e
       -0.5961223 -0.22209497 0.23066299 0.2158536
000100 fb 5d b0 3c b4 76 64 3d 05 58 8b 3e 24 4c 82 3e
       0.021529188 0.055777267 0.2721559 0.25448716
000110 94 fb d2 3e aa dc 97 3e 49 5e b9 bd b6 35 bb 3d
       0.41207564 0.2966054 -0.090511866 0.09141104
000120 59 f4 d5 be c4 c9 1e bd d2 6e 9e 3e b6 9c 5a be
       -0.41787985 -0.038766637 0.30943924 -0.21348843
000130 20 c8 d1 bd b9 53 97 3e 54 c7 f7 bc ee 88 22 be
       -0.10243249 0.29556063 -0.030246414 -0.15872547
000140 e3 71 81 3e d5 4f e5 3e 8a 30 1f 3e 36 24 8e 3d
       0.252822 0.4478747 0.1554586 0.069405004
000150 64 40 42 be 47 10 84 3d 52 45 f3 be 34 d3 a7 3d
       -0.18969876 0.06448417 -0.47513825 0.08194581
000160 f2 ed c8 3d 38 e8 80 bf fb 18 80 be f6 1c 56 3e
       0.098110095 -1.0070868 -0.2501906 0.20909485
000170 95 5e c4 3e 90 92 ff 3e 4d 5c 0d be 15 f6 e8 3e
       0.3835341 0.49916506 -0.13804741 0.45500246
000180 d3 fc f9 3b f9 67 9c 3e e9 54 5d 3d 7c 7b c5 be
       0.007629016 0.30548075 0.054036055 -0.38570774
000190 eb b9 0c 3f 63 b6 dc bd be 43 e4 3e fa 7d a6 3e
       0.5497119 -0.10776975 0.44582933 0.32517987
0001a0 6b 70 60 3e a8 e8 38 3f 78 b6 bb bd c4 5f c4 3e
       0.21917884 0.72230005 -0.091656625 0.38354313
0001b0 7d 81 06 3f 9a c3 59 3e dd 4e 98 3d 88 62 7e 3e
       0.52541333 0.21266022 0.07436917 0.24842274
0001c0 86 f3 54 be f5 74 a5 3d a8 33 82 bc 51 a6 29 be
       -0.20796022 0.080789484 -0.015893772 -0.16567351
0001d0 82 7c 90 3e 04 79 42 3f dd 48 21 3d 4b f5 b6 3e
       0.28219992 0.75965905 0.03937613 0.3573402
0001e0 30 91 15 bf f6 8f b3 be 43 ed 72 bf ab 79 09 be
       -0.58424664 -0.3507077 -0.9489328 -0.13425319
0001f0 87 2e 16 bf 27 31 85 3f 0c c7 c0 3e 86 65 43 be
       -0.58664745 1.0405625 0.3765186 -0.19081697
000200 3d 08 10 3e 68 11 68 be 5a ea 22 be 65 9c 6b 3e
       0.14065643 -0.2266289 -0.1590971 0.23008879
000210 eb 8b de 3d 87 d1 f2 bd 09 a2 25 3d 95 79 34 3f
       0.10866531 -0.118563704 0.040437732 0.7049802
000220 2f f3 92 3d 7c 03 5a 3e c6 05 06 3d 86 27 de 3d
       0.0717529 0.21290392 0.03272035 0.10847382
000230 c4 c0 03 3f 02 2b 22 3f 4e 15 aa be e4 8c 59 3e
       0.5146601 0.63346875 -0.3321938 0.21245152
000240 ac 7e 0a 3e 6f c0 d0 3e 6f 3a b6 bd ab 87 95 3d
       0.13524884 0.40771815 -0.08897864 0.07301267
000250 ca e9 b2 be 55 73 82 be e1 a0 61 3c e8 b8 a6 3e
       -0.34943992 -0.25478616 0.013771267 0.32562947
000260 e6 a6 df be c6 c9 c4 3d bb 0b 13 bf 20 e1 8b be
       -0.4368202 0.09608798 -0.57439774 -0.27320194
000270 11 c1 97 3e fb e7 19 3f 17 0a 9f 3d 79 58 d6 3e
       0.29639485 0.601196 0.07765596 0.41864374
000280 94 1a d3 3e e8 c0 f2 3e 0a 3e 7f 3e 9c 62 13 be
       0.41231215 0.474128 0.2492601 -0.14393085
000290 3e c8 48 3b 16 0a 55 bd 8f 63 13 be 12 89 b6 3e
       0.0030636932 -0.05201157 -0.14393447 0.3565145
0002a0 7e 10 ce be 7c e1 27 bf 5d bf 7e be e2 9b f5 3d
       -0.40246958 -0.65578437 -0.24877687 0.11992623
0002b0 7f da 28 3f b3 e0 81 bd 89 d4 9f be 9f aa eb bb
       0.659584 -0.06341686 -0.3121684 -0.0071919705
0002c0 64 17 93 be 8f 28 84 3f ad 4d 24 bf 58 5f d6 be
       -0.28728783 1.0324878 -0.64181024 -0.41869617
0002d0 96 f6 8f 3e 0f 6d 09 bf 78 3b 85 3b bb 7c 1c 3f
       0.28117818 -0.53682035 0.004065927 0.61127824
0002e0 c2 f0 72 bf 93 a7 b6 3e 16 39 a5 3c 96 86 e7 3e
       -0.9489862 0.35674724 0.020168822 0.45219868
0002f0 b5 f1 a6 be c8 70 67 bc 70 9a 68 3e 9c 1f c1 bb
       -0.32606283 -0.01412601 0.22715163 -0.0058936607
000300 08 0f 99 3c b4 d9 04 3f 30 7e d2 be 44 35 64 3f
       0.018683925 0.5189469 -0.41111898 0.89143777
000310 ef 24 60 be 34 8c 00 3e 47 cf 54 bf 4f 31 66 3e
       -0.21889089 0.12553483 -0.8312878 0.22479747
000320 4b db 54 3e f4 42 9a 3e 46 a5 13 3f 92 c6 51 3d
       0.20786779 0.30129206 0.5767406 0.051214762
000330 57 0f ec 3d 9d b5 cf 3e e7 da 27 3f ea d0 90 3e
       0.11526363 0.40568247 0.65568393 0.2828439
000340 c6 b5 b5 bd 09 46 34 3e e1 9d 50 bd 3a 28 e4 bc
       -0.08872561 0.17604841 -0.050931815 -0.027851213
000350 34 c5 82 be a5 42 8f bd 22 13 08 3f a5 f1 56 be
       -0.2554108 -0.06995133 0.53154194 -0.20990618
000360 38 da 0d be 45 02 41 be cc 73 23 be 97 55 b1 3e
       -0.13852775 -0.18848522 -0.15962142 0.34635612
000370 38 2a 89 3e d1 0d b9 3e 76 14 c2 be 38 52 68 3e
       0.26790023 0.36143354 -0.37906235 0.22687614
000380 e1 4f df 3e f1 55 07 be ed c7 11 be 32 81 dc 3e
       0.4361563 -0.13216378 -0.14236422 0.43067318
000390 0b 3e c5 3c fb 7c 21 3e aa f1 03 3e 1e c9 ef bd
       0.024077436 0.15770333 0.12885156 -0.11708282
0003a0 5d a2 28 bd bc 6c e2 bd e6 80 95 be 47 8a 36 be
       -0.041170467 -0.11055896 -0.29199904 -0.17826186
0003b0 47 36 2f be c3 1a b8 be 7b 72 80 bc 25 35 77 3e
       -0.17110549 -0.35957918 -0.015679589 0.24141367
0003c0 04 34 04 3e 17 e5 24 bf dd bb f7 bd 43 6f 6a bd
       0.12910467 -0.64412063 -0.12096379 -0.057235014
0003d0 9a e6 8f be d6 98 46 3f c1 08 94 be 24 81 e5 bd
       -0.28105623 0.7757696 -0.2891293 -0.11206272
0003e0 5c 4b 0e bd cf 9d f6 3d 6a 8c 1c 3e 02 d0 9e be
       -0.034739837 0.12041818 0.15287939 -0.31018072
0003f0 0a f3 3e bf 08 ae 23 3e e8 8c a7 3e 2b d1 e7 3e
       -0.745896 0.15984356 0.3272469 0.4527677

encoder.lstm.weight_hh_l0 f4 [128, 32]
000000 24 cc 80 bf e5 88 89 be 2d a8 26 be 1a 42 be 3d
       -1.0062299 -0.26862255 -0.16275091 0.092899516
000010 1f d7 0d 3f 54 74 fb be 54 03 2c 3d 1d 0f 0d bf
       0.55406374 -0.4911219 0.04199536 -0.55101186
000020 34 32 7c 3d 03 ea 06 bf 70 79 6d be e9 f0 fe be
       0.061571315 -0.52700824 -0.23190856 -0.49793175
000030 49 d8 01 3f f5 91 4c be 08 02 cc 3e ac 84 80 be
       0.5072065 -0.19977553 0.398453 -0.2510122
000040 1a a2 c4 3e 76 69 40 bd f7 e1 ef be 0e fe 88 bf
       0.38404924 -0.046975575 -0.46852085 -1.0702531
000050 d9 e8 40 be 06 13 82 3d 4d bb 3d bf af 61 06 bf
       -0.18838824 0.06351285 -0.74113923 -0.52492803
000060 46 3d b9 3e 78 c8 ca bd cd 4f 25 be 28 e0 96 3d
       0.3617956 -0.09901518 -0.16143723 0.07366973
000070 9e 4a 21 bf cc 59 64 3e 79 3e 45 bc b2 2e 04 be
       -0.6300448 0.2229988 -0.01203882 -0.12908438
000080 92 da 7f be fc 91 02 3e 27 9a 0e bf 9a db 95 be
       -0.24985722 0.12751001 -0.5570397 -0.29269105
000090 57 fc 12 3f 84 69 73 be bc be 9e 3e 82 0c c3 bc
       0.5741629 -0.2377072 0.31004894 -0.023809675
0000a0 7e ac a0 3d 60 8f b1 bd 49 7c 34 be 2a 04 f1 bd
       0.078454 -0.08669925 -0.17625536 -0.11768372
0000b0 bd 86 17 bd 03 ed 46 be 12 69 41 3f ea 9f 94 bd
       -0.03699373 -0.1942635 0.7555095 -0.07257064
0000c0 fa 98 0c 3e 84 f9 b5 3e 3e 35 a5 3e de 86 ec 3d
       0.13730231 0.35541928 0.32267183 0.115491614
0000d0 cf a7 58 bf a5 d6 ca 3e ff 72 17 3e b0 01 09 3f
       -0.84631056 0.39616886 0.14789961 0.535182
0000e0 43 6f 43 3f 52 55 27 3d a7 ba 21 be 8c 59 c4 be
       0.76341647 0.040852852 -0.15793858 -0.3834957
0000f0 84 90 39 bf 7d f8 e3 3e 93 29 1f 3f 7b b0 32 3d
       -0.7248614 0.4452552 0.6217281 0.043625336
000100 f5 1c 44 3f e3 8c 90 3d 24 12 f2 be 7a 56 99 be
       0.76606685 0.07058122 -0.47279465 -0.2994879
000110 76 4b 8d 3f a1 9e 01 bf e5 1a c7 3e 77 df c1 bc
       1.1038654 -0.50632674 0.38887706 -0.023666127
000120 36 3e b6 be 6f 08 7d bf bc c7 16 be c8 60 a6 bf
       -0.35594338 -0.98840994 -0.1472463 -1.2998285
000130 ca fb a9 3d 0a d2 96 bf 6d 3f a0 3e 80 fb 74 be
       0.08299978 -1.1782849 0.3129839 -0.23924065
000140 55 ce 6f 3e 31 70 00 bf 9e e8 41 3f 23 00 d9 be
       0.23418553 -0.5017119 0.7574557 -0.42382917
000150 da 4a 24 bf 8d 20 67 3e 96 aa 34 be 8e 74 96 bd
       -0.64176714 0.22571011 -0.17643198 -0.0734645
000160 68 7e 79 3f 36 9b 3c bf 69 ea b9 be 20 aa 9a bf
       0.97458506 -0.73674333 -0.36311653 -1.2083168
000170 5b ce 93 be be c0 13 3c ff d4 75 be 31 3d b8 be
       -0.28868374 0.009018121 -0.24007033 -0.35984185
000180 2f 95 4e bd 29 a6 ac be e9 0c e4 3e fa c8 a4 be
       -0.05043524 -0.3372052 0.445411 -0.32184583
000190 50 2b f8 be 36 ec 3a bf e5 a9 ab 3d 23 32 24 3f
       -0.48470545 -0.7301668 0.08382014 0.64139
0001a0 e3 5b e8 3d 32 03 0e 3e d8 f6 3d 3c ca 3e 6e bf
       0.11345651 0.13868406 0.011594497 -0.9306456
0001b0 36 94 77 be ce 3e 84 bf 6c e4 84 be 88 96 cd 3e
       -0.24177632 -1.0331666 -0.25955522 0.4015391
0001c0 c7 6b 1d 3f e3 57 16 bf 81 d6 c2 3e 57 49 eb be
       0.6149258 -0.58727854 0.38054278 -0.4595439
0001d0 6c 0a ca be cc ff 5f be b0 74 a5 be f1 78 6d 3d
       -0.39461076 -0.21874923 -0.32315588 0.057976667
0001e0 b8 64 5b be 69 a5 44 3f 4d 01 0f bf 91 92 8e be
       -0.2142514 0.76814896 -0.5586136 -0.27846196
0001f0 c8 d5 12 bf 01 5c c3 be cf 1c 83 be 49 14 f2 3e
       -0.57357454 -0.3815613 -0.25607917 0.472811
000200 73 41 0f bf dd 53 bd 3d 5a e4 d0 bd 26 bc 85 3e
       -0.5595924 0.09244511 -0.101998046 0.26120108
000210 e0 2e d8 3e c9 bf 52 bf e6 95 75 be 7b 28 67 3f
       0.42223263 -0.8232389 -0.23982963 0.90296143
000220 42 41 e4 be 21 e1 84 bd b8 ca 94 be d2 7c f0 3d
       -0.44581038 -0.064882524 -0.29060912 0.117425576
000230 a2 e9 0a 3f 86 f4 82 3d ae 1a 4b 3f 69 6b cc 3d
       0.54262745 0.063942954 0.79337585 0.09981424
000240 c0 a0 fb 3e c5 ef 4a be 2a f0 20 be c3 4d b5 be
       0.4914608 -0.19818027 -0.15716615 -0.3541089
000250 0e e5 0d bf 71 ef b5 3e 95 b9 ba 3e 9a cf 06 bf
       -0.55427635 0.35534242 0.36469713 -0.52660525
000260 6c 1c f4 3e 8b 6c db bc e3 57 0e bf 8b 4d d4 3e
       0.47677934 -0.026785156 -0.55602854 0.4146541
000270 f9 13 60 bf 56 ba b6 3f 77 b5 33 bf f3 0d 9c be
       -0.87530476 1.4275615 -0.7019877 -0.30479392
000280 b9 82 74 3e 9e d2 60 bd 91 73 33 bf 83 dd a9 be
       0.23877992 -0.05488836 -0.70098215 -0.33176813
000290 58 ef 13 3e 14 d7 a6 be 91 9b 5f 3f 9b ff b5 3f
       0.14446771 -0.32585967 0.8734675 1.421863
0002a0 76 99 44 be fa 40 16 be 38 8f 1f bf 29 69 34 3d
       -0.19199166 -0.14673224 -0.6232791 0.0440456
0002b0 4c 1e 99 be 8b e9 b8 bd b1 f4 ff 3b 06 6c 91 be
       -0.29905927 -0.0902892 0.007811152 -0.28402728
0002c0 33 fc 45 3e 50 d3 4b 3d b5 e2 a4 3e 11 f0 fa bd
       0.19334488 0.04976207 0.32204214 -0.1225282
0002d0 2a 30 1b 3e 71 66 1b 3f 02 0a 2e 3f f8 53 11 bf
       0.15155092 0.6070319 0.6798402 -0.5676875
0002e0 d7 05 7b be bc 90 cb be fe 6f 07 bf 5c 0c 0e bf
       -0.24513946 -0.3975886 -0.5290526 -0.5548761
0002f0 e2 03 8f be 86 8c df 3e bf ba c0 be a2 23 b3 bc
       -0.2793265 0.43661898 -0.37642476 -0.021867577
000300 48 8e 8d 3e a2 27 0c 3f 80 b4 d9 be bd f4 af 3e
       0.27647614 0.54747975 -0.42520523 0.34366408
000310 1d b0 4d 3e 12 7e 14 bf f8 03 e4 bd b6 76 42 3f
       0.20086713 -0.5800487 -0.111335695 0.7596239
000320 10 58 d5 be 4a 6f a9 3c e6 da e6 be 64 0f fb be
       -0.4166875 0.02068295 -0.4508888 -0.4903518
000330 14 ab a5 bc d4 06 2b bf 85 55 21 bd d5 8e 33 3e
       -0.020223178 -0.66807294 -0.0393882 0.17534955
000340 df 83 1c 3c 10 55 32 3e 62 24 a9 be 95 ae 8a 3e
       0.009552925 0.17415261 -0.3303557 0.2708632
000350 05 3d 6a bf 93 53 53 3f a4 41 98 3d e9 f9 1f be
       -0.9149936 0.825494 0.07434395 -0.15622677
000360 39 df b8 3f 42 59 1f bf c5 12 25 3e 1e 5e 7f be
       1.4443122 -0.6224557 0.16120441 -0.24938247
000370 56 15 ad bf 2c cd c2 3e 24 b1 41 3e 34 87 33 3d
       -1.3522136 0.3804716 0.1891523 0.04383011
000380 34 7e dd bc 56 c2 bd be 18 04 6d bf f4 3c c5 be
       -0.027037717 -0.3706233 -0.9258437 -0.38523066
000390 87 db 74 3f 73 05 1a bf e3 a0 aa be e5 28 99 3d
       0.9564747 -0.60164565 -0.33325872 0.07478503
0003a0 d2 6c 84 be 92 9f 85 be 59 a5 84 be 41 c2 89 be
       -0.25864273 -0.26098305 -0.259074 -0.26906016
0003b0 76 f8 cb 3e 66 71 15 bf 25 d0 2c 3f 49 93 7d be
       0.39837998 -0.5837616 0.67505103 -0.24763216
0003c0 a7 40 77 3e 94 cb 7c 3e da 27 88 be 66 95 c7 bd
       0.24145757 0.24687034 -0.26592904 -0.09745292
0003d0 a8 07 61 be ab 87 1c 3f 1e 73 37 bf 64 9b cb be
       -0.21975577 0.6114451 -0.7166003 -0.3976699
0003e0 27 b1 a0 be 0d 12 55 bf 02 e7 41 bf 58 8a 86 bf
       -0.31385157 -0.8323067 -0.75743115 -1.0510969
0003f0 7b d5 40 bf be 4c ff 3e 68 a6 09 be 18 eb ba be
       -0.75325745 0.49863237 -0.13442385 -0.36507487

encoder.lstm.bias_ih_l0 f4 [128]
000000 22 40 53 3f 20 fb 0b 3f 35 77 bb 3e af 9b 2a 3e
       0.82519734 0.5468006 0.36614385 0.16660951
000010 9f 72 d7 3e 2b 46 c4 3e 9f a9 ef 3e 0b 4f 00 3f
       0.42079636 0.38334784 0.46809098 0.5012061
000020 39 29 ac 3e 8f d0 e8 3e bd 7c a3 3e f6 34 54 bb
       0.336252 0.45471618 0.31931105 -0.00323802
000030 f6 87 87 bd 85 2b 75 3f 51 0d e0 3d c7 79 cb 3d
       -0.06617729 0.9576953 0.1094004 0.099353366
000040 f9 f6 07 3f 4e 28 44 3f 10 d8 4c 3f 2f ad ae 3c
       0.53111225 0.76624 0.80017185 0.021322815
000050 01 49 21 bd 6a 83 51 3e 94 e5 07 3f a1 d7 9d 3e
       -0.039376263 0.20460287 0.53084683 0.30828574
000060 01 68 7c 3e e3 a0 8d 3e 04 a5 c5 3e 8b b8 18 3e
       0.2464905 0.2766181 0.3860246 0.14914148
000070 28 f0 54 3f 50 71 21 3f e8 79 61 be 50 59 4c 3e
       0.8317895 0.63063526 -0.2201916 0.19955945
000080 18 ac a0 3e be d6 cf be f9 52 c0 3e d3 64 78 3e
       0.31381297 -0.40593523 0.37563303 0.24257211
000090 18 ee 6e 3d de 9a f8 3e 4d 28 11 3e dc 91 c4 3e
       0.058332533 0.48555654 0.1417553 0.38392532
0000a0 f3 a9 3e 3e d3 e3 02 3f 9b 75 6d 3e 20 54 33 3f
       0.18619518 0.5112888 0.23189394 0.7005024
0000b0 e9 50 bb 3e 11 eb d7 3e e6 81 af 3e 88 64 b0 3e
       0.36585167 0.4217153 0.34278792 0.344517
0000c0 04 5d 1d 3f 02 71 e6 3d 94 bb e0 3e 03 c1 80 3e
       0.61470056 0.11252023 0.4389311 0.25147256
0000d0 e2 0a 97 3d 08 0c 9c 3e 6b f7 7c 3e 6d 0b e0 3e
       0.073751226 0.3047793 0.24703757 0.43758717
0000e0 53 82 b2 3e 94 b6 e1 3e 20 8c 64 3e 68 53 0e 3e
       0.34865054 0.4408461 0.22319078 0.13899004
0000f0 d3 a1 0d 3f 3e a0 21 3f a1 07 81 3e e6 7a 38 bb
       0.5532505 0.63135135 0.25201133 -0.0028149425
000100 d9 c5 6b bc 14 1b d2 3d 99 32 ad bd c3 47 5f be
       -0.014390432 0.10259071 -0.08456916 -0.21804719
000110 de 43 26 3e 49 f3 da bd 04 53 9b 3d 4d 9f fd 3d
       0.16236827 -0.10690934 0.07584193 0.123839
000120 78 eb 78 be c5 30 59 bd 2d 3e fb 3d c3 17 4d be
       -0.24308574 -0.053025026 0.122677185 -0.20028596
000130 ea d9 8c be 04 c9 0e be e4 11 b8 bc 96 5c 1d 3e
       -0.27510005 -0.13943869 -0.022469468 0.1536735
000140 b8 06 90 3d d1 16 1e be e0 4c c8 3c ee c5 41 be
       0.070325315 -0.15438391 0.02445072 -0.1892316
000150 cb 90 09 bf 8b 99 c0 3e ca 86 4e be d6 37 61 3d
       -0.5373656 0.37617144 -0.20168605 0.05498489
000160 70 d4 88 3e cc 0d c3 be 83 77 05 be c2 29 51 be
       0.26724577 -0.38096464 -0.13033871 -0.20426086
000170 37 6b 9f be e7 a4 c2 3e c4 b2 72 be d2 ba c8 bd
       -0.31136486 0.38016436 -0.23701006 -0.09801258
000180 20 06 e2 3e c4 4a a2 3e d8 a4 57 3d 2c 2b e9 3e
       0.44145298 0.31697667 0.05264744 0.4554075
000190 0a cf 4c 3e 42 b5 9b bd 69 0d 60 3e be 81 9d 3d
       0.20000854 -0.076029316 0.21880116 0.07690762
0001a0 df 0f 21 3f 73 96 24 3e 5f ec 55 be 24 85 e7 3d
       0.6291484 0.16073017 -0.2089095 0.113046914
0001b0 36 4b 06 3e 94 7a 2f be 8d 9c c4 be d3 09 a7 3d
       0.13114628 -0.17136604 -0.3840069 0.08156171
0001c0 84 88 76 bd 51 ad 27 3f 49 09 86 3e 39 c4 5b bd
       -0.060188785 0.65498835 0.2617896 -0.05365393
0001d0 57 be 21 be 16 3b ee be 59 a4 f7 bd 66 b8 04 bd
       -0.15795265 -0.46529454 -0.12091894 -0.03240242
0001e0 0c 4d 23 be 4d 39 67 3e fe bc 3d 3e a6 1c 56 bd
       -0.1594736 0.22580452 0.18529126 -0.052273415
0001f0 82 34 38 3c 98 9f 36 be bf 31 d5 bd 97 7b 02 bc
       0.011242988 -0.17834318 -0.10409879 -0.007964036

encoder.lstm.bias_hh_l0 f4 [128]
000000 ff fa 17 3f ba 43 08 3f a6 dd f1 3d af 31 a6 3e
       0.59367365 0.5322834 0.11809854 0.3245978
000010 cd d1 ef 3e c2 04 1c 3e c2 51 b3 3e 7e cf ca 3e
       0.46839753 0.1523619 0.35023314 0.3961143
000020 38 1d f1 3d fd 9d f0 3e 9e e2 ab 3e fd 2f 3d 3e
       0.11773151 0.46995535 0.33571333 0.18475337
000030 07 5e 39 bd b7 c2 87 3f 31 0e 9c bd b1 e2 92 3e
       -0.045255687 1.0606297 -0.07619894 0.28688577
000040 8a be 99 3e 64 fa 53 3f 99 e0 0f 3f 08 26 9a bd
       0.30028182 0.8280394 0.56202084 -0.07526785
000050 e7 df 33 be b7 4a 9f 3e 79 a5 ff 3e 2f 82 06 3e
       -0.1756588 0.3111169 0.49930933 0.13135599
000060 f9 23 81 3e ff 88 ea 3e e6 e7 7f 3e 59 b9 0a bd
       0.25222757 0.45807645 0.24990806 -0.033868168
000070 8a a6 1b 3f 24 45 44 3f 6d 3b 1f be ec 86 84 3e
       0.60800993 0.76668 -0.15550013 0.25884187
000080 55 a3 4a 3e b3 01 e4 be 15 28 ac 3d 6b 13 64 3e
       0.19788869 -0.44532546 0.084060825 0.22273032
000090 51 41 79 3e 14 be ff 3e 84 36 7e 3d c2 7b 10 3f
       0.24341322 0.49949706 0.06206371 0.5643884
0000a0 f8 2f 26 3e bb 5b 24 3f 50 4a 62 3e c3 70 11 3f
       0.16229236 0.6420247 0.2209866 0.56812686
0000b0 d6 e6 a1 3e 13 7d 25 3f 7e 88 a0 3e af 30 b6 3e
       0.31621426 0.64643973 0.31354135 0.35584018
0000c0 89 f2 0c 3f ab 8e 07 3e af a4 94 3e 48 94 24 3b
       0.5505758 0.13238017 0.29031894 0.0025112797
0000d0 7a 5b 64 3d f2 f2 b9 3e 5d e2 4f 3d b0 2d d0 3e
       0.0557513 0.36318165 0.050752986 0.40659857
0000e0 0b 79 a4 3e 88 7b 0c 3f cb f6 a2 3e 70 7d d0 3e
       0.32123598 0.54875994 0.31828913 0.407207
0000f0 2e 25 28 3f 9c 91 f8 3e d6 74 e2 3e 61 9b 5f 3e
       0.6568173 0.4854859 0.44229764 0.21836616
000100 83 69 06 3e 91 72 f8 bd c2 5b 68 be 4c 2b 4b be
       0.13126187 -0.12131227 -0.22691253 -0.19840735
000110 78 bb 6f 3d 77 8e 2a be 41 4b 2b 3e 5d a5 9c 3d
       0.058528394 -0.16655909 0.16727926 0.07648728
000120 7e d6 f3 bd 52 d2 2a be f3 8c 4d bd d1 01 29 be
       -0.119061455 -0.16681793 -0.050183248 -0.16504599
000130 f8 cf 49 bd d2 f3 0f bd b2 fd 68 3c 9f 8c dc bd
       -0.0492706 -0.035144635 0.014220642 -0.10769009
000140 8f b5 88 3e 48 3f 2d be 32 73 83 bd 46 8b 12 be
       0.26701018 -0.16918671 -0.06418456 -0.14310941
000150 b6 a7 0a bf 20 41 24 3e 59 94 a3 be 40 36 ce bd
       -0.54162157 0.16040468 -0.31949118 -0.10068941
000160 4b c7 6a 3e 36 f5 a8 be 30 51 af be 2c d3 8b be
       0.22927587 -0.3299958 -0.3424163 -0.2730955
000170 7b 21 99 be e9 d9 ac 3e fa 74 a0 be bf d4 34 be
       -0.29908356 0.33760002 -0.31339246 -0.17659281
000180 cd 9e fc 3e 67 a9 8e 3e 70 b1 84 3d 8f cf a3 3e
       0.49339905 0.2786362 0.06479156 0.31994292
000190 0f b4 91 3e 41 bd 22 be 64 68 31 3e 0c be 5d be
       0.28457686 -0.15892507 0.17324978 -0.21654528
0001a0 f4 4d 00 3f 00 53 5f 3e 50 8d 17 be 15 38 99 3b
       0.5011895 0.21809006 -0.148 0.004675875
0001b0 90 ea df 3c 61 e1 a1 bc 31 20 68 be 76 f0 89 bd
       0.027333528 -0.01976079 -0.2266853 -0.067353174
0001c0 96 51 5c be 37 c5 60 3f 17 f6 84 3d 5d bc c8 3d
       -0.21515498 0.87800926 0.064922504 0.098015524
0001d0 03 14 7d be 32 2b c5 be 3b 71 08 be 39 8e 3b 3e
       -0.24714665 -0.38509518 -0.13324444 0.18315972
0001e0 0a 14 60 be 82 4b cc 3c 19 03 7a 3d 0d df 7d 3d
       -0.21882644 0.024938349 0.06103811 0.061980296
0001f0 0e 4a 83 3d 45 5a 0d be 22 d8 13 3e b0 e9 ed 3d
       0.06410609 -0.13803966 0.14437917 0.11616838

policy.net.0.weight f4 [128, 32]
000000 a8 67 e7 bd 6d af f5 be 64 dd be 3e 01 23 14 be
       -0.11299068 -0.47985402 0.37278283 -0.14466478
000010 15 27 77 3d e3 a0 b6 3d 49 fc 5f 3e dd ce fc 3e
       0.060340006 0.089174055 0.21873583 0.49376574
000020 7b a7 6b 3e ee af 8b be b1 a8 17 bc 88 d9 af be
       0.23013107 -0.2728266 -0.009256528 -0.3434565
000030 1b be a4 be 27 ba a8 bd 29 bf 98 be 73 53 ad be
       -0.3217629 -0.08238631 -0.29833344 -0.3385273
000040 a9 19 dd be 6f 5a 1d bd bb 9a ed be af 3c 0e 3f
       -0.4318364 -0.038416322 -0.46407112 0.55561346
000050 0f 36 1e 3f 15 d3 2f be 05 88 2e be 7f 37 9a be
       0.61801237 -0.17170365 -0.17044075 -0.30120465
000060 09 05 80 be d2 0b 8d 3e 0a 74 53 be d2 42 29 bd
       -0.25003842 0.2754808 -0.20649734 -0.04132349
000070 b4 51 7f 3e fe e0 8a be 00 ef 3f be 65 cb 8b be
       0.24933511 -0.2712478 -0.18743515 -0.27303615
000080 63 c5 16 be 39 fb 65 3d 94 f6 57 bc 6f 59 25 3d
       -0.14723735 0.056147788 -0.013181347 0.040368494
000090 2c e1 c1 3d 0b 0a 5d 3e 15 43 db be db 76 17 3e
       0.09466776 0.21585862 -0.42824617 0.14791434
0000a0 07 82 f3 3e b7 12 08 3e 89 28 84 be 44 37 a5 be
       0.4756014 0.13288389 -0.25812176 -0.32268727
0000b0 f4 e9 e2 be cc eb 2b 3e 79 22 63 be ba 6c 21 bd
       -0.44319117 0.16789168 -0.22181119 -0.03941033
0000c0 f9 a4 00 be 03 37 87 bc 19 4f 38 be e5 a8 67 3e
       -0.12562932 -0.016505724 -0.17998923 0.22623022
0000d0 db c6 43 be 29 44 a7 bd 09 5a 56 bd e5 62 d6 3d
       -0.19118826 -0.081672974 -0.052331958 0.104680814
0000e0 39 2b 56 3e 35 40 e3 3e d1 6e fd 3e 11 41 72 3e
       0.20914926 0.44384924 0.4949861 0.23657633
0000f0 1f 48 d3 bd cc a3 78 be d3 cd 60 3d 1a c6 b6 be
       -0.103164904 -0.24281234 0.05488379 -0.35698014
000100 15 c6 b5 be 67 11 94 be d2 39 0d bc 5e de 23 be
       -0.35502687 -0.28919527 -0.0086197425 -0.16002795
000110 68 14 0d 3e ef 07 f3 be 4d f5 93 be 44 2d d5 3e
       0.13777316 -0.4746699 -0.28898087 0.41636097
000120 03 31 58 3f ab 10 16 bd 4e 11 0d be d2 05 42 be
       0.84449786 -0.03663699 -0.13776132 -0.18947533
000130 b7 1e 71 bf 9b 7e ae 3d fa 83 17 bf ce 73 8f 3e
       -0.9418749 0.08520242 -0.59185755 0.2801804
000140 22 09 68 be d0 b3 82 be 05 c0 36 be 21 7e aa 3e
       -0.22659734 -0.2552781 -0.17846687 0.33299354
000150 62 d8 fd be 92 5b 6e be da b0 01 bd ea 87 9a be
       -0.4957915 -0.23277119 -0.0316628 -0.3018182
000160 29 ad 55 be 1c a3 07 3f cb 36 70 3e 5c 22 8b bd
       -0.20866837 0.5298326 0.23458402 -0.06793663
000170 7c 35 44 3e 3e 21 f9 be 3c b3 ce bd 5f 57 88 be
       0.19161028 -0.48658174 -0.1009278 -0.2662916
000180 8e 16 96 3e 40 de 24 bf 1c c9 f5 be ce 34 de 3e
       0.29314083 -0.64401627 -0.48004997 0.43399662
000190 c1 0e d1 3e 17 d1 31 bf db 39 85 bf 45 bc 73 3e
       0.4083157 -0.6945967 -1.0408281 0.23802288
0001a0 eb 57 18 3f 69 ba a7 be 32 1e 12 3e 6a ef d2 be
       0.5950915 -0.32759407 0.14269331 -0.41198283
0001b0 34 51 4b bf be bc 14 bf 99 66 09 3e 5f 07 f1 be
       -0.7942078 -0.581005 0.13418044 -0.47075936
0001c0 e6 b8 13 be 2c c5 1d 3f 49 03 cd bc 4f 20 fd 3c
       -0.14426002 0.61628985 -0.02502598 0.030899195
0001d0 8c cb 62 bf b1 8c b3 be e2 08 1d 3e 86 9d de be
       -0.8859184 -0.35068277 0.1533542 -0.43479556
0001e0 96 fb eb be 35 f0 84 3d 39 52 01 3e ae cb 3f 3f
       -0.46090382 0.06491128 0.12629022 0.74920166
0001f0 83 ec 09 3d 9c 1c bb be c7 1b 1f 3f cc 7f 18 bf
       0.03367282 -0.36545265 0.6215176 -0.5957
000200 cc 1c 45 3e 09 64 2f 3f eb 6a 24 3d 79 62 10 be
       0.19249266 0.68512017 0.040141027 -0.14100064
000210 c4 de eb bd 69 64 c9 3e b0 8f 2b bf f2 1f b8 be
       -0.115170985 0.3933442 -0.67016125 -0.35961872
000220 3b d8 0d be d5 f3 0e 3e ea 9d f2 3e b2 8b 3f bf
       -0.13852017 0.13960202 0.47386104 -0.74822533
000230 1a ab 88 bf 5c a9 3a 3e 9d 88 c8 be 19 76 dc be
       -1.0677216 0.18228668 -0.39166728 -0.4305885
000240 57 e1 d3 be 32 dc 43 bf 3b 99 9e 3d a7 33 89 be
       -0.41382858 -0.76507866 0.0774407 -0.2679722
000250 d3 f5 0b bf 0a 20 e0 be 5b 36 50 be a6 b9 24 3e
       -0.54671973 -0.43774444 -0.20333235 0.16086444
000260 5d 22 ff be 92 8c 85 3e ad 35 34 3f f0 7d ae be
       -0.49830905 0.2608381 0.703944 -0.34080458
000270 2e 38 38 3d f1 28 39 bf 4f fe 3f 3e 00 4c 13 bf
       0.044975452 -0.72328097 0.18749355 -0.5753784
000280 6b c4 76 be 2b 31 0c bf 30 b8 c7 be f9 5a b3 3e
       -0.24098365 -0.54762524 -0.3900771 0.35030344
000290 94 a5 38 3e 3f 2b 41 bf ea cd 35 3f 5c d1 e3 bd
       0.18031913 -0.75456613 0.71017325 -0.111239165
0002a0 df a0 c5 be a2 9a 56 3e cd 13 5b bd 39 11 a2 3c
       -0.38599297 0.20957425 -0.05348568 0.019783603
0002b0 29 37 48 3e af 24 46 bf e5 b1 d5 bc df fb 22 be
       0.19552292 -0.77399725 -0.026085803 -0.15916394
0002c0 74 d2 08 3e da f2 d8 3e 42 17 ed bd 75 42 bd bd
       0.13361531 0.4237278 -0.11576702 -0.09241191
0002d0 bd fa e8 bd 8e d4 b0 3b e0 12 b2 bd 3b 5e ac be
       -0.113759495 0.0053964322 -0.08695006 -0.33665642
0002e0 42 f3 82 bf a8 86 98 3e b3 b1 9e be cc 90 0a 3f
       -1.0230486 0.29790235 -0.3099495 0.5412719
0002f0 94 52 84 3e 85 f0 e2 bd 61 b9 1e be 2e a6 1f 3f
       0.25844252 -0.11081032 -0.15500404 0.62362945
000300 b8 a2 23 bd 7a 2c 05 3f 31 8e 0e 3f 9b e6 43 bf
       -0.039950103 0.5202099 0.55685717 -0.7652375
000310 c9 c9 83 3f be e9 d9 bc 09 17 68 3e 47 0e d1 be
       1.0295955 -0.026600715 0.22665037 -0.40831205
000320 8c 49 7d bd 05 42 5a bd f1 d2 1e be 6a 39 41 be
       -0.061837718 -0.053285617 -0.15510155 -0.18869558
000330 c5 2b a2 be c8 27 92 3e 6a 18 37 bf c9 64 46 3d
       -0.31674019 0.28545976 -0.7152163 0.04843596
000340 7d df 38 be e9 8e 1a bf 6c 62 00 bf d6 2e 32 bf
       -0.18054004 -0.60374314 -0.5015018 -0.69602716
000350 3e 5d 1d 3e 1b f4 36 be 8f ec 97 3d 56 6c b3 3e
       0.153676 -0.17866556 0.07418167 0.3504359
000360 05 ab 42 3e 5e f6 0b 3e 4b ee c2 bd 38 ef ef bd
       0.19010551 0.136682 -0.09518107 -0.11715549
000370 90 e1 29 3e c7 7c f4 be 5a 3c 12 bf 6c fe ea be
       0.16589952 -0.47751448 -0.5712334 -0.45897233
000380 0a 8b 42 bd 2e 6b a5 3e a9 30 e5 3e 5e da 66 be
       -0.04749588 0.32308334 0.44763687 -0.22544238
000390 27 b1 b9 3d a8 c1 61 3e 4f 9b 4f be c8 70 f0 be
       0.09066992 0.2204653 -0.2027409 -0.46961045
0003a0 c5 f4 32 bd fc dd a8 3e 62 79 bd bd e9 7c d7 be
       -0.04369046 0.3298186 -0.092516676 -0.42087486
0003b0 13 b7 a1 be da 78 62 3e 1f 50 24 bd 1c 74 1d bd
       -0.31584987 0.22116414 -0.040115472 -0.03844081
0003c0 ba c7 76 be 7c 22 50 be fb 78 96 be 43 a8 e8 3d
       -0.24099627 -0.20325655 -0.29389176 0.113602184
0003d0 74 1e 08 3e 62 40 a6 3d 5f 40 0d bf a9 eb a7 3c
       0.13292867 0.08117749 -0.5517635 0.020498114
0003e0 ed a7 9c 3e 3a d8 ff 3d 77 71 4a be 9a 82 d7 bd
       0.30596867 0.12492414 -0.19769846 -0.10522957
0003f0 1d f1 00 3e 18 23 33 3e d8 98 9d be e6 d6 07 3e
       0.12591977 0.17493856 -0.30780673 0.13265571

policy.net.0.bias f4 [128]
000000 8d e2 cb be 0f 3d d2 be a6 70 d6 be 0e 48 0e 3e
       -0.39821282 -0.4106221 -0.4188282 0.13894674
000010 b3 fc bc be ef 0e 14 bf cb b2 10 bf f1 3d 12 bf
       -0.36911544 -0.57835287 -0.56522816 -0.57125765
000020 d5 14 7c be 73 d6 33 3d 73 13 de be 07 e5 c5 be
       -0.24617322 0.043905687 -0.43374214 -0.38651296
000030 c6 f9 e7 be 53 51 58 3a dc b8 0d bf 35 86 f5 be
       -0.4530775 0.00082518643 -0.553602 -0.47953954
000040 b3 d4 e2 be 11 11 37 3d a8 07 07 bf e3 08 e0 be
       -0.44302902 0.04469401 -0.5274606 -0.4375678
000050 95 a1 ab bd 54 35 db be b8 ce da bd 2f 13 dc be
       -0.08380429 -0.42814124 -0.1068396 -0.42983386
000060 f9 f6 64 be ad 46 c0 be 9a bb 9e be 2b 97 25 be
       -0.22359838 -0.3755392 -0.31002504 -0.16170947
000070 89 44 94 be b9 45 c3 be 6f da 08 bf ad 1c 06 bf
       -0.28958538 -0.38139132 -0.53458303 -0.52387506
000080 31 63 a8 be ac 44 f7 be 7d 1f ab be aa 88 dc bd
       -0.32888177 -0.4829458 -0.3342246 -0.10768254
000090 71 ef 0a bf 2c e1 9f be 3b 52 6d be d8 5d f6 be
       -0.5427161 -0.3122648 -0.231759 -0.48118472
0000a0 d3 b7 a3 bd f9 22 89 be 06 1b a2 be ab 0d de be
       -0.07994046 -0.26784495 -0.31661242 -0.43369803
0000b0 01 c6 d5 be f4 2e 3a 3c fe 4c 09 bf 76 d4 bd be
       -0.41752627 0.011363734 -0.53633106 -0.37076157
0000c0 6b 72 c3 bd f9 de a1 bd d8 08 19 bf db 5b 06 bf
       -0.09543308 -0.07903857 -0.5977912 -0.5248391
0000d0 c9 a8 b6 be 00 78 e4 be 27 7a 10 bf b8 a9 b3 be
       -0.35675648 -0.44622803 -0.5643639 -0.35090423
0000e0 d8 4c 10 be 3d 86 38 3c 18 3f d8 be 4a bf 9a be
       -0.14091814 0.011262474 -0.42235637 -0.30224067
0000f0 34 c0 c5 be e3 13 f6 be db bd 63 be ce e0 57 be
       -0.38623202 -0.48062047 -0.22240393 -0.2108185
000100 ca a1 e8 be 02 9f dd be 0b 54 e7 be 0d 86 a0 be
       -0.45435935 -0.43285376 -0.45181307 -0.31352273
000110 a1 3c f9 be 36 68 9a be 24 46 14 bf 64 bf 10 bf
       -0.4867907 -0.30157632 -0.57919526 -0.5654204
000120 1e b5 27 be e2 24 7e be 51 8e 96 be af bb d2 be
       -0.16377684 -0.24818757 -0.29405454 -0.41158816
000130 d5 28 3e be 8c bd b9 be f9 e6 12 be d4 14 c7 be
       -0.18570264 -0.36277425 -0.14345922 -0.38883078
000140 67 60 d2 be 91 2c 09 bf 99 49 ce be 45 94 f4 be
       -0.41089174 -0.5358363 -0.40290526 -0.4776937
000150 02 f3 ad be 6f f8 ee be b1 e9 18 bf 70 ac 16 3d
       -0.33974463 -0.46673915 -0.59731585 0.036785543
000160 f2 61 86 be 22 18 c1 be 96 4e db be 61 36 a3 3d
       -0.262466 -0.37713724 -0.42833394 0.07969356
000170 f8 b1 09 bf 10 39 d3 3d 37 70 9e be 8c 81 a0 bc
       -0.53787184 0.10313618 -0.30944988 -0.019593023
000180 bf 71 14 bf 23 e4 e8 be af 1f 0b bf 53 d7 14 bf
       -0.5798606 -0.45486555 -0.5434522 -0.5814106
000190 37 83 16 3e 13 d6 ce be 54 0c f0 be 22 dc 97 bd
       0.14698492 -0.403977 -0.46884406 -0.07415034
0001a0 13 db 3a 3c 84 15 b1 3d 82 a3 8a be 00 ca e3 be
       0.01140477 0.08646682 -0.27077872 -0.4449005
0001b0 16 c7 3b be 8f 81 d6 be 72 6b 06 bf bd 00 be be
       -0.18337664 -0.4189572 -0.525077 -0.37109938
0001c0 62 ec 6a be c6 79 81 be da 76 06 bf 66 10 4e bb
       -0.22941735 -0.25288218 -0.52525103 -0.003144288
0001d0 20 ed a1 be 9a 4f b1 be 74 94 c4 be 76 ef c8 be
       -0.31626225 -0.34631044 -0.3839451 -0.39245194
0001e0 17 57 fa be c4 2c 92 be b3 d4 a1 3c 18 36 b2 be
       -0.4889457 -0.28549778 0.019754743 -0.34806895
0001f0 15 f2 a3 be 54 08 a1 be c9 7e 22 bd 69 ea 52 be
       -0.3202063 -0.31451666 -0.039671693 -0.20597233

policy.net.2.weight f4 [5, 128]
000000 4a 12 86 bf 76 16 cd be 84 45 aa bf 2c 1b bd bf
       -1.0474331 -0.400562 -1.3302464 -1.4773917
000010 f8 d6 50 c0 5c 24 d5 bf 0e 42 e2 bf 58 a1 b3 3c
       -3.2631207 -1.6651721 -1.7676408 0.02192752
000020 79 89 95 be b0 55 22 c0 26 a9 b0 bf 21 ae 6e bf
       -0.29206446 -2.53648 -1.380162 -0.9323445
000030 13 d4 aa be 48 bf bf bf 22 5d 00 bf 42 e3 5d bf
       -0.33364925 -1.498025 -0.5014211 -0.8667489
000040 07 d9 a7 bf 8a c8 50 c0 50 eb 44 be 53 22 d5 bf
       -1.3113106 -3.26224 -0.1923039 -1.66511
000050 33 b0 8b c0 66 2d 0b bf b4 19 6b bf 38 09 85 c0
       -4.3652587 -0.5436615 -0.91836095 -4.1573753
000060 10 4b bd bf ba a2 98 bf ae c0 b0 be 85 0e 9c be
       -1.4788532 -1.192466 -0.34522003 -0.30479828
000070 b9 e7 f7 be 4a 8f af be c7 4a 05 bf e0 c7 b4 be
       -0.48418978 -0.34289008 -0.52067226 -0.35308743
000080 3b a3 41 bf 3d 5c 4b be 33 21 06 bf e1 a1 28 bf
       -0.75639695 -0.19859405 -0.5239441 -0.6587201
000090 51 57 d0 bf da dd 24 c0 41 bb 62 bf 7e 9f 72 bf
       -1.6276647 -2.5760407 -0.88566977 -0.94774616
0000a0 90 65 16 c0 66 ee 6b be 62 21 90 bf ef 9e 9d be
       -2.349949 -0.2304016 -1.1260188 -0.3078532
0000b0 6c 5d d3 bf d2 92 68 bf 5f a2 63 be 86 c6 8c be
       -1.6512885 -0.9084903 -0.22229908 -0.2749521
0000c0 87 63 49 bf 8f c3 2e c0 4d 04 67 bf 4a bb df be
       -0.7866749 -2.730686 -0.9024094 -0.43697578
0000d0 8e 9f 6d bf 57 13 64 bf 4f 87 d1 be 32 4b 67 bf
       -0.92821586 -0.8909201 -0.40923545 -0.90349114
0000e0 63 54 5c c0 77 95 b6 bf 03 67 36 bf 2b a8 0b c0
       -3.4426506 -1.4264363 -0.71250933 -2.1821392
0000f0 74 0d 18 bf 0a 26 f3 be 27 2b 1d bf e0 a8 89 c0
       -0.5939553 -0.4748996 -0.6139397 -4.3018646
000100 fe b4 70 c0 e4 d6 39 c0 ab 7f 8d be 7d fc 85 c0
       -3.761047 -2.903741 -0.27636465 -4.1870713
000110 d7 5e ea bf 51 8a 19 bf 83 c5 c1 bf 63 28 45 c0
       -1.8310193 -0.5997668 -1.5138401 -3.08059
000120 37 30 ae bf 51 5d 5b bf c9 26 a1 bf 96 cd c0 bd
       -1.3608464 -0.85689265 -1.2589961 -0.094142124
000130 54 f4 3e bf 71 69 42 bf dd 23 26 bf 21 c2 c4 bf
       -0.74591565 -0.7594214 -0.64898473 -1.5371743
000140 f2 e6 c8 bf bf 7e a2 be 1c c4 10 bf 34 68 a7 be
       -1.5695479 -0.31737325 -0.5654924 -0.32696688
000150 00 34 26 bf 0a 02 26 be ea b1 87 bf d5 0b 13 c0
       -0.64923096 -0.16211715 -1.060117 -2.2975972
000160 fa 32 78 c0 17 c5 13 bf 59 d1 31 bf a9 9d 38 bf
       -3.8781114 -0.5772261 -0.69460064 -0.7211557
000170 be e5 29 bf 22 8d 27 c0 f4 c5 35 bf 5b 46 f6 be
       -0.66366184 -2.617989 -0.7100518 -0.48100552
000180 56 c2 83 be 39 57 41 bf 16 7a 8c bf 62 a3 8d be
       -0.25734204 -0.75523716 -1.0974758 -0.27663714
000190 e7 e3 04 c0 ab ba 23 bf f8 6c 19 bf 92 45 e1 bf
       -2.07641 -0.6395671 -0.599319 -1.7599356
0001a0 eb 46 b2 bf 58 61 c2 bf 95 a1 8e bf e9 ae 10 bf
       -1.3927892 -1.5185957 -1.1143061 -0.5651689
0001b0 0b f4 41 c0 a6 df 44 be 3f 2b 02 bf 1b eb b5 c0
       -3.0305202 -0.1922594 -0.5084724 -5.6849494
0001c0 f9 0f 6e c0 c3 80 87 bf 7f 27 85 be 96 59 71 c0
       -3.719725 -1.058617 -0.26006696 -3.771093
0001d0 55 c1 9c bf c1 6f b5 bf ad f9 c5 bf 3c 3a b9 be
       -1.22465 -1.417473 -1.546682 -0.36177242
0001e0 65 72 c8 be f3 6d 0a bf 0a 5f c0 bf c9 2d 81 be
       -0.39149776 -0.5407402 -1.5029004 -0.25230244
0001f0 48 59 a9 be 9c 27 c7 be 64 90 55 bf b2 89 c7 bf
       -0.3307593 -0.38897407 -0.8342345 -1.5588896
000200 bf 23 e4 bd 6c 09 be bf 73 43 2b bf d8 0f 0d 3e
       -0.111396305 -1.4846625 -0.66899794 0.13775575
000210 c0 b5 d8 bf fb 33 99 3f c9 48 65 bf 3e 33 75 bc
       -1.6930466 1.1968988 -0.89564186 -0.01496583
000220 93 64 f9 bd df 54 c4 3d 4c fa 1b bf 26 bd f8 bc
       -0.12177386 0.095865004 -0.609288 -0.03036363
000230 45 94 21 bf 2b 30 fd 3d 38 47 bd be ce 2e 9b 3e
       -0.63116866 0.12362703 -0.36968398 0.30309147
000240 14 a7 a2 3e 80 6a 17 bc 2e b7 3c bf 63 ce 05 3d
       0.31768095 -0.0092417 -0.7371701 0.03266753
000250 e7 d4 64 3d f0 7a 97 bd 87 51 0f 3e f1 18 32 bb
       0.055867102 -0.07396495 0.13995944 -0.002717551
000260 55 8f d0 3e 14 19 37 3e 87 c7 fc 3d 29 b1 ab bf
       0.40734354 0.1788066 0.12342744 -1.341344
000270 7f 57 8f bd 5e d5 59 3e 25 8c 14 3f d7 97 83 3e
       -0.069991104 0.212728 0.58026344 0.25701782
000280 28 78 9e 3e 31 17 00 bf 67 cd 12 bf e5 28 1a 3d
       0.30951047 -0.5003539 -0.5734467 0.037636656
000290 6b cb c0 bc 1e c4 3d bf 9c 6c 50 be 08 e0 ea bd
       -0.023534497 -0.74127376 -0.20353931 -0.11468512
0002a0 93 d8 3e be 40 4d 49 bf 4e 63 cf bc 9f 4a 88 be
       -0.18637304 -0.786335 -0.025315907 -0.2661943
0002b0 bb 37 80 3e 67 fe 5e 3e 20 88 06 3e 3a 7f bb be
       0.2504252 0.21776734 0.13137865 -0.36620504
0002c0 97 19 b6 3c 57 71 bd 3e 10 10 6c bf 34 a5 28 bf
       0.022228999 0.37000534 -0.9221201 -0.6587708
0002d0 5c a8 16 3d 51 86 25 3e 1d df ec be b3 f3 8d bf
       0.036781654 0.16164519 -0.46263972 -1.1089996
0002e0 cb 8b 17 3f 5a aa de bd 8a b6 88 bf b5 5f 7d be
       0.5919768 -0.10872336 -1.0680707 -0.2474354
0002f0 26 d3 35 bd c4 9f 7b be a2 8f 57 3d 13 dd ef 3d
       -0.04439082 -0.24572664 0.052627213 0.117120884
000300 67 e4 3f be 88 a9 53 bc 67 d7 79 be e8 fa 98 bd
       -0.18739472 -0.012918837 -0.24398576 -0.074697316
000310 bf 08 4d be 49 3c 21 be 0a 47 e3 be a2 c5 45 3c
       -0.20022868 -0.15745653 -0.44390136 0.012071045
000320 c1 6a b3 be 7f ea 3c 3e b6 b2 c9 3d 16 b7 a2 3d
       -0.35042384 0.18448828 0.098485395 0.07945077
000330 0f e0 3c c0 eb a4 bd 3d ed d5 16 bf 51 87 c2 bb
       -2.9511755 0.09259971 -0.58920175 -0.005936541
000340 95 f5 cd 3d 4d 68 01 bf e9 58 25 3d fc 01 e3 be
       0.10056607 -0.50549775 0.040367994 -0.4433745
000350 2b 86 40 3d 4f 0e 81 bf 49 01 cd bf 8c bb 67 bf
       0.047002953 -1.0082492 -1.6016017 -0.9052055
000360 05 7d 28 3d a4 8c 5c be 4a 83 1e 3d ff 3d b2 3e
       0.041134853 -0.21538025 0.038699426 0.34812924
000370 48 80 af 3e 97 6f 78 3d 3e d4 a1 bf 0e c6 3c c0
       0.34277558 0.060653295 -1.2642896 -2.9495883
000380 20 9e 48 bf 49 3c 0d be d2 5c 53 3e 21 af 76 bf
       -0.7836628 -0.13792528 0.20640877 -0.96360976
000390 0d 8a b6 3d f9 d5 d7 bd b8 94 e3 bd 63 45 9a 3d
       0.0891305 -0.10538859 -0.1111235 0.07532766
0003a0 63 5f 59 3d f9 98 83 bd 13 26 d5 3d b5 21 49 c0
       0.053069483 -0.064256616 0.10407653 -3.1426823
0003b0 f6 bb da bd 73 68 91 bf d0 45 f1 be b0 99 6f bc
       -0.10680382 -1.136 -0.47123575 -0.014624044
0003c0 a6 e9 27 3e a5 af 3a 3e f7 ee 58 3f 92 50 98 be
       0.16397724 0.18231066 0.8473963 -0.2974897
0003d0 b3 71 5b 3e dd 4c 4a bf 81 bd 3e 3d 75 2e ad bc
       0.21430092 -0.79023534 0.046567444 -0.021140317
0003e0 f6 71 1a bf 82 64 8f 3d 4d fd 9e bf 90 1a 89 bf
       -0.6033014 0.07001592 -1.2421051 -1.0711231
0003f0 cd 69 b7 3e be e2 d6 bd d8 39 e2 3d c0 bf 01 3e
       0.35822907 -0.104924664 0.11046189 0.12670803

policy.net.2.bias f4 [5]
000000 f0 f0 2a c1 ec 1b af bd 24 03 ab 3d 8e 48 3d bd
       -10.683823 -0.085502476 0.083502084 -0.04621177
000010 69 1d 55 3e
       0.20812
