SGE_Transformer/model/2_room/eil_2_room_198_model/EBC_model_43999.pth (torch, 319288 bytes, 27 tensors)

encoder.embedding.weight f4 [900, 16]
00000000: 89c5 003e 9ef5 48bf 8673 7c3f a2e0 db3f
00000010: 9901 133f 1ee9 603f 86fd 90bd 0fad 513f
00000020: 193b c93f 2227 6b3f 166e c23f 5822 54bf
00000030: 85b5 ce3f 45be 38bf 9512 86bf a47d 283f
00000040: 2bda 8cbf 5e66 5d3e 8fcf 113f 55af 13bf
00000050: 689a 113f 64c2 0d3f 6d57 493e aaaa 913e
00000060: dfa0 67bf b7a8 b0bf 70d8 0640 2f29 d6bf
00000070: 9ae7 4e3f bfed c7bd 360d 08bf 66bb c1bf
00000080: 4ef9 3c3f d657 00bd 1320 b4be 239b 023f
00000090: 3806 e3bc a159 4a3e 37cb f8be 9b46 01c0
000000a0: c854 02bf 181f 8c3f fa3d 6bbf a5ae e5bd
000000b0: 5e62 aebf 4ac5 9b3d 2fd3 5dc0 8426 88bf
000000c0: 0ef7 ce3e 9ea1 62bf 0812 a7bf 8c41 2dbf
000000d0: f35e 683f 16ff cd3f 3d0a 93bf 7f03 f83e
000000e0: 0150 a8bf 8d64 db3d 1d19 2f3f f8b6 b7bf
000000f0: c160 88bf 6c8b 26bf 6007 3ebf 0d8d 22c0
00000100: 6dab 863f 363a e83e ed0f bcbf f414 1940
00000110: d48b 75bf e19e 60be d547 b5bf 8d19 973e
00000120: 04d3 fdbe 974a 86be 8370 9d3d a6f2 e8bf
00000130: 012b 10c0 f738 13be c8e9 f4be 4b1d fa3d
00000140: b518 193e 4686 2e3f 0daa c83f 767d f33e
00000150: 41a4 80bf 09fb 82bf 3c7d 053f 5be3 f6be
00000160: c4ca 45bf 45a6 2f40 beea fcbf 30f0 d43e
00000170: 139d c83f c321 23bd 97e2 78bf b849 36bf
00000180: b5b7 753e e57c 99bf 171e 883f 144c 2dbf
00000190: 0cd4 29bf 842e ac3e 80b9 043f c4d6 843f
000001a0: 3de2 293d 8d83 573f 5a75 06be fc08 bfbf
000001b0: 2026 ba3e 4ad5 02bf 3846 d6be 3d48 973f
000001c0: 722c 88be d2df 4d3f a67b 9dbe 5f48 ad3f
000001d0: 44c2 2a3f 598f 71be 8154 2fbe 23c7 0f3f
000001e0: dc35 9d3e c8f4 ac3e 7400 053e 6f95 133f
000001f0: d158 a63c c0fd b23f 8f5e b53f c0bf c0bb
00000200: 45e8 61bf e3f6 f9be f994 adbf 1a0e 6fbe
00000210: 1735 ea3f ed78 cb3f 8a5e 363e ba0f 033f
00000220: f0d7 0bbf 86c2 b8bf 323e f6bf af88 90bf
00000230: 94de 803f c211 10bc 91f0 4dbf 8aa0 fb3f
00000240: 0af0 d23f 35e7 113f 9c2e 4abc 3f44 bcbf
00000250: b977 3dbd 9966 08bf bde4 283f 7df5 0b40
00000260: 45c5 f93e 2980 0b40 3a38 bbbf eb0b b2bf
00000270: 9346 ddbe f292 18be f77c d03d d6eb 33be
00000280: f3e7 a43e 5f13 9a3f 16cc ae3d e862 e1bf
00000290: 64f5 733d 0473 a7bf d01c 6c3e 8bbe 753f
000002a0: 40d0 103e 35a8 5c3f 5c43 8cbf 400f 92bf
000002b0: 2191 c0be 6303 83be a74a 91be bba9 8f3f
000002c0: ac14 0440 9122 063e bd48 693f 8468 ca3d
000002d0: ba85 2abf 05a8 6e3f a055 d13f 17dc 8cbf
000002e0: bb40 3c3f 7e9a 0140 377b 3ac0 955f 433e
000002f0: c2b8 2d3e 8734 33bf 8a28 c8bd 91a1 033f
00000300: 6598 8f3f 23e6 843e b01a adbf fff1 0640
00000310: ee7e 313f 3b9c 1fbf d6c5 88bf ec5e 48bf
00000320: cd3c bf3f c1ce 943f 5213 b33f ff35 3ebe
00000330: 4c41 5cbf fe78 c4bf a65f e8bf 7a96 dcbf
00000340: 09e5 da3f cdf9 1a3d 81ad 68bf 5c55 1d3f
00000350: 8883 a33e 78f9 ffbe d5f9 17be 24bf c0be
00000360: 66cd 17be 2fa7 ffbe 591e 263f 01d4 35bf
00000370: eae7 903f 5c13 983f b2ce 143f c0a5 4ebf
00000380: a1ba acbf 2b82 c7bf 1b24 33bf 71e4 b0be
00000390: 354d 8d3f 5ee1 223f 430c e0bf bf8e dabf
000003a0: 7e66 973f 38a6 423f 21e0 e33d b87f aebf
000003b0: 1c20 9fbf 06bb b6be 7ea4 d7be 2648 d73e
000003c0: ffe2 52be fb5d 9abe 2dcf 1bbd d86d 273f
000003d0: 9502 f03f b99f 1a3f bf43 a1be ae5e b5bf
000003e0: 4ead 38be cdc6 edbf 614f a13f 0fb3 63be
000003f0: 1fda 6a3f 9620 093e a69c 1140 36fa edbd
0.12575354 -0.7849978 0.98613775 1.7177927 0.5742431 0.8785571 -0.07079606 0.8190469
1.572116 0.91856587 1.5189846 -0.82864904 1.6149145 -0.7216533 -1.0474421 0.6581671
-1.100408 0.21621081 0.56957334 -0.5768941 0.5687623 0.5537474 0.19662257 0.2845052
-0.90479845 -1.3801488 2.1069603 -1.6731318 0.80822146 -0.09762143 -0.5314516 -1.5135314
0.7381791 -0.031333767 -0.3518072 0.5101797 -0.027712926 0.19760753 -0.4859254 -2.0199344
-0.50910616 1.0946989 -0.91891444 -0.112149514 -1.3623769 0.07605989 -3.4660146 -1.0636754
0.40422863 -0.8852786 -1.3052378 -0.6767814 0.9076988 1.6093471 -1.14875 0.48440167
-1.3149415 0.10712538 0.68397695 -1.4352713 -1.0654527 -0.6505649 -0.74230003 -2.539859
1.0521065 0.4535691 -1.469236 2.3919039 -0.95916486 -0.21935607 -1.4162546 0.2951168
-0.49575055 -0.26228783 0.076874755 -1.819905 -2.2526248 -0.14377199 -0.4783461 0.122126184
0.14950831 0.68173635 1.5676895 0.47556657 -1.0050126 -1.023286 0.5214422 -0.48220333
-0.7726252 2.7445233 -1.9759138 0.415895 1.5672935 -0.03982712 -0.9722075 -0.71206236
0.2399586 -1.199124 1.0634183 -0.6769421 -0.6633918 0.3362924 0.5184555 1.0378041
0.041475523 0.84185106 -0.13130704 -1.4924617 0.36357212 -0.51106703 -0.41850448 1.181892
-0.2659641 0.8041965 -0.307584 1.3537711 0.66702676 -0.23589839 -0.1712208 0.56163234
0.30705154 0.33780503 0.12988454 0.5764989 0.020306023 1.3983688 1.4169482 -0.0058822334
-0.8824504 -0.48821172 -1.3561088 -0.23345223 1.8297452 1.5896279 0.17809501 0.5119587
-0.5462637 -1.4434364 -1.923773 -1.1291713 1.0067925 -0.008793296 -0.804452 1.9658368
1.6479504 0.5699342 -0.012340214 -1.4708327 -0.046256755 -0.5328155 0.65974027 2.1868584
0.48783317 2.1796973 -1.4626534 -1.3909887 -0.43217906 -0.14899805 0.10180085 -0.17570433
0.32208213 1.2037162 0.0853502 -1.7608309 0.059560195 -1.3081975 0.23057866 0.9599387
0.14141941 0.86194164 -1.0958056 -1.1410904 -0.37610725 -0.2558852 -0.28377268 1.1223673
2.0637617 0.13099124 0.91126615 0.09883216 -0.666103 0.9322513 1.6354256 -1.1004666
0.7353627 2.0250545 -2.9137704 0.1907943 0.16965011 -0.70002025 -0.09773357 0.51418406
1.1218382 0.2595683 -1.3523769 2.1085203 0.69334304 -0.62347764 -1.0685375 -0.7826984
1.494043 1.1625596 1.3990271 -0.18575285 -0.86037135 -1.5349424 -1.815419 -1.7233422
1.7101146 0.037835885 -0.90889746 0.61458373 0.31936288 -0.49995017 -0.14841397 -0.3764583
-0.14824447 -0.49932238 0.64890057 -0.7102662 1.1320775 1.1880908 0.5812789 -0.80721664
-1.3494455 -1.5586599 -0.6997697 -0.34549287 1.1039187 0.63625133 -1.7503742 -1.7074813
1.1828153 0.7603488 0.111267336 -1.3632727 -1.2431674 -0.35689563 -0.42117685 0.42047232
-0.20594405 -0.30149826 -0.038039375 0.65401983 1.8750788 0.6039997 -0.31497 -1.4169519
-0.1803486 -1.8576294 1.260235 -0.22236274 0.91739076 0.13391337 2.275186 -0.116199896

encoder.lstm.weight_ih_l0 f4 [128, 16]
00000000: 14d4 71be 29e2 883e bd98 a7be 271e fdbe
00000010: cc9a e33d f12a b73e 770d 84bd bbf4 4f3e
00000020: c403 2bbe 6aed 85be 2928 0ebf a079 a1bd
00000030: c149 713e 9aad 9d3c ade8 d8bd 2efa af3e
00000040: 7fbb 443d 5f5c e43e c925 f0be ef02 54bd
00000050: 82f9 243d 3d8a bbbe 9b67 1e3d 5e09 943e
00000060: 73c6 7abe 9d96 52bf 4f97 09bf 171a c3be
00000070: b183 453e 902d 3cbf 0cfe 343d 2ede cb3c
00000080: 9609 3a3c ac49 4bbe c962 aabe bd39 d63d
00000090: 378a 3ebe 3f97 bf3d 6646 273e f041 353e
000000a0: 0605 803d 93c0 a2be 619b abbe 9a58 e03d
000000b0: ecb4 94bd 6602 133d fa7d 55be b79f bb3e
000000c0: 5333 11bf cb67 e53d 9c73 4e3f 5772 123e
000000d0: ff2b 403d 7181 0b3e 2e9b a5bd a989 b6bd
000000e0: 9ef1 1ebe 528f 0b3e 38c4 8e3d 5b2e 5ebf
000000f0: bb7f c8be f04d 023d bcf4 533e fd27 4bbc
00000100: a4f5 38be c36b f63d 7e47 683e 17ed d73c
00000110: e4de 113f 9756 e13d e851 ebbd acab 6bbd
00000120: 4d0e ccbe 847d 1dbd 7024 c23e c3fa febd
00000130: aa8d 91be 40ed 853e bcdf 00be 5323 86be
00000140: 0904 a23e 4c66 fc3e e523 133e 43bc 223e
00000150: 6c75 333c f0ed b0bd 6480 06be 8a28 b7bc
00000160: 0129 b53d 40bf 22bf 84b0 52be 4be7 0a3e
00000170: 9a8a 103d b9c7 f33e 4f6f cebe 0c8b 8d3e
00000180: 753d 96be de22 7c3d f4cf 273e cd24 fcbd
00000190: 1fe4 d03e b88d 393d 2bcc f23e 445c 103e
000001a0: 6f66 0e3e 8b6d 0b3f 06e1 9d3c 1e96 ba3e
000001b0: 503d 383e d700 1dbd e47a 053e 042b ad3d
000001c0: 398b e2be 1066 d7bd 62d2 11be 7fc9 7bbe
000001d0: 907d f43e b9a8 073f 35ab d63c caca ca3e
000001e0: 11ec c0be e333 11bd be8d 58bf 58b6 f8bd
000001f0: 5578 5cbe 1f3d 7a3f a6fe cf3e dcb5 abbe
00000200: 4b24 ab3d 3828 9cbe eca1 43be 8a44 db3e
00000210: 4e92 9a3d b888 a5be eead 483e 7e99 fc3e
00000220: 2329 a93d 8282 9d3e cbb5 0b3e 04f3 9e3d
00000230: 435e 8d3e 6527 fc3e 9b2f 8abe c642 71bd
00000240: c6d7 4e3e 06e3 7b3e 2643 c8bd cc82 823d
00000250: 8250 dabe e5e2 64be 4786 02bc 167d c13e
00000260: 7224 98be bc72 e33c 3736 34bf 7de5 2abe
00000270: 193a fb3d 3367 143f 5f38 70bc 08d4 923e
00000280: 77ba 673e dda8 5c3d c3b7 c43d 497c fbbd
00000290: 4b40 b13d 62a1 943e 99f1 f9bc 42cf c43e
000002a0: 14ab b0be 2a96 d9be 7944 69be 6cf8 06be
000002b0: d534 0e3f 5822 d83c 3396 e53c c93b ee3d
000002c0: 8714 8f3d c975 e73e cd53 3fbf 337c b43c
000002d0: a355 213e ad6b 93be e5ec 60bc b33b d43e
000002e0: 1c22 04bf 458e e63e 0c20 933d 376a 843e
000002f0: b822 0cbe fb4e d1bd eb1c ef3d 1b05 943e
00000300: 4db7 ebbb 40a0 fa3e 3c67 8cbe cf4b 153f
00000310: 06a6 15be 5bad 223e dac2 1bbf d362 743e
00000320: a89a 7b3e 2c7e 8b3e 79e1 f93e 0598 d53d
00000330: 87a6 903c 077c d13e 8776 e63e 460d 6b3e
00000340: 679d bbbd 5c72 283e f0bb 19bd 9b5e babd
00000350: f368 85be 03b4 03bb e03e b83e 81b3 c6bc
00000360: 28f6 9abd 6430 05be 9f80 a4bd 0c3e c93e
00000370: 9853 923c 31e2 a63e 8646 62be b6db 853e
00000380: 0ee6 f23d 8141 88be 3248 a1be fee9 a13e
00000390: bc8a ef3d 890c 313e 38ea 3c3e 4fe0 9cbc
000003a0: d91c 21be 1a67 bdbd 73c0 05be 1cb1 37be
000003b0: 08ea 423a 2fb8 97be a207 9ebd adfc cf3d
000003c0: a8c4 183e 86bc 2abe 9ed4 81be 0ba8 2c3e
000003d0: 304d 8ebc 2e48 073f b936 d4be 212b 53bd
000003e0: 4934 853d fe95 e43d 60fd 453e 077a babe
000003f0: 572f e2be 097a e33d cef2 8c3c 1b3e 0f3e
-0.23616058 0.26735047 -0.32733718 -0.49437067 0.111135095 0.3577495 -0.06447881 0.20308201
-0.16700655 -0.26157695 -0.5553003 -0.07884526 0.23563291 0.019247819 -0.105912544 0.3437056
0.048030373 0.44601724 -0.46903828 -0.05176061 0.04027701 -0.36628905 0.038673025 0.28913397
-0.24489765 -0.8226107 -0.53746504 -0.38105842 0.19288518 -0.7350702 0.04418759 0.024886217
0.0113548245 -0.19852322 -0.33278492 0.104602315 -0.18607412 0.0935502 0.16335449 0.17700934
0.06250958 -0.31787547 -0.33516982 0.109543994 -0.072610706 0.03589096 -0.20848837 0.3664529
-0.5671894 0.112014376 0.80645156 0.1430143 0.046916958 0.13623597 -0.08086239 -0.08912975
-0.15521857 0.13628891 0.069710195 -0.8678948 -0.3915995 0.03181261 0.20698828 -0.012399671
-0.18062454 0.12032273 0.22683522 0.02635817 0.5698073 0.11002844 -0.11490232 -0.057536766
-0.3985466 -0.03844978 0.37918425 -0.12450173 -0.28428394 0.2615757 -0.12585348 -0.26198825
0.31643704 0.49296796 0.14369161 0.15892129 0.0109532885 -0.08639133 -0.13134915 -0.022358198
0.088457115 -0.63573074 -0.20575148 0.13564794 0.03528843 0.47613314 -0.40319297 0.27645147
-0.29343763 0.06155669 0.16387922 -0.12311707 0.40799043 0.04530117 0.47421393 0.14097697
0.13906263 0.54464024 0.019272339 0.36442655 0.17992139 -0.03833088 0.1303516 0.0845547
-0.44246843 -0.10517514 -0.14240411 -0.24588583 0.47752047 0.52991825 0.026204685 0.3960784
-0.37680104 -0.035449874 -0.8459128 -0.12144154 -0.21530278 0.97749513 0.4062397 -0.33537185
0.08356532 -0.30499434 -0.19104737 0.4282573 0.07547437 -0.3233087 0.19597599 0.49335855
0.08259799 0.30763632 0.13643567 0.07761195 0.27610978 0.49248806 -0.26989445 -0.05890157
0.20199499 0.24598321 -0.097784325 0.06372604 -0.42639548 -0.22352178 -0.0079665845 0.37790745
-0.29715306 0.02776467 -0.70395225 -0.16689105 0.122669406 0.5796997 -0.014661877 0.28677392
0.22629724 0.053871978 0.09605362 -0.12279565 0.08654841 0.29029375 -0.03051071 0.38439375
-0.34505522 -0.4249738 -0.22780026 -0.13180703 0.55549365 0.026383564 0.028025722 0.11632497
0.06986337 0.4520705 -0.74737245 0.022031879 0.15755324 -0.28793088 -0.013728355 0.41451797
-0.51614547 0.45030418 0.07183847 0.25862285 -0.13685119 -0.102201425 0.116754375 0.28910145
-0.007193482 0.48950386 -0.27422512 0.583188 -0.14614114 0.15886442 -0.60844195 0.23865823
0.24570715 0.272447 0.48804834 0.10429386 0.017657531 0.40914938 0.45012304 0.22954282
-0.091608815 0.16449875 -0.037532747 -0.09100076 -0.26056632 -0.002009631 0.3598547 -0.024255516
-0.07566482 -0.13006741 -0.08032345 0.3930515 0.017862126 0.32594445 -0.22097215 0.2614419
0.11860286 -0.26612476 -0.31500393 0.31623834 0.11696383 0.17289938 0.18448722 -0.019149927
-0.15733661 -0.09248181 -0.13061695 -0.17938656 0.0007435386 -0.29632708 -0.077162996 0.10155616
0.14918768 -0.16673478 -0.25357527 0.16860978 -0.01737079 0.5284451 -0.41448 -0.051554803
0.06504113 0.11161421 0.19334936 -0.36421224 -0.44176742 0.11107261 0.017205622 0.13988535

encoder.lstm.weight_hh_l0 f4 [128, 32]
00000000: d23d 45bf a7d3 6dbe 2b33 a5be 3a6a 753e
00000010: 7c56 3e3f 0f6a aabe 127f a4ba 5ea8 eebe
00000020: 75c8 2dbe 74e3 a1be 0526 4cbe 5936 4bbe
00000030: b785 033f 0292 24be 3a13 e53e 44ae 29be
00000040: dc82 923e 8c14 b2bc 000a edbe ae11 25bf
00000050: 6e33 5abe fe80 743e 5800 2dbf ee44 debe
00000060: 403b 743e bfe4 ecbd 7eb3 7bbb 77e3 44be
00000070: a7aa dfbe 2535 273e 3f0c ddbd ae3f adbc
00000080: ceff 77bd ee9c 9a3e 91fe 09bf 7062 1fbc
00000090: ffe8 b83e 35b1 e4be abd4 0a3e 6d8a 7fbd
000000a0: 607b 47be 793a babd edc8 e8be b7ef d7bc
000000b0: fcf0 3dbe 781e 9fbd b5ea 373f fcf1 cd3c
000000c0: 5b75 263e dc33 ea3e 92f5 913e 6cb9 f6bd
000000d0: f5f6 fdbe cadf e03e 9651 d23c 561a 663e
000000e0: db93 013f 1be0 d9bc ce2c e7bb 6212 a0be
000000f0: 7224 2abf ed02 203f 3881 093f 7d3c 00be
00000100: 53e1 d73e c561 1e3e 3f35 9abd 0c49 62be
00000110: e84a 623f adf2 2cbf 9cf3 933e 3675 473c
00000120: 1a04 d1be ac7b 3bbf 5f92 8f3d e102 7fbf
00000130: ea29 7c3d 353a 2abf f3e3 853e 0827 86be
00000140: 0266 663e 029d 67be d586 853e ae44 d3be
00000150: 814e cebe 000e 2f3e f314 37be 2c71 25bd
00000160: 40a2 b03e 28b9 fbbe ee97 bb3d 79e7 1bbf
00000170: 94bc afbe 5947 c0bc b743 2cbe 1736 eabe
00000180: 6d1e 25be 4a41 80be 2182 14bc 720a 99be
00000190: e72f 7cbe d034 47bf 4816 26be 4ee2 7a3e
000001a0: dd25 babc fbff a13e bded ce3d a666 cebe
000001b0: 8782 74bd d773 1bbf 54df 24be 1d51 8e3e
000001c0: 05db b33e c52d 8ebe 11da b93e f725 88bd
000001d0: bb31 2abe 7bd0 e7bd cd6e 8ebe b8ea 99bc
000001e0: 6d0b 83be 56b5 063f a63f 12bf 2d86 42bd
000001f0: b708 b9be 03c7 1cbe 4846 df3d 79cd b63e
00000200: 6825 61be bde0 88bd 3a7c 07be bb8a cc3d
00000210: 6d8e f83e 69c5 22bf a80e 42bc ae44 013f
00000220: 5d16 0abe 3a6a c93c cae4 1fbe 09ca ce3d
00000230: 25b3 ba3e 5eb2 2e3b fdd3 2e3f d41a 243e
00000240: 9bd9 7c3e c1de 7cbe c05a b1bc 9bb5 bebe
00000250: 9df3 babe d7b3 b53e 8313 e73c 641b 28be
00000260: aadc b53e 832a ae3d 0990 c6be 604d 9e3e
00000270: b346 1ebf a28e 343f 4999 f3be 9d41 e4be
00000280: 87cd 8d3e 11f4 90be e4c1 43be 8cae c1be
00000290: b953 42bc bbc0 aabe 4b2a 013f 0aae 433f
000002a0: 4150 e0be 42e9 463e db22 00bf 774f 21be
000002b0: bf9e 45be 5551 1ebe 9716 ab3d a76c 51be
000002c0: fe67 9b3e 5655 5d3c f85b 6c3e a322 1cbc
000002d0: 1768 c73c 56b2 d63e 3529 993e 5d8a d6be
000002e0: a13c 0fbe 2808 a6be 1284 8fbe 8ad2 11bf
000002f0: 2e64 49be 71a0 cc3e 349e 18bf 4abe 67bd
00000300: ef89 4d3e 19f2 ed3e c451 9cbe f9d5 c53d
00000310: 188d 3c3e 9065 debe 82c5 86bc bc6d 1c3f
00000320: 4656 7fbe 83c2 c6ba eadb babe 42c1 12bf
00000330: b89b dabd e103 ecbe 013b b8be f229 1c3e
00000340: 3584 21bd cc58 b0bc f316 fcbe dc49 4f3e
00000350: 1421 c0be 5bfb 123f 8292 54bd 7289 85be
00000360: 88e7 843f 3b3a abbe dfd3 853d 19db 8dbe
00000370: 9bc4 3bbf 4091 9f3e ad0f a03d 394f 58be
00000380: 20af 003e fe35 8fbe f871 33bf de9b 68be
00000390: ab9e 7b3f 1228 babe c6b4 40be 96ae 71bc
000003a0: f6dd 73be bf2c 69be 6bea a1be 3cb4 06bd
000003b0: 84be 253e dfe5 e5be fdf2 c33e 03e1 f3bd
000003c0: cb1b 5c3e 32cd 523e 2748 4dbe 78cc 14be
000003d0: 4dec 7a3d 7fa4 243e e65c 2abf e245 febe
000003e0: 7b7b 37be 95eb 21bf 8503 9ebe f58b 7abf
000003f0: 3254 a6be d767 9a3e 1905 fbbc c04e bdbd
-0.77047455 -0.2322527 -0.322656 0.23966303 0.74350715 -0.3328404 -0.0012550077 -0.4661283
-0.16971 -0.31618845 -0.19936378 -0.1984495 0.5137591 -0.16071323 0.4474123 -0.16570383
0.28615463 -0.021738313 -0.46296692 -0.644801 -0.21308681 0.23877332 -0.6757865 -0.43411964
0.23850727 -0.11567067 -0.0038406546 -0.19227396 -0.43684885 0.16328867 -0.107933514 -0.021148529
-0.06054669 0.30197853 -0.5390406 -0.009728059 0.36115262 -0.44666448 0.13557689 -0.062387872
-0.19480658 -0.09093184 -0.45465794 -0.026359422 -0.1854896 -0.07769483 0.7184251 0.025139801
0.16255705 0.4574269 0.28507668 -0.12047085 -0.49602476 0.43920738 0.025673669 0.22470984
0.50616235 -0.02659612 -0.0070549017 -0.31264025 -0.6646186 0.62504464 0.537128 -0.12523074
0.42164096 0.15466984 -0.07529687 -0.22098178 0.8839555 -0.67557794 0.28896797 0.012173941
-0.40823442 -0.73235583 0.0701034 -0.9961377 0.06156341 -0.66495067 0.26150474 -0.26201653
0.2249985 -0.22618487 0.2607943 -0.41263336 -0.4029427 0.17095184 -0.17879085 -0.040391132
0.34498787 -0.491647 0.09159838 -0.60900074 -0.3432356 -0.023471521 -0.16822706 -0.45744392
-0.16124888 -0.25049812 -0.009064228 -0.29890782 -0.24627648 -0.7781496 -0.16219437 0.24500391
-0.022723133 0.3164061 0.10103939 -0.4031269 -0.059694793 -0.6072363 -0.16100818 0.2779626
0.35128036 -0.27769294 0.36299184 -0.06647866 -0.16620533 -0.11319061 -0.2781891 -0.01878868
-0.25594655 0.52620447 -0.5712837 -0.04749124 -0.3613946 -0.15310292 0.10902077 0.35703638
-0.21986926 -0.066834904 -0.13230982 0.09987398 0.48546162 -0.63582474 -0.011844315 0.5049542
-0.13485093 0.024586786 -0.1561462 0.10097129 0.364648 0.0026656608 0.6829222 0.16025859
0.24692385 -0.24694349 -0.021649718 -0.3724793 -0.36513987 0.3548877 0.028207546 -0.16416699
0.35519916 0.08504202 -0.38781765 0.30918407 -0.6182663 0.7053014 -0.47577885 -0.4458131
0.27695867 -0.28311208 -0.19116932 -0.3782848 -0.011860781 -0.33350167 0.5045516 0.7643744
-0.4381123 0.19424918 -0.50053185 -0.1575297 -0.19298838 -0.15460713 0.08353918 -0.20451604
0.30352777 0.013509115 0.23081958 -0.009529742 0.024341626 0.41932935 0.2991425 -0.41902438
-0.13987972 -0.32428098 -0.2803045 -0.5696188 -0.19667122 0.39966157 -0.596164 -0.05657796
0.20072149 0.46473768 -0.30531132 0.09659953 0.18413198 -0.4343686 -0.016451601 0.6110494
-0.24935254 -0.001516417 -0.36495906 -0.5732614 -0.10674232 -0.4609671 -0.35982516 0.15250376
-0.039432723 -0.021526717 -0.4923626 0.20243019 -0.37525237 0.5741479 -0.051897533 -0.26081425
1.0383158 -0.33442864 0.06534552 -0.2770622 -0.7334687 0.31165504 0.0781549 -0.21123971
0.12566805 -0.2797088 -0.7009578 -0.22715709 0.98288983 -0.36358696 -0.1881896 -0.014751097
-0.2381514 -0.22770976 -0.3162416 -0.03288673 0.16185957 -0.4490194 0.38271323 -0.11908152
0.21494977 0.20586088 -0.20047055 -0.14531124 0.06126051 0.16078375 -0.66548 -0.4966269
-0.17918198 -0.63250095 -0.3086206 -0.9786981 -0.3248611 0.3015735 -0.03064208 -0.09243536

encoder.lstm.bias_ih_l0 f4 [128]
00000000: 3725 063f 5b61 993e 1929 d53e d308 cb3d
00000010: a51c 303e 256a d53e 263e d23e f825 b53e
00000020: 53f0 7c3e 287b ce3e ee8e 563c 1205 533d
00000030: 281a 843d f06e 273f 3e3f 853e 1c23 1d3e
00000040: e23a cf3e b516 de3e e734 013f ba88 cbbb
00000050: cd12 173e 203f 463e 41ac cf3e 8cc4 923e
00000060: 6d92 8b3e 0267 9a3e d1eb d03e 38bd 513e
00000070: be18 313f df45 943e dad5 1ebd 2764 453e
00000080: 3ffd 813e e6ab 6dbe a308 903e e61f bb3d
00000090: 9199 283c 6395 cb3e 98a2 203e 3cef 683e
000000a0: 0735 6d3e a713 963e 63a7 293e 1c0b e43e
000000b0: 528e 923e 0ab1 4e3e 3d85 983e b00f 4d3e
000000c0: bbb0 c93e ae31 713d 63a3 963e 50f6 823e
000000d0: 1539 333e 6da9 0b3e 5705 2d3e c5cb a13e
000000e0: 93b1 ae3e 51f2 5e3e 37ff 0e3e fedd dc3c
000000f0: 5fb6 223e 8b5e f13e 662b 013e cea1 55bd
00000100: 0693 bbbb c1b8 0cbc 5570 cdbd f03e 14be
00000110: 2c6d 393e 58b2 c7bd e8bd a23d 7b34 d73d
00000120: d84a 27be d143 72bd bf7e 293b 2b0b 94be
00000130: 9e9a 42be 3beb 48be 6dc0 eebc b3b1 233e
00000140: a027 7e3d 69fb 3abe 71c1 a23d 5c1d c2bd
00000150: 0512 f8be 9035 6d3e 777f 1bbe ff5e 963a
00000160: 1ef0 783e 17c8 29be 38ac 14bd b12c 43bd
00000170: 03f6 46be a925 893e 0aea 69be eeb9 02be
00000180: 765b 823e 6fe5 993e 99c5 803e f92c a33e
00000190: ec06 9b3e e503 043e f30f 103e cb4b 323e
000001a0: 6006 1b3f c6a8 6a3e 1f66 60bd 2a9e 383e
000001b0: 0ffe 313e 3040 f73d b797 49be 8013 1b3e
000001c0: 12a5 323e 0cad b83e ffe8 5d3e 15e3 d03d
000001d0: ee3b df3d e19a 02be cd67 f43d 2ac2 6bbd
000001e0: 90d0 103d 3c5a aa3e 7985 423e 0ecc 9c3d
000001f0: bc90 253e cbe6 ebbd e90d aabc f732 bd3d
0.52400535 0.2995709 0.41632918 0.099137925 0.17198427 0.41682544 0.4106304 0.3538053
0.24701051 0.40328336 0.0130956005 0.051518507 0.064503014 0.6540365 0.26024812 0.15345424
0.40474612 0.433767 0.5047135 -0.0062113674 0.14753266 0.19360018 0.40561107 0.28665578
0.27260152 0.30156714 0.40804914 0.20482337 0.6917838 0.28959557 -0.038778163 0.19276486
0.25388524 -0.23210105 0.2813159 0.091369435 0.010290519 0.3976241 0.15687025 0.2274751
0.2316476 0.2931187 0.16567759 0.44539726 0.28624207 0.20184723 0.29789153 0.20025516
0.39392647 0.05888527 0.2942153 0.25578547 0.17502244 0.1363885 0.16896568 0.31600776
0.34119853 0.21772124 0.13964544 0.026961323 0.15889882 0.47142443 0.12614211 -0.052156262
-0.0057243137 -0.008588971 -0.10031191 -0.14477134 0.18108052 -0.09750813 0.07946378 0.10508057
-0.16337144 -0.059146706 0.00258629 -0.2891477 -0.19004294 -0.19620983 -0.02914449 0.15985756
0.062049508 -0.18259968 0.07947052 -0.09478256 -0.48451248 0.23164964 -0.15185343 0.0011472403
0.24310347 -0.16580234 -0.036297053 -0.047650043 -0.19429784 0.26786545 -0.22843185 -0.12766239
0.25460404 0.30057856 0.25150755 0.3187025 0.30278718 0.1289211 0.14068584 0.17411725
0.605566 0.22915944 -0.05478489 0.18029085 0.17382072 0.1207279 -0.19686781 0.15144157
0.17445782 0.36069524 0.21670912 0.101995625 0.109001026 -0.12754394 0.11933861 -0.057558216
0.03535515 0.33271968 0.18996228 0.07656108 0.16168493 -0.1151863 -0.020758586 0.092382364

encoder.lstm.bias_hh_l0 f4 [128]
00000000: 40bf 953e b5f2 913e 0751 2c3e 17a6 833e
00000010: b0da 603e ec4c 3e3e 22e6 953e dcae 7e3e
00000020: 946a e93c c248 d63e fda7 f13c 5e42 753e
00000030: b7f2 ae3d 4ec8 413f cfe1 983d 5a95 ae3e
00000040: 1518 323e 32bb fd3e c47b 883e db89 d2bd
00000050: 845a 383c d1a8 993e f185 bf3e d6b6 e03d
00000060: 7782 8e3e 1e4f f73e cb3a 8b3e 18b8 b23c
00000070: c69d ef3e 1aee d93e a146 d43c 130c 813e
00000080: 5846 0d3e 1201 8bbe 8c02 28bc bd7c 923d
00000090: 7d0f 483e 50b8 d23e 7511 9e3d 72dd d03e
000000a0: 07bb 543e 8b03 d93e 0a7c 1e3e aa43 a03e
000000b0: 3248 723e c366 da3e d48b 893e 1ba8 583e
000000c0: 5cdb a83e f445 a13d 9817 153e 8ba4 df3b
000000d0: b6ca 203e 6f77 473e 1ed0 dfbc 08ee 913e
000000e0: 4da8 a03e 5ab9 a63e 6560 703e 0c21 973e
000000f0: e460 863e 9bae a63e ee02 a23e aa14 2d3e
00000100: 6449 0f3e ee11 6ebe c77a 78be 6522 00be
00000110: 7e30 9e3d 7eee 20be 2601 2f3e 8074 6c3d
00000120: fb2c 21bd 0017 31be b65c 2ebe c9ff 81be
00000130: 9492 123d 283e bcbd f640 f73b 6ee2 cfbd
00000140: c178 843e e023 4abe 6c2a 16bc 2350 47bd
00000150: 953f fabe e717 823c 1f11 8abe a73b 1ebe
00000160: f50e 523e b52d ebbd 8f56 7ebe e08f eebd
00000170: 6462 3abe a7b5 663e cf10 9cbe d431 53be
00000180: f8f3 9c3e da43 863e 4bfd 863e d6a2 3b3e
00000190: 5c53 c63e 5783 3c3d a3d5 c23d f165 f4bd
000001a0: e088 f43e 14b2 923e 05b4 c83b 754a 933d
000001b0: 2a60 8f3d 1b6f 8b3e 17fb 21bd a5a3 253b
000001c0: fbaa 9f3c 876e 153f c286 a23c 7be0 813e
000001d0: 5043 a23c 4ceb 41bd 3629 db3d 69cc 213e
000001e0: e995 c4bc 6503 073e cb92 863d ba64 433e
000001f0: 0ab3 5b3e bc5b 99bd f42f 693e 0db6 5d3e
0.29247475 0.28505483 0.16827784 0.25712654 0.21958423 0.18584031 0.2927714 0.24871391
0.028493203 0.41852385 0.029499048 0.23951098 0.08542388 0.75696266 0.074649446 0.3409832
0.17391999 0.4955688 0.26656926 -0.102802 0.011252049 0.3001161 0.37406877 0.10972373
0.27833912 0.4830255 0.27193293 0.021816298 0.4680006 0.4256447 0.025912585 0.25204524
0.13796365 -0.27149254 -0.0102545135 0.07152698 0.19537158 0.41156244 0.077181734 0.4079395
0.2077447 0.42385516 0.15477005 0.31301624 0.23660353 0.42656526 0.26864493 0.21157877
0.32979858 0.078746706 0.14559782 0.006825035 0.15702328 0.19479154 -0.027320918 0.28501916
0.31378403 0.32563287 0.23474272 0.295174 0.26245797 0.32555088 0.3164286 0.16902414
0.1399284 -0.23249027 -0.24265586 -0.1251312 0.07724093 -0.15715978 0.17090282 0.05772829
-0.039349537 -0.1729393 -0.17027554 -0.2539046 0.03578432 -0.09191543 0.0075455857 -0.1015061
0.25873378 -0.19740248 -0.009165388 -0.04866041 -0.48876634 0.015880538 -0.26966187 -0.15452443
0.20513518 -0.11483327 -0.24837707 -0.11648536 -0.18201596 0.22530232 -0.30481574 -0.20624477
0.30654883 0.26223642 0.26365122 0.18323836 0.38735473 0.046023693 0.09513404 -0.11933506
0.47760677 0.28651488 0.0061249756 0.07191936 0.07000764 0.27233204 -0.0395461 0.0025274542
0.01949071 0.58371776 0.019839648 0.25366578 0.019807488 -0.047343537 0.1070122 0.15800633
-0.023997264 0.13184889 0.06570967 0.19081393 0.21455017 -0.074882 0.22772199 0.21651478

policy.net.0.weight f4 [128, 32]
00000000: 95f8 b8be d165 d739 2e11 c9bd 6dc6 d0be
00000010: 1648 e93c d0d3 ddbd 055b 0a3d 5481 a83e
00000020: 8b4d fa3e 5f80 58be 26ac 1ebe c68a 98be
00000030: 35e9 98be 3b94 c03d 1ecf 88bb 23da 2e3e
00000040: e555 abbc 8685 4fbe daf6 d9be 667a 703e
00000050: 8b0c c43d 6603 683d efc6 32be 97f3 efbd
00000060: 0058 5b3e 191e 633e 3739 8cbe 3ef7 a5be
00000070: c2f9 31be 1f2c f33c c2e3 8dbe d27e a4be
00000080: 6f89 c93c 6e14 863b 298c c5bd cf03 f439
00000090: 80a6 96bd bac3 43bd 3e70 b7be 0bad c03e
000000a0: eac1 e13e f267 00be cab8 2dbe 8e79 90bc
000000b0: 4500 ffbd 1da4 e7bd 8c7f 17be 5746 81bd
000000c0: 7679 ea3d 60ed 0ebe 0249 30bd 1d67 d83d
000000d0: 02a8 ccbe 6571 74bd 1f9b d13c 2159 853d
000000e0: 0d51 373e d223 d33d 9791 5f3e 9b49 dd3d
000000f0: ebc0 08be b098 ca3d 3437 7e3e feb3 9abe
00000100: 4736 42be c23a 3dbe 9f20 a8bd d71d 5cbe
00000110: 5248 0dbd b8f9 44be b5bd 2ebe 4e0a c93e
00000120: 07e9 223f 3218 d5bd 957d 233d cd47 223e
00000130: 30e4 b3be c8ac b7bd 01ad 75be b7fd 1f3e
00000140: edd6 14bd 390a 9d3c c20c 26be 232a dd3e
00000150: 9393 e4bd 2891 e73d cd79 babd f189 4dbe
00000160: ff4c b9bd 3a6c 873e 9593 6bbd a88e cc3c
00000170: 31a4 a3bd 9a31 59bc 90c5 c23d 75f4 b8be
00000180: 3da7 e53e ff1f c5be 7360 0cbe c2fd 903e
00000190: ec37 7a3e ae31 54bd 1b81 a2be 416c 66be
000001a0: ca57 a73e 1740 ecbd eb0e 073e 83bb dbbe
000001b0: 4af6 11bf 367f 07be 8048 963e 823d 6fbe
000001c0: 4145 c8be cd8d e53d e782 22bd 60cc 5a3d
000001d0: c5d1 8cbe a668 58be 22b8 cf3d 5fd5 e2be
000001e0: 65e0 bfbd 58b2 a03d 1b9f ab3e 041a ed3e
000001f0: afdf 243e ab47 eebd 6f82 243e b764 55be
00000200: fc21 203e 6a32 c13e ecf7 5bbe f41d 85be
00000210: b6a1 28be 3f4b 753e 27c2 81be 3ca9 adbe
00000220: 016d 98be a163 47be 36a1 cc3e d9c3 fabe
00000230: 9caa 6abf 5e98 63be fef3 323d 2642 95be
00000240: dda4 6fbe 3ded ddbe 90a5 e8bb 1663 2abe
00000250: cb69 cbbd cfef 31bf 9aeb fbbc 1131 59bd
00000260: ff9e b3be 810c cabd 5379 ca3e 421c cbbd
00000270: 007f 4e3e 7934 14bf 5544 8c3e 6e2e 71bd
00000280: f0fa 49bc 6bb1 1cbe bee4 f1bd 7ebd 5d3e
00000290: 18dc 613e 91bd 37be ebea 9b3e 7eeb 34be
000002a0: 8295 f3bc 98d5 15bc 7524 c13c 277a 8e3e
000002b0: 3a1f 763e 3962 79bd 8507 7d3b f289 33be
000002c0: f65c c7bd a648 bd3d 5c60 99bd 88ec ad3d
000002d0: 8996 dc3d 9d87 39be d819 0c3d d015 35bd
000002e0: 7624 58be 6cd2 f93b a862 b2bc 9320 5e3e
000002f0: e866 ce3d a3c2 37be ec52 0ebe 1975 d63e
00000300: 1864 b6bb 8112 093e c02e f33e f1ff ccbe
00000310: f799 9d3e ecee 84bd 3d61 a03d 2e0b c2bd
00000320: 38ee 60be a1a0 3dbd 2d9d 753e 7662 6f3e
00000330: 642e a7be a74d 8f3d c9e9 bfbe b1db 22be
00000340: df07 edbd fda6 5abe 2439 35be 1afc 09bf
00000350: 4c2f b9be 0f45 fdbe 2876 293e 5407 b03e
00000360: 0062 96bd 1809 953e a36e b63c 5d09 573d
00000370: a9cc aa3e 00e1 efbe d63a bc3c 9459 0b3c
00000380: 4c27 013e 0363 f83d 0918 893d 44a4 f73d
00000390: da1c 07be 98db 06bd 6d72 edbd fc30 08be
000003a0: b6cb ae3d 069b 09bd f08c a8bd 5005 35bc
000003b0: ffc9 00be d00a 113d ada7 933d a581 713c
000003c0: 401f afbc d807 543d 6000 8c3d 846b debc
000003d0: 7415 2b3e 135b 69be e9fb 04bc 2fc7 a33c
000003e0: 1e6a 97bd 66dc ab3d f996 d5bd fe73 e83d
000003f0: 873c a73c 2cf7 423c d0d1 d03c 998f 083e
-0.36127153 0.00041083855 -0.0981773 -0.40776387 0.028476756 -0.10831416 0.03377821 0.3291117
0.48887286 -0.2114272 -0.15495357 -0.29793376 -0.29865423 0.09403273 -0.004175081 0.170754
-0.020914981 -0.20265779 -0.42571145 0.23484191 0.09572705 0.056643866 -0.174587 -0.11716383
0.21420288 0.2217945 -0.273874 -0.32415193 -0.17380431 0.029684125 -0.27712828 -0.32128006
0.024601666 0.004091791 -0.09645874 0.00046542144 -0.07355976 -0.04779408 -0.35827821 0.3763202
0.44093257 -0.12539652 -0.16965023 -0.017636087 -0.12451223 -0.11310599 -0.14794749 -0.063122444
0.11448948 -0.13957739 -0.043038376 0.10566542 -0.3997193 -0.059678454 0.025586663 0.065111406
0.17902012 0.103095666 0.21832882 0.10805055 -0.13354842 0.09892404 0.24825746 -0.30215448
-0.18966018 -0.18479446 -0.08209347 -0.21495758 -0.0344928 -0.19235885 -0.17064555 0.39265674
0.6363682 -0.104050055 0.039914686 0.15847702 -0.3513503 -0.08968502 -0.23991777 0.15624128
-0.03633778 0.019169914 -0.16215804 0.4319621 -0.1116096 0.11306983 -0.09105263 -0.20072152
-0.09047889 0.26449758 -0.057513792 0.024970368 -0.079903014 -0.013256455 0.09510338 -0.36124006
0.44854155 -0.38500974 -0.13708667 0.28318602 0.24435395 -0.05180519 -0.31739125 -0.22502233
0.32684165 -0.11535662 0.13189285 -0.42916498 -0.5701643 -0.13232121 0.29352188 -0.23363307
-0.39115337 0.11208687 -0.03967562 0.053417563 -0.2750379 -0.2113367 0.101425424 -0.44303414
-0.09368972 0.07846516 0.33519825 0.4630891 0.16100954 -0.11634763 0.16065381 -0.20839201
0.15637964 0.37733775 -0.21481293 -0.25999415 -0.16467938 0.23954485 -0.2534344 -0.33918178
-0.29770663 -0.19471599 0.39966744 -0.48977545 -0.9166658 -0.22226092 0.04368972 -0.2915203
-0.23402734 -0.4334506 -0.0070998147 -0.16639361 -0.09932288 -0.69506544 -0.030751992 -0.05302531
-0.35082242 -0.09865666 0.39545688 -0.09917499 0.20165634 -0.57892567 0.27395883 -0.05888217
-0.012327895 -0.15302055 -0.11811207 0.21654317 0.22056615 -0.17943408 0.30452666 -0.17667958
-0.029734377 -0.009145163 0.023576954 0.2782757 0.2403535 -0.060884688 0.0038609218 -0.1753309
-0.09734528 0.09242372 -0.07489082 0.084923804 0.107709 -0.18118139 0.034204334 -0.044210255
-0.21107659 0.007623961 -0.021775559 0.21692114 0.100782216 -0.17945342 -0.1389882 0.41886213
-0.0055661313 0.13385965 0.47496605 -0.40039018 0.30781528 -0.06490883 0.07831047 -0.094747886
-0.21965873 -0.046295766 0.23985739 0.23377404 -0.3265258 0.06997233 -0.3748305 -0.15904118
-0.11573767 -0.21352763 -0.17697579 -0.539003 -0.36168897 -0.4946675 0.1654898 0.3438059
-0.07342911 0.291085 0.022269553 0.052499164 0.33359268 -0.4685135 0.022977274 0.008505244
0.12612647 0.1212826 0.066940375 0.12091878 -0.131946 -0.032924265 -0.115940906 -0.13299936
0.085349485 -0.033595107 -0.08230007 -0.01104863 -0.12577055 0.035410702 0.07209716 0.014740382
-0.021377206 0.051765293 0.06836009 -0.027150877 0.16707402 -0.22788648 -0.008116701 0.01999244
-0.07393287 0.08391647 -0.104291864 0.11350249 0.020414604 0.011899751 0.025490671 0.13336028

policy.net.0.bias f4 [128]
00000000: 9b6a 593e 49e0 023e 7b16 ae3c 7daf da3d
00000010: e09f 05be b4c9 45be c89c 51be fa33 9dbe
00000020: 2e53 273c 1122 e83d 866c 903e 614d 4fbd
00000030: 4320 f03d 32e3 de3d 3149 063e 48e4 4b3d
00000040: 1f32 a03d 27be 173e 0274 5bbe 0b18 903d
00000050: 91e2 f93c 7753 2d3b a319 4b3e 83d1 ffbc
00000060: 58db dabd 0dba 96be 209c 6dbe 948a 5abd
00000070: 9234 bdbd 941b 4bbe 33ad ea3d 3365 57be
00000080: 1d89 91be c686 fbbd d52e 49bc 4da4 243e
00000090: fa63 19bd f390 1dbe cab4 4b3e 8370 2d3e
000000a0: c2f8 503d 0ee9 ff3d 61fe 393e b617 40be
000000b0: 0a82 ba3d aac0 d63d c1ed 84be bcd3 79be
000000c0: 933d e83d 9bd4 963d c0a9 7cbe 54e0 77bd
000000d0: 36f4 403e f05e aebe 6329 49be 97ab d13d
000000e0: f26d c7bd 286e dfbb 8b6e a83d 53d1 94bc
000000f0: 2d35 113e e87e 5e3e aa55 943e 6158 b1bd
00000100: 8732 4dbd 8ec9 88bc 353b 163d ae0a d73c
00000110: 517b 84bd c57f cd3d 1026 8ebe cf9d e2bd
00000120: 911c ca3d 8ead 8ebd d425 083d d1dc 86be
00000130: e44a b6bc 5903 3d3e 47d5 c03d 908d 823e
00000140: c73e cf3d 995f 7e3d e487 5b3a 69be 973d
00000150: a3d8 033d e746 62be cd58 bebd 35a6 8bbd
00000160: baae 083e efd4 31bc e0ce 043d 3500 833e
00000170: 0f0b 633d 4ce0 253e 43fc 2b3e 755c e6bd
00000180: 536b 0b3e 0931 833d 1931 fdbc b8f4 42be
00000190: 02a2 623e 78f6 a3bc b160 333e 60d7 c03d
000001a0: debc fa3d 8b23 223e f17c 323e 6398 84be
000001b0: 6309 3b3e c95c 2cbe b3b9 b3bd 0971 dc3d
000001c0: a7a3 573e dfd1 4bbd b307 d7bd a750 1d3e
000001d0: 0810 b8bd de37 a93d 93a1 033c 7474 103e
000001e0: 1a9c 393e 6c68 4c3e 6950 8c3d 342e 163d
000001f0: 04c1 d0bd a6f6 253e 8f71 273e e114 00be
0.21232073 0.1278087 0.021250954 0.10678003 -0.13049269 -0.19315225 -0.20469964 -0.30703717
0.010212703 0.11334623 0.28207797 -0.050610904 0.117249034 0.10883178 0.13113858 0.049778253
0.0782206 0.14818631 -0.21430972 0.07035836 0.030503543 0.0026447454 0.19833998 -0.031227833
-0.10686368 -0.2943882 -0.23204088 -0.053354815 -0.092385426 -0.19834739 0.114588164 -0.21034698
-0.28424922 -0.12281565 -0.012279232 0.16078301 -0.03744886 -0.15387325 0.19893184 0.16937451
0.051018484 0.124956235 0.18163444 -0.18759045 0.09106834 0.104859665 -0.25962642 -0.24397177
0.11339869 0.0736477 -0.2467413 -0.06051667 0.18843159 -0.34056807 -0.19644694 0.10237806
-0.09737767 -0.0068185516 0.082242094 -0.01816622 0.14180441 0.21728098 0.28971606 -0.08659435
-0.050097015 -0.016697671 0.036677558 0.02625021 -0.06468833 0.10034136 -0.27763414 -0.11065256
0.0986873 -0.06966697 0.0332392 -0.26340345 -0.022252508 0.18458308 0.094156794 0.2549863
0.10119396 0.062102888 0.00083744363 0.07409365 0.032189023 -0.2209736 -0.09294281 -0.06818811
0.13347903 -0.01085399 0.032423854 0.25586095 0.05543047 0.16198844 0.16795449 -0.112481035
0.1361516 0.06405837 -0.0309072 -0.19038665 0.22132114 -0.020014986 0.17517354 0.094160795
0.12243055 0.15833871 0.17430474 -0.25897512 0.182653 -0.1683227 -0.08775654 0.10763747
0.21058522 -0.049760696 -0.104995154 0.15362798 -0.08987433 0.08262609 0.008034128 0.14106923
0.18125954 0.19961709 0.068512745 0.036665156 -0.10193065 0.1620737 0.16351913 -0.12507965

policy.net.2.weight f4 [5, 128]
00000000: 8390 9bbe 7cf2 a7be 32d3 86bf b218 c3be
00000010: 4182 44c0 8c79 d4bf ac51 dbbf 8ee9 b53c
00000020: abe2 8dbe c47a f3be de11 cfbe fc8a 6abf
00000030: f748 a4be 0652 2abf fb6f d6be 7633 08bf
00000040: b34d f1be 6835 c2be d6bd 42be 095d 9fbf
00000050: 85cb ffbf 6fad 89be daea 3abe cf34 62bf
00000060: dcd8 97bf ad47 98bf 5c04 abbe a52a 23be
00000070: 4f61 f2be 2d11 adbe 49dd c2be 7816 a5be
00000080: ecaa 3cbf 526d 30be 624f e2be 26b1 56be
00000090: 4a68 6cbf c675 21c0 7687 fbbe 2c3a 55bf
000000a0: 7c77 f4be 9345 2abe 53e2 10bf a7cf 9cbe
000000b0: b4aa 81bf 4821 86be 645d 5fbe 3e0f 85be
000000c0: 1e8d eabe 3bf0 f6bf 3a5e 5fbf 807e c9be
000000d0: 52e5 0abf af4b 07bf 1126 d1be fb94 1fbf
000000e0: 6f15 59c0 973e a4bf 7299 e2be a310 01c0
000000f0: 2b92 83be 3dc3 c9be eb32 92be f8f1 45c0
00000100: 99e8 61c0 b0eb 23c0 13f4 79be 87db 49c0
00000110: e642 dcbf 194d 2abe c8b5 b7bf ad3d 3ac0
00000120: 04d0 bcbd a020 a2be f56f 88bf 2203 89bd
00000130: bc66 0bbf 1206 b0be 8fb8 31be 8ab1 a4be
00000140: 7758 6abf 45dc 89be fc43 70be 8194 e3bd
00000150: 9ea6 c8be e0ce 1fbe da9d 85bf 929b 0ac0
00000160: 4197 d3be 941f b0be e1fc 15bf 8f6f 00bf
00000170: e543 b2be 70a3 f7bf 0164 2ebf ecfb 9cbe
00000180: 5538 7abe 28d5 27bf 538c 87bf e9bc 8cbe
00000190: b408 11bf b489 0ebf 9316 94be 1b7a 9cbf
000001a0: 1ae2 a9be 3b09 0dbf 380b 0ebf 6a7d edbe
000001b0: cb5e edbf cfc7 0bbe 06c4 febe 4a80 b9bf
000001c0: b1ff 08bf 23b2 81bf cb85 83be 2da8 b5be
000001d0: 9208 99bf d28b 6cbf 6305 adbf c6f5 7fbe
000001e0: 87bd b3be e305 c5be 71f7 9dbe c6dd 6fbe
000001f0: 4328 84be cedc a8be 6ab8 b4be 373f 9dbf
00000200: 4245 88be 9ab4 8dbd c651 043e 6422 abbc
00000210: e3bf 61bf 2582 9a3c 8099 1abd 546d 743d
00000220: 25d6 c83c 1102 ba3e c697 9a3d 248a b0bb
00000230: 4938 1f3d c99f 0e3e 9739 8abc 11e0 ad3d
00000240: a2bb 2e3d 6e8e 323e 03c7 cdbd 499d bfbd
00000250: 8355 2a3e ca31 483d 2ece 1f3e 7bee 9b3b
00000260: 7b7c 773f 4299 e33c 5500 fc3c 47df 33be
00000270: b926 973d 56ea 2f3e 18b0 fa3d e5bd aa3d
00000280: 626e 973f 0172 a4bd 5e55 81bc c9cc b83c
00000290: cd72 e03d f21e fbbe 54ac 253d f771 ecbd
000002a0: 46c7 97be 440e f5bd 3e66 abbe 314d 4f3d
000002b0: 162c 8a3d 387a 573e 979e 1e3d ed3e 423c
000002c0: bdbf d43d dde7 d73e fd52 42bf 75ac 133d
000002d0: 793b 82b9 409f d83d 2db4 473d b74a 25be
000002e0: 73ba 2b3f e45b 26be ca2f cabd a839 913d
000002f0: c96c 183d ba9c b8bb a36b c83d dd20 9e3e
00000300: d03a 843e 3be9 7fbe 69c0 e33b 9edb a0be
00000310: 911b c1be 76cf 5c3d ddbb eabe c4e0 8e3c
00000320: 21d0 c3be cd5a f63c 62de 563e 47a8 b73c
00000330: a2b5 62be af2a 933d 851d 88be 0757 18bd
00000340: 1cd0 323d 81eb b13b bc9f 853d 0da1 86bd
00000350: 2785 d43d 6c5e 233d 5f0f d4bc af41 5cbf
00000360: 878b ab3d 973c 943d a42f b93e 0fc3 023f
00000370: 8e23 153e 5102 733e 529b 9d3c 8764 8abd
00000380: 7265 b6bc 66bc 923d a6a8 d53c 92e7 a1bd
00000390: dd42 b93c 9779 d23d f538 9ebc 6f2b bd3d
000003a0: 2f88 9d3c 164f 4cbe c219 463d fe8d f6bd
000003b0: a36f b6be 3010 2abf 36a5 e93d 541e b53e
000003c0: bc64 653e 8f48 d13e 85aa 8a3d 380e d5be
000003d0: c79b b23e 4c8f a1be dde6 243d ed7c edba
000003e0: a3db 163d 82ea 1b3d 2d29 51bf 6946 97bd
000003f0: 4cde 5b3d 6b92 ac3d 6afd 103e a3de 8cbd
-0.3038369 -0.32802188 -1.0533202 -0.3810478 -3.07045 -1.6599593 -1.7134299 0.022206094
-0.27711996 -0.475546 -0.4044332 -0.91618323 -0.32086918 -0.6653141 -0.4188231 -0.53203523
-0.47129592 -0.3793137 -0.19017729 -1.2450267 -1.9983984 -0.26890132 -0.18253651 -0.8836183
-1.1863055 -1.1896874 -0.33401763 -0.15934236 -0.47339866 -0.33802167 -0.38059452 -0.32243705
-0.73698306 -0.17229202 -0.4420119 -0.20966014 -0.9234663 -2.5228133 -0.49126786 -0.8329189
-0.4774741 -0.16628103 -0.56595343 -0.30627176 -1.013022 -0.26197267 -0.2181297 -0.2598819
-0.4581079 -1.9292063 -0.87253153 -0.39354324 -0.54256165 -0.5284986 -0.40849355 -0.623367
-3.3919332 -1.2831601 -0.44257694 -2.0166404 -0.25697455 -0.39406767 -0.28554472 -3.0928936
-3.5298216 -2.5612602 -0.24409513 -3.154024 -1.7207916 -0.16630973 -1.435235 -2.9100144
-0.09219363 -0.31665516 -1.0659167 -0.06690051 -0.54453635 -0.3437963 -0.1735556 -0.32166702
-0.91541237 -0.26925865 -0.23463434 -0.11112309 -0.3918962 -0.1560626 -1.0438797 -2.1657453
-0.41326335 -0.34399092 -0.5858899 -0.50170225 -0.34817424 -1.9346752 -0.68121344 -0.3066095
-0.24435551 -0.65559626 -1.0589699 -0.27487877 -0.56653905 -0.5567887 -0.28923473 -1.2224764
-0.33180314 -0.5509221 -0.5548587 -0.46384746 -1.8544554 -0.1365044 -0.4975893 -1.4492276
-0.53515154 -1.0132488 -0.25688013 -0.3547987 -1.195574 -0.9240085 -1.3517269 -0.24996099
-0.35105535 -0.38481054 -0.30852845 -0.23424444 -0.25811967 -0.3298096 -0.35296947 -1.2284917
-0.2661534 -0.06919213 0.12921819 -0.020890422 -0.8818342 0.018860886 -0.037744045 0.059674576
0.024516175 0.36329702 0.0754848 -0.0053875614 0.038872037 0.1392814 -0.016873164 0.08490003
0.04265941 0.17437145 -0.10047724 -0.09356172 0.16634183 0.048875608 0.15605995 0.0047586537
0.9667432 0.02778304 0.030761877 -0.17565642 0.07380433 0.17179236 0.122406185 0.08337001
1.1830561 -0.08029557 -0.015787777 0.022558587 0.109593965 -0.49047047 0.040447548 -0.115451746
-0.2964422 -0.119656116 -0.33476442 0.050610725 0.0674669 0.21042717 0.03872546 0.011855823
0.10388134 0.42169085 -0.7590788 0.03605314 -0.00024839843 0.105772495 0.048755813 -0.16141783
0.67081374 -0.16245991 -0.09872396 0.07091075 0.03721312 -0.0056339176 0.09786155 0.30884448
0.2582612 -0.24991314 0.0069504273 -0.31417555 -0.37716344 0.053908788 -0.45846453 0.017441161
-0.38244727 0.030072594 0.2098327 0.022419108 -0.221396 0.071858756 -0.26585022 -0.03719237
0.0436555 0.0054296856 0.065246075 -0.06573687 0.10376959 0.03988497 -0.025886236 -0.86037725
0.08376222 0.07238119 0.3616916 0.51078886 0.14564344 0.23731352 0.019239102 -0.06757455
-0.02226517 0.071648404 0.026081394 -0.07905497 0.02261489 0.10277098 -0.019314269 0.092368
0.019229976 -0.19952044 0.04836441 -0.120388016 -0.35632047 -0.6643095 0.114084646 0.353747
0.22401708 0.4087567 0.06770805 -0.4161241 0.34884474 -0.3155464 0.04025923 -0.0018118896
0.036830556 0.03806544 -0.81703454 -0.073864765 0.053678796 0.084263645 0.1415917 -0.06878402

policy.net.2.bias f4 [5]
00000000: 7535 20bf ab56 6bbd 7e51 ee3d 163b d8bc
00000010: ba74 fc3d
-0.6258157 -0.0574557 0.11636637 -0.026395362 0.12326951

exp_avg f4 [900, 16]
00000000: 9e51 2f37 dcaf 5b38 707a c837 a8dc 3938
00000010: 241e 8fb7 dadd b1b8 9e27 f9b8 40e6 d738
00000020: 0225 0936 1356 2138 417d 2bb9 fd4d a4b7
00000030: aee0 7138 c010 10b5 0f32 9bb7 b5bd 0439
00000040: ae54 94b8 9037 73b8 6b1e 1cb8 122d beb7
00000050: 77e9 33b7 a8c6 b8b7 b8d4 23b8 3e24 0ab5
00000060: b1d4 b9b6 7e98 0538 231f 3238 fd38 1a37
00000070: b9a3 69b7 bdb8 44b5 161b 9ab8 fa11 16b7
00000080: 5af1 d6b6 d1f0 0638 cac3 ccb7 6e0d 87b6
00000090: 9ed4 88b7 a755 68b8 dcdf c3b8 66ee a536
000000a0: f940 48b8 1834 0838 e6aa abb6 2364 8837
000000b0: 14ea cbb7 60a3 fe37 c462 17b8 372e 2cb7
000000c0: 0d9b 14b7 7af9 c337 7c34 37b8 ac87 deb7
000000d0: fb60 34b7 283b 9fb8 9330 b6b8 cfa9 d637
000000e0: 82ba 8037 0a9e 5a38 fa61 f737 00aa 4236
000000f0: 3b13 90b8 af0f 1738 cce1 4f37 61f4 9a37
00000100: 906d efb7 893f 6438 9cf0 0037 bf08 2937
00000110: 9c52 a638 49cf 70b8 745e e3b7 5040 2238
00000120: 6bda 8f37 9323 8e38 b64c 4bb7 9325 8ab8
00000130: 4872 dcb7 c2b5 2b37 ff98 4138 7eb6 3438
00000140: 0000 0000 0000 0000 0000 0000 0000 0000
00000150: 0000 0000 0000 0000 0000 0000 0000 0000
00000160: 0000 0000 0000 0000 0000 0000 0000 0000
00000170: 0000 0000 0000 0000 0000 0000 0000 0000
00000180: 0000 0000 0000 0000 0000 0000 0000 0000
00000190: 0000 0000 0000 0000 0000 0000 0000 0000
000001a0: 0000 0000 0000 0000 0000 0000 0000 0000
000001b0: 0000 0000 0000 0000 0000 0000 0000 0000
000001c0: 0000 0000 0000 0000 0000 0000 0000 0000
000001d0: 0000 0000 0000 0000 0000 0000 0000 0000
000001e0: 0000 0000 0000 0000 0000 0000 0000 0000
000001f0: 0000 0000 0000 0000 0000 0000 0000 0000
00000200: 0000 0000 0000 0000 0000 0000 0000 0000
00000210: 0000 0000 0000 0000 0000 0000 0000 0000
00000220: 0000 0000 0000 0000 0000 0000 0000 0000
00000230: 0000 0000 0000 0000 0000 0000 0000 0000
00000240: 0000 0000 0000 0000 0000 0000 0000 0000
00000250: 0000 0000 0000 0000 0000 0000 0000 0000
00000260: 0000 0000 0000 0000 0000 0000 0000 0000
00000270: 0000 0000 0000 0000 0000 0000 0000 0000
00000280: 0000 0000 0000 0000 0000 0000 0000 0000
00000290: 0000 0000 0000 0000 0000 0000 0000 0000
000002a0: 0000 0000 0000 0000 0000 0000 0000 0000
000002b0: 0000 0000 0000 0000 0000 0000 0000 0000
000002c0: 0000 0000 0000 0000 0000 0000 0000 0000
000002d0: 0000 0000 0000 0000 0000 0000 0000 0000
000002e0: 0000 0000 0000 0000 0000 0000 0000 0000
000002f0: 0000 0000 0000 0000 0000 0000 0000 0000
00000300: 652c 99b8 f38c f438 5d26 c4b8 fbae 4ab9
00000310: 1040 b938 be9b 17b9 ce19 5f37 0bbc e938
00000320: ff8b 0cb9 4a3f 6e38 f769 9738 f4e7 a738
00000330: 652b 57b9 14c5 7f38 18d8 3238 9bd3 b738
00000340: 95c9 77b8 eefd b9b8 bef3 fcb8 a06d f738
00000350: 2f8d 2f39 b6fa 9db8 a79a 3d38 9fbb 57b8
00000360: da70 3338 5413 4638 fbd2 cb38 1a7b c838
00000370: 0969 6db9 e7d5 adb8 672e 2eb7 0353 25b8
00000380: 555e aa38 d78a 1738 49eb 50b8 b678 f138
00000390: 8c6c d838 9e49 0638 6055 3038 896b 3db6
000003a0: 33d4 0738 4043 45b8 c783 0f38 6a57 9038
000003b0: 4049 b0b8 6e57 ecb8 96ea 57b8 1ea9 e336
000003c0: 97b8 2bb9 cf57 e838 2b58 44b8 b5b3 1938
000003d0: fd04 5639 0a8e df37 1064 0f39 fcec 2138
000003e0: 3a7e ad38 64e0 c2b6 259b 4238 0a4d 4a39
000003f0: f003 fcb8 900b 33b9 918e 2cb8 c5e9 f837
1.0449816e-05 5.237745e-05 2.3898872e-05 4.431294e-05 -1.7060964e-05 -8.481341e-05 -0.000118806245 0.00010294886
2.0436132e-06 3.8465554e-05 -0.00016354492 -1.958664e-05 5.7668127e-05 -5.3668555e-07 -1.850075e-05 0.00012659172
-7.072963e-05 -5.798746e-05 -3.7221627e-05 -2.2670753e-05 -1.0723589e-05 -2.2027016e-05 -3.9060338e-05 -5.1461745e-07
-5.53819e-06 3.185169e-05 4.2467505e-05 9.192384e-06 -1.3926002e-05 -7.328452e-07 -7.3483374e-05 -8.944882e-06
-6.405794e-06 3.2172367e-05 -2.4409866e-05 -4.024877e-06 -1.6311471e-05 -5.539288e-05 -9.340022e-05 4.9451364e-06
-4.7744226e-05 3.2473443e-05 -5.1160923e-06 1.6259093e-05 -2.4308487e-05 3.0355237e-05 -3.6093188e-05 -1.0262759e-05
-8.857588e-06 2.3361983e-05 -4.367948e-05 -2.652764e-05 -1.0751416e-05 -7.5927295e-05 -8.687484e-05 2.5589861e-05
1.5345639e-05 5.2122436e-05 2.9490318e-05 2.9007206e-06 -6.870037e-05 3.6015812e-05 1.2390734e-05 1.8472028e-05
-2.854204e-05 5.4418608e-05 7.685416e-06 1.0075221e-05 7.930884e-05 -5.741351e-05 -2.7104492e-05 3.8683705e-05
1.7148637e-05 6.777714e-05 -1.2117604e-05 -6.5873515e-05 -2.627926e-05 1.0234713e-05 4.6157274e-05 4.3085303e-05
0.0 0.0 0.0 0.0 0.0 0.0 0.0 0.0
0.0 0.0 0.0 0.0 0.0 0.0 0.0 0.0
0.0 0.0 0.0 0.0 0.0 0.0 0.0 0.0
0.0 0.0 0.0 0.0 0.0 0.0 0.0 0.0
0.0 0.0 0.0 0.0 0.0 0.0 0.0 0.0
0.0 0.0 0.0 0.0 0.0 0.0 0.0 0.0
0.0 0.0 0.0 0.0 0.0 0.0 0.0 0.0
0.0 0.0 0.0 0.0 0.0 0.0 0.0 0.0
0.0 0.0 0.0 0.0 0.0 0.0 0.0 0.0
0.0 0.0 0.0 0.0 0.0 0.0 0.0 0.0
0.0 0.0 0.0 0.0 0.0 0.0 0.0 0.0
0.0 0.0 0.0 0.0 0.0 0.0 0.0 0.0
0.0 0.0 0.0 0.0 0.0 0.0 0.0 0.0
0.0 0.0 0.0 0.0 0.0 0.0 0.0 0.0
-7.303878e-05 0.000116610805 -9.353154e-05 -0.00019329406 8.83342e-05 -0.000144585 1.3297844e-05 0.000111453315
-0.00013403593 5.6802564e-05 7.2199786e-05 8.006385e-05 -0.00020520164 6.098028e-05 4.263976e-05 8.7655346e-05
-5.9077127e-05 -8.8687855e-05 -0.00012061697 0.00011798297 0.00016741896 -7.533042e-05 4.5205143e-05 -5.143473e-05
4.2782027e-05 4.722488e-05 9.7190925e-05 9.5596726e-05 -0.0002264121 -8.289125e-05 -1.0382012e-05 -3.9416376e-05
8.1238024e-05 3.613051e-05 -4.981019e-05 0.0001151426 0.00010319901 3.201665e-05 4.204118e-05 -2.8225788e-06
3.2384134e-05 -4.703109e-05 3.4216584e-05 6.882737e-05 -8.405978e-05 -0.00011269642 -5.147847e-05 6.784815e-06
-0.00016376596 0.00011078978 -4.6812154e-05 3.6645408e-05 0.00020410489 2.6649814e-05 0.00013674819 3.86061e-05
8.2727944e-05 -5.807773e-06 4.6397694e-05 0.0001929292 -0.0001201703 -0.00017075078 -4.114077e-05 2.9672761e-05
