SGE_Transformer/model/2_room/eil_2_room_198_model/EBC_model_27999.pth (torch, 319288 bytes, 27 tensors)

encoder.embedding.weight f4 [900, 16]
0	0x3dcea2c3	0.10089638
1	0xbf3f3f99	-0.7470642
2	0x3f8a16cd	1.0788208
3	0x3fce5152	1.6118567
4	0x3f29c38d	0.6631401
5	0x3f6c5b0e	0.9232644
6	0xbda1f11d	-0.07907317
7	0x3f66f931	0.90223986
8	0x3fc3b444	1.5289388
9	0x3f3dd16f	0.74147695
10	0x3fbcd003	1.475098
11	0xbf7fa4e5	-0.99860984
12	0x3fc26ebb	1.5190042
13	0xbf576ad1	-0.84147364
14	0xbf8226b3	-1.016806
15	0x3f2e6694	0.6812527
16	0xbf8dda5a	-1.1082261
17	0x3ea02ee0	0.31285763
18	0x3f0629f4	0.52407765
19	0xbefe47e6	-0.4966423
20	0x3f12edae	0.5739392
21	0x3f0f8fa4	0.56078553
22	0x3e70cb56	0.23515067
23	0x3eac20d4	0.33618796
24	0xbf674a24	-0.90347505
25	0xbfb1e73e	-1.3898695
26	0x4001e582	2.029633
27	0xbfdd073e	-1.7267835
28	0x3f3e66db	0.74375695
29	0xbdbc6024	-0.09198025
30	0xbf22201d	-0.6333025
31	0xbfbbfd01	-1.4686586
32	0x3f41ec78	0.7575145
33	0x382d121e	4.1263287e-05
34	0xbe8dd8bd	-0.2770442
35	0x3f194f7b	0.598869
36	0xbd933e3f	-0.07189607
37	0x3e8263ec	0.2546686
38	0xbf0409c3	-0.51577395
39	0xc0010b0e	-2.0162997
40	0xbed7d9ab	-0.42158255
41	0x3f82705a	1.0190537
42	0xbf72087d	-0.945442
43	0xbc0f0ecd	-0.008731556
44	0xbfa43c0e	-1.2830827
45	0x3c6b0733	0.014344978
46	0xc05fc6df	-3.4965131
47	0xbf70578a	-0.93883574
48	0x3eb083ed	0.3447565
49	0xbf6ade1e	-0.91745174
50	0xbf929004	-1.14502
51	0xbf02fbfd	-0.51165754
52	0x3f6b2af5	0.9186242
53	0x3fd2a230	1.6455746
54	0xbf947fac	-1.1601462
55	0x3efa17ee	0.48846382
56	0xbf9c3b92	-1.220568
57	0x3db2f09a	0.08737297
58	0x3f303a95	0.6883939
59	0xbfbd049d	-1.4767033
60	0xbf77bb45	-0.96770126
61	0xbf142f4c	-0.5788467
62	0xbf48081f	-0.7813739
63	0xc0141441	-2.3137362
64	0x3f82def5	1.0224291
65	0x3edc44cf	0.43021247
66	0xbfb58bd9	-1.4183303
67	0x4010511c	2.2549505
68	0xbf66964a	-0.9007307
69	0xbe8f4c1a	-0.27987748
70	0xbfaf9842	-1.371834
71	0x3e9cb87c	0.306095
72	0xbed86fbe	-0.42272753
73	0xbe8ac588	-0.2710383
74	0x3d6b72a4	0.057482377
75	0xbfe539b5	-1.7908236
76	0xc01788b5	-2.367719
77	0xbe22d5f6	-0.15901932
78	0xbeb433e3	-0.35195836
79	0x3db08e62	0.08620907
80	0x3e1918b5	0.14950831
81	0x3f2e8646	0.68173635
82	0x3fc8aa0d	1.5676895
83	0x3ef37d76	0.47556657
84	0xbf80a441	-1.0050126
85	0xbf82fb09	-1.023286
86	0x3f057d3c	0.5214422
87	0xbef6e35b	-0.48220333
88	0xbf45cac4	-0.7726252
89	0x402fa645	2.7445233
90	0xbffceabe	-1.9759138
91	0x3ed4f030	0.415895
92	0x3fc89d13	1.5672935
93	0xbd2321c3	-0.03982712
94	0xbf78e297	-0.9722075
95	0xbf3649b8	-0.71206236
96	0x3e75b7b5	0.2399586
97	0xbf997ce5	-1.199124
98	0x3f881e17	1.0634183
99	0xbf2d4c14	-0.6769421
100	0xbf29d40c	-0.6633918
101	0x3eac2e84	0.3362924
102	0x3f04b980	0.5184555
103	0x3f84d6c4	1.0378041
104	0x3d29e23d	0.041475523
105	0x3f57838d	0.84185106
106	0xbe06755a	-0.13130704
107	0xbfbf08fc	-1.4924617
108	0x3eba2620	0.36357212
109	0xbf02d54a	-0.51106703
110	0xbed64638	-0.41850448
111	0x3f97483d	1.181892
112	0xbe882c72	-0.2659641
113	0x3f4ddfd2	0.8041965
114	0xbe9d7ba6	-0.307584
115	0x3fad485f	1.3537711
116	0x3f2ac244	0.66702676
117	0xbe718f59	-0.23589839
118	0xbe2f5481	-0.1712208
119	0x3f0fc723	0.56163234
120	0x3e9d35dc	0.30705154
121	0x3eacf4c8	0.33780503
122	0x3e050074	0.12988454
123	0x3f13956f	0.5764989
124	0x3ca658d1	0.020306023
125	0x3fb2fdc0	1.3983688
126	0x3fb55e8f	1.4169482
127	0xbbc0bfc0	-0.0058822334
128	0xbf61e845	-0.8824504
129	0xbef9f6e3	-0.48821172
130	0xbfad94f9	-1.3561088
131	0xbe6f0e1a	-0.23345223
132	0x3fea3517	1.8297452
133	0x3fcb78ed	1.5896279
134	0x3e365e8a	0.17809501
135	0x3f030fba	0.5119587
136	0xbf0bd7f0	-0.5462637
137	0xbfb8c286	-1.4434364
138	0xbff63e32	-1.923773
139	0xbf9088af	-1.1291713
140	0x3f80de94	1.0067925
141	0xbc1011c2	-0.008793296
142	0xbf4df091	-0.804452
143	0x3ffba08a	1.9658368
144	0x3fd2f00a	1.6479504
145	0x3f11e735	0.5699342
146	0xbc4a2e9c	-0.012340214
147	0xbfbc443f	-1.4708327
148	0xbd3d77b9	-0.046256755
149	0xbf086699	-0.5328155
150	0x3f28e4bd	0.65974027
151	0x400bf57d	2.1868584
152	0x3ef9c545	0.48783317
153	0x400b8029	2.1796973
154	0xbfbb383a	-1.4626534
155	0xbfb20beb	-1.3909887
156	0xbedd4693	-0.43217906
157	0xbe1892f2	-0.14899805
158	0x3dd07cf7	0.10180085
159	0xbe33ebd6	-0.17570433
160	0x3ea4e7f3	0.32208213
161	0x3f9a135f	1.2037162
162	0x3daecc16	0.0853502
163	0xbfe162e8	-1.7608309
164	0x3d73f564	0.059560195
165	0xbfa77304	-1.3081975
166	0x3e6c1cd0	0.23057866
167	0x3f75be8b	0.9599387
168	0x3e10d040	0.14141941
169	0x3f5ca835	0.86194164
170	0xbf8c435c	-1.0958056
171	0xbf920f40	-1.1410904
172	0xbec09121	-0.37610725
173	0xbe830363	-0.2558852
174	0xbe914aa7	-0.28377268
175	0x3f8fa9bb	1.1223673
176	0x400414ac	2.0637617
177	0x3e062291	0.13099124
178	0x3f6948bd	0.91126615
179	0x3dca6884	0.09883216
180	0xbf2a85ba	-0.666103
181	0x3f6ea805	0.9322513
182	0x3fd155a0	1.6354256
183	0xbf8cdc17	-1.1004666
184	0x3f3c40bb	0.7353627
185	0x40019a7e	2.0250545
186	0xc03a7b37	-2.9137704
187	0x3e435f95	0.1907943
188	0x3e2db8c2	0.16965011
189	0xbf333487	-0.70002025
190	0xbdc8288a	-0.09773357
191	0x3f03a191	0.51418406
192	0x3f9554c9	1.1666499
193	0x3ee71d90	0.45139742
194	0xbfb545f7	-1.4161977
195	0x40060eb1	2.0946467
196	0x3f43bb23	0.7645742
197	0xbf0a1b32	-0.53947747
198	0xbf86f36a	-1.0543034
199	0xbf2fe416	-0.68707407
200	0x3fb18826	1.3869674
201	0x3f8c1868	1.0944948
202	0x3fb1b04c	1.3881927
203	0xbe3bdd5c	-0.1834616
204	0xbf69d0bc	-0.9133413
205	0xbfc1ffbc	-1.5156169
206	0xbfe9a39d	-1.8253056
207	0xbfe4154f	-1.7819003
208	0x3fdaed57	1.710368
209	0x3d47f012	0.048812933
210	0xbf70145b	-0.9378106
211	0x3f14f6c1	0.58189017
212	0x3e8cca8e	0.27498287
213	0xbf02a277	-0.5102915
214	0xbe5b2da0	-0.21404123
215	0xbe8b305a	-0.27185327
216	0xbcab8dcb	-0.020941636
217	0xbf03e83d	-0.5152624
218	0x3f4cc628	0.7998986
219	0xbf3c3552	-0.7351886
220	0x3f88e393	1.069445
221	0x3f8e9e8f	1.1142138
222	0x3f1f029d	0.6211336
223	0xbf61e063	-0.8823301
224	0xbf9e25b1	-1.2355253
225	0xbfbbff41	-1.4687272
226	0xbf470296	-0.7773832
227	0xbeb09a95	-0.34492937
228	0x3f90aee0	1.1303368
229	0x3f1bdbae	0.6088208
230	0xbfe13d9d	-1.7596928
231	0xbfdc2e58	-1.7201643
232	0x3f95bf27	1.169896
233	0x3f4a82a7	0.7910561
234	0x3dcd3a7e	0.10020922
235	0xbfa2d494	-1.2721124
236	0xbfa1c379	-1.2637779
237	0xbee58987	-0.44831488
238	0xbee5476a	-0.44781047
239	0x3ede22e2	0.43385988
240	0xbe20b387	-0.15693484
241	0xbe526f76	-0.20550331
242	0x3d9f87e1	0.07789589
243	0x3f1d5ad2	0.61466706
244	0x3fef04ea	1.8673375
245	0x3f1bddb1	0.6088515
246	0xbec4cdd8	-0.38438296
247	0xbfb4b498	-1.4117613
248	0xbd5a0871	-0.053230707
249	0xbfe81a4b	-1.8133024
250	0x3fa02490	1.2511158
251	0xbe604c5b	-0.21904127
252	0x3f68340b	0.9070441
253	0x3e415302	0.18879321
254	0x40138e56	2.3055625
255	0xbe0f9213	-0.14020567

encoder.lstm.weight_ih_l0 f4 [128, 16]
0	0xbda3a240	-0.07989931
1	0x3e88e003	0.26733407
2	0xbe919095	-0.2843062
3	0xbeeede69	-0.4665406
4	0x3df0523d	0.11734436
5	0x3e961525	0.29313007
6	0xbdbe7b36	-0.09300844
7	0x3de2807a	0.11059661
8	0xbe553b1f	-0.20823334
9	0xbe50fe69	-0.2040955
10	0xbf03b874	-0.5145333
11	0xbd9df96b	-0.07713588
12	0x3ea4e0eb	0.3220285
13	0x3cf5e393	0.030015742
14	0xbdf4dbbc	-0.119559735
15	0x3e8a2c3d	0.26986876
16	0x3d82ef82	0.06393339
17	0x3ecada0e	0.39619488
18	0xbeeb9b3f	-0.4601688
19	0x3b101a3f	0.00219883
20	0x3c7b5bf0	0.015341744
21	0xbea11f13	-0.3146902
22	0x3c1b3d1c	0.009475019
23	0x3e7cac00	0.24674988
24	0xbe8bea54	-0.27327216
25	0xbf48c5da	-0.784269
26	0xbedff784	-0.43743527
27	0xbebd2295	-0.36940446
28	0x3e158956	0.14603171
29	0xbf28309c	-0.6569917
30	0xbd4c8b86	-0.049937747
31	0xbaae71ca	-0.0013309058
32	0xbcaad110	-0.020851642
33	0xbe6b6a3e	-0.22989747
34	0xbe7a6fb1	-0.2445667
35	0x3d95018f	0.07275688
36	0xbe6b2be5	-0.22965963
37	0x3db606ba	0.08888002
38	0x3e2f10d6	0.17096266
39	0x3df4f332	0.11960448
40	0x3d9c7e7b	0.07641312
41	0xbe814bfa	-0.25253278
42	0xbe95c49a	-0.29251558
43	0x3e24bf66	0.16088638
44	0xbe1a22c1	-0.1505232
45	0x3d96d12d	0.07364116
46	0xbe8c7b60	-0.27437878
47	0x3ea18d50	0.31553125
48	0xbf032e77	-0.51242775
49	0x3c9cd71c	0.01914554
50	0x3f225959	0.63417584
51	0x3dc3f19c	0.09567568
52	0x3d183e48	0.03716877
53	0x3da59029	0.08084137
54	0x3c127bb2	0.008940624
55	0xbdbf945f	-0.093544714
56	0xbe485975	-0.19565375
57	0x3de15eb8	0.11004394
58	0xbb69052e	-0.0035556066
59	0xbf497f18	-0.78709555
60	0xbeb0adbe	-0.34507555
61	0x3dfb9b59	0.122854896
62	0x3e029550	0.1275227
63	0x3d7a3448	0.061085016
64	0xbe6d78f8	-0.23190677
65	0x3dd00757	0.1015765
66	0x3e73c952	0.23807266
67	0x3d9d591b	0.07683011
68	0x3eea352a	0.45743686
69	0x3d2ecb4b	0.042674344
70	0xbd174780	-0.036933422
71	0xbd38f7cd	-0.045158196
72	0xbe933943	-0.28754625
73	0xbe0a94cb	-0.13533323
74	0x3eaf6a38	0.34260726
75	0xbdc9eea9	-0.09859974
76	0xbe94bed0	-0.29051828
77	0x3e47604d	0.1947033
78	0xbdbc12a9	-0.09183247
79	0xbe7ef874	-0.24899465
80	0x3e8cabde	0.27474874
81	0x3eda540e	0.42642254
82	0x3daa40e0	0.08313155
83	0x3e1ea16d	0.15491267
84	0x3d3d312b	0.04618947
85	0xbdaf86c0	-0.085706234
86	0xbcdd162a	-0.026988108
87	0xbcc187d5	-0.02362434
88	0x3dafed2b	0.08590158
89	0xbf03cadc	-0.51481414
90	0xbe324dfa	-0.17412558
91	0x3d8a50ac	0.06753668
92	0xbc16bfa0	-0.00920096
93	0x3ee255b5	0.44206014
94	0xbea9fe00	-0.332016
95	0x3eaa3922	0.33246714
96	0xbea68946	-0.32526606
97	0x3b938199	0.004501533
98	0x3e0254bb	0.12727635
99	0xbe252194	-0.1612609
100	0x3eb4f495	0.3534285
101	0x3da28c78	0.079369485
102	0x3ecc7313	0.39931545
103	0x3e397270	0.1811006
104	0x3dbd01cc	0.09228858
105	0x3ef69c92	0.4816633
106	0xbc0b5047	-0.008503026
107	0x3eafd6e2	0.3434363
108	0x3deb3156	0.114840195
109	0xbca6156c	-0.020273887
110	0x3e059db0	0.13048434
111	0x3d219823	0.03945173
112	0xbedc34c7	-0.43009016
113	0xbd98543e	-0.07437943
114	0xbe3c010a	-0.18359771
115	0xbe794aa2	-0.24344876
116	0x3eed0f45	0.46300712
117	0x3edffa40	0.43745613
118	0x3d6f02a4	0.058352128
119	0x3ebea92a	0.37238437
120	0xbed43e14	-0.41453612
121	0x3cdafae2	0.026730958
122	0xbf489fa1	-0.78368574
123	0xbdb9a0a4	-0.09063843
124	0xbe460604	-0.19338232
125	0x3f6a105c	0.9143121
126	0x3e9fe45a	0.31228906
127	0xbeab24df	-0.33426568
128	0x3e251467	0.16121064
129	0xbe713f9d	-0.23559423
130	0xbe2bb0b0	-0.1676662
131	0x3ed780c1	0.4209042
132	0x3e064735	0.13113101
133	0xbeacf7cd	-0.33782807
134	0x3e10b33d	0.14130874
135	0x3ed6aadc	0.4192723
136	0x3d878a77	0.06618207
137	0x3eaf4191	0.3422971
138	0x3e131e23	0.14366965
139	0x3dc80f3e	0.09768532
140	0x3e84882e	0.25885147
141	0x3ee50fde	0.44738668
142	0xbe9885f3	-0.29789695
143	0xbd8e366e	-0.069439754
144	0x3e21debe	0.15807626
145	0x3e6f74a8	0.23384345
146	0xbd4110e4	-0.04713525
147	0xbcc6ccc5	-0.024267564
148	0xbec4e43e	-0.38455385
149	0xbe2bb2af	-0.16767381
150	0xbde11dc8	-0.109920084
151	0x3eac538c	0.3365749
152	0xbe4cd76d	-0.20004053
153	0x3ce22e4d	0.027609969
154	0xbf223e69	-0.6337648
155	0xbe2140e5	-0.15747412
156	0x3dc61f68	0.09673959
157	0x3f140233	0.57815856
158	0x3d86edc4	0.06588319
159	0x3e978e6b	0.29600844
160	0x3e81353c	0.25235927
161	0xbcda9393	-0.026681697
162	0x3bd37e60	0.006454274
163	0xbde94399	-0.11389846
164	0x3daf7414	0.08567062
165	0x3e95e32e	0.29274887
166	0xbd64fbba	-0.055904128
167	0x3eb9819e	0.36231703
168	0xbe696cc9	-0.22795404
169	0xbea81a84	-0.3283273
170	0xbe394579	-0.18092908
171	0xbe2eb627	-0.17061673
172	0x3f05fa3b	0.52334946
173	0x3d9aa0cd	0.075502016
174	0xbc80c151	-0.01571718
175	0x3daed5e8	0.08536893
176	0x3de033e7	0.109473996
177	0x3e9860f9	0.29761484
178	0xbf2450f2	-0.6418601
179	0x3de27200	0.110569
180	0x3e1dc9b6	0.15408978
181	0xbe82708d	-0.25476494
182	0x3d2b8896	0.041878305
183	0x3eabbf1f	0.3354425
184	0xbeec6410	-0.46170092
185	0x3ed8f0dc	0.4237126
186	0x3e18e67a	0.1493167
187	0x3e69a074	0.22815114
188	0xbd9a0e92	-0.0752231
189	0xbe0364f1	-0.12831475
190	0xbc10cf8f	-0.008838548
191	0x3e6fec37	0.23429953
192	0xbce74723	-0.028232163
193	0x3eeb44eb	0.45951018
194	0xbe4d187c	-0.20028871
195	0x3efecb4f	0.49764487
196	0xbe11b571	-0.1422937
197	0x3df023b2	0.11725558
198	0xbf11ab15	-0.56901675
199	0x3e440ae5	0.19144781
200	0x3e484274	0.195566
201	0x3e95afd1	0.292357
202	0x3ec798ef	0.38983867
203	0x3c3074cb	0.010770033
204	0xbd651bbd	-0.055934656
205	0x3ec87861	0.39154342
206	0x3eca5ba8	0.39523053
207	0x3e4c08b7	0.199252
208	0xbda1de59	-0.079037376
209	0x3e1dcc8c	0.1541006
210	0xbc0ce1c5	-0.0085987495
211	0xbdede79a	-0.1161644
212	0xbdea15c0	-0.1142993
213	0x3ba7c7b1	0.0051202406
214	0x3eae2807	0.34014913
215	0x3d9d231f	0.076727144
216	0xbe001ee5	-0.12511785
217	0xbe2a7e85	-0.16649826
218	0xbd8901ac	-0.06689772
219	0x3eb719a4	0.3576175
220	0xbc9ee07c	-0.019394152
221	0x3e76498d	0.24051495
222	0xbe30b079	-0.17254819
223	0x3e8c683f	0.27423283
224	0x3d2e0f1a	0.04249487
225	0xbe657b24	-0.22410256
226	0xbe92b7ad	-0.28655759
227	0x3e631294	0.22175056
228	0x3d34d6ca	0.04415015
229	0x3e295a27	0.16538297
230	0x3e00ddd4	0.1258462
231	0xbd41697b	-0.047219735
232	0xbdc680b6	-0.096925184
233	0xbdcfa495	-0.101388134
234	0xbde0021c	-0.10937902
235	0xbe2f74fd	-0.17134471
236	0x3d844464	0.06458357
237	0xbe6fa31d	-0.23402067
238	0xbe082409	-0.13294996
239	0x3d42bd19	0.04754362
240	0x3d975fab	0.07391294
241	0xbdb4bf05	-0.088254966
242	0xbe970f29	-0.29503754
243	0x3e326025	0.17419489
244	0xbd0a1d5b	-0.0337194
245	0x3eece3fc	0.46267688
246	0xbebbf3c1	-0.36709407
247	0xbd02fe17	-0.0319806
248	0x3e27132d	0.16315909
249	0x3e163139	0.14667214
250	0x3e104dc2	0.14092162
251	0xbec00b75	-0.3750874
252	0xbeeada64	-0.45869744
253	0x3d5f52b9	0.05452225
254	0xbc437b23	-0.011931214
255	0x3e02efd2	0.12786797

encoder.lstm.weight_hh_l0 f4 [128, 32]
0	0xbf29f8a0	-0.66394997
1	0xbe2bba0f	-0.16770194
2	0xbe9e8cb2	-0.30966717
3	0x3e0bc839	0.13650598
4	0x3f41e6bf	0.75742716
5	0xbe6a3943	-0.22873406
6	0x3c9ce598	0.019152448
7	0xbed3859a	-0.41312867
8	0xbe6a45fe	-0.22878262
9	0xbe755118	-0.23956716
10	0xbe3e49b0	-0.18582797
11	0xbe08aa46	-0.13346204
12	0x3eeeced3	0.4664217
13	0xbe08d95d	-0.13364168
14	0x3eede0b6	0.46460503
15	0xbe3e47fa	-0.18582144
16	0x3e18fe21	0.14940692
17	0x3cd77415	0.02630047
18	0xbed8da7f	-0.423542
19	0xbeea0233	-0.45704803
20	0xbe2a6d5c	-0.1664328
21	0x3e8e8bbc	0.27840984
22	0xbf2a12cd	-0.6643494
23	0xbeba8e99	-0.36436918
24	0x3e84f7ec	0.259704
25	0xbcdd4cb9	-0.027014123
26	0xbd138184	-0.036012188
27	0xbe6a0a6e	-0.22855541
28	0xbeb60edc	-0.35558212
29	0x3e2d459a	0.16921082
30	0xbdbcb0b0	-0.09213388
31	0x3cb77f71	0.022399636
32	0xbd71b921	-0.059014443
33	0x3e439ea1	0.19103481
34	0xbf077231	-0.5290862
35	0x3d650f40	0.055922747
36	0x3ebd1297	0.36928245
37	0xbef163bb	-0.471464
38	0x3e1faa33	0.1559227
39	0xbd2ae347	-0.041720655
40	0xbe7d62c1	-0.24744703
41	0xbdfe844a	-0.12427576
42	0xbee9e567	-0.45682833
43	0xbc392598	-0.011300467
44	0xbe1693c4	-0.14704806
45	0xbd8376c2	-0.06419136
46	0x3f31d318	0.6946273
47	0x3cb482d3	0.022035038
48	0x3e2fab64	0.17155224
49	0x3edcff4f	0.43163535
50	0x3e542466	0.2071701
51	0xbe899e1a	-0.26878434
52	0xbebed24c	-0.3726982
53	0x3eafdd1d	0.34348384
54	0xbd1a398a	-0.03765253
55	0x3e1d5333	0.15363769
56	0x3ec4bd57	0.38425705
57	0xbc7c671b	-0.015405442
58	0x3c9f98a7	0.01948197
59	0xbe7b87f4	-0.24563581
60	0xbf0913b8	-0.53545713
61	0x3f1c0f31	0.6096068
62	0x3ef61c4e	0.4806847
63	0xbe023aa5	-0.12717684
64	0x3eb5b421	0.3548899
65	0x3e15212e	0.14563438
66	0xbdd14650	-0.10218489
67	0xbe64b66c	-0.22335213
68	0x3f45d9ca	0.77285445
69	0xbf0873aa	-0.5330149
70	0x3eb619f0	0.35566664
71	0xbd07a672	-0.03311772
72	0xbeb4b7f3	-0.35296592
73	0xbf09ae15	-0.53781253
74	0xbc411095	-0.011783739
75	0xbf6293e9	-0.88506943
76	0x3cda9b8d	0.0266855
77	0xbef3f606	-0.47648638
78	0x3e725071	0.23663498
79	0xbe55884e	-0.20852777
80	0x3e2c63f9	0.16835012
81	0xbe3b1c46	-0.18272504
82	0x3e06983e	0.13144013
83	0xbec93848	-0.39300752
84	0xbebdea42	-0.37092787
85	0x3e8b5725	0.27214924
86	0xbe1ca2e0	-0.15296507
87	0x3d91c41d	0.07117484
88	0x3ec5aa9e	0.38606733
89	0xbebe6bae	-0.37191528
90	0x3d4deeba	0.050276496
91	0xbf026e32	-0.50949395
92	0xbe80e0f2	-0.2517162
93	0xbd02cc19	-0.031932924
94	0xbe888f9f	-0.26672074
95	0xbeda912f	-0.4268889
96	0xbe4b1a1b	-0.19834177
97	0xbe67a65d	-0.22622056
98	0xbdc05f95	-0.09393231
99	0xbe995fdc	-0.29955947
100	0xbe07290e	-0.13199255
101	0xbf35cb8d	-0.7101372
102	0xbe09a1d3	-0.13440637
103	0x3e27036e	0.16309902
104	0xbd171a92	-0.036890574
105	0x3e87564b	0.26433024
106	0x3deeaa89	0.11653621
107	0xbead0a3e	-0.33796877
108	0xbd02321e	-0.031786077
109	0xbefe5c07	-0.49679586
110	0xbd925747	-0.07145553
111	0x3e94091a	0.28913194
112	0x3e805280	0.25062943
113	0xbe40c647	-0.18825637
114	0x3eb7dac0	0.3590908
115	0xbdef3603	-0.11680224
116	0xbe089787	-0.13339053
117	0xbd7d06e4	-0.06177415
118	0xbe9adb6a	-0.30245525
119	0xbe3a418b	-0.18189065
120	0xbe66eff0	-0.22552466
121	0x3ed7bf99	0.42138365
122	0xbf034161	-0.51271635
123	0x3d82a1b4	0.06378499
124	0xbebea257	-0.3723323
125	0xbd7efeb7	-0.062254634
126	0x3df7c718	0.12098521
127	0x3e90d4a7	0.2828724
128	0xbe405e6f	-0.18786024
129	0xbdf953fe	-0.12174223
130	0xbdd66c03	-0.1046982
131	0x3d63618c	0.05551295
132	0x3ebc17c7	0.3673689
133	0xbf1edb3b	-0.6205327
134	0x3d0cd535	0.034383018
135	0x3eb270e3	0.3485175
136	0xbdf8c045	-0.121460475
137	0x3d0fbe8d	0.035093833
138	0xbe6d475c	-0.23171753
139	0xbc1489e9	-0.0090660835
140	0x3ec17fdf	0.3779287
141	0x3badf948	0.0053092577
142	0x3f247820	0.64245796
143	0x3e3b0dce	0.18266985
144	0x3e9a5347	0.3014166
145	0xbe99e17b	-0.3005484
146	0xbc7d9397	-0.015477083
147	0xbed1ded2	-0.4099031
148	0xbed1144c	-0.40835798
149	0x3e9c8968	0.30573583
150	0xbd90e867	-0.07075577
151	0xbdc4fd1c	-0.09618589
152	0x3e67d72d	0.22640677
153	0x3d9ab020	0.075531244
154	0xbec1495f	-0.3775129
155	0x3e6ea674	0.23305684
156	0xbf18de5f	-0.5971431
157	0x3f23bdce	0.63961494
158	0xbf0bd35e	-0.54619396
159	0xbea6bf56	-0.32567853
160	0x3e8bd4da	0.2731083
161	0xbe263348	-0.162305
162	0xbe30a55c	-0.1725058
163	0xbe7ae082	-0.24499705
164	0xbc598f06	-0.013278728
165	0xbe90b206	-0.2826082
166	0x3ee3eada	0.44515115
167	0x3f108c93	0.564645
168	0xbf00afe3	-0.5026838
169	0x3e33752a	0.17525163
170	0xbed0a162	-0.40748125
171	0xbe2fdf13	-0.1717494
172	0xbdeb7081	-0.11496068
173	0xbe2d863b	-0.16945736
174	0x3c720a2e	0.014772935
175	0xbe2cac9e	-0.16862723
176	0x3ec82fdc	0.39099014
177	0xbd002984	-0.031289592
178	0x3e61ba74	0.22043782
179	0xbdf9c1cb	-0.12195166
180	0xbc6a2d50	-0.01429303
181	0x3ead814e	0.33887714
182	0x3e4f5904	0.202488
183	0xbe9f50e8	-0.31116414
184	0xbde1564d	-0.11002789
185	0xbeb7f5a7	-0.35929605
186	0xbe52d4dd	-0.20589013
187	0xbf060d4d	-0.52364045
188	0xbe2eb871	-0.17062546
189	0x3ecd139b	0.4005402
190	0xbf2709c1	-0.6524926
191	0xbe23a43e	-0.15980622
192	0x3e1e025a	0.15430585
193	0x3ed7667b	0.42070374
194	0xbe8a9084	-0.27063382
195	0x3d14e8f8	0.03635499
196	0x3e4fb28c	0.20282954
197	0xbee4dc04	-0.4469911
198	0x3db0663a	0.08613248
199	0x3f06c810	0.5264902
200	0xbe489d80	-0.19591331
201	0x3cf80315	0.030274907
202	0xbe4c3a0b	-0.19944017
203	0xbef9dabd	-0.48799697
204	0xbdfb3fcd	-0.122680284
205	0xbed79691	-0.4210706
206	0xbea6bc74	-0.32565653
207	0x3e0b7e4d	0.13622399
208	0xbd9dd034	-0.07705727
209	0xbd9fae15	-0.077968754
210	0xbeef411c	-0.46729362
211	0x3e340da0	0.17583323
212	0xbe838099	-0.2568405
213	0x3ef5c54a	0.48002082
214	0xbcdff18f	-0.027336864
215	0xbe96e49a	-0.29471284
216	0x3f62b0fc	0.88551307
217	0xbe47b1de	-0.19501445
218	0x3e0291e4	0.12750965
219	0xbe6ea49e	-0.23304984
220	0xbf1c3110	-0.61012363
221	0x3e96b4ae	0.29434723
222	0x3d31254e	0.043248467
223	0xbdf510ab	-0.1196607
224	0x3dda438f	0.10657417
225	0xbe744156	-0.23853049
226	0xbf1dd73c	-0.61656547
227	0xbe76f330	-0.24116206
228	0x3f60477b	0.8760907
229	0xbea66dfd	-0.3250579
230	0xbdb937d2	-0.0904385
231	0xbdead0cb	-0.11465605
232	0xbe544ff7	-0.20733629
233	0xbe3884b1	-0.18019368
234	0xbea22c87	-0.31674597
235	0xbda51556	-0.0806071
236	0x3e29b619	0.16573371
237	0xbeab2dda	-0.3343342
238	0x3e630e6a	0.22173467
239	0xbdc9bd93	-0.098506115
240	0x3e13ab3b	0.14420788
241	0x3e32ed7b	0.17473404
242	0xbe80a8e5	-0.25128856
243	0xbe2b829e	-0.16749045
244	0x3d790e32	0.060804553
245	0x3ddcd899	0.107835
246	0xbf20ceb7	-0.6281542
247	0xbf0975d5	-0.5369542
248	0xbe2bde56	-0.16784033
249	0xbf13b7ca	-0.57702315
250	0xbe8efa9c	-0.27925575
251	0xbf60752d	-0.87678796
252	0xbe9efae6	-0.31050795
253	0x3e872cdc	0.26401412
254	0xbb36bff7	-0.0027885416
255	0xbd83e46e	-0.06440054

encoder.lstm.bias_ih_l0 f4 [128]
0	0x3ee11fec	0.43969667
1	0x3e657c43	0.22410683
2	0x3ec645a9	0.3872502
3	0x3deee80a	0.11665352
4	0x3e17f66e	0.14840099
5	0x3ee142b1	0.43996194
6	0x3eb48b9a	0.35262758
7	0x3ea1fccf	0.3163819
8	0x3e76e4f9	0.24110784
9	0x3eb29046	0.34875697
10	0x3c79f777	0.015256754
11	0x3cef2f86	0.029197466
12	0x3d37f61e	0.04491245
13	0x3f1579b3	0.58388823
14	0x3e8d1b9a	0.2756012
15	0x3daac1c0	0.08337736
16	0x3ea50a58	0.32234454
17	0x3ebaf174	0.3651234
18	0x3ef42ebc	0.47691905
19	0xb9c9ab20	-0.00038465206
20	0x3e2f7cfc	0.17137522
21	0x3e5cd99b	0.21567385
22	0x3ec5ff8e	0.38671535
23	0x3e983cc3	0.29733858
24	0x3e79786d	0.24362345
25	0x3e914e92	0.28380257
26	0x3ec1d9fd	0.37861624
27	0x3e6765ef	0.22597478
28	0x3f127ab4	0.5721848
29	0x3e908767	0.28228304
30	0xbc90e221	-0.017685952
31	0x3e107d5f	0.14110325
32	0x3e86cf5b	0.26330075
33	0xbe3bf653	-0.18355684
34	0x3e8fcb3c	0.28084743
35	0x3da71624	0.0815852
36	0x3cc83430	0.024438947
37	0x3eafdd90	0.34348726
38	0x3e21ce23	0.15801291
39	0x3e3d50fd	0.18487926
40	0x3e5fb3b1	0.2184589
41	0x3e81892c	0.25299966
42	0x3e0074cf	0.12544559
43	0x3eb24c9d	0.34824076
44	0x3e91967b	0.2843512
45	0x3e2b5638	0.16732109
46	0x3e8f6e0b	0.28013644
47	0x3e65ad0a	0.2242929
48	0x3eb80478	0.3594091
49	0x3d98fa58	0.07469624
50	0x3e903b8b	0.28170428
51	0x3e80e1f4	0.2517239
52	0x3e188c49	0.14897265
53	0x3dee6ae2	0.1164148
54	0x3e2d0f81	0.16900446
55	0x3e872432	0.26394802
56	0x3e9b5e10	0.30345201
57	0x3e4d8de2	0.20073655
58	0x3dcf20fd	0.10113714
59	0x3c522874	0.012827028
60	0x3ddd92b4	0.10818997
61	0x3eee61f9	0.46559122
62	0x3e08b29b	0.13349383
63	0xbd42b88e	-0.047539286
64	0xbcffb650	-0.031214863
65	0xbc5ca46d	-0.013466937
66	0xbd97c7c7	-0.074111514
67	0xbe1794c2	-0.1480284
68	0x3e39ca67	0.18143617
69	0xbdbdbeeb	-0.0926493
70	0x3d711d5e	0.058865897
71	0x3dcd573a	0.10026403
72	0xbe2996a5	-0.16561373
73	0xbd692767	-0.056922343
74	0x3c07b534	0.008282948
75	0xbe979721	-0.2960749
76	0xbe444ce5	-0.19169958
77	0xbe317d9d	-0.17333074
78	0xbce509af	-0.027958719
79	0x3e2dcd74	0.16972905
80	0x3d8ee042	0.069763675
81	0xbe22062d	-0.15822668
82	0x3d90d763	0.07072332
83	0xbd9206a0	-0.0713017
84	0xbece3902	-0.40277869
85	0x3e55cedc	0.20879692
86	0xbdd2a7e8	-0.10285932
87	0x3cdd7aaf	0.02703604
88	0x3e54a1c4	0.20764834
89	0xbe0952ad	-0.13410445
90	0xbcbb3da8	-0.022856548
91	0xbd27b626	-0.040945195
92	0xbe1df99e	-0.15427253
93	0x3e8362f1	0.25661424
94	0xbe3f77a5	-0.18697985
95	0xbdac7602	-0.08420946
96	0x3e607d40	0.21922779
97	0x3e9da937	0.30793163
98	0x3e88e7f4	0.26739466
99	0x3ea34c98	0.31894374
100	0x3eaecdb5	0.34141317
101	0x3e394d43	0.1809588
102	0x3e1963bb	0.1497945
103	0x3e56845f	0.20948933
104	0x3f062506	0.52400243
105	0x3e59c839	0.21267785
106	0x3be7035b	0.0070499605
107	0x3e3c84f6	0.18410096
108	0x3e3ddba1	0.18540813
109	0x3e1637d8	0.1466974
110	0xbe21f879	-0.15817441
111	0x3e46e1d5	0.19422086
112	0x3e4bd685	0.19906051
113	0x3e91f9e6	0.2851097
114	0x3e7848f2	0.24246576
115	0x3dc456ba	0.09586854
116	0x3de704a8	0.11280185
117	0xbd0927cb	-0.033485215
118	0x3e65b643	0.22432809
119	0xbc98bfa2	-0.018646065
120	0x3d8586c5	0.06519846
121	0x3eb6c848	0.35699677
122	0x3e5646df	0.20925473
123	0x3daa2d9f	0.08309483
124	0x3e3ea3b9	0.18617143
125	0xbda7df43	-0.08196881
126	0x3c001ff5	0.007820119
127	0x3dce6e71	0.10079659

encoder.lstm.bias_hh_l0 f4 [128]
0	0x3e5529ad	0.2081668
1	0x3e569f07	0.20959102
2	0x3e0e8a94	0.13920051
3	0x3e8c9e04	0.27464306
4	0x3e48b47d	0.19600101
5	0x3e55fe10	0.20897698
6	0x3e70674f	0.23476909
7	0x3e585d0f	0.21129249
8	0x3cb90f45	0.022590289
9	0x3eba5de0	0.36399746
10	0x3d01ae0e	0.031660132
11	0x3e5e6738	0.21719062
12	0x3d86d38c	0.06583318
13	0x3f2fd311	0.68681437
14	0x3db85303	0.09000208
15	0x3e8ab4b5	0.27090994
16	0x3dbb6dc2	0.09151794
17	0x3eda95d9	0.4269245
18	0x3e7481e2	0.23877671
19	0xbdc69ac2	-0.096974865
20	0x3d0fbef5	0.03509422
21	0x3ea4f617	0.32219002
22	0x3eb5d93e	0.35517305
23	0x3df69726	0.12040548
24	0x3e7f5895	0.24936135
25	0x3eee36ae	0.46526092
26	0x3e7851c6	0.24249944
27	0x3d2ffe92	0.042967387
28	0x3eb261d4	0.34840262
29	0x3ed62fa2	0.41833216
30	0x3d4087f5	0.04700466
31	0x3e4d30ef	0.20038198
32	0x3e16eab2	0.14737967
33	0xbe644c86	-0.22294816
34	0xbc2fafbe	-0.010723053
35	0x3d7ce58f	0.06174236
36	0x3e568c36	0.20951924
37	0x3eb7007d	0.3574256
38	0x3da068ca	0.07832487
39	0x3ebb0e8d	0.3653454
40	0x3e4739b2	0.19455603
41	0x3ec47912	0.3837362
42	0x3dea92bb	0.11453768
43	0x3e5d0a97	0.21586071
44	0x3e705835	0.23471148
45	0x3ec8b96e	0.39203972
46	0x3e8074a8	0.25089002
47	0x3e714575	0.23561652
48	0x3e972f19	0.2952812
49	0x3dc1a76e	0.09455763
50	0x3e084777	0.13308512
51	0x3b35237a	0.0027639554
52	0x3e061deb	0.1309735
53	0x3e330367	0.17481767
54	0xbcdf81aa	-0.027283508
55	0x3e6e8cd7	0.23295914
56	0x3e8d54ca	0.2760375
57	0x3e9e076b	0.30865034
58	0x3e48f1b4	0.19623452
59	0x3e8fe47b	0.28104004
60	0x3e58d4d5	0.21174939
61	0x3ea3b218	0.31971812
62	0x3ea5c6bf	0.32378194
63	0x3e31cf1b	0.1736416
64	0x3dea5f1b	0.11443921
65	0xbe7310cb	-0.23736875
66	0xbe5da6d6	-0.21645674
67	0xbe03782b	-0.12838809
68	0x3d9eea57	0.077595405
69	0xbe1bf4a2	-0.15230039
70	0x3e19e9b6	0.1503056
71	0x3d58b9e2	0.052911647
72	0xbd2a5c62	-0.04159201
73	0xbe2ed028	-0.17071593
74	0xbe28874f	-0.16457866
75	0xbe858bb1	-0.2608314
76	0x3d0bc9af	0.034127887
77	0xbd8d62da	-0.0690362
78	0x3c0f0dc9	0.008731314
79	0xbdbbab5e	-0.09163545
80	0x3e886bd0	0.26644754
81	0xbe312ea4	-0.17302948
82	0xbc92bd91	-0.017912658
83	0xbcce45dd	-0.025179798
84	0xbed0668f	-0.40703246
85	0xbbe474a6	-0.0069719134
86	0xbe61f69f	-0.22066735
87	0xbe03b8de	-0.1286349
88	0x3e2dc097	0.16967998
89	0xbdaa42d3	-0.08313527
90	0xbe7093ad	-0.23493834
91	0xbde0d461	-0.10978008
92	0xbe1165ff	-0.14199065
93	0x3e5b2fc4	0.2140494
94	0xbe86d74c	-0.26336133
95	0xbe26b30d	-0.1627924
96	0x3e8ad751	0.27117398
97	0x3e8a07cc	0.26959074
98	0x3e8f1fa0	0.27953815
99	0x3e3be229	0.18347992
100	0x3eda1a25	0.42598072
101	0x3dc8d4b0	0.09806192
102	0x3dd57c9d	0.10424159
103	0xbdabf4d0	-0.08396304
104	0x3ecac5e2	0.39604098
105	0x3e8a419b	0.27003178
106	0x3d8b2e83	0.06795981
107	0x3d9b17f6	0.075729296
108	0x3da71bd7	0.08159607
109	0x3e98baf3	0.2983013
110	0xba5f8cb3	-0.0008527741
111	0x3d3992da	0.045306064
112	0x3d349a86	0.044092678
113	0x3f0214aa	0.5081278
114	0x3d3ac403	0.045597088
115	0x3e7d7a96	0.24753794
116	0x3cc1654d	0.023607874
117	0x3d3f589f	0.046715375
118	0x3e5916f0	0.21200156
119	0x3e49a4d0	0.19691777
120	0x3bbf9211	0.00584627
121	0x3e1fdfce	0.15612718
122	0x3dae1601	0.08500291
123	0x3e4a15df	0.19734906
124	0x3e74c607	0.23903666
125	0xbd2aa836	-0.041664325
126	0x3e8339fd	0.2563018
127	0x3e6653bd	0.22492881

policy.net.0.weight f4 [128, 32]
0	0xbea5d7f5	-0.32391325
1	0xbc8dab85	-0.017293701
2	0xbdd29805	-0.10282902
3	0xbed11f7f	-0.40844342
4	0x3d266af3	0.04062934
5	0xbe372285	-0.17884262
6	0xbbab2b71	-0.0052236845
7	0x3ec877c5	0.39153877
8	0x3f062d5d	0.5241297
9	0xbe6fdae0	-0.23423338
10	0xbe111f89	-0.14172186
11	0xbe8bcdd5	-0.27305475
12	0xbeaed5a6	-0.34147376
13	0x3d7224c6	0.0591171
14	0x39a17aa3	0.00030799684
15	0x3e3ccad1	0.18436743
16	0xbca1096b	-0.019657811
17	0xbe361c35	-0.17784198
18	0xbeaf6ef4	-0.34264338
19	0x3e56b666	0.20968017
20	0x3db416ac	0.08793387
21	0x3d951c74	0.07280818
22	0xbe1f8f51	-0.15582015
23	0xbde0fc08	-0.10985571
24	0x3e5ac15c	0.21362823
25	0x3e80678f	0.2507901
26	0xbe6ea9ae	-0.23306915
27	0xbec885e4	-0.3916465
28	0xbe2fd1cd	-0.17169876
29	0x3cf6a558	0.030108139
30	0xbe57f713	-0.21090345
31	0xbe9aa4c2	-0.30203825
32	0x3c263966	0.010145521
33	0xbcf501c0	-0.029908061
34	0xbe18da77	-0.14927088
35	0xbcd7d3b0	-0.026346058
36	0xbdc4ff83	-0.096190475
37	0xbdb957b7	-0.090499334
38	0xbebdf240	-0.37098885
39	0x3ec79ce0	0.38986874
40	0x3eecd05a	0.4625271
41	0xbe1e1eb0	-0.15441394
42	0xbe03c844	-0.12869364
43	0xbc98a005	-0.01863099
44	0xbe38ee5a	-0.18059674
45	0xbddad62a	-0.1068538
46	0xbe101a17	-0.14072452
47	0xbbc8c764	-0.006127285
48	0x3dde73e1	0.10861946
49	0xbe0f63f3	-0.14002971
50	0xbd0e8046	-0.0347903
51	0x3da8f179	0.08249182
52	0xbecc8867	-0.39947817
53	0xbd7b4d27	-0.061352875
54	0x3c0bd3c2	0.008534374
55	0x3d0410f5	0.032242734
56	0x3e446ff5	0.19183333
57	0x3da45eac	0.0802587
58	0x3e54dd26	0.20787486
59	0x3d7c8663	0.0616516
60	0xbe34543c	-0.17610258
61	0x3e1e0ee0	0.15435362
62	0x3e759252	0.23981598
63	0xbe8dfebb	-0.27733406
64	0xbe6da812	-0.23208645
65	0xbe260484	-0.1621266
66	0xbdbfc929	-0.0936454
67	0xbe6b6926	-0.2298933
68	0xbcf15433	-0.029459095
69	0xbe462ee4	-0.19353825
70	0xbe016484	-0.12636
71	0x3ec2d775	0.38055006
72	0x3f210636	0.629001
73	0xbe049cf3	-0.12950496
74	0x3dda375a	0.10655089
75	0x3e1f6f15	0.15569718
76	0xbec5841d	-0.38577357
77	0xbdb413e1	-0.08792854
78	0xbe7c156e	-0.2461755
79	0x3e2599f6	0.16172013
80	0xbd827f87	-0.0637198
81	0x3c0a9ca5	0.0084601985
82	0xbe2e1202	-0.16999057
83	0x3edf5ebf	0.43626973
84	0xbdd2d0af	-0.102937095
85	0x3dfa5754	0.12223688
86	0xbdb3c16b	-0.08777126
87	0xbe57ae66	-0.21062621
88	0xbdabaccf	-0.0838257
89	0x3e77d186	0.2420102
90	0xbd85fd0a	-0.06542404
91	0x3d7fac22	0.062420018
92	0xbdccc7cb	-0.09999045
93	0xbc633c54	-0.013869364
94	0x3dc8c288	0.09802729
95	0xbeca36aa	-0.3949483
96	0x3ec65f92	0.3874479
97	0xbe9f4901	-0.31110385
98	0xbd337499	-0.043812368
99	0x3e5c0f65	0.21490248
100	0x3e208219	0.15674628
101	0x3d1b473f	0.037909742
102	0xbe5a604f	-0.21325801
103	0xbe64ae6a	-0.22332159
104	0x3e93abb0	0.28841925
105	0xbd8ca448	-0.06867272
106	0x3e3614ee	0.17781422
107	0xbe044ded	-0.12920351
108	0xbf0e2f45	-0.5554088
109	0xbc92db9e	-0.017926987
110	0x3e7526c5	0.2394057
111	0xbe726bdb	-0.23673956
112	0xbebd400d	-0.3696293
113	0x3dc3aa0b	0.095539175
114	0xbd8378f4	-0.06419554
115	0x3db8b4b4	0.090188414
116	0xbd91b003	-0.0711365
117	0xbe831cf4	-0.25608027
118	0x3de1fbfb	0.110343896
119	0xbead0218	-0.3379066
120	0xbd94a400	-0.07257843
121	0xbd881f9d	-0.06646655
122	0x3ec562d4	0.38551962
123	0x3ecff7a1	0.40618613
124	0x3e17d8ec	0.14828843
125	0xbdba6b29	-0.091024704
126	0x3e332c94	0.17497474
127	0xbe21b354	-0.15791065
128	0x3deba5dc	0.115062445
129	0x3eac536b	0.33657393
130	0xbe484e54	-0.1956113
131	0xbe726545	-0.23671444
132	0xbddd7de7	-0.108150296
133	0x3e8af724	0.27141678
134	0xbe27d2de	-0.16389033
135	0xbec45176	-0.383434
136	0xbeab4430	-0.3345046
137	0xbe06601a	-0.13122597
138	0x3ede79a2	0.43452173
139	0xbef6acb5	-0.4817864
140	0xbf475f0f	-0.7787942
141	0xbe800f2a	-0.2501157
142	0xbb7791e0	-0.0037776157
143	0xbe1658c8	-0.14682305
144	0xbe66de2c	-0.2254569
145	0xbeee7d39	-0.46579912
146	0x3bf3c7d6	0.007439594
147	0xbdfd26b1	-0.123608954
148	0xbd1d8107	-0.03845313
149	0xbf343ca4	-0.7040503
150	0x3cdf70d7	0.027275486
151	0x3c075af6	0.008261433
152	0xbe7e148c	-0.24812526
153	0xbdd0a8f1	-0.10188473
154	0x3ea3575b	0.31902584
155	0xbd090a50	-0.0334571
156	0x3e7add17	0.24498402
157	0xbf197f2b	-0.5995967
158	0x3e99b336	0.3001954
159	0xbd85fe97	-0.065427
160	0x3d807f18	0.06274241
161	0xbe3a0119	-0.18164481
162	0xbe4ffb8a	-0.20310798
163	0x3e5e0995	0.21683343
164	0x3e6cc7e2	0.23123124
165	0xbe9b1dbb	-0.3029612
166	0x3eae18f2	0.34003407
167	0xbe605131	-0.21905972
168	0xbe6f602d	-0.23376532
169	0x3d3eacbd	0.046551455
170	0xbc775346	-0.0150955375
171	0x3e14b288	0.1452123
172	0x3eaf7eee	0.34276527
173	0xbe271fad	-0.16320677
174	0x3d08a6f8	0.03336236
175	0xbe23a46c	-0.1598069
176	0x3d7230f3	0.059128713
177	0x3e45c7a8	0.19314444
178	0xbcf93d2b	-0.030424675
179	0xbd1a6383	-0.037692558
180	0xbd17c1ae	-0.03704994
181	0xbe078a39	-0.13236322
182	0x3c933b1a	0.017972518
183	0xbe1785a4	-0.14797074
184	0xbe027df3	-0.12743358
185	0xbe2b8cdb	-0.16752951
186	0xbd735eb3	-0.059416484
187	0x3e4e4e57	0.20147072
188	0xbcbd0c7d	-0.023077244
189	0xbdb3bcf5	-0.08776275
190	0xbe7ffe90	-0.24999452
191	0x3ed25235	0.41078344
192	0xbdb17761	-0.08665348
193	0x3dfcfd00	0.123529434
194	0x3efe271c	0.49639213
195	0xbed68796	-0.4190032
196	0x3e009fc1	0.12560941
197	0xbdfb045c	-0.12256691
198	0x3d295306	0.041338943
199	0xbbb9fbbc	-0.005675761
200	0xbe96d072	-0.29455906
201	0xbd7b7192	-0.061387606
202	0x3e95b5a6	0.2924015
203	0x3e803d52	0.25046784
204	0xbe968fab	-0.29406485
205	0x3ccd1d54	0.025038399
206	0xbec54940	-0.38532448
207	0xbe150b60	-0.1455512
208	0xbe190373	-0.14942722
209	0xbe18161f	-0.14852189
210	0xbdec71d4	-0.115451485
211	0xbea5295a	-0.3225811
212	0xbe9d9d9e	-0.30784315
213	0xbf0cef5c	-0.55052733
214	0x3e4f31de	0.20233867
215	0x3ec71eb7	0.3889062
216	0xbdddd8fd	-0.10832403
217	0x3e9bd1ee	0.304336
218	0xbd853017	-0.06503313
219	0x3d9c7920	0.0764029
220	0x3ea3dafa	0.32003003
221	0xbeef101b	-0.46691975
222	0x3cdca6a1	0.026934924
223	0x3c767588	0.01504267
224	0x3e01274c	0.12612647
225	0x3df86303	0.1212826
226	0x3d891809	0.066940375
227	0x3df7a444	0.12091878
228	0xbe071cda	-0.131946
229	0xbd06db98	-0.032924265
230	0xbded726d	-0.115940906
231	0xbe0830fc	-0.13299936
232	0x3daecbb6	0.085349485
233	0xbd099b06	-0.033595107
234	0xbda88cf0	-0.08230007
235	0xbc350550	-0.01104863
236	0xbe00c9ff	-0.12577055
237	0x3d110ad0	0.035410702
238	0x3d93a7ad	0.07209716
239	0x3c7181a5	0.014740382
240	0xbcaf1f40	-0.021377206
241	0x3d5407d8	0.051765293
242	0x3d8c0060	0.06836009
243	0xbcde6b84	-0.027150877
244	0x3e2b1574	0.16707402
245	0xbe695b13	-0.22788648
246	0xbc04fbe9	-0.008116701
247	0x3ca3c72f	0.01999244
248	0xbd976a1e	-0.07393287
249	0x3dabdc66	0.08391647
250	0xbdd596f9	-0.104291864
251	0x3de873fe	0.11350249
252	0x3ca73c87	0.020414604
253	0x3c42f72c	0.011899751
254	0x3cd0d1d0	0.025490671
255	0x3e088f99	0.13336028

policy.net.0.bias f4 [128]
0	0x3e6b1ecc	0.22960967
1	0x3e35d5e8	0.1775738
2	0x3d6f9b51	0.05849773
3	0x3dc68b69	0.09694559
4	0xbdc6928e	-0.09695922
5	0x3d5c363e	0.053762667
6	0xbdf8c95b	-0.121477805
7	0xbe9d33fa	-0.30703717
8	0x3d9c76ad	0.07639823
9	0x3dc33d47	0.09533172
10	0x3e8b6572	0.27225834
11	0xbbdc906e	-0.0067310845
12	0x3e84c24c	0.25929487
13	0x3dc85dc4	0.097835094
14	0x3e0099c9	0.12558664
15	0x3d6efa91	0.058344427
16	0x3d3cf3cc	0.04613094
17	0x3e2642dc	0.16236442
18	0xbd9818a6	-0.07426576
19	0x3d91beea	0.07116492
20	0x3d814b4b	0.06313189
21	0x3cb26d5d	0.021780664
22	0x3e1a9d3a	0.1509904
23	0xbcc3836f	-0.023866383
24	0xbd941656	-0.07230823
25	0xbe3fa270	-0.18714309
26	0xbe4b35c1	-0.19844724
27	0xbcaa70d4	-0.020805754
28	0x3d871f09	0.06597716
29	0x3cc4f3ca	0.024042029
30	0x3e0bfbbe	0.13670251
31	0x3d2147f9	0.03937528
32	0xbe834d48	-0.25644898
33	0xbd37581e	-0.04476177
34	0x3d7a9e97	0.0611864
35	0x3e03a00d	0.12854023
36	0xbd6157a6	-0.05501523
37	0xbdaa3652	-0.08311142
38	0x3e3dbbb7	0.18528639
39	0x3e3a9489	0.18220724
40	0x3d613e63	0.054991137
41	0x3e4e3c2f	0.20140146
42	0x3e212649	0.15737261
43	0xbd8678d1	-0.06566013
44	0x3dca596b	0.098803364
45	0x3e242201	0.16028596
46	0xbdcd4799	-0.10023422
47	0xbdb0560c	-0.08610162
48	0x3e575a19	0.21030463
49	0x3da6347e	0.08115481
50	0xbe5dc29d	-0.2165627
51	0x3baa56c7	0.005198333
52	0x3e3888b0	0.18020892
53	0xbe90941d	-0.28238
54	0x3d9b369a	0.07578774
55	0x3dbc775c	0.092024535
56	0xbdc66b36	-0.096884176
57	0x3b65b3bd	0.003504976
58	0x3db73811	0.08946241
59	0xbcae59c6	-0.021283042
60	0x3e39b0e6	0.18133888
61	0x3e7b619e	0.24548957
62	0x3e82fd7d	0.2558402
63	0xbde5b5d7	-0.11216324
64	0xbc3a2305	-0.011360888
65	0xbcc07cf9	-0.023497092
66	0x3d839080	0.064240456
67	0xbb8512d0	-0.0040610805
68	0xbdae59b6	-0.08513205
69	0x3da24795	0.079238094
70	0xbe7e1dbe	-0.24816033
71	0x3c248ccc	0.010043334
72	0x3d67ab32	0.05655975
73	0x3dcad5a7	0.09904032
74	0x3d85a81d	0.06526206
75	0xbe79a9dd	-0.24381204
76	0x3b1662a6	0.0022946983
77	0x3e51425d	0.20435472
78	0x3e29cb80	0.16581535
79	0x3e790d08	0.24321377
80	0x3ddaf737	0.10691684
81	0x3e0eb55f	0.13936375
82	0x3de07e27	0.10961562
83	0x3d961818	0.07328814
84	0x3d90db6c	0.070731014
85	0xbbc3c15d	-0.0059739784
86	0xbcdbf014	-0.026847877
87	0xbd842208	-0.064518034
88	0x3ddcd11e	0.107820734
89	0x3ca952ac	0.020669304
90	0x3d326717	0.043555345
91	0x3e9a865a	0.30180627
92	0x3def9cf2	0.11699857
93	0x3e258aac	0.1616618
94	0x3e90c2c8	0.28273606
95	0xbc53d152	-0.012928324
96	0x3e2096ae	0.1568248
97	0x3e030138	0.12793434
98	0x3ccc6df1	0.024954768
99	0x3d8929ba	0.06697412
100	0x3e521279	0.2051486
101	0xbd95ce03	-0.07314684
102	0x3e39fbd6	0.18162474
103	0x3d92fa68	0.071766675
104	0x3dd81497	0.10550802
105	0x3e21c4bb	0.15797703
106	0x3e19ac8c	0.15007228
107	0xbd728ac6	-0.059214376
108	0x3e03c284	0.1286717
109	0x3abd1435	0.0014425578
110	0xbd97a9fd	-0.074054696
111	0x3dbc737c	0.092017144
112	0x3e797e36	0.24364552
113	0xbd61e0de	-0.05514609
114	0x3dfa43e7	0.122199826
115	0x3e1ffd2a	0.15623918
116	0xbd54a3f6	-0.051914178
117	0x3d3b3dbc	0.04571317
118	0x3db76dfb	0.08956524
119	0x3e22ceb6	0.15899166
120	0x3e889826	0.2667858
121	0x3e789c4e	0.24278376
122	0x3cd3b63f	0.025843738
123	0x3e168d73	0.14702396
124	0x3dd3c45c	0.10340187
125	0x3e2691f5	0.16266616
126	0x3e156fdd	0.14593454
127	0xbdb9f1ab	-0.09079298

policy.net.2.weight f4 [5, 128]
0	0xbe4bcdb7	-0.19902693
1	0xbe61fe31	-0.22069623
2	0xbf697073	-0.9118721
3	0xbe6b116f	-0.22955869
4	0xc0434335	-3.050977
5	0xbfcd9e66	-1.6063964
6	0xbfd729c6	-1.6809623
7	0x3cb5e98e	0.022206094
8	0xbe62f304	-0.22163016
9	0xbeae5547	-0.34049436
10	0xbe43bc1a	-0.19114724
11	0xbf5f1dce	-0.87154853
12	0xbe7d27c6	-0.24722204
13	0xbf0b3472	-0.543769
14	0xbea2bcee	-0.31784767
15	0xbeca6a62	-0.3953429
16	0xbeafbf3a	-0.34325582
17	0xbe865229	-0.26234558
18	0xbe3c91fa	-0.1841506
19	0xbf963e60	-1.1737785
20	0xbfe8d999	-1.8191406
21	0xbe4f5311	-0.20246531
22	0xbdb0969b	-0.08622476
23	0xbf3c113f	-0.73463815
24	0xbf97c85f	-1.1858023
25	0xbf974747	-1.1818627
26	0xbeaaeb1c	-0.333825
27	0xbe18dfea	-0.14929166
28	0xbecb9624	-0.39762986
29	0xbe9cd0c8	-0.30628037
30	0xbe59c89c	-0.21267933
31	0xbea1354c	-0.31485975
32	0xbf3c8849	-0.73645455
33	0xbe23a545	-0.15981014
34	0xbebe9a83	-0.37227258
35	0xbe1e5dea	-0.15465513
36	0xbf4cd679	-0.8001476
37	0xc020a59e	-2.5101085
38	0xbeaf1612	-0.34196526
39	0xbf320e2c	-0.69552875
40	0xbeda7605	-0.42668167
41	0xbdddaccb	-0.10823973
42	0xbecd8f90	-0.40148592
43	0xbe9516ff	-0.29119107
44	0xbf5c44ab	-0.8604228
45	0xbe123247	-0.14276992
46	0xbe535a27	-0.20639859
47	0xbe83ce07	-0.25743124
48	0xbea43473	-0.32071266
49	0xbfe45270	-1.7837658
50	0xbf5c7c85	-0.861275
51	0xbec0c489	-0.37649944
52	0xbeb7abb2	-0.3587318
53	0xbef4bfb2	-0.47802502
54	0xbeb5bfe3	-0.3549796
55	0xbefbfd80	-0.49216843
56	0xc0548084	-3.320344
57	0xbf964eec	-1.1742835
58	0xbeab2647	-0.3342764
59	0xbff84f8e	-1.9399278
60	0xbe1b28ff	-0.15152358
61	0xbe8604e4	-0.26175606
62	0xbe464aa2	-0.19364408
63	0xc0431d6f	-3.0486715
64	0xc057dd3a	-3.3728776
65	0xc01c4fee	-2.4423785
66	0xbe57d16f	-0.21075986
67	0xc0439dd7	-3.0565088
68	0xbfd553fc	-1.6666255
69	0xbdf9f2b8	-0.12204498
70	0xbfb3a93a	-1.4036019
71	0xc038c1e9	-2.8868353
72	0xbd872284	-0.0659838
73	0xbe8c1d4a	-0.27366096
74	0xbf813df8	-1.0097036
75	0xbd88ecc5	-0.06685785
76	0xbee69c98	-0.45041347
77	0xbe87939a	-0.264798
78	0xbdf07cad	-0.1174253
79	0xbe4a5535	-0.19759066
80	0xbf46e686	-0.776955
81	0xbe5951bb	-0.21222584
82	0xbe5dec70	-0.21672225
83	0xbd089b67	-0.03335133
84	0xbebe8f00	-0.37218475
85	0xbe0f1449	-0.13972582
86	0xbf7ba163	-0.9829313
87	0xc009af43	-2.1513221
88	0xbe8334be	-0.25626177
89	0xbe9eedc1	-0.31040767
90	0xbef2b82e	-0.47406143
91	0xbe9b0b2e	-0.30281967
92	0xbe4bb8cc	-0.19894713
93	0xbfe0b5eb	-1.7555517
94	0xbefdb449	-0.4955161
95	0xbe8bc6f8	-0.2730024
96	0xbe3ec774	-0.18630773
97	0xbef1b3dd	-0.47207537
98	0xbf77ad52	-0.9674884
99	0xbe8815cb	-0.26579127
100	0xbed74159	-0.42042044
101	0xbeddc649	-0.43315342
102	0xbe2ff078	-0.17181575
103	0xbf8df7f0	-1.109129
104	0xbe8352e8	-0.2564919
105	0xbea242b3	-0.31691512
106	0xbebbfb3a	-0.36715108
107	0xbeea472f	-0.45757434
108	0xbfda6093	-1.7060722
109	0xbe0b95f5	-0.13631423
110	0xbed77c70	-0.42087126
111	0xbf9be8bd	-1.2180401
112	0xbe9da7b1	-0.30792
113	0xbf7555ef	-0.9583425
114	0xbe523f84	-0.20532042
115	0xbea2039d	-0.31643382
116	0xbf8a4da0	-1.0804939
117	0xbf551968	-0.8324189
118	0xbf9f1ab6	-1.2430027
119	0xbe39c72c	-0.18142384
120	0xbe70102b	-0.23443668
121	0xbe8f6c80	-0.28012466
122	0xbe8c4be6	-0.27401656
123	0xbe4385ab	-0.19093959
124	0xbe3b9922	-0.18320134
125	0xbe5dc4a2	-0.2165704
126	0xbe9677c3	-0.29388246
127	0xbf98faaf	-1.1951503
128	0xbea065d2	-0.31327683
129	0xbd6871d4	-0.05674918
130	0x3e0dac70	0.13835311
131	0xbdad0071	-0.0844735
132	0xbf511dc6	-0.81686056
133	0x3db2c411	0.08728803
134	0xbbae2af8	-0.005315181
135	0x3d746d54	0.059674576
136	0x3d56865b	0.052374225
137	0x3edad9e1	0.42744353
138	0x3d834436	0.064094946
139	0xbc7af967	-0.015318251
140	0xbbc25131	-0.005930089
141	0x3e41f9be	0.18942925
142	0xbdbb0338	-0.09131473
143	0x3e1fb3d0	0.15595937
144	0x3dc32caf	0.09530007
145	0x3e5ae3ed	0.2137601
146	0x3db7d502	0.08976175
147	0xbe1396d8	-0.14413011
148	0x3e4774eb	0.19478194
149	0x3e029d4f	0.12755321
150	0x3e297562	0.16548684
151	0x3d0215af	0.03175896
152	0x3f76bcc9	0.96381813
153	0x3d1156ca	0.03548316
154	0x3c9c073a	0.019046415
155	0xbd100c79	-0.035168145
156	0x3d31f711	0.04344851
157	0x3da5f09a	0.08102532
158	0x3e2ebace	0.17063448
159	0x3da21c6f	0.079155795
160	0x3f903171	1.1265088
161	0xbd27baeb	-0.040949743
162	0xbe19ca39	-0.15018548
163	0x3c891fad	0.016738737
164	0x3dd3a2d1	0.10333789
165	0xbee849c4	-0.4536878
166	0x3da1e278	0.079045236
167	0xbe569b21	-0.20957614
168	0xbe75cd52	-0.24004105
169	0xbe49e706	-0.19717035
170	0xbeb9d155	-0.3629252
171	0x3ca0c860	0.019626796
172	0x3e055ac3	0.13022904
173	0x3e4710e2	0.19440034
174	0x3cd4becc	0.025969885
175	0x3d091bc3	0.03347374
176	0x3e1b69ea	0.15177122
177	0x3ef26085	0.47339264
178	0xbece93f8	-0.40347266
179	0x3d657b70	0.056025922
180	0xbd25869a	-0.04041157
181	0x3c4902a3	0.012268695
182	0x3dab80af	0.08374154
183	0xbe249bd8	-0.16075075
184	0x3f3bca85	0.73355895
185	0xbe5603d3	-0.20899896
186	0xbdb5cb1f	-0.08876633
187	0x3df4238c	0.119208425
188	0x3b5b4bcc	0.0033461927
189	0xbd62d73b	-0.05538104
190	0x3daab431	0.0833515
191	0x3ea9864e	0.3311028
192	0x3e97466e	0.2954592
193	0xbea8582b	-0.32879767
194	0x3c8253ca	0.015909094
195	0xbea19578	-0.31559348
196	0xbedf44cc	-0.43607175
197	0x3d317fb7	0.04333469
198	0xbebbbcaa	-0.36667377
199	0xbc36dd6d	-0.01116119
200	0xbe6313fb	-0.2217559
201	0x3c7b59f1	0.015341268
202	0x3e4c657c	0.19960588
203	0xbbf75463	-0.0075479015
204	0xbddf0134	-0.10888901
205	0x3d2057d0	0.039146245
206	0xbe940f74	-0.2891804
207	0xbd1f7c08	-0.038936645
208	0x3daf772f	0.08567654
209	0xbdba4069	-0.090943165
210	0x3bec1cbd	0.0072055743
211	0xbdc9e4b4	-0.09858075
212	0x3dcd2b1e	0.100179896
213	0xbbfef570	-0.0077807233
214	0xbe157609	-0.14595808
215	0xbf2ea86e	-0.68225753
216	0x3dd69519	0.10477657
217	0x3d3b6344	0.045748964
218	0x3ed686de	0.4189977
219	0x3f0fbd33	0.5614807
220	0x3e5cfd40	0.21580982
221	0x3e70342d	0.23457403
222	0xbb9ad82a	-0.004725476
223	0xbd6e519f	-0.05818331
224	0xbd88ea8c	-0.06685361
225	0x3da1c3d3	0.07898679
226	0x3dd5eaaf	0.10445153
227	0x3c27265a	0.010202015
228	0xbb1b9649	-0.00237407
229	0x3dd28520	0.10279298
230	0xbcfdace7	-0.030966235
231	0x3ddc1041	0.10745288
232	0x3d38c0e8	0.045105845
233	0xbe43bec6	-0.19115743
234	0x3ce2b52a	0.027674276
235	0x3cb55ba3	0.022138422
236	0xbed716fd	-0.42009726
237	0x3d04d1fe	0.032426827
238	0x3dd0aad2	0.101888314
239	0x3ec8db8a	0.39229995
240	0x3e7c4cc9	0.24638666
241	0x3ec72147	0.38892576
242	0x3d4a262b	0.049352806
243	0xbe9e59e4	-0.30927956
244	0x3eb8ed14	0.36118376
245	0xbec00dfa	-0.37510663
246	0x3dcd7a4a	0.100330904
247	0xbbcc3d67	-0.0062329057
248	0xbcf89b5c	-0.030347519
249	0x3cbdfd83	0.023192173
250	0xbf259fe2	-0.64697087
251	0xbda8b6df	-0.08238005
252	0x3dffba3a	0.12486692
253	0x3e0cbab3	0.13743095
254	0x3e315273	0.17316608
255	0xbd93cfc4	-0.072173625

policy.net.2.bias f4 [5]
0	0xbe2904c8	-0.1650573
1	0xbd1b0ac5	-0.037852068
2	0x3dc6e03c	0.09710738
3	0xbb98a638	-0.0046584867
4	0x3dc8649d	0.097848155

exp_avg f4 [900, 16]
0	0x3913a5bc	0.00014080753
1	0xb9817969	-0.00024695255
2	0xb921bbd5	-0.0001542413
3	0xb8265782	-3.9658982e-05
4	0xb95ee7fb	-0.0002125799
5	0xb8f00cc8	-0.000114464725
6	0x398d6fe3	0.00026976978
7	0xb90d927d	-0.00013501379
8	0xb810fa4b	-3.456538e-05
9	0xb88241fe	-6.211175e-05
10	0x3940181e	0.00018319531
11	0xb8ed482f	-0.00011314486
12	0xb7a6cf17	-1.9885176e-05
13	0xb8ceb9cf	-9.857455e-05
14	0x3814f101	3.5510402e-05
15	0xb8c1b882	-9.2373244e-05
16	0x380e3157	3.390139e-05
17	0xb95e31da	-0.00021190141
18	0xb8981327	-7.251492e-05
19	0x37d44897	2.5306172e-05
20	0x37e9af50	2.78574e-05
21	0xb8ac5167	-8.2167615e-05
22	0x38cbfcaf	9.72686e-05
23	0x37bcfdba	2.2529497e-05
24	0xb84f082f	-4.9360267e-05
25	0x36155584	2.2252507e-06
26	0xb814273a	-3.5322482e-05
27	0xb8e2eb79	-0.0001082038
28	0x3859072a	5.1743504e-05
29	0xb783ebbe	-1.5726193e-05
30	0x389341b6	7.021746e-05
31	0x3853c244	5.0487244e-05
32	0x381db3e7	3.7599264e-05
33	0xb94927fb	-0.00019183748
34	0x37b2b63d	2.1304115e-05
35	0x390ad619	0.00013240463
36	0x389afa5e	7.389927e-05
37	0xb885503e	-6.3568805e-05
38	0x39507b9c	0.00019882474
39	0x389c6054	7.456602e-05
40	0x391e1d9a	0.00015079082
41	0x379800bf	1.812016e-05
42	0xb84a7497	-4.8269136e-05
43	0xb89dec21	-7.530326e-05
44	0x38e9713a	0.00011131396
45	0xb87b1c81	-5.986961e-05
46	0x38f1d91f	0.000115322175
47	0x3837d3bf	4.3827804e-05
48	0xb93b97f8	-0.00017890322
49	0xb937f4fa	-0.00017543501
50	0x380cf913	3.361057e-05
51	0xb8352524	-4.3188353e-05
52	0xb8abde56	-8.195329e-05
53	0xb8a64f8e	-7.930315e-05
54	0x3907e0ed	0.00012958395
55	0xb80810d4	-3.24406e-05
56	0xb7435b6b	-1.1644191e-05
57	0x3723d88c	9.765976e-06
58	0xb84432dc	-4.6777408e-05
59	0x36212c5e	2.4016695e-06
60	0x38d670ad	0.00010225303
61	0xb79558ff	-1.7803626e-05
62	0xb8936015	-7.027403e-05
63	0xb720d1c0	-9.585579e-06
64	0x39b446a1	0.00034384898
65	0xb88dfc08	-6.7703484e-05
66	0xb9f051e3	-0.00045837378
67	0xb8422fce	-4.6297726e-05
68	0xba0f9a50	-0.00054780114
69	0xb98726d6	-0.00025778142
70	0xb89eea4a	-7.577667e-05
71	0xb8790fdc	-5.9380996e-05
72	0xb9bfc448	-0.000365766
73	0x38edca05	0.0001133867
74	0x38e6fba0	0.000110141234
75	0xb8925520	-6.977678e-05
76	0x39926599	0.00027922986
77	0x3998d5b1	0.00029150912
78	0xb9856cf2	-0.00025448907
79	0x3971375b	0.00023004173
80	0x00000000	0.0
81	0x00000000	0.0
82	0x00000000	0.0
83	0x00000000	0.0
84	0x00000000	0.0
85	0x00000000	0.0
86	0x00000000	0.0
87	0x00000000	0.0
88	0x00000000	0.0
89	0x00000000	0.0
90	0x00000000	0.0
91	0x00000000	0.0
92	0x00000000	0.0
93	0x00000000	0.0
94	0x00000000	0.0
95	0x00000000	0.0
96	0x00000000	0.0
97	0x00000000	0.0
98	0x00000000	0.0
99	0x00000000	0.0
100	0x00000000	0.0
101	0x00000000	0.0
102	0x00000000	0.0
103	0x00000000	0.0
104	0x00000000	0.0
105	0x00000000	0.0
106	0x00000000	0.0
107	0x00000000	0.0
108	0x00000000	0.0
109	0x00000000	0.0
110	0x00000000	0.0
111	0x00000000	0.0
112	0x00000000	0.0
113	0x00000000	0.0
114	0x00000000	0.0
115	0x00000000	0.0
116	0x00000000	0.0
117	0x00000000	0.0
118	0x00000000	0.0
119	0x00000000	0.0
120	0x00000000	0.0
121	0x00000000	0.0
122	0x00000000	0.0
123	0x00000000	0.0
124	0x00000000	0.0
125	0x00000000	0.0
126	0x00000000	0.0
127	0x00000000	0.0
128	0x00000000	0.0
129	0x00000000	0.0
130	0x00000000	0.0
131	0x00000000	0.0
132	0x00000000	0.0
133	0x00000000	0.0
134	0x00000000	0.0
135	0x00000000	0.0
136	0x00000000	0.0
137	0x00000000	0.0
138	0x00000000	0.0
139	0x00000000	0.0
140	0x00000000	0.0
141	0x00000000	0.0
142	0x00000000	0.0
143	0x00000000	0.0
144	0x00000000	0.0
145	0x00000000	0.0
146	0x00000000	0.0
147	0x00000000	0.0
148	0x00000000	0.0
149	0x00000000	0.0
150	0x00000000	0.0
151	0x00000000	0.0
152	0x00000000	0.0
153	0x00000000	0.0
154	0x00000000	0.0
155	0x00000000	0.0
156	0x00000000	0.0
157	0x00000000	0.0
158	0x00000000	0.0
159	0x00000000	0.0
160	0x00000000	0.0
161	0x00000000	0.0
162	0x00000000	0.0
163	0x00000000	0.0
164	0x00000000	0.0
165	0x00000000	0.0
166	0x00000000	0.0
167	0x00000000	0.0
168	0x00000000	0.0
169	0x00000000	0.0
170	0x00000000	0.0
171	0x00000000	0.0
172	0x00000000	0.0
173	0x00000000	0.0
174	0x00000000	0.0
175	0x00000000	0.0
176	0x00000000	0.0
177	0x00000000	0.0
178	0x00000000	0.0
179	0x00000000	0.0
180	0x00000000	0.0
181	0x00000000	0.0
182	0x00000000	0.0
183	0x00000000	0.0
184	0x00000000	0.0
185	0x00000000	0.0
186	0x00000000	0.0
187	0x00000000	0.0
188	0x00000000	0.0
189	0x00000000	0.0
190	0x00000000	0.0
191	0x00000000	0.0
192	0xb5c3b298	-1.458061e-06
193	0xb70c766b	-8.372222e-06
194	0x38afba43	8.379344e-05
195	0xb738d1e7	-1.1016126e-05
196	0x38cc868b	9.7525386e-05
197	0xb8bb6b98	-8.936896e-05
198	0x39343126	0.00017184447
199	0xb8cb03c7	-9.680498e-05
200	0xb7cd7f5f	-2.4497216e-05
201	0x3874b039	5.8338253e-05
202	0x38b16257	8.458335e-05
203	0x37430133	1.1623185e-05
204	0x3744b265	1.1724046e-05
205	0x384b3af7	4.8453887e-05
206	0xb8633d9d	-5.41784e-05
207	0xb9034ccd	-0.00012521744
208	0xb892704b	-6.982739e-05
209	0xb8a1b38d	-7.710522e-05
210	0x3850e1cd	4.9801358e-05
211	0xb874b0a3	-5.833864e-05
212	0xb7e547cf	-2.7332366e-05
213	0xb8e250c6	-0.00010791565
214	0x384ee56c	4.9327893e-05
215	0xb8369078	-4.352673e-05
216	0x37b63d88	2.1724743e-05
217	0x38102144	3.4363256e-05
218	0x390a57f2	0.00013193468
219	0xb7081460	-8.110976e-06
220	0xb75433c8	-1.2648241e-05
221	0x38957bea	7.1279544e-05
222	0x37859255	1.5922977e-05
223	0xb93b9897	-0.00017890554
224	0x390d4853	0.00013473751
225	0x372fdf28	1.048277e-05
226	0x3896a30d	7.182928e-05
227	0x37f20a1b	2.8853354e-05
228	0x37919f6b	1.7359582e-05
229	0xb8cc2bfa	-9.735669e-05
230	0x38a152c8	7.6924975e-05
231	0xb9206eed	-0.00015300112
232	0x3898e9df	7.291487e-05
233	0x39230474	0.0001554655
234	0x39072bf0	0.00012890971
235	0x368160a9	3.8557523e-06
236	0x3824d533	3.9299204e-05
237	0x386a06c5	5.5796252e-05
238	0xb8a7c7f9	-8.000428e-05
239	0xb902aa17	-0.0001246113
240	0x38ab998a	8.182514e-05
241	0x381563b7	3.5617235e-05
242	0x3849e374	4.8133967e-05
243	0xb7d3b496	-2.5237252e-05
244	0xb78a9b27	-1.652313e-05
245	0xb8183f1e	-3.6298406e-05
246	0x381fd3b1	3.8105707e-05
247	0xb89be536	-7.43367e-05
248	0xb7d40e68	-2.5279078e-05
249	0x384183a6	4.6137393e-05
250	0x394a34f3	0.00019283946
251	0xb80630c9	-3.1993524e-05
252	0xb6971924	-4.5030774e-06
253	0x3883056a	6.247575e-05
254	0xb88f37b0	-6.829144e-05
255	0xb919e73c	-0.00014677359
