SGE_Transformer/model/2_room/eil_2_room_198_model/EBC_model_79999.pth (torch, 319288 bytes, 27 tensors)

encoder.embedding.weight f4 [900, 16]
00000000: 993d 833e fc35 4abf 4704 3c3f 5714 fc3f
00000010: 6887 083f a760 4c3f bf8e 113e 6b86 0d3f
00000020: 9a30 c73f 1ce1 9a3f b71d b93f b55b 46bf
00000030: f38c f83f 133a 0fbf c560 82bf 9a87 2b3f
00000040: 4bc8 97bf ad57 cb3c 5bfa fc3e 82f7 2bbf
00000050: c412 0a3f 556d 0a3f 4838 bf3e 4dec 973d
00000060: 72fd 79bf 9315 b4bf c63d 1040 e6fc d0bf
00000070: ff0b 5d3f ad4d 56be c47f b3be 28b6 bbbf
00000080: ace5 1d3f 23cf d6bd eeca 0dbf 4e04 183f
00000090: 6dfa 8bbc daad 563e c750 b1be 1b64 fabf
000000a0: 3d45 32bf 27f0 8a3f 622a 80bf 96b0 f6bb
000000b0: 91d7 a8bf 1e20 f83d 81a2 5ac0 e0dc 94bf
000000c0: b5b4 bd3e b926 4abf 8567 bbbf 2841 51bf
000000d0: e040 373f 9b86 d53f 090d 90bf 0538 ff3e
000000e0: c9e3 aebf 6ecb 113e 864c 333f af50 b4bf
000000f0: c1c1 8bbf cfe9 2cbf ecde 3cbf 9fc4 24c0
00000100: c271 7d3f e8cb fb3e ab19 c2bf 78d8 1b40
00000110: 0a0e 75bf f592 b8bd 2163 c5bf 7209 d93e
00000120: d6a3 21bf 683e 33be 84b9 ce3d d839 e3bf
00000130: d8eb 09c0 b9ee b8bd 8667 1cbf 8b79 803d
00000140: b518 193e 4686 2e3f 0daa c83f 767d f33e
00000150: 41a4 80bf 09fb 82bf 3c7d 053f 5be3 f6be
00000160: c4ca 45bf 45a6 2f40 beea fcbf 30f0 d43e
00000170: 139d c83f c321 23bd 97e2 78bf b849 36bf
00000180: b5b7 753e e57c 99bf 171e 883f 144c 2dbf
00000190: 0cd4 29bf 842e ac3e 80b9 043f c4d6 843f
000001a0: 3de2 293d 8d83 573f 5a75 06be fc08 bfbf
000001b0: 2026 ba3e 4ad5 02bf 3846 d6be 3d48 973f
000001c0: 722c 88be d2df 4d3f a67b 9dbe 5f48 ad3f
000001d0: 44c2 2a3f 598f 71be 8154 2fbe 23c7 0f3f
000001e0: dc35 9d3e c8f4 ac3e 7400 053e 6f95 133f
000001f0: d158 a63c c0fd b23f 8f5e b53f c0bf c0bb
00000200: 45e8 61bf e3f6 f9be f994 adbf 1a0e 6fbe
00000210: 1735 ea3f ed78 cb3f 8a5e 363e ba0f 033f
00000220: f0d7 0bbf 86c2 b8bf 323e f6bf af88 90bf
00000230: 94de 803f c211 10bc 91f0 4dbf 8aa0 fb3f
00000240: 0af0 d23f 35e7 113f 9c2e 4abc 3f44 bcbf
00000250: b977 3dbd 9966 08bf bde4 283f 7df5 0b40
00000260: 45c5 f93e 2980 0b40 3a38 bbbf eb0b b2bf
00000270: 9346 ddbe f292 18be f77c d03d d6eb 33be
00000280: f3e7 a43e 5f13 9a3f 16cc ae3d e862 e1bf
00000290: 64f5 733d 0473 a7bf d01c 6c3e 8bbe 753f
000002a0: 40d0 103e 35a8 5c3f 5c43 8cbf 400f 92bf
000002b0: 2191 c0be 6303 83be a74a 91be bba9 8f3f
000002c0: ac14 0440 9122 063e bd48 693f 8468 ca3d
000002d0: ba85 2abf 05a8 6e3f a055 d13f 17dc 8cbf
000002e0: bb40 3c3f 7e9a 0140 377b 3ac0 955f 433e
000002f0: c2b8 2d3e 8734 33bf 8a28 c8bd 91a1 033f
00000300: 99d2 823f 0a7f 073e 9aae 9fbf 0eb1 0140
00000310: f8b8 033f 2676 30bf 8280 93bf 3a63 69bf
00000320: 99fd c33f 19fe 8e3f c58e b33f 2c30 61be
00000330: 45a0 4cbf 0bfe d3bf 3ddc ecbf 9825 dfbf
00000340: b063 df3f 29c4 433d f3ea 4bbf 9d74 3e3f
00000350: 5630 043f 4272 01bf a507 f6bd 25a5 a7be
00000360: eb22 65be 4924 09bf 01c0 193f adfc 37bf
00000370: 53dc 903f 0ef7 a23f b6be 183f 9eae 3ebf
00000380: e099 b6bf 7d46 d1bf e62d 0fbf 3f50 b7be
00000390: be69 863f bb9a 283f 9e54 c9bf 9c1d dfbf
000003a0: d3c7 9c3f 7935 293f a0b9 4a3e feac aabf
000003b0: e52b 8ebf c747 8bbe f699 cdbe 5836 c03e
000003c0: 4d12 9bbd ec5f dcbe f3d7 5cbe b67b 583f
000003d0: db51 f53f 23fe 1b3f c90a 83be 7ab0 c5bf
000003e0: b75e b7be da8a edbf 8ada 9e3f 4aa8 48be
000003f0: a8a3 723f 3ae7 883d 663f 1640 30c1 6cbd
0.25632933 -0.78988624 0.73444027 1.9693707 0.53331614 0.7983498 0.1421461 0.5528323
1.5561707 1.2099948 1.4462193 -0.77483684 1.9418014 -0.5594799 -1.0185782 0.67003787
-1.1858 0.02482208 0.49409756 -0.6717454 0.53934884 0.5407308 0.37347627 0.07418118
-0.9765235 -1.4069084 2.2537704 -1.6327178 0.8634643 -0.20928068 -0.35058415 -1.4664965
0.61678576 -0.10488727 -0.5538777 0.5938157 -0.017087186 0.20964757 -0.3463194 -1.95618
-0.696369 1.0854539 -1.0012934 -0.007528375 -1.3190786 0.12115501 -3.4161685 -1.1629906
0.3705193 -0.78965336 -1.4640967 -0.81740046 0.71583366 1.6681703 -1.1253978 0.49847427
-1.3663265 0.14237759 0.7003864 -1.4087123 -1.0918504 -0.67544264 -0.7377765 -2.5745008
0.99001706 0.49179006 -1.5164083 2.4350872 -0.95724547 -0.09012405 -1.5420877 0.4239002
-0.6314062 -0.17504275 0.10093978 -1.7752028 -2.1550198 -0.09029908 -0.61095464 0.062731825
0.14950831 0.68173635 1.5676895 0.47556657 -1.0050126 -1.023286 0.5214422 -0.48220333
-0.7726252 2.7445233 -1.9759138 0.415895 1.5672935 -0.03982712 -0.9722075 -0.71206236
0.2399586 -1.199124 1.0634183 -0.6769421 -0.6633918 0.3362924 0.5184555 1.0378041
0.041475523 0.84185106 -0.13130704 -1.4924617 0.36357212 -0.51106703 -0.41850448 1.181892
-0.2659641 0.8041965 -0.307584 1.3537711 0.66702676 -0.23589839 -0.1712208 0.56163234
0.30705154 0.33780503 0.12988454 0.5764989 0.020306023 1.3983688 1.4169482 -0.0058822334
-0.8824504 -0.48821172 -1.3561088 -0.23345223 1.8297452 1.5896279 0.17809501 0.5119587
-0.5462637 -1.4434364 -1.923773 -1.1291713 1.0067925 -0.008793296 -0.804452 1.9658368
1.6479504 0.5699342 -0.012340214 -1.4708327 -0.046256755 -0.5328155 0.65974027 2.1868584
0.48783317 2.1796973 -1.4626534 -1.3909887 -0.43217906 -0.14899805 0.10180085 -0.17570433
0.32208213 1.2037162 0.0853502 -1.7608309 0.059560195 -1.3081975 0.23057866 0.9599387
0.14141941 0.86194164 -1.0958056 -1.1410904 -0.37610725 -0.2558852 -0.28377268 1.1223673
2.0637617 0.13099124 0.91126615 0.09883216 -0.666103 0.9322513 1.6354256 -1.1004666
0.7353627 2.0250545 -2.9137704 0.1907943 0.16965011 -0.70002025 -0.09773357 0.51418406
1.0220519 0.13232055 -1.2475159 2.0264316 0.51454115 -0.6893028 -1.1523592 -0.9116703
1.5311767 1.1171294 1.4027945 -0.21991032 -0.7993205 -1.6561903 -1.8504711 -1.7433348
1.7452297 0.047794495 -0.7965538 0.7439669 0.51636255 -0.5056497 -0.12013177 -0.32743183
-0.22376601 -0.5357099 0.600586 -0.7186993 1.1317238 1.2731645 0.59666 -0.74485195
-1.4265709 -1.6349636 -0.5592941 -0.3580341 1.050102 0.658611 -1.5728948 -1.7430911
1.2248482 0.6609722 0.19797373 -1.3334043 -1.1107146 -0.272032 -0.40156525 0.3754146
-0.0757185 -0.43041933 -0.21566753 0.8456377 1.9165605 0.60934657 -0.25594166 -1.5444481
-0.3581445 -1.8557999 1.2410443 -0.19595447 0.9478097 0.06684728 2.3476195 -0.057801425

encoder.lstm.weight_ih_l0 f4 [128, 16]
00000000: 95a0 ccbe 4603 603e 7ed1 dbbe f714 37bf
00000010: 2293 a1bd 8516 e23e e85e f5bd a643 613e
00000020: c39d 4fbe 36af 7ebe 5417 09bf c001 ffbd
00000030: 26a6 883e 7fb7 f23c b6c6 8ebd c2fa f13e
00000040: e1aa c13c 5293 0c3f d5c6 f1be 939d 03be
00000050: 79bb 9bbc 19da e6be 146f d03d 390d ba3e
00000060: 869a 4cbe 5815 57bf 57ed b7be 744c c6be
00000070: e191 923d d4c8 7abf 7df1 1d3e ad02 d83c
00000080: fde6 d23d 3d45 56be 7574 65be 7894 853e
00000090: 8ddf 3fbe 3fde 433e 1a47 883e a8b8 c13d
000000a0: 000a 363e cc0f 89be 45f4 9abe 4626 453e
000000b0: 5400 2bbd ed00 0c3c a975 88be a116 a33e
000000c0: 51fa 2ebf 6765 f53d d176 483f c35f 213e
000000d0: a819 3abd 9f6d 713e 249f cebd 289b ccbd
000000e0: c633 c9bd 4b87 4d3e bd63 833d c89d 7fbf
000000f0: b9e6 f9be 50e3 97bd 6682 903e 1ce1 983d
00000100: 93f1 8dbc f649 6c3d 2c38 9d3e 8c4c ba3d
00000110: 56bb 1d3f 3c93 b73e 0c78 14be 815d 523c
00000120: 52a7 00bf 4209 a3bc c312 b53e 482d b5bc
00000130: 823b 76be 576b 553e 7f54 4ebe a337 8cbe
00000140: eb08 ba3e f2b4 173f 9526 e53d 2038 6a3d
00000150: 3296 5dbd 9236 84bd 0939 98be d616 fd39
00000160: 4c34 5ebc 3e93 47bf 6101 52be 995d 6c3e
00000170: 3004 7f3e 528e 093f 7785 d8be 2789 8e3e
00000180: 7ba9 38be 7336 433e f9a5 893d d816 63be
00000190: 92a2 043f 827e 24bd 11bc fc3e a631 313e
000001a0: b0e0 ff3d c565 183f 039f e93c 22b3 ee3e
000001b0: c261 a63e d797 93bb bffc fd3d a8c9 563e
000001c0: 871d cbbe e173 9f3d 0f52 febd 75fd 85be
000001d0: 0cf4 e63e 657c 333f aba9 2bbc f0c2 d03e
000001e0: a589 d8be 12c4 0ebe 8d1a 78bf c841 28be
000001f0: cdd7 8fbe 2386 8a3f d55a ee3e 7e66 8bbe
00000200: c65e 0f3e c01b 8fbe 478a 26be 9df6 cb3e
00000210: ac0d 393d 3025 92be 9e22 873e 49c9 0e3f
00000220: c493 e03d 8c36 773e 4a3b 423e 6cdc 243e
00000230: f331 bb3e ac47 123f 28cb 85be 66f9 d83c
00000240: 3e3f 8b3e ce4e b43e a0ca aabd d496 1e3e
00000250: 5cf6 c7be 8a85 6bbe 3110 4dbd a71b a53e
00000260: 3212 8dbe ddc1 e23d f998 37bf 6e50 1fbe
00000270: debd 863e 451c 2e3f 725b f43b af8c a83e
00000280: 8251 b63e dcbe 8f3e b0c6 823e 5d95 35be
00000290: 61e7 363d c009 3c3e 7197 80bd 9f87 9a3e
000002a0: 43d9 c3be 3d84 f9be b87f 7dbe ba01 10bd
000002b0: eab3 073f 8827 8e3c 5e68 34be 8f08 cd3d
000002c0: 163f c9bd 2943 253f 06fc 59bf 8bab c8bc
000002d0: cc3b 753e 03c4 e1be ac7d c03c 36f9 df3e
000002e0: 7fbe 31bf e239 b43e 23d0 183d 1e90 c13e
000002f0: a157 c7be e31c 08be 1045 2f3e 877c 383e
00000300: 6d55 7dbc d094 103f 29bb a9be acc4 413f
00000310: ac10 3fbe fb10 9b3d ff53 2dbf 832e 943e
00000320: 5019 df3d 5bc6 ac3e d201 223f 631c 1b3e
00000330: a6b7 b23d 1ccb ec3e 87cf 133f baf8 4a3e
00000340: de7d fe3c e39e de3d 8cad 07be 9650 a0bc
00000350: 0633 a2be fd8c 843d 84fb 8b3e a055 1dbe
00000360: ea03 9cbd 48d5 1dbe 1d5c 11bd 5993 bd3e
00000370: eaa6 f63d 22cb fc3e 311d a0be c069 223e
00000380: 422f 623e 213c 87be a9ec 93be 0f84 dd3e
00000390: a8bf 313e 5f36 0c3e 43be 713e 1ddb 2fbd
000003a0: bb08 9bbd 4207 42bc dfda 6fbe 3be8 18be
000003b0: 3f64 bfbd edfc 9ebe e709 f0bd 1677 153e
000003c0: 1e50 3e3e a87f a1be ab7c 8bbe 22e6 533d
000003d0: 3484 16be 057a 343f 0f4a d9be 049d 85be
000003e0: dae8 0aba c2f1 8e3c b3d0 853e 1173 d5be
000003f0: 5b28 12bf 42be ff3d 3c71 0e3e c6ed 3d3e
-0.39966264 0.21876249 -0.42933267 -0.71516365 -0.078893915 0.44157806 -0.119809926 0.21998462
-0.20275025 -0.24871525 -0.5355122 -0.12451506 0.2668926 0.029628513 -0.06971495 0.47261626
0.023641052 0.5491229 -0.4722201 -0.12853079 -0.019010292 -0.4508827 0.101774365 0.36338213
-0.19980821 -0.8401694 -0.35923263 -0.38730204 0.071567304 -0.9796269 0.15424152 0.026368463
0.10297964 -0.2092485 -0.22407706 0.26089835 -0.18737622 0.19127749 0.26616746 0.094590485
0.17777252 -0.26769865 -0.30264488 0.19252881 -0.04174836 0.008545143 -0.26652268 0.31853202
-0.683507 0.119822316 0.783063 0.15759186 -0.045434624 0.23576973 -0.100889474 -0.09990531
-0.09824328 0.20071141 0.06415508 -0.9985013 -0.4880884 -0.07416403 0.28224486 0.07464811
-0.017327106 0.057687722 0.30706918 0.090966314 0.61613977 0.35854518 -0.14498919 0.012839676
-0.5025531 -0.019901875 0.35365877 -0.022116318 -0.24046138 0.20841728 -0.2014942 -0.27386197
0.3633493 0.59260476 0.111889996 0.05718243 -0.054098316 -0.06455721 -0.29731014 0.00048272935
-0.013562273 -0.7795905 -0.20508339 0.2308258 0.24903941 0.5373279 -0.42289326 0.27839014
-0.18033402 0.1906374 0.0672111 -0.22176683 0.5181056 -0.04015971 0.49362233 0.17304096
0.124940276 0.5953029 0.028518206 0.46621042 0.32496458 -0.0045041847 0.12401723 0.20975363
-0.39670965 0.07785774 -0.12417995 -0.26169935 0.45108068 0.70111686 -0.010477464 0.40773726
-0.42292514 -0.13941982 -0.96915513 -0.16431344 -0.2809433 1.0822185 0.46553674 -0.27226633
0.14000997 -0.2795086 -0.16263686 0.39836589 0.045179054 -0.28543997 0.26393598 0.55775887
0.10965684 0.24141902 0.1896793 0.1609971 0.36561546 0.5714061 -0.26131558 0.02648611
0.27196687 0.35216373 -0.08339429 0.15487224 -0.39055145 -0.2300016 -0.05006427 0.3224766
-0.27552944 0.11072133 -0.7171779 -0.15558025 0.26316732 0.68011886 0.00745719 0.32919833
0.3560906 0.28075302 0.25542212 -0.17732759 0.044654254 0.18363094 -0.06278885 0.30181596
-0.38251695 -0.48733702 -0.24755752 -0.035157897 0.530089 0.017352834 -0.17617938 0.10011398
-0.09826486 0.64555603 -0.8515018 -0.02449586 0.23948592 -0.44094858 0.023497425 0.4374482
-0.694313 0.3520041 0.03730787 0.37805265 -0.38934043 -0.1329227 0.17116189 0.18016253
-0.015462262 0.5647707 -0.33150604 0.7569072 -0.18658704 0.07571598 -0.6770629 0.28941736
0.108935 0.33745083 0.6328403 0.15147547 0.087264344 0.4624871 0.57738537 0.19821444
0.031065878 0.10870149 -0.13249797 -0.019569676 -0.31679553 0.06472204 0.2734033 -0.15364695
-0.07617934 -0.15413392 -0.035488237 0.3702648 0.12043555 0.49373728 -0.3127227 0.15860653
0.2208834 -0.26413062 -0.28891495 0.43264815 0.17358267 0.13692616 0.23607735 -0.042933572
-0.075700246 -0.011842551 -0.23423336 -0.14932339 -0.09345292 -0.31052342 -0.11720639 0.14596209
0.1858525 -0.31542706 -0.27243552 0.051733144 -0.14698869 0.7049869 -0.42439315 -0.26096356
-0.000529898 0.017449263 0.26135787 -0.4168935 -0.5709283 0.12487461 0.13910383 0.18547735

encoder.lstm.weight_hh_l0 f4 [128, 32]
00000000: 555b 76bf ed0a 45be e24f 95be ba8b 973e
00000010: dad3 2e3f aa20 6dbe 8e5e 96bb e461 fcbe
00000020: b1ae d1bd 1aef fcbe bbbd eebd 6077 cbbe
00000030: 300b d73e 014f 9cbd b652 ef3e 3929 42be
00000040: d9b3 c83e 73c1 4ebd 2286 09bf 1b08 4dbf
00000050: 9012 12be aa00 643e f6bf 2cbf d0b6 0cbf
00000060: 1098 9f3e d9b7 4bbe cb26 133d 0c6e 0ebe
00000070: 5811 0cbf 0074 693e dea8 e93c 4fd4 9fbe
00000080: 0601 40be eab5 973e 7216 15bf 6853 06be
00000090: 37cc 1b3f a0d2 fdbe 99c6 003e 405b 75bd
000000a0: 58bf 5fbb 0a0d 72bd 8ad7 bfbe 0703 c3bd
000000b0: 99dc 72be a1e4 06be c3fd 543f 219a b8bd
000000c0: 60ab 0f3e dee3 133f ffe3 c73e 69a3 25bd
000000d0: 4a45 4cbf fb8b e63e 1cb0 ac3d f5f1 da3e
000000e0: 6a2a 473f 7af2 1b3d 1752 98bd f6e0 acbe
000000f0: c78d 36bf a720 2c3f ee75 403f 8e2f d63c
00000100: 672e 193f 2107 843d 21a0 bbbe 405c 90be
00000110: ea1b 8e3f 3801 29bf c1d8 963e d536 34bd
00000120: 752b eabe 0ad1 76bf 5d30 463e 7cd3 9dbf
00000130: 71a2 9cbc 0006 6abf 5a4b 703e bbc1 acbe
00000140: b08f 3b3e 3450 b0be 9024 253f 58d7 a8be
00000150: 446e fbbe ea77 943c 9d3e 8dbe 7cde 8cbd
00000160: dfb8 e73e d086 1abf caa1 363c c98d 59bf
00000170: bdf0 99be d489 783d d51d 0fbd e96b ebbe
00000180: 589d 0bbe d4c8 b1be f711 0f3e fd24 87be
00000190: 228c d8be 22c8 50bf 09bd babd 0582 a83e
000001a0: a2a9 963d c412 a23e 7257 ea3c ea40 0bbf
000001b0: 73c3 1cbe 5212 55bf 4eee 80be 78e9 883e
000001c0: 6cdf 0a3f eb9f d7be e7ec ca3e 5e51 8bbd
000001d0: deb2 31be 5dc5 6dbe 5a87 a6be 94fb c93d
000001e0: 10dc 17be 2638 133f 324c 2bbf c913 30bd
000001f0: 1153 cebe 0723 90be 8467 4c3c d69b dc3e
00000200: 6fad b9be 8095 2f3e 0c59 7cbe 472d 203e
00000210: d571 1c3f fd24 48bf b536 e1bd e33a 503f
00000220: 801d a7be d7b5 68bd 75c2 38be 2ee3 6f3e
00000230: 4b73 f33e 8a94 f83d 1bc9 343f 021a 513e
00000240: 7fd5 c13e f73b 48be f553 b6bd a1ee b8be
00000250: d034 cdbe 0caa 983e eb79 383e f579 a0be
00000260: 0f09 da3e 24df f23c 29bc dcbe fa5a c03e
00000270: 8272 15bf 05f7 7a3f 6cf5 edbe 8aee e7be
00000280: 54df 933d 9278 53be b4c4 eabe 9ae0 18bf
00000290: 3ad3 643d 05dc 01bf c052 0d3f 8c1a 8d3f
000002a0: f90e e9be c874 8f3c e118 ffbe a947 39be
000002b0: abb2 1cbe 146f e7bd 6565 e13d 9154 1cbe
000002c0: afa6 803e 1fb2 c83d c257 613e 4a5b d33d
000002d0: 2e66 da3d 714f f43e bfa9 b13e 2c49 00bf
000002e0: 3112 73be 851a abbe 2246 f7be 44f9 0cbf
000002f0: ff95 89be 15d1 e13e 440b ffbe fdb6 5f3c
00000300: d0bd 863e e03a f03e 0194 b8be 13ee 3a3e
00000310: 3caf c53d 1a1a d1be 1858 64be 6442 503f
00000320: 05fc a2be 8c26 bb3c 5da2 ffbe 0238 15bf
00000330: 7a73 f4bb 8b82 1abf 06d6 a5be 595f 753e
00000340: 4275 ed3c dd54 aa3d 333f e1be 3993 2c3e
00000350: 0a24 21bf b19f 323f 2e18 d0bd 1f36 a1be
00000360: e817 a43f 64e9 eabe 7dfe 823d 2d28 88be
00000370: 1a95 70bf 40ab a13e c524 e53d a9ab 33be
00000380: d527 563d 62cc 80be 680a 61bf fd2c 80be
00000390: 5402 613f ea23 eabe 18b4 6cbe 911a 2d3e
000003a0: 701e 2dbe 76c0 7bbe 8222 c7be 36a6 8e3d
000003b0: 247e 423e a744 02bf 9293 133f 8314 a0bd
000003c0: 0f87 cc3e 34f4 033e 32b1 75be 3919 c7bd
000003d0: d9f6 fc3d f03a 5d3e 0c09 24bf 512b f9be
000003e0: f23a 78be 8f09 31bf 6a49 06bf b88b 6cbf
000003f0: cae2 07bf 0a21 d23e 35db 44be 01d2 a0be
-0.9623311 -0.19242449 -0.29162508 0.2959879 0.6829201 -0.23156992 -0.0045889085 -0.49293435
-0.10238398 -0.4940117 -0.11657282 -0.39739513 0.42000723 -0.07632256 0.4674279 -0.18961038
0.39199713 -0.050477456 -0.53720295 -0.8009049 -0.14264894 0.22265878 -0.6748041 -0.5496645
0.31170702 -0.19894351 0.035925668 -0.13909167 -0.54713964 0.22798157 0.028522905 -0.31216666
-0.1875039 0.29630977 -0.58237374 -0.13117754 0.6085848 -0.49574757 0.12575759 -0.059901476
-0.003414115 -0.059094466 -0.3746913 -0.09522062 -0.23716964 -0.13173153 0.8319971 -0.09013773
0.14030218 0.5776957 0.39041135 -0.040439043 -0.79793227 0.45028672 0.08432028 0.42762724
0.77799094 0.03807304 -0.074375324 -0.33765382 -0.71310085 0.67237324 0.75179946 0.026145723
0.5983643 0.06446672 -0.36645606 -0.2819538 1.1102269 -0.66017485 0.29462245 -0.043997604
-0.4573628 -0.9641272 0.19354387 -1.2330165 -0.019120427 -0.91415405 0.23466244 -0.33741555
0.18316531 -0.3443619 0.64508915 -0.32976794 -0.49107563 0.018123586 -0.27586833 -0.06878373
0.45258233 -0.6036196 0.011146972 -0.8498197 -0.3006648 0.06067832 -0.03494056 -0.45980766
-0.1363424 -0.34723532 0.13971697 -0.26395407 -0.42294413 -0.8155538 -0.09118087 0.32911697
0.07356574 0.31654942 0.02860615 -0.54395926 -0.15308933 -0.8323108 -0.25181812 0.26740623
0.54247165 -0.42114195 0.39633867 -0.06802629 -0.17353389 -0.2321982 -0.3252514 0.09862438
-0.14830041 0.5750755 -0.6691314 -0.04298762 -0.4029775 -0.28151724 0.012475852 0.43087643
-0.36265132 0.17146873 -0.24643344 0.15642272 0.61111194 -0.7818144 -0.10996763 0.81339854
-0.32639694 -0.05681404 -0.1804293 0.23426506 0.475489 0.121377066 0.7061936 0.20420077
0.37858197 -0.19554125 -0.08902732 -0.3611956 -0.40079355 0.29817235 0.18015258 -0.31343046
0.42585036 0.029647417 -0.43112305 0.3756941 -0.5837785 0.9803317 -0.46476305 -0.45299178
0.07220331 -0.20651463 -0.45853198 -0.59717715 0.055865504 -0.5072635 0.5520439 1.1023726
-0.45519236 0.01751174 -0.4982367 -0.18093742 -0.15302531 -0.11300483 0.110056676 -0.15266635
0.2512717 0.09799599 0.22006133 0.103201464 0.106640205 0.4771686 0.34699818 -0.5011165
-0.23737408 -0.3341867 -0.48295695 -0.5506785 -0.2687225 0.4410483 -0.49813282 0.013654468
0.2631669 0.46919918 -0.36050418 0.1825488 0.09652564 -0.40840226 -0.2229923 0.81351304
-0.318329 0.022845529 -0.4992856 -0.58288586 -0.007460055 -0.6035544 -0.3238985 0.23962153
0.028986577 0.08316968 -0.4399353 0.16853036 -0.62945616 0.6977492 -0.10160862 -0.31486604
1.2819796 -0.45881188 0.06396196 -0.26593152 -0.9397751 0.31575966 0.11188654 -0.17545952
0.05228408 -0.25155932 -0.87906504 -0.25034323 0.8789418 -0.45730525 -0.23115575 0.16904666
-0.16906142 -0.24585137 -0.38893515 0.06965296 0.18993431 -0.50886005 0.5764705 -0.07816412
0.39946792 0.12886125 -0.23993376 -0.09721608 0.1235177 0.21604514 -0.64076304 -0.4866586
-0.24241236 -0.6915521 -0.5245577 -0.92400694 -0.5308043 0.41040832 -0.19224246 -0.3141022

encoder.lstm.bias_ih_l0 f4 [128]
00000000: 793d 333f 0736 ba3e 925f c13e 5436 a33d
00000010: c0eb 723e 6dde e63e b973 da3e 9ea8 cf3e
00000020: ce60 b83e cbdf e33e 8800 213e 026b 583c
00000030: 374a e6bc f130 533f 1462 213e 50e4 023e
00000040: 8edd 0d3f 54e9 003f 6120 2c3f 24b9 123c
00000050: 5ab6 293e 8659 383e e1bf e23e 47ad 9d3e
00000060: e68e 823e 7f40 b43e 7ff0 f03e 9938 8e3e
00000070: 4930 2c3f 19e7 cf3e 314d 31be d9fb 803e
00000080: 84c3 943e 43cc 81be 6436 9e3e 51b8 3e3e
00000090: aa04 06bd cad0 c43e 48ff 3b3e 0c2a ac3e
000000a0: bc11 813e dc22 c63e 1643 4f3e 6d84 0d3f
000000b0: 477f ac3e 6ce7 a43e 8ea6 a43e b496 8f3e
000000c0: e1bc dc3e 3375 733d f4b2 a13e 8be2 703e
000000d0: aae7 2c3e 2057 313e 2397 2f3e 5b64 b73e
000000e0: 54fc d63e 18d8 923e a384 563e 3a55 bf3d
000000f0: 3257 623e 88fa 033f c7dc 093e 045b d0bd
00000100: 28cf 2d3c 2bb3 61bd 51bf 0bbe ace5 45be
00000110: e4db 273e 88d2 a6bd 742c 9e3d 6ae9 ce3d
00000120: 47fe 22be 2dcb 21bd 56f6 d3bb 4da0 52be
00000130: 1085 26be 8cbe 3cbe 16e2 03bd 2544 523e
00000140: cd0b 3a3c cf81 2abe fa4b 953d 897b 27be
00000150: 3f9e 05bf 3cb4 a33e 7fcc 13be 53ce 24bb
00000160: b51d 633e eb26 6bbe cd0f 4bbd 3c77 d4bd
00000170: 65fc 8ebe 442c af3e 332d 63be 4ad8 24be
00000180: c97c aa3e 397a aa3e f9e5 203e f372 c13e
00000190: 03bb 7a3e 4fb3 393d fd5c 213e 5373 fc3d
000001a0: edf8 343f 6db4 9f3e 7324 31be c988 343e
000001b0: 6268 053e 30ef 313c 332e a1be 5e18 043e
000001c0: ad1b e93d 2bf2 043f fd5e 823e ab26 a93d
000001d0: 8b27 d23c c592 a4be ca63 cdbb 3a7c 033c
000001e0: da60 64bd 7eff 803e a331 053e d3cb 3e3d
000001f0: e176 a73d 8673 6cbe d144 d1bd 17d4 243e
0.70015675 0.36369345 0.37768227 0.07969347 0.23722744 0.45091572 0.42666414 0.40558332
0.36011356 0.44506678 0.15722859 0.013209106 -0.02811156 0.82496554 0.1576007 0.12782407
0.5541619 0.5035603 0.67236906 0.008955274 0.16573468 0.180029 0.44287017 0.30796263
0.25499648 0.35205457 0.47058484 0.27777556 0.6726118 0.40606 -0.17314602 0.25192145
0.29055417 -0.25351152 0.30900872 0.18624999 -0.03271929 0.38440543 0.18359101 0.3362583
0.25208843 0.3869847 0.20240435 0.5528019 0.33690855 0.3220781 0.3215832 0.28044665
0.43112853 0.05943794 0.31581843 0.2352392 0.16885248 0.17318392 0.17147498 0.35818753
0.41989386 0.2868049 0.20949034 0.093424276 0.22103575 0.51554155 0.13463126 -0.1017361
0.010608472 -0.05510251 -0.136472 -0.19325894 0.16392475 -0.081456244 0.077233225 0.10103114
-0.15917312 -0.039500404 -0.0064685745 -0.20568962 -0.16261697 -0.18432063 -0.032198034 0.20533808
0.011355353 -0.1665108 0.07289882 -0.16355719 -0.5219459 0.31973445 -0.14433478 -0.0025147393
0.22179301 -0.22964065 -0.049575616 -0.10374305 -0.27926937 0.3421346 -0.22185211 -0.16098133
0.3329833 0.33296373 0.15712728 0.37783012 0.24485402 0.045337018 0.15758128 0.12326684
0.7069233 0.3119234 -0.1729906 0.17630304 0.130281 0.010860249 -0.3148056 0.1289992
0.11382232 0.5193202 0.25463095 0.082593285 0.025653621 -0.32143226 -0.0062679993 0.008025223
-0.055756427 0.25194925 0.13007216 0.0465811 0.08176971 -0.23090944 -0.10218204 0.16096531

encoder.lstm.bias_hh_l0 f4 [128]
00000000: 8ef0 ef3e 61c7 b23e 72be 043e 2663 733e
00000010: 00d5 913e 5c35 613e b51b 9e3e 1ada 993e
00000020: e0fe 103e 65ad eb3e 74cc 313e d607 4e3e
00000030: 87a1 ebbb 4f8a 6d3f 365a e5bc 1476 a13e
00000040: a48c a53e 59bb 103f 5752 de3e 7d7a b3bd
00000050: 6648 f13c f7b5 923e 9199 d23e e62c 063e
00000060: f17e 853e 7e94 083f 673f ab3e bb14 c23d
00000070: 5bcd e53e 9ac7 0a3f bb1d debd 0756 9f3e
00000080: 77d2 323e 33f7 95be 48da 8e3c c566 2a3e
00000090: 9204 1c3e b7f3 cb3e 74c9 d43d 1648 043f
000000a0: 66a9 693e 4489 043f bc17 443e 1d42 d73e
000000b0: ef14 933e 9efa 0b3f 26ad 953e dd62 953e
000000c0: 82e7 bb3e b567 a23d 7f37 2b3e 97ca 60bc
000000d0: 4b79 1a3e 4b25 6d3e 6440 cbbc 9e86 a73e
000000e0: 0ef3 c83e 4518 ca3e c8f2 9b3e 9028 b93e
000000f0: 7431 a63e 4745 bd3e 995b a63e 459f f43d
00000100: 3303 203e dfd9 8ebe dbc0 8ebe 21c9 31be
00000110: 021c 763d 997e 10be 57b8 2c3e e3de 5b3d
00000120: 57fa 0fbd e7f8 1cbe 31a2 37be de89 2ebe
00000130: 8a74 813d 3fe5 a3bd 7230 933b 297a 65bd
00000140: 2f08 553e 46aa 39be efea 80bc f581 f0bd
00000150: 2bb5 06bf f1eb d43d b237 86be aafb 21be
00000160: 553c 3c3e c6f5 36be 73f7 85be 58b8 30be
00000170: b4b2 88be 4661 993e aeb2 98be 0550 75be
00000180: 4915 c53e a1d8 963e 6a55 2d3e 5e2e 783e
00000190: fba9 a83e 58d8 19bd 9a6f e53d e544 2ebe
000001a0: f736 143f 5812 bd3e f48a e5bd 471f 8b3d
000001b0: 53d4 d83c 6b5d 263e b743 21be 3d24 a3bc
000001c0: dc86 28bd 1a0a 3e3f 5697 6c3d f9e2 6f3e
000001d0: af21 82bd ac05 77be 2752 98bc 63f4 643e
000001e0: 35be ebbd 7a3a 513d c9ac be3b aab1 243e
000001f0: b9dd 093e 3f2e 43be ecce 153e 1df8 913e
0.46863216 0.3491774 0.12963274 0.23768291 0.2848282 0.21993011 0.30880514 0.3004921
0.14159727 0.46030727 0.17363149 0.20120177 -0.0071908864 0.9278917 -0.027997117 0.315354
0.32333863 0.5653587 0.43422195 -0.08763597 0.029453468 0.28654453 0.41132787 0.13103065
0.2607341 0.5335158 0.3344681 0.0947661 0.44883236 0.5421082 -0.108455144 0.3112032
0.17463098 -0.2929016 0.017438069 0.16640766 0.15236118 0.39834377 0.10389987 0.51672494
0.22818527 0.5177195 0.19149679 0.42042628 0.2872691 0.54679286 0.29233664 0.2917699
0.36700064 0.07929937 0.16720389 -0.013720176 0.15085332 0.23158757 -0.024810977 0.32719892
0.39247936 0.3947164 0.30458665 0.3616376 0.32459605 0.36966917 0.32491758 0.11944441
0.1562622 -0.27900597 -0.27881512 -0.17361881 0.060085304 -0.14110793 0.16867195 0.05367936
-0.035150852 -0.15329324 -0.17932965 -0.1704478 0.06321056 -0.080027096 0.004491859 -0.056024704
0.20803903 -0.1813136 -0.015737025 -0.11743537 -0.5262019 0.10396565 -0.26214367 -0.15818658
0.1838239 -0.17867193 -0.2616535 -0.17257822 -0.2669884 0.29957026 -0.29823822 -0.23956306
0.38492802 0.2946215 0.16927114 0.24236438 0.32942185 -0.037559837 0.11202927 -0.17018469
0.5789637 0.36928058 -0.11208144 0.06793075 0.026468432 0.16246574 -0.15748487 -0.01991474
-0.041144237 0.74234164 0.057761513 0.23426427 -0.06354081 -0.24123257 -0.01859386 0.22358851
-0.115108885 0.05108116 0.0058189374 0.16083398 0.13463487 -0.1906061 0.14629716 0.28509608

policy.net.0.weight f4 [128, 32]
00000000: 479f 89be baec a0bd ca0b 813d f15e 37be
00000010: 73af 013e c345 753d 0a97 5b3e 862b 913e
00000020: b737 c73e 8556 bdbd d4e0 31be 1def c0be
00000030: c2fb aabe 8414 f73c 6221 0dbe 51f3 06bd
00000040: 6ceb 3bbe f809 85be 5874 b6be 10f7 573e
00000050: 9244 6a3e d0bc 353d cede b9bd 2a22 9dbd
00000060: 68e5 a3bb 7c6d 953e dcd0 1abe 656d 8abe
00000070: 560c 533d 4b2a 8bbd bd03 91be f899 03be
00000080: be07 133d d40e 96bc 31b8 71bc 0267 363e
00000090: 7687 393e 8ca7 1f3e 0098 83be 4174 5f3e
000000a0: ea4a af3e 71a9 c33d 06d9 61be d7f7 8dbe
000000b0: 08ba 0cbe 307d 8ebd fe34 12be 09e4 65be
000000c0: d957 45bd d588 e5bd d6ae a43b 8e02 4c3d
000000d0: dc26 87be 0bd7 a5bc 470e 09bd 06bb 193e
000000e0: bf90 0d3e 9fad e83d ebd0 a73e b43e 6b3e
000000f0: 53ed 4f3d 53ff 1dbd ba49 1f3e 4d96 3cbe
00000100: 1078 68be 8dd7 79be c22c 5dbc a3f6 a93d
00000110: 7ee3 383d 048a f4bd c3e9 a4bd 1b2e a73e
00000120: 1da9 263f 4766 133d 2426 98be 75d2 43bd
00000130: ec3e dabe eae6 853d 6e9c 47be 30fa 9b3d
00000140: 4efb eebd cf04 04be 09e5 1abe b42e a03e
00000150: 0ba1 50be 379c 09bc 8026 cfbc c10e f8bd
00000160: af76 e2bd b6f6 d13e a058 5a3d 7b08 4dbd
00000170: 7f3e 453e def6 38be 08cc 2e3d ea23 70be
00000180: 32ef 183f dedf d0be 881f bebe 07ec d83e
00000190: 3555 7f3e 5e57 ccbe cb3d 2fbf 8028 fc3d
000001a0: bced 1d3f 01d9 9abe 56dd 3f3c eb0f 0dbf
000001b0: a489 3dbf 0056 d9be e12e 233e 1d78 d3be
000001c0: 28fd f9bd 6772 cf3e fee9 b6bd 51e5 aa3d
000001d0: f5a1 0bbf 82ff 0abe 48bd 7c3e 9599 ffbe
000001e0: 3c5f 6ebe 7a05 383d 5820 6d3e 9520 1b3f
000001f0: efe8 8d3e 29e7 0bbe eebb fe3e 18e0 08bf
00000200: ace6 f63c eb00 b63e c0d1 abbd d5d7 97be
00000210: d13a aebd a3e9 c13e b685 f1be 5fe2 63be
00000220: c330 d6be 7cb0 27be 4b40 b43e cdcd 2cbf
00000230: ae2c 67bf a903 13bb 93d8 cabd 1cd9 aabe
00000240: a0dd d6be 5f03 2ebf a197 2abd 88c2 6dbe
00000250: 4da7 c1be 5dec 26bf 0575 37bd 9bda e53c
00000260: 185e e8be c9e8 663e 2512 0c3f 38f2 d4bd
00000270: 7625 f93d 7b52 04bf 2b8e 803e f569 02be
00000280: 0160 88bd 828f e9be 6521 92be 35a9 8a3e
00000290: e178 d63d 8783 fbbe e050 023f d087 34be
000002a0: 9f26 54be b137 753e 1901 53be 016e b9bd
000002b0: b1b4 6e3e f36a 14bf 2fe4 b8bb 5bbb 4ebe
000002c0: b098 943d 860e ac3e e219 adbd 9214 15bd
000002d0: ecec a3bd 756a 22be 855c 15be 4d68 c2be
000002e0: b4c9 03bf ab72 1c3e c944 45be 8234 c03e
000002f0: 66e3 ed3d 5bf4 cc3d 644a 3bbe 505b 0f3f
00000300: 5254 b4ba 73a2 863e 1c20 0b3f eea5 14bf
00000310: 2487 1b3f a63e 0c3e 0709 073e 2b8d 95be
00000320: 3a83 d7bd dbf4 7cbd 55fc c2bc 46f9 b13c
00000330: fa17 ccbe 1489 913d 5c58 ebbe 801e 2dbd
00000340: 1a91 70bd e9d3 b5be 6268 8bbe 64b1 19bf
00000350: c067 04be 85f5 85be cea8 993d f6bc ac3e
00000360: 5982 103d 4050 f23d c6e9 33bc bf50 9dbd
00000370: a1b9 213e 4275 b0be 5fae 19be 391b 25be
00000380: 3fea 193d 6e6a 923e 9f80 dd3e 1007 d1bd
00000390: eb2c 0b3e 1f7c 9e3e 18e0 55be 0a3f cebe
000003a0: 378b aabd 2e68 373e 11a3 a1bd 9e4c 8dbe
000003b0: c674 36be 05a0 9e3d d5a1 443e c3d5 c73c
000003c0: 3b7c 8abd 4329 b0bd 0fe2 3bbe 4f8c dabd
000003d0: 06b3 813d b97b 3bbb 30a0 c9be 92df 023d
000003e0: 8824 603e 3b4c 2c3e bcab 6cbe f8ee 8bbc
000003f0: f5fe f0bb f724 0d3e bc37 8bbe 3e00 1a3e
-0.2687933 -0.07857652 0.06301077 -0.17907311 0.12664585 0.059880983 0.21444336 0.28353518
0.38909695 -0.09245018 -0.17370921 -0.3768243 -0.333952 0.03016115 -0.13782266 -0.03294689
-0.18351525 -0.25984168 -0.35635638 0.2109034 0.2287772 0.04436952 -0.090757 -0.07672532
-0.0050017126 0.29185092 -0.15118736 -0.27036586 0.051525436 -0.06795176 -0.28323165 -0.12851703
0.035896055 -0.018317617 -0.014753387 0.17812732 0.1811808 0.15591258 -0.25701904 0.21821691
0.34236842 0.09553803 -0.22055444 -0.2772815 -0.1374284 -0.06957471 -0.14278027 -0.2245027
-0.04817948 -0.11207739 0.005025725 0.049807124 -0.26396835 -0.020244142 -0.03346088 0.1501275
0.13824748 0.113612406 0.3277658 0.22973138 0.05076344 -0.038573574 0.15555468 -0.1841671
-0.2270205 -0.24398632 -0.013499441 0.08298995 0.04513883 -0.11940387 -0.08052399 0.32652363
0.65101796 0.03598621 -0.297166 -0.04780813 -0.4262613 0.06538184 -0.19493267 0.07616079
-0.11669026 -0.1289246 -0.15126432 0.31285632 -0.20373933 -0.008399061 -0.025286913 -0.12112189
-0.11057793 0.41008538 0.053307176 -0.050056916 0.19262122 -0.18062922 0.042675048 -0.234512
0.59739983 -0.40795797 -0.3713343 0.42367575 0.24934848 -0.39910406 -0.68453664 0.12312412
0.6169088 -0.30243686 0.011710485 -0.55102414 -0.7403815 -0.42448425 0.15935852 -0.41302577
-0.12206489 0.4051697 -0.08931349 0.0834452 -0.54544 -0.13574031 0.2468158 -0.4992186
-0.23278517 0.044927098 0.2315687 0.6059659 0.27716777 -0.136624 0.49752754 -0.5346694
0.03013929 0.35547575 -0.08389616 -0.29656854 -0.08507312 0.37873563 -0.47172326 -0.22254322
-0.41834077 -0.16375917 0.35205302 -0.6750153 -0.9030255 -0.0022432602 -0.099045895 -0.33368766
-0.4196596 -0.67973894 -0.04164851 -0.23218739 -0.37822953 -0.6520441 -0.044789333 0.02805834
-0.45384288 0.22549738 0.54715186 -0.10397762 0.12165348 -0.51688355 0.25108466 -0.12735732
-0.06658936 -0.456173 -0.28541103 0.2708222 0.104722746 -0.49123785 0.50904655 -0.17629933
-0.20717858 0.23947026 -0.20605887 -0.09054185 0.23311116 -0.5797569 -0.005642436 -0.20188658
0.07255685 0.3360483 -0.084522024 -0.03639657 -0.08004174 -0.15860923 -0.14586075 -0.379702
-0.5147965 0.15278117 -0.1926452 0.3754006 0.116156384 0.100075446 -0.18290097 0.55998707
-0.001375804 0.26295814 0.5434587 -0.5806569 0.60753083 0.13695773 0.13187037 -0.29209265
-0.10523076 -0.06175695 -0.023801962 0.021725308 -0.39862043 0.07106224 -0.4596585 -0.042265415
-0.05873213 -0.35513237 -0.27228075 -0.600363 -0.12930202 -0.2616388 0.075029 0.33737916
0.03528056 0.11831713 -0.010981029 -0.07681417 0.15793468 -0.3446446 -0.15007924 -0.16123666
0.03757691 0.28596824 0.43262193 -0.10206425 0.13591354 0.30954072 -0.20886266 -0.4028247
-0.083273344 0.17910835 -0.078924306 -0.27597517 -0.17817983 0.07745365 0.19202359 0.024393922
-0.06761976 -0.0860162 -0.18347953 -0.10671293 0.06332974 -0.002860768 -0.39380026 0.031951495
0.21888936 0.16825955 -0.23112386 -0.017081723 -0.007354612 0.13783632 -0.2719096 0.15039155

policy.net.0.bias f4 [128]
00000000: 59ca eabd 8e1c 21be 1282 c0be 5b63 f63d
00000010: 60f5 2abe e415 ddbe 0eff dbbe e7ef b0be
00000020: e51f c1bd 56ee 0f3e 20a1 b9bd e3ab 94be
00000030: 4dfa a7be fa5b e83d 0a28 87be 9080 82be
00000040: c50d 913b 8164 fe3d 5fd4 c1be 4f58 e1bc
00000050: 69fb 743d 705d 79be e090 6e3d d8fb 9bbd
00000060: 8bac c7bd 91e7 e0be b600 84be ea77 bebc
00000070: d23e 6ebe 218b 68be 4428 aebe 78ee febe
00000080: daf7 9abe 0664 a4be a3ba 72be 6fff 093e
00000090: 4a59 b9be 206a 95be aa3e 823c 3e51 88be
000000a0: 328f 633c 74ae 29bd 917f a53d c8cb dcbe
000000b0: 99ed 3ebe 9806 3c3d 673e cabe c3c1 d8be
000000c0: c9e4 d53c 3e8c 113d 5cf6 a1be 1b7d bcbe
000000d0: 5760 843d e298 d4be 167b e6be d154 7ebe
000000e0: d8aa bdbd 0eca 2b3d 42fd 8cbe 07a9 c6be
000000f0: c1d7 64bd 3f2d 89be 6d56 063e 5faa 03be
00000100: 3e67 30be 1fd4 95bd d77e ecbd 8519 e03c
00000110: c0a6 5ebe 00d8 93be 3df5 0abf 3e18 54be
00000120: 58a7 703d cb49 37be ab0a c7bd d52f b6be
00000130: b182 d7bd abf8 2a3e da5b 1a3e 2d7f 2c3e
00000140: 803a 22bd 9293 c8be 0d6b 27be c370 023d
00000150: ac71 01be 7a50 c4be 6de9 a6be 3467 ac3c
00000160: 4877 143e 5e70 3bbd 2336 85bd 48ab 3c3e
00000170: af2c b8be 269f f33d eebd 81be bfa0 d9bd
00000180: 5911 b3be b9cb 80be 46cd b0be 67ae e6be
00000190: e4d2 693e 923f 32be 0ef0 2fbe 4c79 dd3d
000001a0: ad04 d83d 1fe0 f13d 9712 a7bd e1d9 a9be
000001b0: 0050 043e f056 80be 2f6e 77be 12bb bd3d
000001c0: e927 ff3d 5f81 efbd 913a a6be 340d 4d3e
000001d0: 55d7 0abe 34ad 4ebd 5d90 61be b9bb 3ebe
000001e0: 6a8e a7be 4ff1 92bd 9e08 1c3e a8ca 1dbe
000001f0: 5b1a 87be 4995 77bd 7598 c93c 980b 2ebe
-0.11464376 -0.15733549 -0.37599236 0.12030669 -0.16695166 -0.43180764 -0.4296803 -0.3455803
-0.094299115 0.14055762 -0.09063935 -0.2903739 -0.32808152 0.11345668 -0.26397735 -0.2548871
0.0044266903 0.12421513 -0.3785734 -0.02750793 0.059810076 -0.2435205 0.058243632 -0.07616395
-0.09749707 -0.4392667 -0.25781792 -0.023250539 -0.23266152 -0.22709323 -0.34015095 -0.49791312
-0.3026722 -0.32107562 -0.23704009 0.13476346 -0.36200935 -0.2918253 0.015899021 -0.26624483
0.013889121 -0.041426137 0.08080972 -0.43124223 -0.18645324 0.045904726 -0.39500734 -0.42335328
0.02611007 0.035534136 -0.3163327 -0.36814198 0.06463688 -0.4152289 -0.45015782 -0.24837042
-0.092611015 0.04194074 -0.2753697 -0.38800833 -0.05586982 -0.26792333 0.13118906 -0.1285796
-0.17226884 -0.073158495 -0.1154763 0.027355919 -0.21743298 -0.28875732 -0.54280454 -0.20712373
0.05875334 -0.17899244 -0.09718832 -0.35583368 -0.10522974 0.16696422 0.15074101 0.16845389
-0.03960657 -0.39175087 -0.1634943 0.03184582 -0.12641019 -0.3834265 -0.32599965 0.021045305
0.14498627 -0.04576146 -0.065044664 0.18424714 -0.3597159 0.118955895 -0.25340217 -0.10626363
-0.34974173 -0.25155428 -0.3453161 -0.45054933 0.22834355 -0.17407063 -0.17181417 0.10814151
0.10547767 0.11810326 -0.081578426 -0.3317404 0.12921143 -0.25066328 -0.24163125 0.092641965
0.12458784 -0.116945975 -0.32466558 0.20024568 -0.13558705 -0.050458148 -0.22027726 -0.18626298
-0.3272584 -0.07174932 0.15237662 -0.15409338 -0.26387295 -0.060445104 0.02460883 -0.1699661

policy.net.2.weight f4 [5, 128]
00000000: 952f 6bbf 7515 cdbe eb72 a9bf 93eb 0fbf
00000010: 105c 4dc0 2324 d5bf c232 e2bf acc6 b53c
00000020: 2696 94be a568 69bf e09a afbf d7ad 6ebf
00000030: 1415 aabe 7609 65bf 4855 00bf 1be1 5dbf
00000040: 9b6b a7bf b869 55bf 1679 44be f283 c3bf
00000050: 3c27 36c0 641b 04bf 3c43 d6be d717 3ec0
00000060: 020e b3bf a14a 98bf 0f6f acbe c693 92be
00000070: 38ac f7be 3611 afbe c643 05bf 8b59 a6be
00000080: 87f9 3cbf 0ed0 3bbe f116 02bf c66d 0bbf
00000090: 4e57 d0bf be55 23c0 66bb 5abf 508f 72bf
000000a0: c706 71bf 3153 63be 631b 81bf 49f8 9cbe
000000b0: 6c5d d3bf 531d 30bf bfb3 61be 0147 85be
000000c0: 0912 20bf 2a06 0bc0 43cb 65bf b14f debe
000000d0: dd90 6abf 5871 4bbf cb7b d1be 63e7 66bf
000000e0: 42af 5ac0 9897 b0bf fc65 36bf 69a6 0bc0
000000f0: 6794 04bf a51f f3be 5722 fbbe d5a6 82c0
00000100: ee6c 70c0 0cb9 38c0 e07c 8dbe 9e56 59c0
00000110: 184d eabf 4caf 55be 56b1 c1bf 21e6 44c0
00000120: 3781 aabf a31b a8be c1dc a0bf f043 8bbd
00000130: 4a82 1dbf 8105 debe 13cd 01bf b17f 8cbf
00000140: 2149 c8bf f7db 9fbe 9189 7dbe 0ada a5be
00000150: 5f12 d8be e823 20be 6a53 86bf a3a4 0fc0
00000160: 2e8f 1bc0 de9c 12bf b187 30bf 2de4 2abf
00000170: bae6 25bf ecb6 24c0 ce67 35bf 6070 b9be
00000180: 46ab 83be 8196 40bf da24 8cbf c69e 8dbe
00000190: 16fe 91bf 6bb9 23bf baff 17bf a9b5 a3bf
000001a0: 6a27 bebe c188 86bf f037 5bbf 2481 fbbe
000001b0: f9da 33c0 b732 0cbe 9419 02bf 33bc 65c0
000001c0: 79c5 24c0 0b6f 87bf 3927 85be 4f5f efbf
000001d0: 81a2 9cbf b27c b4bf 33cb afbf d107 b9be
000001e0: 2196 b8be 6c08 0abf eac4 53bf aa71 7cbe
000001f0: df53 a9be dcc1 c5be 0753 e0be 11a7 a7bf
00000200: 75b1 aabc 3d60 6abc af28 f9bb 4e2b ad3d
00000210: e2e3 80bf eec7 3c3f ea76 f9bd f017 cdbd
00000220: c23b 863d 4786 293e 7e35 b63d f406 f33c
00000230: 3d12 cebd d8ba a63d e0af ba3d 6565 983d
00000240: d7a2 333c 3322 1b3e ae38 b2be 80f0 b33d
00000250: 1bfa f73d 5445 5b3d a8c1 c03d 1909 4cbd
00000260: d795 453f 8228 2c3e 6ac0 b4bd 5f37 dbbe
00000270: ed79 8ebd f26a 2a3e adf1 103d 1ba7 8b3e
00000280: 8b73 763f 0cde eabd 5311 f1be b726 7a3d
00000290: 6716 a73d b52a 2abf b719 4a3d c472 b83c
000002a0: 0764 2abe ab58 93be cddf a6bd 74c2 3cbe
000002b0: 26c9 913c 5fae 8a3e 5882 0b3e e328 11be
000002c0: 5251 ed3d 113a d23e 689b 41bf 7bec 37bd
000002d0: c364 923d 733c f43d 5831 b1be b7c9 3abd
000002e0: 4348 233f 25d8 e4bd 6851 063d 9cc7 11bd
000002f0: ba8e 7b3c b9a2 54bc 5715 ce3d 1dad 593e
00000300: 8566 493e c639 c0bd c4e9 833b fb8f 52be
00000310: b24a 36be bfef 433d 91be dcbe 1e74 ce3d
00000320: 2c9d b5be 323c ef3d 818a e93d d641 fa3b
00000330: 0633 95bf 621e da3d de7f 37bf fcda 083d
00000340: d4b9 8e3c 27cf 493d 28da 123d f5fb 6d3d
00000350: 13a9 163e 987d 17bf 5e36 9abf 6007 88bf
00000360: 9b11 513d 8fb1 a63d cbb8 9c3d 7c30 013f
00000370: 3ff9 053e 32a2 073e bf6d 3bbf 936a d4bf
00000380: 7e53 b9ba db0b ab3d 78ef a13d b345 e1be
00000390: 98da a23d b286 9b3d 5a77 303d 6b87 663d
000003a0: 3c32 bf3c ded5 bcbd a7e9 ba3d c46b d9bf
000003b0: 537a 5cbe 4acd 84bf 0073 bd3d be53 303e
000003c0: 81e2 333e b740 c83e 4ade 183e 33c6 d5be
000003d0: 5505 893e 4e38 26be 46bf 6a3d bc4a e9b9
000003e0: 1e89 57be 5e76 423d 08d3 98bf 8118 5abf
000003f0: b679 5e3e 35e5 713d b070 d13d b643 5e3d
-0.9186948 -0.40055433 -1.3238195 -0.5621883 -3.208744 -1.6651653 -1.767174 0.02218946
-0.29020804 -0.911753 -1.3719139 -0.9323401 -0.33219206 -0.8946756 -0.5013013 -0.8667161
-1.3079714 -0.8336444 -0.19186816 -1.5274642 -2.8461447 -0.51604295 -0.4184817 -2.970205
-1.398865 -1.1897775 -0.3367848 -0.28628367 -0.4837358 -0.34192818 -0.5205654 -0.3249019
-0.7381825 -0.18341085 -0.50816256 -0.54464376 -1.6276643 -2.5521083 -0.854422 -0.9474993
-0.94150966 -0.22199704 -1.0086483 -0.30658177 -1.6512885 -0.68794745 -0.22041224 -0.26030734
-0.6252752 -2.1722512 -0.8976328 -0.43420175 -0.91627294 -0.79469824 -0.4091476 -0.9019682
-3.416947 -1.3796263 -0.71249366 -2.1820319 -0.51788944 -0.4748508 -0.49049637 -4.082865
-3.7566485 -2.8862944 -0.27634335 -3.3959117 -1.8304777 -0.20867652 -1.5132244 -3.076546
-1.3320683 -0.32833585 -1.2567369 -0.068000674 -0.6152693 -0.43363574 -0.50703543 -1.0976468
-1.5647317 -0.31222507 -0.24759509 -0.32392913 -0.42201516 -0.15638697 -1.0494206 -2.2444236
-2.430614 -0.5727061 -0.6895705 -0.6675442 -0.64805186 -2.5736647 -0.7086152 -0.36218548
-0.2571661 -0.7522965 -1.0948746 -0.27660197 -1.1405666 -0.639548 -0.5937458 -1.2789813
-0.37139446 -1.0510484 -0.8563223 -0.49121964 -2.81024 -0.13691221 -0.5082028 -3.5896118
-2.5745528 -1.0580763 -0.26006487 -1.8700961 -1.2237092 -1.4100554 -1.3733886 -0.36138776
-0.3605204 -0.539191 -0.8272234 -0.24652734 -0.330718 -0.38624465 -0.43813345 -1.309786
-0.020836571 -0.014305172 -0.007603727 0.08455525 -1.0069544 0.7374257 -0.12180884 -0.10014331
0.06554367 0.16555129 0.088969216 0.029666401 -0.100620724 0.08141106 0.09115577 0.074412145
0.010964117 0.15149765 -0.34808868 0.08786106 0.12108251 0.053532913 0.09411937 -0.049813364
0.7718176 0.16812328 -0.088257626 -0.42815682 -0.06956849 0.16642359 0.03538673 0.2727593
0.96270055 -0.11468133 -0.4708353 0.061072078 0.0815857 -0.66471416 0.04934093 0.022515662
-0.1663972 -0.28778586 -0.08148155 -0.18433553 0.01779611 0.2708616 0.13623941 -0.14175753
0.11587776 0.41059926 -0.75627756 -0.04490326 0.07148125 0.11925592 -0.3460796 -0.045602527
0.6378214 -0.11174039 0.03279248 -0.035590753 0.015353853 -0.012978249 0.10062664 0.21257444
0.19668014 -0.093860194 0.00402567 -0.20562737 -0.17801932 0.04783606 -0.4311414 0.10080741
-0.35471475 0.11681403 0.11403371 0.007637243 -1.1656196 0.10650326 -0.71679485 0.033411965
0.017422594 0.04926982 0.03585258 0.058101613 0.14712934 -0.59176016 -1.2047842 -1.0627251
0.05104218 0.08139335 0.07652434 0.50464606 0.13083361 0.13245466 -0.73214334 -1.6595024
-0.0014139262 0.083518706 0.07907003 -0.4399849 0.0795185 0.075940505 0.043082573 0.05628149
0.023339383 -0.092204794 0.09126597 -1.6986012 -0.21531038 -1.0375149 0.0925045 0.17219445
0.17566873 0.39111874 0.14928547 -0.41752777 0.2676188 -0.16232416 0.05731132 -0.00044496905
-0.210484 0.047476165 -1.1939402 -0.8519364 0.21726117 0.05905648 0.102265716 0.054263793

policy.net.2.bias f4 [5]
00000000: 4cdf 70c0 a98e c5bd 4760 f53d fc4d 6ebd
00000010: 14f1 4a3e
-3.763629 -0.09646351 0.11981254 -0.05817984 0.19818527

exp_avg f4 [900, 16]
00000000: a033 f537 c55a 6235 4da4 c2b6 f3d5 deb6
00000010: c2bd 0138 51ab 08b8 4158 efb6 0e1a 27b7
00000020: ad03 0db6 7bbb 8f37 3060 5eb7 e3ec 17b5
00000030: 1509 2638 3a42 57b7 6c9a 39b6 f86b 4137
00000040: c910 81b6 f04b 0d38 e3a7 98b6 1f94 b7b4
00000050: 42b9 4d38 59ae 51b7 d4dc 4d37 38f4 96b7
00000060: fd17 29b7 663e 9137 9586 de37 76b2 3637
00000070: 4936 a834 7025 98b7 268e 0fb7 7c1e 00b8
00000080: 6b82 1337 ea04 b237 ff68 2437 bd30 4237
00000090: f2d3 b237 3c48 aeb7 99e1 2ab7 0ab5 99b7
000000a0: 0e2f 21b7 474a 0f38 3793 f437 8504 2b34
000000b0: a21e 8e36 d465 20b5 6d51 1a35 c279 b1b7
000000c0: 0215 41b6 06fc 63b6 75cf 5fb7 06d4 8136
000000d0: 1116 8337 0b31 a035 2c17 e736 994a 98b7
000000e0: dabe 42b7 783f 3637 aab2 9737 8428 cab5
000000f0: b44a 8037 6ca0 1ab7 193d 3d35 083c cdb7
00000100: e9a9 8236 91e6 ac38 9b42 0f39 0df0 19b8
00000110: 29ff a9b7 e74b a0b8 b30e 8637 05b9 7d38
00000120: 79b3 36b8 36e0 f3b8 343f 3cb8 e34e 9a37
00000130: 4e63 e4b7 4c5d b938 787d fb37 7b9b ab36
00000140: 0000 0000 0000 0000 0000 0000 0000 0000
00000150: 0000 0000 0000 0000 0000 0000 0000 0000
00000160: 0000 0000 0000 0000 0000 0000 0000 0000
00000170: 0000 0000 0000 0000 0000 0000 0000 0000
00000180: 0000 0000 0000 0000 0000 0000 0000 0000
00000190: 0000 0000 0000 0000 0000 0000 0000 0000
000001a0: 0000 0000 0000 0000 0000 0000 0000 0000
000001b0: 0000 0000 0000 0000 0000 0000 0000 0000
000001c0: 0000 0000 0000 0000 0000 0000 0000 0000
000001d0: 0000 0000 0000 0000 0000 0000 0000 0000
000001e0: 0000 0000 0000 0000 0000 0000 0000 0000
000001f0: 0000 0000 0000 0000 0000 0000 0000 0000
00000200: 0000 0000 0000 0000 0000 0000 0000 0000
00000210: 0000 0000 0000 0000 0000 0000 0000 0000
00000220: 0000 0000 0000 0000 0000 0000 0000 0000
00000230: 0000 0000 0000 0000 0000 0000 0000 0000
00000240: 0000 0000 0000 0000 0000 0000 0000 0000
00000250: 0000 0000 0000 0000 0000 0000 0000 0000
00000260: 0000 0000 0000 0000 0000 0000 0000 0000
00000270: 0000 0000 0000 0000 0000 0000 0000 0000
00000280: 0000 0000 0000 0000 0000 0000 0000 0000
00000290: 0000 0000 0000 0000 0000 0000 0000 0000
000002a0: 0000 0000 0000 0000 0000 0000 0000 0000
000002b0: 0000 0000 0000 0000 0000 0000 0000 0000
000002c0: 0000 0000 0000 0000 0000 0000 0000 0000
000002d0: 0000 0000 0000 0000 0000 0000 0000 0000
000002e0: 0000 0000 0000 0000 0000 0000 0000 0000
000002f0: 0000 0000 0000 0000 0000 0000 0000 0000
00000300: 8786 80b9 2c69 8a38 cc98 b837 a9c2 5db8
00000310: c31c f2b6 178a 9bb9 3edc 19b8 eb25 4f38
00000320: 786b 1237 7f5f 15b9 b003 29b9 ec8e 6438
00000330: 5ae5 2139 d325 3d37 f0ec 1338 de95 8537
00000340: 204b 35b7 d8d4 8fb7 55c3 9336 8eb1 1537
00000350: 9858 08b7 c0c6 c8b6 1421 2437 eb16 48b7
00000360: a9ec b537 ed7e 34b5 d40c fd33 d330 1fb7
00000370: f9d9 cbb7 f3ed 8fb6 03b9 1937 bd24 8eb6
00000380: dce5 a8b7 6242 1038 bfa1 eab6 034b 0137
00000390: a238 a9b7 7a6e 4538 0aaf 3b36 d41f abb6
000003a0: 0c1e dd37 2f84 a6b8 bc9b 2d38 2722 df37
000003b0: 5de0 2c37 9553 47b6 d0e2 c1b7 6811 88b7
000003c0: f42a 76b8 fb79 8637 645a 0237 4ddd 5937
000003d0: 0b8f b138 7b31 17b7 54f3 9038 1228 de37
000003e0: 38b1 9038 ce78 6638 a1d1 8038 278e e038
000003f0: ad3f 8ab8 6522 ca36 ceef 29b5 22bd a1b7
2.9230316e-05 8.432365e-07 -5.8007777e-06 -6.6410225e-06 3.0932722e-05 -3.2584478e-05 -7.133029e-06 -9.960042e-06
-2.1012777e-06 1.713423e-05 -1.32546265e-05 -5.65966e-07 3.9585942e-05 -1.2830418e-05 -2.7657034e-06 1.1528835e-05
-3.8464536e-06 3.3687742e-05 -4.5494976e-06 -3.4194179e-07 4.9048343e-05 -1.2497964e-05 1.2270368e-05 -1.7995117e-05
-1.007877e-05 1.7314404e-05 2.6527132e-05 1.08895965e-05 3.1331936e-07 -1.8137245e-05 -8.556561e-06 -3.054597e-05
8.792248e-06 2.1221542e-05 9.799608e-06 1.1574649e-05 2.1317948e-05 -2.0776053e-05 -1.0185316e-05 -1.8323324e-05
-9.607304e-06 3.4163033e-05 2.9155619e-05 1.592726e-07 4.235496e-06 -5.9752824e-07 5.748796e-07 -2.1156742e-05
-2.877147e-06 -3.3972333e-06 -1.3340138e-05 3.8691824e-06 1.5626692e-05 1.1935202e-06 6.887034e-06 -1.815455e-05
-1.1607737e-05 1.0862823e-05 1.80838e-05 -1.5061964e-06 1.5293575e-05 -9.216466e-06 7.0496895e-07 -2.4465859e-05
3.894082e-06 8.2445455e-05 0.00013662355 -3.6701607e-05 -2.0265188e-05 -7.6435324e-05 1.598089e-05 6.0492213e-05
-4.355933e-05 -0.000116289055 -4.4881555e-05 1.8394965e-05 -2.722596e-05 8.838865e-05 2.9979958e-05 5.1142974e-06
0.0 0.0 0.0 0.0 0.0 0.0 0.0 0.0
0.0 0.0 0.0 0.0 0.0 0.0 0.0 0.0
0.0 0.0 0.0 0.0 0.0 0.0 0.0 0.0
0.0 0.0 0.0 0.0 0.0 0.0 0.0 0.0
0.0 0.0 0.0 0.0 0.0 0.0 0.0 0.0
0.0 0.0 0.0 0.0 0.0 0.0 0.0 0.0
0.0 0.0 0.0 0.0 0.0 0.0 0.0 0.0
0.0 0.0 0.0 0.0 0.0 0.0 0.0 0.0
0.0 0.0 0.0 0.0 0.0 0.0 0.0 0.0
0.0 0.0 0.0 0.0 0.0 0.0 0.0 0.0
0.0 0.0 0.0 0.0 0.0 0.0 0.0 0.0
0.0 0.0 0.0 0.0 0.0 0.0 0.0 0.0
0.0 0.0 0.0 0.0 0.0 0.0 0.0 0.0
0.0 0.0 0.0 0.0 0.0 0.0 0.0 0.0
-0.00024514293 6.5999426e-05 2.200566e-05 -5.2871797e-05 -7.2155103e-06 -0.0002966679 -3.668316e-05 4.938796e-05
8.7273e-06 -0.00014245322 -0.0001611847 5.4492542e-05 0.00015439597 1.12740845e-05 3.5268196e-05 1.5924623e-05
-1.0805932e-05 -1.7146042e-05 4.403681e-06 8.922432e-06 -8.126859e-06 -5.983602e-06 9.782863e-06 -1.1926265e-05
2.1687085e-05 -6.7239927e-07 1.1783564e-07 -9.488506e-06 -2.4300987e-05 -4.289433e-06 9.162587e-06 -4.2362067e-06
-2.0134197e-05 3.43941e-05 -6.992573e-06 7.706464e-06 -2.0172742e-05 4.707135e-05 2.7967058e-06 -5.0999024e-06
2.6359245e-05 -7.940118e-05 4.1391453e-05 2.6599575e-05 1.0304238e-05 -2.9701962e-06 -2.311301e-05 -1.6220569e-05
-5.8690974e-05 1.6030846e-05 7.7696495e-06 1.29857335e-05 8.4666615e-05 -9.011822e-06 6.9117785e-05 2.6483121e-05
6.899465e-05 5.494878e-05 6.142562e-05 0.0001070763 -6.592213e-05 6.024073e-06 -6.330637e-07 -1.9280767e-05
