SGE_Transformer/model/2_room/eil_2_room_198_model/EBC_model_35999.pth (torch, 319288 bytes, 27 tensors)

encoder.embedding.weight f4 [900, 16]
0.13935307 -0.74665004 1.0197173 1.723778 0.61804044 0.9033177 -0.09629807 0.80849254
1.5702051 0.8568325 1.4797609 -0.8831853 1.595541 -0.8063448 -1.065347 0.63770384
-1.1040908 0.278356 0.5785773 -0.5527089 0.58024794 0.58637065 0.24782605 0.27929932
-0.9205982 -1.3872544 2.060566 -1.652131 0.79713756 -0.11712278 -0.5569599 -1.497111
0.755623 -0.024284633 -0.35254186 0.5367842 -0.05575627 0.2797614 -0.4746195 -2.017376
-0.49715814 1.0000187 -0.98552465 -0.07604466 -1.2926493 0.019331465 -3.4968452 -1.0057858
0.3784564 -0.90622294 -1.2337118 -0.6230479 0.92692864 1.6437138 -1.1341776 0.47420755
-1.3151842 0.108585335 0.6562725 -1.4797821 -0.999841 -0.6238519 -0.7260412 -2.429569
1.0716225 0.46472803 -1.4791663 2.327346 -0.89971656 -0.22709008 -1.3771377 0.2821286
-0.47582138 -0.2685795 0.03789464 -1.826879 -2.2882483 -0.18789443 -0.43739468 0.106066614
0.14950831 0.68173635 1.5676895 0.47556657 -1.0050126 -1.023286 0.5214422 -0.48220333
-0.7726252 2.7445233 -1.9759138 0.415895 1.5672935 -0.03982712 -0.9722075 -0.71206236
0.2399586 -1.199124 1.0634183 -0.6769421 -0.6633918 0.3362924 0.5184555 1.0378041
0.041475523 0.84185106 -0.13130704 -1.4924617 0.36357212 -0.51106703 -0.41850448 1.181892
-0.2659641 0.8041965 -0.307584 1.3537711 0.66702676 -0.23589839 -0.1712208 0.56163234
0.30705154 0.33780503 0.12988454 0.5764989 0.020306023 1.3983688 1.4169482 -0.0058822334
-0.8824504 -0.48821172 -1.3561088 -0.23345223 1.8297452 1.5896279 0.17809501 0.5119587
-0.5462637 -1.4434364 -1.923773 -1.1291713 1.0067925 -0.008793296 -0.804452 1.9658368
1.6479504 0.5699342 -0.012340214 -1.4708327 -0.046256755 -0.5328155 0.65974027 2.1868584
0.48783317 2.1796973 -1.4626534 -1.3909887 -0.43217906 -0.14899805 0.10180085 -0.17570433
0.32208213 1.2037162 0.0853502 -1.7608309 0.059560195 -1.3081975 0.23057866 0.9599387
0.14141941 0.86194164 -1.0958056 -1.1410904 -0.37610725 -0.2558852 -0.28377268 1.1223673
2.0637617 0.13099124 0.91126615 0.09883216 -0.666103 0.9322513 1.6354256 -1.1004666
0.7353627 2.0250545 -2.9137704 0.1907943 0.16965011 -0.70002025 -0.09773357 0.51418406
1.1462638 0.3721163 -1.3798302 2.0886936 0.7129047 -0.6243206 -1.0742263 -0.679561
1.4294354 1.1371425 1.4114904 -0.16495675 -0.8961987 -1.5391582 -1.8164773 -1.7627506
1.6982251 0.038293615 -0.9408882 0.5820997 0.31313556 -0.51317817 -0.17551067 -0.29217497
-0.0916502 -0.4926449 0.7485441 -0.70549256 1.1198558 1.1114112 0.621572 -0.86089724
-1.2797083 -1.533388 -0.74382913 -0.3582971 1.1283107 0.6284413 -1.7659107 -1.703498
1.1795651 0.77851105 0.12924282 -1.315446 -1.247331 -0.409662 -0.42811063 0.42563173
-0.16651578 -0.26428127 0.041160055 0.6272831 1.8726447 0.6019317 -0.35738534 -1.4237658
-0.12457643 -1.8301994 1.2610807 -0.22565864 0.97148347 0.14994064 2.3032491 -0.12363813
00000000: 92b2 0e3e 7524 3fbf 1986 823f c2a4 dc3f
00000010: e637 1e3f d43f 673f ec37 c5bd 5ef9 4e3f
00000020: 7bfc c83f 6059 5b3f ce68 bd3f 6f18 62bf
00000030: b03a cc3f 9d6c 4ebf 4a5d 88bf 8f40 233f
00000040: d952 8dbf ad84 8e3e a41d 143f 557e 0dbf
00000050: 218b 143f 631c 163f 1dc6 7d3e 5200 8f3e
00000060: 53ac 6bbf 8d91 b1bf 50e0 0340 0779 d3bf
00000070: 3511 4c3f 11de efbd ed94 0ebf 55a1 bfbf
00000080: 8270 413f 91f0 c6bc 5e80 b4be b06a 093f
00000090: b060 64bd e33c 8f3e 5401 f3be b01c 01c0
000000a0: 838b febe 9d00 803f 584b 7cbf 4dbd 9bbd
000000b0: 8875 a5bf 055d 9e3c 50cc 5fc0 97bd 80bf
000000c0: 0ac5 c13e 3afe 67bf 45ea 9dbf 1180 1fbf
000000d0: 324b 6d3f 3765 d23f bb2c 91bf 55cb f23e
000000e0: f557 a8bf fd61 de3d 7901 283f 8069 bdbf
000000f0: 94f5 7fbf c2b4 1fbf d6dd 39bf 0f7e 1bc0
00000100: ed2a 893f d5f0 ed3e 5255 bdbf 3df3 1440
00000110: d353 66bf 4d8a 68be 0c46 b0bf 2973 903e
00000120: dc9e f3be 4183 89be 6937 1b3d 2cd7 e9bf
00000130: a972 12c0 6667 40be 32f2 dfbe 7439 d93d
00000140: b518 193e 4686 2e3f 0daa c83f 767d f33e
00000150: 41a4 80bf 09fb 82bf 3c7d 053f 5be3 f6be
00000160: c4ca 45bf 45a6 2f40 beea fcbf 30f0 d43e
00000170: 139d c83f c321 23bd 97e2 78bf b849 36bf
00000180: b5b7 753e e57c 99bf 171e 883f 144c 2dbf
00000190: 0cd4 29bf 842e ac3e 80b9 043f c4d6 843f
000001a0: 3de2 293d 8d83 573f 5a75 06be fc08 bfbf
000001b0: 2026 ba3e 4ad5 02bf 3846 d6be 3d48 973f
000001c0: 722c 88be d2df 4d3f a67b 9dbe 5f48 ad3f
000001d0: 44c2 2a3f 598f 71be 8154 2fbe 23c7 0f3f
000001e0: dc35 9d3e c8f4 ac3e 7400 053e 6f95 133f
000001f0: d158 a63c c0fd b23f 8f5e b53f c0bf c0bb
00000200: 45e8 61bf e3f6 f9be f994 adbf 1a0e 6fbe
00000210: 1735 ea3f ed78 cb3f 8a5e 363e ba0f 033f
00000220: f0d7 0bbf 86c2 b8bf 323e f6bf af88 90bf
00000230: 94de 803f c211 10bc 91f0 4dbf 8aa0 fb3f
00000240: 0af0 d23f 35e7 113f 9c2e 4abc 3f44 bcbf
00000250: b977 3dbd 9966 08bf bde4 283f 7df5 0b40
00000260: 45c5 f93e 2980 0b40 3a38 bbbf eb0b b2bf
00000270: 9346 ddbe f292 18be f77c d03d d6eb 33be
00000280: f3e7 a43e 5f13 9a3f 16cc ae3d e862 e1bf
00000290: 64f5 733d 0473 a7bf d01c 6c3e 8bbe 753f
000002a0: 40d0 103e 35a8 5c3f 5c43 8cbf 400f 92bf
000002b0: 2191 c0be 6303 83be a74a 91be bba9 8f3f
000002c0: ac14 0440 9122 063e bd48 693f 8468 ca3d
000002d0: ba85 2abf 05a8 6e3f a055 d13f 17dc 8cbf
000002e0: bb40 3c3f 7e9a 0140 377b 3ac0 955f 433e
000002f0: c2b8 2d3e 8734 33bf 8a28 c8bd 91a1 033f
00000300: c6b8 923f 0786 be3e 479e b0bf 28ad 0540
00000310: ec80 363f 7ad3 1fbf 3f80 89bf b6f7 2dbf
00000320: bdf7 b63f e38d 913f b8ab b43f 6cea 28be
00000330: 476d 65bf 2303 c5bf 5482 e8bf d0a1 e1bf
00000340: 715f d93f c4d9 1c3d 0dde 70bf 7c04 153f
00000350: 4e53 a03e a55f 03bf 12b9 33be f597 95be
00000360: 1ab3 bbbd f43b fcbe 96a0 3f3f 299b 34bf
00000370: 6f57 8f3f b942 8e3f 581f 1f3f c363 5cbf
00000380: 7bcd a3bf 0f46 c4bf 966b 3ebf b872 b7be
00000390: 7c6c 903f 87e1 203f 5d09 e2bf 390c dabf
000003a0: fdfb 963f 804c 473f 3b58 043e 8960 a8bf
000003b0: 8ba8 9fbf 38bf d1be 5131 dbbe 67ec d93e
000003c0: 1d83 2abe e04f 87be 7297 283d a095 203f
000003d0: d2b2 ef3f 3218 1a3f 36fb b6be f53d b6bf
000003e0: ed21 ffbd f943 eabf 186b a13f 0f13 67be
000003f0: 24b3 783f 0a8a 193e 6f68 1340 fd35 fdbd

encoder.lstm.weight_ih_l0 f4 [128, 16]
-0.16707328 0.24061283 -0.3043691 -0.44369262 0.1259811 0.3037709 -0.06363852 0.14320447
-0.20945612 -0.29100204 -0.5629748 -0.07293375 0.30909795 0.0002886534 -0.09938313 0.27473018
0.077164225 0.41242704 -0.4647595 -0.02908392 0.017854586 -0.37848273 0.006894488 0.2580246
-0.27334377 -0.7704856 -0.51992303 -0.38522774 0.15878685 -0.7104017 -0.0075165937 0.03175353
-0.023583971 -0.17777213 -0.29570594 0.08791111 -0.22209574 0.08228334 0.17083073 0.1794443
0.05990267 -0.2727593 -0.3460751 0.12199814 -0.110208146 0.0242133 -0.24705127 0.35749248
-0.52638406 0.053258926 0.74066895 0.124616586 0.042303763 0.08340487 -0.044164933 -0.072624445
-0.18635115 0.14880183 0.004853871 -0.8102999 -0.36734167 0.09266026 0.1520449 0.031762056
-0.20632946 0.105727375 0.27438635 0.025370385 0.51390374 0.043150537 -0.08595455 -0.038344502
-0.3469567 -0.112643056 0.31727192 -0.11715031 -0.30916518 0.23098044 -0.08060206 -0.27467558
0.28476134 0.450588 0.13734242 0.16906947 0.01831319 -0.08360326 -0.07433403 -0.048503194
0.12223121 -0.5450699 -0.20183387 0.07013986 -0.016336698 0.46258524 -0.36556974 0.31277505
-0.3198874 0.0058512455 0.13855202 -0.15130025 0.38476837 0.066683665 0.44417736 0.14301485
0.10097338 0.52437556 -0.0010076661 0.32302126 0.14256056 -0.037441287 0.16452955 0.058162756
-0.44018814 -0.1010303 -0.18563263 -0.28372505 0.4391878 0.4887652 0.058459412 0.3799077
-0.43055436 -0.02227105 -0.810302 -0.13950829 -0.23773047 0.94253856 0.37078783 -0.3223454
0.117751665 -0.28920382 -0.18297492 0.4184796 0.11011552 -0.34035286 0.178832 0.45876855
0.069880836 0.32355458 0.12535669 0.10407204 0.2684456 0.48154306 -0.27180082 -0.05170874
0.19566134 0.23194423 -0.06995132 0.014432623 -0.41198272 -0.19829316 -0.0391168 0.35108432
-0.26498112 0.035416797 -0.6635742 -0.15030296 0.109141596 0.5543279 0.019987 0.28810018
0.2667094 0.030444615 0.0115565555 -0.14806491 0.059808604 0.2929612 -0.02214284 0.38060808
-0.32588157 -0.35721886 -0.23439592 -0.16599493 0.55012935 0.079731815 -0.006741133 0.10627021
0.09262294 0.37259102 -0.6997014 0.062574916 0.19234039 -0.26192313 0.020896224 0.37646934
-0.46835098 0.45913526 0.14186211 0.2381956 -0.08131744 -0.09398784 0.095594466 0.24411987
-0.014836261 0.46990535 -0.22708084 0.58153415 -0.14963359 0.1343702 -0.5806354 0.21603674
0.24905829 0.29004344 0.44747952 0.03832981 -0.026918884 0.36863062 0.4272266 0.22118379
-0.10075904 0.14839971 -0.053544253 -0.13967268 -0.17562656 -0.006676349 0.35444695 0.06475187
-0.102067485 -0.14605555 -0.11873584 0.37139705 -0.011575035 0.30505857 -0.18792486 0.28532413
0.12164594 -0.2316897 -0.3285416 0.3212128 0.08369557 0.21310149 0.1802039 -0.048420575
-0.1135052 -0.09513338 -0.11610422 -0.19166555 0.030627364 -0.31798455 -0.104607925 0.07942649
0.12684333 -0.1525287 -0.26587403 0.16349095 0.017859466 0.4706791 -0.39404175 -0.029234193
0.10741921 0.15272652 0.17643566 -0.31272918 -0.45903176 0.069023654 -0.0051369257 0.09804561
00000000: 4215 2bbe 3663 763e 44d6 9bbe ae2b e3be
00000010: 3101 013e dc87 9b3e ea54 82bd 31a4 123e
00000020: aa7b 56be 38fe 94be 1e1f 10bf 4a5e 95bd
00000030: 1642 9e3e 6756 9739 6289 cbbd 6fa9 8c3e
00000040: 4708 9e3d a329 d33e f5f4 edbe 6741 eebc
00000050: c843 923c 7dc8 c1be 28eb e13b cd1b 843e
00000060: b7f3 8bbe 8b3e 45bf ad19 05bf 923c c5be
00000070: 0599 223e e3dc 35bf c24d f6bb fd0f 023d
00000080: 2c33 c1bc e609 36be c566 97be bd0a b43d
00000090: 116d 63be 2b84 a83d 40ee 2e3e 3fc0 373e
000000a0: 815c 753d 1ba7 8bbe c130 b1be 29da f93d
000000b0: cfb4 e1bd f85a c63c 02fb 7cbe 4109 b73e
000000c0: 1bc1 06bf 0826 5a3d 7b9c 3d3f fb36 ff3d
000000d0: b646 2d3d 2cd0 aa3d 4ae6 34bd 20bc 94bd
000000e0: d6d2 3ebe 825f 183e 390d 9f3b d06f 4fbf
000000f0: 3514 bcbe aac4 bd3d a9b1 1b3e ee18 023d
00000100: 0848 53be 9887 d83d 5e7c 8c3e 8ed5 cf3c
00000110: 328f 033f 9ebe 303d f008 b0bd 200f 1dbd
00000120: 4fa4 b1be 67b1 e6bd 7771 a23e 80ec efbd
00000130: e64a 9ebe 2386 6c3e b112 a5bd 47a2 8cbe
00000140: 3dcc 913e 78b3 e63e 7ea3 0c3e 8c20 2d3e
00000150: 8b05 963c 3038 abbd 713c 98bd 49ab 46bd
00000160: 5b54 fa3d b389 0bbf 8aad 4ebe 7da5 8f3d
00000170: 8ad4 85bc f9d7 ec3e f52b bbbe 0d24 a03e
00000180: 48c8 a3be cebb bf3b 95e0 0d3e 74ee 1abe
00000190: 5c00 c53e 7291 883d 376b e33e 7c72 123e
000001a0: 22cb ce3d 7a3d 063f aa13 84ba 0b63 a53e
000001b0: 65fb 113e 095c 19bd 6f7a 283e 123c 6e3d
000001c0: 5760 e1be f9e8 cebd 7b16 3ebe 6944 91be
000001d0: 39dd e03e 6f3f fa3e 2373 6f3d 4383 c23e
000001e0: 9f71 dcbe c771 b6bc f46f 4fbf 43db 0ebe
000001f0: 9e6f 73be 354a 713f e7d7 bd3e 750a a5be
00000200: c927 f13d 8612 94be c75d 3bbe f542 d63e
00000210: 3f84 e13d bb42 aebe bc1f 373e b6e3 ea3e
00000220: af1d 8f3d f2a8 a53e 815d 003e b923 d53d
00000230: b471 893e d08c f63e 7a29 8bbe 8bcc 53bd
00000240: 725b 483e ca82 6d3e a342 8fbd cf76 6c3c
00000250: 66ef d2be 5d0d 4bbe f038 20bd 53c1 b33e
00000260: 9bab 87be 3411 113d 00e0 29bf 05e9 19be
00000270: a185 df3d 6fe8 0d3f c7bb a33c de81 933e
00000280: 228e 883e fc66 f93c b557 3d3c 549e 17be
00000290: def9 743d 03ff 953e e764 b5bc 10df c23e
000002a0: f3d9 a6be 64e5 b6be 7c05 70be 93fa 29be
000002b0: 47d5 0c3f 6f4a a33d b9e4 dcbb 32a4 d93d
000002c0: 19b1 bd3d 40c4 be3e a21f 33bf 4727 803d
000002d0: e1f4 443e ca1a 86be 8f2e ab3c 97c0 c03e
000002e0: b3cb efbe c713 eb3e 4d44 113e 8ce9 733e
000002f0: c289 a6bd b27c c0bd 08c7 c33d 8ffa 793e
00000300: ca13 73bc 6f97 f03e e187 68be 6cdf 143f
00000310: 8c39 19be 5798 093e 86a4 14bf bc38 5d3e
00000320: 2309 7f3e 9380 943e 091c e53e b8ff 1c3d
00000330: fe84 dcbc 27bd bc3e 72bd da3e 017e 623e
00000340: c15a cebd 18f6 173e 3851 5bbd 5b06 0fbe
00000350: 73d7 33be 46c5 dabb 127a b53e a19c 843d
00000360: c208 d1bd 968f 15be c72b f3bd c127 be3e
00000370: 37a5 3dbc a330 9c3e 606f 40be 0116 923e
00000380: 8221 f93d 1140 6dbe 9b36 a8be 0176 a43e
00000390: 9568 ab3d 4737 5a3e 5f87 383e a754 46bd
000003a0: 6a75 e8bd 4ad5 c2bd 0dc8 edbd f943 44be
000003b0: 3de6 fa3c dfce a2be ae3c d6bd 5baa a23d
000003c0: 38e3 013e 7c30 1cbe a420 88be 2c6a 273e
000003d0: 044e 923c dafc f03e d7bf c9be 8c7c efbc
000003e0: 9afe db3d 5764 1c3e 8dab 343e 0a1e a0be
000003f0: 3606 ebbe 465c 8d3d a853 a8bb 23cc c83d

encoder.lstm.weight_hh_l0 f4 [128, 32]
-0.7325532 -0.16215795 -0.32070306 0.1596099 0.76768655 -0.25883743 0.055178512 -0.4083953
-0.22361556 -0.23982419 -0.17608774 -0.1763861 0.49399883 -0.15300706 0.46484083 -0.21268466
0.21320145 0.0061120554 -0.42942774 -0.51161915 -0.17737693 0.28750437 -0.66261905 -0.39941865
0.25307554 -0.052462354 -0.038624685 -0.23030202 -0.40009412 0.18456306 -0.1262364 0.02861204
-0.06515 0.21387699 -0.5130645 0.004215807 0.39982322 -0.4599886 0.15885928 -0.072442465
-0.20572026 -0.078161076 -0.41583705 -0.021918368 -0.21286902 -0.07639426 0.7560164 -0.016666545
0.1503759 0.4591551 0.25559512 -0.16230054 -0.4724725 0.38402492 0.00030253245 0.2021711
0.49272174 -0.025935609 0.011896795 -0.30091345 -0.56836337 0.60482603 0.53733754 -0.121101394
0.41631752 0.1490921 -0.056952033 -0.22762111 0.8454546 -0.61555177 0.30433077 0.034175605
-0.37837127 -0.6219351 0.033713482 -0.92248315 0.030429913 -0.5920089 0.22846277 -0.21885635
0.1998879 -0.25589204 0.17934236 -0.3882721 -0.36754215 0.25533897 -0.15190452 0.0241238
0.38992742 -0.40877387 0.06031822 -0.5714706 -0.29731494 -0.07604213 -0.19241051 -0.47182038
-0.20086731 -0.22695784 -0.032672517 -0.28427577 -0.13154878 -0.7466585 -0.16061215 0.16561566
-0.023064615 0.24936265 0.099058636 -0.37604547 -0.077704065 -0.5280935 -0.06625325 0.30145267
0.31606263 -0.26227108 0.37553278 -0.08206055 -0.17295289 -0.07010335 -0.28530458 -0.0983703
-0.18277836 0.45559213 -0.5541968 0.021433499 -0.39006191 -0.0804592 0.14163631 0.2566196
-0.18411683 -0.14584112 -0.09810439 0.06511358 0.43671086 -0.63813007 0.010207112 0.42148674
-0.155186 0.08850375 -0.13806061 0.07217343 0.36559674 -0.018989226 0.6921583 0.16209818
0.256107 -0.2671188 0.023262743 -0.36514133 -0.3983175 0.31790134 -0.02076746 -0.0685712
0.30937058 0.09680092 -0.3746271 0.23820701 -0.5778032 0.67786974 -0.5408363 -0.34754944
0.306401 -0.2293567 -0.1707788 -0.32069165 -0.039508373 -0.28174707 0.44780535 0.70863104
-0.45581767 0.17642805 -0.46808875 -0.16005468 -0.19243008 -0.16619204 0.050143037 -0.21033525
0.35536724 -0.00015353847 0.20266502 -0.060515888 -0.009306067 0.34606054 0.23378004 -0.4199484
-0.16718012 -0.3596428 -0.23286615 -0.53691715 -0.16604409 0.39653423 -0.6435297 -0.1335723
0.18193065 0.4644165 -0.28408575 0.06278325 0.18864352 -0.4474825 0.05523138 0.55089897
-0.2245324 0.018732147 -0.29296783 -0.5196304 -0.14702731 -0.42018148 -0.35380223 0.11612678
-0.06086063 -0.052388437 -0.46867257 0.20849344 -0.36262614 0.5303482 -0.03902954 -0.30298772
0.9274796 -0.27224463 0.084887266 -0.22388919 -0.63541186 0.28010923 0.04124593 -0.17529322
0.13617906 -0.29187346 -0.68918544 -0.22406308 0.9074035 -0.3567385 -0.1625304 -0.050366383
-0.21655273 -0.23238824 -0.3408553 -0.01327031 0.1338352 -0.36193454 0.3256091 -0.10749986
0.19418058 0.17338637 -0.21949396 -0.1716701 0.08307184 0.11820047 -0.6366289 -0.52908295
-0.1757168 -0.6176718 -0.3132632 -0.9176991 -0.2691044 0.27622044 -0.028290734 -0.120566525
00000000: 9b88 3bbf bc0c 26be 3133 a4be c770 233e
00000010: 1b87 443f 5786 84be dd02 623d 3019 d1be
00000020: 7afb 64be 7994 75be 5850 34be 8f9e 34be
00000030: 6aed fc3e e2ad 1cbe 9eff ed3e 02ca 59be
00000040: 7b51 5a3e a347 c83b f4dd dbbe 79f9 02bf
00000050: 4ca2 35be c633 933e 67a1 29bf 9a80 ccbe
00000060: 1e93 813e c4e2 56bd eb34 1ebd 4bd4 6bbe
00000070: 23d9 ccbe 19fe 3c3e 1d44 01be cc63 ea3c
00000080: 5d6d 85bd 9202 5b3e 3258 03bf c124 8a3b
00000090: a1b5 cc3e a083 ebbe 02ac 223e b75c 94bd
000000a0: 55a8 52be ea12 a0bd 98e8 d4be 268e b3bc
000000b0: 56fa 59be 9874 9cbd 4a8a 413f 4788 88bc
000000c0: 24fc 193e 6116 eb3e 5ddd 823e 1d32 26be
000000d0: eae7 f1be ea9e c43e 389d 9e39 f105 4f3e
000000e0: 0646 fc3e ea76 d4bc c6ea 423c 5411 9abe
000000f0: 4380 11bf e1d5 1a3f f48e 093f 0204 f8bd
00000100: 9227 d53e 99ab 183e 8946 69bd 8215 69be
00000110: b66f 583f cd94 1dbf 3ed1 9b3e b8fb 0b3d
00000120: e1b9 c1be 2437 1fbf 2617 0a3d db27 6cbf
00000130: 2748 f93c e58d 17bf 25f2 693e e11b 60be
00000140: 6aaf 4c3e 4804 83be 86a5 373e 9acb c6be
00000150: 7c2e bcbe cabb 823e dc8c 1bbe 479f c53c
00000160: 91a4 c73e cf4a d1be 3d10 773d e64b 12bf
00000170: aa39 98be fabb 9bbd 4307 45be 7192 f1be
00000180: 29b0 4dbe a367 68be 9ed3 05bd 988c 91be
00000190: b9b4 06be 0325 3fbf 8377 24be 2797 293e
000001a0: 01f2 bcbc ec58 7f3e 41df ca3d 0889 c0be
000001b0: 4f23 9fbd 2331 07bf c9af 87bd 0158 9a3e
000001c0: f6d2 a13e 6548 86be d545 c03e 5d0f a8bd
000001d0: 901a 31be 5892 8fbd 7113 92be 5e76 c9bd
000001e0: 402a 3bbe 5f43 e93e d7df 0dbf 4e95 af3c
000001f0: 32b6 c7be cbc7 a4bd 1c09 113e a563 833e
00000200: 1f89 3cbe 6057 15be f4ea c8bd 455a 853d
00000210: 9198 df3e 7e5c 23bf bb3b 273c 1ccd d73e
00000220: 14e9 1ebe 7441 b53d c35f 0dbe aacf 933d
00000230: 7f2f bb3e 4b8f 9bbc 4931 313f 11fd 253e
00000240: 7520 833e ccc3 88be 8291 be3c cef3 babe
00000250: 45f0 cbbe f7c3 a23e 8520 aabc 0f6f 8cbd
00000260: d265 9e3e 903f c63d 20cf bfbe 8aec 733e
00000270: e9ea 13bf df88 2d3f 3f74 0abf 00f2 b1be
00000280: 98e0 9c3e 7cdc 6abe a3e0 2ebe b231 a4be
00000290: 88d3 21bd 2741 90be be46 e53e d868 353f
000002a0: ef60 e9be 8ea9 343e 54a9 efbe 60e5 23be
000002b0: 640c 45be 3f2e 2abe c962 4d3d 2062 57be
000002c0: b2f2 b53e 2bff 20b9 6b87 4f3e 82df 77bd
000002d0: 7978 18bc d92e b13e 0964 6f3e 7a03 d7be
000002e0: 4431 2bbe 1a23 b8be 7774 6ebe 6773 09bf
000002f0: 7607 2abe 8906 cb3e 5dbe 24bf 2dc7 08be
00000300: 074c 3a3e 00c8 ed3e b073 91be 8194 803d
00000310: c42b 413e 6d1c e5be 4d3a 623d b707 0d3f
00000320: d2eb 65be 2974 993c e1ff 95be 7f06 05bf
00000330: 548e 16be 0722 d7be 9125 b5be e1d3 ed3d
00000340: ff48 79bd 4295 56bd daf5 efbe 4e7f 553e
00000350: 22aa b9be e6c4 073f 70dd 1fbd 3521 9bbe
00000360: 4e6f 6d3f a663 8bbe 60d9 ad3d 3543 65be
00000370: 5aaa 22bf 7a6a 8f3e 7ef1 283d 1180 33be
00000380: 8672 0b3e 7070 95be 756e 30bf cb70 65be
00000390: 994b 683f 6ea6 b6be 5f6e 26be fb4c 4ebd
000003a0: 00c0 5dbe 2ff7 6dbe 9684 aebe b76b 59bc
000003b0: 180c 093e 7c4f b9be 3cb6 a63e e328 dcbd
000003c0: 46d7 463e 328c 313e 06c3 60be 49ca 2fbe
000003d0: 9221 aa3d 1713 f23d 1dfa 22bf fb71 07bf
000003e0: 1bef 33be bd1f 1ebf 0964 a0be 54ee 6abf
000003f0: 0dc8 89be c46c 8d3e f8c1 e7bc 95eb f6bd

encoder.lstm.bias_ih_l0 f4 [128]
0.5027834 0.25187984 0.416132 0.12848897 0.14376456 0.43567976 0.37575504 0.34060895
0.2346439 0.36301613 0.010373105 0.032799806 0.007204186 0.6081136 0.24845397 0.104172334
0.335888 0.41675943 0.4995189 -0.025011778 0.17479666 0.19308895 0.4157893 0.27362055
0.24347627 0.29444242 0.37669194 0.2302672 0.62453383 0.33839193 -0.03406362 0.16278644
0.2591849 -0.201671 0.2716774 0.08688484 4.7095156e-05 0.37141037 0.15015791 0.21018282
0.23992652 0.29230872 0.11006974 0.3811154 0.29690483 0.19870368 0.28913194 0.19894488
0.37035012 0.04856318 0.30149883 0.23412894 0.16188152 0.13852608 0.19297542 0.29424304
0.32257786 0.21234444 0.10572656 0.02043254 0.10256025 0.5085395 0.1327801 -0.05324528
-0.0026893297 -0.014677571 -0.09414028 -0.16123569 0.1721251 -0.093847334 0.082468964 0.10325387
-0.16610147 -0.0598488 -0.0009345268 -0.31138417 -0.18969764 -0.1785906 -0.02720793 0.16896474
0.07944961 -0.16410756 0.06677096 -0.08215961 -0.4756797 0.2314972 -0.1323005 0.0045782803
0.2156207 -0.14779434 -0.03292324 -0.042701375 -0.19749486 0.26361284 -0.20747136 -0.10745021
0.25126526 0.2976207 0.2532009 0.32504964 0.3248692 0.14921953 0.13300817 0.19081843
0.55545217 0.21886863 -0.053287692 0.16960508 0.16762714 0.12628293 -0.18296282 0.16658226
0.1960802 0.3109837 0.21991098 0.08869162 0.09583137 -0.08984668 0.19113722 -0.05081088
0.05212894 0.34721565 0.19654845 0.08821774 0.16160093 -0.094031125 -0.006673094 0.11093095
00000000: 6ab6 003f 65f6 803e 410f d53e 9d92 033e
00000010: 0437 133e 6b11 df3e f762 c03e 4c64 ae3e
00000020: 7e46 703e 40dd b93e f5f3 293c 1759 063d
00000030: 1811 ec3b 55ad 1b3f b86a 7e3e 4e58 d53d
00000040: 83f9 ab3e 7e61 d53e f1c0 ff3e 80e5 ccbc
00000050: e5fd 323e 1cb9 453e 56e2 d43e fe17 8c3e
00000060: d851 793e 28c1 963e c4dd c03e 2acb 6b3e
00000070: 73e1 1f3f b541 ad3e 4b86 0bbd 7db1 263e
00000080: e2b3 843e d882 4ebe 4d19 8b3e aef0 b13d
00000090: 0a88 4538 8029 be3e ffc2 193e 2a3a 573e
000000a0: 4caf 753e 7da9 953e 3e6c e13d 8f21 c33e
000000b0: e903 983e fa78 4b3e 1a09 943e 35b8 4b3e
000000c0: 889e bd3e 2fea 463d 0e5e 9a3e 7fbf 6f3e
000000d0: 45c4 253e c8d9 0d3e 599b 453e 06a7 963e
000000e0: ed28 a53e d270 593e 2b87 d83d 2462 a73c
000000f0: 1c0b d23d a52f 023f 82f7 073e b917 5abd
00000100: 773f 30bb 327a 70bc 9ecc c0bd f81a 25be
00000110: 9041 303e 0833 c0bd 7de5 a83d c476 d33d
00000120: 8116 2abe 0424 75bd 08fb 74ba bf6d 9fbe
00000130: 1940 42be 74e0 36be 2ae3 debc 1805 2d3e
00000140: 7ab6 a23d d00b 28be 37bf 883d 4c43 a8bd
00000150: 4a8c f3be 9a0d 6d3e c879 07be 6605 963b
00000160: accb 5c3e 6657 17be 85da 06bd a3e7 2ebd
00000170: 183c 4abe 43f8 863e 5f73 54be db0e dcbd
00000180: d7a5 803e be61 983e 8ca3 813e e86c a63e
00000190: 4155 a63e 01cd 183e 4b33 083e e865 433e
000001a0: 1d32 0e3f 191f 603e 3244 5abd f4ac 2d3e
000001b0: 73a6 2b3e 5050 013e 9b5a 3bbe 8a94 2a3e
000001c0: 3fc9 483e 4139 9f3e 5830 613e f4a3 b53d
000001d0: 3d43 c43d 8901 b8bd 7ab9 433e 121f 50bd
000001e0: 2885 553d 40c6 b13e ff43 493e 81ab b43d
000001f0: b77a 253e 6493 c0bd f8a9 dabb c42f e33d

encoder.lstm.bias_hh_l0 f4 [128]
0.2712548 0.23736408 0.16808109 0.28647935 0.19136451 0.20469481 0.25789604 0.23551877
0.016126737 0.37825662 0.026776435 0.22079265 0.028124878 0.7110397 0.06285534 0.29170248
0.105061136 0.47856054 0.2613767 -0.12160208 0.038515482 0.29960424 0.384247 0.096687905
0.2492137 0.47590077 0.24057582 0.047259804 0.40074992 0.47444105 0.030627284 0.22206526
0.14326419 -0.24106231 -0.019893095 0.06704215 0.18512774 0.3853487 0.07046997 0.39064834
0.21602364 0.4230452 0.09916217 0.24873443 0.24726482 0.42342275 0.25988534 0.2102685
0.30622223 0.06842439 0.15288052 -0.014831019 0.14388226 0.19692908 -0.0033118648 0.26325443
0.29516336 0.3202573 0.20082396 0.28864568 0.20611921 0.36266732 0.32306805 0.16793579
0.14296389 -0.2385785 -0.23648474 -0.14159544 0.0682848 -0.15349874 0.17390855 0.055901777
-0.04207969 -0.17364201 -0.17379652 -0.27614054 0.036129877 -0.07429615 0.009482202 -0.092398785
0.27613395 -0.17891036 -0.021864858 -0.0360377 -0.47993347 0.01572824 -0.25010827 -0.15109344
0.17765234 -0.0968251 -0.24500495 -0.111536525 -0.18521298 0.22104767 -0.28385416 -0.18603283
0.30320966 0.25927943 0.26534444 0.18958518 0.40943673 0.06632226 0.087455936 -0.10263388
0.42749363 0.27622426 0.0076221405 0.06123443 0.0638143 0.27788603 -0.025641343 0.017667634
0.04111227 0.53400344 0.023041457 0.24036103 0.006637499 -0.0096461335 0.1788107 0.16475372
-0.007223247 0.14634526 0.07229602 0.20247132 0.21446617 -0.05372649 0.24180779 0.23506346
00000000: e9e1 8a3e 920f 733e 731d 2c3e 6cad 923e
00000010: 0ff5 433e 849b 513e f30a 843e d52b 713e
00000020: 381c 843c daaa c13e 415a db3c 7817 623e
00000030: 2566 e63c b306 363f 4dba 803d 075a 953e
00000040: 4b2a d73d e305 f53e 2bd3 853e 830a f9bd
00000050: 69c2 1d3d ba65 993e 06bc c43e 4f04 c63d
00000060: e031 7f3e 44a9 f33e 8259 763e 7f93 413d
00000070: 182f cd3e f0e9 f23e 12e6 fa3c 1365 633e
00000080: d9b3 123e 0ad9 76be d8f6 a2bc 654d 893d
00000090: 2092 3d3e 6d4c c53e 8f52 903d 0f03 c83e
000000a0: 4d35 5d3e 6199 d83e 8915 cb3d 3db4 7e3e
000000b0: fd32 7d3e deca d83e b10f 853e a050 573e
000000c0: 29c9 9c3e 1622 8c3d b68c 1c3e cdfd 72bc
000000d0: df55 133e c7a7 493e df0b 59bb 49c9 863e
000000e0: a71f 973e c4f8 a33e cca4 4d3e 5ec9 933e
000000f0: ea10 533e 88af b93e 2d69 a53e 5cf7 2b3e
00000100: 2065 123e ec4d 74be 0e29 72be 65fe 10be
00000110: e7d8 8b3d c62e 1dbe 1515 323e 43f9 643d
00000120: c15b 2cbd 36cf 31be b7f7 31be 4b62 8dbe
00000130: ecfc 133d 9428 98bd 3d5b 1b3c 933b bdbd
00000140: 6e61 8d3e 4734 37be ee1d b3bc 449c 13bd
00000150: d7b9 f5be 83d8 803c 310e 80be 3db8 1abe
00000160: 7fea 353e 3d4c c6bd 94e2 7abe 436d e4bd
00000170: 79a8 3dbe 525a 623e 5555 91be 647f 3ebe
00000180: 4c3e 9b3e 46c0 843e 3adb 873e 9e22 423e
00000190: b1a1 d13e f7d3 873d 191c b33d b631 d2bd
000001a0: 72e0 da3e 446d 8d3e 26c3 f93b f4d0 7a3d
000001b0: 12b1 823d 1447 8e3e cb0d d2bc b7bb 903c
000001c0: 5765 283d 73b4 083f 70c1 bc3c 3421 763e
000001d0: 617f d93b d10a 1ebc 271a 373e 33b5 283e
000001e0: fdb0 ecbb 88db 153e f00f 943d a454 4f3e
000001f0: 059d 5b3e 4f10 5cbd 769c 773e 7ab4 703e

policy.net.0.weight f4 [128, 32]
-0.34134528 -0.0096810525 -0.12322337 -0.40109834 0.038662076 -0.12507665 -0.0017204611 0.37142482
0.49853167 -0.21936178 -0.16309415 -0.30522645 -0.30920845 0.070311874 -0.021746248 0.18245666
-0.02278458 -0.21196994 -0.3982607 0.20539398 0.110583805 0.06881533 -0.15012434 -0.088951744
0.22485816 0.23936266 -0.24682795 -0.3695066 -0.15694258 0.030676171 -0.24483618 -0.3152513
0.025187183 -0.005450473 -0.11841839 0.005238434 -0.08161734 -0.059476014 -0.37217668 0.39148915
0.44277164 -0.15037574 -0.16023596 -0.0069106636 -0.12614344 -0.09023343 -0.14480372 -0.029939722
0.106347196 -0.14396207 -0.049982894 0.08502445 -0.40786877 -0.0801785 0.052711744 0.039802987
0.18225163 0.09577596 0.2258888 0.089744985 -0.16183768 0.13630946 0.236901 -0.30312845
-0.19975787 -0.18557632 -0.078621574 -0.21873184 -0.0529746 -0.18641254 -0.15044446 0.40331808
0.6321705 -0.14061098 0.06398216 0.14750151 -0.36969638 -0.089969 -0.24720232 0.1601297
-0.052004267 -0.012011449 -0.17852603 0.42182356 -0.118844025 0.10164901 -0.08071734 -0.22261833
-0.082356595 0.25280306 -0.056819282 0.05056702 -0.08950964 -0.009629831 0.09158865 -0.37337846
0.42646927 -0.3576376 -0.11559159 0.2405324 0.22479881 0.008731177 -0.24257654 -0.22029479
0.30768648 -0.08463215 0.17007554 -0.2736486 -0.5589442 -0.09772849 0.25942966 -0.2002987
-0.38885003 0.07948623 -0.04020634 0.043417647 -0.15501608 -0.21213418 0.10008687 -0.401405
-0.07913557 -0.014726198 0.34544593 0.43241194 0.15548013 -0.08270118 0.18808351 -0.18845369
0.083065 0.33238694 -0.18328395 -0.24617891 -0.16779827 0.26476797 -0.16575341 -0.33109647
-0.29880384 -0.13728449 0.453533 -0.4639057 -0.8388559 -0.26993492 0.10956786 -0.25916645
-0.258407 -0.41490132 -0.0012145957 -0.10571342 -0.025447344 -0.7132643 0.005076596 0.026446447
-0.29142 -0.03749151 0.341094 -0.041254662 0.25223082 -0.617838 0.27165976 -0.103484534
0.039541155 -0.15883449 -0.21252511 0.24075544 0.2149738 -0.24578835 0.35794592 -0.18003847
-0.23239939 -0.005508859 -0.037598778 0.15356384 0.33798122 -0.10165764 -0.020236103 -0.15214711
0.04802106 0.14092638 -0.059166476 -0.014937183 0.07386755 -0.15523103 0.0544727 -0.18580005
-0.11997331 -0.113726445 -0.03982121 0.18895908 0.03745177 -0.13533781 -0.23338135 0.3939643
-0.053968437 0.13693374 0.4652233 -0.38653192 0.22376107 -0.087392434 0.03056914 -0.035063654
-0.23612672 -0.08438584 0.23901094 0.26371127 -0.30214033 0.0659795 -0.38830534 -0.15932308
-0.14457712 -0.18967117 -0.14715128 -0.46013275 -0.34058017 -0.53033775 0.19188908 0.3658254
-0.09301936 0.33089244 0.0037770125 0.038764134 0.3355066 -0.48366907 0.04350844 0.005870905
0.12612647 0.1212826 0.066940375 0.12091878 -0.131946 -0.032924265 -0.115940906 -0.13299936
0.085349485 -0.033595107 -0.08230007 -0.01104863 -0.12577055 0.035410702 0.07209716 0.014740382
-0.021377206 0.051765293 0.06836009 -0.027150877 0.16707402 -0.22788648 -0.008116701 0.01999244
-0.07393287 0.08391647 -0.104291864 0.11350249 0.020414604 0.011899751 0.025490671 0.13336028
00000000: cfc4 aebe 479d 1ebc 895c fcbd c35c cdbe
00000010: 205c 1e3d 1814 00be 1881 e1ba 652b be3e
00000020: 8b3f ff3e 60a0 60be 2702 27be a446 9cbe
00000030: 9250 9ebe acff 8f3d 3025 b2bc ebd5 3a3e
00000040: baa6 babc a60e 59be d4e8 cbbe cd52 523e
00000050: c379 e23d 0def 8c3d 32ba 19be 552c b6bd
00000060: 3841 663e 7c1b 753e 77c0 7cbe f82f bdbe
00000070: 8eb5 20be 984c fb3c 56b6 7abe 9e68 a1be
00000080: 5a55 ce3c e299 b2bb 5785 f2bd 2ba7 ab3b
00000090: fe26 a7bd 1f9d 73bd f18d bebe 4471 c83e
000000a0: f7b2 e23e 19fc 19be e514 24be d972 e2bb
000000b0: bf2b 01be 4ecc b8bd 6d47 14be 2644 f5bc
000000c0: 8fcc d93d cb6a 13be ddba 4cbd 4d21 ae3d
000000d0: 2dd4 d0be a034 a4bd 45e8 573d 7508 233d
000000e0: 2ca0 3a3e 3026 c43d 654f 673e 38cc b73d
000000f0: c7b8 25be b594 0b3e 2d96 723e a733 9bbe
00000100: 548d 4cbe b807 3ebe 5904 a1bd 3dfb 5fbe
00000110: e5fb 58bd eee2 3ebe 1d0e 1abe b57f ce3e
00000120: edd5 213f 53fc 0fbe 1409 833d a30a 173e
00000130: d848 bdbe ab41 b8bd 9b22 7dbe 0af9 233e
00000140: 6d02 55bd abcb 44bc 87cf 36be 42f9 d73e
00000150: 7f64 f3bd 5b2d d03d 224f a5bd 0ff6 63be
00000160: 93aa a8bd 676f 813e 56bb 68bd 5d1f 4f3d
00000170: d550 b7bd 70c6 1dbc d592 bb3d 762b bfbe
00000180: 2e5a da3e 471c b7be 49bb ecbd 204e 763e
00000190: a931 663e 360d 0f3c fc65 78be f594 61be
000001a0: 1589 9d3e 9f53 adbd 4828 2e3e ab1b 8cbe
000001b0: f816 0fbf e025 c8bd f7d3 843e 1a1b 4dbe
000001c0: 5a17 c7be adc9 a23d 67af 24bd b4d6 313d
000001d0: 89bc 1ebe b439 59be 58fa cc3d f584 cdbe
000001e0: d411 a2bd 2746 71bc 4ade b03e 1965 dd3e
000001f0: 2f36 1f3e 3c5f a9bd f798 403e 01fa 40be
00000200: fc1d aa3d 9f2e aa3e caae 3bbe 5316 7cbe
00000210: 4fd3 2bbe ab8f 873e 43bb 29be 7a85 a9be
00000220: d1fc 98be 4e94 0cbe 7a35 e83e 0c85 edbe
00000230: 43bf 56bf e934 8abe 1d65 e03d 77b1 84be
00000240: ec4d 84be f26d d4be 1233 9fba 4780 d8bd
00000250: f376 d0bc 7d98 36bf 9359 a63b 38a6 d83c
00000260: 0135 95be b390 19bd dfa3 ae3e a6fa 28bd
00000270: 6624 813e a22a 1ebf fd16 8b3e b3ef d3bd
00000280: e8f5 213d 82a5 22be 2fa0 59be 9888 763e
00000290: 1822 5c3e f1af 7bbe b044 b73e 015c 38be
000002a0: 1bfa 6dbe a983 b4bb 2d01 1abd d73f 1d3e
000002b0: e00b ad3e e131 d0bd 2fc6 a5bc 74cc 1bbe
000002c0: bbb1 443d 014f 103e 8c58 72bd 16bb 74bc
000002d0: df47 973d e2f4 1ebe c41e 5f3d 5e42 3ebe
000002e0: 91b4 f5bd 69e9 e8bd 911b 23bd 7d7e 413e
000002f0: 0767 193d ff95 0abe 85fb 6ebe b0b5 c93e
00000300: 020e 5dbd 5c38 0c3e c031 ee3e 83e7 c5be
00000310: 9f21 653e cefa b2bd 226c fa3c e89e 0fbd
00000320: 34cb 71be 7cd2 acbd 49bf 743e 2a05 873e
00000330: 23b2 9abe 4320 873d f5cf c6be 9725 23be
00000340: 060c 14be 2939 42be d3ae 16be 8596 ebbe
00000350: 8660 aebe 37c4 07bf 927e 443e 784d bb3e
00000360: ef80 bebd bc6a a93e c187 773b 24c7 1e3d
00000370: 85c7 ab3e 79a3 f7be e835 323d b860 c03b
00000380: 4c27 013e 0363 f83d 0918 893d 44a4 f73d
00000390: da1c 07be 98db 06bd 6d72 edbd fc30 08be
000003a0: b6cb ae3d 069b 09bd f08c a8bd 5005 35bc
000003b0: ffc9 00be d00a 113d ada7 933d a581 713c
000003c0: 401f afbc d807 543d 6000 8c3d 846b debc
000003d0: 7415 2b3e 135b 69be e9fb 04bc 2fc7 a33c
000003e0: 1e6a 97bd 66dc ab3d f996 d5bd fe73 e83d
000003f0: 873c a73c 2cf7 423c d0d1 d03c 998f 083e

policy.net.0.bias f4 [128]
0.21735841 0.1489823 0.03869342 0.082873054 -0.15295368 0.0100420145 -0.16448574 -0.30703717
0.07467625 0.10551236 0.2713509 -0.004519616 0.21990865 0.12531833 0.13892928 0.06796093
0.06067608 0.15190953 -0.16775347 0.082256466 0.034714233 0.00785144 0.20420024 -0.020139981
-0.09561609 -0.20756017 -0.21560487 -0.044952787 0.0031120451 -0.12645152 0.12859352 -0.057072934
-0.26968807 -0.07205143 0.04641155 0.14734778 -0.04200816 -0.11798687 0.19722824 0.17752218
0.0671571 0.16335219 0.18108177 -0.11660089 0.108894266 0.14198425 -0.21005999 -0.18352677
0.16786775 0.06848375 -0.23658815 -0.021870153 0.1958726 -0.3271411 0.005935567 0.099531226
-0.094450384 -0.0066791573 0.0998392 -0.019285642 0.17365101 0.2454238 0.28416207 -0.09734864
-0.032204304 0.0035255367 0.069265135 0.018161077 -0.083079584 0.093254514 -0.2554468 -0.050600506
0.07509886 0.026160682 0.031802077 -0.23916073 -0.0016809726 0.2319864 0.16351216 0.249819
0.108265616 0.089198396 0.049878296 0.06939774 0.04626925 -0.0875906 -0.056238923 -0.05701713
0.12421755 -0.015510897 0.05216412 0.28444922 0.083447225 0.1510859 0.2493067 -0.047221158
0.14888644 0.11179699 -0.009873047 -0.078708015 0.21884349 -0.03899153 0.17991333 0.08635017
0.11390051 0.13934928 0.15908712 -0.18177329 0.159174 -0.11383916 -0.0720514 0.11052595
0.23414007 -0.052561913 0.039457884 0.10612909 -0.08737321 0.065991595 0.056642607 0.14015312
0.25954956 0.2517828 0.055837624 0.10018934 0.04967113 0.16623513 0.14502384 -0.1113035
00000000: 3493 5e3e d18e 183e fe7c 1e3d 59b9 a93d
00000010: e49f 1cbe 4387 243c f36e 28be fa33 9dbe
00000020: ddef 983d dd16 d83d 81ee 8a3e 4919 94bb
00000030: bc2f 613e 7353 003e 7a43 0e3e 1a2f 8b3d
00000040: 7b87 783d 2c8e 1b3e 91c7 2bbe 1476 a83d
00000050: 8330 0e3d 54a3 003c de19 513e 9afc a4bc
00000060: 5ed2 c3bd a78a 54be 86c7 5cbe 6a20 38bd
00000070: 74f3 4b3b 827c 01be 05ae 033e 4fc5 69bd
00000080: 8e14 8abe b38f 93bd 0a1a 3e3d 56e2 163e
00000090: c010 2cbd 1aa3 f1bd 33f6 493e 60c8 353e
000000a0: a989 893d cc45 273e 806d 393e 73cc eebd
000000b0: f503 df3d 5264 113e f719 57be 71ee 3bbe
000000c0: 86e5 2b3e 3541 8c3d 2a44 72be 0929 b3bc
000000d0: d492 483e 0a7f a7be 257f c23b 07d7 cb3d
000000e0: 346f c1bd d5dc dabb 7f78 cc3d ecfc 9dbc
000000f0: 92d1 313e 6050 7b3e b17d 913e b95e c7bd
00000100: a9e8 03bd b10c 673b e1da 8d3d 8ac6 943c
00000110: a125 aabd 39fc be3d ecc9 82be 7a42 4fbd
00000120: 6ecd 993d ed4e d63c e542 023d 8de6 74be
00000130: 1554 dcba d88d 6d3e bb6f 273e 8dd0 7f3e
00000140: 5dba dd3d a6ad b63d 2f4d 4c3d 6720 8e3d
00000150: d384 3d3d b362 b3bd c95a 66bd cb8a 69bd
00000160: c565 fe3d 6b21 7ebc 0baa 553d 54a3 913e
00000170: 61e6 aa3d 43b6 1a3e 414a 7f3e f96a 41bd
00000180: b075 183e d2f5 e43d 8fc2 21bc ab31 a1bd
00000190: 8218 603e 95b5 1fbd 333b 383e 5cd8 b03d
000001a0: ac44 e93d 94b1 0e3e bce7 223e c722 3abe
000001b0: 82fe 223e 8124 e9bd af8f 93bd 6e5b e23d
000001c0: 6ac2 6f3e 294b 57bd 979e 213d 355a d93d
000001d0: baf0 b2bd 9a26 873d 1402 683d 4d84 0f3e
000001e0: aee3 843e ade9 803e feb5 643d 1230 cd3d
000001f0: f473 4b3d 8b39 2a3e 2181 143e 17f3 e3bd

policy.net.2.weight f4 [5, 128]
-0.25681087 -0.2831709 -0.99725205 -0.32429525 -3.0587761 -1.647113 -1.6988153 0.022206094
-0.2612226 -0.41932225 -0.31030294 -0.89941484 -0.29628083 -0.62204707 -0.37918395 -0.4786203
-0.41377488 -0.33208787 -0.19012918 -1.2125728 -1.9192827 -0.23925535 -0.15021631 -0.81207126
-1.1859462 -1.1884854 -0.33387315 -0.15185893 -0.4539903 -0.3373896 -0.31231913 -0.3224252
-0.7369607 -0.16511925 -0.41694292 -0.18403694 -0.8744398 -2.5152142 -0.43071806 -0.7812367
-0.45198336 -0.14555812 -0.49655715 -0.30162618 -0.95509297 -0.21485946 -0.21458699 -0.25925246
-0.41076532 -1.877403 -0.86743975 -0.387158 -0.4636348 -0.5028681 -0.40222245 -0.56780005
-3.3649604 -1.2401475 -0.39498731 -1.9853758 -0.2102799 -0.34396407 -0.24922948 -3.0746489
-3.4685824 -2.5086727 -0.23213984 -3.112161 -1.69604 -0.14967513 -1.4174663 -2.9012153
-0.07499651 -0.31219724 -1.0446727 -0.06688161 -0.5110187 -0.32325602 -0.1486027 -0.27204052
-0.8648692 -0.2465322 -0.23071341 -0.072033435 -0.38491485 -0.15521426 -1.024837 -2.1545463
-0.3472707 -0.32653517 -0.5398368 -0.42717493 -0.28464752 -1.8738172 -0.62064135 -0.2956788
-0.22300456 -0.58795553 -1.0282729 -0.27487543 -0.49741438 -0.51394725 -0.23740688 -1.1864815
-0.31138828 -0.45910382 -0.47378936 -0.46314755 -1.7922735 -0.13635758 -0.47634313 -1.3459123
-0.43621814 -0.99258333 -0.24667345 -0.3319329 -1.155171 -0.8734397 -1.3144658 -0.21836944
-0.30666703 -0.35294777 -0.2838026 -0.2243896 -0.24361902 -0.29059574 -0.33481216 -1.2142599
-0.29260305 -0.06262326 0.14898103 -0.041675095 -0.87058276 0.005428743 -0.046210624 0.059674576
0.041230954 0.40476197 0.08118264 -0.014607528 0.019325323 0.1656049 -0.045686696 0.13041782
0.07758393 0.19701724 -0.0006917568 -0.1264788 0.16216718 0.0991964 0.170943 0.021235073
0.9826903 0.02759278 0.047298998 -0.100742884 0.067602865 0.06895272 0.15399833 0.06211725
1.1789458 -0.08327657 -0.080915555 0.033523403 0.109200686 -0.4957863 0.057764493 -0.15946625
-0.2694286 -0.13161911 -0.35395208 0.054177176 0.10695084 0.20960703 0.044320744 -0.006569154
0.1039458 0.461344 -0.6770963 0.04441229 -0.013491426 0.057445 0.059363138 -0.1704619
0.71792966 -0.18221898 -0.10002668 0.09816143 0.026108267 -0.026234537 0.10279693 0.3263302
0.29432154 -0.29215035 0.030031856 -0.32175756 -0.4032365 0.05592551 -0.41599375 -0.015508855
-0.2944274 0.012617395 0.21124394 0.029832814 -0.17730533 0.06491442 -0.26584056 -0.028122038
0.06811314 -0.0411017 0.05444186 -0.094767146 0.10615967 0.032563083 -0.09065338 -0.79203534
0.10389958 0.09047275 0.3978054 0.5447492 0.19771594 0.24104185 0.013053716 -0.025123825
-0.039597824 0.06958259 0.07357174 0.025135035 0.017907294 0.11181448 -0.03154485 0.10641184
0.028321719 -0.19078594 0.045841172 0.022442022 -0.38380057 -0.15268502 0.124336004 0.37301415
0.24296036 0.40587673 0.07137186 -0.32844487 0.35594904 -0.343906 0.06620269 -0.008784731
0.0078020203 0.036474366 -0.7458111 -0.042301808 0.057172887 0.118974805 0.16928767 -0.06816456
00000000: b77c 83be c7fb 90be e94b 7fbf 070a a6be
00000010: fdc2 43c0 99d4 d2bf c872 d9bf 8ee9 b53c
00000020: f8be 85be 68b1 d6be 07e0 9ebe 0d40 66bf
00000030: 1fb2 97be 7a3e 1fbf 6624 c2be b80d f5be
00000040: 4dda d3be 6c07 aabe 39b1 42be 9635 9bbf
00000050: 0eab f5bf 5bff 74be 4ed2 19be e7e3 4fbf
00000060: 16cd 97bf 4a20 98bf 6cf1 aabe e880 1bbe
00000070: 6b71 e8be 54be acbe 4be8 9fbe ea14 a5be
00000080: 75a9 3cbf 0515 29be 8b79 d5be 2e74 3cbe
00000090: 49db 5fbf 45f9 20c0 1487 dcbe 21ff 47bf
000000a0: 5d6a e7be 300d 15be bd3c febe bf6e 9abe
000000b0: f980 74bf 1e04 5cbe b1bc 5bbe bdbc 84be
000000c0: d54f d2be be4e f0bf 8810 5ebf 9339 c6be
000000d0: 8a61 edbe f7bb 00bf 1af0 cdbe 585b 11bf
000000e0: 835b 57c0 27bd 9ebf c73b cabe cb20 febf
000000f0: 9d53 57be 0f1c b0be 0336 7fbe 0cc7 44c0
00000100: 41fd 5dc0 188e 20c0 11b6 6dbe a52d 47c0
00000110: d717 d9bf 7044 19be 896f b5bf 83ad 39c0
00000120: c597 99bd 51d8 9fbe d6b7 85bf 3af9 88bd
00000130: 1fd2 02bf d081 a5be 4e2b 18be e548 8bbe
00000140: 1168 5dbf f072 7cbe 2340 6cbe 4486 93bd
00000150: 8f13 c5be 7df0 1ebe dc2d 83bf 16e4 09c0
00000160: 77cd b1be 9e2f a7be bf32 0abf acb6 dabe
00000170: 52bd 91be 3ed9 efbf 5ae2 1ebf 3663 97be
00000180: 4f5b 64be 4184 16bf 729e 83bf 79bc 8cbe
00000190: 19ad febe 0c92 03bf ca1a 73be a0de 97bf
000001a0: 496e 9fbe a80f ebbe 8594 f2be ad21 edbe
000001b0: 3869 e5bf 52a1 0bbe 3fe3 f3be db46 acbf
000001c0: fc57 dfbe f119 7ebf f797 7cbe 1cf3 a9be
000001d0: a5dc 93bf bf99 5fbf 6a40 a8bf 3d9c 5fbe
000001e0: 7603 9dbe 92b5 b4be 934e 91be 63c6 65be
000001f0: 4477 79be f7c8 94be 806c abbe de6c 9bbf
00000200: 11d0 95be a040 80bd 7c8e 183e 81b3 2abd
00000210: 83de 5ebf 99e3 b13b 5a47 3dbd 546d 743d
00000220: cae1 283d f63c cf3e 1543 a63d 6a54 6fbc
00000230: 2450 9e3c 5594 293e f921 3bbd 408c 053e
00000240: 53e4 9e3d e3be 493e 0357 35ba a983 01be
00000250: 270f 263e 7b27 cb3d af0b 2f3e 2df5 ad3c
00000260: 9791 7b3f 410a e23c 98bc 413d 4952 cebd
00000270: 5f73 8a3d 1537 8d3d bdb1 1d3e a86e 7e3d
00000280: b2e7 963f e88c aabd 0eb7 a5bd d64f 093d
00000290: 9ca4 df3d b4d7 fdbe 769a 6c3d 1f4b 23be
000002a0: 8cf2 89be 29c7 06be 3539 b5be e3e8 5d3d
000002b0: 0b09 db3d 3aa3 563e ab89 353d 0f42 d7bb
000002c0: 89e1 d43d 4835 ec3e 2f56 2dbf a9e9 353d
000002d0: 240b 5dbc 734b 6b3d c326 733d 908d 2ebe
000002e0: 3dca 373f 9d97 3abe cada ccbd dc08 c93d
000002f0: 01e1 d53c d0e9 d6bc 3287 d23d c114 a73e
00000300: 50b1 963e bb94 95be 5e05 f63c 68bd a4be
00000310: 0475 cebe 2612 653d 22fd d4be da18 7ebc
00000320: 30bf 96be 31b9 4e3c 5550 583e f263 f43c
00000330: 878f 35be daf1 843d 411c 88be 3060 e6bc
00000340: e77e 8b3d 425a 28bd 6efe 5e3d 4715 c2bd
00000350: 3e6a d93d de60 053d 7ba8 b9bd d4c2 4abf
00000360: 4ec9 d43d c749 b93d 26ad cb3e af74 0b3f
00000370: 0c76 4a3e add3 763e 41df 553c 7bd0 cdbc
00000380: 5431 22bd 5181 8e3d c8ac 963d fde7 cd3c
00000390: 51b2 923c fdfe e43d 2c35 01bd 73ee d93d
000003a0: f302 e83c 645d 43be f4c3 3b3d 55d8 b73c
000003b0: 8281 c4be 7659 1cbe e0a3 fe3d b6fb be3e
000003c0: 9aca 783e 13cf cf3e 692b 923d ed29 a8be
000003d0: f43e b63e 7214 b0be 4795 873d d5ed 0fbc
000003e0: 17a8 ff3b 2566 153d 7aed 3ebf a944 2dbd
000003f0: 1e2e 6a3d 10a9 f33d bf59 2d3e dc99 8bbd

policy.net.2.bias f4 [5]
-0.40299264 -0.044489533 0.11315274 -0.027765352 0.11393979
00000000: 0d55 cebe a83a 36bd a0bc e73d 2a74 e3bc
00000010: 4459 e93d

exp_avg f4 [900, 16]
-3.1523807e-05 3.464404e-05 3.8119224e-06 3.1949992e-05 -3.964565e-05 3.5185625e-05 -2.128026e-05 -4.306081e-06
-1.693019e-05 -2.7231805e-05 -8.0279184e-05 -1.4781688e-05 5.0746585e-05 2.5878628e-06 -4.6861063e-05 -1.7260296e-05
-3.0626932e-05 1.8976374e-05 -8.863587e-07 1.0440644e-05 -8.8267036e-05 1.3040279e-05 -1.0175291e-05 -3.73545e-05
-1.4260184e-05 -1.7868126e-05 -8.0967046e-05 -2.464609e-05 4.673434e-05 1.8490466e-05 -7.0089896e-05 -1.9538242e-05
-2.0804971e-05 4.9711765e-05 2.0218215e-06 4.2561616e-05 -2.2540704e-05 1.4038866e-05 -2.1057442e-06 -1.2835127e-06
-6.3774564e-06 9.233321e-06 -7.277352e-05 -2.0885647e-05 3.544513e-05 -1.8750843e-05 -1.8078978e-05 1.3130907e-05
4.635731e-06 4.633263e-05 -1.8499188e-05 5.3607937e-06 -2.4780886e-05 -2.211249e-05 -5.8762303e-06 -1.7528666e-05
-5.876447e-07 -2.4650613e-05 -6.199025e-05 -2.1359048e-05 5.162214e-07 5.667275e-06 -2.843337e-05 2.3300689e-05
-5.3927044e-05 3.9358263e-05 -1.6559805e-05 -2.9535102e-05 5.1369887e-05 2.3387322e-05 -8.910455e-05 6.730684e-05
2.2612368e-05 3.5433135e-05 -2.7291175e-05 2.8982091e-05 -5.0598817e-05 -0.00012385889 3.6331787e-06 3.1495016e-05
0.0 0.0 0.0 0.0 0.0 0.0 0.0 0.0
0.0 0.0 0.0 0.0 0.0 0.0 0.0 0.0
0.0 0.0 0.0 0.0 0.0 0.0 0.0 0.0
0.0 0.0 0.0 0.0 0.0 0.0 0.0 0.0
0.0 0.0 0.0 0.0 0.0 0.0 0.0 0.0
0.0 0.0 0.0 0.0 0.0 0.0 0.0 0.0
0.0 0.0 0.0 0.0 0.0 0.0 0.0 0.0
0.0 0.0 0.0 0.0 0.0 0.0 0.0 0.0
0.0 0.0 0.0 0.0 0.0 0.0 0.0 0.0
0.0 0.0 0.0 0.0 0.0 0.0 0.0 0.0
0.0 0.0 0.0 0.0 0.0 0.0 0.0 0.0
0.0 0.0 0.0 0.0 0.0 0.0 0.0 0.0
0.0 0.0 0.0 0.0 0.0 0.0 0.0 0.0
0.0 0.0 0.0 0.0 0.0 0.0 0.0 0.0
1.9171388e-05 -3.3193577e-05 1.1077538e-05 3.2383516e-05 -1.916234e-05 -3.5126845e-06 -1.1488592e-05 7.3236183e-06
1.2647661e-05 4.922935e-05 2.6370655e-05 -4.4600132e-05 -3.3482233e-06 3.035454e-05 1.6078877e-05 -5.463517e-06
-3.8844264e-05 -3.520658e-05 -1.430763e-06 -1.5526183e-06 -1.7022454e-05 -6.098851e-05 -4.0389463e-05 4.9915674e-05
2.0066207e-05 5.4349814e-05 1.09561e-05 -2.7719718e-05 -2.0360223e-05 4.3051583e-05 -3.439738e-06 -1.433098e-06
-1.0228386e-05 -6.34151e-05 1.0563903e-05 1.50268725e-05 2.4155832e-05 -8.264141e-05 -3.7566042e-07 4.3829274e-05
2.329789e-05 8.336577e-05 2.160619e-05 -9.716933e-06 -2.4245199e-05 -1.8279668e-06 -3.1619824e-05 -2.9187173e-05
-4.829864e-07 -3.6023266e-05 -1.8656237e-05 2.8412765e-05 -3.817796e-06 3.4572604e-05 -6.5484332e-06 2.1204405e-05
-4.2911026e-05 -2.6880918e-05 2.675268e-05 -9.9035915e-06 4.1619798e-05 -8.367354e-06 -4.1367603e-05 -5.794409e-05
00000000: 6e38 04b8 c14e 1138 54d0 7f36 0b02 0638
00000010: 3149 26b8 4794 1338 0383 b2b7 f47c 90b6
00000020: 4e05 8eb7 db6f e4b7 8f5b a8b8 defe 77b7
00000030: bbd8 5438 25ab 2d36 af8c 44b8 34ca 90b7
00000040: 6b75 00b8 742f 9f37 1bee 6db5 392a 2f37
00000050: 011c b9b8 92c7 5a37 8bb6 2ab7 17ad 1cb8
00000060: 063f 6fb7 82e3 95b7 dacc a9b8 13bf ceb7
00000070: 9e04 4438 f91b 9b37 3afd 92b8 0ee6 a3b7
00000080: 5686 aeb7 9a81 5038 a1ae 0736 3084 3238
00000090: cb15 bdb7 7888 6b37 6950 0db6 2945 acb5
000000a0: effd d5b6 d0e8 1a37 fc9d 98b8 9633 afb7
000000b0: ebaa 1438 214b 9db7 4fa8 97b7 d14c 5c37
000000c0: a08c 9b36 4855 4238 b42e 9bb7 dee0 b336
000000d0: 8ce0 cfb7 367e b9b7 6f2c c5b6 860a 93b7
000000e0: a3be 1db5 cac8 ceb7 c300 82b8 352c b3b7
000000f0: 7792 0a35 8629 be36 3284 eeb7 d975 c337
00000100: b92f 62b8 9d14 2538 e9e9 8ab7 26c2 f7b7
00000110: ff75 5738 e42f c437 a4dd bab8 1627 8d38
00000120: b1af bd37 0a9e 1438 5aef e4b7 911e f337
00000130: 113a 54b8 1ee0 01b9 89d1 7336 8419 0438
00000140: 0000 0000 0000 0000 0000 0000 0000 0000
00000150: 0000 0000 0000 0000 0000 0000 0000 0000
00000160: 0000 0000 0000 0000 0000 0000 0000 0000
00000170: 0000 0000 0000 0000 0000 0000 0000 0000
00000180: 0000 0000 0000 0000 0000 0000 0000 0000
00000190: 0000 0000 0000 0000 0000 0000 0000 0000
000001a0: 0000 0000 0000 0000 0000 0000 0000 0000
000001b0: 0000 0000 0000 0000 0000 0000 0000 0000
000001c0: 0000 0000 0000 0000 0000 0000 0000 0000
000001d0: 0000 0000 0000 0000 0000 0000 0000 0000
000001e0: 0000 0000 0000 0000 0000 0000 0000 0000
000001f0: 0000 0000 0000 0000 0000 0000 0000 0000
00000200: 0000 0000 0000 0000 0000 0000 0000 0000
00000210: 0000 0000 0000 0000 0000 0000 0000 0000
00000220: 0000 0000 0000 0000 0000 0000 0000 0000
00000230: 0000 0000 0000 0000 0000 0000 0000 0000
00000240: 0000 0000 0000 0000 0000 0000 0000 0000
00000250: 0000 0000 0000 0000 0000 0000 0000 0000
00000260: 0000 0000 0000 0000 0000 0000 0000 0000
00000270: 0000 0000 0000 0000 0000 0000 0000 0000
00000280: 0000 0000 0000 0000 0000 0000 0000 0000
00000290: 0000 0000 0000 0000 0000 0000 0000 0000
000002a0: 0000 0000 0000 0000 0000 0000 0000 0000
000002b0: 0000 0000 0000 0000 0000 0000 0000 0000
000002c0: 0000 0000 0000 0000 0000 0000 0000 0000
000002d0: 0000 0000 0000 0000 0000 0000 0000 0000
000002e0: 0000 0000 0000 0000 0000 0000 0000 0000
000002f0: 0000 0000 0000 0000 0000 0000 0000 0000
00000300: 3ed2 a037 5539 0bb8 aad9 3937 89d3 0738
00000310: d0be a0b7 76bb 6bb6 20bf 40b7 67bd f536
00000320: 4a31 5437 9d7b 4e38 8d36 dd37 0711 3bb8
00000330: 0ab2 60b6 e1a1 fe37 20e1 8637 4153 b7b6
00000340: b6ec 22b8 c7aa 13b8 a408 c0b5 8f63 d0b5
00000350: 71cb 8eb7 eacd 7fb8 db67 29b8 8c5c 5138
00000360: da53 a837 abf5 6338 17d0 3737 a487 e8b7
00000370: 3fcb aab7 4992 3438 40d6 66b6 df58 c0b5
00000380: 959a 2bb7 b9fd 84b8 9e3b 3137 ed1b 7c37
00000390: 41a2 ca37 c54f adb8 60ae c9b4 53d5 3738
000003a0: d66f c337 a8d4 ae38 f13e b537 e905 23b7
000003b0: 2b62 cbb7 7658 f5b5 879f 04b8 fad6 f4b7
000003c0: 93a6 01b5 b017 17b8 f77f 9cb7 f357 ee37
000003d0: 9e1a 80b6 0d02 1138 9dba dbb6 1de0 b137
000003e0: 5dfb 33b8 557e e1b7 f16a e037 9a27 26b7
000003f0: eb90 2e38 8361 0cb7 2082 2db8 fe08 73b8
