SGE_Transformer/model/2_room/eil_2_room_198_model/EBC_model_5999.pth (torch, 319185 bytes, 27 tensors)

encoder.embedding.weight f4 [900, 16]
0	0x3e6b0f59	0.22955073
1	0xbf301f6b	-0.6879794
2	0x3f9e99fa	1.239074
3	0x3fd3d5a1	1.6549569
4	0x3f16f90a	0.58973753
5	0x3f8d09e5	1.1018645
6	0xbd1201b4	-0.035646155
7	0x3f6b609c	0.9194429
8	0x3fbdfb1e	1.484226
9	0x3f0a4a1c	0.5401933
10	0x3fa7d452	1.311167
11	0xbf8dc4a6	-1.1075637
12	0x3fc13d9d	1.5096928
13	0xbf5e5c64	-0.86859727
14	0xbf8b7276	-1.0894306
15	0x3f3c5407	0.73565716
16	0xbf8e15b6	-1.1100376
17	0x3eeee12c	0.46656168
18	0x3eda2d2c	0.42612588
19	0xbe45d00a	-0.19317642
20	0x3efd20b9	0.49439028
21	0x3f27cd1f	0.65547365
22	0x3e8521bf	0.2600231
23	0x3ec145bd	0.3774852
24	0xbf86b020	-1.0522499
25	0xbfb79d7e	-1.4344938
26	0x3fec9274	1.8482194
27	0xbff38c8e	-1.9027269
28	0x3f069c78	0.525825
29	0xbdf8e642	-0.12153293
30	0xbf319623	-0.69369715
31	0xbfbff423	-1.499638
32	0x3f5105da	0.81649554
33	0x3e3e2ba1	0.1857133
34	0xbe67ec10	-0.22648644
35	0x3f4e9ad9	0.8070503
36	0xbe602c95	-0.21892007
37	0x3e912b31	0.28353265
38	0xbf0f8b03	-0.5607149
39	0xbff8ac79	-1.9427634
40	0xbebd31fd	-0.369522
41	0x3f885fa1	1.0654184
42	0xbf87b960	-1.0603447
43	0x3eaabde3	0.33347997
44	0xbf987760	-1.191143
45	0xbd746af8	-0.059672326
46	0xc0564060	-3.3476791
47	0xbf30d7f0	-0.69079494
48	0x3e9ed400	0.31021118
49	0xbf5737da	-0.840696
50	0xbf6dcbd6	-0.92889154
51	0xbe420aec	-0.18949479
52	0x3f887be0	1.0662804
53	0x3fe2c803	1.7717289
54	0xbfa631c8	-1.2983942
55	0x3f12b658	0.57309484
56	0xbf8a0189	-1.0781718
57	0x3e639c13	0.22227506
58	0x3f158a04	0.5841372
59	0xbfce4d25	-1.6117293
60	0xbf5b1ce5	-0.85590965
61	0xbeb3d0d9	-0.35120276
62	0xbf307c6f	-0.6893987
63	0xbffa4d7d	-1.9554898
64	0x3f5da038	0.865726
65	0x3def891d	0.11696074
66	0xbfa949c0	-1.3225632
67	0x40031ed2	2.0487561
68	0xbf4a40ac	-0.7900493
69	0xbea6df25	-0.3259212
70	0xbfae5bc5	-1.3621756
71	0x3e82df07	0.2556078
72	0xbeb77383	-0.35830316
73	0xbe811151	-0.25208524
74	0x3dbed4ee	0.09317957
75	0xbfc62bd3	-1.5482124
76	0xc01c6528	-2.443674
77	0xbe03a57d	-0.12856098
78	0xbe56b466	-0.20967254
79	0xbd4d2a80	-0.05008936
80	0x3e1918b5	0.14950831
81	0x3f2e8646	0.68173635
82	0x3fc8aa0d	1.5676895
83	0x3ef37d76	0.47556657
84	0xbf80a441	-1.0050126
85	0xbf82fb09	-1.023286
86	0x3f057d3c	0.5214422
87	0xbef6e35b	-0.48220333
88	0xbf45cac4	-0.7726252
89	0x402fa645	2.7445233
90	0xbffceabe	-1.9759138
91	0x3ed4f030	0.415895
92	0x3fc89d13	1.5672935
93	0xbd2321c3	-0.03982712
94	0xbf78e297	-0.9722075
95	0xbf3649b8	-0.71206236
96	0x3e75b7b5	0.2399586
97	0xbf997ce5	-1.199124
98	0x3f881e17	1.0634183
99	0xbf2d4c14	-0.6769421
100	0xbf29d40c	-0.6633918
101	0x3eac2e84	0.3362924
102	0x3f04b980	0.5184555
103	0x3f84d6c4	1.0378041
104	0x3d29e23d	0.041475523
105	0x3f57838d	0.84185106
106	0xbe06755a	-0.13130704
107	0xbfbf08fc	-1.4924617
108	0x3eba2620	0.36357212
109	0xbf02d54a	-0.51106703
110	0xbed64638	-0.41850448
111	0x3f97483d	1.181892
112	0xbe882c72	-0.2659641
113	0x3f4ddfd2	0.8041965
114	0xbe9d7ba6	-0.307584
115	0x3fad485f	1.3537711
116	0x3f2ac244	0.66702676
117	0xbe718f59	-0.23589839
118	0xbe2f5481	-0.1712208
119	0x3f0fc723	0.56163234
120	0x3e9d35dc	0.30705154
121	0x3eacf4c8	0.33780503
122	0x3e050074	0.12988454
123	0x3f13956f	0.5764989
124	0x3ca658d1	0.020306023
125	0x3fb2fdc0	1.3983688
126	0x3fb55e8f	1.4169482
127	0xbbc0bfc0	-0.0058822334
128	0xbf61e845	-0.8824504
129	0xbef9f6e3	-0.48821172
130	0xbfad94f9	-1.3561088
131	0xbe6f0e1a	-0.23345223
132	0x3fea3517	1.8297452
133	0x3fcb78ed	1.5896279
134	0x3e365e8a	0.17809501
135	0x3f030fba	0.5119587
136	0xbf0bd7f0	-0.5462637
137	0xbfb8c286	-1.4434364
138	0xbff63e32	-1.923773
139	0xbf9088af	-1.1291713
140	0x3f80de94	1.0067925
141	0xbc1011c2	-0.008793296
142	0xbf4df091	-0.804452
143	0x3ffba08a	1.9658368
144	0x3fd2f00a	1.6479504
145	0x3f11e735	0.5699342
146	0xbc4a2e9c	-0.012340214
147	0xbfbc443f	-1.4708327
148	0xbd3d77b9	-0.046256755
149	0xbf086699	-0.5328155
150	0x3f28e4bd	0.65974027
151	0x400bf57d	2.1868584
152	0x3ef9c545	0.48783317
153	0x400b8029	2.1796973
154	0xbfbb383a	-1.4626534
155	0xbfb20beb	-1.3909887
156	0xbedd4693	-0.43217906
157	0xbe1892f2	-0.14899805
158	0x3dd07cf7	0.10180085
159	0xbe33ebd6	-0.17570433
160	0x3ea4e7f3	0.32208213
161	0x3f9a135f	1.2037162
162	0x3daecc16	0.0853502
163	0xbfe162e8	-1.7608309
164	0x3d73f564	0.059560195
165	0xbfa77304	-1.3081975
166	0x3e6c1cd0	0.23057866
167	0x3f75be8b	0.9599387
168	0x3e10d040	0.14141941
169	0x3f5ca835	0.86194164
170	0xbf8c435c	-1.0958056
171	0xbf920f40	-1.1410904
172	0xbec09121	-0.37610725
173	0xbe830363	-0.2558852
174	0xbe914aa7	-0.28377268
175	0x3f8fa9bb	1.1223673
176	0x400414ac	2.0637617
177	0x3e062291	0.13099124
178	0x3f6948bd	0.91126615
179	0x3dca6884	0.09883216
180	0xbf2a85ba	-0.666103
181	0x3f6ea805	0.9322513
182	0x3fd155a0	1.6354256
183	0xbf8cdc17	-1.1004666
184	0x3f3c40bb	0.7353627
185	0x40019a7e	2.0250545
186	0xc03a7b37	-2.9137704
187	0x3e435f95	0.1907943
188	0x3e2db8c2	0.16965011
189	0xbf333487	-0.70002025
190	0xbdc8288a	-0.09773357
191	0x3f03a191	0.51418406
192	0x3f8a3211	1.0796529
193	0x3f12e992	0.5738765
194	0xbfc10bbc	-1.5081706
195	0x4001ac99	2.0261595
196	0x3f691be9	0.9105821
197	0xbf0886a6	-0.5333046
198	0xbf886d82	-1.0658419
199	0xbef02a5d	-0.4690732
200	0x3f88910e	1.0669267
201	0x3f646879	0.8922191
202	0x3fb11be2	1.3836634
203	0xbe2f5033	-0.17120437
204	0xbf917804	-1.1364751
205	0xbfc226e1	-1.5168115
206	0xbfe3cd09	-1.7796947
207	0xbfda6372	-1.7061598
208	0x3fe39272	1.7779067
209	0x3dda0dbd	0.106471516
210	0xbf84141e	-1.0318639
211	0x3ec8093a	0.3906954
212	0x3e5b41e8	0.2141186
213	0xbeffc7b0	-0.49957037
214	0xbeb1a7ef	-0.34698436
215	0xbd866f71	-0.065642245
216	0x3e673b44	0.22581202
217	0xbf0f2449	-0.5591474
218	0x3f821b2c	1.0164542
219	0xbf4c1759	-0.79723126
220	0x3f7b325b	0.9812371
221	0x3f88e6a6	1.0695388
222	0x3f3cdd7a	0.73775446
223	0xbf59d079	-0.8508373
224	0xbf80a97d	-1.0051724
225	0xbfb2dc88	-1.3973551
226	0xbf51bd1b	-0.8192918
227	0xbe9794ab	-0.29605612
228	0x3f904fb7	1.1274327
229	0x3f2ed643	0.6829569
230	0xbfd6f4a8	-1.6793413
231	0xbfde6f0f	-1.7377642
232	0x3f977bdc	1.1834674
233	0x3f629bef	0.88519186
234	0x3c5fc2c3	0.013657275
235	0xbfa99847	-1.3249596
236	0xbfa5ef94	-1.2963738
237	0xbf1e6267	-0.618689
238	0xbf044515	-0.5166791
239	0x3f027b35	0.5096925
240	0xbd75871d	-0.059943307
241	0xbe2f0827	-0.17092954
242	0x3d8dede1	0.069301374
243	0x3f1bcdab	0.608607
244	0x3fddf27f	1.7339629
245	0x3f2be1b0	0.67141247
246	0xbee09604	-0.43864453
247	0xbf9fee12	-1.2494528
248	0x3ea26e46	0.31724757
249	0xbfddae5e	-1.7318838
250	0x3fa9f6bf	1.3278426
251	0xbd860cef	-0.06545436
252	0x3f4bd349	0.7961927
253	0x3e7b8379	0.24561872
254	0x401d78fa	2.4605088
255	0xbe38895c	-0.18021148

encoder.lstm.weight_ih_l0 f4 [128, 16]
0	0x3d8c9c6f	0.06865775
1	0x3e8a627e	0.2702827
2	0xbe5a813a	-0.21338359
3	0xbef7906a	-0.48352367
4	0x3d8aa84a	0.0677038
5	0xbd5d5dc3	-0.054044496
6	0x3b4926e2	0.0030693342
7	0x3de36f4f	0.11105215
8	0xbe441049	-0.19146837
9	0xbd1bb0bb	-0.03801034
10	0xbed582aa	-0.4170125
11	0xbd117d87	-0.035520103
12	0x3ead05a1	0.33793357
13	0xbcec145e	-0.028818306
14	0xbdece52b	-0.11567148
15	0x3ddda60e	0.10822688
16	0xbbef9203	-0.007311107
17	0x3e8887e9	0.2666619
18	0xbeaf735d	-0.34267703
19	0xbca640c7	-0.02029456
20	0x3ddccb75	0.10780994
21	0xbe64d0da	-0.22345296
22	0xbce55623	-0.027995175
23	0x3e222197	0.15833126
24	0xbea65404	-0.32485974
25	0xbf260871	-0.6485663
26	0xbe50d904	-0.20395285
27	0xbebb7588	-0.36613107
28	0x3d44c31c	0.048037633
29	0xbf21fe1f	-0.63278383
30	0xbdb2dcfb	-0.08733555
31	0x3d4557cc	0.048179433
32	0xbd9a6d4d	-0.07540379
33	0xbe3ec6b9	-0.18630494
34	0xbdd08a3f	-0.10182618
35	0x3d6860a9	0.056732807
36	0xbe32d61b	-0.17464487
37	0x3dcd1def	0.10015475
38	0x3e062638	0.13100517
39	0xbc8c7144	-0.017143853
40	0x3df284c0	0.11841726
41	0xbe39de10	-0.18151116
42	0xbe051acf	-0.12998508
43	0x3dca0a15	0.09865204
44	0xbe51d063	-0.2048965
45	0x3de554aa	0.11197789
46	0xbe7e0bda	-0.24809209
47	0x3e572659	0.21010722
48	0xbec938aa	-0.39301044
49	0x3bccd8db	0.006251437
50	0x3ef74afb	0.48299393
51	0x3d4faa70	0.05069965
52	0x3c855654	0.016276516
53	0x3df96bf5	0.12178794
54	0xbaf5df51	-0.001875857
55	0xbd6d7d85	-0.057981033
56	0xbe011756	-0.12606558
57	0x3c0b4f75	0.008502831
58	0xbd413cf1	-0.04717726
59	0xbf152387	-0.58257335
60	0xbe1f058f	-0.15529464
61	0x3ed231b8	0.41053557
62	0x3e0c7e3a	0.13720027
63	0x3b616f7e	0.003439873
64	0xbe8e164b	-0.27751383
65	0x3e477d9d	0.19481511
66	0x3e6e99f2	0.23300913
67	0x3df248e5	0.1183031
68	0x3e841a35	0.25801244
69	0x3dd7c6eb	0.105359875
70	0x3cb2306f	0.02175161
71	0xbcc8fc12	-0.024534259
72	0xbe1c4f7c	-0.15264696
73	0x3c5eac48	0.01359088
74	0x3e87ce2e	0.2652449
75	0xbe237c3b	-0.15965359
76	0xbe96a119	-0.29419783
77	0x3e79cb59	0.24393977
78	0xbdb81b48	-0.089895785
79	0xbe0add57	-0.13560997
80	0x3e51a9f9	0.20474996
81	0x3ec8762f	0.39152667
82	0x3e12030c	0.14258975
83	0x3c9c41a9	0.019074278
84	0x3eb5b492	0.35489327
85	0xbd4aab7c	-0.049479946
86	0xbda0d027	-0.07852202
87	0xbd3c34d8	-0.045948833
88	0x3dfcddfd	0.123470284
89	0xbeac9a48	-0.33711457
90	0x3d08f515	0.033436853
91	0x3c9cdcc3	0.019148236
92	0xbd6ee587	-0.058324363
93	0x3e8ccd5f	0.27500436
94	0xbe20c09e	-0.15698478
95	0x3e519980	0.20468712
96	0xbeb574db	-0.35440716
97	0xbcdae791	-0.026721748
98	0x3e1bea77	0.1522616
99	0xbe285a1f	-0.16440628
100	0x3eb3158b	0.34977373
101	0x3ddcaee8	0.10775548
102	0x3ea7e677	0.32793018
103	0x3e65862b	0.22414462
104	0xbd672588	-0.056432277
105	0x3ea20166	0.31641692
106	0xbbad7621	-0.005293623
107	0x3eabbb34	0.33541262
108	0x3dddbf50	0.108275056
109	0xbd6975e1	-0.056997184
110	0x3dc94c2e	0.09828983
111	0x3d8ed75e	0.06974672
112	0xbea1684e	-0.3152489
113	0x3deef6bd	0.11668155
114	0xbe428351	-0.18995406
115	0xbe6448f6	-0.22293457
116	0x3ead2eab	0.33824667
117	0x3eac377c	0.3363608
118	0x3b8288be	0.003983586
119	0x3eaec864	0.3413726
120	0xbef1a9c2	-0.47199827
121	0x3e32c465	0.17457731
122	0xbef745eb	-0.4829553
123	0xbc8a0863	-0.016849702
124	0xbe025f88	-0.12731755
125	0x3f2e372e	0.6805295
126	0x3e4f7cb6	0.20262417
127	0xbe58f544	-0.21187311
128	0x3e55afc4	0.2086783
129	0x3d626777	0.055274453
130	0xbddbc60c	-0.10731134
131	0x3eb9405b	0.36181912
132	0x3e35e889	0.17764486
133	0xbe2a0c33	-0.16606216
134	0x3cbce59f	0.02305871
135	0x3ea136b3	0.31487045
136	0xbd30218f	-0.043000754
137	0x3ea4cd57	0.32187912
138	0x3ea4dd9b	0.32200322
139	0x3cc7a430	0.024370283
140	0x3e6cd5a4	0.23128372
141	0x3e4f5afd	0.20249553
142	0xbe72d0b4	-0.23712426
143	0xbdb23ef0	-0.087034106
144	0xbd8c6ab4	-0.068562895
145	0x3e4d7a17	0.20066105
146	0x3d6807fb	0.056648236
147	0xbde79d4d	-0.113092996
148	0xbe511174	-0.20416814
149	0xbe1eddff	-0.15514372
150	0xbd949669	-0.07255251
151	0x3e8b07f0	0.27154493
152	0xbe094ab2	-0.134074
153	0x3df023b8	0.11725563
154	0xbeb3d8f7	-0.3512647
155	0xbe8661dc	-0.26246536
156	0x3d0c2070	0.034210622
157	0x3f130d09	0.57441765
158	0x3dea4b70	0.1144017
159	0x3e8206fe	0.2539596
160	0x3e7c84f9	0.246601
161	0xbd66e52d	-0.056370903
162	0xbdafc415	-0.085823216
163	0xbd2f2f3a	-0.042769648
164	0x3dea447e	0.11438845
165	0x3e4e27bb	0.20132343
166	0xbdb9f05b	-0.09079047
167	0x3e3d3977	0.18478952
168	0xbe18c724	-0.14919716
169	0xbe80e4e2	-0.25174624
170	0xbd9376d3	-0.07200398
171	0xbe787b13	-0.24265699
172	0x3efd5b6d	0.49483815
173	0x3d8d4aa2	0.06899001
174	0xbd897691	-0.06712068
175	0x3b9d6c2b	0.0048041544
176	0x3d92ecc2	0.07174064
177	0x3e911a82	0.28340536
178	0xbeeafdea	-0.45896846
179	0x3ddd1aa5	0.10796098
180	0x3d839d23	0.06426456
181	0xbe27ba58	-0.16379678
182	0xbc137d88	-0.009002097
183	0x3e9ac782	0.30230337
184	0xbea752a0	-0.32680225
185	0x3ea6437f	0.3247337
186	0x3e9de7bf	0.3084087
187	0x3e50faf0	0.20408225
188	0x3be91be5	0.007113921
189	0xbe5a95d4	-0.21346217
190	0xbdd328ad	-0.10310493
191	0x3e0660bc	0.13122839
192	0x3ce85050	0.028358608
193	0x3ecb405f	0.3969755
194	0xbd6fcef7	-0.058546986
195	0x3e81aef8	0.25328803
196	0xbe512b7f	-0.20426749
197	0x3cbce7d3	0.023059761
198	0xbf1401e8	-0.5781541
199	0x3e8fe64b	0.28105387
200	0x3d962964	0.073321134
201	0x3e0de5c9	0.13857187
202	0x3e0dc330	0.1384399
203	0xbd8a7bbf	-0.06761884
204	0xbe0bddd7	-0.13658844
205	0x3ee8092a	0.45319492
206	0x3e8f471b	0.27983937
207	0x3def9015	0.11697403
208	0xbccb5b13	-0.024823701
209	0x3e577244	0.21039683
210	0x3c9b013f	0.018921493
211	0xbe05d2e8	-0.13068736
212	0x3b780e9a	0.00378505
213	0xbd0880a5	-0.03332581
214	0x3e88e39a	0.26736146
215	0x3e27eefb	0.16399758
216	0xbe33b1ab	-0.17548244
217	0xbe5e4339	-0.21705331
218	0x3c8e24ec	0.01735159
219	0x3ea169f6	0.31526154
220	0xbd028e08	-0.031873733
221	0x3e3add01	0.18248369
222	0xbd87b757	-0.06626766
223	0x3e373e98	0.17894971
224	0x3cf0e34d	0.02940526
225	0xbdd9481f	-0.10609459
226	0xbe610efe	-0.21978375
227	0x3e6fa0dc	0.23401207
228	0xbd6f2fa5	-0.058395047
229	0x3d98954f	0.07450353
230	0x3bd8b90d	0.0066138566
231	0xbc2feeb7	-0.010738066
232	0xbd7dcee5	-0.061964888
233	0xbe4a4354	-0.19752246
234	0xbda389bb	-0.079852544
235	0xbe1c02f7	-0.15235506
236	0x3d9b1102	0.07571603
237	0xbe72d10a	-0.23712555
238	0xbe31f0bb	-0.17376988
239	0x3df10230	0.11767995
240	0xbdceef3e	-0.101042256
241	0xbcb3e9d2	-0.02196208
242	0xbd9bae38	-0.07601589
243	0x3e1cad21	0.15300418
244	0xbcdbcdb7	-0.02683149
245	0x3f02aeaa	0.51047766
246	0xbea1573a	-0.3151186
247	0x3dbd5032	0.09243812
248	0xbceeef8d	-0.029166961
249	0xbcdc7eaa	-0.026915867
250	0x3d16b60e	0.036794715
251	0xbe946e10	-0.2899022
252	0xbecc834b	-0.3994392
253	0xbdd8cac7	-0.10585552
254	0xbd851922	-0.06498934
255	0x3db01c5b	0.085991584

encoder.lstm.weight_hh_l0 f4 [128, 32]
0	0xbecd798b	-0.40131792
1	0xbe06328e	-0.13105223
2	0xbe9cfb56	-0.30660504
3	0x3e1ede45	0.15514477
4	0x3f059058	0.52173376
5	0xbdd28046	-0.102783725
6	0x3dbd155d	0.0923259
7	0xbe70ed85	-0.23528107
8	0xbea74033	-0.32666168
9	0xbe08a974	-0.13345891
10	0xbe574490	-0.21022248
11	0xbd41eda4	-0.047345772
12	0x3e92b0ed	0.2865061
13	0xbe295893	-0.16537695
14	0x3ed8d7d0	0.42352152
15	0xbda77025	-0.08175687
16	0x3d83a5cf	0.0642811
17	0x3bd0b57a	0.00636929
18	0xbe2e83cc	-0.17042464
19	0xbebc942b	-0.36831793
20	0xbe5e3a8e	-0.21702024
21	0x3ea6a472	0.32547337
22	0xbed3f637	-0.41398785
23	0xbe9363ef	-0.2878718
24	0x3e8ee65c	0.27910125
25	0xbd2178d6	-0.03942188
26	0xbe14d668	-0.14534914
27	0xbde573e3	-0.11203744
28	0xbe7c08ba	-0.24612704
29	0x3e83c78e	0.25738186
30	0xbd324372	-0.043521352
31	0xbd73dbaa	-0.05953566
32	0xbcbda97d	-0.023152107
33	0x3d0cfea4	0.03442253
34	0xbeba8e42	-0.3643666
35	0x3bb904a2	0.005646304
36	0x3e8a89b0	0.27058172
37	0xbec2821f	-0.379899
38	0x3e86f848	0.263613
39	0xbb719cc9	-0.0036867133
40	0xbe0eb8cf	-0.13937686
41	0xbe2f3a47	-0.17112075
42	0xbe916d42	-0.2840367
43	0x3b69df2e	0.0035686004
44	0xbe7ce199	-0.24695434
45	0xbe4ead53	-0.20183305
46	0x3f03de8b	0.5151145
47	0xbd784308	-0.0606108
48	0x3e7314cc	0.23738402
49	0x3e890bde	0.26766866
50	0x3d6d3ba0	0.05791819
51	0xbeac52c6	-0.336569
52	0xbeb46145	-0.3523046
53	0x3e305ec9	0.17223658
54	0xbdf520e8	-0.11969167
55	0xbcf201da	-0.029541899
56	0x3eb388f3	0.3506542
57	0x3d788f00	0.06068325
58	0xbd1a4f9c	-0.037673578
59	0xbdc300fa	-0.09521671
60	0xbecf3adc	-0.40474594
61	0x3ef6aea5	0.48180118
62	0x3e2887bf	0.16458033
63	0xbd76fc87	-0.060299423
64	0x3dbcb7ef	0.0921477
65	0x3d94ecd0	0.07271731
66	0xbd5e1f85	-0.054229278
67	0xbe4104d8	-0.18849504
68	0x3eee33c3	0.46523866
69	0xbe9ae148	-0.3025
70	0x3e91581f	0.28387544
71	0xbc9b89e9	-0.01898666
72	0xbdbbae42	-0.091640964
73	0xbeb23c71	-0.34811738
74	0xbdb7be0d	-0.08971796
75	0xbedd355a	-0.43204767
76	0xbcf2291a	-0.029560614
77	0xbe8b813b	-0.27247033
78	0x3e6006c3	0.2187758
79	0xbe232972	-0.15933779
80	0x3e46a1af	0.19397615
81	0xbdfae47b	-0.122506104
82	0x3bee2c33	0.0072684526
83	0xbedd9110	-0.43274736
84	0xbe3e78bb	-0.18600743
85	0x3e4fba8d	0.20286007
86	0xbe3ff64e	-0.18746302
87	0x3dccc8bb	0.09999224
88	0x3e029178	0.12750804
89	0x3cab1819	0.020885514
90	0xbd34bf97	-0.044128027
91	0xbe84e370	-0.2595477
92	0xbe5d6f1e	-0.21624419
93	0x3e458d54	0.19292194
94	0xbe436909	-0.19083036
95	0xbd8abe43	-0.06774571
96	0xbe00a4be	-0.12562844
97	0xbec826c7	-0.39092085
98	0xbe0bf8e8	-0.13669169
99	0xbe7cf3c2	-0.24702361
100	0xbde37f08	-0.11108214
101	0xbed11d14	-0.40842497
102	0xbdb97358	-0.09055203
103	0x3e6be9ee	0.23038456
104	0x3dc4039a	0.095709994
105	0x3e518678	0.20461452
106	0x3ca1a0ff	0.01973009
107	0xbe847179	-0.25867823
108	0xbd019099	-0.03163204
109	0xbe9b87b0	-0.3037696
110	0xbc016ca1	-0.007899434
111	0x3e8a590f	0.2702107
112	0x3e07b9b2	0.13254431
113	0xbd8e9b45	-0.06963209
114	0x3e793d76	0.24339852
115	0xbdf65f23	-0.12029865
116	0xbddf0833	-0.10890236
117	0xbd9ce0cb	-0.07660063
118	0xbeada6c0	-0.33916283
119	0xbe80480d	-0.2505497
120	0xbd69d565	-0.057088275
121	0x3e846f41	0.2586613
122	0xbec9e1ee	-0.39430183
123	0x3e0f1c22	0.13975576
124	0xbea55e67	-0.32298586
125	0xbd32dacf	-0.043665703
126	0x3d2a01a2	0.041505463
127	0x3e034161	0.12817909
128	0xbd574ab7	-0.052561488
129	0xbdbd91a8	-0.09256297
130	0xbe929c45	-0.2863485
131	0xbded7cc4	-0.11596063
132	0x3ea1c8b8	0.3159845
133	0xbea95496	-0.33072346
134	0x3dc712be	0.09720372
135	0x3e420c2e	0.18949959
136	0xbdab86f7	-0.08375352
137	0x3d8b7098	0.06808585
138	0xbe90322b	-0.28163275
139	0xbe26eaef	-0.16300558
140	0x3e378bc4	0.1792441
141	0xbdb5d36c	-0.08878216
142	0x3ea3d3b1	0.31997445
143	0x3e50dc11	0.20396449
144	0x3e8fd41f	0.28091523
145	0xbe842987	-0.25812933
146	0x3df6e3c5	0.12055162
147	0xbe8169cd	-0.25276032
148	0xbe76ba50	-0.2409451
149	0x3e6e493e	0.23270127
150	0xbe36119c	-0.17780155
151	0xbc1e8089	-0.0096742
152	0x3e020872	0.12698534
153	0xbd3ed0c5	-0.046585817
154	0xbec7356f	-0.38907954
155	0xbd8ef795	-0.06980816
156	0xbedfd7b8	-0.43719268
157	0x3eae89f8	0.34089637
158	0xbe915de8	-0.28391957
159	0xbe4d39a6	-0.20041522
160	0x3e5bc1a7	0.21460591
161	0xbe0adbf5	-0.1356047
162	0xbdaa1131	-0.0830406
163	0xbd65b701	-0.05608273
164	0x3db9f9de	0.090808615
165	0xbe26612b	-0.16248004
166	0x3e376926	0.17911205
167	0x3e4816f4	0.19540006
168	0xbebb55cc	-0.36588895
169	0x3d0feddc	0.03513895
170	0xbdc558b5	-0.0963606
171	0xbe42c057	-0.19018684
172	0xbdcef6b0	-0.10105646
173	0xbe911c44	-0.28341877
174	0x3d4fc0e0	0.05072105
175	0xbc4268b7	-0.011865786
176	0x3ec4853e	0.38382906
177	0xbe019240	-0.12653446
178	0x3e1b69aa	0.15177026
179	0xbdf8c2e1	-0.12146545
180	0xbd859da4	-0.06524208
181	0x3e97a311	0.29616597
182	0xbda980cd	-0.0827652
183	0x3cb8e7bf	0.022571443
184	0x3da77855	0.081772484
185	0xbe375578	-0.17903697
186	0xbcacf4c0	-0.0211128
187	0xbe9a340f	-0.30117843
188	0xbe85b8f5	-0.26117674
189	0x3ed3fc84	0.41403592
190	0xbf02ada1	-0.51046187
191	0xbdb8c15c	-0.090212554
192	0x3d7b7a0c	0.06139569
193	0x3e9eaa58	0.30989337
194	0xbe039ff4	-0.12853986
195	0x3e17636f	0.14784025
196	0x3e6b0c32	0.22953871
197	0xbeb982a1	-0.36232474
198	0x3d8c56a9	0.068524666
199	0x3ec4b994	0.38422835
200	0xbd8ba45b	-0.06818458
201	0xbd08d330	-0.03340453
202	0xbe170df1	-0.14751412
203	0xbe9a499b	-0.30134282
204	0xbe137e41	-0.14403631
205	0xbe497d2d	-0.19676657
206	0xbe5e2f80	-0.21697807
207	0x3e719bec	0.23594636
208	0xbe5e3a77	-0.2170199
209	0xbdb754e1	-0.08951736
210	0xbebd13f0	-0.36929274
211	0x3e054928	0.13016188
212	0xbddc7a8b	-0.10765561
213	0x3e4ba3af	0.19886659
214	0xbc481db5	-0.012214114
215	0xbebe9538	-0.3722322
216	0x3eda9032	0.42688137
217	0x3d20d256	0.039263092
218	0x3e27c1b7	0.1638249
219	0xbe75094b	-0.23929326
220	0xbee19558	-0.44059253
221	0x3e13df35	0.14440615
222	0x3d989f1b	0.07452222
223	0x3ca92f99	0.02065258
224	0x3cff77fc	0.031185143
225	0xbe4e1ef5	-0.20128997
226	0xbf042487	-0.51618236
227	0xbe2d0f94	-0.16900474
228	0x3f1c6ad6	0.6110052
229	0xbe862734	-0.26201785
230	0xbd1919bf	-0.03737807
231	0xbe467fe9	-0.19384731
232	0xbdbaabc0	-0.0911479
233	0xbe03d314	-0.12873489
234	0xbe5d79bf	-0.21628474
235	0xbe3879ea	-0.18015257
236	0xbbd9ddf0	-0.0066487715
237	0xbe184b7f	-0.1487255
238	0x3e1a1f45	0.15050991
239	0xbe13bb99	-0.14427032
240	0xbc441b5b	-0.011969413
241	0x3d877fc3	0.066161655
242	0xbe5df92d	-0.21677084
243	0xbd025c4c	-0.031826302
244	0xbe0b58ec	-0.1360814
245	0x3dba2cf3	0.09090605
246	0xbf012c1d	-0.50457937
247	0xbf08f0e4	-0.5349257
248	0xbc96a436	-0.018388849
249	0xbea4ec92	-0.3221174
250	0xbe5ca29a	-0.21546403
251	0xbf38fe9e	-0.72263515
252	0xbebf7a46	-0.37397975
253	0x3e7c552b	0.24641864
254	0x3e3d3c93	0.18480138
255	0x3d5e60e3	0.054291617

encoder.lstm.bias_ih_l0 f4 [128]
0	0x3e9f0987	0.31061956
1	0x3e1c607e	0.15271184
2	0x3eb01cd7	0.34397003
3	0x3d825c02	0.06365205
4	0x3e1b5933	0.15170746
5	0x3ee19bb4	0.44064105
6	0x3e6a4146	0.22876462
7	0x3e9fe570	0.31229734
8	0x3ea00ac9	0.31258228
9	0x3e8eca79	0.2788885
10	0xbbd2b69a	-0.006430459
11	0x3d7f3ee5	0.06231584
12	0x3d7e2320	0.062045217
13	0x3ef003d7	0.4687793
14	0x3e82775c	0.2548169
15	0x3d64d244	0.055864587
16	0x3e95708d	0.29187432
17	0x3e87fc80	0.2655983
18	0x3ec6668e	0.38750118
19	0xb95a13d7	-0.00020797491
20	0x3e494388	0.19654667
21	0x3d58103f	0.05274987
22	0x3eae9f41	0.34105876
23	0x3e96046b	0.29300246
24	0x3e2f68af	0.17129777
25	0x3e285b53	0.16441087
26	0x3e8c4dbd	0.2740306
27	0x3e5d97a4	0.21639878
28	0x3ee7da0f	0.45283553
29	0x3ea6afbb	0.32555947
30	0xbd42ea3b	-0.04758666
31	0x3db849e5	0.08998469
32	0x3e5ce1ea	0.21570554
33	0xbdbdd2bd	-0.09268711
34	0x3e5e2886	0.21695146
35	0x3d2d6362	0.042331107
36	0xbd504a2e	-0.050851993
37	0x3eb0bc06	0.3451845
38	0x3e2ce4eb	0.168842
39	0x3e03f04c	0.12884635
40	0x3dd3598d	0.10319815
41	0x3e212210	0.1573565
42	0x3db2266f	0.08698737
43	0x3e64d8c5	0.22348316
44	0x3e80a3ca	0.2512496
45	0x3de29418	0.11063403
46	0x3e214dcb	0.15752332
47	0x3e4e2e02	0.20134738
48	0x3e9b0219	0.30275038
49	0x3d33caef	0.043894704
50	0x3e6f754d	0.2338459
51	0x3e2d0743	0.16897301
52	0x3e09e97f	0.13467978
53	0x3d20b4c2	0.039234884
54	0x3dfe240f	0.124092214
55	0x3e5707b9	0.2099904
56	0x3e63b880	0.2223835
57	0x3e10c674	0.14138204
58	0x3d5ad3eb	0.053424757
59	0x3b5347a1	0.003223874
60	0x3ca3f0ae	0.020012226
61	0x3eb01d18	0.34397197
62	0x3da7fa4d	0.08202038
63	0xbd869def	-0.06573092
64	0xbd7c665b	-0.06162105
65	0x3c94da41	0.018170478
66	0xbd30991e	-0.043114774
67	0xbe03a277	-0.12854944
68	0x3e181943	0.14853387
69	0xbddb5799	-0.10710067
70	0x3d892755	0.06696955
71	0x3de2927b	0.11063095
72	0xbdfd06ff	-0.1235485
73	0xbca72e2b	-0.020407757
74	0x3c55b66a	0.013043979
75	0xbe758195	-0.23975213
76	0xbe2dbbe7	-0.1696621
77	0xbe2b779a	-0.16744843
78	0xbcdc0564	-0.02685804
79	0x3e3e0cae	0.18559524
80	0x3d519dcb	0.051175874
81	0xbe068bae	-0.13139221
82	0x3daa65ba	0.08320184
83	0xbdbfc176	-0.093630716
84	0xbe954c4e	-0.29159778
85	0x3e7c3aea	0.24631849
86	0xbbf213da	-0.0073876204
87	0xbc3943c7	-0.011307663
88	0x3e307b93	0.1723464
89	0xbdc407cb	-0.09571799
90	0x3d34a7e0	0.04410541
91	0xbcef02ed	-0.0291762
92	0xbe0cfcea	-0.13768354
93	0x3e3f6a88	0.18692982
94	0xbe124a08	-0.14286053
95	0xbd66be7e	-0.05633401
96	0x3e21d08a	0.15802208
97	0x3ea3d5b1	0.3199897
98	0x3e5fb10d	0.21844883
99	0x3e8bb81c	0.27288902
100	0x3e90d993	0.28290996
101	0x3e583d9c	0.21117252
102	0x3e2eea1a	0.1708149
103	0x3e85c113	0.26123866
104	0x3ee34fdb	0.44396862
105	0x3e1b0956	0.1514028
106	0x3d5cc83c	0.053901896
107	0x3e91e63c	0.28495967
108	0x3e7de95c	0.24796051
109	0x3e34c1a5	0.17651995
110	0xbd202471	-0.039097253
111	0x3e6afa34	0.22947007
112	0x3e5b6034	0.21423417
113	0x3dde4699	0.10853309
114	0x3e927179	0.28602198
115	0x3d9060e8	0.070497334
116	0x3e3221ca	0.17395702
117	0x3d370191	0.04467923
118	0x3e9f99e1	0.31172088
119	0xbc9bcace	-0.019017603
120	0x3d8798d5	0.06620947
121	0x3ec111fd	0.37709036
122	0x3e4c9fac	0.19982785
123	0x3e0fcf83	0.14044003
124	0x3e3bcfaf	0.18340944
125	0x3d2aaab5	0.041666705
126	0xbcad5fa5	-0.02116377
127	0x3da6de24	0.08147839

encoder.lstm.bias_hh_l0 f4 [128]
0	0x3da1fa32	0.07909049
1	0x3e0d8342	0.13819602
2	0x3dc47209	0.09592063
3	0x3e62f63d	0.22164245
4	0x3e4c1741	0.19930746
5	0x3e56b0cd	0.20965882
6	0x3de32364	0.110907346
7	0x3e542e83	0.20720868
8	0x3dc0a5cb	0.094066225
9	0x3e969813	0.29412898
10	0x3c2364f0	0.009972796
11	0x3e80286a	0.25030833
12	0x3da9e993	0.08296504
13	0x3f125b8e	0.5717095
14	0x3d8dc15e	0.069216475
15	0x3e793d17	0.2433971
16	0x3d7a0bd5	0.06104644
17	0x3ea7a0e5	0.3273994
18	0x3e18f23e	0.14936158
19	0xbdc63df3	-0.096797846
20	0x3d76d9cf	0.060266312
21	0x3e231640	0.15926456
22	0x3e9e78f1	0.30951646
23	0x3dedb601	0.1160698
24	0x3e3548db	0.17703573
25	0x3eb115be	0.345869
26	0x3e0d38e5	0.13791235
27	0x3d08c590	0.033391535
28	0x3e6a8c64	0.22905117
29	0x3eec57f6	0.4616086
30	0x3c8c1e07	0.017104162
31	0x3e18d890	0.14926362
32	0x3dcc5bc6	0.09978442
33	0xbe073f91	-0.13207842
34	0xbd98d155	-0.07461802
35	0x3cb839d0	0.022488505
36	0x3e0972cb	0.13422696
37	0x3eb7def3	0.35912284
38	0x3db69617	0.08915346
39	0x3e9e5e2a	0.30931216
40	0x3da26534	0.07929459
41	0x3e93811d	0.28809443
42	0x3d9bcf6a	0.076079205
43	0x3dba93fd	0.09110258
44	0x3e4e72c8	0.20160973
45	0x3eabb2fd	0.33534995
46	0x3e035b3a	0.12827769
47	0x3e59c66d	0.212671
48	0x3e74593e	0.23862168
49	0x3d82926f	0.06375586
50	0x3dae8bc1	0.0852275
51	0xbda3cf93	-0.07998576
52	0x3deef683	0.11668112
53	0x3dc7f651	0.09763778
54	0xbd93dadc	-0.072194785
55	0x3e374c2a	0.17900148
56	0x3e47a5d9	0.1949686
57	0x3e7f4704	0.24929434
58	0x3e181623	0.14852194
59	0x3e8af982	0.27143484
60	0x3dfd1313	0.12357154
61	0x3e4ada95	0.19809945
62	0x3e8b6c53	0.27231082
63	0x3e1f2e68	0.15545046
64	0x3dac19cd	0.084033586
65	0xbe52ab47	-0.2057315
66	0xbe3de955	-0.1854604
67	0xbddf0b92	-0.10890879
68	0x3d3711f7	0.044694867
69	0xbe2ac102	-0.16675189
70	0x3e2235cc	0.15840834
71	0x3d819888	0.06327921
72	0x39f788af	0.00047213348
73	0xbe096c1f	-0.13420151
74	0xbe23a733	-0.1598175
75	0xbe516ac0	-0.20450878
76	0x3d660d36	0.056164943
77	0xbd815725	-0.063154496
78	0x3c211670	0.00983201
79	0xbd9b2cd7	-0.07576912
80	0x3e7dce96	0.24785838
81	0xbe15b425	-0.14619501
82	0xbbb21357	-0.0054344344
83	0xbd4298dc	-0.04750906
84	0xbe9779db	-0.29585156
85	0x3cfa4247	0.030549182
86	0xbe00335a	-0.12519589
87	0xbe2afc4e	-0.16697809
88	0x3e099a66	0.13437805
89	0xbd374aaf	-0.04474896
90	0xbe2c0219	-0.16797675
91	0xbdc8ba2e	-0.09801136
92	0xbe00694a	-0.12540165
93	0x3e13d4a7	0.14436589
94	0xbe6080be	-0.21924111
95	0xbe0a279f	-0.13491677
96	0x3e5701fa	0.20996848
97	0x3e903446	0.2816488
98	0x3e6c205c	0.23059219
99	0x3e0cb913	0.13742475
100	0x3ebc2603	0.3674775
101	0x3e035a9f	0.12827538
102	0x3e00448c	0.12526149
103	0xbd03f3b7	-0.032214846
104	0x3ea1cb89	0.31600598
105	0x3e55c4b0	0.20875812
106	0x3deb226a	0.11481173
107	0x3e34d3ac	0.17658871
108	0x3e139b95	0.14414819
109	0x3ea7fff5	0.32812467
110	0x3df21faa	0.11822446
111	0x3da4f9c5	0.08055452
112	0x3d72bf4c	0.059264466
113	0x3ea9c106	0.33155078
114	0x3db6971f	0.08915543
115	0x3e637f8d	0.22216626
116	0x3dad9736	0.08476107
117	0x3dffc09f	0.124879114
118	0x3e994a29	0.29939392
119	0x3e4943b9	0.1965474
120	0x3be0b3a7	0.0068573537
121	0x3e34733a	0.1762208
122	0x3d9ac7e1	0.07557655
123	0x3e826744	0.2546941
124	0x3e71f200	0.23627472
125	0x3da7e0a0	0.08197141
126	0x3e68c605	0.22731788
127	0x3e528b58	0.20560968

policy.net.0.weight f4 [128, 32]
0	0xbebc40f0	-0.36768293
1	0x3ac0d5a3	0.0014712106
2	0xbe046d6f	-0.1293237
3	0xbecb3b49	-0.39693668
4	0xbc27d4b0	-0.01024358
5	0xbe476817	-0.19473301
6	0xbc2b3dcc	-0.010451745
7	0x3ec8a81f	0.39190766
8	0x3f15310e	0.58277977
9	0xbe72f8b7	-0.2372769
10	0xbd8998a2	-0.067185655
11	0xbe5910c4	-0.21197802
12	0xbedfe538	-0.43729568
13	0x3dc86220	0.09784341
14	0xbcba01ea	-0.02270599
15	0x3e30ecfc	0.17277902
16	0xbd76f931	-0.06029624
17	0xbe27ae5a	-0.16375104
18	0xbe85645d	-0.26053134
19	0x3e72578a	0.23666206
20	0x3cc42eb4	0.023948051
21	0x3d8a953a	0.06766744
22	0xbddcafdc	-0.1077573
23	0xbd96d6c1	-0.0736518
24	0x3e18e66e	0.14931652
25	0x3ea33208	0.31874108
26	0xbe20dd1b	-0.15709345
27	0xbebb3fa7	-0.36572
28	0xbe2bf5a4	-0.16792923
29	0xbd0b8cb8	-0.034069747
30	0xbe0ed15d	-0.13947053
31	0xbe82fa88	-0.25581765
32	0xba9047b6	-0.00110077
33	0xbdbb3489	-0.0914088
34	0xbddc2eb2	-0.10751094
35	0xbd3aec13	-0.045635294
36	0xbe0965be	-0.13417718
37	0xbda2720a	-0.079319075
38	0xbebb2708	-0.36553216
39	0x3efcc620	0.49369907
40	0x3f08601a	0.5327164
41	0xbe0b1e5a	-0.13585797
42	0xbcfa6f4a	-0.030570645
43	0x3d535cfc	0.05160235
44	0xbe8c245e	-0.27371496
45	0xbdca231e	-0.09869979
46	0xbdd8d491	-0.10587419
47	0x3d60370b	0.054739993
48	0x3d8fde7e	0.07024859
49	0xbda44221	-0.080204256
50	0xbc8a793a	-0.016903508
51	0x3dcd03dc	0.10010502
52	0xbea1ee05	-0.31626907
53	0xbd7364b4	-0.05942221
54	0xbd0b954d	-0.03407793
55	0x3d20a53a	0.039220072
56	0x3e14f583	0.1454678
57	0x3d30133b	0.04298709
58	0x3e701ece	0.23449251
59	0x3caa82e8	0.020814374
60	0xbe286af4	-0.1644705
61	0x3e0f9425	0.14021356
62	0x3e8e6ddf	0.278182
63	0xbe6b126e	-0.22956249
64	0xbe7e326b	-0.2482392
65	0xbe040c60	-0.12895346
66	0xbd93695f	-0.07197832
67	0xbe5a9fde	-0.21350047
68	0x3cbec3fc	0.023286812
69	0xbe313ba2	-0.17307904
70	0xbd233661	-0.03984678
71	0x3ebd7d35	0.37009588
72	0x3f0bb651	0.5457507
73	0xbdc87e05	-0.09789661
74	0x3e34e039	0.17663659
75	0x3e130fe3	0.14361529
76	0xbec5cc2d	-0.38632336
77	0xbd370b39	-0.044688437
78	0xbe6dc0b0	-0.23218036
79	0x3e29a2cd	0.1656601
80	0xbdf97909	-0.12181289
81	0x3cf8f3e4	0.030389734
82	0xbe314c73	-0.1731432
83	0x3efe06ee	0.49614662
84	0xbd831aa6	-0.06401567
85	0x3e2f3c81	0.17112924
86	0xbde85581	-0.113444336
87	0xbe615b65	-0.2200752
88	0xbdf08312	-0.1174375
89	0x3e7b2b1d	0.24528165
90	0xbd439d8b	-0.047757667
91	0x3d65a80d	0.05606847
92	0xbdea8c94	-0.114525944
93	0xbd1b2999	-0.037881467
94	0x3dad2e8a	0.08456142
95	0xbeb60fd5	-0.35558954
96	0x3e4b29ca	0.1984016
97	0xbec284a4	-0.37991822
98	0xbdcc057b	-0.09961983
99	0x3dc228fd	0.09480474
100	0x3e248387	0.16065799
101	0x3cc3d6a9	0.023906069
102	0xbe54d30d	-0.20783634
103	0xbe1a38cb	-0.15060727
104	0x3e521e90	0.20519471
105	0xbdaed917	-0.085375
106	0x3e90d42d	0.28286877
107	0x3d8621e5	0.065494336
108	0xbf1e9537	-0.61946434
109	0x3c906d6f	0.017630307
110	0x3e33cd29	0.17558731
111	0xbe462823	-0.19351248
112	0xbea7937a	-0.32729703
113	0x3d5742ab	0.052553814
114	0xbd0db8cd	-0.034600068
115	0x3e801253	0.2501398
116	0x3da6c033	0.08142128
117	0xbe504e98	-0.20342481
118	0x3d4df2bb	0.050280314
119	0xbe551909	-0.20810331
120	0x3cc0e5d9	0.0235471
121	0xbe173f27	-0.14770184
122	0x3eb7ca18	0.35896373
123	0x3d97d4ad	0.074136116
124	0x3dd55325	0.10416249
125	0xbca9219e	-0.020645913
126	0x3e94d8ab	0.29071555
127	0xbda6dace	-0.081472024
128	0x3c5b61b0	0.01338999
129	0x3dc462c7	0.09589153
130	0xbdf6a8fd	-0.12043951
131	0xbe918940	-0.28425026
132	0xbd3c03d2	-0.04590208
133	0x3e47e322	0.19520238
134	0xbd8677a1	-0.06565786
135	0xbea50fc1	-0.32238582
136	0xbe9e2946	-0.30890864
137	0xbd4c6b7c	-0.049907193
138	0x3f0ba178	0.54543257
139	0xbea15b9a	-0.315152
140	0xbf0d1a35	-0.55118114
141	0xbe913ca1	-0.2836657
142	0x3cbe7e36	0.023253541
143	0xbd2cca64	-0.042185202
144	0xbe708bd7	-0.23490845
145	0xbe848b53	-0.25887546
146	0x3d618548	0.055058748
147	0x3c9aef16	0.018912833
148	0x3c17d4ed	0.009267074
149	0xbf100566	-0.5625824
150	0xbcf222eb	-0.029557666
151	0x3dcd9e32	0.10039939
152	0xbe160770	-0.14651275
153	0xbe1e2f5e	-0.15447757
154	0x3e93388a	0.28754073
155	0xbdf2201a	-0.11822529
156	0x3e579ff1	0.21057107
157	0xbeee48ee	-0.46540016
158	0x3e5e6b56	0.21720633
159	0xbcb2b5a5	-0.02181513
160	0x3dbc7d88	0.09203631
161	0xbe995b8a	-0.2995265
162	0xbe6f9680	-0.23397255
163	0x3e6f2365	0.23353346
164	0x3e64976f	0.22323392
165	0xbeacc2bf	-0.3374233
166	0x3ea24775	0.31695142
167	0xbe5e7a5a	-0.21726361
168	0xbe3a2c56	-0.18180975
169	0x3ccc4707	0.024936212
170	0xbd2fbd02	-0.04290486
171	0x3e2d1d8d	0.16905804
172	0x3ed0da10	0.40791368
173	0xbe65d8ce	-0.22445986
174	0x3df3812a	0.118898705
175	0xbe0bed2a	-0.1366469
176	0x3e01c49e	0.1267266
177	0x3e670820	0.22561693
178	0xbda4cf68	-0.08047372
179	0xbd242901	-0.040078167
180	0xbd75ad1a	-0.059979536
181	0xbe3d8788	-0.18508732
182	0xbb9a3748	-0.004706297
183	0xbd4ae36b	-0.04953329
184	0xbdc4fe6e	-0.09618841
185	0xbe65f0ca	-0.22455135
186	0xbdf2f960	-0.11863971
187	0x3e8f37b8	0.27972198
188	0xbdc7ff9b	-0.0976555
189	0xbd9a6c82	-0.075402275
190	0xbe83c9b6	-0.2573983
191	0x3eaca1f8	0.33717322
192	0xbd76978f	-0.06020313
193	0xbc9da3b6	-0.019243103
194	0x3e8f204a	0.27954322
195	0xbe72256d	-0.2364709
196	0x3e123d30	0.14281154
197	0xbe78f10f	-0.24310707
198	0x3dc3ed6b	0.09566768
199	0x3d977f5f	0.07397341
200	0xbeb5211f	-0.35376832
201	0xbd9410ae	-0.07229744
202	0x3eb6fff4	0.35742152
203	0x3e96a748	0.294245
204	0xbe3c5c20	-0.18394518
205	0xbd571169	-0.052506838
206	0xbdd8d0d0	-0.10586703
207	0x3c5aa2b3	0.013344455
208	0xbe455382	-0.19270137
209	0xbdb1c6a1	-0.086804636
210	0xbd549e3c	-0.051908717
211	0xbe0f276b	-0.1397988
212	0xbe006430	-0.12538218
213	0xbeb952ae	-0.36195892
214	0x3e500936	0.20316014
215	0x3e9f9a55	0.31172433
216	0xbd07ca5d	-0.033151973
217	0x3e715d3a	0.2357072
218	0xbda23810	-0.07920849
219	0xbd8303a6	-0.0639718
220	0x3dbd983f	0.09257554
221	0xbed59293	-0.4171339
222	0x3da6cbd2	0.081443444
223	0xbd73726e	-0.0594353
224	0x3e062dd4	0.1310342
225	0x3e1c5e32	0.15270308
226	0x3dae3e0e	0.0850793
227	0x3de8a5fd	0.11359785
228	0xbe3e63e6	-0.18592796
229	0xbcf09722	-0.02936894
230	0xbd9694f6	-0.07352631
231	0xbda8d445	-0.08243612
232	0x3e00671a	0.1253933
233	0xbdaf2256	-0.08551471
234	0xbde40c70	-0.11135185
235	0x3c0ce304	0.008599047
236	0xbe311885	-0.1729451
237	0x3d183142	0.03715635
238	0x3caa3c55	0.020780722
239	0x3d443fed	0.047912527
240	0xb94fa440	-0.00019802246
241	0x3d1cbf30	0.038268268
242	0x3de8b34e	0.11362325
243	0xbd0d73aa	-0.034534134
244	0x3e33dac1	0.17563917
245	0xbe637280	-0.22211647
246	0x3c819ba8	0.015821293
247	0xbcb4b5b9	-0.022059308
248	0xbd0a7747	-0.033805158
249	0x3d70b944	0.058770433
250	0xbddc8302	-0.10767175
251	0x3e32d61c	0.17464489
252	0x3c47cbec	0.012194615
253	0x3ba3219f	0.004978373
254	0xbaabee28	-0.0013117241
255	0x3e04b7a8	0.12960684

policy.net.0.bias f4 [128]
0	0x3e475621	0.1946645
1	0x3e254266	0.1613861
2	0x3d71c039	0.05902121
3	0x3db8a2da	0.090154365
4	0xbd72f2c1	-0.05931354
5	0x3d763a49	0.06011418
6	0xbdbc8554	-0.09205118
7	0xbe7f9176	-0.24957833
8	0x3dbc39b0	0.091906905
9	0x3db5a7a5	0.08869866
10	0x3e517228	0.20453703
11	0xbc38c5c0	-0.011277616
12	0x3e4fd04d	0.20294304
13	0x3d63ce6e	0.05561679
14	0x3d33f90a	0.043938674
15	0x3d492227	0.049104836
16	0x3b124d6a	0.0022323974
17	0x3e1e3bad	0.15452452
18	0x3dd38520	0.10328126
19	0x3c9e7a65	0.019345472
20	0xbd29f512	-0.041493483
21	0x3bb508c7	0.005524728
22	0x3e2e0615	0.16994508
23	0xbd0ad219	-0.03389177
24	0xbd87f09b	-0.06637689
25	0xbe082108	-0.1329385
26	0xbe016294	-0.12635261
27	0x3cfeac48	0.03108801
28	0x3db22421	0.08698297
29	0x3d988a96	0.07448308
30	0x3e2387a0	0.15969706
31	0x3d9c14b9	0.0762114
32	0xbe2bf5d4	-0.16792995
33	0x3bc4cb1a	0.006005657
34	0x3dd093d8	0.10184449
35	0x3e037214	0.12836486
36	0xbba937b3	-0.0051641106
37	0xbb089475	-0.002084044
38	0x3e304381	0.1721325
39	0x3e0bdc2f	0.13658212
40	0x3cdea135	0.027176479
41	0x3e243603	0.16036229
42	0x3e11051f	0.1416211
43	0xbce3c958	-0.02780597
44	0x3dcb2b81	0.09920407
45	0x3e576209	0.21033491
46	0x3d0b967a	0.034079053
47	0xbcf4c74f	-0.029880194
48	0x3e665393	0.22492819
49	0x3d27a0c7	0.040924814
50	0xbe7609d6	-0.2402719
51	0x3d013c00	0.03155136
52	0x3df894e5	0.121377744
53	0xbe57ba6e	-0.21067211
54	0x3d710cd3	0.05885012
55	0x3d90d36e	0.07071577
56	0xbdf13b2e	-0.11778866
57	0x3b4e3b0c	0.00314683
58	0x3dfdf372	0.12399949
59	0xbd98bb0e	-0.07457553
60	0x3e3124e9	0.17299236
61	0x3e71ed01	0.23625566
62	0x3e4fc224	0.20288903
63	0xbe1530a8	-0.14569342
64	0x3b8d86ed	0.004319063
65	0xbdffdd2f	-0.12493359
66	0x3e165d26	0.14683971
67	0xbdad4cd6	-0.08461921
68	0xbdb4f921	-0.0883658
69	0x3db0d376	0.08634083
70	0xbe62c247	-0.22144423
71	0x3d01b424	0.031665936
72	0x3da1a0c9	0.078919955
73	0x3e5b6003	0.21423344
74	0x3deedcae	0.11663185
75	0xbe48df75	-0.19616492
76	0x3d1e29a3	0.038613927
77	0x3e1250b2	0.14288595
78	0x3df2839f	0.11841511
79	0x3e55cc3b	0.20878689
80	0x3dbd865d	0.092541434
81	0x3dd423f8	0.10358423
82	0x3e0d3230	0.13788676
83	0x3c8ae0d4	0.01695291
84	0x3de6999e	0.11259769
85	0xbd176d90	-0.03696972
86	0xbcd23172	-0.025658343
87	0xbe065ae1	-0.13120605
88	0x3dda395b	0.10655471
89	0xbbaa55b4	-0.005198205
90	0xbc514254	-0.0127721615
91	0x3ea547a8	0.32281232
92	0x3e2f1465	0.17097624
93	0x3dead699	0.114667125
94	0x3e8a8f56	0.27062482
95	0xbd4da513	-0.050206255
96	0x3e6ad774	0.22933751
97	0x3db0e499	0.086373515
98	0x3d940d53	0.07229104
99	0x3e13e0fc	0.14441293
100	0x3e1c7126	0.15277538
101	0xbd705533	-0.058675002
102	0x3e4cd5fe	0.20003507
103	0xbce88238	-0.028382406
104	0x3d2a5567	0.041585352
105	0x3e1efb72	0.15525606
106	0x3dafa4b3	0.08576336
107	0xbba7ff45	-0.005126866
108	0xbb87a8c9	-0.004139994
109	0x3e17cf72	0.14825228
110	0xbdb08eeb	-0.086210094
111	0x3d4c5950	0.049889863
112	0x3e3cb0c0	0.184268
113	0xbd1c6ac7	-0.03818777
114	0x3e20e819	0.15713538
115	0x3e06cfc0	0.13165188
116	0xbcb138c2	-0.02163351
117	0xbd6e96af	-0.05824917
118	0x3db8f11c	0.09030363
119	0x3e413511	0.188679
120	0x3e8e7975	0.2782704
121	0x3e7bf60c	0.24605578
122	0xbbcb0c55	-0.0061965385
123	0x3e3e06b9	0.18557252
124	0x3e317148	0.1732837
125	0x3e497454	0.19673282
126	0x3e151162	0.14557412
127	0xbdc0ee60	-0.094204664

policy.net.2.weight f4 [5, 128]
0	0xbde5a6b5	-0.112134375
1	0xbdd925fb	-0.10602947
2	0xbe397676	-0.18111596
3	0xbc1c1393	-0.009526151
4	0xbff5e553	-1.9210609
5	0xbf20a0be	-0.62745273
6	0xbf1ae1a8	-0.60500574
7	0x3cb95773	0.022624707
8	0xbe12f28f	-0.14350341
9	0xbdd07f3c	-0.10180518
10	0xbd50aa76	-0.050943814
11	0xbea67130	-0.3250823
12	0xbe27b8ca	-0.16379085
13	0xbe42ed3a	-0.19035807
14	0xbd7544d7	-0.059880104
15	0xbe3979c1	-0.18112852
16	0xbd9a9f9d	-0.07549975
17	0xbdde16b5	-0.10844175
18	0xbdcf15de	-0.10111593
19	0xbf0bfb0c	-0.5467994
20	0xbf583b8f	-0.8446588
21	0xbdf8a274	-0.121403605
22	0xbbce696f	-0.0062991898
23	0xbe6e4968	-0.2327019
24	0xbf6b59c6	-0.9193386
25	0xbf4d0df0	-0.8009939
26	0xbe95214c	-0.29126966
27	0xbe025fef	-0.12731908
28	0xbe4a9c3e	-0.19786164
29	0xbe35029a	-0.17676774
30	0xbdc2fc7c	-0.09520814
31	0xbe5ef387	-0.21772586
32	0xbec8234c	-0.3908943
33	0xbe16ca77	-0.14725672
34	0xbe2d7adf	-0.16941403
35	0xbdd8fa78	-0.10594648
36	0xbe37938e	-0.17927381
37	0xbfeb7733	-1.8395752
38	0xbde7f0f8	-0.11325258
39	0xbea93ac7	-0.33052656
40	0xbe81cfab	-0.2535375
41	0xbcc19d05	-0.023634443
42	0xbd00777d	-0.031363953
43	0xbe57fed7	-0.21093307
44	0xbe99f47a	-0.30069333
45	0xbab80765	-0.001404029
46	0xbe1482be	-0.14502999
47	0xbe4afc1d	-0.19822736
48	0xbd93bc15	-0.07213608
49	0xbea49353	-0.3214365
50	0xbe60d514	-0.21956283
51	0xbe710ac0	-0.23539257
52	0xbe039605	-0.12850197
53	0xbd002fca	-0.031295575
54	0xbdf71bd8	-0.12065858
55	0xbe64c4e8	-0.22340739
56	0xbf6363a9	-0.88823944
57	0xbed7e075	-0.42163435
58	0xbdd4e4db	-0.10395213
59	0xbf80e666	-1.0070312
60	0xbd62e974	-0.05539842
61	0xbe237168	-0.1596123
62	0xbdea66d2	-0.11445393
63	0xbfc8b6ed	-1.5680825
64	0xbfc27a67	-1.5193604
65	0xbf917ab8	-1.1365576
66	0xbe0f255b	-0.13979094
67	0xbfee2e4c	-1.8607879
68	0xbf3f9ede	-0.7485179
69	0xbb0aace9	-0.0021160191
70	0xbf1a8288	-0.60355425
71	0xc003dbda	-2.0602937
72	0xbd4d3ca1	-0.05010665
73	0xbe2c2bee	-0.16813633
74	0xbeb41f3d	-0.35180083
75	0xbd52172c	-0.05129163
76	0xbe788a9f	-0.2427163
77	0xbe1af041	-0.15130712
78	0xbdb729b1	-0.08943499
79	0xbdcb044e	-0.099129304
80	0xbeb52d46	-0.35386103
81	0xbdf6ed76	-0.12057011
82	0xbe34b4bc	-0.1764707
83	0x3c4503cb	0.01202483
84	0xbe39fec6	-0.18163595
85	0xbda5ff11	-0.08105291
86	0xbeffd0e3	-0.49964055
87	0xbfd315d3	-1.6491035
88	0xbe1b7a49	-0.15183367
89	0xbe5623dc	-0.20912117
90	0xbe3ef3a4	-0.18647629
91	0x3bad791f	0.00529398
92	0xbc5ff0aa	-0.013668219
93	0xbf12ea1d	-0.5738848
94	0xbe572459	-0.2100996
95	0xbe4db3f3	-0.20088176
96	0xbe0b7011	-0.13616969
97	0xbe3ef563	-0.18648295
98	0xbe99cdd8	-0.3003986
99	0xbe3e1364	-0.18562084
100	0xbe3611e3	-0.1778026
101	0xbe297390	-0.1654799
102	0xbd3623a1	-0.044467572
103	0xbec0afdd	-0.37634173
104	0xbd92c5b8	-0.07166618
105	0xbd2d8548	-0.042363435
106	0xbe40e816	-0.18838534
107	0xbe92e788	-0.2869227
108	0xbf437c05	-0.76361114
109	0xbde369ba	-0.1110415
110	0xbe7762db	-0.24158804
111	0xbe33cbcc	-0.17558211
112	0xbe1fb48e	-0.1559622
113	0xbe9d21b9	-0.3068979
114	0xbe078fba	-0.13238421
115	0xbe487d74	-0.19579107
116	0xbf09e223	-0.5386068
117	0xbedff85f	-0.4374418
118	0xbf0a1103	-0.5393221
119	0xbd485bff	-0.04891586
120	0xbe32b07a	-0.17450133
121	0xbe39ff10	-0.18163705
122	0xbe5a9efe	-0.21349713
123	0xbdf358e3	-0.11882188
124	0xbdb11ece	-0.08648454
125	0xbd5a5524	-0.053303853
126	0xbe2ef934	-0.17087251
127	0xbf1fd506	-0.6243442
128	0xbeaca1e0	-0.3371725
129	0xbdc17926	-0.09446935
130	0x3ca32e50	0.019919544
131	0xbe430cad	-0.19047804
132	0xbf091353	-0.5354511
133	0x3ebd255b	0.36942562
134	0x3e0bb298	0.13642347
135	0x3d796f48	0.06089714
136	0x3e48c879	0.19607724
137	0x3ed37d78	0.41306663
138	0x3d148a80	0.036264896
139	0x3c826b7e	0.015920397
140	0xbcc48c34	-0.023992635
141	0x3ea8dbc2	0.32980162
142	0xbe300dd6	-0.17192778
143	0x3e9ae5e0	0.30253506
144	0x3e5add0d	0.21373387
145	0x3e49b778	0.19698894
146	0xbd9e51a1	-0.07730413
147	0xbe548d7a	-0.20757094
148	0x3e39c3af	0.18141054
149	0x3e41b9a8	0.18918478
150	0x3e84bd57	0.25925705
151	0x3dbeb760	0.0931232
152	0x3f33c0e0	0.7021618
153	0x3d492719	0.049109552
154	0xbb3af714	-0.0028528618
155	0xbdd8093c	-0.10548636
156	0x3c1a550b	0.00941969
157	0x3e1309c7	0.14359199
158	0x3e3e5351	0.1858647
159	0x3e72f768	0.2372719
160	0x3f17f838	0.59363127
161	0xbe4639f1	-0.1935804
162	0xbe9abe1d	-0.3022317
163	0x3e016a35	0.12638171
164	0x3d635222	0.05549825
165	0xbead343b	-0.3382891
166	0x3de54ff2	0.11196889
167	0xbea0d85f	-0.31415078
168	0xbe5971ec	-0.21234864
169	0xbec69972	-0.38788944
170	0xbed53227	-0.41639826
171	0xbd302c06	-0.043010734
172	0x3e8d50e0	0.27600765
173	0x3d7636f1	0.06011099
174	0x3e4b33a4	0.19843918
175	0xbe290fd9	-0.16509952
176	0x3eb59724	0.35466874
177	0x3f05c5fc	0.52255225
178	0xbd32ce7e	-0.043653958
179	0x3e01afb8	0.12664688
180	0xbdbe5339	-0.09293217
181	0xbdc45059	-0.095856376
182	0x3e395b46	0.18101224
183	0xbe51d9aa	-0.20493189
184	0x3f36fd9c	0.7148073
185	0xbe4c2cc4	-0.19938952
186	0xbdd68953	-0.10475411
187	0x3e1ba230	0.15198588
188	0xbdf98e5a	-0.121853545
189	0xbd8b783c	-0.06810042
190	0x3da88f86	0.082305
191	0x3ecdfa62	0.4023009
192	0x3e2a536e	0.16633388
193	0xbecd0991	-0.4004636
194	0x3c02d047	0.0079842275
195	0xbec4f295	-0.38466325
196	0xbf0497ce	-0.51794136
197	0x3d80ce9d	0.06289408
198	0xbe9fb313	-0.3119131
199	0x3d853dd0	0.065059304
200	0xbe72d8ca	-0.23715511
201	0xbc620ee5	-0.013797496
202	0x3e99fe49	0.30076817
203	0x3cd1b2b0	0.0255979
204	0xbe34889e	-0.1763024
205	0x3d15423f	0.03644013
206	0xbed29bea	-0.41134578
207	0xbd15bf86	-0.036559604
208	0x3e70815c	0.23486847
209	0xbe9fca3e	-0.31208986
210	0xbdf1379a	-0.11778183
211	0xbe206503	-0.15663533
212	0x3de1ebc4	0.11031297
213	0xbdafc524	-0.085825235
214	0xbeb17899	-0.3466232
215	0xbeb4974f	-0.3527169
216	0x3e475fdb	0.1947016
217	0xbd18693c	-0.037209734
218	0x3ed690c8	0.41907334
219	0x3f19d7f1	0.60095125
220	0x3ea683e3	0.32522497
221	0x3e8e175e	0.27752203
222	0xbcb358b3	-0.021892881
223	0xbe51e0c9	-0.20495905
224	0xbdd0372a	-0.10166772
225	0x3dbb1fbb	0.091369115
226	0x3e8e4701	0.27788547
227	0xbe452ec3	-0.1925612
228	0xbcf056e7	-0.029338313
229	0x3e2382ce	0.15967867
230	0xbd9af98c	-0.075671285
231	0x3e3249e4	0.17411
232	0x3e4223b8	0.18958938
233	0xbe1b4b88	-0.15165532
234	0xbc734364	-0.01484761
235	0xbd2ea644	-0.042639032
236	0xbee8ea8c	-0.45491445
237	0xbd449d5a	-0.048001625
238	0x3e067e76	0.13134179
239	0x3ef1dd58	0.47239184
240	0x3e741b67	0.23838578
241	0x3d8419a7	0.06450205
242	0x3e049a6b	0.12949531
243	0xbed0a81d	-0.4075326
244	0x3ebcd83a	0.36883718
245	0xbf059386	-0.5217823
246	0x3e47843f	0.19484042
247	0x3d04371b	0.032279115
248	0xbdc7e4cb	-0.09760436
249	0x3d4c49ae	0.049874954
250	0xbf0bb1a3	-0.5456793
251	0xbe4ce17a	-0.20007887
252	0x3e965273	0.2935978
253	0x3e82b6f9	0.25530222
254	0x3e905de0	0.2819662
255	0xbdb66abd	-0.089070775

policy.net.2.bias f4 [5]
0	0xbd875478	-0.06607908
1	0x3c01fc1d	0.007933644
2	0x3d78bd7a	0.060727574
3	0x3d2501fe	0.040285103
4	0x3d11ffdf	0.03564441

exp_avg f4 [900, 16]
0	0x39a5f53e	0.00031653972
1	0xb9c65e0e	-0.0003783558
2	0x38fa33b7	0.000119305616
3	0x388ffd3c	6.86594e-05
4	0xb86202b6	-5.3885124e-05
5	0xb9e76feb	-0.0004414314
6	0xb9001327	-0.00012214166
7	0x38a83cd1	8.022192e-05
8	0x386652db	5.491344e-05
9	0x39c22ed7	0.00037037462
10	0x38ec65c6	0.00011272314
11	0xb90bf601	-0.00013347717
12	0xb978493c	-0.00023678405
13	0x38b9e853	8.864761e-05
14	0xb947b96f	-0.00019047198
15	0x39a520d1	0.00031495703
16	0x37c6b078	2.3685614e-05
17	0xb9d1bc88	-0.00040004053
18	0x37b52324	2.1593245e-05
19	0xb97e67cb	-0.00024261994
20	0xb7f8a63f	-2.9641318e-05
21	0xba0c01f4	-0.0005340867
22	0xb9a00cbc	-0.00030527066
23	0x38e9616a	0.000111284506
24	0xb6ae8aff	-5.2017854e-06
25	0x3a000f15	0.000488506
26	0x39a3cde5	0.00031243186
27	0xb8d8611f	-0.00010317773
28	0xb990e065	-0.00027633007
29	0x39d7ef30	0.00041186204
30	0x38124cd6	3.488067e-05
31	0x3960b7a1	0.00021430712
32	0x398a660b	0.0002639744
33	0xb91e3b6d	-0.00015090192
34	0xb8b8d4a4	-8.813411e-05
35	0xb9453653	-0.00018807621
36	0x38c29967	9.279214e-05
37	0xb952f61e	-0.00020118846
38	0xb958248a	-0.00020612977
39	0xb94c087e	-0.0001945812
40	0x352cce1c	6.437492e-07
41	0x39678966	0.00022081062
42	0x39cb6ce6	0.00038800313
43	0xb8f62e9d	-0.000117388765
44	0xb9610093	-0.00021457886
45	0x3998bbec	0.00029131712
46	0x375ddec9	1.3224498e-05
47	0xb913a6e0	-0.00014081178
48	0xb74f73be	-1.236511e-05
49	0xb980cdad	-0.00024567303
50	0x38d0dac8	9.958964e-05
51	0x382c1471	4.1027033e-05
52	0x3920e413	0.00015343753
53	0xb9819708	-0.00024717324
54	0xb816658f	-3.585737e-05
55	0xb8321882	-4.246133e-05
56	0xb8fe8fa1	-0.00012138417
57	0x3a07ee2f	0.00051853334
58	0x39bde9ff	0.0003622323
59	0xb8d02df2	-9.926771e-05
60	0xb99f189b	-0.00030345176
61	0x39f0f1b5	0.00045956453
62	0x3843b685	4.6661607e-05
63	0xb97a39bc	-0.00023863366
64	0x39d7ff56	0.00041198236
65	0xb9ac55b3	-0.00032870247
66	0xb8882e7e	-6.493645e-05
67	0x397064a9	0.00022925682
68	0x36ff153d	7.6020647e-06
69	0xb9dfea10	-0.00042708265
70	0xb72b4de2	-1.0210528e-05
71	0xb9eb6d78	-0.00044904253
72	0xb9004ef4	-0.00012236444
73	0x397f3360	0.00024337834
74	0x3a060925	0.0005113057
75	0xb9667e0e	-0.00021981468
76	0xb8d841f7	-0.000103119695
77	0x39c26e88	0.00037084916
78	0x38c28695	9.275709e-05
79	0xb9081f57	-0.00012981646
80	0x00000000	0.0
81	0x00000000	0.0
82	0x00000000	0.0
83	0x00000000	0.0
84	0x00000000	0.0
85	0x00000000	0.0
86	0x00000000	0.0
87	0x00000000	0.0
88	0x00000000	0.0
89	0x00000000	0.0
90	0x00000000	0.0
91	0x00000000	0.0
92	0x00000000	0.0
93	0x00000000	0.0
94	0x00000000	0.0
95	0x00000000	0.0
96	0x00000000	0.0
97	0x00000000	0.0
98	0x00000000	0.0
99	0x00000000	0.0
100	0x00000000	0.0
101	0x00000000	0.0
102	0x00000000	0.0
103	0x00000000	0.0
104	0x00000000	0.0
105	0x00000000	0.0
106	0x00000000	0.0
107	0x00000000	0.0
108	0x00000000	0.0
109	0x00000000	0.0
110	0x00000000	0.0
111	0x00000000	0.0
112	0x00000000	0.0
113	0x00000000	0.0
114	0x00000000	0.0
115	0x00000000	0.0
116	0x00000000	0.0
117	0x00000000	0.0
118	0x00000000	0.0
119	0x00000000	0.0
120	0x00000000	0.0
121	0x00000000	0.0
122	0x00000000	0.0
123	0x00000000	0.0
124	0x00000000	0.0
125	0x00000000	0.0
126	0x00000000	0.0
127	0x00000000	0.0
128	0x00000000	0.0
129	0x00000000	0.0
130	0x00000000	0.0
131	0x00000000	0.0
132	0x00000000	0.0
133	0x00000000	0.0
134	0x00000000	0.0
135	0x00000000	0.0
136	0x00000000	0.0
137	0x00000000	0.0
138	0x00000000	0.0
139	0x00000000	0.0
140	0x00000000	0.0
141	0x00000000	0.0
142	0x00000000	0.0
143	0x00000000	0.0
144	0x00000000	0.0
145	0x00000000	0.0
146	0x00000000	0.0
147	0x00000000	0.0
148	0x00000000	0.0
149	0x00000000	0.0
150	0x00000000	0.0
151	0x00000000	0.0
152	0x00000000	0.0
153	0x00000000	0.0
154	0x00000000	0.0
155	0x00000000	0.0
156	0x00000000	0.0
157	0x00000000	0.0
158	0x00000000	0.0
159	0x00000000	0.0
160	0x00000000	0.0
161	0x00000000	0.0
162	0x00000000	0.0
163	0x00000000	0.0
164	0x00000000	0.0
165	0x00000000	0.0
166	0x00000000	0.0
167	0x00000000	0.0
168	0x00000000	0.0
169	0x00000000	0.0
170	0x00000000	0.0
171	0x00000000	0.0
172	0x00000000	0.0
173	0x00000000	0.0
174	0x00000000	0.0
175	0x00000000	0.0
176	0x00000000	0.0
177	0x00000000	0.0
178	0x00000000	0.0
179	0x00000000	0.0
180	0x00000000	0.0
181	0x00000000	0.0
182	0x00000000	0.0
183	0x00000000	0.0
184	0x00000000	0.0
185	0x00000000	0.0
186	0x00000000	0.0
187	0x00000000	0.0
188	0x00000000	0.0
189	0x00000000	0.0
190	0x00000000	0.0
191	0x00000000	0.0
192	0xba9811eb	-0.001160202
193	0x36854e3c	3.9728166e-06
194	0xb94669e3	-0.00018922197
195	0x3952cb7e	0.00020102967
196	0xba9c0c85	-0.0011905587
197	0xba604faa	-0.0008556793
198	0xb9bbd755	-0.00035827854
199	0x3a272361	0.00063758163
200	0xba61c21b	-0.0008611993
201	0xba015318	-0.00049333414
202	0xba74b364	-0.00093345926
203	0xba8d4a84	-0.0010779654
204	0xb9038cd1	-0.00012545592
205	0x3981cc29	0.00024756909
206	0xb98c710c	-0.00026787107
207	0xb9041b7b	-0.00012598738
208	0xba82ab4d	-0.0009969265
209	0x3a03e063	0.00050306896
210	0xba1695cb	-0.0005744367
211	0x39387f35	0.00017594996
212	0xba23127b	-0.00062207103
213	0xba88d2d6	-0.001043881
214	0xba801aab	-0.0009773573
215	0x3a49cbfd	0.0007697938
216	0xba403d28	-0.0007333332
217	0x39e79b3d	0.00044175415
218	0xba08e5e3	-0.0005222244
219	0x39a57049	0.0003155491
220	0xba2bad99	-0.00065490004
221	0x39b5cd77	0.00034676093
222	0x39df1fe0	0.00042557623
223	0x39836181	0.00025058913
224	0xba49502b	-0.00076794875
225	0x3a4869de	0.000764517
226	0x388f00d9	6.818929e-05
227	0x393c9559	0.00017984713
228	0xba0c5ed7	-0.00053547084
229	0xba849b3e	-0.0010117067
230	0xbac930db	-0.0015349643
231	0x3abac7cc	0.0014250218
232	0xba549773	-0.0008109726
233	0x38faf225	0.00011966032
234	0xb9c13b94	-0.00036856218
235	0xb8b6ef49	-8.7230066e-05
236	0xba4055f6	-0.0007337028
237	0x397614cb	0.00023468134
238	0x39616ec5	0.00021498937
239	0x3a2c3427	0.00065690506
240	0xba7239c5	-0.0009240176
241	0x39a8318b	0.0003208037
242	0xb7e4a953	-2.7258566e-05
243	0xb9750862	-0.00023368144
244	0xb99d1697	-0.00029962204
245	0xbaa7cd09	-0.0012802194
246	0xba97d702	-0.0011584463
247	0x3a66b868	0.00088012824
248	0x373d7c7a	1.129426e-05
249	0x39f96167	0.0004756555
250	0x3927d927	0.00016007257
251	0x39a4040e	0.0003128354
252	0xba37352a	-0.0006988818
253	0xb688c585	-4.07611e-06
254	0x39038c2c	0.00012545352
255	0x3a56db2f	0.0008196113
