SGE_Transformer/model/2_room/eil_2_room_198_model/EBC_model_21999.pth (torch, 319288 bytes, 27 tensors)

encoder.embedding.weight f4 [900, 16]
0.11631113 -0.74036765 1.1650165 1.6032065 0.6440306 0.9712419 -0.100218914 0.92487615
1.5700169 0.70230037 1.4269462 -1.0102682 1.5163186 -0.81897986 -1.0304635 0.6825956
-1.1150776 0.3345565 0.5317678 -0.498747 0.54755896 0.58930993 0.22343707 0.36402932
-0.93541074 -1.3651056 1.9714375 -1.746667 0.6925676 -0.06096754 -0.650505 -1.5044882
0.7585222 0.0460167 -0.23522621 0.6575225 -0.0528781 0.31350973 -0.5189129 -1.9990227
-0.42739397 1.0165759 -1.0012319 0.06412652 -1.2621143 -0.0036218998 -3.4910808 -0.93401545
0.31558424 -0.9165976 -1.0685246 -0.447563 1.0069046 1.6843771 -1.1412166 0.54090697
-1.1593994 0.10229502 0.6767466 -1.5365831 -0.9315849 -0.52148443 -0.79311866 -2.2198188
0.95495236 0.36544248 -1.4230176 2.1918175 -0.85900867 -0.30251327 -1.3491184 0.32897308
-0.40479553 -0.26724347 0.053814024 -1.7778761 -2.383161 -0.1350009 -0.2974527 0.034716018
0.14950831 0.68173635 1.5676895 0.47556657 -1.0050126 -1.023286 0.5214422 -0.48220333
-0.7726252 2.7445233 -1.9759138 0.415895 1.5672935 -0.03982712 -0.9722075 -0.71206236
0.2399586 -1.199124 1.0634183 -0.6769421 -0.6633918 0.3362924 0.5184555 1.0378041
0.041475523 0.84185106 -0.13130704 -1.4924617 0.36357212 -0.51106703 -0.41850448 1.181892
-0.2659641 0.8041965 -0.307584 1.3537711 0.66702676 -0.23589839 -0.1712208 0.56163234
0.30705154 0.33780503 0.12988454 0.5764989 0.020306023 1.3983688 1.4169482 -0.0058822334
-0.8824504 -0.48821172 -1.3561088 -0.23345223 1.8297452 1.5896279 0.17809501 0.5119587
-0.5462637 -1.4434364 -1.923773 -1.1291713 1.0067925 -0.008793296 -0.804452 1.9658368
1.6479504 0.5699342 -0.012340214 -1.4708327 -0.046256755 -0.5328155 0.65974027 2.1868584
0.48783317 2.1796973 -1.4626534 -1.3909887 -0.43217906 -0.14899805 0.10180085 -0.17570433
0.32208213 1.2037162 0.0853502 -1.7608309 0.059560195 -1.3081975 0.23057866 0.9599387
0.14141941 0.86194164 -1.0958056 -1.1410904 -0.37610725 -0.2558852 -0.28377268 1.1223673
2.0637617 0.13099124 0.91126615 0.09883216 -0.666103 0.9322513 1.6354256 -1.1004666
0.7353627 2.0250545 -2.9137704 0.1907943 0.16965011 -0.70002025 -0.09773357 0.51418406
1.1864372 0.5098041 -1.431311 2.0870936 0.7886632 -0.48715997 -1.0595937 -0.6272303
1.3423178 1.0432906 1.3902223 -0.18716505 -0.9263783 -1.4983903 -1.8397433 -1.7583678
1.7437947 0.07132506 -0.97842014 0.5518822 0.18636622 -0.51903754 -0.273508 -0.20259571
0.040648054 -0.5479412 0.8336031 -0.78869027 1.0744295 1.092872 0.59139997 -0.86039746
-1.1563734 -1.4429038 -0.7847627 -0.32784793 1.1369139 0.6424846 -1.7208995 -1.7105745
1.16422 0.80646116 0.077245906 -1.2940515 -1.2694263 -0.47651193 -0.50173676 0.44114286
-0.12653477 -0.19209114 0.09463588 0.64926845 1.8424568 0.63394564 -0.36841112 -1.4122242
0.0362152 -1.7880423 1.2554423 -0.24684152 0.90376604 0.19471556 2.3434863 -0.13450757
00000000: 8834 ee3d bc88 3dbf 431f 953f df35 cd3f
00000010: 30df 243f 4fa3 783f 933f cdbd afc4 6c3f
00000020: 50f6 c83f f5c9 333f 2ca6 b63f 7850 81bf
00000030: ba16 c23f aaa8 51bf 3ae6 83bf 96be 2e3f
00000040: ddba 8ebf fd4a ab3e ef21 083f c45b ffbe
00000050: d32c 0c3f 04dd 163f b0cc 643e 0d62 ba3e
00000060: 1477 6fbf c8bb aebf 1058 fc3f c992 dfbf
00000070: 1c4c 313f 19b9 79bd 7f87 26bf 1293 c0bf
00000080: 832e 423f 027c 3c3d 24df 70be 6553 283f
00000090: b596 58bd 5984 a03e 7ad7 04bf fadf ffbf
000000a0: 62d3 dabe 291f 823f 5e28 80bf c454 833d
000000b0: f68c a1bf 655d 6dbb de6d 5fc0 a31b 6fbf
000000c0: 4294 a13e 24a6 6abf 6ac5 88bf fa26 e5be
000000d0: 40e2 803f ab99 d73f 6313 92bf e178 0a3f
000000e0: 3367 94bf 0d80 d13d 443f 2d3f c1ae c4bf
000000f0: 597c 6ebf 0180 05bf d309 4bbf 8311 0ec0
00000100: c277 743f 471b bb3e 7125 b6bf bd46 0c40
00000110: fee7 5bbf 05e3 9abe e9af acbf 296f a83e
00000120: 5c41 cfbe 23d4 88be 186c 5c3d 7291 e3bf
00000130: b685 18c0 ad3d 0abe b84b 98be 6232 0e3d
00000140: b518 193e 4686 2e3f 0daa c83f 767d f33e
00000150: 41a4 80bf 09fb 82bf 3c7d 053f 5be3 f6be
00000160: c4ca 45bf 45a6 2f40 beea fcbf 30f0 d43e
00000170: 139d c83f c321 23bd 97e2 78bf b849 36bf
00000180: b5b7 753e e57c 99bf 171e 883f 144c 2dbf
00000190: 0cd4 29bf 842e ac3e 80b9 043f c4d6 843f
000001a0: 3de2 293d 8d83 573f 5a75 06be fc08 bfbf
000001b0: 2026 ba3e 4ad5 02bf 3846 d6be 3d48 973f
000001c0: 722c 88be d2df 4d3f a67b 9dbe 5f48 ad3f
000001d0: 44c2 2a3f 598f 71be 8154 2fbe 23c7 0f3f
000001e0: dc35 9d3e c8f4 ac3e 7400 053e 6f95 133f
000001f0: d158 a63c c0fd b23f 8f5e b53f c0bf c0bb
00000200: 45e8 61bf e3f6 f9be f994 adbf 1a0e 6fbe
00000210: 1735 ea3f ed78 cb3f 8a5e 363e ba0f 033f
00000220: f0d7 0bbf 86c2 b8bf 323e f6bf af88 90bf
00000230: 94de 803f c211 10bc 91f0 4dbf 8aa0 fb3f
00000240: 0af0 d23f 35e7 113f 9c2e 4abc 3f44 bcbf
00000250: b977 3dbd 9966 08bf bde4 283f 7df5 0b40
00000260: 45c5 f93e 2980 0b40 3a38 bbbf eb0b b2bf
00000270: 9346 ddbe f292 18be f77c d03d d6eb 33be
00000280: f3e7 a43e 5f13 9a3f 16cc ae3d e862 e1bf
00000290: 64f5 733d 0473 a7bf d01c 6c3e 8bbe 753f
000002a0: 40d0 103e 35a8 5c3f 5c43 8cbf 400f 92bf
000002b0: 2191 c0be 6303 83be a74a 91be bba9 8f3f
000002c0: ac14 0440 9122 063e bd48 693f 8468 ca3d
000002d0: ba85 2abf 05a8 6e3f a055 d13f 17dc 8cbf
000002e0: bb40 3c3f 7e9a 0140 377b 3ac0 955f 433e
000002f0: c2b8 2d3e 8734 33bf 8a28 c8bd 91a1 033f
00000300: 2ddd 973f 8682 023f 3335 b7bf f192 0540
00000310: d5e5 493f 086d f9be c4a0 87bf 2a92 20bf
00000320: 12d1 ab3f 8c8a 853f cef2 b13f 32a8 3fbe
00000330: 2127 6dbf 41cb bfbf b57c ebbf 3212 e1bf
00000340: aa34 df3f e012 923d be79 7abf 2748 0d3f
00000350: c9d6 3e3e a5df 04bf 3e09 8cbe 4075 4fbe
00000360: 937e 263d e045 0cbf 0367 553f 9be7 49bf
00000370: e886 893f 3be3 8b3f fd65 173f 0243 5cbf
00000380: 0b04 94bf 12b1 b8bf 35e6 48bf afdb a7be
00000390: 6586 913f df79 243f 6f46 dcbf 1bf4 dabf
000003a0: 2905 953f 3d74 4e3f 1a33 9e3d 7ba3 a5bf
000003b0: 907c a2bf 5ff9 f3be d271 00bf 7add e13e
000003c0: 5592 01be 8ab3 44be 75d0 c13d 7536 263f
000003d0: a0d5 eb3f 434a 223f 62a0 bcbe c3c3 b4bf
000003e0: 6456 143d 92de e4bf 55b2 a03f 06c4 7cbe
000003f0: 365d 673f 8463 473e aefb 1540 5abc 09be

encoder.lstm.weight_ih_l0 f4 [128, 16]
-0.035347443 0.27545965 -0.2762544 -0.48369446 0.107089944 0.20353974 -0.080315344 0.113407515
-0.19886228 -0.18430836 -0.53293866 -0.09962874 0.32897237 0.018805994 -0.10442192 0.2322583
0.06478644 0.3518589 -0.45552945 -0.015508004 0.047175266 -0.32041427 0.025549324 0.22502004
-0.2917073 -0.74854934 -0.41472173 -0.35744572 0.1409813 -0.64881027 -0.056001388 -0.0079792105
-0.07533804 -0.19255398 -0.21086423 0.061296992 -0.1913672 0.11556069 0.16378196 0.059531696
0.09337318 -0.20603135 -0.27295384 0.18034458 -0.18054932 0.07327721 -0.2817818 0.27757785
-0.49808648 0.017157765 0.6239772 0.07334223 0.06160267 0.042734243 0.0024466948 -0.08800764
-0.22489965 0.09545448 -0.0066390214 -0.71277153 -0.29985327 0.20036441 0.13217296 0.033114858
-0.24309373 0.1278399 0.2615948 0.1111018 0.39310402 0.013010829 -0.011855476 -0.015918348
-0.28526556 -0.15881939 0.33422017 -0.09870823 -0.31303567 0.20344776 -0.08162771 -0.25347164
0.28588572 0.4129288 0.07222011 0.12385329 0.12884113 -0.06660975 0.0071500135 -0.021183126
0.06870083 -0.5147079 -0.15436582 0.077227175 0.033368018 0.39609388 -0.32759994 0.3142806
-0.34477055 0.0032151863 0.15227032 -0.19209015 0.3719828 0.11461784 0.36677092 0.17494453
0.06200408 0.44197765 0.02362208 0.34949657 0.12004127 -0.028240569 0.1423198 0.03483426
-0.41039932 -0.039897982 -0.20246498 -0.24211949 0.438124 0.42871732 0.012542826 0.37175888
-0.41913587 0.069701575 -0.72020245 -0.0599813 -0.17983355 0.8711401 0.27036205 -0.31561184
0.19638947 -0.18197799 -0.15273334 0.39740494 0.16512011 -0.3117812 0.12013216 0.3765422
0.07417906 0.37311044 0.16832219 0.096535064 0.2419701 0.40486258 -0.27414656 -0.06279163
0.11088307 0.23398888 0.011118167 -0.050501764 -0.36271563 -0.16234757 -0.09378914 0.36702737
-0.17879042 0.025293207 -0.56085557 -0.18933684 0.09959291 0.573654 0.0979866 0.30832523
0.2703554 -0.01988916 -0.015360922 -0.07415796 0.11799505 0.32688168 -0.06385882 0.32824013
-0.24054863 -0.27520302 -0.15041384 -0.17530012 0.53160757 0.07479877 -0.05405612 0.04353402
0.082779594 0.30946252 -0.5892099 0.134112 0.15355594 -0.25618473 0.05424704 0.30681768
-0.44556144 0.38061643 0.18955493 0.18521407 -0.042230546 -0.19624728 -0.033337053 0.23765536
0.016843887 0.47759432 -0.15564393 0.4293246 -0.15670049 0.08161623 -0.59758276 0.18990877
0.1767005 0.26043928 0.3285597 -0.029770114 -0.07667377 0.4117332 0.34760636 0.21164635
-0.020781843 0.14700988 -0.0070465705 -0.13285907 -0.043589804 -0.007942291 0.34405097 0.063261904
-0.15328845 -0.1729987 -0.078448534 0.3745657 -0.057055756 0.20979409 -0.16629776 0.23190935
0.03576072 -0.16716184 -0.28674188 0.22479282 0.008242686 0.15527648 0.077584945 -0.045882072
-0.027771343 -0.039599165 -0.10341157 -0.1928714 0.043758612 -0.24966413 -0.17179906 0.034709815
0.009468003 -0.107166156 -0.23578228 0.17629643 -0.035164066 0.4678094 -0.40185994 -0.0046962067
0.1334722 0.14919458 0.14856017 -0.31507376 -0.4653346 0.009442156 -0.05219425 0.0929073
00000000: 7bc8 10bd 0c09 8d3e 3771 8dbe cda6 f7be
00000010: f951 db3d b96c 503e 5f7c a4bd 3342 e83d
00000020: 8ea2 4bbe 55bb 3cbe ab6e 08bf 270a ccbd
00000030: 116f a83e 070f 9a3c 29db d5bd 1fd5 6d3e
00000040: c1ae 843d da26 b43e 283b e9be 4915 7ebc
00000050: da3a 413d 570d a4be d14c d13c a76b 663e
00000060: a95a 95be eea0 3fbf 6856 d4be 2003 b7be
00000070: 675d 103e 6e18 26bf b661 65bd 3cbb 02bc
00000080: d54a 9abd df2c 45be cbec 57be 8e12 7b3d
00000090: c3f5 43be 15ab ec3d 75b6 273e 82d7 733d
000000a0: 703a bf3d e2f9 52be 9bc0 8bbe 40ac 383e
000000b0: ece1 38be 5d12 963d b445 90be af1e 8e3e
000000c0: 3105 ffbe 718e 8c3c f8bc 1f3f 7334 963d
000000d0: 1553 7c3d 1a0a 2f3d ba58 203b 593d b4bd
000000e0: 184c 66be a37d c33d 268c d9bb 3278 36bf
000000f0: 5e86 99be 542c 4d3e 5958 073e 72a3 073d
00000100: 90ed 78be 76e8 023e c1ef 853e 5789 e33d
00000110: ee44 c93e 5f2b 553c 783d 42bc 3267 82bc
00000120: 540e 92be 8da1 22be e81e ab3e 8a27 cabd
00000130: 3646 a0be 9c54 503e 6e2c a7bd 09c7 81be
00000140: 9d5f 923e 676b d33e 23e8 933d cba6 fd3d
00000150: eeee 033e b16a 88bd a94a ea3b 3c88 adbc
00000160: 05b3 8c3d e6c3 03bf 1312 1ebe 4829 9e3d
00000170: e7ac 083d d1cc ca3e 2ebb a7be 63e9 a03e
00000180: c485 b0be e0b5 523b c0ec 1b3e 48b3 44be
00000190: 8874 be3e c2bc ea3d 66c9 bb3e a924 333e
000001a0: fdf7 7d3d e54a e23e 1883 c13c 37f1 b23e
000001b0: 33d8 f53d c458 e7bc 48bc 113e 5eae 0e3d
000001c0: dc1f d2be 116c 23bd fb52 4fbe 2cee 77be
000001d0: ca51 e03e d680 db3e 6d80 4d3c 2e57 be3e
000001e0: fa98 d6be b3bf 8e3d 305f 38bf f4ae 75bd
000001f0: 4926 38be 0a03 5f3f e56c 8a3e e097 a1be
00000200: 521a 493e 7058 3abe 2166 1cbe a978 cb3e
00000210: 3f15 293e c9a1 9fbe da07 f63d 24ca c03e
00000220: 31eb 973d 5508 bf3e a75c 2c3e 2db4 c53d
00000230: 03c7 773e 264a cf3e f05c 8cbe e698 80bd
00000240: aa16 e33d c89a 6f3e f928 363c f0da 4ebd
00000250: ddb5 b9be 713e 26be 8514 c0bd 03eb bb3e
00000260: d614 37be b333 cf3c 3b94 0fbf 84e1 41be
00000270: 5ef7 cb3d fdda 123f 33ad c83d cedc 9d3e
00000280: 066c 8a3e 97ee a2bc 60ac 7bbc 21e0 97bd
00000290: 64a7 f13d 095d a73e 6ac8 82bd 170f a83e
000002a0: 6152 76be 69e7 8cbe 1606 1abe e081 33be
000002b0: 6f17 083f 1930 993d f369 5dbd bb50 323d
000002c0: 5988 a93d df71 9e3e 76d6 16bf a854 093e
000002d0: c53d 1d3e a52a 83be 2532 5e3d 3517 9d3e
000002e0: a120 e4be 28e0 c23e b01a 423e c2a8 3d3e
000002f0: f0f9 2cbd 0cf5 48be 6f8c 08bd ed5b 733e
00000300: 31fc 893c 3e87 f43e 1f61 1fbe 6fd0 db3e
00000310: 1876 20be 6926 a73d 2ffb 18bf 7277 423e
00000320: faf0 343e 4c58 853e fa38 a83e 74e0 f3bc
00000330: 2307 9dbd b2ce d23e 76f9 b13e d2b9 583e
00000340: af3e aabc c289 163e ebe6 e6bb 350c 08be
00000350: 398b 32bd 6220 02bc 7327 b03e 758f 813d
00000360: a6f7 1cbe 9226 31be a0a9 a0bd 13c7 bf3e
00000370: 4cb3 69bd 43d4 563e f649 2abe a579 6d3e
00000380: d579 123d 792c 2bbe d5cf 92be 1730 663e
00000390: 550c 073c cc00 1f3e dbe4 9e3d d7ee 3bbd
000003a0: ba80 e3bc bc32 22bd 72c9 d3bd 1580 45be
000003b0: 3b3c 333d f4a7 7fbe 18ec 2fbe e12b 0e3d
000003c0: af1f 1b3c ee79 dbbd e970 71be 0d87 343e
000003d0: 3208 10bd b784 ef3e 96c0 cdbe a3e2 99bb
000003e0: f0ac 083e 77c6 183e 2820 183e 5951 a1be
000003f0: 5640 eebe 46b3 1a3c a3c9 55bd 2f46 be3d

encoder.lstm.weight_hh_l0 f4 [128, 32]
-0.6174683 -0.16451797 -0.3214109 0.12999022 0.73648894 -0.2227549 0.038057815 -0.383687
-0.26926798 -0.18862584 -0.2613182 -0.11135756 0.4327993 -0.15783319 0.45521036 -0.17084695
0.09731074 0.004087452 -0.36962244 -0.45597428 -0.19317557 0.3311512 -0.60531855 -0.3406019
0.2642919 -0.0252328 -0.08034295 -0.22208914 -0.32898426 0.1532102 -0.06531486 -0.0067274016
-0.051168285 0.16129228 -0.46375567 0.05800936 0.34985092 -0.47696748 0.18198629 -0.018204717
-0.23513626 -0.122142285 -0.39513463 -0.018976178 -0.15641922 -0.10319103 0.68779266 -0.01371828
0.17984547 0.39684126 0.20915978 -0.31222335 -0.32533902 0.28418583 -0.059144445 0.14187212
0.35692316 0.031489633 0.0393871 -0.17841753 -0.4967819 0.58998775 0.4202649 -0.091877885
0.3033253 0.07774687 -0.10962797 -0.23474249 0.7162835 -0.5557434 0.35943598 -0.031519923
-0.28104237 -0.45505852 -0.035469875 -0.7426344 0.009969159 -0.43211272 0.26379165 -0.19327909
0.17834176 -0.18710545 0.11932084 -0.3784539 -0.32465035 0.23983656 -0.16120298 0.16020957
0.3283718 -0.30858886 0.010391402 -0.4726884 -0.22775817 0.029319778 -0.253048 -0.3147809
-0.15916237 -0.2686147 -0.10976389 -0.30059245 -0.16909769 -0.65734255 -0.10721668 0.20737457
0.001402858 0.25789547 0.10157508 -0.29343486 -0.04086982 -0.4650509 -0.053839196 0.2693084
0.21563494 -0.12103599 0.35309538 -0.12094818 -0.104770586 -0.07948768 -0.2936585 -0.24299818
-0.22453938 0.3919556 -0.4647665 0.11182405 -0.31137982 -0.07834044 0.10678781 0.24708523
-0.12727045 -0.14757359 -0.1457409 0.01946003 0.36280397 -0.6563644 0.045605432 0.31476057
-0.10387722 0.020864377 -0.21309188 -0.049133994 0.36308792 -0.054462202 0.63580483 0.12160121
0.30514926 -0.27361053 0.031775445 -0.36851427 -0.40998286 0.30418396 -0.08723394 -0.06717086
0.20323414 0.042522147 -0.38312173 0.18129402 -0.5667415 0.53199935 -0.47196352 -0.2913247
0.26962137 -0.12237911 -0.13735597 -0.22757925 0.009808228 -0.26375833 0.42321777 0.5000315
-0.5227607 0.1962322 -0.33385003 -0.187378 -0.09453265 -0.2273106 0.006417069 -0.16066018
0.41889298 -0.044593938 0.2402335 -0.12080838 -0.020794183 0.35702595 0.17962526 -0.25516203
-0.105037086 -0.30105177 -0.16810668 -0.48308757 -0.18524262 0.39325815 -0.61460793 -0.11152173
0.1239539 0.38304257 -0.25859845 0.041227758 0.19729367 -0.44368303 0.10874777 0.4569515
-0.16203389 0.026425453 -0.2168115 -0.422137 -0.14095487 -0.35874692 -0.32710227 0.18363677
-0.12354105 -0.072264485 -0.43799192 0.14915472 -0.19419958 0.3609581 -0.03382417 -0.3490953
0.7710731 -0.13447753 0.14107867 -0.1965723 -0.5650755 0.27112854 0.011413873 -0.055514324
0.06933776 -0.22064094 -0.60207224 -0.26445714 0.8918138 -0.34205145 -0.080066994 -0.15500459
-0.1652811 -0.15089935 -0.28392968 -0.12571801 0.09450641 -0.28718936 0.1806135 -0.091763966
0.07856022 0.14099836 -0.2178739 -0.1288608 0.0012426269 0.10070326 -0.6149271 -0.5516138
-0.08674191 -0.51475 -0.25080353 -0.87983173 -0.3603527 0.30606753 0.0598655 -0.012090733
00000000: 6712 1ebf 6677 28be f88f a4be 281c 053e
00000010: 8a8a 3c3f dc19 64be 83e2 1b3d 9f72 c4be
00000020: 7edd 89be 2227 41be 80cb 85be 6f0f e4bd
00000030: df97 dd3e 069f 21be 5511 e93e 81f2 2ebe
00000040: da4a c73d 08f0 853b 273f bdbe 7675 e9be
00000050: d1cf 45be a68c a93e 28f6 1abf 5f63 aebe
00000060: 4551 873e 04b5 cebc d88a a4bd 566b 63be
00000070: a070 a8be 22e3 1c3e ccc3 85bd 8971 dcbb
00000080: d695 51bd ce29 253e 6271 edbe 399b 6d3d
00000090: a91f b33e 1535 f4be 9d5a 3a3e 0f22 95bc
000000a0: 8fc7 70be bc25 fabd 164f cabe ee73 9bbc
000000b0: 5c2c 20be d255 d3bd 2e13 303f a3c2 60bc
000000c0: 6929 383e c72e cb3e fb2d 563e bddb 9fbe
000000d0: d692 a6be ce80 913e 7241 72bd ed46 113e
000000e0: a2be b63e 46fb 003d 5e54 213d 16b3 36be
000000f0: 325a febe 7009 173f f62c d73e 792a bcbd
00000100: 744d 9b3e c039 9f3d a184 e0bd 5660 70be
00000110: 5b5e 373f 3345 0ebf fe07 b83e 091b 01bd
00000120: c9e4 8fbe 6efd e8be dc48 11bd 4a1d 3ebf
00000130: af55 233c e13d ddbe b30f 873e f4ea 45be
00000140: 399f 363e 9298 3fbe 7c5e f43d b6c4 c1be
00000150: 9238 a6be b797 753e 6512 25be fa0d 243e
00000160: 5920 a83e 5cff 9dbe b340 2a3c 3704 f2be
00000170: 7039 69be 0830 f03c 828f 81be f62a a1be
00000180: 76fb 22be de87 89be e4cb e0bd 41e7 99be
00000190: f227 2dbe 9a47 28bf 6b94 dbbd 005a 543e
000001a0: 1ae0 b73a e00a 843e 9806 d03d 183d 96be
000001b0: 1d67 27bd 271b eebe 7d86 5cbd cae2 893e
000001c0: 68cf 5c3e b8e1 f7bd ebc8 b43e aeb3 f7bd
000001d0: f691 d6bd 70ca a2bd 685a 96be 84d4 78be
000001e0: a7ed 65be 68ae c83e e0f5 edbe 0204 e53d
000001f0: 2d6d 9fbe f470 a0bd 91b3 da3d e903 7d3e
00000200: 2f53 02be 881d 17be 1a3d 15be a46a 9f3c
00000210: 71c1 b93e 7f07 28bf c3cc 3a3d 4c28 a13e
00000220: 94bd d4bd c5eb aa3c c234 5abe ba40 49bd
00000230: a9e6 b93e c213 5fbd 1bc4 223f 0e0a f93d
00000240: 863c 9c3e ae16 8cbe f826 023d e7ad bcbe
00000250: 46e9 d1be 00be 9b3e b5a7 b2bd e090 89bd
00000260: 9c1c 503e b42b 2e3d 8828 c4be 24a5 393e
00000270: f915 11bf 1c31 083f 34a5 f1be 8328 95be
00000280: d00b 8a3e e6a1 fabd 0ba7 0cbe 890a 69be
00000290: b1b2 203c 550b 87be 00b0 d83e 1002 003f
000002a0: a5d3 05bf 18f1 483e 64ee aabe 05e0 3fbe
000002b0: 569a c1bd 1cc4 68be 4746 d23b 1a84 24be
000002c0: 2479 d63e 22a8 36bd c5ff 753e 626a f7bd
000002d0: 9058 aabc 1bcc b63e afef 373e 99a4 82be
000002e0: af1d d7bd 7523 9abe 2824 2cbe 4157 f7be
000002f0: 3eb0 3dbe 2259 c93e f256 1dbf 8165 e4bd
00000300: 8bdb fd3d 281e c43e 0467 84be 70de 283d
00000310: 5a07 4a3e 6c2a e3be 27b7 de3d 8cf5 e93e
00000320: 36ec 25be 317a d83c d503 5ebe 5722 d8be
00000330: 7956 10be adad b7be f379 a7be 470b 3c3e
00000340: 1703 fdbd 67ff 93bd 7a40 e0be 04bc 183e
00000350: 41dc 46be 80cf b83e 368b 0abd 9fbc b2be
00000360: 0c65 453f 7ab4 09be ed76 103e 404a 49be
00000370: caa8 10bf 5cd1 8a3e 4101 3b3c fd62 63bd
00000380: f500 8e3d b3ef 61be 6821 1abf ed66 87be
00000390: e94d 643f 5e21 afbe 2afa a3bd 86b9 1ebe
000003a0: 733f 29be 5c85 1abe 3b5f 91be 39bc 00be
000003b0: 948c c13d 7c0a 93be bff2 383e bfee bbbd
000003c0: 2ee4 a03d e061 103e 561a 5fbe 16f4 03be
000003d0: a4df a23a 833d ce3d dd6b 1dbf 9036 0dbf
000003e0: bea5 b1bd a8c6 03bf 5269 80be a73c 61bf
000003f0: 2680 b8be e2b4 9c3e 8735 753d 3618 46bc

encoder.lstm.bias_ih_l0 f4 [128]
0.4126805 0.18694375 0.35557294 0.09963927 0.14425127 0.43982065 0.3121056 0.29166225
0.25520313 0.3294314 -0.0022677903 0.026283765 0.055761416 0.5508606 0.29966176 0.092696555
0.29394764 0.32171294 0.4528495 0.0034037838 0.17309035 0.20394085 0.34901345 0.29218435
0.22601086 0.23151499 0.35568386 0.23041326 0.51217914 0.2544195 -0.02046123 0.13636902
0.2506968 -0.16779774 0.25450766 0.04841956 0.037022177 0.3616082 0.17207187 0.18327403
0.19891801 0.23245569 0.1317512 0.2867683 0.28356913 0.16561167 0.25635144 0.22485402
0.36242935 0.073116586 0.28698662 0.23864524 0.16639669 0.13137513 0.17257196 0.24557543
0.29349983 0.19060464 0.0819798 0.021561246 0.08340697 0.44697997 0.14927404 -0.04698808
-0.03407047 -0.004105838 -0.061673075 -0.13064595 0.16772541 -0.11139948 0.055595677 0.09862398
-0.15075678 -0.047316786 0.018074436 -0.30364516 -0.19438827 -0.16450658 -0.0263015 0.17941101
0.061756067 -0.16867228 0.073763 -0.07369548 -0.38262752 0.23066524 -0.06570929 0.010106412
0.21250007 -0.12163396 -0.002414343 -0.03202637 -0.159685 0.24749027 -0.1827787 -0.08453346
0.2092146 0.30364326 0.24003053 0.305377 0.346971 0.18353395 0.1385708 0.22926778
0.4903543 0.1963092 0.03768899 0.18680353 0.21218862 0.15867786 -0.11697322 0.20297557
0.18592186 0.2320342 0.24306875 0.11461569 0.12838492 -0.002880963 0.23812723 -0.014162496
0.07295792 0.34922728 0.19803835 0.117671974 0.1687164 -0.0685626 0.008938622 0.086975805
00000000: dc4a d33e 2f6e 3f3e a80d b63e ac0f cc3d
00000010: 9bb6 133e 2c30 e13e 4ecc 9f3e c154 953e
00000020: fca9 823e 3cab a83e 359f 14bb 0d51 d73c
00000030: 1566 643d 3305 0d3f 446d 993e b1d7 bd3d
00000040: 4e80 963e 8fb7 a43e e4db e73e 0412 5f3b
00000050: 993e 313e dfd5 503e e4b1 b23e 3099 953e
00000060: 646f 673e 4412 6d3e 321c b63e 74f1 6b3e
00000070: 2c1e 033f 4643 823e 4f9e a7bc 52a4 0b3e
00000080: 555b 803e 2cd3 2bbe d44e 823e 9753 463d
00000090: 91a4 173d b624 b93e 9c33 303e 30ac 3b3e
000000a0: 2ab1 4b3e dd08 6e3e c9e9 063e 4bd3 923e
000000b0: f92f 913e 1b96 293e 7f40 833e 2240 663e
000000c0: 5790 b93e 26be 953d e9ef 923e 6b5f 743e
000000d0: e563 2a3e 3487 063e b4b6 303e 2078 7b3e
000000e0: 9c45 963e dd2d 433e 06e5 a73d 36a1 b03c
000000f0: 46d1 aa3d 8fda e43e 4bdb 183e 9376 40bd
00000100: 7a8d 0bbd 448a 86bb e89c 7cbd 0dc8 05be
00000110: 36c0 2b3e 6925 e4bd 4bb8 633d 5ffb c93d
00000120: fc5f 1abe 3fcf 41bd d710 943c 6177 9bbe
00000130: b80d 47be 6a74 28be 3e76 d7bc 85b7 373e
00000140: eef3 7c3d 6db8 2cbe 0e11 973d a8ed 96bd
00000150: c1e7 c3be 8233 6c3e 9892 86bd 5d95 253c
00000160: 9e99 593e 3a1b f9bd f439 1ebb 152e 03bd
00000170: 7784 23be 176e 7d3e 572a 3bbe e11f adbd
00000180: 5a3c 563e 2177 9b3e 90ca 753e 605a 9c3e
00000190: 2fa6 b13e 53f0 3b3e 81e5 0d3e 2cc5 6a3e
000001a0: b80f fb3e 4705 493e c55f 1a3d 6d49 3f3e
000001b0: f947 593e 737c 223e a88f efbd d4d8 4f3e
000001c0: 4d62 3e3e 609a 6d3e 04e7 783e a2bb ea3d
000001d0: 5677 033e 8ace 3cbb a0d7 733e d009 68bc
000001e0: f66a 953d ebcd b23e 91ca 4a3e 01fe f03d
000001f0: fec3 2c3e 8c6a 8cbd 4c73 123c 5f20 b23d

encoder.lstm.bias_hh_l0 f4 [128]
0.18115109 0.17242794 0.107523926 0.25762895 0.19185129 0.20883538 0.1942476 0.18657373
0.03668518 0.3446719 0.014135666 0.21427724 0.07668174 0.6537867 0.11406179 0.28022978
0.06312143 0.38351405 0.21470736 -0.09318667 0.036809426 0.31045577 0.31747115 0.11525045
0.23174882 0.41297328 0.21956624 0.047406293 0.28839585 0.39046866 0.044229418 0.19564775
0.13477576 -0.20718907 -0.037061647 0.028576858 0.22210173 0.37554654 0.092383906 0.36374077
0.17501514 0.3631925 0.12084287 0.15438771 0.23393041 0.39032903 0.22710577 0.23617764
0.29830146 0.092977785 0.13836758 -0.010313602 0.14839756 0.18977839 -0.023715885 0.21458645
0.26608533 0.29851753 0.1770767 0.2897736 0.18696682 0.30110687 0.33956274 0.17419255
0.11158368 -0.22800754 -0.2040185 -0.111005746 0.06388471 -0.17105035 0.14703469 0.051272172
-0.026735978 -0.16111073 -0.1547866 -0.26840165 0.031439077 -0.060212024 0.010388504 -0.08195368
0.2584394 -0.18347508 -0.01487324 -0.027573455 -0.3868813 0.014896585 -0.18351765 -0.14556439
0.17453171 -0.07066469 -0.21449627 -0.10086119 -0.14740312 0.20492506 -0.25916016 -0.16311653
0.2611607 0.26530236 0.25217378 0.16991204 0.43153855 0.100636825 0.093017146 -0.06418401
0.36239135 0.2536643 0.09859889 0.07843192 0.108376205 0.3102813 0.040348694 0.054060988
0.030953635 0.45505244 0.04620056 0.26628464 0.03919051 0.07731961 0.22580071 0.20140141
0.013605934 0.14835776 0.073786065 0.23192531 0.22158164 -0.028258113 0.25742018 0.2111077
00000000: ac7f 393e f390 303e 8135 dc3d f1e7 833e
00000010: aa74 443e f1d8 553e d8e8 463e 2f0d 3f3e
00000020: 3343 163d d678 b03e 4899 673c 7e6b 5b3e
00000030: 510b 9d3d 915e 273f 3a99 e93d 477a 8f3e
00000040: cf45 813d f45b c43e 3fdc 5b3e a7d8 bebd
00000050: 7bc5 163d 0ff4 9e3e 948b a23e 6e08 ec3d
00000060: 904f 6d3e 3c71 d33e f9d5 603e 1a2d 423d
00000070: 9fa8 933e 82eb c73e e829 353d e257 483e
00000080: a802 0a3e 5f29 54be f4cd 17bd 041a ea3c
00000090: a36e 633e a347 c03e c633 bd3d 3b3c ba3e
000000a0: 2b37 333e 5ef4 b93e 777c f73d d017 1e3e
000000b0: 748b 6f3e 35d9 c73e 6a8e 683e 8dd8 713e
000000c0: f8ba 983e 236b be3d 3bb0 0d3e 62fa 28bc
000000d0: 88f5 173e 4455 423e d147 c2bc 8dbc 5b3e
000000e0: 563c 883e 4ad7 983e 9853 353e 355d 943e
000000f0: 3b74 3f3e ae2a 9a3e 2bdb ad3e 885f 323e
00000100: fc85 e43d cf7a 69be 3aea 50be fb56 e3bd
00000110: fdd5 823d d327 2fbe 4390 163e c502 523d
00000120: 6905 dbbc 36fa 24be 6180 1ebe f16b 89be
00000130: 43c6 003d e2a0 76bd 8b34 2a3c 55d7 a7bd
00000140: 2b52 843e e4e0 3bbe e4ae 73bc bae1 e1bc
00000150: 4e15 c6be ce10 743c 0dec 3bbe d50e 15be
00000160: 71b8 323e a6b8 90bd e9a4 5bbe 5090 cebd
00000170: d8f0 16be e0d7 513e a4b0 84be 0508 27be
00000180: dbb6 853e b6d5 873e ec1c 813e 6cfd 2d3e
00000190: 9ff2 dc3e ae1a ce3d c67f be3d e872 83bd
000001a0: 5c8b b93e 4ae0 813e 37ee c93d eaa0 a03d
000001b0: 58f4 dd3d 31dd 9e3e ac44 253d 0e6f 5d3d
000001c0: 7a92 fd3c a2fc e83e cc3c 3d3d 7656 883e
000001d0: 3a86 203d be59 9e3d 4d38 673e 2c3c 4e3e
000001e0: 6ceb 5e3c 19eb 173e 261d 973d d47d 6d3e
000001f0: 4ce6 623e 8f7d e7bc 94cc 833e 9e2c 583e

policy.net.0.weight f4 [128, 32]
-0.35222167 -0.0040208413 -0.11416951 -0.41255447 0.0388168 -0.19434857 0.0019871087 0.39574355
0.5329167 -0.20024714 -0.12616423 -0.2576314 -0.3762714 0.06455105 -0.019666424 0.18443175
-0.032354034 -0.18161768 -0.31558403 0.19341624 0.06407491 0.07953056 -0.14090598 -0.10143815
0.19680211 0.2691156 -0.2243719 -0.40218785 -0.16459471 0.02785394 -0.16888401 -0.28447142
0.00738455 -0.041628204 -0.1406844 -0.029833384 -0.10237993 -0.08433623 -0.37515083 0.41845825
0.48494658 -0.14547633 -0.090559125 -0.0016305436 -0.21919174 -0.10787307 -0.134147 0.012914505
0.1013993 -0.12956865 -0.022377146 0.090375744 -0.39314258 -0.0630223 -0.008666259 0.036861237
0.19744815 0.07116623 0.20949002 0.055494506 -0.17027757 0.15301937 0.25292024 -0.26980188
-0.22641551 -0.16295508 -0.086588204 -0.24800937 -0.014414233 -0.20059526 -0.10888529 0.38722768
0.61407137 -0.11777456 0.121705525 0.13270627 -0.38881528 -0.08747893 -0.22481228 0.1527904
-0.07933914 0.038702313 -0.14441787 0.47063634 -0.10912324 0.149534 -0.09441474 -0.23626064
-0.06976603 0.23160246 -0.06720228 0.061557528 -0.11728683 -0.029320834 0.10084354 -0.38644397
0.3575215 -0.33984455 -0.0046542366 0.1986249 0.15418871 0.03386745 -0.2524704 -0.20710301
0.26304957 -0.098121114 0.21610449 -0.05831747 -0.57236606 -0.005757583 0.21197517 -0.24665783
-0.3806849 0.08856194 -0.09226867 0.07644486 -0.06362183 -0.25043842 0.08755753 -0.31868768
-0.04452564 -0.08767247 0.4104986 0.35161427 0.13585053 -0.049135506 0.19296719 -0.12710771
0.080482066 0.3157831 -0.12120363 -0.23204274 -0.11250652 0.23115914 -0.12546621 -0.35861185
-0.31993598 -0.17816441 0.47956014 -0.44125763 -0.749735 -0.23110099 0.09939565 -0.16404073
-0.2321051 -0.42581785 -0.013698469 -0.06816574 -0.03433081 -0.69743884 0.015456981 0.049259435
-0.23702046 -0.06519563 0.36400414 -0.070028685 0.22197402 -0.5737112 0.27597967 -0.018327259
0.047519334 -0.22490653 -0.22780217 0.21755226 0.24328944 -0.30289492 0.31740022 -0.23230454
-0.20861386 0.05747403 -0.0026300368 0.12542516 0.37990618 -0.19180216 0.064709075 -0.11693927
0.101263925 0.20278302 -0.036968615 -0.053683404 -0.06320461 -0.14028586 -0.013180289 -0.109111905
-0.09946432 -0.18965876 -0.108035654 0.209717 -0.05723228 -0.060200166 -0.2820357 0.38559523
-0.08343114 0.08994877 0.53975785 -0.33924028 0.10088326 -0.1745491 0.0827444 0.013401646
-0.32283768 -0.020324288 0.30019918 0.26242927 -0.29988754 0.017119732 -0.3773682 -0.10695501
-0.15150802 -0.1488749 -0.09161676 -0.2691434 -0.34601888 -0.52467567 0.20657173 0.38046247
-0.091732405 0.3054456 -0.0858645 0.048690524 0.3064293 -0.46620774 0.03451773 0.046076536
0.12612647 0.1212826 0.066940375 0.12091878 -0.131946 -0.032924265 -0.115940906 -0.13299936
0.085349485 -0.033595107 -0.08230007 -0.01104863 -0.12577055 0.035410702 0.07209716 0.014740382
-0.021377206 0.051765293 0.06836009 -0.027150877 0.16707402 -0.22788648 -0.008116701 0.01999244
-0.07393287 0.08391647 -0.104291864 0.11350249 0.020414604 0.011899751 0.025490671 0.13336028
00000000: 6656 b4be 43c1 83bb b4d1 e9bd 573a d3be
00000010: 5dfe 1e3d 5003 47be 273a 023b e69e ca3e
00000020: 3b6d 083f 960d 4dbe 3231 01be 43e8 83be
00000030: a5a6 c0be 5733 843d 7b1b a1bc addb 3c3e
00000040: aa85 04bd fcf9 39be 3b94 a1be e80e 463e
00000050: b539 833d ebe0 a23d a849 10be cebe cfbd
00000060: 7e86 493e 85c9 893e bfc1 65be 91eb cdbe
00000070: 848b 28be f22d e43c eeef 2cbe 3da6 91be
00000080: 18fa f13b 5682 2abd 920f 10be 2465 f4bc
00000090: 92ac d1bd 79b8 acbd c513 c0be 2940 d63e
000000a0: eb4a f83e bff7 14be 1077 b9bd f7b7 d5ba
000000b0: cd73 60be 8eec dcbd d55d 09be 5c97 533c
000000c0: 70aa cf3d a5ad 04be 4750 b7bc eb16 b93d
000000d0: fc49 c9be d611 81bd edfc 0dbc cffb 163d
000000e0: d92f 4a3e 9abf 913d 8d84 563e 354e 633d
000000f0: 3e5d 2ebe 1cb1 1c3e c37e 813e 7923 8abe
00000100: 78d9 67be b2dd 26be 2855 b1bd 2bf6 7dbe
00000110: ad29 6cbc d868 4dbe 40ff debd b542 c63e
00000120: c833 1d3f ca33 f1bd bf40 f93d 27e4 073e
00000130: cc12 c7be 2728 b3bd 3135 66be 1675 1c3e
00000140: 8f7c a2bd 5186 1e3d 47e2 13be 3ff7 f03e
00000150: 017c dfbd 711f 193e 845c c1bd 4fee 71be
00000160: 7ee1 8ebd 3229 6d3e 59a1 89bd bf23 7c3d
00000170: 1434 f0bd 3f32 f0bc 0f87 ce3d fcdb c5be
00000180: 0f0d b73e 1b00 aebe 9182 98bb 5364 4b3e
00000190: a5e3 1d3e 98b8 0a3d cd43 81be d012 54be
000001a0: 6fae 863e b9f3 c8bd 7f4a 5d3e 4dde 6ebd
000001b0: 9586 12bf 1baa bcbb 0510 593e df93 7cbe
000001c0: 22e9 c2be f65f b53d 5bf7 bcbd 1f8f 9c3d
000001d0: 294c 82bd 7739 80be 5d51 b33d 082b a3be
000001e0: 8460 36bd a08d b3bd df2c d23e c906 b43e
000001f0: 671c 0b3e 5042 49bd 3199 453e 8628 02be
00000200: c8d3 a43d 53ae a13e 9c39 f8bd 9d9c 6dbe
00000210: d169 e6bd fbb4 6c3e 377a 00be f99b b7be
00000220: a6ce a3be bb70 36be e888 f53e 85ec e1be
00000230: a2ee 3fbf bda5 6cbe f28f cb3d 4bfa 27be
00000240: f6ac 6dbe cc04 dabe 8b6f 60bc 7b9a 8bbd
00000250: 779e 0cbd 5a8b 32bf 473f 7d3c 43c4 493d
00000260: 7eb5 72be 4985 85bd c05e ba3e 336b 8fbd
00000270: 284d 633e bdde 12bf 354d 8d3e 0c23 96bc
00000280: a2a3 423d e64d 66be f944 69be 05c6 5e3e
00000290: de20 793e 0b15 9bbe 4882 a23e 3ee1 6dbe
000002a0: df9e 55be e369 6b3d b25c 2cbb 746f 003e
000002b0: 1083 c23e c967 44be 3186 843d db7d efbd
000002c0: 7663 cf3d 5aa6 4f3e 676c 17bd 21e3 5bbd
000002d0: 6b71 81bd 19a7 0fbe 24f2 57bc 1076 dfbd
000002e0: f3b3 cbbd e835 42be cc41 ddbd 0ec0 563e
000002f0: 656c 6abd 7394 76bd fc66 90be bd6c c53e
00000300: f2dd aabd 1037 b83d 922d 0a3f e7b0 adbe
00000310: e29b ce3d 00bd 32be e575 a93d 9492 5b3c
00000320: fb4a a5be 1f7f a6bc b5b3 993e 215d 863e
00000330: dc8a 99be ae3e 8c3c 6836 c1be 3a0b dbbd
00000340: eb24 1bbe a972 18be 91a1 bbbd 2acd 89be
00000350: 6329 b1be 2551 06bf 8a87 533e facb c23e
00000360: 33de bbbd 5e63 9c3e bad9 afbd b76f 473d
00000370: 4de4 9c3e c8b2 eebe 7762 0d3d c0ba 3c3d
00000380: 4c27 013e 0363 f83d 0918 893d 44a4 f73d
00000390: da1c 07be 98db 06bd 6d72 edbd fc30 08be
000003a0: b6cb ae3d 069b 09bd f08c a8bd 5005 35bc
000003b0: ffc9 00be d00a 113d ada7 933d a581 713c
000003c0: 401f afbc d807 543d 6000 8c3d 846b debc
000003d0: 7415 2b3e 135b 69be e9fb 04bc 2fc7 a33c
000003e0: 1e6a 97bd 66dc ab3d f996 d5bd fe73 e83d
000003f0: 873c a73c 2cf7 423c d0d1 d03c 998f 083e

policy.net.0.bias f4 [128]
0.22470151 0.18140197 0.06806028 0.096482806 -0.10102073 0.065253556 -0.10469514 -0.30703717
0.072295666 0.07899274 0.25683662 0.008280442 0.25532618 0.075197496 0.110555716 0.039097417
0.025660029 0.16918634 0.021641169 0.06506294 0.033828765 0.021778261 0.14785892 -0.023270829
-0.06820114 -0.15871774 -0.14762908 0.018144857 0.10627541 0.08972515 0.14089365 0.044838667
-0.25170484 -0.028273255 0.06347864 0.123104885 -0.017346345 -0.040155046 0.17836037 0.17526698
0.046120733 0.19437386 0.16963224 -0.028801998 0.10445756 0.16465335 -0.041004814 -0.021750355
0.22617397 0.07375169 -0.19371626 0.022108397 0.16629863 -0.24726054 0.08044453 0.095406435
-0.11432571 0.0018431268 0.10015464 -0.017210558 0.17784958 0.24999991 0.24564888 -0.13039106
2.5086983e-05 -0.042613115 0.08478268 -0.00047900982 -0.0856762 0.08589793 -0.22179635 0.010645933
0.056094557 0.15991125 0.046484675 -0.19727913 0.03267499 0.19731832 0.15018865 0.23199257
0.08763293 0.14264064 0.12426125 0.06715236 0.118748285 -0.0035540618 -0.023428522 -0.080808155
0.090931475 0.028462432 0.02813422 0.31104982 0.12701559 0.15134221 0.29297048 -0.024260083
0.17908205 0.13553324 0.025259126 0.10670777 0.20514789 -0.069815055 0.18646984 0.040140953
0.08807319 0.16170746 0.14423451 -0.022476053 0.100317605 0.09298815 -0.08431189 0.09614384
0.22447953 -0.036201138 0.16445458 0.16698544 -0.042718727 0.012816413 0.11687615 0.16085376
0.28598908 0.2635904 0.00041465234 0.16643745 0.12946106 0.15699528 0.13816573 -0.07957846
00000000: 2718 663e 70c1 393e 3063 8b3d c798 c53d
00000010: f5e3 cebd a8a3 853d 686a d6bd fa33 9dbe
00000020: c00f 943d f2c6 a13d 1780 833e b1aa 073c
00000030: 1dba 823e 2501 9a3d 096b e23d 9d24 203d
00000040: fb34 d23c 2f3f 2d3e d248 b13c b83f 853d
00000050: 0890 0a3d 5368 b23c 5468 173e 77a2 bebc
00000060: 0aad 8bbd e786 22be 142c 17be 86a4 943c
00000070: eca6 d93d d2c1 b73d 6d46 103e c0a8 373d
00000080: 75df 80be 509d e7bc 1701 823d 6a1e fc3d
00000090: ec19 8ebc 9e79 24bd 1aa4 363e 3079 333e
000000a0: 18e9 3c3d f109 473e 13b4 2d3e 2bf2 ebbc
000000b0: d8ed d53d e39a 283e aaf4 27bd cd2d b2bc
000000c0: 269a 673e 200b 973d 8e5d 46be ab1c b53c
000000d0: 304a 2a3e de31 7dbe 1ac0 a43d 7364 c33d
000000e0: 9923 eabd 1395 f13a e01d cd3d 28fd 8cbc
000000f0: 331e 363e faff 7f3e 618b 7b3e 3c85 05be
00000100: e371 d237 178b 2ebd 8ba2 ad3d 9c23 fbb9
00000110: 0177 afbd 41eb af3d 951e 63be 486c 2e3c
00000120: 68c3 653d c6bf 233e b766 3e3d 8a03 4abe
00000130: 36d6 053d d00d 4a3e 0ecb 193e 768f 6d3e
00000140: e578 b33d 6310 123e af7c fe3d 2d87 893d
00000150: 4d32 f33d 43eb 68bb 2ced bfbc bf7e a5bd
00000160: 483a ba3d 0c2a e93c bc79 e63c ec41 9f3e
00000170: 6010 023e 74f9 1a3e 3a00 963e 15bd c6bc
00000180: 4961 373e 3ac9 0a3e 3aec ce3c 9a89 da3d
00000190: 4a12 523e 32fb 8ebd f3f1 3e3e d76a 243d
000001a0: b75f b43d a496 253e 36b2 133e b31f b8bc
000001b0: 5173 cd3d 9270 be3d b6ab acbd 10e7 c43d
000001c0: f6dd 653e a547 14bd c866 283e 3bfe 2a3e
000001d0: d5f9 2ebd effb 513c c35c ef3d d9b6 243e
000001e0: 296d 923e 52f5 863e b265 d939 946e 2a3e
000001f0: 7191 043e 5fc3 203e 517b 0d3e 08fa a2bd

policy.net.2.weight f4 [5, 128]
-0.16514589 -0.18317592 -0.80076945 -0.16268362 -3.0071895 -1.5112004 -1.6345923 0.022206094
-0.18571886 -0.2744029 -0.12788244 -0.83510286 -0.21943946 -0.43436506 -0.24034837 -0.30838066
-0.25698847 -0.21035609 -0.17128626 -1.1420482 -1.726584 -0.17321175 -0.040757667 -0.6433803
-1.1855212 -1.1658385 -0.33323246 -0.14758332 -0.35004598 -0.2608918 -0.17123874 -0.28473777
-0.73611903 -0.1578407 -0.31831938 -0.13447608 -0.7300864 -2.495401 -0.28400028 -0.60087526
-0.40485275 -0.083384275 -0.32948092 -0.27307242 -0.729878 -0.09456608 -0.19531743 -0.2455255
-0.24686056 -1.5914308 -0.8527462 -0.3677376 -0.26067245 -0.44194597 -0.2989309 -0.4363102
-3.231107 -1.0809845 -0.28846693 -1.8910376 -0.108817905 -0.21227472 -0.15207183 -3.0016108
-3.2381637 -2.3721836 -0.19676165 -2.9962769 -1.618286 -0.08279842 -1.3864846 -2.8475385
-0.06266249 -0.24702375 -0.96589833 -0.06652518 -0.4055937 -0.21475233 -0.10446284 -0.14447789
-0.658708 -0.17170246 -0.2017504 -0.006962564 -0.33457398 -0.116111785 -0.92239153 -2.149235
-0.20330688 -0.28196508 -0.40752038 -0.20143837 -0.14040087 -1.5753068 -0.40451777 -0.24890052
-0.16803901 -0.3919202 -0.858708 -0.24387817 -0.3495572 -0.33439976 -0.1387109 -0.98651844
-0.18161483 -0.23151731 -0.2901737 -0.4340586 -1.5777986 -0.13172877 -0.3448396 -1.0811397
-0.24550414 -0.9052759 -0.17311253 -0.2877898 -0.9760684 -0.78436214 -1.1293035 -0.15595858
-0.20690905 -0.23967506 -0.26727718 -0.16778292 -0.14318614 -0.15935956 -0.25032118 -1.1610963
-0.32916367 -0.053882185 0.12944448 -0.12815109 -0.78255343 0.16163169 0.02356925 0.059674576
0.08891941 0.42592984 0.05585947 -0.009830859 -0.015647853 0.22281073 -0.10722059 0.19159724
0.115379915 0.22735336 0.034010712 -0.16632366 0.20250754 0.14063306 0.18550538 0.038623642
0.9016169 0.024111124 0.009139164 -0.029108226 0.029903961 0.09764422 0.16247238 0.1268927
1.0559042 -0.05481546 -0.17729197 0.026424473 0.08521199 -0.4305907 0.082837455 -0.248608
-0.22910766 -0.24880697 -0.39244002 0.004116086 0.16778646 0.19062665 0.051979747 -0.032365385
0.19235052 0.48763955 -0.25199252 0.06680781 -0.04423544 -0.023713093 0.10454531 -0.17090435
0.7451473 -0.22486952 -0.093512096 0.13222632 -0.01871857 -0.06793343 0.07917604 0.34234902
0.28850698 -0.3474694 0.015024756 -0.3304987 -0.45628813 0.039456848 -0.41319278 -0.013285835
-0.1885475 -0.008518484 0.19901419 -0.008924679 -0.1263326 0.0315502 -0.3018191 -0.04025252
0.12604801 -0.15356414 -0.023558762 -0.10169201 0.09643394 -0.02346736 -0.19326434 -0.6072978
0.124673136 0.029202055 0.4198392 0.5620765 0.2366133 0.25217193 -0.019963605 -0.087142736
-0.06763482 0.08747052 0.15189983 -0.06175725 -0.0075380607 0.121315144 -0.039366156 0.12534168
0.08130156 -0.19527106 0.024974342 0.0062725265 -0.43299595 0.02699246 0.11573776 0.40479004
0.24386981 0.3670286 0.059701856 -0.32563904 0.3600588 -0.39953047 0.13170353 0.000981012
-0.068202645 0.021558093 -0.5939851 -0.10148877 0.16766746 0.16654968 0.19933493 -0.090373375
00000000: 011c 29be 7892 3bbe 3aff 4cbf 8996 26be
00000010: cb75 40c0 046f c1bf 523a d1bf 8ee9 b53c
00000020: 162d 3ebe 897e 8cbe 9df3 02be 4dc9 55bf
00000030: bdb4 60be 1965 debe e21d 76be 12e4 9dbe
00000040: fe93 83be 9667 57be aa65 2fbe a32e 92bf
00000050: b400 ddbf 6c5e 31be 83f1 26bd 92b4 24bf
00000060: 29bf 97bf 323a 95bf 729d aabe 1520 17be
00000070: 3a39 b3be 9c93 85be 3559 2fbe 26c9 91be
00000080: 4c72 3cbf fea0 21be c2fa a2be 19b4 09be
00000090: f1e6 3abf a6b4 1fc0 7c68 91be f6d2 19bf
000000a0: dc48 cfbe 60c5 aabd b9b1 a8be 26d0 8bbe
000000b0: 49d9 3abf dcab c1bd 4b01 48be 096b 7bbe
000000c0: 04c9 7cbe 01b4 cbbf 934d 5abf 1a48 bcbe
000000d0: dc76 85be be46 e2be 790d 99be 0d64 dfbe
000000e0: 75ca 4ec0 b35d 8abf f0b1 93be 850d f2bf
000000f0: ecdb debd 8b5e 59be b8b8 1bbe 641a 40c0
00000100: 133e 4fc0 dbd1 17c0 e37b 49be 00c3 3fc0
00000110: ff23 cfbf 3892 a9bd 5478 b1bf 123e 36c0
00000120: 3155 80bd cbf3 7cbe 1d45 77bf 5b3e 88bd
00000130: faa9 cfbe 09e8 5bbe 9df0 d5bd 03f2 13be
00000140: 16a1 28bf c5d2 2fbe a897 4ebe 3826 e4bb
00000150: 484d abbe 04cc edbd da21 6cbf 118d 09c0
00000160: ae2f 50be ba5d 90be 83a6 d0be dc45 4ebe
00000170: 3fc5 0fbe a7a3 c9bf f41c cfbe c7df 7ebe
00000180: 6b12 2cbe c4a9 c8be 4ad4 5bbf 33bb 79be
00000190: 29f9 b2be 7236 abbe 3b0a 0ebe 798c 7cbf
000001a0: 3df9 39be e012 6dbe a691 94be ee3c debe
000001b0: 4ef5 c9bf e8e3 06be d18e b0be c962 8abf
000001c0: 7065 7bbe 29c0 67bf 6944 31be 2f59 93be
000001d0: 9edf 79bf f5cb 48bf 048d 90bf 9bb3 1fbe
000001e0: f7df 53be 616d 75be 8ed8 88be 49cf 2bbe
000001f0: 639f 12be 272f 23be 192a 80be ce9e 94bf
00000200: 2488 a8be 91b3 5cbd 188d 043e 0a3a 03be
00000210: 6c55 48bf c782 253e 4d14 c13c 546d 743d
00000220: 611b b63d 7a13 da3e e6cc 643d 9c11 21bc
00000230: ed2f 80bc 7f28 643e 7896 dbbd 1132 443e
00000240: 4e4c ec3d 52cf 683e d14e 0b3d c050 2abe
00000250: 235e 4f3e 1d02 103e 1ff5 3d3e d333 1e3d
00000260: 5dd0 663f b184 c53c 6fbc 153c 6074 eebc
00000270: 27f9 f43c b1f9 c73d 295f 263e 29f0 013e
00000280: de27 873f 2d86 60bd 078c 35be 2378 d83c
00000290: a083 ae3d 6276 dcbe afa6 a93d 1893 7ebe
000002a0: 339b 6abe 41c7 7ebe e6ed c8be 3be0 863b
000002b0: 37d0 2b3e a233 433e b7e8 543d 9191 04bd
000002c0: 89f7 443e e4ab f93e 2a05 81be 88d2 883d
000002d0: 3930 35bd f641 c2bc da1b d63d 8d01 2fbe
000002e0: f9c1 3e3f 3244 66be 4583 bfbd 5666 073e
000002f0: b057 99bc af20 8bbd 0c27 a23d 5f48 af3e
00000300: 30b7 933e 82e7 b1be 652a 763c 2037 a9be
00000310: 999e e9be 819d 213d 018e d3be d5ac 59bc
00000320: 9912 41be 1d91 0bbc 60ca 4b3e d138 12bc
00000330: 555d 01be c83a 013d 0888 9abe d4df 24bd
00000340: bb12 013e eb3f 1dbe 4efe c0bc e743 d0bd
00000350: 287f c53d 9f3e c0bc 16e7 45be de77 1bbf
00000360: a154 ff3d 2639 ef3c 2af5 d63e 3fe4 0f3f
00000370: c24a 723e ae1c 813e b78a a3bc e477 b2bd
00000380: 2084 8abd be23 b33d a18b 1b3e 2cf5 7cbd
00000390: d601 f7bb 1374 f83d 683e 21bd 9259 003e
000003a0: 6f81 a63d 23f5 47be fe96 cc3c c489 cd3b
000003b0: a5b1 ddbe 4b1f dd3c eb07 ed3d a440 cf3e
000003c0: 02b9 793e 2ceb bb3e ef89 743d 29ba a6be
000003d0: a159 b83e 428f ccbe 4add 063e 4d95 803a
000003e0: d4ad 8bbd 999a b03c 680f 18bf 58d9 cfbd
000003f0: 05b1 2b3e 008c 2a3e 751e 4c3e ad15 b9bd

policy.net.2.bias f4 [5]
-0.1166388 -0.03198285 0.09111386 0.0028552283 0.08890572
00000000: 53e0 eebd 7300 03bd e799 ba3d c81e 3b3b
00000010: 3414 b63d

exp_avg f4 [900, 16]
-0.00016969179 -2.5684642e-05 -9.491527e-06 -8.520536e-05 0.00016005163 0.0002594969 0.0001126851 -0.00018915464
-7.445125e-05 -8.332768e-05 0.00019998336 -1.0119991e-05 -3.6714462e-06 2.0779966e-05 0.00018329355 -0.00014264768
0.00013890941 8.665761e-05 -5.341593e-05 4.34966e-05 -5.2565742e-06 -5.219601e-05 -3.371528e-06 -0.0001411777
-1.0768998e-05 7.463679e-07 -3.9580646e-05 1.2940725e-05 -3.487661e-05 2.151692e-05 -3.1232507e-06 -8.43876e-05
4.680925e-06 0.00012633186 -0.00011705262 -9.15491e-06 4.3769405e-06 7.241304e-06 -4.9782488e-05 -1.2245182e-05
-4.7974972e-05 5.234013e-05 1.8629597e-05 -3.1491687e-05 -2.263997e-05 -2.9525017e-05 3.4480883e-05 -4.2725693e-05
6.555168e-05 0.00013717696 -7.2325915e-05 -2.867252e-06 2.981784e-06 1.9506733e-05 -2.9432284e-05 -2.543163e-05
-5.450556e-05 -2.5405207e-05 -1.0223792e-05 -3.6598605e-05 -4.2647498e-05 -6.005064e-06 9.882204e-06 -1.2206895e-05
-3.88416e-05 2.8051977e-06 -7.7284196e-05 -1.4058416e-05 3.4098912e-06 2.3049042e-05 3.1314412e-05 2.0718146e-05
-5.2841064e-05 9.877161e-05 -3.8199418e-05 -1.9469864e-05 -3.852466e-05 -0.00021555294 -1.4315514e-05 -3.050969e-05
0.0 0.0 0.0 0.0 0.0 0.0 0.0 0.0
0.0 0.0 0.0 0.0 0.0 0.0 0.0 0.0
0.0 0.0 0.0 0.0 0.0 0.0 0.0 0.0
0.0 0.0 0.0 0.0 0.0 0.0 0.0 0.0
0.0 0.0 0.0 0.0 0.0 0.0 0.0 0.0
0.0 0.0 0.0 0.0 0.0 0.0 0.0 0.0
0.0 0.0 0.0 0.0 0.0 0.0 0.0 0.0
0.0 0.0 0.0 0.0 0.0 0.0 0.0 0.0
0.0 0.0 0.0 0.0 0.0 0.0 0.0 0.0
0.0 0.0 0.0 0.0 0.0 0.0 0.0 0.0
0.0 0.0 0.0 0.0 0.0 0.0 0.0 0.0
0.0 0.0 0.0 0.0 0.0 0.0 0.0 0.0
0.0 0.0 0.0 0.0 0.0 0.0 0.0 0.0
0.0 0.0 0.0 0.0 0.0 0.0 0.0 0.0
-8.97322e-06 -3.194437e-05 2.9603383e-05 -8.669739e-05 -2.8750259e-05 6.184875e-07 -0.00012164939 5.2293468e-05
-6.1921455e-05 -6.456566e-05 6.0813334e-05 6.413224e-05 -2.7096503e-05 9.575235e-06 3.4761586e-05 6.944027e-05
-5.86688e-05 9.243478e-05 -2.1245507e-05 -0.00020851874 -7.865424e-05 3.2360538e-05 -9.4210576e-05 -5.6008237e-05
1.8436995e-05 1.348591e-05 0.00016302255 0.000106930136 3.5162695e-05 4.456615e-05 -3.253115e-05 -3.0685605e-05
-2.69258e-05 0.00010844176 0.00017468774 -5.901618e-05 -8.752206e-06 7.354558e-05 -0.00014340944 0.00013950234
-8.683982e-05 3.413323e-05 0.00014201044 9.01703e-05 -3.0929845e-05 3.9865747e-05 -4.9860155e-05 -2.6288259e-05
4.138432e-05 0.0001352891 8.546652e-05 -0.00011386025 1.50174355e-05 5.420591e-05 -5.162763e-05 -7.075203e-05
4.8411745e-05 0.000101576086 0.00021311422 -3.5045785e-05 -1.689281e-05 -8.9667365e-06 -5.4980097e-05 -7.661618e-05
00000000: 4bef 31b9 5975 d7b7 cc3d 1fb7 48b0 b2b8
00000010: 88d3 2739 160d 8839 5a51 ec38 d057 46b9
00000020: b622 9cb8 35c0 aeb8 a0b2 5139 08c9 29b7
00000030: f762 76b6 a350 ae37 7d32 4039 b293 15b9
00000040: 36a8 1139 f3bb b538 eb0a 60b8 1e70 3638
00000050: a161 b0b6 0aed 5ab8 6942 62b6 1a09 14b9
00000060: 7fac 34b7 035a 4835 6503 26b8 fe1b 5937
00000070: 7a48 12b8 3c7f b437 0a99 51b6 3ff9 b0b8
00000080: d710 9d36 f377 0439 267a f5b8 0a98 19b7
00000090: a2dd 9236 54fa f236 8acd 50b8 a870 4db7
000000a0: bc38 49b8 c987 5b38 c146 9c37 f115 04b8
000000b0: f7ea bdb7 7eac f7b7 919f 1038 5d34 33b8
000000c0: ca78 8938 29d7 0f39 aead 97b8 046b 40b6
000000d0: a91a 4836 64a2 a337 59e5 f6b7 0256 d5b7
000000e0: e69c 64b8 441d d5b7 da86 2bb7 7481 19b8
000000f0: 67e0 32b8 1b7f c9b6 becb 2537 37cc 4cb7
00000100: dae9 22b8 ee40 3c36 a313 a2b8 70dc 6bb7
00000110: 7cd5 6436 7159 c137 9857 0338 e1cb ad37
00000120: a9a1 5db8 9b23 cf38 5038 20b8 3753 a3b7
00000130: 8a95 21b8 0d06 62b9 aa2c 70b7 0fef ffb7
00000140: 0000 0000 0000 0000 0000 0000 0000 0000
00000150: 0000 0000 0000 0000 0000 0000 0000 0000
00000160: 0000 0000 0000 0000 0000 0000 0000 0000
00000170: 0000 0000 0000 0000 0000 0000 0000 0000
00000180: 0000 0000 0000 0000 0000 0000 0000 0000
00000190: 0000 0000 0000 0000 0000 0000 0000 0000
000001a0: 0000 0000 0000 0000 0000 0000 0000 0000
000001b0: 0000 0000 0000 0000 0000 0000 0000 0000
000001c0: 0000 0000 0000 0000 0000 0000 0000 0000
000001d0: 0000 0000 0000 0000 0000 0000 0000 0000
000001e0: 0000 0000 0000 0000 0000 0000 0000 0000
000001f0: 0000 0000 0000 0000 0000 0000 0000 0000
00000200: 0000 0000 0000 0000 0000 0000 0000 0000
00000210: 0000 0000 0000 0000 0000 0000 0000 0000
00000220: 0000 0000 0000 0000 0000 0000 0000 0000
00000230: 0000 0000 0000 0000 0000 0000 0000 0000
00000240: 0000 0000 0000 0000 0000 0000 0000 0000
00000250: 0000 0000 0000 0000 0000 0000 0000 0000
00000260: 0000 0000 0000 0000 0000 0000 0000 0000
00000270: 0000 0000 0000 0000 0000 0000 0000 0000
00000280: 0000 0000 0000 0000 0000 0000 0000 0000
00000290: 0000 0000 0000 0000 0000 0000 0000 0000
000002a0: 0000 0000 0000 0000 0000 0000 0000 0000
000002b0: 0000 0000 0000 0000 0000 0000 0000 0000
000002c0: 0000 0000 0000 0000 0000 0000 0000 0000
000002d0: 0000 0000 0000 0000 0000 0000 0000 0000
000002e0: 0000 0000 0000 0000 0000 0000 0000 0000
000002f0: 0000 0000 0000 0000 0000 0000 0000 0000
00000300: b08b 16b7 02fc 05b8 c854 f837 4fd1 b5b8
00000310: b62c f1b7 2306 2635 051e ffb8 af55 5b38
00000320: d4db 81b8 6d67 87b8 d211 7f38 bc7e 8638
00000330: 4c4d e3b7 52a5 2037 f8cc 1138 76a0 9138
00000340: 2513 76b8 8bd9 c138 6138 b2b7 d3a5 5ab9
00000350: 2cf3 a4b8 ddba 0738 eb92 c5b8 63ea 6ab8
00000360: 25a9 9a37 8b41 6237 08f1 2a39 ae3f e038
00000370: a87b 1338 8aec 3a38 0e72 08b8 6bb4 00b8
00000380: b7de e1b7 3a6b e338 622c 3739 2488 77b8
00000390: 70d6 12b7 7c3c 9a38 2e60 16b9 6047 1239
000003a0: c61d b6b8 472a 0f38 a3e8 1439 d019 bd38
000003b0: abba 01b8 8535 2738 ef20 51b8 9b85 dcb7
000003c0: 1394 2d38 64dc 0d39 7d3c b338 42c8 eeb8
000003d0: 65f3 7b37 275b 6338 bf8a 58b8 b560 94b8
000003e0: b70d 4b38 3f05 d538 6a77 5f39 20fe 12b8
000003f0: 09b5 8db7 d76f 16b7 6e9a 66b8 00ad a0b8
