SGE_Transformer/model/2_room/eil_2_room_198_model/EBC_model_103999.pth (torch, 319327 bytes, 27 tensors)

encoder.embedding.weight f4 [900, 16]
0.23481783 -0.957095 0.71102154 1.9615544 0.411659 0.7353111 0.22093827 0.5360653
1.3252758 1.2192495 1.3585811 -0.90779424 1.8889828 -0.37916335 -0.9520051 0.72595364
-1.1199095 -0.017009325 0.47461006 -0.56185114 0.6036116 0.6139871 0.29600096 0.008948336
-0.8995883 -1.5312737 2.2786503 -1.605121 0.8731963 -0.19548774 -0.1861673 -1.2800169
0.56043535 -0.21844868 -0.59239084 0.5078874 0.09482955 0.22752802 -0.4120889 -1.8588222
-0.70005566 1.0919918 -0.8804433 -0.20373333 -1.2035819 0.10087833 -3.4162395 -1.1176884
0.4084919 -0.7279038 -1.4168657 -0.9951535 0.6699037 1.7246004 -1.1097504 0.48886055
-1.3905455 0.078604855 0.7774046 -1.4967717 -1.0927217 -0.7623044 -0.7604706 -2.4732122
0.89491785 0.45492253 -1.5800291 2.3853376 -0.91358364 0.019574316 -1.4818777 0.4613154
-0.8283282 -0.18253452 0.08666624 -1.7256942 -2.0753691 -0.05334479 -0.47861645 0.09045366
0.14950831 0.68173635 1.5676895 0.47556657 -1.0050126 -1.023286 0.5214422 -0.48220333
-0.7726252 2.7445233 -1.9759138 0.415895 1.5672935 -0.03982712 -0.9722075 -0.71206236
0.2399586 -1.199124 1.0634183 -0.6769421 -0.6633918 0.3362924 0.5184555 1.0378041
0.041475523 0.84185106 -0.13130704 -1.4924617 0.36357212 -0.51106703 -0.41850448 1.181892
-0.2659641 0.8041965 -0.307584 1.3537711 0.66702676 -0.23589839 -0.1712208 0.56163234
0.30705154 0.33780503 0.12988454 0.5764989 0.020306023 1.3983688 1.4169482 -0.0058822334
-0.8824504 -0.48821172 -1.3561088 -0.23345223 1.8297452 1.5896279 0.17809501 0.5119587
-0.5462637 -1.4434364 -1.923773 -1.1291713 1.0067925 -0.008793296 -0.804452 1.9658368
1.6479504 0.5699342 -0.012340214 -1.4708327 -0.046256755 -0.5328155 0.65974027 2.1868584
0.48783317 2.1796973 -1.4626534 -1.3909887 -0.43217906 -0.14899805 0.10180085 -0.17570433
0.32208213 1.2037162 0.0853502 -1.7608309 0.059560195 -1.3081975 0.23057866 0.9599387
0.14141941 0.86194164 -1.0958056 -1.1410904 -0.37610725 -0.2558852 -0.28377268 1.1223673
2.0637617 0.13099124 0.91126615 0.09883216 -0.666103 0.9322513 1.6354256 -1.1004666
0.7353627 2.0250545 -2.9137704 0.1907943 0.16965011 -0.70002025 -0.09773357 0.51418406
0.9081825 0.04414282 -1.1230086 1.9667794 0.47032735 -0.6004089 -1.052541 -1.0225475
1.5894624 1.1982695 1.4850897 -0.12571739 -0.8332045 -1.6720417 -1.8881027 -1.7451031
1.7881421 0.05583609 -0.6535947 0.6514448 0.55982125 -0.4309394 -0.15877071 -0.39374048
-0.22924955 -0.6141989 0.6845802 -0.6610104 1.0775627 1.3554347 0.6024689 -0.7477402
-1.2936013 -1.7260503 -0.43518025 -0.5511797 1.1014026 0.72968197 -1.6730146 -1.7698424
1.2212174 0.5821733 0.3646441 -1.3611493 -1.0681354 -0.24342884 -0.3139976 0.26797304
0.052468386 -0.4061508 -0.123048216 0.9756638 1.9637597 0.67192584 -0.03536988 -1.5338328
-0.43465826 -1.9428773 1.3176478 -0.13386941 1.0132825 -0.0006274376 2.3447773 -0.17031337
00000000: 1674 703e 2e04 75bf 8205 363f 3714 fb3f
00000010: f8c4 d23e 593d 3c3f a43d 623e 933b 093f
00000020: a3a2 a93f 5e10 9c3f fce5 ad3f 3465 68bf
00000030: 30ca f13f b321 c2be 9bb6 73bf 19d8 393f
00000040: 3259 8fbf 2457 8bbc 1700 f33e 7ad5 0fbf
00000050: 4a86 1a3f 422e 1d3f 708d 973e 0b9c 123c
00000060: 6b4b 66bf c700 c4bf 68d5 1140 9b74 cdbf
00000070: cb89 5f3f f02d 48be a4a2 3ebe 98d7 a3bf
00000080: b178 0f3f 03b1 5fbe eda6 17bf e904 023f
00000090: ff35 c23d 1bfd 683e 51fd d2be e3ed edbf
000000a0: d936 33bf 63c6 8b3f bb64 61bf 789f 50be
000000b0: f90e 9abf 4c99 ce3d aba3 5ac0 6a10 8fbf
000000c0: da25 d13e e757 3abf db5b b5bf 61c2 7ebf
000000d0: cf7e 2b3f b5bf dc3f 4d0c 8ebf ee4b fa3e
000000e0: 65fd b1bf 95fb a03d fd03 473f 3796 bfbf
000000f0: 4ede 8bbf 6226 43bf 34ae 42bf 1c49 1ec0
00000100: 5619 653f 9beb e83e 653e cabf 5fa9 1840
00000110: 9ee0 69bf 515a a03c 2bae bdbf 8831 ec3e
00000120: 510d 54bf 54ea 3abe 127e b13d 8ce3 dcbf
00000130: d9d2 04c0 1180 5abd 370d f5be c53f b93d
00000140: b518 193e 4686 2e3f 0daa c83f 767d f33e
00000150: 41a4 80bf 09fb 82bf 3c7d 053f 5be3 f6be
00000160: c4ca 45bf 45a6 2f40 beea fcbf 30f0 d43e
00000170: 139d c83f c321 23bd 97e2 78bf b849 36bf
00000180: b5b7 753e e57c 99bf 171e 883f 144c 2dbf
00000190: 0cd4 29bf 842e ac3e 80b9 043f c4d6 843f
000001a0: 3de2 293d 8d83 573f 5a75 06be fc08 bfbf
000001b0: 2026 ba3e 4ad5 02bf 3846 d6be 3d48 973f
000001c0: 722c 88be d2df 4d3f a67b 9dbe 5f48 ad3f
000001d0: 44c2 2a3f 598f 71be 8154 2fbe 23c7 0f3f
000001e0: dc35 9d3e c8f4 ac3e 7400 053e 6f95 133f
000001f0: d158 a63c c0fd b23f 8f5e b53f c0bf c0bb
00000200: 45e8 61bf e3f6 f9be f994 adbf 1a0e 6fbe
00000210: 1735 ea3f ed78 cb3f 8a5e 363e ba0f 033f
00000220: f0d7 0bbf 86c2 b8bf 323e f6bf af88 90bf
00000230: 94de 803f c211 10bc 91f0 4dbf 8aa0 fb3f
00000240: 0af0 d23f 35e7 113f 9c2e 4abc 3f44 bcbf
00000250: b977 3dbd 9966 08bf bde4 283f 7df5 0b40
00000260: 45c5 f93e 2980 0b40 3a38 bbbf eb0b b2bf
00000270: 9346 ddbe f292 18be f77c d03d d6eb 33be
00000280: f3e7 a43e 5f13 9a3f 16cc ae3d e862 e1bf
00000290: 64f5 733d 0473 a7bf d01c 6c3e 8bbe 753f
000002a0: 40d0 103e 35a8 5c3f 5c43 8cbf 400f 92bf
000002b0: 2191 c0be 6303 83be a74a 91be bba9 8f3f
000002c0: ac14 0440 9122 063e bd48 693f 8468 ca3d
000002d0: ba85 2abf 05a8 6e3f a055 d13f 17dc 8cbf
000002e0: bb40 3c3f 7e9a 0140 377b 3ac0 955f 433e
000002f0: c2b8 2d3e 8734 33bf 8a28 c8bd 91a1 033f
00000300: a67e 683f 1acf 343d bfbe 8fbf 6dbf fb3f
00000310: bfce f03e 66b4 19bf aab9 86bf d6e2 82bf
00000320: 8173 cb3f e560 993f 6b17 be3f 0fbc 00be
00000330: e44c 55bf 7605 d6bf 59ad f1bf 8a5f dfbf
00000340: d7e1 e43f 62b4 643d fb51 27bf 16c5 263f
00000350: 7250 0f3f 17a4 dcbe ca94 22be 5a98 c9be
00000360: 65c0 6abe 243c 1dbf a640 2f3f fa37 29bf
00000370: 93ed 893f e27e ad3f 673b 1a3f e76b 3fbf
00000380: ba94 a5bf 37ef dcbf f2cf debe 1d1a 0dbf
00000390: c3fa 8c3f 70cc 3a3f 5825 d6bf 328a e2bf
000003a0: da50 9c3f 4f09 153f a2b2 ba3e 243a aebf
000003b0: a9b8 88bf 6945 79be 4bc4 a0be c333 893e
000003c0: 17e9 563d fff2 cfbe b400 fcbd 1ac5 793f
000003d0: 7a5c fb3f 5503 2c3f 02e0 10bd a254 c4bf
000003e0: 878b debe 34b0 f8bf afa8 a83f 1015 09be
000003f0: 3eb3 813f a07a 24ba d510 1640 a166 2ebe

encoder.lstm.weight_ih_l0 f4 [128, 16]
-0.48603797 0.2619799 -0.44929335 -0.7116586 -0.056874197 0.43485063 -0.16013394 0.35565448
-0.113884054 -0.36145476 -0.6485106 -0.08718831 0.33270845 -0.12634598 -0.01637385 0.4892185
-0.028390812 0.55704755 -0.591626 -0.19077523 -0.19297585 -0.5301223 0.19316354 0.3305572
-0.22102043 -0.96272147 -0.31870854 -0.31412762 0.03340629 -1.0291861 0.18508019 0.0065355496
0.0010315579 -0.29339913 -0.1564392 0.21511869 -0.013714065 0.13913965 0.35087487 0.04078263
0.18070215 -0.3130938 -0.30383396 0.3851438 0.04281725 0.09130597 -0.21037424 0.5649764
-0.59616166 0.186716 0.7468682 0.23470892 -0.044774584 0.16628811 -0.12472703 -0.102331474
-0.047431707 0.35379547 0.05391275 -1.0740712 -0.5720374 -0.15883943 0.31762972 0.115010604
-0.0035388905 0.12021075 0.34846693 0.19919245 0.41261703 0.4225653 -0.15197998 0.03645897
-0.45919228 -0.07894129 0.4372511 -0.06624527 -0.15519129 0.14063358 -0.09669784 -0.21205576
0.30490127 0.5324942 0.13372372 0.09053156 -0.16155382 0.15594135 -0.2733035 0.15426868
0.023079583 -0.9228012 -0.22492868 0.26889184 0.42173627 0.49904722 -0.36259824 0.4278949
-0.077325374 0.2649957 0.078337684 -0.31638873 0.5362534 -0.047478504 0.5114767 0.25364393
0.18516053 0.61019135 -0.0678261 0.35674632 0.402856 0.18511352 0.08641146 0.30278218
-0.2225331 0.13602349 -0.019613897 -0.19128338 0.3202373 0.71271735 0.009043255 0.33496338
-0.5262957 -0.20500481 -1.0192611 -0.23205248 -0.50480807 1.1133456 0.41211537 -0.3281023
0.13941795 -0.31170064 -0.1780755 0.32663772 0.10900355 -0.20912251 0.16329274 0.700575
0.10093712 0.2417754 0.09908074 0.06257077 0.40285137 0.60215163 -0.26158902 0.10872847
0.3394967 0.4153025 -0.18865812 0.16042872 -0.48366314 -0.26567462 -0.059614062 0.4025325
-0.32129544 0.1238975 -0.66277957 -0.25567156 0.29740998 0.57049614 0.06058645 0.405013
0.36173084 0.38075805 0.14089811 -0.25427935 0.04926425 0.10412791 -0.043140177 0.3593486
-0.28226656 -0.5727028 -0.17545645 0.04322316 0.6512261 -0.12985107 -0.15955718 -0.010867294
-0.19963427 0.88599086 -0.68446434 -0.15509132 0.34385377 -0.45236862 0.024064729 0.5972475
-0.8078 0.3437011 -0.08699482 0.4583382 -0.43198904 -0.09559369 0.17330366 0.116178624
-0.042670593 0.62214476 -0.34658405 0.7156534 -0.2820905 0.10204737 -0.732827 0.23729086
0.21402779 0.26351795 0.60124534 0.022038143 0.0671466 0.48401064 0.61762774 0.21668652
-0.087342605 0.10165865 -0.09975318 0.018199846 -0.37345898 -0.027957395 0.4144855 -0.13999356
0.014047632 -0.2635687 -0.0910369 0.2990251 0.34305063 0.39465925 -0.24066864 0.19917487
0.2783835 -0.1255894 -0.22491015 0.49149954 0.16961999 0.14497149 0.17654851 -0.11450201
0.011847176 -0.0168367 -0.2559241 -0.10052939 -0.042952016 -0.24495421 -0.04976469 0.08212996
0.20557803 -0.40811902 -0.24945559 0.015983451 -0.2607042 0.68786544 -0.38458496 -0.26008978
0.08923019 0.17039512 0.32959566 -0.43421564 -0.69134706 0.15394723 0.22363058 0.3252827
00000000: f8d9 f8be 3b22 863e c709 e6be 422f 36bf
00000010: ebf4 68bd bea4 de3e 27fa 23be 5818 b63e
00000020: 0b3c e9bd 9910 b9be ca04 26bf c98f b2bd
00000030: c358 aa3e d760 01be 7422 86bc d97a fa3e
00000040: d993 e8bc ab9a 0e3f cd74 17bf 955a 43be
00000050: 769b 45be 18b6 07bf aacc 453e cb3e a93e
00000060: 2e53 62be ea74 76bf c42d a3be 56d5 a0be
00000070: 09d5 083d 5fbc 83bf a985 3d3e 2a28 d63b
00000080: 5735 873a 6938 96be 9931 20be 1348 5c3e
00000090: f5b0 60bc a07a 0e3e dfa5 b33e b00b 273d
000000a0: fc09 393e d54d a0be 2090 9bbe 9131 c53e
000000b0: 2461 2f3d a0fe ba3d 586c 57be 4ba2 103f
000000c0: 0d9e 18bf 7b32 3f3e c132 3f3f 8957 703e
000000d0: 8e65 37bd 6e47 2a3e e370 ffbd 2a93 d1bd
000000e0: c047 42bd ae24 b53e 9ed3 5c3d 2a7b 89bf
000000f0: 0b71 12bf cea6 22be 5da0 a23e ae8a eb3d
00000100: bbec 67bb 0e31 f63d 426a b23e 1bf9 4b3e
00000110: 8a42 d33e 7b5a d83e a4a0 1bbe 0056 153d
00000120: 401b ebbe f9ab a1bd 60df df3e 9aab 87bd
00000130: 77ea 1ebe 4002 103e 8409 c6bd 2525 59be
00000140: 051c 9c3e 8a51 083f dfee 083e 9c68 b93d
00000150: 5d6e 25be 17af 1f3e 70ee 8bbe 9cf8 1d3e
00000160: 6511 bd3c b33c 6cbf b453 66be 31ac 893e
00000170: d1ed d73e 1e83 ff3e 7aa6 b9be 0a15 db3e
00000180: c45c 9ebd 84ad 873e 826f a03d b4fd a1be
00000190: e747 093f d278 42bd 23f0 023f 9edd 813e
000001a0: b99a 3d3e 8035 1c3f 69e8 8abd 74a7 b63e
000001b0: 2443 ce3e 668e 3d3e 7ef8 b03d 4406 9b3e
000001c0: b8df 63be be49 0b3e 53ad a0bc cadf 43be
000001d0: 25f6 a33e a574 363f 292a 143c 5280 ab3e
000001e0: 51bb 06bf c8ec 51be 2677 82bf 2a9f 6dbe
000001f0: 1a3b 01bf 1c82 8e3f c900 d33e 06fd a7be
00000200: 94c3 0e3e 3a97 9fbe 6d59 36be 0f3d a73e
00000210: 413d df3d 3624 56be 3636 273e e258 333f
00000220: 1fb8 ce3d f893 773e d8ea ca3d 1b25 803d
00000230: 8942 ce3e 9c26 1a3f ffee 85be 08ad de3d
00000240: 83d2 ad3e 87a2 d43e 982f 41be 6d47 243e
00000250: b2a2 f7be 8106 88be e02d 74bd bd18 ce3e
00000260: d680 a4be f9bd fd3d ecab 29bf 62e7 82be
00000270: 1f46 983e 090c 123f 7f29 783d dd5d cf3e
00000280: c934 b93e b8f2 c23e 9847 103e e730 82be
00000290: 4fc9 493d 0441 d53d c1b3 30bd 8afc b73e
000002a0: 3e85 90be a79c 12bf dbaa 33be c50a 313d
000002b0: c1b6 263f aef7 04be f562 23be bc0c 32bc
000002c0: ed6c 4cbe 4cd0 623f 0e39 2fbf 42d0 1ebe
000002d0: 9a0d b03e dc9c e7be 6523 c53c 36e5 183f
000002e0: fbcb 4ebf 97f9 af3e 572a b2bd 4eab ea3e
000002f0: ab2d ddbe a0c6 c3bd 8476 313e 0fef ed3d
00000300: 5cc7 2ebd e144 1f3f 7773 b1be 1035 373f
00000310: 2b6e 90be 36fe d03d 8d9a 3bbf 60fc 723e
00000320: 1a2a 5b3e d3eb 863e 37eb 193f 5689 b43c
00000330: 2884 893d 3ed0 f73e da1c 1e3f 12e3 5d3e
00000340: aee0 b2bd 6932 d03d 654b ccbd d817 953c
00000350: 0436 bfbe e806 e5bc 7237 d43e 795a 0fbe
00000360: 0a28 663c 7af2 86be 8e71 babd d119 993e
00000370: 55a4 af3e c710 ca3e d771 76be 7ff4 4b3e
00000380: 4888 8e3e 829a 00be d94e 66be d4a5 fb3e
00000390: ddb0 2d3e 6873 143e 22c9 343e 0880 eabd
000003a0: a81a 423c 1eed 89bc 7c08 83be 5ae2 cdbd
000003b0: 74ee 2fbd 47d5 7abe 0fd6 4bbd c133 a83d
000003c0: 0c83 523e faf4 d0be 4971 7fbe baef 823c
000003d0: 057b 85be f317 303f 52e8 c4be 7d2a 85be
000003e0: 51be b63d 0f7c 2e3e c3c0 a83e 8351 debe
000003f0: 1ffc 30bf 58a4 1d3e 6aff 643e 748b a63e

encoder.lstm.weight_hh_l0 f4 [128, 32]
-1.0108644 -0.11838649 -0.23420078 0.30296642 0.55891293 -0.32580817 -0.022450997 -0.58113927
-0.020664496 -0.58478487 -0.14565104 -0.32346398 0.35598493 -0.103818476 0.433248 -0.33741152
0.31283307 -0.13142973 -0.4255455 -0.9812232 -0.10416357 0.2519971 -0.6941416 -0.5627904
0.22310774 -0.16545783 -0.06304635 -0.053856894 -0.61086893 0.19618624 0.025905529 -0.20087521
-0.18020551 0.20801769 -0.51704276 -0.04095028 0.6387493 -0.34880614 0.33527687 -0.048666377
0.10667538 -0.043857563 -0.3144386 -0.13469905 -0.2502333 -0.08911476 0.73134756 -0.053648915
0.17284007 0.43407273 0.42224768 0.02579316 -0.91962093 0.48659518 0.23467904 0.44877753
0.8315009 -0.022498645 -0.108134665 -0.42509452 -0.7367423 0.6526724 0.6641012 0.07268824
0.7088164 -0.023675086 -0.43448517 -0.20261826 1.2237419 -0.38936427 0.2609682 -0.03221222
-0.34180376 -1.0742481 0.027133785 -1.1703264 -0.034718435 -0.8170951 0.19042219 -0.20281738
0.11808063 -0.4218829 0.71654415 -0.4107524 -0.5752174 0.10442654 -0.22827679 -0.07954386
0.5329577 -0.6372696 -0.100827836 -0.9582864 -0.32167122 0.13066731 -0.10734405 -0.46381992
-0.12066712 -0.22588724 0.38834703 -0.1833306 -0.43514603 -0.78598994 -0.01706658 0.4221719
0.029268928 0.22801724 0.17523432 -0.6627183 -0.076255955 -0.9662578 -0.20417705 0.31536812
0.63033587 -0.47247982 0.41109008 -0.18628155 -0.17497586 -0.2283634 -0.34876177 0.15791225
-0.16062178 0.6679543 -0.64214164 -0.18260534 -0.49580306 -0.37649536 -0.20520742 0.24907628
-0.5331064 0.26165912 -0.11436482 0.19555451 0.5906253 -0.79783124 -0.17826079 0.94615966
-0.46810713 -0.15838738 -0.28312197 0.20566002 0.4149767 0.036466673 0.6708225 0.11764041
0.4031957 -0.012692864 -0.123965114 -0.3614058 -0.5104794 0.34515327 0.15070954 -0.38743922
0.4380673 0.059554726 -0.50599945 0.44868696 -0.74589723 1.2797129 -0.5281441 -0.37230077
0.18699509 -0.06464845 -0.67752606 -0.41464275 0.1331933 -0.4466065 0.6965935 1.2175721
-0.33958697 -0.022298042 -0.53495055 -0.10496728 -0.06965928 -0.094864294 0.011631759 -0.2141848
0.28294143 0.08697467 0.18186577 -0.092484795 0.08112895 0.6523282 0.46065682 -0.56613696
-0.14942381 -0.4594582 -0.48483738 -0.54969597 -0.329014 0.37781495 -0.4889759 -0.032720927
0.27200055 0.53531355 -0.30442393 0.28385723 0.03050234 -0.5301149 -0.20952022 0.87105924
-0.30756557 -0.10656127 -0.6649121 -0.50679326 -0.08609401 -0.6872468 -0.20532396 0.16571051
-0.074916594 0.14731842 -0.3315173 0.27445504 -0.7384833 0.76326245 -0.0008446612 -0.28138903
1.2859437 -0.5983524 0.07184172 -0.1609482 -1.1740608 0.4015637 0.16189364 -0.20588525
0.02216812 -0.19379094 -0.86718845 -0.3446445 1.0389652 -0.5484073 -0.26460886 0.047567505
-0.19984636 -0.23694016 -0.2843863 -0.09511521 0.19523802 -0.3992137 0.72192943 -0.21314608
0.3960499 0.2037037 -0.22222877 0.10673014 -0.14579777 0.39385185 -0.6834281 -0.48901096
-0.32363877 -0.6906109 -0.5889936 -0.9834106 -0.5992436 0.38334495 -0.241925 -0.25528
00000000: 0164 81bf 9e74 f2bd 54d2 6fbe 6a1e 9b3e
00000010: eb14 0f3f 54d0 a6be 27eb b7bc 8bc5 14bf
00000020: 9748 a9bc 76b4 15bf 8c25 15be 129d a5be
00000030: a843 b63e c89e d4bd afd2 dd3e 34c1 acbe
00000040: a82b a03e 8495 06be 1ae1 d9be 7231 7bbf
00000050: b653 d5bd c405 813e 44b3 31bf 0813 10bf
00000060: 5b76 643e c76d 29be 721e 81bd 0c99 5cbd
00000070: e861 1cbf 0ce5 483e d537 d43c 3bb2 4dbe
00000080: cb87 38be 9702 553e ea5c 04bf 7bbb 27bd
00000090: 1385 233f b896 b2be 69a9 ab3e 6556 47bd
000000a0: 9f78 da3d fda3 33bd 19fe a0be 8cee 09be
000000b0: 941e 80be cd81 b6bd 9839 3b3f f7be 5bbd
000000c0: fdfc 303e c83e de3e d930 d83e 2d4c d33c
000000d0: 476c 6bbf 0123 f93e b44f 703e 2bc6 e53e
000000e0: 3edd 543f 144f b8bc b575 ddbd fda5 d9be
000000f0: 259b 3cbf 8a15 273f 8902 2a3f 92dd 943d
00000100: fe74 353f 41f2 c1bc d774 debe 297b 4fbe
00000110: 93a3 9c3f c15a c7be a09d 853e f6f0 03bd
00000120: e700 afbe f680 89bf ac47 de3c 41cd 95bf
00000130: eb34 0ebd 252d 51bf 09fe 423e 5caf 4fbe
00000140: 42d4 f13d 0901 d8be 706f 373f 234e d2be
00000150: 7341 13bf 95dd d53d 64c1 69be e4e7 a2bd
00000160: ea6f 083f 1a24 23bf d37e cebd 4252 75bf
00000170: 17b2 a4be a7cd 053e 33d7 dbbd ce79 edbe
00000180: 5320 f7bd fc4e 67be 6cd5 c63e 04bb 3bbe
00000190: 76cb debe a336 49bf 36cf 8bbc ea26 d83e
000001a0: 64c5 ef3c 5a7d 693e a070 333e e8a7 29bf
000001b0: 152c 9cbd ac5c 77bf ca13 51be ee77 a13e
000001c0: b15d 213f e0e8 f1be 667a d23e 97c0 3ebe
000001d0: df2c 33be 18d8 69be e790 b2be c0b3 213e
000001e0: 097a 24be 0eff 2a3f 6563 24bf e5fc 3abe
000001f0: e6d9 fdbe 00c4 c0be e521 52be da0d 7f3e
00000200: a979 08bf 2ff8 853e 1a38 eabd 713f 483e
00000210: 3833 173f ab3e 4cbf ff89 36be 8537 723f
00000220: bdab efbe 4d30 22be 5df5 90be 8a98 523e
00000230: d377 d43e 145e 153d 06bb 2b3f 75ed f03d
00000240: ab6f ce3e bbf5 4fbc 6ce1 fdbd 2e0a b9be
00000250: c7ae 02bf eeb7 b03e 9a53 1a3e 6f5e c6be
00000260: 5b4a e03e a8ef 733d 2e89 01bf 4cba e53e
00000270: 1ff3 3ebf a2cd a33f 7434 07bf 359e bebe
00000280: a47b 3f3e 6866 84bd 5972 2dbf 0e4c d4be
00000290: d363 083e 9ba9 e4be f453 323f 67d9 9b3f
000002a0: 58de adbe 62aa b6bc 85f2 08bf 16f9 d6bd
000002b0: 86a9 8ebd 3648 c2bd 2293 3e3c 4353 5bbe
000002c0: b3dd 903e c71f b23d 053b 3a3e ab68 bdbd
000002d0: ef26 a63d fbfe 263f 36db eb3e 5aee 10bf
000002e0: 8e02 19be 1b3e ebbe 9b3c f8be e0b8 0cbf
000002f0: 8674 a8be f670 c13e 0d5b fabe 6106 06bd
00000300: a843 8b3e 4f0a 093f 74dd 9bbe bc55 913e
00000310: 0be0 f93c 9cb5 07bf 788c 56be bdfd 5e3f
00000320: 3c79 9dbe cc3c dabd ae37 2abf 34bd 01bf
00000330: 0e52 b0bd 68ef 2fbf 7240 52be 04b0 293e
00000340: df6d 99bd a4da 163e a3bc a9be 5f85 8c3e
00000350: 3e0d 3dbf 2b65 433f 416c 5dba 3912 90be
00000360: ce99 a43f 9f2d 19bf c021 933d 9bcf 24be
00000370: a047 96bf c299 cd3e 72c7 253e 95d3 52be
00000380: eb99 b53c 2271 46be 1000 5ebf 3e75 b0be
00000390: d0fc 843f 6c64 0cbf d07a 87be 25d6 423d
000003a0: 86a4 4cbe 71a0 72be 159b 91be c3cb c2bd
000003b0: 7aec 473e bd65 ccbe 5ed0 383f f742 5abe
000003c0: 0dc7 ca3e b497 503e f08f 63be 5595 da3d
000003d0: 034c 15be f3a6 c93e 25f5 2ebf a55f fabe
000003e0: fbb3 a5be e0cb 30bf 49c8 16bf ccc0 7bbf
000003f0: 0768 19bf ca45 c43e 30bb 77be 0fb4 82be

encoder.lstm.bias_ih_l0 f4 [128]
0.8052928 0.45985904 0.38302106 0.06921614 0.2502211 0.4848299 0.5071414 0.38501108
0.3428805 0.47540846 0.2376337 -0.027946418 -0.026107881 0.8965921 0.19871227 0.09197074
0.6193658 0.6751257 0.7004148 -0.01262569 0.0051744794 0.20972462 0.52732474 0.37070563
0.24755268 0.31238604 0.46955895 0.25531048 0.8390827 0.5879745 -0.14481445 0.18684316
0.34916207 -0.3981606 0.35150856 0.16405332 0.027512921 0.4521921 0.19181307 0.2810362
0.22292092 0.4441671 0.16365565 0.6442059 0.27659443 0.30492765 0.35505837 0.29104674
0.5318795 0.2101362 0.43675354 0.22389303 0.11525482 0.23723893 0.27116427 0.4540971
0.35699162 0.3941857 0.21907254 0.14608999 0.4320525 0.5910188 0.19883928 -0.05245102
0.03246412 0.021992331 -0.14365941 -0.2106666 0.18252201 -0.13140367 0.10622669 0.11350456
-0.22791965 -0.05256317 0.10275688 -0.2115907 -0.22125547 -0.15923502 -0.026982173 0.20160899
0.0328063 -0.14399217 0.040112946 -0.15988803 -0.53969795 0.3700452 -0.19366972 -0.00532091
0.25545847 -0.28117728 -0.12945996 -0.1263904 -0.30458513 0.33332893 -0.25029057 -0.13160644
0.39100096 0.30612847 0.13573079 0.4377669 0.15625007 -0.0784738 0.2643047 0.055711463
0.7351231 0.20334254 -0.16747168 0.0686349 0.096133254 -0.05680429 -0.30994383 0.08915273
0.09493841 0.54417557 0.22311828 0.0931879 -0.020992123 -0.43141475 -0.105782464 -0.06657227
-0.13427208 0.18113275 0.14566007 0.057523064 0.057306997 -0.25527486 -0.12037837 0.14025097
00000000: ab27 4e3f a572 eb3e 561b c43e 31c1 8d3d
00000010: fb1c 803e a03b f83e 05d4 013f 2c20 c53e
00000020: 088e af3e bd68 f33e 4056 733e e3ef e4bc
00000030: 32e0 d5bc 0f87 653f 3b7b 4b3e 285b bc3d
00000040: c28e 1e3f 0ad5 2c3f 624e 333f fbdb 4ebc
00000050: ae8e a93b 0dc2 563e c1fe 063f 21cd bd3e
00000060: 737e 7d3e 10f1 9f3e 086a f03e 0eb8 823e
00000070: 20ce 563f 7f85 163f 3d4a 14be d053 3f3e
00000080: 5fc5 b23e b5db cbbe eef8 b33e 98fd 273e
00000090: c762 e13c b985 e73e a56a 443e fae3 8f3e
000000a0: 6245 643e df69 e33e 5995 273e aeea 243f
000000b0: c99d 8d3e 7a1f 9c3e 36ca b53e 1404 953e
000000c0: 4129 083f f22d 573e 299e df3e 3744 653e
000000d0: b80a ec3d c3ee 723e 0bd6 8a3e 6a7f e83e
000000e0: 9bc7 b63e b5d2 c93e 8d54 603e 9d98 153e
000000f0: fc35 dd3e 024d 173f 869c 4b3e e1d6 56bd
00000100: 19f9 043d 4329 b43c 741b 13be fcb8 57be
00000110: 0de7 3a3e af8e 06be 618d d93d 1475 e83d
00000120: c563 69be 7b4c 57bd 3372 d23d 3cab 58be
00000130: cb90 62be 810e 23be b809 ddbc 9672 4e3e
00000140: e65f 063d af72 13be 794d 243d b0b9 23be
00000150: a529 0abf 9176 bd3e 5b51 46be 075b aebb
00000160: 74cb 823e 78f6 8fbe 2791 04be 7c6c 01be
00000170: 95f2 9bbe 17aa aa3e 1626 80be d7c3 06be
00000180: 4731 c83e dfbc 9c3e 03fd 0a3e fc22 e03e
00000190: 0500 203e dfb6 a0bd f252 873e b431 643d
000001a0: 0731 3c3f 0739 503e b27d 2bbe 7490 8c3d
000001b0: 83e1 c43d 9dab 68bd f5b0 9ebe b595 b63d
000001c0: 126f c23d 174f 0b3f 1e79 643e 4cd9 be3d
000001d0: acf7 abbc 65e2 dcbe 7aa4 d8bd 0b57 88bd
000001e0: 9f7e 09be dd7a 393e ea27 153e 4e9d 6b3d
000001f0: beba 6a3d 63b3 82be ef88 f6bd f39d 0f3e

encoder.lstm.bias_hh_l0 f4 [128]
0.5737691 0.445343 0.13497189 0.22720537 0.29782102 0.25384194 0.38928282 0.2799195
0.124363855 0.49064907 0.25403672 0.16004443 -0.0051872153 0.99951774 0.0131147355 0.2795014
0.38854223 0.7369251 0.46226564 -0.109216385 -0.13110772 0.31623855 0.49578446 0.1937745
0.25329003 0.49384174 0.3334426 0.07230131 0.6153028 0.7240192 -0.08012323 0.24612352
0.23323968 -0.43755084 0.059937496 0.14421098 0.21259299 0.46613044 0.11212149 0.46150348
0.19901757 0.5749042 0.1527481 0.51183116 0.2269557 0.52964544 0.3258118 0.30236992
0.46775308 0.22999677 0.28814122 -0.025066627 0.09725563 0.29564127 0.07487858 0.4231085
0.32957712 0.5020971 0.31417018 0.41430527 0.53561336 0.4451493 0.38912636 0.16872866
0.17811663 -0.2019103 -0.2860039 -0.19102651 0.07868207 -0.19105445 0.19766542 0.066152684
-0.10389647 -0.16635607 -0.07010375 -0.17634891 0.00457287 -0.05494083 0.009707913 -0.05975419
0.22948971 -0.15879497 -0.04852283 -0.113766134 -0.54395396 0.15427856 -0.3114772 -0.1609941
0.21748719 -0.23020814 -0.3415395 -0.19522616 -0.2923038 0.2907646 -0.3266747 -0.21018824
0.4429457 0.2677863 0.14787474 0.30230257 0.24081978 -0.16137064 0.21875367 -0.23773925
0.6071635 0.26070067 -0.10656276 -0.03973643 -0.0076788575 0.09480145 -0.1526248 -0.059761766
-0.060027406 0.7671965 0.026249591 0.24485874 -0.11018593 -0.35121498 -0.1181082 0.14899147
-0.19362476 -0.01973463 0.021407403 0.1717763 0.11017016 -0.2149715 0.12810038 0.2643857
00000000: 88e2 123f ff03 e43e 1236 0a3e 86a8 683e
00000010: ff7b 983e 92f7 813e 1450 c73e 9c51 8f3e
00000020: 7ab2 fe3d 5b36 fb3e 1a11 823e b0e2 233e
00000030: 84f9 a9bb 65e0 7f3f 30df 563c cf1a 8f3e
00000040: 02ef c63e 20a7 3c3f 15ae ec3e d7ac dfbd
00000050: 1a41 06be 05ea a13e 76d7 fd3e d36c 463e
00000060: 3baf 813e d3d8 fc3e fdb8 aa3e b612 943d
00000070: 7c84 1d3f 5359 393f a617 a4bd ce07 7c3e
00000080: 62d6 6e3e aa06 e0be 0581 753d 0bac 133e
00000090: fab1 593e a6a8 ee3e f49f e53d 2f4a ec3e
000000a0: 43cb 4b3e ec2c 133f ff69 1c3e 5e07 033f
000000b0: 1367 683e d896 073f ced0 a63e 3bd0 9a3e
000000c0: 557d ef3e 4684 6b3e 3f87 933e 8758 cdbc
000000d0: f62d c73d 4b5e 973e f159 993d ada1 d83e
000000e0: 55be a83e 6f89 003f eada a03e d21f d43e
000000f0: f51d 093f 9cea e33e 923b c73e 35c7 2c3e
00000100: 3564 363e 93c1 4ebe 1a6f 92be 749c 43be
00000110: 1124 a13d c7a3 43be ce68 4a3e 0f7b 873d
00000120: acc7 d4bd 3f59 2abe 8e92 8fbd cf94 34be
00000130: 04d8 953b a309 61bd f00d 1f3c cfc0 74bd
00000140: 5aff 6a3e 269b 22be e0bf 46bd 38fe e8bd
00000150: 9140 0bbf 33fb 1d3e f179 9fbe a3db 24be
00000160: f6b4 5e3e afbb 6bbe 44de aebe 5ee9 47be
00000170: d8a8 95be 19df 943e e841 a7be 963b 57be
00000180: c7c9 e23e 491b 893e 7a6c 173e 67c7 9a3e
00000190: 7699 763e 583e 25be f600 603e eb71 73be
000001a0: 116f 1b3f 8f7a 853e 943d dabd abc2 22bd
000001b0: ed9e fbbb 4327 c23d ad49 1cbe c1c8 74bd
000001c0: 4cdf 75bd fd66 443f 6209 d73c 40bc 7a3e
000001d0: 29a9 e1bd 73d2 b3be b6e2 f1bd 3891 183e
000001e0: 9245 46be 85aa a1bc 945e af3c 20e6 2f3e
000001f0: e5a0 e13d 7d21 5cbe bf2c 033e 905d 873e

policy.net.0.weight f4 [128, 32]
-0.16806823 -0.19152102 0.06743729 -0.19308998 0.013246714 -0.011124928 0.09254105 0.41390502
0.23651245 -0.24429238 -0.28260484 -0.45213276 -0.4036996 -0.029199176 -0.26962125 -0.16242401
-0.25982538 0.0072317775 -0.39550006 0.49268508 0.43867785 -0.16729058 -0.11881387 -0.07498216
-0.21698676 0.32120714 -0.22105603 -0.11788463 0.10188923 -0.21909414 -0.15144576 -0.23740746
-0.0063379407 -0.06537263 -0.12910242 0.16014583 0.29210907 0.102084585 -0.3197732 0.05760068
0.3998284 -0.018488238 -0.13567062 -0.3425058 -0.2654385 0.16327287 -0.13407214 -0.1283721
-0.15727735 -0.14522317 -0.059334893 0.15028901 -0.23929265 -0.049560763 -0.015529163 0.14318247
0.16324322 0.25993198 0.42025614 0.23543906 0.037770897 -0.013331754 0.13380365 -0.376226
-0.25979695 -0.27185827 -0.034096267 -0.07281121 0.049507875 -0.37022364 -0.15652977 0.25873208
0.7880529 -0.015212594 -0.34221762 -0.196091 -0.80131596 0.08608187 -0.4723095 0.20880955
-0.15224102 -0.16272458 -0.23770729 0.34509116 -0.45021895 -0.11030772 -0.007055169 -0.214278
-0.2085265 0.4809527 0.15879892 0.013602348 0.17411155 -0.19840786 -0.0015095754 -0.24181324
0.43309626 -0.51950866 -0.39419675 0.45257935 0.29422495 -0.48842207 -0.9014294 0.19719703
0.64087754 -0.2451357 0.19528718 -0.53907025 -0.8033135 -0.48578447 0.023488794 -0.4764623
-0.095840104 0.5525876 0.02154462 0.07649292 -0.73075354 -0.26129058 0.21544565 -0.5075971
-0.3501176 0.0674786 0.23523256 0.7035996 0.27627409 -0.28418165 0.45140693 -0.5318842
0.16851623 0.6132598 -0.112148434 -0.2273425 -0.046781857 0.3837575 -0.51103306 -0.1693698
-0.3497105 -0.16664472 0.34971488 -0.7117307 -1.042385 0.09033855 -0.41883585 -0.4229766
-0.36720634 -0.7450013 -0.04462856 -0.28033778 -0.5564349 -0.5787621 -0.11091087 0.018489804
-0.60452765 0.23444203 0.69042754 -0.16589217 0.14910497 -0.6080739 0.23679058 -0.27899563
-0.11093983 -0.48726764 -0.36362314 0.32596073 0.24615131 -0.65848505 0.5826588 -0.20871228
-0.25010002 0.19044794 -0.2629278 -0.08396871 0.17546426 -0.6365675 -0.040266782 -0.23940237
0.022106139 0.4862274 -0.16355905 -0.12000836 -0.10872632 -0.009114553 -0.24910122 -0.4132864
-0.7805163 0.12730293 -0.195836 0.34734228 0.20129973 0.0026311602 -0.14754102 0.50909966
-0.047477346 0.4761393 0.46863425 -0.7404843 0.7899895 0.103897534 0.18755728 -0.36521435
-0.0877345 -0.02489299 -0.19868618 -0.1289753 -0.49375725 0.11016316 -0.5655674 -0.04134851
-0.16246265 -0.4993793 -0.3490704 -0.5898748 -0.041265454 -0.21966127 0.08100871 0.38266137
0.17685531 0.12785767 0.0033103952 -0.18657707 0.15669021 -0.41754243 -0.33579805 -0.32372084
0.031204203 0.35110584 0.38220814 -0.21785195 0.06429811 0.26980993 -0.117961176 -0.4730245
-0.1427339 0.2623303 0.016681429 -0.38832885 -0.23777759 0.1401644 0.08596427 -0.008100143
-0.12115335 -0.15653622 -0.16284794 0.076437 0.1669127 -0.0013705789 -0.43685535 0.04388468
0.16915081 0.23033504 -0.19260018 -0.09086984 0.020874484 0.14022478 -0.41175547 0.21428245
00000000: 141a 2cbe 161e 44be 901c 8a3d 61b9 45be
00000010: bf08 593c 5445 36bc 2986 bd3d 5ceb d33e
00000020: 5230 723e c827 7abe 95b1 90be f27d e7be
00000030: b7b1 cebe 1c33 efbc cc0b 8abe 7b52 26be
00000040: d507 85be 8cf8 ec3b fc7e cabe 3841 fc3e
00000050: 629a e03e 394e 2bbe b054 f3bd 3f90 99bd
00000060: c731 5ebe 4375 a43e 835c 62be 7f6d f1bd
00000070: 4dab d03d 375a 60be 9914 1bbe f11a 73be
00000080: 80ae cfbb 16e2 85bd 6d33 04be 45fd 233e
00000090: 528f 953e b911 d13d 50b9 a3be b1ee 6b3d
000000a0: 4fb6 cc3e a574 97bc 3ded 0abe ec5c afbe
000000b0: 8ee7 87be 0131 273e 354a 09be fa73 03be
000000c0: 500d 21be 62b5 14be 2509 73bd 5de5 193e
000000d0: 2209 75be 3a00 4bbd 086e 7ebc 6d9e 123e
000000e0: 3b29 273e ce15 853e d02b d73e f016 713e
000000f0: a8b5 1a3d 6e6d 5abc d303 093e b2a0 c0be
00000100: 1b04 85be 0231 8bbe 87a8 0bbd 0b1e 95bd
00000110: c5c8 4a3d f48d bdbe 5749 20be 8878 843e
00000120: d6bd 493f 3e3e 79bc 2637 afbe 14cc 48be
00000130: 0b23 4dbf b14b b03d 8dd2 f1be 2cd2 553e
00000140: 12e5 1bbe 46a1 26be 8a69 73be caaf b03e
00000150: 1983 e6be 04e9 e1bd 0c2f e7bb b16b 5bbe
00000160: f987 55be 6f3f f63e 2f9c 223e 62dc 5e3c
00000170: 4c4a 323e 6e2b 4bbe f2dc c5ba e49d 77be
00000180: cbbe dd3e 85fe 04bf 28d4 c9be 7bb8 e73e
00000190: a7a4 963e 7512 fabe 14c4 66bf 05ee 493e
000001a0: 8d10 243f da04 7bbe 5df9 473e 8200 0abf
000001b0: f4a5 4dbf beb8 f8be 926b c03c def2 f3be
000001c0: d147 c4bd 6276 0d3f 587e b03c 52a8 9c3d
000001d0: aa12 3bbf e1c7 85be c99d 5c3e e2f1 01bf
000001e0: 9d42 b3be 3832 8a3d cee0 703e 1a1f 343f
000001f0: cc73 8d3e 4280 91be cf1e e73e 9029 08bf
00000200: 858f 2c3e 98fe 1c3f 14ae e5bd 79cc 68be
00000210: 559e 3fbd dd7b c43e 10d3 02bf 476f 2dbe
00000220: 410d b3be eaa4 2abe d40d b33e fc33 36bf
00000230: df6c 85bf 6b03 b93d a771 d6be 6490 d8be
00000240: 7802 bcbe 68b8 3ebf 70cc 36bd 6f88 8fbe
00000250: 8572 0ebf c129 14bf 3d25 e3bd ee77 973c
00000260: 53c2 1abf 9211 703e dcbf 303f a3df 29be
00000270: f9ae 183e bbaa 1bbf 3b79 723e 84d8 8ebe
00000280: 6c34 e3bd 257b f9be d02c babe 53e4 a63e
00000290: 170f 7c3e 7a92 28bf 2129 153f acb8 55be
000002a0: 1c0d 80be c904 433e 799e 86be c9f7 abbd
000002b0: e7ac 333e 16f6 22bf c8ee 24bd e525 75be
000002c0: ef17 b53c ccf2 f83e 067c 27be f1c6 f5bd
000002d0: e8ab debd 3555 15bc 6414 7fbe 469a d3be
000002e0: ebcf 47bf b35b 023e 3b89 48be d9d6 b13e
000002f0: 8421 4e3e 8b6f 2c3b fe14 17be 5b54 023f
00000300: 9b77 42bd 88c8 f33e d4f0 ef3e 6190 3dbf
00000310: c03c 4a3f 3bc8 d43d 040f 403e 60fd babe
00000320: 25ae b3bd 62ec cbbc 6474 4bbe 1a12 04be
00000330: c0cd fcbe 399d e13d 06c9 10bf 0e5d 29bd
00000340: 9c5c 26be a5ae ffbe 5bb9 b2be 0902 17bf
00000350: f705 29bd e2ee 60be e5e7 a53d 31ec c33e
00000360: 8f19 353e 1fed 023e 37f3 583b 0f0e 3fbe
00000370: 6673 203e 1fc8 d5be b9ed abbe bdbe a5be
00000380: f59f ff3c 25c4 b33e c9b0 c33e 9514 5fbe
00000390: baae 833d 8724 8a3e a195 f1bd 4430 f2be
000003a0: d628 12be 2850 863e 7ea7 883c 0ad3 c6be
000003b0: f87b 73be 4287 0f3e 090e b03d 76b6 04bc
000003c0: 3f1f f8bd 084b 20be 9cc1 26be 008b 9c3d
000003d0: 2aeb 2a3e ffa4 b3ba 81ab dfbe 6cc0 333d
000003e0: df35 2d3e f3dc 6b3e fb38 45be f719 babd
000003f0: f700 ab3c 1697 0f3e 9dd1 d2be dc6c 5b3e

policy.net.0.bias f4 [128]
-0.2054949 -0.28091928 -0.44548553 0.19279352 -0.19225581 -0.53622556 -0.58035123 -0.43654087
-0.2493427 0.13118646 -0.2936502 -0.31722558 -0.33522093 0.055146605 -0.40895346 -0.37789035
-0.32121417 0.08899371 -0.43609607 -0.33233708 -0.024467451 -0.37440595 0.021474488 -0.22394961
-0.17091897 -0.43197483 -0.33804086 -0.13706161 -0.28057405 -0.2919362 -0.50870556 -0.45949125
-0.2706542 -0.33315077 -0.254981 0.010913829 -0.47001258 -0.27013394 -0.091120586 -0.3043821
-0.01284989 -0.15700269 -0.10688369 -0.47045562 -0.40415594 -0.001804192 -0.4797003 -0.42504877
-0.028473709 -0.0012500727 -0.45193556 -0.44066152 -0.036123414 -0.42865142 -0.53727835 -0.37083885
-0.14483134 0.021280542 -0.35282987 -0.3473255 -0.29698935 -0.39331928 -0.20254989 -0.20398758
-0.34018245 -0.21320872 -0.3385991 -0.07252395 -0.3782706 -0.20550531 -0.58886665 -0.32055154
-0.058190793 -0.26093787 -0.18853796 -0.40385464 -0.103639536 -0.01985266 0.044077624 -0.26948142
-0.22379409 -0.41554 -0.27183187 -0.30410275 -0.15637802 -0.4624509 -0.45387733 0.073844105
0.074263126 -0.218008 -0.42892468 0.16322026 -0.41216612 0.09292642 -0.27284333 -0.1319044
-0.46502548 -0.2965897 -0.34847602 -0.48340535 0.20684864 -0.34426877 -0.26457587 0.047084462
0.06894932 0.08594984 -0.19313942 -0.420796 0.039386556 -0.36456954 -0.4258223 0.055938333
-0.0763251 -0.17630637 -0.4189905 0.18314834 -0.20286247 -0.25149414 -0.3138352 -0.26545188
-0.43034706 -0.2216633 0.06508065 -0.2984999 -0.32537678 -0.2076004 0.043701686 -0.16946284
00000000: 416d 52be a7d4 8fbe ae16 e4be aa6b 453e
00000010: b5de 44be 1446 09bf e691 14bf 4982 dfbe
00000020: b153 7fbe be55 063e 5259 96be 646b a2be
00000030: 14a2 abbe 68e1 613d 5962 d1be d87a c1be
00000040: 2f76 a4be 5642 b63d fc47 dfbe 1628 aabe
00000050: f76f c8bc 23b2 bfbe 44eb af3c 0c53 65be
00000060: 6205 2fbe ce2b ddbe b113 adbe e159 0cbe
00000070: 67a7 8fbe a978 95be 873a 02bf 7042 ebbe
00000080: 3093 8abe bd92 aabe df8c 82be ebcf 323c
00000090: 7da5 f0be ff4e 8abe 6e9d babd f8d7 9bbe
000000a0: 5888 52bc 50c5 20be d6e5 dabd 8fdf f0be
000000b0: 87ed cebe a37a ecba 479b f5be fe9f d9be
000000c0: b241 e9bc 7bd9 a3ba 1964 e7be 639e e1be
000000d0: 25f6 13bd 3378 dbbe 138b 09bf 97de bdbe
000000e0: ab4e 14be 8854 ae3c 1ea6 b4be a6d4 b1be
000000f0: fd0e 98be 2561 c9be 3d69 4fbe 1fe2 50be
00000100: 652c aebe 6353 5abe dc5c adbe 7087 94bd
00000110: afac c1be fc6f 52be f7bf 16bf 551f a4be
00000120: 7859 6ebd a699 85be 1810 41be 09c6 cebe
00000130: f740 d4bd 0ca2 a2bc bd8a 343d 78f9 89be
00000140: 472a 65be a9c1 d4be 8c2d 8bbe 5bb3 9bbe
00000150: 8f21 20be 5dc6 ecbe 9c62 e8be 943b 973d
00000160: 4417 983d 7d3d 5fbe 049c dbbe 3623 273e
00000170: 7007 d3be 3550 be3d 1fb2 8bbe f211 07be
00000180: d217 eebe 9bda 97be 736b b2be e880 f7be
00000190: 21d0 533e ff43 b0be 7d76 87be a3db 403d
000001a0: 4d35 8d3d 7806 b03d 57c6 45be 9372 d7be
000001b0: cc53 213d dca8 babe 6105 dabe 981f 653d
000001c0: 5650 9cbd a889 34be ec85 d6be 3d8b 3b3e
000001d0: 2ebb 4fbe d7c3 80be 02af a0be 4fe9 87be
000001e0: 7356 dcbe b4fb 62be 0149 853d fbd4 98be
000001f0: c997 a6be 3395 54be 8a00 333d ab87 2dbe

policy.net.2.weight f4 [5, 128]
-1.0438001 -0.40055433 -1.3238406 -0.6431104 -3.2324045 -1.6651686 -1.767181 0.022177147
-0.2908883 -1.5046371 -1.3721128 -0.9323401 -0.3324702 -1.3577883 -0.5014159 -0.8667489
-1.3113045 -2.1510468 -0.19225782 -1.6649702 -3.243498 -0.516231 -0.83085936 -4.0570064
-1.4787471 -1.1901987 -0.33685148 -0.29844147 -0.48383203 -0.34206572 -0.5205932 -0.3273788
-0.7386275 -0.18552183 -0.5164262 -0.5908227 -1.6276643 -2.553013 -0.85966855 -0.9475047
-1.9599389 -0.23039913 -1.0398073 -0.30659235 -1.6512885 -0.8878161 -0.2210562 -0.27483445
-0.64041835 -2.5490148 -0.90150607 -0.4342469 -0.9258234 -0.8073629 -0.40922835 -0.9020492
-3.421297 -1.4064016 -0.7124974 -2.1820319 -0.51796454 -0.47488168 -0.6054531 -4.289798
-3.760155 -2.898641 -0.27634823 -3.5821202 -1.8310163 -0.5891958 -1.5132712 -3.0802796
-1.3603324 -0.7006646 -1.2577705 -0.06852045 -0.66074604 -0.7535319 -0.5638018 -1.5370554
-1.5695465 -0.31249136 -0.24873914 -0.326876 -0.6244711 -0.15646449 -1.060117 -2.2615287
-3.8732626 -0.5766099 -0.6931355 -0.68449277 -0.64864343 -2.5834768 -0.7096994 -0.410014
-0.25716648 -0.7542254 -1.0953649 -0.2766294 -1.7152798 -0.6395483 -0.59374887 -1.6780874
-1.2307304 -1.1389952 -0.8972253 -0.5218995 -3.0285676 -0.1384502 -0.5082028 -5.3806005
-3.6252315 -1.0581764 -0.26006696 -3.3355768 -1.2238897 -1.4172145 -1.4110569 -0.3613878
-0.3910104 -0.53939694 -1.3630029 -0.24947713 -0.33075425 -0.38626042 -0.75971127 -1.3427643
-0.018044632 -0.05243564 -0.24770328 0.104593374 -1.0979158 0.98862934 -0.4374876 0.060034383
0.06538508 0.15896834 0.16025339 -0.0369394 -0.2705252 0.08708662 0.041083362 0.21547201
0.068724446 0.12377282 -0.52345747 0.06544356 0.059892524 0.032026917 0.114431955 -0.055149034
0.6053262 0.18097949 -0.018015195 -0.5688118 0.068350844 0.20394196 0.32853675 0.24511965
0.6547162 -0.31385335 -0.54771984 0.08555576 0.091108225 -0.7655921 -0.025543232 0.035374563
-0.13744858 -0.18849322 -0.034473028 -0.22363475 0.11341041 0.23906438 0.085849606 -0.35918897
0.022362106 0.37116966 -0.6714883 -0.25883174 0.07299717 0.111839086 -0.33624464 -0.76791596
0.61951005 -0.13074498 -0.46256584 -0.18205713 0.060917553 0.043134097 0.10293098 0.18031183
0.0065986887 -0.048303686 -0.026406316 -0.07154223 -0.16048576 0.02151594 -0.41624737 0.05962383
-0.3147862 0.12805198 0.10282113 0.07761509 -2.0065227 0.1162288 -0.70549494 0.05958889
0.0420161 0.045491472 0.02914992 0.0556467 0.11863099 -0.86404026 -1.3294678 -0.9992284
0.058417946 0.06505823 0.0016908452 0.4425237 0.3045722 0.07854486 -1.0133117 -2.3273406
-0.17491612 -0.07117833 0.045592412 -0.47204554 0.11575359 0.10279057 0.05799759 0.07320187
0.043471243 -0.09530261 0.099585526 -2.219104 -0.19742294 -1.0058724 0.15143415 0.10564489
0.14317538 0.35449776 0.17343783 -0.3455679 0.23082283 -0.26661077 0.051041413 -0.005756325
-0.33895648 0.03402326 -1.2390847 -0.8503068 0.18663123 0.050443985 0.09442755 0.07341011
00000000: 3e9b 85bf 7515 cdbe 9c73 a9bf e2a2 24bf
00000010: b7df 4ec0 3f24 d5bf fd32 e2bf d9ac b53c
00000020: 50ef 94be f397 c0bf 64a1 afbf d7ad 6ebf
00000030: 8939 aabe 02cc adbf cb5c 00bf 42e3 5dbf
00000040: d3d8 a7bf c0aa 09c0 3cdf 44be be1d d5bf
00000050: 7995 4fc0 b727 04bf 33b3 54bf ffd2 81c0
00000060: 9647 bdbf 6e58 98bf cc77 acbe 52cd 98be
00000070: d5b8 f7be 3d23 afbe 9945 05bf 329e a7be
00000080: b116 3dbf 6ff9 3dbe 8234 04bf 2840 17bf
00000090: 4e57 d0bf 9164 23c0 3d13 5cbf ab8f 72bf
000000a0: 47df fabf c0ed 6bbe 6818 85bf acf9 9cbe
000000b0: 6c5d d3bf ea47 63bf 8e5c 62be 1ab7 8cbe
000000c0: 75f2 23bf 0f23 23c0 1ac9 66bf 9c55 debe
000000d0: c302 6dbf 56af 4ebf 6186 d1be b2ec 66bf
000000e0: 88f6 5ac0 f804 b4bf 3b66 36bf 69a6 0bc0
000000f0: 5399 04bf b123 f3be f9fe 1abf 0646 89c0
00000100: 61a6 70c0 5683 39c0 847d 8dbe 7541 65c0
00000110: be5e eabf 89d5 16bf dfb2 c1bf 4d23 45c0
00000120: 5f1f aebf c15e 33bf a0fe a0bf 7354 8cbd
00000130: a726 29bf 77e7 40bf 5155 10bf 3bbe c4bf
00000140: e6e6 c8bf defe 9fbe 79b5 7ebe 4b5c a7be
00000150: 57dd 1fbf 3a38 20be eab1 87bf e3bc 10c0
00000160: 89e3 77c0 b59c 13bf 5471 31bf eb3a 2fbf
00000170: 7f0d 26bf af57 25c0 dcae 35bf 5bed d1be
00000180: 53ab 83be ea14 41bf eb34 8cbf 5ea2 8dbe
00000190: 4a8e dbbf 70b9 23bf edff 17bf 91cb d6bf
000001a0: 9388 9dbf 98ca 91bf 8fb0 65bf 359b 05bf
000001b0: 0dd4 41c0 e4c5 0dbe 9419 02bf e12d acc0
000001c0: cb03 68c0 5372 87bf 7f27 85be 177a 55c0
000001d0: 6ba8 9cbf 4967 b5bf 839d b4bf d207 b9be
000001e0: 8432 c8be eb15 0abf e176 aebf ef76 7fbe
000001f0: 9f58 a9be edc3 c5be 707c 42bf b3df abbf
00000200: 56d2 93bc c1c6 56bd eea5 7dbe 0d35 d63d
00000210: 8188 8cbf d016 7d3f 60fe dfbe 9de6 753d
00000220: 9de8 853d 99c8 223e 7719 243e c54d 17bd
00000230: 4782 8abe 785a b23d 0747 283d b2a4 5c3e
00000240: 67bf 8c3d 9b7c fd3d 4f01 06bf 4607 863d
00000250: dd51 753d a82e 033d 4d5b ea3d f4e3 61bd
00000260: a8f6 1a3f b052 393e 9a94 93bc a69d 11bf
00000270: 87fb 8b3d 29d6 503e f835 a83e a500 7b3e
00000280: 7b9b 273f 63b1 a0be 5e37 0cbf dc37 af3d
00000290: f396 ba3d d8fd 43bf 0a40 d1bc ebe4 103d
000002a0: 52bf 0cbe 5e04 41be 9733 0dbd 8200 65be
000002b0: b843 e83d 4bcd 743e ebd1 af3d 9ee7 b7be
000002c0: bc30 b73c f309 be3e a8e6 2bbf 9885 84be
000002d0: 8a7f 953d e40b e53d 4228 acbe 2496 44bf
000002e0: 3698 1e3f 03e2 05be 6ed5 ecbe 2f6d 3abe
000002f0: af84 793d 61ad 303d 7acd d23d aaa3 383e
00000300: d039 d83b 16da 45bd 0f52 d8bc bc84 92bd
00000310: 6156 24be 3242 b03c 601e d5be 1e38 743d
00000320: a82b a1be 0f20 033e e293 d23d a9f4 9e3d
00000330: de6a 00c0 5d09 ee3d 519b 34bf 7b13 743d
00000340: 1319 2c3d 4455 3a3d d0cb ee3c cbed 633d
00000350: cef4 f23d be31 5dbf 002c aabf 6fcd 7fbf
00000360: a847 6f3d 403d 853d 5a9f dd3a 7792 e23e
00000370: e3f0 9b3e 21dc a03d 33b4 81bf 26f3 14c0
00000380: 361d 33be f2c5 91bd 1cbf 3a3d f4af f1be
00000390: 3810 ed3d dd83 d23d e28e 6d3d ddea 953d
000003a0: e70e 323d 042e c3bd 7ff3 cb3d cd05 0ec0
000003b0: 3d29 4abe 6dc0 80bf 8e11 1b3e 595c d83d
000003c0: 919c 123e bb80 b53e b099 313e 47ee b0be
000003d0: d25c 6c3e 3581 88be cd10 513d 8e9f bcbb
000003e0: b48b adbe f95b 0b3d 549a 9ebf b5ad 59bf
000003f0: 421c 3f3e 5a9e 4e3d 3b63 c13d 0a58 963d

policy.net.2.bias f4 [5]
-6.828542 -0.08807603 0.063914984 -0.032130647 0.21733916
00000000: 6b83 dac0 3561 b4bd dce5 823d 6d9b 03bd
00000010: 288e 5e3e

exp_avg f4 [900, 16]
1.3376095e-05 0.00017661531 -0.00024127778 0.00011997416 -0.00018934056 -0.00017624658 -0.00055013923 0.00035696352
-1.9048042e-05 3.1929085e-05 -0.00022882185 -0.00018415226 0.00012052287 1.3692612e-05 8.7349734e-05 0.00058622536
-2.217106e-05 1.3366506e-05 1.2699507e-05 -1.9070882e-05 8.36669e-05 -0.00015352725 -0.0007244668 -9.127246e-05
0.00046089463 -3.5187943e-05 0.0001401451 -0.00033415458 0.00013935336 0.00030096216 5.3484913e-05 0.0005032728
0.0002851351 -0.00011881529 0.00033877138 0.00011268744 0.000110414636 0.00019795004 -0.0006323512 -0.00041960622
0.00050235214 0.00017448919 -9.101881e-05 -0.00028154076 0.00012850521 9.309513e-05 5.422948e-05 0.00031559
-6.442593e-07 0.0001644312 -0.00014671872 1.5715319e-06 4.5617155e-05 -4.326451e-05 -0.00020675179 -8.316259e-05
5.9940216e-05 2.2860879e-05 5.2150528e-05 8.7863235e-05 -0.00016158324 -0.000103866674 7.917848e-05 -3.4334313e-05
0.00038035505 -3.503509e-06 -6.9645255e-05 -0.00035762327 0.00067517115 0.00022223637 -0.0002556817 -0.00014301855
0.00037537617 -0.000321481 5.2374176e-05 -0.00015563991 -0.00013419552 7.7092525e-05 -0.00026553 0.00032039135
0.0 0.0 0.0 0.0 0.0 0.0 0.0 0.0
0.0 0.0 0.0 0.0 0.0 0.0 0.0 0.0
0.0 0.0 0.0 0.0 0.0 0.0 0.0 0.0
0.0 0.0 0.0 0.0 0.0 0.0 0.0 0.0
0.0 0.0 0.0 0.0 0.0 0.0 0.0 0.0
0.0 0.0 0.0 0.0 0.0 0.0 0.0 0.0
0.0 0.0 0.0 0.0 0.0 0.0 0.0 0.0
0.0 0.0 0.0 0.0 0.0 0.0 0.0 0.0
0.0 0.0 0.0 0.0 0.0 0.0 0.0 0.0
0.0 0.0 0.0 0.0 0.0 0.0 0.0 0.0
0.0 0.0 0.0 0.0 0.0 0.0 0.0 0.0
0.0 0.0 0.0 0.0 0.0 0.0 0.0 0.0
0.0 0.0 0.0 0.0 0.0 0.0 0.0 0.0
0.0 0.0 0.0 0.0 0.0 0.0 0.0 0.0
3.2894397e-05 5.5673885e-05 0.00021362476 8.395366e-05 0.00016034515 -0.0003043695 0.0002482115 -0.00043919712
0.00017727302 -4.7285845e-05 6.706352e-07 0.00011330197 -0.00025122406 -0.00012032091 0.00024881703 -5.4970544e-05
0.00021688695 5.9722905e-05 0.00012865268 -5.64465e-05 -0.00011399477 -0.00017106914 -0.00010803244 1.1179503e-05
-8.446853e-05 -6.296473e-06 8.734673e-05 0.00013447143 0.00020327425 -2.5961892e-05 -6.6642846e-05 0.0002868762
-0.00026104163 -0.0002383794 -0.00026542868 -0.00017830975 0.00012446068 0.0002172241 -0.00019294494 -0.000522205
-4.3600987e-05 4.2233627e-05 -1.7774053e-05 0.0002908858 0.00031036304 0.00020810288 0.00044045167 0.0004516386
-0.00040169916 -0.00012893805 -4.9071637e-05 0.00012681188 4.68021e-05 -3.9450995e-05 -0.000119404205 -0.0003632856
4.2855725e-05 0.00029913278 -0.00019333749 0.00029717613 -8.397377e-05 0.00024256736 0.0004863794 0.0002957646
00000000: e469 6037 d031 3939 83ff 7cb9 a39a fb38
00000010: b889 46b9 d5ce 38b9 3837 10ba d526 bb39
00000020: 5cc9 9fb7 98eb 0538 e6ef 6fb9 ff18 41b9
00000030: 39c1 fc38 52b9 6537 882f b738 ebac 193a
00000040: fdfb b9b7 b540 6037 f80f 5537 68fa 9fb7
00000050: 5376 af38 28fc 20b9 25ea 3dba 8769 bfb8
00000060: 3ba4 f139 c496 13b8 eaf3 1239 7831 afb9
00000070: 621f 1239 75ca 9d39 fd54 6038 11ee 033a
00000080: 2f7e 9539 792c f9b8 209d b139 9c52 ec38
00000090: 688e e738 cf90 4f39 5fc4 25ba 98fe dbb9
000000a0: 48b0 033a 16f7 3639 5ae1 beb8 c39b 93b9
000000b0: 5bbf 0639 113c c338 7674 6338 c675 a539
000000c0: 29f1 2cb5 2a6b 2c39 82d8 19b9 6ded d235
000000d0: 0c55 3f38 ea76 35b8 83cb 58b9 9367 aeb8
000000e0: 5168 7b38 5dc5 bf37 34bc 5a38 3743 b838
000000f0: ac6e 29b9 ffd2 d9b8 9f0c a638 3002 10b8
00000100: 646a c739 d41d 6bb6 830e 92b8 627f bbb9
00000110: f8fd 303a 1f08 6939 040d 86b9 40f7 15b9
00000120: 23ce c439 738c a8b9 58ac 5b38 4533 23b9
00000130: d6b6 0cb9 bcac a138 d536 8bb9 33fa a739
00000140: 0000 0000 0000 0000 0000 0000 0000 0000
00000150: 0000 0000 0000 0000 0000 0000 0000 0000
00000160: 0000 0000 0000 0000 0000 0000 0000 0000
00000170: 0000 0000 0000 0000 0000 0000 0000 0000
00000180: 0000 0000 0000 0000 0000 0000 0000 0000
00000190: 0000 0000 0000 0000 0000 0000 0000 0000
000001a0: 0000 0000 0000 0000 0000 0000 0000 0000
000001b0: 0000 0000 0000 0000 0000 0000 0000 0000
000001c0: 0000 0000 0000 0000 0000 0000 0000 0000
000001d0: 0000 0000 0000 0000 0000 0000 0000 0000
000001e0: 0000 0000 0000 0000 0000 0000 0000 0000
000001f0: 0000 0000 0000 0000 0000 0000 0000 0000
00000200: 0000 0000 0000 0000 0000 0000 0000 0000
00000210: 0000 0000 0000 0000 0000 0000 0000 0000
00000220: 0000 0000 0000 0000 0000 0000 0000 0000
00000230: 0000 0000 0000 0000 0000 0000 0000 0000
00000240: 0000 0000 0000 0000 0000 0000 0000 0000
00000250: 0000 0000 0000 0000 0000 0000 0000 0000
00000260: 0000 0000 0000 0000 0000 0000 0000 0000
00000270: 0000 0000 0000 0000 0000 0000 0000 0000
00000280: 0000 0000 0000 0000 0000 0000 0000 0000
00000290: 0000 0000 0000 0000 0000 0000 0000 0000
000002a0: 0000 0000 0000 0000 0000 0000 0000 0000
000002b0: 0000 0000 0000 0000 0000 0000 0000 0000
000002c0: 0000 0000 0000 0000 0000 0000 0000 0000
000002d0: 0000 0000 0000 0000 0000 0000 0000 0000
000002e0: 0000 0000 0000 0000 0000 0000 0000 0000
000002f0: 0000 0000 0000 0000 0000 0000 0000 0000
00000300: 17f8 0938 6183 6938 7600 6039 4710 b038
00000310: 5322 2839 c893 9fb9 6222 8239 0a44 e6b9
00000320: 5de2 3939 ca54 46b8 b305 3435 889c ed38
00000330: b9b6 83b9 cc54 fcb8 a873 8239 2c90 66b8
00000340: 266c 6339 fb7e 7a38 f1e6 0639 f8c0 6cb8
00000350: 7a10 efb8 0661 33b9 798f e2b8 9a8f 3b37
00000360: b224 b1b8 4b46 d3b6 eb2d b738 e600 0d39
00000370: 0426 5539 bdc8 d9b7 9bc2 8bb8 df67 9639
00000380: 6adc 88b9 7cf5 79b9 3c29 8bb9 a9f8 3ab9
00000390: a981 0239 a6c6 6339 4351 4ab9 96e4 08ba
000003a0: 34e0 36b8 0324 3138 7d19 95b7 0882 9839
000003b0: 39b8 a239 3136 5a39 6cec e639 e8c9 ec39
000003c0: 269b d2b9 8b33 07b9 45d2 4db8 cef8 0439
000003d0: 5f4d 4438 2f78 25b8 a568 fab8 5e77 beb9
000003e0: fcbf 3338 ecd4 9c39 a3ba 4ab9 4ece 9b39
000003f0: 131b b0b8 ae59 7e39 bd00 ff39 da10 9b39
