SGE_Transformer/model/2_room/eil_2_room_198_model/EBC_model_13999.pth (torch, 319288 bytes, 27 tensors)

encoder.embedding.weight f4 [900, 16]
0.15548773 -0.7153582 1.1956255 1.6160638 0.6187668 1.0257782 -0.065783165 0.9554512
1.5503933 0.59686846 1.3582308 -1.0607796 1.494101 -0.84663624 -1.0418313 0.7023036
-1.0903916 0.42205545 0.4777465 -0.3627332 0.5072145 0.6259278 0.23664916 0.362833
-1.0090698 -1.4292243 1.8812649 -1.817297 0.62107235 -0.062207427 -0.6951781 -1.5227053
0.7699854 0.118059695 -0.21780373 0.7113295 -0.107628986 0.33072653 -0.5250482 -1.986848
-0.4016757 1.0053829 -1.0456402 0.19452192 -1.2261615 -0.02440101 -3.4194267 -0.8379509
0.30048475 -0.87475145 -0.9917926 -0.3301116 1.0262842 1.7539165 -1.1789696 0.5374733
-1.1326272 0.11469571 0.6286144 -1.5984218 -0.87125754 -0.4484249 -0.78107655 -2.096158
0.9276487 0.25934604 -1.3962438 2.121335 -0.8059915 -0.30315864 -1.3580852 0.26443103
-0.38220775 -0.2674588 0.107932515 -1.6942213 -2.3756242 -0.12693147 -0.2545168 -0.012460821
0.14950831 0.68173635 1.5676895 0.47556657 -1.0050126 -1.023286 0.5214422 -0.48220333
-0.7726252 2.7445233 -1.9759138 0.415895 1.5672935 -0.03982712 -0.9722075 -0.71206236
0.2399586 -1.199124 1.0634183 -0.6769421 -0.6633918 0.3362924 0.5184555 1.0378041
0.041475523 0.84185106 -0.13130704 -1.4924617 0.36357212 -0.51106703 -0.41850448 1.181892
-0.2659641 0.8041965 -0.307584 1.3537711 0.66702676 -0.23589839 -0.1712208 0.56163234
0.30705154 0.33780503 0.12988454 0.5764989 0.020306023 1.3983688 1.4169482 -0.0058822334
-0.8824504 -0.48821172 -1.3561088 -0.23345223 1.8297452 1.5896279 0.17809501 0.5119587
-0.5462637 -1.4434364 -1.923773 -1.1291713 1.0067925 -0.008793296 -0.804452 1.9658368
1.6479504 0.5699342 -0.012340214 -1.4708327 -0.046256755 -0.5328155 0.65974027 2.1868584
0.48783317 2.1796973 -1.4626534 -1.3909887 -0.43217906 -0.14899805 0.10180085 -0.17570433
0.32208213 1.2037162 0.0853502 -1.7608309 0.059560195 -1.3081975 0.23057866 0.9599387
0.14141941 0.86194164 -1.0958056 -1.1410904 -0.37610725 -0.2558852 -0.28377268 1.1223673
2.0637617 0.13099124 0.91126615 0.09883216 -0.666103 0.9322513 1.6354256 -1.1004666
0.7353627 2.0250545 -2.9137704 0.1907943 0.16965011 -0.70002025 -0.09773357 0.51418406
1.1126975 0.5342776 -1.4878324 2.0765078 0.8279512 -0.508258 -1.0384233 -0.52343565
1.1412525 0.93115395 1.3668782 -0.20696776 -0.99308056 -1.5273452 -1.8413417 -1.759862
1.7663225 0.07322857 -1.02474 0.48028353 0.18369703 -0.52395946 -0.3386244 -0.12380565
0.12761271 -0.5699601 0.93264234 -0.80414414 1.0276963 1.077348 0.64973456 -0.864447
-1.064156 -1.4152653 -0.8080259 -0.28178766 1.1224743 0.6691307 -1.7119619 -1.7278488
1.181378 0.8494501 0.054211166 -1.2803893 -1.2637423 -0.5668991 -0.51372886 0.45822558
-0.09025457 -0.16576974 0.066946134 0.6473221 1.7811751 0.6626967 -0.3975274 -1.3499496
0.1721544 -1.7861749 1.2842832 -0.13791133 0.8831116 0.20145318 2.3796992 -0.18643886
00000000: 2d38 1f3e b721 37bf 420a 993f 2edb ce3f
00000010: 8067 1e3f b34c 833f 53b9 86bd 7398 743f
00000020: 4a73 c63f 5fcc 183f 82da ad3f a0c7 87bf
00000030: b43e bf3f 27bd 58bf ba5a 85bf 2bca 333f
00000040: f491 8bbf a717 d83e 309b f43e 2ab8 b9be
00000050: cfd8 013f ce3c 203f 2854 723e 3fc5 b93e
00000060: 3329 81bf d2f0 b6bf 4acd f03f 309d e8bf
00000070: 99fe 1e3f 37cd 7ebd 31f7 31bf 02e8 c2bf
00000080: c31d 453f 48c9 f13d f107 5fbe b119 363f
00000090: 966c dcbd fd54 a93e 8f69 06bf 0951 febf
000000a0: 70a8 cdbe 63b0 803f 8ad7 85bf c130 473e
000000b0: dcf2 9cbf a0e4 c7bc e3d7 5ac0 f383 56bf
000000c0: 23d9 993e b6ef 5fbf 1fe6 7dbf 6304 a9be
000000d0: 485d 833f 5680 e03f 7ae8 96bf da97 093f
000000e0: eef9 90bf 96e5 ea3d e0ec 203f 1699 ccbf
000000f0: bc0a 5fbf f397 e5be a2f4 47bf 7427 06c0
00000100: 637a 6d3f 01c9 843e 1eb8 b2bf f4c3 0740
00000110: 7555 4ebf 9c37 9bbe bcd5 adbf 8163 873e
00000120: bcb0 c3be 5cf0 88be b90b dd3d 3edc d8bf
00000130: 3a0a 18c0 53fa 01be 0750 82be 7928 4cbc
00000140: b518 193e 4686 2e3f 0daa c83f 767d f33e
00000150: 41a4 80bf 09fb 82bf 3c7d 053f 5be3 f6be
00000160: c4ca 45bf 45a6 2f40 beea fcbf 30f0 d43e
00000170: 139d c83f c321 23bd 97e2 78bf b849 36bf
00000180: b5b7 753e e57c 99bf 171e 883f 144c 2dbf
00000190: 0cd4 29bf 842e ac3e 80b9 043f c4d6 843f
000001a0: 3de2 293d 8d83 573f 5a75 06be fc08 bfbf
000001b0: 2026 ba3e 4ad5 02bf 3846 d6be 3d48 973f
000001c0: 722c 88be d2df 4d3f a67b 9dbe 5f48 ad3f
000001d0: 44c2 2a3f 598f 71be 8154 2fbe 23c7 0f3f
000001e0: dc35 9d3e c8f4 ac3e 7400 053e 6f95 133f
000001f0: d158 a63c c0fd b23f 8f5e b53f c0bf c0bb
00000200: 45e8 61bf e3f6 f9be f994 adbf 1a0e 6fbe
00000210: 1735 ea3f ed78 cb3f 8a5e 363e ba0f 033f
00000220: f0d7 0bbf 86c2 b8bf 323e f6bf af88 90bf
00000230: 94de 803f c211 10bc 91f0 4dbf 8aa0 fb3f
00000240: 0af0 d23f 35e7 113f 9c2e 4abc 3f44 bcbf
00000250: b977 3dbd 9966 08bf bde4 283f 7df5 0b40
00000260: 45c5 f93e 2980 0b40 3a38 bbbf eb0b b2bf
00000270: 9346 ddbe f292 18be f77c d03d d6eb 33be
00000280: f3e7 a43e 5f13 9a3f 16cc ae3d e862 e1bf
00000290: 64f5 733d 0473 a7bf d01c 6c3e 8bbe 753f
000002a0: 40d0 103e 35a8 5c3f 5c43 8cbf 400f 92bf
000002b0: 2191 c0be 6303 83be a74a 91be bba9 8f3f
000002c0: ac14 0440 9122 063e bd48 693f 8468 ca3d
000002d0: ba85 2abf 05a8 6e3f a055 d13f 17dc 8cbf
000002e0: bb40 3c3f 7e9a 0140 377b 3ac0 955f 433e
000002f0: c2b8 2d3e 8734 33bf 8a28 c8bd 91a1 033f
00000300: df6c 8e3f 6bc6 083f 4b71 bebf 81e5 0440
00000310: 9cf4 533f 321d 02bf 0eeb 84bf e1ff 05bf
00000320: 9014 923f 1b60 6e3f ddf5 ae3f 5bef 53be
00000330: 873a 7ebf 0c80 c3bf 16b1 ebbf 2843 e1bf
00000340: db16 e23f dcf8 953d ae2a 83bf b9e7 f53e
00000350: 131b 3c3e 3522 06bf 2d60 adbe d18d fdbd
00000360: e8ac 023e e8e8 11bf a6c1 6e3f 64dc 4dbf
00000370: 8d8b 833f 8ae6 893f 0155 263f 664c 5dbf
00000380: 4436 88bf 6a27 b5bf c9da 4ebf 7946 90be
00000390: 3dad 8f3f 264c 2b3f 9121 dbbf 262a ddbf
000003a0: 6537 973f 9075 593f 870c 5e3d cce3 a3bf
000003b0: 4fc2 a1bf 4d20 11bf bc83 03bf 8b9c ea3e
000003c0: 63d7 b8bd 8bbf 29be 0e1b 893d e7b6 253f
000003d0: 8cfd e33f 7ea6 293f b688 cbbe 26cb acbf
000003e0: 3e49 303e 61a1 e4bf 6463 a43f a138 0dbe
000003f0: 9a13 623f be49 4e3e fe4c 1840 d4e9 3ebe

encoder.lstm.weight_ih_l0 f4 [128, 16]
0.009209218 0.29351786 -0.22794764 -0.49787548 0.08232995 0.033320818 -0.053042043 0.10568933
-0.19863902 -0.108489014 -0.5115478 -0.092735425 0.34273064 0.012150055 -0.11701186 0.18528882
0.042320304 0.3269292 -0.39396894 -0.008751619 0.056059584 -0.2538129 -0.013228941 0.22248353
-0.30137336 -0.6814611 -0.3058564 -0.33625934 0.0647879 -0.65714586 -0.084884234 -0.020545548
-0.03676782 -0.1999132 -0.16094609 0.068010435 -0.16931042 0.1323484 0.15000956 0.07182032
0.1274612 -0.19152503 -0.21126167 0.14703742 -0.22315736 0.0845597 -0.28346887 0.28020814
-0.4343771 0.004407572 0.5635051 0.05154298 0.044099588 0.06831582 0.018111506 -0.08018389
-0.20340538 0.065616004 -0.031855702 -0.6409233 -0.26616865 0.32099125 0.12983495 0.004449208
-0.27246308 0.16429311 0.23761234 0.12592883 0.37524325 0.053811744 -0.007953546 -0.022267643
-0.21219182 -0.079351746 0.31746918 -0.08328554 -0.29841325 0.20222549 -0.08504623 -0.19823149
0.26509935 0.3956702 0.10244666 0.084578186 0.26231155 -0.091122 -0.049585607 -0.036385927
0.12034397 -0.46516582 -0.06250819 0.080588974 -0.055129524 0.34676895 -0.26628906 0.27513614
-0.35567316 -0.003544094 0.16117397 -0.18830146 0.36272034 0.11784967 0.32320747 0.20190422
0.022556521 0.38204235 0.008560081 0.32405055 0.10917671 -0.041114155 0.12898922 0.055424016
-0.36253747 0.012645769 -0.21840906 -0.21435015 0.37253383 0.4230317 0.026002694 0.37294298
-0.45589986 0.096848 -0.65872955 -0.010372151 -0.16039778 0.7816331 0.262749 -0.25875288
0.24065824 -0.095086545 -0.12781034 0.39213294 0.15911663 -0.2759315 0.036749292 0.34941506
0.032873023 0.35610345 0.20106441 0.07441373 0.2297713 0.32704765 -0.25432175 -0.070742175
0.067566775 0.23098017 0.009185349 -0.099366024 -0.2705046 -0.16142584 -0.10588538 0.34840545
-0.15935878 0.06504559 -0.4743333 -0.21349084 0.08165746 0.5898784 0.10551426 0.27407277
0.25405097 -0.011470947 -0.061876956 -0.030963479 0.11656397 0.27969286 -0.07217068 0.27458414
-0.2304003 -0.23895729 -0.117509186 -0.22340095 0.5132765 0.07480294 -0.0722071 0.03195003
0.06720927 0.27113965 -0.5157491 0.13748409 0.10277722 -0.23902157 0.03966327 0.28303158
-0.41966802 0.339809 0.24782865 0.20166706 -0.014582223 -0.17944413 -0.098640494 0.1698308
0.017877292 0.44658592 -0.08754043 0.3584737 -0.2055317 0.08154318 -0.592343 0.23939872
0.16143095 0.21624224 0.22641902 -0.073302604 -0.0964372 0.4154058 0.29051054 0.18601146
-0.0052538277 0.17306237 -0.0054229777 -0.14108379 0.00010507866 -0.012083585 0.3581124 0.1427336
-0.20082721 -0.18493588 -0.081369594 0.372553 -0.04530544 0.18321085 -0.13446385 0.20986441
0.034730878 -0.14396633 -0.25048396 0.22740903 -0.017378619 0.1196525 0.036656383 -0.012455196
-0.039829917 -0.121612065 -0.082754195 -0.17851117 0.06856601 -0.26544675 -0.19412747 0.054288287
-0.055725645 -0.08858971 -0.16486365 0.18375768 -0.0478469 0.4872278 -0.35199484 0.029967329
0.09006576 0.07068248 0.107509 -0.31757385 -0.42459184 -0.075380065 -0.08012656 0.0741816
00000000: 43e2 163c f947 963e 1b6b 69be 89e9 febe
00000010: 9b9c a83d 697b 083d 9d42 59bd a673 d83d
00000020: 0768 4bbe 7d2f debd ccf4 02bf 12ec bdbd
00000030: 647a af3e 0611 473c eaa3 efbd 5abc 3d3e
00000040: 0e58 2d3d 4463 a73e 4cb6 c9be f362 0fbc
00000050: bc9e 653d c4f3 81be 33be 58bc b9d2 633e
00000060: 9c4d 9abe 3c74 2ebf 3699 9cbe 2f2a acbe
00000070: 85af 843d b63a 28bf c9d7 adbd 234f a8bc
00000080: db99 16bd 0cb6 4cbe 0dcf 24be 0e49 8b3d
00000090: b65f 2dbe 5786 073e 1b9c 193e 8816 933d
000000a0: 3085 023e 231f 44be fb54 58be fa90 163e
000000b0: 5d83 64be a32d ad3d d522 91be 7177 8f3e
000000c0: ad66 debe 656d 903b df41 103f bb1e 533d
000000d0: c5a1 343d 2ae9 8b3d 955e 943c 7437 a4bd
000000e0: 8049 50be af61 863d 207b 02bd 8d13 24bf
000000f0: 4247 88be f758 a43e 74f3 043e a9ca 913b
00000100: 4880 8bbe 743c 283e a650 733e 7df3 003e
00000110: e21f c03e b469 5c3d 974f 02bc a26a b6bc
00000120: d048 59be 2b83 a2bd 528b a23e 9c91 aabd
00000130: 9fc9 98be 3314 4f3e b82c aebd 32fd 4abe
00000140: 1abb 873e 4995 ca3e 8ecf d13d 5437 ad3d
00000150: b34d 863e 2c9e babd 471a 4bbd 6909 15bd
00000160: e676 f63d 372a eebe 4b04 80bd d50b a53d
00000170: 7fcf 61bd b38b b13e 0a57 88be a5de 8c3e
00000180: cb1a b6be 0844 68bb ca0a 253e 19d2 40be
00000190: 7bb6 b93e 2b5b f13d 737b a53e fbbf 4e3e
000001a0: 74c8 b83c 0e9b c33e 953f 0c3c f4e9 a53e
000001b0: 0a98 df3d 5167 28bd c015 043e 4b04 633d
000001c0: 839e b9be 3330 4f3c a0a6 5fbe 9b7e 5bbe
000001d0: c1bc be3e 9c97 d83e 9a03 d53c 62f2 be3e
000001e0: b56b e9be 3f58 c63d 80a2 28bf f4ef 29bc
000001f0: 513f 24be 1b19 483f 0987 863e 427b 84be
00000200: 1d6f 763e bcbc c2bd b7e0 02be a6c5 c83e
00000210: 78ef 223e e546 8dbe 6d86 163d 88e6 b23e
00000220: dda5 063d 3153 b63e d4e3 4d3e 3a66 983d
00000230: 2b49 6b3e ca72 a73e 7636 82be 46e1 90bd
00000240: 7360 8a3d 1186 6c3e 257e 163c 6a80 cbbd
00000250: 947f 8abe d14c 25be 6fda d8bd 3362 b23e
00000260: f32e 23be 9f36 853d d0db f2be 589d 5abe
00000270: 073c a73d 4502 173f dc17 d83d 4453 8c3e
00000280: f812 823e a4f0 3bbc b172 7dbd 1fa7 fdbc
00000290: 17b9 ee3d e733 8f3e 39ce 93bd 4b96 8c3e
000002a0: 0eee 6bbe 38b1 74be a8a8 f0bd 38c3 64be
000002b0: 1766 033f 4932 993d 51e1 93bd 09de 023d
000002c0: 04a5 893d d1d2 8a3e 2208 04bf a1c8 0c3e
000002d0: dd7c d23d 12c2 74be f475 223d 84e9 903e
000002e0: bade d6be 72fb ad3e cbc6 7d3e cf81 4e3e
000002f0: 47ea 6ebc 34c0 37be 0704 cabd 20e8 2d3e
00000300: 6673 923c e9a6 e43e 6648 b3bd dd89 b73e
00000310: e776 52be 1c00 a73d caa3 17bf f024 753e
00000320: 284e 253e 9b6e 5d3e 63da 673e ad1f 96bd
00000330: de80 c5bd 12b0 d43e ccbd 943e ca79 3e3e
00000340: 4d28 acbb 4337 313e 3cb3 b1bb 4578 10be
00000350: ad5d dc38 3bfa 45bc 825a b73e c228 123e
00000360: a6a5 4dbe d55f 3dbe 1aa5 a6bd 44bf be3e
00000370: 3292 39bd a09b 3b3e e4b0 09be b2e6 563e
00000380: f741 0e3d e96b 13be 6f3f 80be eadd 683e
00000390: 9b5d 8ebc 5f0c f53d 0125 163d e110 4cbc
000003a0: b224 23bd bf0f f9bd 087b a9bd a2cb 36be
000003b0: 566c 8c3d a3e8 87be 5ac9 46be 655d 5e3d
000003c0: 9340 64bd 866e b5bd 04d2 28be f92a 3c3e
000003d0: 1cfb 43bd ec75 f93e ab38 b4be 0b7e f53c
000003e0: 6674 b83d fac1 903d ae2d dc3d 0a99 a2be
000003f0: 1a64 d9be dd60 9abd 6519 a4bd 86ec 973d

encoder.lstm.weight_hh_l0 f4 [128, 32]
-0.52252865 -0.16156141 -0.32644075 0.122505255 0.6339958 -0.15476571 0.060071673 -0.30425838
-0.2681264 -0.1572146 -0.27791923 -0.10571316 0.35182324 -0.14434071 0.43197942 -0.11038854
0.099969715 0.014927758 -0.2900823 -0.38394046 -0.21048732 0.34103364 -0.5203705 -0.31346256
0.2885955 -0.023693964 -0.13579795 -0.23334542 -0.29281443 0.22702795 -0.06311587 -0.030071456
-0.03869465 0.07806137 -0.44515425 0.061636467 0.3267033 -0.43739378 0.22411619 -0.022509115
-0.21907538 -0.1575906 -0.31042007 -0.0035542895 -0.19919892 -0.12739135 0.6967922 -0.02380656
0.18739872 0.35281107 0.17320219 -0.31596166 -0.33408678 0.2350372 -0.08294822 0.09638235
0.37904 0.036468443 0.0030560489 -0.12451248 -0.4676685 0.54773253 0.33826628 -0.09320693
0.23374401 0.053203117 -0.080699615 -0.23660825 0.59221834 -0.4598953 0.3763019 -0.0134328725
-0.20139338 -0.37926936 -0.07520829 -0.58502847 0.009308279 -0.3507397 0.26322687 -0.18158107
0.19884877 -0.16111955 0.073699676 -0.42226353 -0.22523637 0.24469078 -0.19332302 0.17801857
0.27116796 -0.17362031 -0.029904917 -0.39990965 -0.1964749 0.09678899 -0.26084217 -0.19422932
-0.12361781 -0.33777294 -0.123307206 -0.28795725 -0.15859982 -0.5640781 -0.10647331 0.19359443
0.05281803 0.26286274 0.07951526 -0.266488 -0.041332193 -0.38879576 -0.019177735 0.27322823
0.15363313 -0.068958275 0.29345983 -0.12412657 -0.12089531 -0.09249858 -0.3180368 -0.2592888
-0.1625943 0.3243354 -0.42315355 0.13800521 -0.29630947 -0.07989767 0.06799492 0.20306341
-0.100945786 -0.16825718 -0.20487796 -0.021555755 0.32498568 -0.5970398 0.036558114 0.26553413
-0.10101455 0.015289918 -0.21180786 -0.09286854 0.3483152 -0.13769555 0.52449495 0.11955943
0.28210524 -0.27563092 0.070372 -0.3264109 -0.33401334 0.26674366 -0.094272055 -0.035317115
0.19251162 -0.017534738 -0.40550607 0.11145625 -0.54757506 0.42857668 -0.40924367 -0.27808514
0.30158383 -0.10641286 -0.09288519 -0.1076954 0.049510617 -0.16141985 0.33572495 0.348195
-0.4778744 0.15775028 -0.2530664 -0.18617915 -0.07825301 -0.26598862 0.042270903 -0.084684886
0.43655148 -0.07036949 0.23575124 -0.14920183 -0.029465942 0.34783423 0.05178548 -0.062995195
-0.053057265 -0.26800802 -0.11242118 -0.41764203 -0.22491129 0.4212491 -0.54748684 -0.10778755
0.100351796 0.3437373 -0.20480184 0.08254276 0.21797521 -0.4118695 0.091677755 0.40900105
-0.110821314 -0.007968422 -0.1623741 -0.3780217 -0.14629981 -0.27452192 -0.2638836 0.2172409
-0.1562947 -0.0774066 -0.4042708 0.14140928 -0.16111071 0.26785395 -0.03741622 -0.38832265
0.6209227 -0.06923502 0.15770711 -0.18989417 -0.5092572 0.2026066 0.023210954 -0.040931206
0.066638485 -0.21209177 -0.54231036 -0.2187877 0.8122262 -0.31067878 -0.068054415 -0.18217205
-0.1068773 -0.12054518 -0.2212598 -0.15255298 0.035905413 -0.2183343 0.14259245 -0.106105715
0.007995934 0.100778975 -0.21266912 -0.10405936 -0.044818662 0.08623056 -0.5707369 -0.572262
-0.0771506 -0.41314924 -0.21156205 -0.8356239 -0.3697992 0.2909169 0.12862052 0.031478312
00000000: 70c4 05bf 5b70 25be 3e23 a7be 09e4 fa3d
00000010: 8c4d 223f e77a 1ebe b70d 763d c1c7 9bbe
00000020: dd47 89be ddfc 20be 6e4b 8ebe 2480 d8bd
00000030: 2d22 b43e 0dce 13be 682c dd3e 6313 e2bd
00000040: ecbc cc3d 8e93 743c ab85 94be d893 c4be
00000050: fd89 57be f69b ae3e 0037 05bf 2a7e a0be
00000060: cac2 933e d819 c2bc 9e0e 0bbe 1af2 6ebe
00000070: c6eb 95be 047a 683e e542 81bd 6a58 f6bc
00000080: 487e 1ebd a4de 9f3d 42eb e3be 8576 7c3d
00000090: a845 a73e 14f2 dfbe b77e 653e 0965 b8bc
000000a0: 4c55 60be 6e5f 21be 61ef 9ebe 15ef 68bb
000000b0: cdfa 4bbe e172 02be f960 323f fa05 c3bc
000000c0: 73e5 3f3e a7a3 b43e ea5b 313e bac5 a1be
000000d0: 6c0d abbe 97ad 703e c2e0 a9bd 1c64 c53d
000000e0: 8811 c23e ef5f 153d fe47 483b 6600 ffbd
000000f0: 3f72 efbe 3338 0c3f 3d31 ad3e 46e3 bebd
00000100: 975a 6f3e 83eb 593d d745 a5bd 6f49 72be
00000110: 9f9b 173f 6677 ebbe a5aa c03e 8d15 5cbc
00000120: 113a 4ebe 982f c2be ce06 9abd 6dc4 15bf
00000130: c081 183c 2794 b3be acc5 863e 63f0 39be
00000140: 039f 4b3e 86fc 24be dbef 963d ed32 d8be
00000150: 5da4 66be 3890 7a3e 78f6 45be 804a 363e
00000160: 87d6 8a3e 86c9 31be 28fb f4bc f5c0 ccbe
00000170: b730 49be 4e39 c63d 1b8d 85be 0de4 46be
00000180: 562b fdbd 93f0 acbe 7d88 fcbd 226f 93be
00000190: fe67 22be 6c67 10bf ae0e dabd 9e3d 463e
000001a0: b857 583d f295 863e e6d8 a23d 1d71 88be
000001b0: f24b 29bd 3d10 c7be a01a 9dbc 92e4 8b3e
000001c0: 0152 1d3e ff39 8dbd 5e40 963e 1236 febd
000001d0: f697 f7bd e56f bdbd b8d5 a2be 80c1 84be
000001e0: 1f7f 26be 4a0f a63e 95a7 d8be 3d51 0d3e
000001f0: e0b5 97be 64a1 a3bd ec40 8b3d dbef 4f3e
00000200: aabc cebd 9c4b 2cbe 87cb 51be b295 b0bc
00000210: 8664 a63e 9ad7 18bf f6bd 153d 17f4 873e
00000220: b7e0 cebd 9082 7a3c 29e4 58be dc31 bebd
00000230: 5f56 b23e 1000 0dbe 4d45 063f 93db f43d
00000240: 1970 903e 7f1f 8dbe 321f 903d 541f a7be
00000250: cc03 abbe a092 883e b511 c1bd aea8 10bd
00000260: c421 453e 03a5 8fbc 7e9e cfbe 2d43 e43d
00000270: e12d 0cbf 676e db3e 6388 d1be 2d61 8ebe
00000280: 3269 9a3e fcee d9bd 973a bebd 688f dcbd
00000290: a5cb 4a3d 3f4b 25be 24e4 ab3e 9d46 b23e
000002a0: f4ab f4be 4a89 213e eb91 81be bfa5 3ebe
000002b0: 1d43 a0bd a92f 88be 4124 2d3d 456f adbd
000002c0: ad83 df3e e11d 90bd c668 713e 5dc8 18be
000002d0: 8f62 f1bc 5417 b23e 031d 543d a003 81bd
000002e0: 9352 59bd 5938 89be 133d e6bd 2dd5 d5be
000002f0: 254f 66be f6ad d73e 1928 0cbf b8bf dcbd
00000300: 3e85 cd3d 56fe af3e 93b7 51be 2e0c a93d
00000310: e534 5f3e 8fe0 d2be 8cc1 bb3d 9668 d13e
00000320: 49f6 e2bd fc8d 02bc 6545 26be 0f8c c1be
00000330: 9ecf 15be 238e 8cbe c01b 87be 6674 5e3e
00000340: b80b 20be 5a87 9ebd 95fc cebe 98cd 103e
00000350: 35fa 24be 2724 893e c041 19bd 3ad2 c6be
00000360: caf4 1e3f 17cb 8dbd f97d 213e 9e73 42be
00000370: ae5e 02bf 1b78 4f3e e624 be3c 7ba7 27bd
00000380: c279 883d 962e 59be dad4 0abf e209 60be
00000390: 0eee 4f3f 4a11 9fbe 1d60 8bbd 4f8b 3abe
000003a0: 7ce2 dabd 64e0 f6bd ee91 62be d936 1cbe
000003b0: 8e11 133d 0793 5fbe c103 123e f44d d9bd
000003c0: 6101 033c 3565 ce3d efc5 59be 131d d5bd
000003d0: c693 37bd a699 b03d d01b 12bf c37f 12bf
000003e0: 2201 9ebd 4c88 d3be b9a3 58be 73eb 55bf
000003f0: 5256 bdbe 0ff3 943e 19b5 033e 67ef 003d

encoder.lstm.bias_ih_l0 f4 [128]
0.38144666 0.1646951 0.32231173 0.084777 0.15412179 0.41582486 0.28798014 0.281512
0.27293473 0.2970877 0.020320792 0.04336693 0.053874187 0.48102716 0.288217 0.082768746
0.27868465 0.28945982 0.45620358 -0.011643869 0.16130833 0.15240055 0.34104243 0.2976805
0.20893224 0.18968101 0.32691938 0.22309394 0.4843548 0.30823672 -0.03193775 0.10160094
0.2483783 -0.11863052 0.24856846 0.051741652 0.00910911 0.34598967 0.17082588 0.16986206
0.16665329 0.18942702 0.103363104 0.2601106 0.2609441 0.16528335 0.21749058 0.21562517
0.33189285 0.0721069 0.2605636 0.20650415 0.14849749 0.08197009 0.14446881 0.23280224
0.26403153 0.16377734 0.086333066 0.013340536 0.043984577 0.41727957 0.12871608 -0.055091877
-0.047210433 -0.0006644577 -0.050590534 -0.1250224 0.15422128 -0.09574065 0.05529117 0.11271781
-0.13859749 -0.031277485 0.015659813 -0.25895497 -0.18196814 -0.1627222 -0.026944602 0.18981814
0.056689315 -0.15643638 0.07268802 -0.072625734 -0.33270422 0.2303392 -0.0328616 0.010025279
0.1889956 -0.11486173 0.023403298 -0.03173618 -0.116537236 0.22685523 -0.15973142 -0.069798715
0.19705403 0.32386732 0.21942282 0.30154094 0.32238507 0.19428769 0.16008435 0.23272218
0.4484729 0.1821704 0.06661477 0.2423062 0.2278909 0.17491105 -0.08875287 0.21786189
0.19371164 0.17070179 0.29165697 0.09300838 0.1333327 0.04152737 0.27519342 -0.018188981
0.08400258 0.35899106 0.217526 0.13101116 0.17903407 -0.03300811 -0.0147986775 0.074831374
00000000: fa4c c33e d5a5 283e 0b06 a53e 909f ad3d
00000010: 1ad2 1d3e ffe6 d43e 2272 933e 5722 903e
00000020: 1abe 8b3e e11b 983e ca77 a63c 86a1 313d
00000030: 2eab 5c3d 3149 f63e 2e91 933e a982 a93d
00000040: c1af 8e3e 1434 943e 8493 e93e edc5 3ebc
00000050: 032e 253e e40e 1c3e 1d9d ae3e 9469 983e
00000060: 55f2 553e bd3b 423e fa61 a73e bd72 643e
00000070: 5afd f73e 34d1 9d3e 28d1 02bd 2714 d03d
00000080: e256 7e3e 8ff4 f2bd bb88 7e3e 0eef 533d
00000090: 603e 153c 8f25 b13e fbec 2e3e 52f0 2d3e
000000a0: 29a7 2a3e 28f9 413e 09b0 d33d 372d 853e
000000b0: 779a 853e 0a40 293e dab5 5e3e d8cc 5c3e
000000c0: dced a93e c8ac 933d 9868 853e d375 533e
000000d0: ba0f 183e efdf a73d a2ef 133e b663 6e3e
000000e0: 242f 873e 3fb5 273e 64cf b03d 4392 5a3c
000000f0: 2c29 343d aba5 d53e 26ce 033e 05a8 61bd
00000100: ba5f 41bd 002f 2eba 0538 4fbd df05 00be
00000110: 2fec 1d3e ad13 c4bd fe78 623d 98d8 e63d
00000120: 80ec 0dbe d21c 00bd 0249 803c bf95 84be
00000130: db55 3abe a6a0 26be edba dcbc b05f 423e
00000140: 0e33 683d dc30 20be 75dd 943d cdbc 94bd
00000150: 3558 aabe 0ade 6b3e e399 06bd 1141 243c
00000160: 1088 413e a03c ebbd 46b8 bf3c ccfd 01bd
00000170: 13ab eebd bd4c 683e a290 23be a1f2 8ebd
00000180: 88c8 493e f0d1 a53e 60b0 603e 9363 9a3e
00000190: a80f a53e 5af3 463e 27ed 233e b94e 6e3e
000001a0: 3d9e e53e e18a 3a3e 536d 883d 1e1f 783e
000001b0: 3b5c 693e e21b 333e 11c4 b5bd 3017 5f3e
000001c0: 585c 463e 73cc 2e3e 1054 953e 2d7b be3d
000001d0: 5e88 083e 9b18 2a3d 27e6 8c3e 0f01 95bc
000001e0: 8b09 ac3d adcd b73e 23bf 5e3e ca27 063e
000001f0: b554 373e 8333 07bd 2776 72bc 3141 993d

encoder.lstm.bias_hh_l0 f4 [128]
0.14991687 0.15017928 0.074262 0.24276659 0.20172179 0.18484133 0.17012277 0.17642309
0.054417267 0.3123282 0.036724087 0.23135991 0.07479437 0.5839554 0.10261626 0.27030203
0.047857773 0.35126093 0.21806404 -0.10823385 0.025027597 0.25891525 0.30950013 0.12074725
0.2146702 0.37113842 0.19080207 0.040086284 0.2605705 0.44428584 0.0327529 0.16087995
0.13245729 -0.15802194 -0.043000598 0.03189896 0.19418854 0.359928 0.09113714 0.35032922
0.14275041 0.3201642 0.09245494 0.12773013 0.21130492 0.38999963 0.1882449 0.22694878
0.26776496 0.0919681 0.11194517 -0.04245482 0.13049862 0.14037286 -0.051818065 0.20181333
0.23661666 0.2716902 0.18143065 0.28155315 0.1475441 0.2714064 0.31900555 0.16608883
0.098444134 -0.22456641 -0.19293569 -0.10538222 0.050381396 -0.1553917 0.14673027 0.06536619
-0.014576675 -0.14507148 -0.15720089 -0.22371158 0.043858953 -0.058428004 0.009745516 -0.07154593
0.25337207 -0.17123918 -0.015948322 -0.02650376 -0.336958 0.014570026 -0.15066977 -0.14564501
0.15102725 -0.06389259 -0.18867853 -0.10057153 -0.104255326 0.1842913 -0.236112 -0.14838167
0.24900012 0.28552642 0.23156618 0.1660761 0.40695262 0.11139071 0.11453087 -0.060730334
0.32051024 0.23952572 0.12752478 0.13393514 0.124078214 0.32651523 0.06856893 0.06894671
0.038743343 0.3937191 0.09478879 0.2446772 0.04413786 0.12172797 0.26286647 0.19737579
0.024650522 0.1581212 0.0932742 0.24526453 0.2318993 0.007296574 0.23368312 0.1989631
00000000: cf83 193e 99c8 193e ad16 983d ce97 783e
00000010: 2890 4e3e 0c47 3d3e aa34 2e3e 41a8 343e
00000020: a4e4 5e3d 7be9 9f3e ff6b 163d 9de9 6c3e
00000030: ca2d 993d 1a7e 153f 7928 d23d 0765 8a3e
00000040: 8306 443d 79d8 b33e 2e4c 5f3e b5a9 ddbd
00000050: ad06 cd3c 8a90 843e cd76 9e3e 564a f73d
00000060: 81d2 5b3e db05 be3e 9e61 433e 8431 243d
00000070: 7f69 853e 6f79 e33e e827 063d b7bd 243e
00000080: e2a2 073e 81d0 21be 6521 30bd 7ca8 023d
00000090: 5cd9 463e 7c48 b83e 1ca6 ba3d 5a5e b33e
000000a0: 2a2d 123e 90ec a33e 0459 bd3d b0cb 023e
000000b0: 5160 583e 08ae c73e 45c3 403e 4365 683e
000000c0: 7d18 893e c559 bc3d 8243 e53d 1be5 2dbd
000000d0: 6ea1 053e e7bd 0f3e 2e3f 54bd 27a8 4e3e
000000e0: a34b 723e fa1a 8b3e f5c8 393e bc27 903e
000000f0: cd15 173e c8f5 8a3e b254 a33e 3113 2a3e
00000100: 149d c93d bdf4 65be ef90 45be a2d2 d7bd
00000110: b95c 4e3d 001f 1fbe 7640 163e b6de 853d
00000120: 02d3 6ebc 9e8d 14be 45f9 20be a614 65be
00000130: 72a5 333d 3452 6fbd a8ab 1f3c ac86 92bd
00000140: fcb9 813e 5359 2fbe 0ea6 82bc 6a1e d9bc
00000150: c285 acbe 1eb7 6e3c 2d49 1abe f723 15be
00000160: e3a6 1a3e 1eda 82bd f234 41be 72f8 cdbd
00000170: d183 d5bd dcb6 3c3e 58c7 71be 5df1 17be
00000180: e3f9 7e3e 8530 923e af1f 6d3e da0f 2a3e
00000190: 185c d03e d020 e43d 298f ea3d 5fc0 78bd
000001a0: eb19 a43e 3b46 753e db95 023e 4b26 093e
000001b0: b81c fe3d 012d a73e de6d 8c3d ef33 8d3d
000001c0: 57b1 1e3d 8d95 c93e a020 c23d a98c 7a3e
000001d0: e7c9 343d 844c f93d 6f96 863e e11c 4a3e
000001e0: e4ef c93c 86ea 213e 8b06 bf3d a026 7b3e
000001f0: 0377 6d3e 1918 ef3b a14a 6f3e fcbc 4b3e

policy.net.0.weight f4 [128, 32]
-0.3890893 0.0033674168 -0.13837828 -0.428916 0.011041079 -0.20021422 -0.022028593 0.36626154
0.56082624 -0.20255706 -0.09697781 -0.2365618 -0.41918385 0.066250764 0.026082076 0.17812183
-0.05568319 -0.16560204 -0.29926497 0.21951804 0.05150839 0.056465685 -0.1348109 -0.070537664
0.17044163 0.27835417 -0.20054059 -0.38456237 -0.1677512 0.0072544855 -0.13425796 -0.27403766
-0.02286431 -0.059167814 -0.12389763 -0.03448103 -0.11711408 -0.086709924 -0.3791945 0.43919125
0.5191166 -0.15946908 -0.08162016 0.03332902 -0.24966712 -0.08933561 -0.13369544 0.047287095
0.07823649 -0.11666568 -0.020935383 0.08004103 -0.37095717 -0.06369082 -0.033678517 0.018487636
0.16971357 0.06916932 0.23687759 0.049268633 -0.17396283 0.15119496 0.24205634 -0.24303472
-0.22652896 -0.17323864 -0.08161202 -0.24491784 -0.0058053294 -0.18863636 -0.07656494 0.37941223
0.5918525 -0.10150665 0.13738713 0.13475439 -0.3932747 -0.09132012 -0.21935235 0.16396946
-0.10452507 0.044476382 -0.13358209 0.49691692 -0.09484319 0.16091251 -0.105654106 -0.25634554
-0.08677131 0.23157483 -0.059078086 0.0678973 -0.122659735 -0.030562093 0.08951443 -0.36033738
0.29317957 -0.36216727 -0.00047107466 0.14894345 0.1397813 0.02293847 -0.25517935 -0.18679954
0.21791594 -0.08439985 0.2567785 0.028836297 -0.5896796 0.01929216 0.1774877 -0.20988071
-0.37658536 0.08062407 -0.07194546 0.13916424 0.01672882 -0.24704261 0.088843174 -0.2729948
-0.03455826 -0.11944712 0.4298017 0.24099828 0.1280661 -0.036436547 0.21829174 -0.08074381
0.033829212 0.2704601 -0.08084616 -0.2852921 -0.080640845 0.19937824 -0.11543004 -0.33081764
-0.3400277 -0.10523597 0.5318066 -0.37507838 -0.6511062 -0.261193 0.1311972 -0.11360406
-0.24115431 -0.34876835 0.032205846 0.009745965 -0.028736347 -0.6653328 0.013523852 0.08992995
-0.18056585 -0.09959554 0.30736825 -0.11464061 0.22828919 -0.5399535 0.2433992 -0.033855133
0.065454274 -0.27500963 -0.22328883 0.23459792 0.24552418 -0.31391165 0.33835873 -0.24416915
-0.19362432 0.035483066 -0.012080786 0.14090237 0.38838056 -0.19756027 0.10413074 -0.12601079
0.114448845 0.21147422 -0.054477632 -0.042339195 -0.084041655 -0.15681812 -0.019983612 -0.080773756
-0.072186306 -0.2082702 -0.11768927 0.24867728 -0.07651336 -0.062739834 -0.26110584 0.35497773
-0.060485233 0.010693673 0.4510165 -0.23604828 0.067364074 -0.23064889 0.051747505 0.058305025
-0.3473134 -0.08510764 0.36048388 0.2938873 -0.23083253 -0.08278322 -0.2908402 -0.06904953
-0.16997464 -0.16979207 -0.05534386 -0.24284637 -0.3029237 -0.41119298 0.2271988 0.32511026
-0.03216816 0.29197207 -0.06510458 -0.060870524 0.15029393 -0.44424263 0.078128956 0.0046906346
0.12612647 0.1212826 0.066940375 0.12091878 -0.131946 -0.032924265 -0.115940906 -0.13299936
0.085349485 -0.033595107 -0.08230007 -0.01104863 -0.12577055 0.035410702 0.07209716 0.014740382
-0.021377206 0.051765293 0.06836009 -0.027150877 0.16707402 -0.22788648 -0.008116701 0.01999244
-0.07393287 0.08391647 -0.104291864 0.11350249 0.020414604 0.011899751 0.025490671 0.13336028
00000000: b636 c7be e1af 5c3b 09b3 0dbe e19a dbbe
00000010: a4e5 343c f504 4dbe 4f75 b4bc a286 bb3e
00000020: 4f92 0f3f 1e6b 4fbe 4d9c c6bd 423d 72be
00000030: 449f d6be 7bae 873d 14aa d53c 9265 363e
00000040: 0e14 64bd 9593 29be 4239 99be 56c9 603e
00000050: 76fa 523d 9048 673d de0b 0abe 0d76 90bd
00000060: 4088 2e3e 7084 8e3e 835a 4dbe 5ce5 c4be
00000070: f8c6 2bbe 09b7 ed3b eb7a 09be aa4e 8cbe
00000080: ef4d bbbc f359 72bd 0abe fdbd fb3b 0dbd
00000090: 82d9 efbd f994 b1bd c825 c2be addd e03e
000000a0: d3e4 043f dd4b 23be 7828 a7bd 0384 083d
000000b0: bda8 7fbe 97f5 b6bd 75e7 08be 1db0 413d
000000c0: 743a a03d 6bee eebd ae80 abbc 8dec a33d
000000d0: 19ee bdbe 5570 82bd 7cf2 09bd 6273 973c
000000e0: 65c9 2d3e a5a8 8d3d 0a90 723e e8cd 493d
000000f0: 5023 32be dad2 1a3e 9edd 773e 18de 78be
00000100: 35f7 67be 7865 31be 3424 a7bd becb 7abe
00000110: a23a bebb e429 41be 14ce 9cbd 5242 c23e
00000120: a583 173f b8e2 cfbd 36af 0c3e 0efd 093e
00000130: 4d5b c9be 0b06 bbbd e79d 60be 9ce7 273e
00000140: 3d11 d6bd de2c 363d bec9 08be e56b fe3e
00000150: 253d c2bd 40c6 243e 2e61 d8bd b93f 83be
00000160: 28b5 b1bd f421 6d3e ddfb 71bd bd0d 8b3d
00000170: 0735 fbbd 5b5d fabc 5753 b73d 247e b8be
00000180: a21b 963e fd6d b9be 92fa f6b9 a284 183e
00000190: d422 0f3e 75e9 bb3c dea6 82be 6148 3fbe
000001a0: 5b25 5f3e d4d9 acbd 7978 833e 193a ec3c
000001b0: 3ef5 16bf 980a 9e3c 56bf 353e f8ea 56be
000001c0: cccf c0be 3b1e a53d 2458 93bd 1281 0e3e
000001d0: e10a 893c bdf8 7cbe 69f3 b53d f9c5 8bbe
000001e0: f68c 0dbd b1a0 f4bd f80e dc3e 41c8 763e
000001f0: c223 033e 7d3e 15bd df87 5f3e 035d a5bd
00000200: 8090 0a3d bf79 8a3e ac92 a5bd ce11 92be
00000210: 0727 a5bd cf29 4c3e 9666 ecbd ee60 a9be
00000220: 1c18 aebe f585 d7bd 7a24 083f 460a c0be
00000230: e5ae 26bf 17bb 85be 8f58 063e 3fa9 e8bd
00000240: 28f1 76be c491 b2be 47ea 033d 8aad 1f3c
00000250: 7d68 ebbc 4053 2abf 2693 5d3c 322d b83d
00000260: 41e6 38be bff8 cbbd 5f5f 9d3e b2c8 eabd
00000270: a4c4 693e 643a 0abf a43d 793e aeab 0abd
00000280: e40c 863d 10ce 8cbe d4a5 64be 703a 703e
00000290: b16a 7b3e 07b9 a0be 5b3d ad3e 7a07 7abe
000002a0: 7445 46be b156 113d 7dee 45bc b648 103e
000002b0: d1d9 c63e 3d4d 4abe 7f42 d53d f908 01be
000002c0: 2864 ea3d b38c 583e f023 5fbd dd6b 2dbd
000002d0: 081e acbd ee94 20be acb4 a3bc b66c a5bd
000002e0: 6ad6 93bd c944 55be 1207 f1bd 42a5 7e3e
000002f0: 09b3 9cbd be7d 80bd aaaf 85be a4bf b53e
00000300: 5dbf 77bd 8434 2f3c a2eb e63e a4b6 71be
00000310: 2df6 893d 392f 6cbe 31f5 533d 40d1 6e3d
00000320: 10d3 b1be ea4c aebd 5891 b83e 6578 963e
00000330: 5d5f 6cbe 408a a9bd 02e9 94be d769 8dbd
00000340: d50d 2ebe f9dd 2dbe 3eb0 62bd b8ac 78be
00000350: d118 9bbe e387 d2be cda6 683e da74 a63e
00000360: c3c2 03bd 5d7d 953e 8d55 85bd 5f53 79bd
00000370: a7e6 193e c573 e3be 1302 a03d e5b3 993b
00000380: 4c27 013e 0363 f83d 0918 893d 44a4 f73d
00000390: da1c 07be 98db 06bd 6d72 edbd fc30 08be
000003a0: b6cb ae3d 069b 09bd f08c a8bd 5005 35bc
000003b0: ffc9 00be d00a 113d ada7 933d a581 713c
000003c0: 401f afbc d807 543d 6000 8c3d 846b debc
000003d0: 7415 2b3e 135b 69be e9fb 04bc 2fc7 a33c
000003e0: 1e6a 97bd 66dc ab3d f996 d5bd fe73 e83d
000003f0: 873c a73c 2cf7 423c d0d1 d03c 998f 083e

policy.net.0.bias f4 [128]
0.20106928 0.18223546 0.06882774 0.1008859 -0.09519786 0.060465734 -0.07659038 -0.30703717
0.078491054 0.08464548 0.24575752 -0.0041760043 0.22603047 0.0588645 0.0883189 0.037515078
0.0029820339 0.17642012 0.07566961 0.03507103 0.0066386554 0.0095721595 0.14062534 -0.04475061
-0.07086351 -0.15134925 -0.12759234 0.039499063 0.10449093 0.08840012 0.1426857 0.07114955
-0.21473843 0.007920211 0.095814124 0.14001429 -0.017534073 -0.008337935 0.16901618 0.16318277
0.043183494 0.204484 0.15046744 -0.012178082 0.102350496 0.19897282 0.0081275655 0.00013177084
0.23055635 0.055202115 -0.19512671 0.023013467 0.14496998 -0.22944781 0.06384547 0.06632881
-0.12791179 -0.0016496285 0.111242615 -0.03444029 0.1669703 0.25333452 0.22435395 -0.14879961
-0.0027875374 -0.08198366 0.13980472 -0.04013996 -0.069671646 0.09789826 -0.22330646 0.033336237
0.061202586 0.20158167 0.11570844 -0.22103634 0.036843 0.16265343 0.166611 0.21860309
0.087009616 0.12878083 0.14140426 0.046459083 0.117803946 -0.017467175 -0.019693784 -0.097003594
0.081291676 0.022458415 -0.0032937762 0.33789757 0.15718202 0.13874686 0.28712994 -0.023887534
0.22226718 0.11968691 0.031131564 0.13957034 0.17594686 -0.06242646 0.18629754 0.0023779892
0.059034944 0.17245714 0.11054178 -0.008393635 0.060946655 0.12034453 -0.07103087 0.07169051
0.2052536 -0.038228244 0.1671068 0.12691998 -0.03689808 -0.01237333 0.09986963 0.17756635
0.27603638 0.24779317 -0.015592742 0.16859764 0.13825263 0.16283849 0.14417139 -0.07522137
00000000: 1be5 4d3e ef9b 3a3e 8ff5 8c3d 449d ce3d
00000010: 18f7 c2bd ebaa 773d 6bdb 9cbd fa33 9dbe
00000020: ebbf a03d 9c5a ad3d dca7 7b3e ddd6 88bb
00000030: 8874 673e e71b 713d 8ae0 b43d 69a9 193d
00000040: 3a6e 433b 7aa7 343e abf8 9a3d a4a6 0f3d
00000050: 1489 d93b 8cd4 1c3c 1700 103e 6a4c 37bd
00000060: e320 91bd 4cfb 1abe 91a7 02be c5c9 213d
00000070: 57ff d53d 1f0b b53d 331c 123e dbb6 913d
00000080: 64e4 5bbe c6c3 013c 323a c43d e85f 0f3e
00000090: 9ea3 8fbc d69b 08bc 9412 2d3e 6219 273e
000000a0: 2de1 303d 4164 513e 2314 1a3e 9486 47bc
000000b0: 239d d13d 88bf 4b3e 7b29 053c f72b 0a39
000000c0: f716 6c3e 9d1b 623d 4ccf 47be bd86 bc3c
000000d0: 0373 143e 5ef4 6abe 6ac1 823d 66d7 873d
000000e0: 4ffb 02be 5938 d8ba 2bd3 e33d 4311 0dbd
000000f0: 43fa 2a3e 10b5 813e 0bbd 653e ed5e 18be
00000100: 1eaf 36bb 0de7 a7bd f828 0f3e cc69 24bd
00000110: 02b0 8ebd e27e c83d 73aa 64be 948b 083d
00000120: 90af 7a3d 6d6b 4e3e 8cf8 ec3d 5a57 62be
00000130: b0e8 163d 9f8e 263e 139c 2a3e 7dd9 5f3e
00000140: 1932 b23d 1fdf 033e 47cc 103e e14b 3e3d
00000150: 3243 f13d 5217 8fbc dc54 a1bc d2a9 c6bd
00000160: 407c a63d b6fa b73c 65dc 57bb e900 ad3e
00000170: 53f4 203e a813 0e3e b202 933e caaf c3bc
00000180: 029a 633e 691e f53d 9f07 ff3c 87eb 0e3e
00000190: 6a2b 343e e3b2 7fbd c8c4 3e3e 0ad8 1b3b
000001a0: a0ce 713d 9b98 303e bb63 e23d 7585 09bc
000001b0: 33a3 793d 3177 f63d a278 91bd 79d2 923d
000001c0: 002e 523e 3895 1cbd 0c1e 2b3e 50f7 013e
000001d0: 7122 17bd 82b9 4abc 7388 cc3d f4d3 353e
000001e0: a454 8d3e 7ebd 7d3e b378 7fbc dca4 2c3e
000001f0: 1992 0d3e 22bf 263e aaa1 133e a90d 9abd

policy.net.2.weight f4 [5, 128]
-0.13624877 -0.14313996 -0.48346025 -0.07597183 -2.6971898 -1.1213871 -1.3231893 0.022206094
-0.16095537 -0.17557602 -0.08164024 -0.6073017 -0.19160843 -0.2901058 -0.14580569 -0.23062667
-0.14800067 -0.15368778 -0.13757819 -0.90009516 -1.353293 -0.14444716 -0.021547688 -0.41317523
-1.1689581 -1.0678625 -0.31707788 -0.14020985 -0.27113163 -0.21253534 -0.12808287 -0.2500602
-0.68216413 -0.15585281 -0.25466225 -0.11942713 -0.45987228 -2.2342536 -0.1893175 -0.46871772
-0.34322333 -0.05530483 -0.17690246 -0.24097772 -0.48743036 -0.041949164 -0.16827254 -0.22820324
-0.14813502 -0.96528536 -0.75617045 -0.31693122 -0.1803505 -0.18688393 -0.2070048 -0.32722747
-2.5431106 -0.81660074 -0.20135008 -1.5723459 -0.07998183 -0.18514013 -0.1305085 -2.51842
-2.678073 -1.9695323 -0.1702431 -2.6512504 -1.3315746 -0.037409253 -1.2087737 -2.5823948
-0.06001134 -0.20729272 -0.7194435 -0.05787045 -0.32508639 -0.18221886 -0.09710416 -0.118300535
-0.50270957 -0.1418653 -0.18820596 0.0062442375 -0.2621352 -0.09661928 -0.7186234 -2.1112514
-0.1730102 -0.2462088 -0.2621682 -0.078486055 -0.07237496 -1.1331774 -0.3013152 -0.22322127
-0.15320238 -0.28057525 -0.59456253 -0.21516947 -0.26811296 -0.23358092 -0.09740867 -0.6986061
-0.115360074 -0.12392327 -0.23018521 -0.36567652 -1.2099317 -0.121590905 -0.28093424 -0.66601664
-0.18955486 -0.6353215 -0.15054992 -0.24775533 -0.8095296 -0.639207 -0.83022636 -0.114913054
-0.190512 -0.21043934 -0.25553784 -0.14311384 -0.10914764 -0.099579334 -0.20788437 -0.9606469
-0.33617237 -0.059763312 0.09504819 -0.15992495 -0.66346914 0.26676205 0.04843055 0.059674576
0.13917723 0.42456627 0.050298184 -0.0012276883 -0.02186846 0.27608302 -0.14234175 0.25208578
0.16049156 0.2342575 -0.01732308 -0.19240801 0.20888627 0.17614627 0.2181798 0.061552487
0.834766 0.03391632 -0.0033264677 -0.057899166 0.023327619 0.1308078 0.1703757 0.18741682
0.8876975 -0.09995201 -0.24826686 0.07967667 0.07079243 -0.3815458 0.09876254 -0.29398334
-0.21103601 -0.33394915 -0.41365942 -0.025455331 0.22187725 0.13947348 0.13275163 -0.09242122
0.2803419 0.4978268 -0.058203697 0.09401429 -0.06473827 -0.16370901 0.15879753 -0.18905716
0.75787926 -0.23350507 -0.09657121 0.14572912 -0.05868733 -0.07573423 0.07999656 0.37006152
0.23992708 -0.38324463 0.005050384 -0.3515267 -0.50540525 0.045677923 -0.3895507 -0.018337404
-0.19049749 -0.018539302 0.22641133 0.037459735 -0.149813 0.033444658 -0.35752854 -0.039628576
0.18040745 -0.22931106 -0.0771659 -0.114488505 0.10265847 -0.056151383 -0.2657695 -0.459617
0.16231051 -0.00063050305 0.43958694 0.59292394 0.27712262 0.2720376 -0.024234232 -0.12747662
-0.08154072 0.093624875 0.21428691 -0.13787438 -0.008226592 0.13754922 -0.053021207 0.15143555
0.13591857 -0.18748094 0.009473988 -0.0028852404 -0.45659423 -0.014071293 0.12619707 0.43397513
0.24736583 0.2665879 0.09378207 -0.37095824 0.3788203 -0.4583934 0.16659488 0.0135496985
-0.09339156 0.027287146 -0.5594954 -0.13642775 0.23113161 0.21054783 0.23961973 -0.09406191
00000000: cc84 0bbe 4893 12be 1a88 f7be 1e97 9bbd
00000010: c29e 2cc0 9d89 8fbf 445e a9bf 8ee9 b53c
00000020: 7cd1 24be 33ca 33be 0033 a7bd 2078 1bbf
00000030: 0035 44be bf88 94be 164e 15be 6629 6cbe
00000040: 7d8d 17be 5460 1dbe 4ce1 0cbe a36c 66bf
00000050: b438 adbf f5e9 13be c784 b0bc b48b d3be
00000060: 6ba0 95bf b8af 88bf 0858 a2be 2c93 0fbe
00000070: c4d1 8abe dda2 59be 2828 03be e407 80be
00000080: 4fa2 2ebf e197 1fbe 1763 82be 3696 f4bd
00000090: 6174 ebbe 03fe 0ec0 72dc 41be c5fb efbe
000000a0: f8ba afbe 5187 62bd eb25 35be ddc2 76be
000000b0: 7990 f9be e3d2 2bbd a34f 2cbe 1cae 69be
000000c0: b5b0 17be f11c 77bf 6394 41bf cf44 a2be
000000d0: cdad 38be 805e 3fbe 11f9 53be 5c8a a7be
000000e0: 53c2 22c0 bf0c 51bf b72e 4ebe a142 c9bf
000000f0: 84cd a3bd 6095 3dbe 05a4 05be cb2d 21c0
00000100: 8c65 2bc0 a219 fcbf 3554 2ebe 16ae 29c0
00000110: 0971 aabf 723a 19bd 19b9 9abf f545 25c0
00000120: 73ce 75bd 8b44 54be 732d 38bf 9109 6dbd
00000130: b971 a6be 9597 3abe 8cde c6bd 8d47 f2bd
00000140: 93b1 00bf 2345 11be 10b9 40be 769c cc3b
00000150: 9636 86be 54e0 c5bd b4f7 37bf be1e 07c0
00000160: 9629 31be 291e 7cbe e93a 86be 4cbd a0bd
00000170: 5339 94bd f50b 91bf fc45 9abe 1e94 64be
00000180: 16e1 1cbe 8fa7 8fbe 4035 18bf 6355 5cbe
00000190: 1a46 89be d62f 6fbe 327e c7bd d9d7 32bf
000001a0: e741 ecbd 7ccb fdbd acb5 6bbe f439 bbbe
000001b0: 0bdf 9abf a704 f9bd 9dd6 8fbe 1180 2abf
000001c0: ab1a 42be 6ea4 22bf c229 1abe 93b3 7dbe
000001d0: 553d 4fbf 12a3 23bf b789 54bf 8957 ebbd
000001e0: 9415 43be 697d 57be dbd5 82be 6f8c 12be
000001f0: cc88 dfbd 40f0 cbbd a4df 54be f5ec 75bf
00000200: c91e acbe 60ca 74bd a0a8 c23d 5ec3 23be
00000210: 1dd9 29bf 0995 883e 1d5f 463d 546d 743d
00000220: 7a84 0e3e c060 d93e 7805 4e3d 62ea a0ba
00000230: 7c25 b3bc c15a 8d3e 09c2 11be 6311 813e
00000240: e657 243e 33e1 6f3e 22e9 8dbc 9b06 45be
00000250: 48e6 553e b05f 343e 876a 5f3e 761e 7c3d
00000260: 39b3 553f d7eb 0a3d de00 5abb ad27 6dbd
00000270: 9019 bf3c 7bf2 053e f876 2e3e 32ea 3f3e
00000280: 2540 633f a4b3 ccbd ab39 7ebe 862d a33d
00000290: 9ffb 903d f959 c3be 0444 ca3d fc84 96be
000002a0: d319 58be 62fb aabe 2bcb d3be b387 d0bc
000002b0: ca33 633e 23d2 0e3e 0bf0 073e 5647 bdbd
000002c0: f988 8f3e 28e3 fe3e 0067 6ebd 908a c03d
000002d0: 8095 84bd 56a3 27be d29b 223e 3398 41be
000002e0: 6004 423f f41b 6fbe 20c7 c5bd 043a 153e
000002f0: 2062 70bd 8c1a 9bbd 3dd5 a33d b478 bd3e
00000300: 72af 753e a438 c4be b17d a53b 4ffb b3be
00000310: 3d62 01bf c618 3b3d 3073 c7be 5338 96bc
00000320: c611 43be bcdf 97bc 5fd8 673e 616f 193d
00000330: 9468 19be 44fd 083d fb0d b7be 9351 22bd
00000340: bbbc 383e 85d0 6abe 2809 9ebd f378 eabd
00000350: 9b3e d23d fefe 65bd f112 88be eb52 ebbe
00000360: ba34 263e 5848 25ba 8a11 e13e ddc9 173f
00000370: 04e3 8d3e 8348 8b3e de86 c6bc 3b89 02be
00000380: d2fe a6bd 66be bf3d 076e 5b3e f12e 0dbe
00000390: d4c8 06bc b4d9 0c3e c42c 59bd ec11 1b3e
000003a0: 3d2e 0b3e 01fb 3fbe c938 1b3c 4d16 3dbb
000003b0: b8c6 e9be 488b 66bc ce39 013e fd31 de3e
000003c0: 784d 7d3e 367e 883e d010 c03d 3dee bdbe
000003d0: bcf4 c13e 8ab2 eabe d997 2a3e 8eff 5d3c
000003e0: 1344 bfbd 4b89 df3c 173b 0fbf b7b3 0bbe
000003f0: c4ad 6c3e da99 573e e05e 753e 88a3 c0bd

policy.net.2.bias f4 [5]
-0.08850962 -0.018697051 0.07659322 0.023183284 0.067111604
00000000: 8844 b5bd 8f2a 99bc e8dc 9c3d dfea bd3c
00000010: cf71 893d

exp_avg f4 [900, 16]
0.00031594123 -0.0003059781 -0.00018028641 0.00020260287 -0.00019053143 -0.0003402806 0.00021772219 0.000272057
-1.1468521e-05 0.00023021952 -4.9971237e-05 -0.00033013857 -0.00019294191 3.9670726e-05 4.467403e-06 -0.0001727706
-8.678818e-05 -0.00031785367 5.3589403e-05 -3.7628313e-05 0.00012585275 -0.00015073364 4.8263988e-05 0.00025717544
-8.32475e-05 9.108325e-05 -4.3829776e-05 -0.0002878306 -2.0221332e-05 0.000102589096 6.7290624e-05 0.00015681474
-7.57155e-05 -0.00042698742 0.00026323862 -1.235044e-05 0.00018127078 -1.4537873e-05 0.00012745768 0.00010049248
0.00033514368 0.000112956826 0.00018838883 -0.0001722973 5.852466e-05 0.00020874236 -7.741579e-06 1.2591143e-05
-0.0003628681 -0.00035859598 0.00033621397 6.5405846e-05 4.8209266e-05 -0.00011037755 7.585694e-05 -7.401602e-05
0.00012676073 0.0002235093 4.9046568e-05 -8.5647705e-05 6.40624e-05 0.00021053954 -0.00012718413 -2.1219092e-05
-0.0001806553 -0.00030129764 7.24899e-05 -0.00015127826 -0.00018164406 -0.00025939086 -1.4780569e-06 -0.00010392952
0.00014285222 -4.52746e-05 0.00015666643 7.481659e-05 1.7212385e-06 0.0003583179 -0.00011408168 -4.0991043e-05
0.0 0.0 0.0 0.0 0.0 0.0 0.0 0.0
0.0 0.0 0.0 0.0 0.0 0.0 0.0 0.0
0.0 0.0 0.0 0.0 0.0 0.0 0.0 0.0
0.0 0.0 0.0 0.0 0.0 0.0 0.0 0.0
0.0 0.0 0.0 0.0 0.0 0.0 0.0 0.0
0.0 0.0 0.0 0.0 0.0 0.0 0.0 0.0
0.0 0.0 0.0 0.0 0.0 0.0 0.0 0.0
0.0 0.0 0.0 0.0 0.0 0.0 0.0 0.0
0.0 0.0 0.0 0.0 0.0 0.0 0.0 0.0
0.0 0.0 0.0 0.0 0.0 0.0 0.0 0.0
0.0 0.0 0.0 0.0 0.0 0.0 0.0 0.0
0.0 0.0 0.0 0.0 0.0 0.0 0.0 0.0
0.0 0.0 0.0 0.0 0.0 0.0 0.0 0.0
0.0 0.0 0.0 0.0 0.0 0.0 0.0 0.0
0.00035149948 0.00019691774 -0.00025089743 -6.0564715e-05 3.056203e-05 -2.0748612e-05 -0.00059983745 0.00012840683
-2.4689529e-05 -3.145053e-05 0.00010181084 0.0003392621 -0.00041860406 -9.334793e-05 0.00048440357 0.00047141136
-8.5889704e-05 -3.0312855e-05 -0.00012763197 6.5841785e-05 -4.1342028e-05 -2.8947301e-05 -6.7351924e-05 0.00016770867
2.4713476e-05 1.2190103e-05 -0.00019342956 8.570459e-05 -0.00014253905 4.481995e-05 8.828019e-06 0.00011292568
0.0006226904 -0.0008089717 -0.00034818242 -0.00080942444 -0.0017763355 -0.0012697803 -0.0007659208 -0.0014435144
0.0021297494 0.0025182676 0.000663242 -0.00032182832 -0.0007667456 -0.0008227446 0.0019229209 0.0009732279
0.00064646755 -0.00054115016 -0.0011222041 -0.00029474284 -0.0016893923 -0.0007019138 -0.0009071139 0.00043836638
-0.00029780227 -0.0003392898 -0.0008222593 -0.00014802963 0.00041346782 0.0002779589 0.00048045284 0.0009096551
00000000: eaa4 a539 af6b a0b9 440b 3db9 cb71 5439
00000010: 64c9 47b9 b067 b2b9 5b4c 6439 dfa2 8e39
00000020: ec68 40b7 1567 7139 3598 51b8 7316 adb9
00000030: 7350 4ab9 1e64 2638 b3e6 9536 c129 35b9
00000040: 0d02 b6b8 99a5 a6b9 2fc5 6038 18d3 1db8
00000050: 57f7 0339 410e 1eb9 106f 4a38 81d5 8639
00000060: 2995 aeb8 f303 bf38 ddd5 37b8 f8e7 96b9
00000070: fba0 a9b7 1a25 d738 611e 8d38 a36e 2439
00000080: 73c9 9eb8 48dd dfb9 4a03 8a39 bc34 4fb7
00000090: 8113 3e39 b0e7 73b7 29a6 0539 7dbf d238
000000a0: 39b6 af39 3ce3 ec38 3e8a 4539 b4aa 34b9
000000b0: 6078 7538 dae1 5a39 d4e1 01b7 8c3e 5337
000000c0: 553f beb9 f001 bcb9 e045 b039 7f2a 8938
000000d0: 4e34 4a38 7f7a e7b8 6215 9f38 0c39 9bb8
000000e0: 13eb 0439 d25d 6a39 5ab7 4d38 c39d b3b8
000000f0: 3d59 8638 47c4 5c39 bb5c 05b9 a7ff b1b7
00000100: 4a6e 3db9 7cf7 9db9 b805 9838 73a0 1eb9
00000110: b577 3eb9 dafe 87b9 a661 c6b5 bcf4 d9b8
00000120: 9aca 1539 3be5 3db8 d346 2439 dae6 9c38
00000130: 4e05 e735 9ddc bb39 233f efb8 cced 2bb8
00000140: 0000 0000 0000 0000 0000 0000 0000 0000
00000150: 0000 0000 0000 0000 0000 0000 0000 0000
00000160: 0000 0000 0000 0000 0000 0000 0000 0000
00000170: 0000 0000 0000 0000 0000 0000 0000 0000
00000180: 0000 0000 0000 0000 0000 0000 0000 0000
00000190: 0000 0000 0000 0000 0000 0000 0000 0000
000001a0: 0000 0000 0000 0000 0000 0000 0000 0000
000001b0: 0000 0000 0000 0000 0000 0000 0000 0000
000001c0: 0000 0000 0000 0000 0000 0000 0000 0000
000001d0: 0000 0000 0000 0000 0000 0000 0000 0000
000001e0: 0000 0000 0000 0000 0000 0000 0000 0000
000001f0: 0000 0000 0000 0000 0000 0000 0000 0000
00000200: 0000 0000 0000 0000 0000 0000 0000 0000
00000210: 0000 0000 0000 0000 0000 0000 0000 0000
00000220: 0000 0000 0000 0000 0000 0000 0000 0000
00000230: 0000 0000 0000 0000 0000 0000 0000 0000
00000240: 0000 0000 0000 0000 0000 0000 0000 0000
00000250: 0000 0000 0000 0000 0000 0000 0000 0000
00000260: 0000 0000 0000 0000 0000 0000 0000 0000
00000270: 0000 0000 0000 0000 0000 0000 0000 0000
00000280: 0000 0000 0000 0000 0000 0000 0000 0000
00000290: 0000 0000 0000 0000 0000 0000 0000 0000
000002a0: 0000 0000 0000 0000 0000 0000 0000 0000
000002b0: 0000 0000 0000 0000 0000 0000 0000 0000
000002c0: 0000 0000 0000 0000 0000 0000 0000 0000
000002d0: 0000 0000 0000 0000 0000 0000 0000 0000
000002e0: 0000 0000 0000 0000 0000 0000 0000 0000
000002f0: 0000 0000 0000 0000 0000 0000 0000 0000
00000300: 7649 b839 b47b 4e39 e28a 83b9 de06 7eb8
00000310: bb2f 0038 4e0d aeb7 693e 1dba f2a4 0639
00000320: 5c1c cfb7 c0e9 03b8 4783 d538 fdde b139
00000330: 1678 dbb9 cac3 c3b8 8cf7 fd39 c327 f739
00000340: af1f b4b8 5c48 feb7 f2d4 05b9 8a14 8a38
00000350: aa66 2db8 dbd3 f2b7 4a3f 8db8 f4da 2f39
00000360: c94f cf37 1884 4c37 5ad3 4ab9 4dbc b338
00000370: 8976 15b9 0efd 3b38 0e1c 1437 83d2 ec38
00000380: 0c3c 233a 2c11 54ba 418c b6b9 8e2f 54ba
00000390: eed3 e8ba c26e a6ba 13c8 48ba 4e34 bdba
000003a0: 4493 0b3b 8509 253b 6bdd 2d3a 11bb a8b9
000003b0: 6dff 48ba 75ad 57ba 850a fc3a 3820 7f3a
000003c0: b477 293a f9db 0dba ec16 93ba b787 9ab9
000003d0: 996e ddba a300 38ba 62cb 6dba 8ad4 e539
000003e0: 5822 9cb9 b5e2 b1b9 e38c 57ba 6738 1bb9
000003f0: b6c6 d839 03bb 9139 4ae5 fb39 ec75 6e3a
