ISE_Transformer/model/2_room/eil_2_room_198_model/EBC_model_95999.pth (torch, 319288 bytes, 27 tensors)

encoder.embedding.weight f4 [900, 16]
00000000: 4519 803e 8dc7 62bf 8a4b 4a3f 6a5f fb3f
00000010: 41a9 ef3e 9284 493f 5c01 373e a9e7 ea3e
00000020: e6b4 bb3f 113f 9c3f d278 ba3f 24ea 65bf
00000030: daf5 f23f a030 c9be 5886 81bf b1ef 2f3f
00000040: 2ebd 93bf 8503 31bb ac3b ff3e ed16 19bf
00000050: 363f 0e3f 22b1 193f f1a0 bc3e 260b 9e3d
00000060: c9bb 7bbf ca6f c5bf b6ba 0f40 70de d5bf
00000070: aee6 703f 6cd2 47be feda 9fbe 9502 abbf
00000080: 18e6 133f e5d2 36be 09d5 08bf 9cfd 0b3f
00000090: 59dc 873b 8b93 6c3e 49cb cbbe 9dea f0bf
000000a0: dfd0 33bf ba26 913f 5be9 65bf 0318 37be
000000b0: ea34 a0bf 1c2f d33d d4f4 58c0 3bab 8dbf
000000c0: 6efd b23e 373d 3abf c99a aebf 2bf8 71bf
000000d0: 9a46 353f d177 d83f 7e94 8cbf 3c38 023f
000000e0: b945 b0bf 27e3 203e 3963 403f 422c bdbf
000000f0: bd68 8bbf 18e2 2dbf 62a0 3abf 6f5d 22c0
00000100: 465e 653f f57a ee3e 0dc8 c8bf 2aff 1d40
00000110: 24c3 6abf f66d 40bd 9830 bdbf 148a e03e
00000120: 9a98 56bf 6abc 08be 8279 133e a86b e1bf
00000130: 8d46 04c0 ba63 a4bd 3e21 09bf cb21 503d
00000140: b518 193e 4686 2e3f 0daa c83f 767d f33e
00000150: 41a4 80bf 09fb 82bf 3c7d 053f 5be3 f6be
00000160: c4ca 45bf 45a6 2f40 beea fcbf 30f0 d43e
00000170: 139d c83f c321 23bd 97e2 78bf b849 36bf
00000180: b5b7 753e e57c 99bf 171e 883f 144c 2dbf
00000190: 0cd4 29bf 842e ac3e 80b9 043f c4d6 843f
000001a0: 3de2 293d 8d83 573f 5a75 06be fc08 bfbf
000001b0: 2026 ba3e 4ad5 02bf 3846 d6be 3d48 973f
000001c0: 722c 88be d2df 4d3f a67b 9dbe 5f48 ad3f
000001d0: 44c2 2a3f 598f 71be 8154 2fbe 23c7 0f3f
000001e0: dc35 9d3e c8f4 ac3e 7400 053e 6f95 133f
000001f0: d158 a63c c0fd b23f 8f5e b53f c0bf c0bb
00000200: 45e8 61bf e3f6 f9be f994 adbf 1a0e 6fbe
00000210: 1735 ea3f ed78 cb3f 8a5e 363e ba0f 033f
00000220: f0d7 0bbf 86c2 b8bf 323e f6bf af88 90bf
00000230: 94de 803f c211 10bc 91f0 4dbf 8aa0 fb3f
00000240: 0af0 d23f 35e7 113f 9c2e 4abc 3f44 bcbf
00000250: b977 3dbd 9966 08bf bde4 283f 7df5 0b40
00000260: 45c5 f93e 2980 0b40 3a38 bbbf eb0b b2bf
00000270: 9346 ddbe f292 18be f77c d03d d6eb 33be
00000280: f3e7 a43e 5f13 9a3f 16cc ae3d e862 e1bf
00000290: 64f5 733d 0473 a7bf d01c 6c3e 8bbe 753f
000002a0: 40d0 103e 35a8 5c3f 5c43 8cbf 400f 92bf
000002b0: 2191 c0be 6303 83be a74a 91be bba9 8f3f
000002c0: ac14 0440 9122 063e bd48 693f 8468 ca3d
000002d0: ba85 2abf 05a8 6e3f a055 d13f 17dc 8cbf
000002e0: bb40 3c3f 7e9a 0140 377b 3ac0 955f 433e
000002f0: c2b8 2d3e 8734 33bf 8a28 c8bd 91a1 033f
00000300: b2a7 823f 8e1d f23d d04c 9cbf d14f ff3f
00000310: 748f f83e 1239 23bf 2fdc 89bf 3640 80bf
00000320: 499d c93f 4808 913f b4fa b73f 7e52 44be
00000330: 2a54 4dbf 909f d9bf 82fc e2bf ff0e e0bf
00000340: 5605 e83f 5b10 a13d 4a8d 41bf aafd 413f
00000350: e3a3 063f 1888 d0be 8723 30be 6c4d bcbe
00000360: 2602 53be cc54 04bf f18a 243f 7a18 1abf
00000370: bc1e 8d3f 3a70 a63f 569b 223f d550 3dbf
00000380: c301 aabf aebb dfbf 1e48 febe 4494 f7be
00000390: 9891 863f 3c67 2f3f 7538 d4bf 94d6 e7bf
000003a0: 4c54 9a3f 2c98 413f 68b6 883e e9af a3bf
000003b0: bb32 86bf a3c0 7ebe 05c7 8cbe de78 9b3e
000003c0: 70bc 84bd 3213 fcbe 036a 5bbe ccb7 653f
000003d0: 9f05 fe3f 081e 2e3f 9e90 bdbd 3392 bebf
000003e0: aa23 e3be 01b2 fbbf a198 a43f 4421 15be
000003f0: f26b 713f bc05 823d 4d33 1440 dec0 69be
0.2501928 -0.8858574 0.79021513 1.9638493 0.46808818 0.7871791 0.17871612 0.45879868
1.4664581 1.2206746 1.4568121 -0.89810395 1.8981278 -0.3929491 -1.0119123 0.68725115
-1.1542108 -0.0027010154 0.49850214 -0.59800607 0.555652 0.6003591 0.3684154 0.0771697
-0.9833341 -1.542474 2.245771 -1.6708508 0.9410199 -0.19513863 -0.31221765 -1.3360163
0.5777297 -0.17853887 -0.53450066 0.5468385 0.0041461405 0.23103158 -0.39803532 -1.8821598
-0.70240587 1.1339943 -0.898092 -0.17880253 -1.2516148 0.1031172 -3.3899431 -1.106788
0.34958977 -0.72749656 -1.3640987 -0.945193 0.70810854 1.6911565 -1.0982816 0.50867057
-1.3771278 0.15711652 0.751514 -1.4779131 -1.0891339 -0.67923117 -0.72900975 -2.5369527
0.89596975 0.46578184 -1.5686051 2.468699 -0.9170401 -0.046979867 -1.4780455 0.43855345
-0.838266 -0.13353124 0.1440182 -1.7610979 -2.066806 -0.08026834 -0.5356635 0.050813477
0.14950831 0.68173635 1.5676895 0.47556657 -1.0050126 -1.023286 0.5214422 -0.48220333
-0.7726252 2.7445233 -1.9759138 0.415895 1.5672935 -0.03982712 -0.9722075 -0.71206236
0.2399586 -1.199124 1.0634183 -0.6769421 -0.6633918 0.3362924 0.5184555 1.0378041
0.041475523 0.84185106 -0.13130704 -1.4924617 0.36357212 -0.51106703 -0.41850448 1.181892
-0.2659641 0.8041965 -0.307584 1.3537711 0.66702676 -0.23589839 -0.1712208 0.56163234
0.30705154 0.33780503 0.12988454 0.5764989 0.020306023 1.3983688 1.4169482 -0.0058822334
-0.8824504 -0.48821172 -1.3561088 -0.23345223 1.8297452 1.5896279 0.17809501 0.5119587
-0.5462637 -1.4434364 -1.923773 -1.1291713 1.0067925 -0.008793296 -0.804452 1.9658368
1.6479504 0.5699342 -0.012340214 -1.4708327 -0.046256755 -0.5328155 0.65974027 2.1868584
0.48783317 2.1796973 -1.4626534 -1.3909887 -0.43217906 -0.14899805 0.10180085 -0.17570433
0.32208213 1.2037162 0.0853502 -1.7608309 0.059560195 -1.3081975 0.23057866 0.9599387
0.14141941 0.86194164 -1.0958056 -1.1410904 -0.37610725 -0.2558852 -0.28377268 1.1223673
2.0637617 0.13099124 0.91126615 0.09883216 -0.666103 0.9322513 1.6354256 -1.1004666
0.7353627 2.0250545 -2.9137704 0.1907943 0.16965011 -0.70002025 -0.09773357 0.51418406
1.0207427 0.11822043 -1.2210941 1.9946233 0.48546946 -0.6375896 -1.077032 -1.0019596
1.5751125 1.1330652 1.4373384 -0.19172093 -0.8020655 -1.700182 -1.7733309 -1.7504576
1.8126628 0.07864448 -0.75606215 0.75777686 0.5259382 -0.4072883 -0.17201053 -0.36777818
-0.20606288 -0.5169189 0.6427451 -0.601936 1.1025004 1.3002999 0.63518274 -0.73951465
-1.3281788 -1.747915 -0.49664396 -0.48355305 1.0513182 0.685169 -1.6579729 -1.8112359
1.2056975 0.7562282 0.26701665 -1.2788059 -1.0484232 -0.24878173 -0.2749559 0.30365652
-0.06481254 -0.49233395 -0.21427159 0.89733577 1.9845465 0.68014574 -0.09256099 -1.4888366
-0.44363147 -1.9663697 1.2859079 -0.14563471 0.94305336 0.0634875 2.3156312 -0.22827479

encoder.lstm.weight_ih_l0 f4 [128, 16]
00000000: 1d03 00bf d973 853e 9283 08bf 1783 3bbf
00000010: bf06 bebd 57df c03e 9d1e 13be 60aa a33e
00000020: 74b0 2cbe 35eb b6be 938e 0bbf a1d0 b4bd
00000030: 8218 943e 600b 1ebd 0075 44bd b425 f13e
00000040: 3e80 d6bd 1110 0f3f 0509 05bf 31b1 33be
00000050: 85b7 a1bd fab9 07bf eaeb e93d e7b7 ab3e
00000060: 4c91 19be f54b 69bf a760 91be cb3b b8be
00000070: 0e95 743d 5a25 81bf c576 593e 822b 1fbd
00000080: a9f4 1f3d d5b8 a5be 6c3d 6ebe 8dcb 2b3e
00000090: ae9e b1bd 9ee5 153e adec ab3e cfea f83d
000000a0: d1f2 f83d 4ce1 b7be f6d8 94be 2657 b03e
000000b0: 8115 80ba 77a3 3c3d 9dd7 36be 65e9 073f
000000c0: 7cc2 21bf 52b5 493e a94d 5e3f a320 3f3e
000000d0: 6ce1 3ebd 0934 483e 4428 1bbe 3727 debd
000000e0: 165f 89bd 40a2 8d3e f4ef d13d 5e87 81bf
000000f0: acc5 f0be d4f6 0dbe eb2c b33e 6388 573d
00000100: 0bac 0f3d 7827 0e3d 1823 dd3e bed8 cc3d
00000110: 27c8 ef3e f98c b93e 8e07 e5bd 8908 af3c
00000120: 3f89 d5be aac9 71bd 40a4 dd3e 6424 983b
00000130: 2e36 27be f513 5b3e baa6 5bbe ca98 58be
00000140: c9eb 923e 05cb 103f ffc6 353e 14d2 7c3d
00000150: cd38 0ebe bc46 e43d 1d37 2fbe 43c0 0a3d
00000160: abaf 223c 016b 72bf 89f9 44be 56a1 a93e
00000170: 10be ce3e bdc3 da3e e23e c0be 4748 e13e
00000180: 2de4 b6bd 2629 6b3e 7aa1 01bb e0f8 89be
00000190: 52be f23e 2083 cbbd 9967 0a3f 164d 363e
000001a0: 5b6e 393e bbf6 263f 4818 82bc a977 c73e
000001b0: 9eab c63e e1c4 183e a7f4 0a3e b7a8 9b3e
000001c0: 4c37 5bbe fb0b 5e3d f629 c6bc b9cb 35be
000001d0: cc00 c23e 5556 3b3f 3862 363d 310f b73e
000001e0: 64aa 04bf adb7 4dbe 1748 78bf 2daf 2abe
000001f0: 1906 d6be 16f8 8c3f b98f e93e 1575 a5be
00000200: bede 8a3e dad9 a5be e827 3abe 727c cf3e
00000210: 5960 fd3c 0fea 7fbe 98f5 963e a11d 2f3f
00000220: bfbe 2c3e 6f6d 6a3e 0327 213d 4c33 b93d
00000230: edcf a73e 99a3 023f e62d 82be ef12 423d
00000240: 98f4 d63e 6381 f53e fc67 41be fd20 e43d
00000250: 9b3c eabe 2a3b 7ebe 84c6 6ebd 89fe bf3e
00000260: ec8e acbe 6776 013e 4fdf 33bf d800 74be
00000270: 1780 8c3e 357a 223f e640 2b3d b103 bb3e
00000280: 2d26 a23e 87ce a93e 79fc 5a3e 44b5 52be
00000290: fbeb 9e3d 6e39 d23d 2ac9 75bc 0f48 c83e
000002a0: bb53 acbe 1711 07bf 9513 85be 6dab 103c
000002b0: fa9d 313f 76ae 1cbd 5497 08be c028 8b3d
000002c0: 3582 58be 439f 483f 0b13 39bf 3c3f 8abd
000002d0: f4b5 903e baf8 debe 19dc c83d fffe 143f
000002e0: ef36 48bf 7f60 cc3e df70 04be bbdd ef3e
000002f0: d324 e7be 6017 0bbe ece4 643e 3519 1e3e
00000300: 7bfa 16bd 01a7 153f 5424 afbe f558 3d3f
00000310: fe93 9ebe a593 413e 9476 47bf 6128 6e3e
00000320: 91d5 5f3e 9afe 8e3e fa16 eb3e 4bf7 93bb
00000330: 8055 c33d 0d81 d93e 379f 1c3f 843b 883e
00000340: 50ed 843b 0213 363e f7a6 c9bd bd15 d8bc
00000350: 6e19 d5be 0994 dcbc fbd4 b83e b5c5 33be
00000360: 4a80 b03c ac7e 4fbe 4859 bdbd 3d8f c23e
00000370: 9c01 a23e a73d 073f 8eaf 82be 778f 2d3e
00000380: bdb4 883e fd51 5bbe da5f 55be 0989 003f
00000390: ea8d 203e d1e9 083e fa56 483e 82ff cabd
000003a0: 088a 1d3c fea0 06bd 7555 82be b95d b8bd
000003b0: 04c3 30bd 07eb 89be d48b efbd ae85 f23d
000003c0: 3509 4a3e 826b cbbe 72a4 75be 9e9b f33c
000003d0: 2084 3bbe fe5a 2b3f 35a3 ddbe c4af 75be
000003e0: b571 5d3d 89e5 2d3e b27c 8a3e 9fc6 debe
000003f0: ad89 1cbf ba2d d23d 3f57 4d3e f02d a03e
-0.5000475 0.26064947 -0.5332576 -0.732469 -0.092786305 0.37670395 -0.14367147 0.31965923
-0.16864187 -0.35726324 -0.54514426 -0.08828855 0.28924948 -0.038585067 -0.047963142 0.47099078
-0.10473679 0.5588389 -0.5196689 -0.17548062 -0.07896332 -0.5301815 0.1142195 0.33538744
-0.14996833 -0.91131526 -0.28394052 -0.35983118 0.059712462 -1.0089524 0.21236713 -0.03885985
0.039051685 -0.32367578 -0.23265618 0.16776867 -0.08672844 0.14638373 0.33579007 0.12154161
0.121556886 -0.35914075 -0.29071778 0.3444149 -0.0009772034 0.04605433 -0.17855687 0.53090507
-0.63187385 0.19698074 0.8683725 0.18664794 -0.046601698 0.195511 -0.15152079 -0.108473234
-0.06707589 0.2766285 0.102508456 -1.0119436 -0.47025812 -0.13863689 0.34995207 0.052620303
0.035076182 0.03470561 0.43190837 0.10002278 0.46832392 0.36240366 -0.111830816 0.021366375
-0.41706273 -0.059030212 0.43289375 0.00464301 -0.16329262 0.21394332 -0.2145032 -0.21152034
0.28695515 0.56559783 0.17751692 0.061723784 -0.13888855 0.11146304 -0.17110868 0.03387476
0.009929578 -0.94694525 -0.19235815 0.33130902 0.4037938 0.4272746 -0.37547976 0.44000456
-0.0893024 0.22964916 -0.0019780085 -0.2694769 0.47410828 -0.099371195 0.5406433 0.17802843
0.18108504 0.6522023 -0.015880719 0.3895848 0.3880281 0.14918853 0.1356989 0.30402157
-0.21407813 0.054210644 -0.02418993 -0.17753495 0.37891233 0.7317861 0.044527262 0.35753778
-0.51822495 -0.20089598 -0.96985 -0.16668387 -0.41801527 1.101321 0.45617464 -0.3231589
0.27123064 -0.3239277 -0.18179286 0.40524632 0.030929731 -0.2499163 0.29484248 0.68404585
0.16869639 0.22893308 0.039343845 0.09042987 0.32775822 0.5103088 -0.25425643 0.047381338
0.41983485 0.47950277 -0.18887323 0.111391045 -0.45749363 -0.24827257 -0.058294788 0.37498882
-0.3370279 0.12642823 -0.70262617 -0.23828447 0.27441475 0.63467723 0.04180994 0.36526254
0.3166975 0.3316538 0.21385373 -0.2057696 0.077598535 0.1026486 -0.0150015745 0.39117476
-0.3365763 -0.5276045 -0.25991502 0.008829934 0.6938168 -0.038252316 -0.13338977 0.06794882
-0.2114342 0.78368014 -0.7229468 -0.06750342 0.2826382 -0.43549138 0.09807605 0.58201593
-0.7820882 0.3991737 -0.12933682 0.46848854 -0.45145282 -0.13583136 0.22352952 0.15439303
-0.03685997 0.5845795 -0.34207404 0.7396386 -0.30972284 0.18903978 -0.7791531 0.23257591
0.21858813 0.2792862 0.45915967 -0.0045155636 0.09537792 0.4248127 0.6118044 0.26607907
0.00405661 0.17780688 -0.09846299 -0.026377553 -0.41620964 -0.026926057 0.3609999 -0.17555888
0.021545548 -0.20263165 -0.09245545 0.37999907 0.31641853 0.5282845 -0.25524563 0.16949259
0.26700392 -0.21417995 -0.20837346 0.502091 0.15679136 0.13370444 0.19564429 -0.099120155
0.009615429 -0.032868378 -0.25455824 -0.09002251 -0.04315473 -0.26937124 -0.11696592 0.118419036
0.19730075 -0.3973046 -0.23988512 0.02973729 -0.1831212 0.6693572 -0.4328858 -0.2399283
0.054063518 0.16982092 0.2704826 -0.4351091 -0.61147577 0.10262628 0.20052813 0.31285048

encoder.lstm.weight_hh_l0 f4 [128, 32]
00000000: 66fc 7ebf b954 27be 54c6 8ebe a997 bb3e
00000010: 7596 1b3f f229 8bbe da90 9cbd 6de2 0fbf
00000020: 1c7b 133b 2a09 17bf cf48 e1bd a430 9cbe
00000030: 7648 d13e 66f4 36bd 8fc7 083f aa4c 59be
00000040: 4bd6 a73e 23fb 1abd ceab ecbe 1e42 64bf
00000050: 9d20 f8bd 0c6d 813e b320 2bbf adf7 09bf
00000060: 064b 593e 1453 27be 02fc 00ba a066 90bd
00000070: f132 12bf 6405 1f3e e3d0 8a3d 35b7 82be
00000080: 5eb1 3cbe 82eb 563e 7069 01bf 272e cfbd
00000090: 76a3 2d3f 0eb2 bfbe c833 933e 1d3b b3bd
000000a0: 38ec 973d 72f2 63bd fd35 bfbe dd83 f0bd
000000b0: 9812 93be d31e 06be 9d4a 4a3f fe9a 9bbd
000000c0: 2afa 323e d684 083f aef0 e33e 46ab 873c
000000d0: 729e 5ebf 03ea e13e de2a 3e3e eb9b e83e
000000e0: d5d4 4b3f f370 ec3c a021 7abd e019 d8be
000000f0: 7dfe 3cbf 88bb 343f 0a81 313f 4692 f03d
00000100: 80be 1b3f af07 193d 8e7b d5be 145c 29be
00000110: fcd0 9a3f a5a5 d0be 702f a23e 6cd7 45bd
00000120: b70b e3be 9cdc 80bf b11c 843d 39a5 98bf
00000130: 391b febc 5fb0 5ebf d93f 173e 2664 5ebe
00000140: d0bb 453e 1614 d9be 4ff4 273f dabe bfbe
00000150: 55c1 06bf b3d5 cb3d b823 96be a22f e2bd
00000160: 0809 063f 4d3d 17bf 7cd5 90bd 7dbd 77bf
00000170: 106d a7be 1ef9 3a3e 6718 c9bd f21a d5be
00000180: 065d bebd 9d72 91be 23a3 853e 3619 30be
00000190: 16fe f3be 6b53 50bf ee88 11bd cc1c cf3e
000001a0: 09bc 2e3d 88b2 6b3e 31d5 be3d 3081 20bf
000001b0: f7c5 05be ca4d 70bf ae14 5bbe 3e2b 8a3e
000001c0: 2ba4 223f cff2 f3be 27d0 dc3e 39a5 18be
000001d0: f25d 29be e735 3fbe 9fc6 a6be 628b 013e
000001e0: db3c 01be 4c4f 153f 7ce1 1ebf db9c b2bd
000001f0: fc72 e9be 37e0 96be aace c3bd 93b9 a53e
00000200: 6062 08bf c8e2 333e 99de c1bd 3a25 3d3e
00000210: e5ae 183f aee4 48bf 95f9 95be f823 643f
00000220: 03fe c2be 42fc fbbd 3cb5 3dbe 116f 673e
00000230: 78e1 bf3e c38b b53d 733f 2a3f d4b1 323e
00000240: a9c1 ca3e 10df 08be dbb1 23be 69b3 d1be
00000250: 711f 12bf a02f 9b3e 1307 ea3d 7b4f aabe
00000260: f1d6 c63e b645 d53d 6e7e 08bf f342 df3e
00000270: 2df2 24bf fa3f 9b3f a3b4 fcbe 94a2 c8be
00000280: 4f38 ad3d bcd2 eebd 8c1e 2bbf 0168 cebe
00000290: 168a c13d 3f0d f1be c64d 273f 3577 8a3f
000002a0: 26c8 d5be c9cd aaba 3519 02bf c67f 1abe
000002b0: 567a 1bbb aea1 18bd a014 a63d 1956 45be
000002c0: 37ae 9d3e f95b 013e c66e 563e 9f6a 4abd
000002d0: 818c bd3d d05a 1f3f 87be c53e 644a 16bf
000002e0: c118 34be 74df cdbe b453 fcbe 327c 06bf
000002f0: b8f4 99be 84bb c13e c371 d4be ecc1 07ba
00000300: 7fd4 a33e e5e5 0d3f 88a2 dbbe 032c 8c3e
00000310: cf37 7b3d b318 eabe a209 45be dac3 513f
00000320: 1f8c b8be 232c 3dbd 5b67 32bf 924b 1bbf
00000330: 9b41 98bc e2c7 08bf 9225 8abe c412 733e
00000340: dcd9 c53c 1d5b 1a3e d49a b5be 8f24 9f3e
00000350: 2490 23bf b2ff 483f 71cf 4d3d 7c1d 91be
00000360: 9cfe a23f 64e5 19bf 94ed 1b3d 33f0 49be
00000370: b677 87bf 634e b13e e1b0 523e 0ee6 72be
00000380: d350 4d3d da69 9abe d5d3 72bf debd a7be
00000390: b0ed 6a3f 68e5 edbe e361 99be e8dc c33d
000003a0: e54b 72be 36c1 91be bce1 cdbe 6a50 c0bc
000003b0: 186a 5a3e c416 ecbe 25e1 343f 2ed3 55be
000003c0: 7532 c13e 9809 783e 3aad 30be dcec 043d
000003d0: 49c5 76bd d3dd a23e f739 30bf d971 f7be
000003e0: b924 95be d7ed 45bf b3dd fdbe 1a1a 79bf
000003f0: cc89 0bbf 2b8e b13e c7a8 40be 1aff 8cbe
-0.9960388 -0.16340913 -0.27885687 0.36639145 0.60776454 -0.2718044 -0.07644816 -0.56204873
0.0022503799 -0.5899836 -0.11000215 -0.3050586 0.40875596 -0.04466667 0.534295 -0.21220651
0.3278068 -0.03783716 -0.46224827 -0.89163387 -0.121155955 0.2527851 -0.6684677 -0.5389355
0.21220025 -0.16340286 -0.00049203646 -0.07050824 -0.5710898 0.155294 0.06778123 -0.255304
-0.18427035 0.20988277 -0.5055151 -0.10116225 0.67827547 -0.37440532 0.28750443 -0.08751509
0.07418102 -0.055651136 -0.37345877 -0.11743901 -0.28725123 -0.13097696 0.790201 -0.07597922
0.17478243 0.5332769 0.44519562 0.016561162 -0.8696052 0.4412385 0.1857104 0.45431456
0.7962163 0.028862452 -0.061067224 -0.4220724 -0.7382582 0.7059865 0.69337523 0.117466494
0.60837555 0.037360843 -0.41695827 -0.16539031 1.2095027 -0.40751377 0.31676817 -0.048301145
-0.44344875 -1.0067325 0.06450785 -1.1925422 -0.03101884 -0.8698787 0.1477045 -0.21717891
0.19309926 -0.42398137 0.6560716 -0.37450296 -0.5263875 0.09952869 -0.29324126 -0.110442415
0.5235753 -0.5907791 -0.07071969 -0.9677351 -0.32700396 0.18259093 -0.098191075 -0.4162212
-0.092950866 -0.28407755 0.26101026 -0.17197117 -0.4765479 -0.81377286 -0.035530977 0.40451658
0.042659793 0.23017323 0.09318007 -0.62697124 -0.13063799 -0.93868697 -0.21394607 0.26986116
0.6353175 -0.47646186 0.43127558 -0.14906777 -0.16539744 -0.18672906 -0.3257341 0.12650827
-0.12620871 0.5832412 -0.6206281 -0.08721324 -0.4559554 -0.29467937 -0.095609024 0.32368144
-0.5327511 0.17566979 -0.09466285 0.18471232 0.5964187 -0.7847394 -0.29291978 0.89117384
-0.3808442 -0.12303974 -0.18526167 0.22600962 0.37476707 0.08864548 0.66503066 0.17450649
0.39600876 -0.13366342 -0.15985815 -0.40957192 -0.57079226 0.30309772 0.114271306 -0.33263764
0.38835862 0.10413687 -0.53317916 0.43605766 -0.6443203 1.2128899 -0.49356565 -0.39186537
0.08458006 -0.11661288 -0.66843486 -0.40313724 0.09450166 -0.47080418 0.6535305 1.0817629
-0.41754264 -0.00130313 -0.5081971 -0.15087804 -0.002372404 -0.037263565 0.08109403 -0.19271125
0.30796978 0.12632741 0.20940694 -0.049418088 0.092553146 0.62247944 0.38621923 -0.5870726
-0.17587568 -0.40209544 -0.4928261 -0.52533257 -0.30069518 0.37838376 -0.41493043 -0.0005178738
0.3199806 0.55428916 -0.4289744 0.27377328 0.06133252 -0.4572197 -0.19241956 0.8193947
-0.36044404 -0.04618467 -0.6968896 -0.60662186 -0.01858597 -0.53429997 -0.2698179 0.23737627
0.024151735 0.1507382 -0.35469687 0.3108258 -0.63891816 0.7851516 0.05024666 -0.28342807
1.2733951 -0.6011565 0.03806837 -0.19720535 -1.0583408 0.34630117 0.20575286 -0.23720571
0.050125908 -0.30158883 -0.9485448 -0.32762045 0.9176893 -0.46464086 -0.29957494 0.09563619
-0.23661764 -0.2846772 -0.40211284 -0.023475844 0.21329534 -0.4611112 0.70656043 -0.2088134
0.37733808 0.2422241 -0.1725358 0.03245245 -0.06024674 0.31809863 -0.6883845 -0.48329046
-0.2912958 -0.7731604 -0.49583206 -0.9730545 -0.54507136 0.34678778 -0.18814383 -0.27538377

encoder.lstm.bias_ih_l0 f4 [128]
00000000: fa3b 413f abe3 d33e 20da ba3e 80e9 0c3e
00000010: 1a96 5b3e 2250 f13e 80c0 e83e b25c cb3e
00000020: 8dc3 a23e ce5c da3e acfa 343e 78aa 8ebd
00000030: b62f 823c d4c6 413f c9a0 3c3e 34e9 f73d
00000040: e461 233f d68b 1e3f 3732 343f 8f66 39bd
00000050: 1cee 843d 5a2a 6d3e 6896 e43e d457 a73e
00000060: 164a a03e d5c4 9f3e dca4 f23e 1c31 793e
00000070: ccb3 493f 2571 173f 4698 07be 7502 813e
00000080: a0cd a83e 9a2b b4be 4580 a23e 0954 533e
00000090: 092f c13c eafe d53e 03de 3a3e 3336 913e
000000a0: a240 813e dcb9 ea3e ae38 5a3e 2483 233f
000000b0: 485f a23e 10e0 ae3e 7767 b93e 1d4e 883e
000000c0: e471 fb3e 2299 ee3d 5444 c63e 5307 843e
000000d0: b58a 0d3e 950c 673e a1d9 6d3e 215d cd3e
000000e0: a7c5 cf3e 3b97 bf3e 844a 5f3e aff6 033e
000000f0: 95ac ad3e 6798 163f 73b5 533e 18ed 99bd
00000100: f2cf 623d 6d37 603c 0905 10be e2d9 73be
00000110: a610 363e 817d 05be a98e d33d fcc2 ee3d
00000120: b5c6 4bbe 5deb 53bd 3544 8d3d c9f7 58be
00000130: bee4 5cbe 7c5b 2dbe 4611 febc 8afe 333e
00000140: c6e1 923b 2725 2cbe f25a 3f3d a14a 19be
00000150: 35f5 0bbf ae52 b63e aa13 39be 57f1 6b3b
00000160: 75ab 813e 3a65 8abe dcb0 e3bd abb1 f9bd
00000170: 2a5b 80be 38bf be3e dd8c 6bbe 017e 15be
00000180: b1d2 bd3e 5832 c63e a8bb 323e 546b c73e
00000190: a329 533e 2881 4ebc 1f8c 3f3e 4644 823d
000001a0: 2fce 3b3f ee8c 7d3e 725f 22be 00c0 133e
000001b0: 40f1 d03d 5977 e4bc fe14 b5be 9c8e 5c3d
000001c0: 7e17 0e3e 3e39 0b3f 37b4 6e3e a7a8 b43d
000001d0: e0e5 75bc f405 cbbe 9fc0 4dbd ae81 be3b
000001e0: 991e bfbd 4cf7 4e3e a1e4 233e cddf 373d
000001f0: 001f bf3d 7ed5 54be 5b78 c9bd 83b6 043e
0.7548214 0.41384634 0.3649454 0.13760948 0.21443978 0.4713145 0.45459366 0.39719158
0.31789818 0.4264893 0.17673749 -0.06966108 0.015891891 0.7569401 0.1842071 0.12105027
0.63821244 0.6193212 0.7038912 -0.045263823 0.06490728 0.23160687 0.44646 0.32684195
0.31306523 0.31204858 0.47391403 0.2433514 0.78789973 0.5915702 -0.13241681 0.25197187
0.3296938 -0.35189515 0.31738487 0.20637526 0.023581998 0.41796046 0.18248753 0.28361663
0.25244623 0.45844924 0.21310684 0.6387198 0.3171332 0.3415532 0.3621175 0.26622096
0.4911033 0.116503015 0.38724005 0.25786838 0.13822444 0.22563393 0.2322755 0.40110114
0.40580484 0.37420067 0.21805769 0.12887071 0.33920732 0.588263 0.20674686 -0.07515925
0.055374093 0.01368509 -0.14064421 -0.23813584 0.17779788 -0.13036157 0.10329945 0.11658284
-0.1990002 -0.05173813 0.06897775 -0.21188273 -0.21571633 -0.1692943 -0.031014096 0.17577568
0.0044824807 -0.16811047 0.04671759 -0.14969875 -0.5467103 0.35609955 -0.18073907 0.0036002004
0.25326124 -0.27030355 -0.111177176 -0.121920906 -0.25069553 0.37255263 -0.23002954 -0.14598848
0.37074807 0.38710284 0.17454398 0.38949072 0.20621352 -0.012604035 0.18705796 0.063606784
0.73361486 0.24760792 -0.15856722 0.14428711 0.10202265 -0.02788894 -0.35367578 0.05384694
0.13876149 0.5438422 0.23310934 0.088212304 -0.01500842 -0.3965298 -0.050232526 0.005813799
-0.09332008 0.20211524 0.16005184 0.044891167 0.09332085 -0.20784566 -0.09837409 0.12960248

encoder.lstm.bias_hh_l0 f4 [128]
00000000: d9f6 053f 0575 cc3e 5866 ef3d b458 973e
00000010: 4d2a 863e b918 763e 7c68 ac3e 228e 953e
00000020: bd88 cb3d 682a e23e 98c6 453e 5257 f23d
00000030: d4c8 163d 3220 5c3f e044 b6ba 5efe 9d3e
00000040: 0895 d03e ec5d 2e3f 0176 ee3e 5242 11be
00000050: f12c 92bd 5c1e ad3e 3470 d43e 0b82 193e
00000060: 1e3a a33e 92ac fc3e d1f3 ac3e a829 773d
00000070: 286a 103f f944 3a3f acb3 8abd 755c 9f3e
00000080: fae6 5a3e 8f56 c8be 5079 d33c 7d02 3f3e
00000090: 92ab 553e d721 dd3e 9086 d23d 689c ed3e
000000a0: 4c07 6a3e dcd4 163f 540d 4f3e d79f 013f
000000b0: 05f5 883e 22f7 103f 0f6e aa3e 441a 8e3e
000000c0: b79c da3e f5a2 0b3e be5a 743e 97f4 113c
000000d0: a638 f63d 1f6d 913e d669 133d 647f bd3e
000000e0: 61bc c13e 68d7 f63e ee55 a03e a84e cb3e
000000f0: 89b2 e23e 3581 e23e 0848 cb3e 6a86 153e
00000100: 36da 4d3e 4843 57be e7e3 90be 57bd 5fbe
00000110: 5177 973d a092 42be 3f69 473e 19c9 8d3d
00000120: c58d 99bd e980 29be 98c0 d4bd 5ae1 34be
00000130: b0ab 253c c51e 85bd c7fc b93b 7648 afbd
00000140: 77fe 4d3e 9e4d 3bbe 5eb2 2bbd 4420 d4bd
00000150: 210c 0dbf 71b3 0f3e 1adb 98be fab8 1bbe
00000160: 4e75 5c3e 0d99 60be c681 a5be aa55 43be
00000170: 1023 74be 3af4 a83e 45e2 9cbe bdf5 65be
00000180: 316b d83e c090 b23e 1e2b 3f3e a90f 823e
00000190: 67e1 943e df95 c3bd 3ce7 103e 4d5c 6bbe
000001a0: 390c 1b3f 6e24 9c3e 1501 c8bd 821c 133d
000001b0: b28c eaba 345f fd3d cc11 49be b3b2 c2bd
000001c0: 9dbf 84bc 2551 443f 0771 143d fca3 753e
000001d0: 4668 d5bd 02f6 a1be 851e 80bd dcb0 623e
000001e0: 4456 1cbe 7c9b a33a 59a2 123d bff6 223e
000001f0: 50b1 153e 3490 2bbe 24b5 193e c0e9 813e
0.52329785 0.3993303 0.116894424 0.29559863 0.26204148 0.24032868 0.33673465 0.2921
0.0993819 0.44172978 0.19314039 0.11833061 0.03681262 0.85986626 -0.0013906024 0.3085813
0.40738702 0.68112063 0.46574405 -0.14185455 -0.07137478 0.33812225 0.41491854 0.14991014
0.31880277 0.4935041 0.33779767 0.06034246 0.5641198 0.72761494 -0.06772551 0.31125227
0.21377173 -0.3912854 0.025814682 0.18653293 0.2086623 0.4318988 0.10279572 0.4640839
0.22854346 0.5891855 0.20219928 0.5063452 0.26749435 0.56627095 0.33287093 0.27754414
0.4269769 0.13636382 0.2386274 0.008908412 0.120225236 0.28403565 0.035989605 0.37011254
0.37839034 0.48211217 0.3131556 0.39708447 0.44276837 0.44239202 0.39703393 0.14602056
0.20102772 -0.2102176 -0.28298876 -0.21849571 0.07395805 -0.19001245 0.19473742 0.06923122
-0.074977435 -0.16553082 -0.10388297 -0.1766409 0.010111734 -0.065000094 0.0056758854 -0.08558743
0.20116602 -0.18291327 -0.04191815 -0.10357717 -0.5509663 0.14033295 -0.2985466 -0.15207282
0.21529123 -0.21933384 -0.32325572 -0.19075647 -0.238415 0.3299883 -0.3064138 -0.22457023
0.4226928 0.3487606 0.18668792 0.25402573 0.29078218 -0.0955007 0.14150709 -0.22984429
0.60565525 0.30496544 -0.097658314 0.03591586 -0.0017894714 0.12371674 -0.19635695 -0.095067404
-0.01620465 0.76686317 0.036240604 0.23988336 -0.10420279 -0.31633002 -0.06255821 0.22137779
-0.15267283 0.0012482251 0.035799358 0.15914439 0.1461842 -0.16754228 0.15010506 0.2537365

policy.net.0.weight f4 [128, 32]
00000000: 7c0f 51be 7379 38be 5e30 bf3d 6ece 4dbe
00000010: f49a 443d 90b7 38bd 413f 193e a15f d93e
00000020: 0903 813e f345 84be 6061 61be 77a5 cabe
00000030: a7cc ccbe 879a 00bd 0bee 65be 4e24 3cbe
00000040: 16fa 8dbe 92f3 3ebc f6a2 e0be 355d ec3e
00000050: 37a6 d73e e196 02be a824 84bd aa2e 9fbd
00000060: 80d5 57be 72f1 803e 9d23 89be 9789 57bd
00000070: a624 b93d d637 4cbe 6d1a f1bd 86c6 84be
00000080: 3b0d 91bc 39df c0bd 993e e3bd 066e 0e3e
00000090: 6e32 7c3e 147c bd3d 12ae 8dbe a94f 0b3e
000000a0: c1e6 b03e f5c1 3539 b22c 3cbe d283 a1be
000000b0: 2ff6 3abe bd26 cc3d 234f 15be e2f3 33be
000000c0: 8e54 2dbe b6e7 04be 41f9 babd dca9 a73d
000000d0: 6712 87be 2f54 3cbd c368 96bd d329 d63d
000000e0: 5ac7 443e cd1c 893e 378b d13e 5065 6f3e
000000f0: 3a75 a93c eb9d 68bd ff08 243e ce96 84be
00000100: e566 93be 8c62 8cbe 6b56 643c 3c67 c1bc
00000110: 9d0f c0bc 672d 9cbe c42d f8bd 1ae8 a03e
00000120: 3dc4 1a3f bc79 663d e153 abbe cb47 a8bd
00000130: d70d 17bf 7e94 813d 2d62 b0be 98e8 483e
00000140: e670 3cbe 1d59 15be 41e7 18be b386 813e
00000150: 37f6 66be ee5a 37be 69ac d03a 9774 21be
00000160: 4d89 5dbe 0050 033f 3c8b d53d 6ed1 a63c
00000170: 33ec 583e a90c 68be b764 653a 21bd 16be
00000180: ff79 e53e b56b e3be de63 a5be e898 013f
00000190: 3807 a63e 3299 ddbe b513 52bf e2c4 2b3e
000001a0: c678 1b3f 8061 80be f7a8 dc3d 8114 0bbf
000001b0: 61cd 46bf d606 d5be cb10 143d 6172 e7be
000001c0: 3887 24be 4fc7 103f f11d e8bd 75e4 8f3d
000001d0: 806a 33bf f567 65be 3cee 6d3e d966 07bf
000001e0: f830 b7be b718 803d b4e4 7d3e 36f4 313f
000001f0: 1a07 773e 7746 88be e4ac fc3e 6cc0 14bf
00000200: 3897 b93d 823d 113f d8c1 10be d954 70be
00000210: dad2 05be 7ad1 ce3e 040c 0fbf ab21 26be
00000220: 7514 d1be d0ad 29be 9908 ab3e 2cf5 31bf
00000230: 5e2c 77bf fb70 6f3c e69b d0be 74ef a4be
00000240: fa30 bfbe bd8b 47bf 0572 1abd 008a b7be
00000250: 4f05 09bf bf67 1ebf 666f 9cbd a5ca e33a
00000260: b9d4 f4be eaed 4c3e dfc6 1b3f c3b4 0fbe
00000270: d07d 213e 1e8b 10bf 05bb 823e cb7f 94be
00000280: 9e11 b8bd ae8a e3be 585a 8fbe 335a a03e
00000290: e9f6 113e 06d9 14bf 64a0 173f 46fd 54be
000002a0: e9cf 8dbe 8925 963e 0d4c 83be c915 59bd
000002b0: 202c 103e ede1 2abf 719f 52bc 8251 53be
000002c0: 0c8b 9a3d d358 cd3e 34b7 8bbd a6f7 0cbe
000002d0: 8d6b f9bd 9bbd 78bd 55fe fcbd 537a d9be
000002e0: c323 36bf d7ba 003e 005c 4bbe bba0 c83e
000002f0: 7103 693e b6be a13d 118b 28be fd15 063f
00000300: bd5d 8b3c a837 fe3e 4692 d93e c6c2 31bf
00000310: 4d79 403f d482 f03d 00ef 403e 49c4 b8be
00000320: a9ef 25be 19bc 57bd 0f41 23be 00e9 fbbd
00000330: bf53 fbbe 059e af3d e4b2 15bf 9674 823b
00000340: e622 cebd 17d8 eebe cbf4 a9be c0ae 04bf
00000350: fba8 7e3c 5188 5fbe 1b14 fe3d 1f87 a83e
00000360: 42f0 803d b072 8b3d b2e2 40bc 464f 2bbe
00000370: 0950 153e f2af b7be 679a a1be 5051 a2be
00000380: afe5 9d3c 51fd a23e de6d c23e f736 4bbe
00000390: 9f34 e73d 2bea a53e c5b5 17be 6c04 e0be
000003a0: efee 1fbe 1493 5a3e 8964 2dbd fa6c a1be
000003b0: af32 61be bd79 ee3d 56e1 4f3e 0f56 033c
000003c0: accd eebd e71a 1fbe 00ad 36be 62b0 123d
000003d0: 6433 9a3d bfe5 ab3d 82ad e2be 677e f8bc
000003e0: 5347 3e3e 4964 693e b67e 54be 3ae3 bfbd
000003f0: 1c1b 4a3d a6fd 053e 72fd cabe 2f8a 443e
-0.20416063 -0.18015079 0.09335397 -0.20098278 0.047999337 -0.045096934 0.14965536 0.42455772
0.25197628 -0.25834617 -0.22009802 -0.39579365 -0.39999887 -0.03139737 -0.22454087 -0.18373224
-0.27729863 -0.011654751 -0.4387433 0.4616486 0.42119 -0.12752868 -0.06452304 -0.07772572
-0.21077538 0.25184208 -0.26784983 -0.05262145 0.09040193 -0.19943175 -0.117726184 -0.2593271
-0.017706504 -0.09417576 -0.11095924 0.13909158 0.24628612 0.09252182 -0.27671868 0.13604607
0.3455105 0.0001733376 -0.18376425 -0.31545883 -0.18257974 0.09968326 -0.1458097 -0.17573503
-0.16926786 -0.12979016 -0.09129573 0.08186695 -0.26381227 -0.04597872 -0.073442005 0.10457196
0.19216672 0.26779786 0.40926525 0.23378491 0.02068578 -0.056791227 0.16019057 -0.25896305
-0.2878944 -0.27418935 0.013936619 -0.023608796 -0.023444945 -0.3050339 -0.12118104 0.3142708
0.60455686 0.05626844 -0.33462432 -0.082168184 -0.5900549 0.06327151 -0.34449902 0.19619977
-0.18402442 -0.14584775 -0.14931966 0.2529808 -0.22554861 -0.1790578 0.0015920523 -0.15767132
-0.21634407 0.51293945 0.104269475 0.020363536 0.21183853 -0.2266108 0.00087506644 -0.14720584
0.44819638 -0.4441811 -0.32302755 0.5062394 0.32427382 -0.4328094 -0.8206132 0.16774324
0.6073116 -0.25074387 0.10774415 -0.5432816 -0.77657133 -0.41606778 0.036148828 -0.45204452
-0.16067207 0.5655412 -0.11333836 0.070259966 -0.7008438 -0.22402938 0.2323541 -0.5289131
-0.35779548 0.06254714 0.24794275 0.6951326 0.24123803 -0.2661626 0.49350655 -0.5810611
0.09062046 0.5673448 -0.14136446 -0.23469867 -0.13068715 0.40394193 -0.5587771 -0.16223781
-0.4083592 -0.1657021 0.33404997 -0.6951473 -0.96552074 0.014614339 -0.4074394 -0.32213938
-0.37342054 -0.779476 -0.037706394 -0.35847473 -0.53523725 -0.61877054 -0.07638435 0.0017379118
-0.47818545 0.20012632 0.6085033 -0.14033799 0.1577065 -0.56462276 0.2553331 -0.29003748
-0.08987735 -0.44441742 -0.27998614 0.31318817 0.14254345 -0.5814365 0.5922911 -0.20799741
-0.27697685 0.29325512 -0.2564396 -0.05299929 0.14079332 -0.66750985 -0.012855397 -0.20636562
0.07546052 0.4010683 -0.068220526 -0.13766345 -0.12178717 -0.060727697 -0.123531975 -0.42476138
-0.7114832 0.12571274 -0.19859314 0.39185128 0.22755219 0.07897703 -0.164593 0.523773
0.017012471 0.49651837 0.4249441 -0.69437826 0.7518509 0.117437035 0.18841171 -0.36087254
-0.16204704 -0.05266962 -0.15942787 -0.123003006 -0.4908733 0.08575062 -0.5847609 0.0039811833
-0.1006525 -0.46649238 -0.33194575 -0.5182915 0.015543218 -0.21829344 0.124061786 0.3291559
0.062958255 0.06808984 -0.011772798 -0.16729459 0.14581312 -0.35876423 -0.31563112 -0.31702662
0.01927456 0.3183389 0.37974447 -0.19845186 0.112893336 0.32405218 -0.14815433 -0.43753374
-0.1561849 0.21345168 -0.042332206 -0.31528455 -0.2199199 0.116443135 0.20300803 0.008016123
-0.116603225 -0.15537606 -0.17839432 0.035812743 0.07529333 0.0839343 -0.44273 -0.03033371
0.18581896 0.22792162 -0.20751461 -0.09369512 0.04934226 0.1308504 -0.39646488 0.19193338

policy.net.0.bias f4 [128]
00000000: 057a 31be 2145 8dbe 8bfe dabe 9540 213e
00000010: dcaa 03be cebf f0be 9638 01bf 53fa d9be
00000020: d2fd 51be 8c84 cd3d 8859 92be 4fcc b5be
00000030: 0369 b8be 9286 ab3d 02ce c1be aa9b cdbe
00000040: 261a 3abe 7e71 053e 337a cfbe 8c49 27be
00000050: c990 8fbc 5f0e bbbe ad1e e43c 5f50 32be
00000060: 1138 09be 0752 d0be 2a55 86be 152a 50bd
00000070: a36b 91be 29ff 8bbe 2b5a d1be c5d3 e7be
00000080: 42db 83be d5a0 b3be 5b4f 64be 23e7 863d
00000090: fbed c7be b0cd 90be 88b2 59bd 16ea 76be
000000a0: 7e8f 3abd f37e a7bd 2ff1 ac3b ecde fbbe
000000b0: a509 9bbe 9c5e b73c 7e2f f4be 8102 f5be
000000c0: a2d4 6cbb 9668 08bc 258a dbbe b5c4 dfbe
000000d0: 36c1 6a3c 5e14 dcbe 3e2d debe 54d6 9abe
000000e0: 144d c4bd d8de 423d 0039 adbe 9a63 babe
000000f0: 2934 85be 275f c4be d316 66bd ed52 4fbe
00000100: a6ef 90be 63b7 13be 2b42 84be 5a82 9ebc
00000110: 594a d0be 0a98 82be bf70 10bf 87dc 9abe
00000120: 0290 fb3c 9b5f 87be 9465 50be d8a9 b8be
00000130: ba74 e8bd 56dc 5a3d 314e c83d 357e 0fbe
00000140: e22f 57be be25 cfbe ebe2 98be 202d 35be
00000150: 21f5 efbd 7bfb d3be 0f93 dcbe f9e2 383d
00000160: f391 a53d 34b4 fabd 7978 96be 3601 133e
00000170: 9d62 e0be d465 bd3d 9867 94be a23b b1bd
00000180: eb47 debe 3ef6 abbe 890e c4be d9ab fcbe
00000190: 860d 583e 4e05 a3be f5e8 94be 5f9a 323d
000001a0: 1d49 c03d c515 a13d 7043 0abe 8711 c6be
000001b0: 8790 983d adf7 a9be 5667 c6be 0aa2 2d3d
000001c0: be67 e73c 5e27 3ebe fcba b4be fad9 3f3e
000001d0: 84ef 5ebe 88a2 5ebe 133a 8dbe bef1 a5be
000001e0: 94d0 bbbe 2ed7 92be 0c0a e53d b018 72be
000001f0: 4e26 7abe 01ed 57be 24a4 993d a0c0 34be
-0.17331703 -0.27591804 -0.42772326 0.15747292 -0.12858146 -0.47021335 -0.5047697 -0.42573795
-0.20506981 0.10035047 -0.28583932 -0.35507438 -0.36017618 0.083752766 -0.37852484 -0.40157825
-0.18174037 0.13031575 -0.40522918 -0.1633665 -0.017525094 -0.36534402 0.027846659 -0.17413472
-0.13400294 -0.40687582 -0.2623685 -0.050821383 -0.28402433 -0.2734311 -0.40889105 -0.45278755
-0.25753218 -0.35083643 -0.22295897 0.065870546 -0.39048752 -0.28281927 -0.053148776 -0.24112734
-0.045547 -0.081785105 0.0052777748 -0.49193513 -0.30280796 0.02238398 -0.47692484 -0.47853473
-0.0036137481 -0.0083257165 -0.42878833 -0.43704763 0.014328292 -0.4298429 -0.43393892 -0.30241644
-0.09585014 0.0475758 -0.3383255 -0.36404115 -0.26016358 -0.38353845 -0.05617411 -0.20246477
-0.28307837 -0.14425425 -0.25831732 -0.019349266 -0.40681723 -0.25506622 -0.56422037 -0.30246374
0.030708317 -0.2644013 -0.20351249 -0.3606708 -0.11350389 0.053432785 0.09780539 -0.14012988
-0.2101436 -0.40458483 -0.29860625 -0.17692995 -0.117166765 -0.41402802 -0.43080947 0.045138333
0.08084478 -0.12241402 -0.29388788 0.1435593 -0.43825236 0.09247938 -0.28985286 -0.08653952
-0.43414244 -0.33586305 -0.3829234 -0.4934986 0.21098909 -0.31839985 -0.29083982 0.04360425
0.09388945 0.0786548 -0.13502288 -0.38685247 0.074494414 -0.33196774 -0.38750714 0.04239086
0.02824771 -0.18569705 -0.35298908 0.18735495 -0.21771055 -0.21741688 -0.2758337 -0.32410997
-0.3668257 -0.28679794 0.11183557 -0.2364223 -0.24428675 -0.21086504 0.075020105 -0.17651606

policy.net.2.weight f4 [5, 128]
00000000: c646 6cbf 7515 cdbe 3f73 a9bf 8bb8 1ebf
00000010: b9a4 4ec0 3a24 d5bf fd32 e2bf 4cad b53c
00000020: cfe8 94be dd33 a0bf 56a0 afbf d7ad 6ebf
00000030: b131 aabe 4298 88bf f85a 00bf 42e3 5dbf
00000040: d3d8 a7bf d374 d5bf 33d7 44be 0837 cebf
00000050: d6a0 4ac0 b727 04bf c15c 17bf 76b4 81c0
00000060: 7044 bdbf cf54 98bf 7677 acbe f31c 98be
00000070: 16b0 f7be 1222 afbe 9945 05bf 0e6b a6be
00000080: f214 3dbf 16f0 3dbe 7e02 04bf 38e3 16bf
00000090: 4e57 d0bf 7763 23c0 180e 5cbf 5c8f 72bf
000000a0: 7dfb d0bf e2ec 6bbe 8f22 84bf acf9 9cbe
000000b0: 6c5d d3bf 236d 62bf 615c 62be bbb5 8cbe
000000c0: c820 23bf 47f6 16c0 0583 66bf 9c55 debe
000000d0: 8ede 6cbf 64e7 4dbf 4e86 d1be 65e7 66bf
000000e0: 98cb 5ac0 f216 b3bf 3b66 36bf 69a6 0bc0
000000f0: 3b95 04bf a91f f3be effe 1abf a743 89c0
00000100: 56a6 70c0 4567 39c0 847d 8dbe b140 5bc0
00000110: 955e eabf 67a6 16bf d1b2 c1bf dd09 45c0
00000120: 5aee adbf f75c ddbe 1efb a0bf 21d7 8bbd
00000130: 33d1 23bf e45c 18bf 2064 0ebf 3bbe c4bf
00000140: e6e6 c8bf 6bfe 9fbe 4f06 7ebe 4b5c a7be
00000150: 85ae f2be d237 20be afb0 87bf c28c 10c0
00000160: c380 74c0 809c 13bf 5471 31bf 1c31 2ebf
00000170: 15e9 25bf f414 25c0 8870 35bf afab c8be
00000180: 53ab 83be f502 41bf 2a25 8cbf 27a0 8dbe
00000190: ad94 d8bf 70b9 23bf baff 17bf d7a9 b4bf
000001a0: 09d7 55bf b1dd 8cbf 495e 64bf 1620 00bf
000001b0: 65c9 41c0 6376 0cbe 9419 02bf 468f a4c0
000001c0: ddbe 59c0 5372 87bf 3927 85be cc8f 34c0
000001d0: 83a3 9cbf fd66 b5bf c75b b4bf d207 b9be
000001e0: 99f9 c5be 8e12 0abf c6f7 abbf dee9 7ebe
000001f0: 0957 a9be ddc2 c5be efd0 06bf 78a5 a8bf
00000200: 2534 3abd 7c8b a4bc 0841 87be db04 bf3d
00000210: 0e9d 8bbf 5eb2 6a3f 4eb9 c0be dc58 913d
00000220: f1e4 863d b4dd bd3d a693 023e 29c8 2e3c
00000230: d6be 18be ad41 af3d 83e9 143d d9fc 093e
00000240: 03e4 efbb 4ffd b23d 4fc4 25bf 4f35 7e3d
00000250: 459f ab3d 325f 153d 0134 b53d 6aeb 5bbd
00000260: 6619 243f a278 423e 982b 38bd f2ec f9be
00000270: 1fdb e1bc ea35 0f3e cbe3 a03e f96d 493e
00000280: 4ffa 3e3f 1b32 77be ada8 05bf 6def a73d
00000290: 5c22 863d c8af 3cbf 5fd7 113c b628 29bd
000002a0: 6164 04be 4081 efbd 32d3 493c 7f12 cfbd
000002b0: 9978 c03d 7f82 663e 4ce7 aa3d bcf8 b5be
000002c0: 4c1c e13d 8a8d bc3e c8f6 36bf ccea 91be
000002d0: 3434 d03d 81d4 0d3e 1744 c2be fda3 1bbf
000002e0: b763 1c3f db1e cdbd d1d0 84be 2e64 06be
000002f0: 2e38 183d db3d 5abd 0939 b03d 054a 383e
00000300: 629e 9d3d d1ef 66bd 0c72 913d 150d f8bd
00000310: 82d2 3abe b60e e43c c4c0 f4be 8a53 5e3d
00000320: 6d5b c7be 59ee da3d 8abc 913d bb52 853d
00000330: 01b1 e5bf 052b e23d 2159 39bf 5f34 1a3d
00000340: 52bf 2a3d 8752 29bd 7b5c 243d 3cdf 8c3d
00000350: 9776 fb3d 6388 58bf 6a57 a9bf 6d05 81bf
00000360: dd68 5b3d 64ea f33d 79a3 243c 2f05 e73e
00000370: 8606 a93e e6e9 c33d 4fc0 76bf 438a 04c0
00000380: fc11 62bd 502d a63c 28de 7f3d e216 f2be
00000390: 42d7 d63d e825 b33d 1685 053d 30da 803d
000003a0: 122b 263d 3197 a5bd f713 e33d 8b07 febf
000003b0: c4f1 2cbe ae0d 83bf aa67 f53d 10b3 b83d
000003c0: 7035 d33d 5bc4 8c3e e3c7 223e 5557 b5be
000003d0: 2e59 833e 301c 83be b85c 283d 490d fdbc
000003e0: 08a2 8cbe b02b 133d 3bbc 9ebf a26b 5fbf
000003f0: a38d 453e f908 5a3d 4e08 cb3d b693 dd3d
-0.9229549 -0.40055433 -1.3238295 -0.6200034 -3.2288039 -1.665168 -1.767181 0.022177361
-0.2908387 -1.2515827 -1.3720806 -0.9323401 -0.33241037 -1.0671465 -0.5013881 -0.8667489
-1.3113045 -1.6676277 -0.19222717 -1.6110544 -3.1660666 -0.516231 -0.59125906 -4.053279
-1.478651 -1.1900882 -0.3368489 -0.29709587 -0.4837653 -0.3420568 -0.5205932 -0.3250355
-0.73860085 -0.18548617 -0.515663 -0.5894046 -1.6276643 -2.5529459 -0.85959005 -0.9475
-1.6326748 -0.23039582 -1.0323046 -0.30659235 -1.6512885 -0.8844778 -0.22105552 -0.274824
-0.63721895 -2.3587816 -0.9004367 -0.4342469 -0.9252709 -0.804312 -0.4092278 -0.9019683
-3.4186764 -1.3991377 -0.7124974 -2.1820319 -0.5179021 -0.47485092 -0.6054525 -4.2895083
-3.7601523 -2.896928 -0.27634823 -3.4258235 -1.8310114 -0.5884766 -1.5132695 -3.078727
-1.3588364 -0.4323499 -1.2576635 -0.06828142 -0.6399109 -0.5951674 -0.5562153 -1.5370554
-1.5695465 -0.31248793 -0.24807094 -0.326876 -0.47398773 -0.15646294 -1.0600795 -2.2585912
-3.820359 -0.57660675 -0.6931355 -0.68043685 -0.6480878 -2.5794039 -0.70874834 -0.39193484
-0.25716648 -0.7539514 -1.0948842 -0.2766125 -1.6920372 -0.6395483 -0.5937458 -1.4114331
-0.8353124 -1.1005155 -0.8920637 -0.5004896 -3.0279171 -0.13717036 -0.5082028 -5.1424894
-3.4022744 -1.0581764 -0.26006487 -2.8212767 -1.22374 -1.4172055 -1.4090508 -0.3613878
-0.3866699 -0.5393456 -1.343499 -0.24893901 -0.33074215 -0.3862523 -0.5266256 -1.3175497
-0.045459885 -0.020086043 -0.26416802 0.09327098 -1.0907304 0.91678417 -0.37641376 0.07097027
0.06586636 0.09270802 0.12751636 0.010667839 -0.14916548 0.085574485 0.036355507 0.1347536
-0.0073208823 0.08739721 -0.6475267 0.062062558 0.083799876 0.03646774 0.088478096 -0.053691305
0.64101255 0.1899133 -0.04496345 -0.48813587 -0.027570305 0.1398541 0.31423792 0.19670857
0.7460069 -0.24140207 -0.52210504 0.08199964 0.06549522 -0.7370572 0.008901446 -0.04129859
-0.12928917 -0.11694574 0.012318419 -0.1011095 0.09398002 0.22510718 0.08344898 -0.35541332
0.10991725 0.36826736 -0.7147031 -0.28499448 0.10166207 0.13850595 -0.37942573 -0.607971
0.6108965 -0.10015651 -0.25940564 -0.13124153 0.037162952 -0.053281646 0.086046286 0.17996986
0.07696225 -0.05638105 0.07101831 -0.1211187 -0.18244365 0.027839046 -0.47803319 0.054278888
-0.3893694 0.106899925 0.07116039 0.0650992 -1.7944642 0.110433616 -0.72401625 0.0376476
0.041686364 -0.04133847 0.04012726 0.06878516 0.122784786 -0.8458311 -1.3229802 -1.0079781
0.053566802 0.11909941 0.010048741 0.45121142 0.3301279 0.09566097 -0.9638719 -2.0709388
-0.055192932 0.020285279 0.062467724 -0.47283083 0.10490276 0.087474644 0.032597624 0.06291616
0.04056842 -0.08085478 0.11087792 -1.9846052 -0.16889101 -1.023855 0.11982663 0.090185285
0.10312927 0.27493557 0.15896563 -0.35418192 0.25653976 -0.25607443 0.04110405 -0.030890124
-0.2746737 0.035930336 -1.2401193 -0.8727361 0.19292311 0.053231213 0.09913693 0.10819189

policy.net.2.bias f4 [5]
00000000: b5cf bbc0 d64e e3bd d4fc fa3d e119 4cbd
00000010: 0489 4d3e
-5.869105 -0.11099021 0.122552544 -0.049829368 0.20071799

exp_avg f4 [900, 16]
00000000: cdc4 4db7 e77a 3eb7 2c73 0737 7164 cab7
00000010: 5ea3 00b5 77eb f1b5 836d c235 2a20 65b7
00000020: e7a6 4bb5 b603 a637 cbc2 ac36 70e3 c835
00000030: cbfa fb34 38b2 1838 8a95 e635 9953 0bb7
00000040: 3075 03b7 b841 25b6 287e ce36 a760 f7b6
00000050: 7f71 04b7 ef6b 86b6 a4ee 1c37 2bd3 cf36
00000060: 79f2 30b6 0c9c 0937 58aa 4bb7 d5b1 1237
00000070: 9c71 1836 6992 15b7 1fc4 8fb5 df80 ecb5
00000080: b2f2 8cb6 8738 2d37 3941 69b6 f1a6 3237
00000090: 46fe 85b3 4d59 7bb6 2dfc 3737 7f08 4f36
000000a0: 2dd4 beb6 f2f1 8936 5db2 6db7 3012 17b4
000000b0: 0425 eeb6 6035 3f36 63c3 2db7 d47e cd33
000000c0: 8115 feb5 27ef 1b37 f236 9d35 67a9 afb5
000000d0: ba41 a1b6 70c1 0136 dc2b 3db6 f4d7 b633
000000e0: beba 0e36 f3a8 ceb5 b3e0 5835 a680 b5b6
000000f0: 8d84 4835 fdb4 8c36 382f 38b6 e8ea 2437
00000100: 4c72 24b7 1136 aa36 659d 6535 35ea 25b6
00000110: 8fc1 bdb6 d1a5 89b6 ea3c ba36 4aee 0237
00000120: ddb8 22b6 0bde 66b6 b60f f1b6 b95f e4b5
00000130: 207b 8d35 7ee2 5834 8db4 f1b5 119b 5237
00000140: 0000 0000 0000 0000 0000 0000 0000 0000
00000150: 0000 0000 0000 0000 0000 0000 0000 0000
00000160: 0000 0000 0000 0000 0000 0000 0000 0000
00000170: 0000 0000 0000 0000 0000 0000 0000 0000
00000180: 0000 0000 0000 0000 0000 0000 0000 0000
00000190: 0000 0000 0000 0000 0000 0000 0000 0000
000001a0: 0000 0000 0000 0000 0000 0000 0000 0000
000001b0: 0000 0000 0000 0000 0000 0000 0000 0000
000001c0: 0000 0000 0000 0000 0000 0000 0000 0000
000001d0: 0000 0000 0000 0000 0000 0000 0000 0000
000001e0: 0000 0000 0000 0000 0000 0000 0000 0000
000001f0: 0000 0000 0000 0000 0000 0000 0000 0000
00000200: 0000 0000 0000 0000 0000 0000 0000 0000
00000210: 0000 0000 0000 0000 0000 0000 0000 0000
00000220: 0000 0000 0000 0000 0000 0000 0000 0000
00000230: 0000 0000 0000 0000 0000 0000 0000 0000
00000240: 0000 0000 0000 0000 0000 0000 0000 0000
00000250: 0000 0000 0000 0000 0000 0000 0000 0000
00000260: 0000 0000 0000 0000 0000 0000 0000 0000
00000270: 0000 0000 0000 0000 0000 0000 0000 0000
00000280: 0000 0000 0000 0000 0000 0000 0000 0000
00000290: 0000 0000 0000 0000 0000 0000 0000 0000
000002a0: 0000 0000 0000 0000 0000 0000 0000 0000
000002b0: 0000 0000 0000 0000 0000 0000 0000 0000
000002c0: 0000 0000 0000 0000 0000 0000 0000 0000
000002d0: 0000 0000 0000 0000 0000 0000 0000 0000
000002e0: 0000 0000 0000 0000 0000 0000 0000 0000
000002f0: 0000 0000 0000 0000 0000 0000 0000 0000
00000300: e407 2237 e671 04b8 c8a9 85b7 e089 fab7
00000310: a9fe e037 0702 9236 cc2d 9337 3a7e d4b7
00000320: 13f8 cdb6 34f8 9c35 649d c337 7d25 14b6
00000330: 54f8 6a37 35a9 ac37 bfc2 9136 10cf ab37
00000340: b52b 0438 ee1d 8437 a676 17b7 cc3e 0936
00000350: 0ffc f736 51f0 3d37 01af 2937 82e8 c3b7
00000360: f21d cdb7 e15c 3cb8 7c59 4ab6 406f 95b7
00000370: a4b4 d937 2f5b a3b7 ce2c d7b5 52df ea37
00000380: c53f 5437 dc09 0cb7 b6b3 f2b7 6fe3 1537
00000390: 4390 7737 8b80 1436 0e5a 9433 b2f2 8737
000003a0: ea56 f8b7 b7e8 29b8 ab51 a037 90be b0b7
000003b0: 4887 f335 0f7e f2b7 35d2 cfb7 5b74 0435
000003c0: 1914 1ab8 d296 a237 0053 f3b6 1ffb 25b7
000003d0: af69 00b8 3e45 2238 9d2d 37b7 c572 c936
000003e0: 2625 3d37 7b36 2fb8 5763 6938 1a06 15b8
000003f0: f313 9d37 82e1 08b8 285b a2b8 45ac d037
-1.2264773e-05 -1.1353498e-05 8.073443e-06 -2.4127048e-05 -4.7921446e-07 -1.8024429e-06 1.4485998e-06 -1.3656952e-05
-7.586627e-07 1.979047e-05 5.1486763e-06 1.4967354e-06 4.693487e-07 3.6405603e-05 1.7179857e-06 -8.30451e-06
-7.835493e-06 -2.462517e-06 6.153965e-06 -7.3724254e-06 -7.8942385e-06 -4.0060763e-06 9.353887e-06 6.193664e-06
-2.6367181e-06 8.202169e-06 -1.2139404e-05 8.743683e-06 2.2715894e-06 -8.915181e-06 -1.0711409e-06 -1.7620877e-06
-4.2005786e-06 1.0324765e-05 -3.475767e-06 1.0648496e-05 -6.239547e-08 -3.7453894e-06 1.0966364e-05 3.085035e-06
-5.6871418e-06 4.1110843e-06 -1.4167829e-05 -1.4069587e-07 -7.097262e-06 2.8492286e-06 -1.0357096e-05 9.569126e-08
-1.8930733e-06 9.294402e-06 1.1713403e-06 -1.3087819e-06 -4.8058255e-06 1.9335093e-06 -2.8188724e-06 8.514317e-08
2.1268347e-06 -1.5397367e-06 8.079325e-07 -5.409197e-06 7.469869e-07 4.193395e-06 -2.7445622e-06 9.829855e-06
-9.801774e-06 5.072689e-06 8.5538187e-07 -2.4723242e-06 -5.655172e-06 -4.1022217e-06 5.5503233e-06 7.804085e-06
-2.4247486e-06 -3.4401917e-06 -7.1841887e-06 -1.7015183e-06 1.0541153e-06 2.0198965e-07 -1.8008446e-06 1.255308e-05
0.0 0.0 0.0 0.0 0.0 0.0 0.0 0.0
0.0 0.0 0.0 0.0 0.0 0.0 0.0 0.0
0.0 0.0 0.0 0.0 0.0 0.0 0.0 0.0
0.0 0.0 0.0 0.0 0.0 0.0 0.0 0.0
0.0 0.0 0.0 0.0 0.0 0.0 0.0 0.0
0.0 0.0 0.0 0.0 0.0 0.0 0.0 0.0
0.0 0.0 0.0 0.0 0.0 0.0 0.0 0.0
0.0 0.0 0.0 0.0 0.0 0.0 0.0 0.0
0.0 0.0 0.0 0.0 0.0 0.0 0.0 0.0
0.0 0.0 0.0 0.0 0.0 0.0 0.0 0.0
0.0 0.0 0.0 0.0 0.0 0.0 0.0 0.0
0.0 0.0 0.0 0.0 0.0 0.0 0.0 0.0
0.0 0.0 0.0 0.0 0.0 0.0 0.0 0.0
0.0 0.0 0.0 0.0 0.0 0.0 0.0 0.0
9.65779e-06 -3.157733e-05 -1.5933896e-05 -2.9866525e-05 2.6821466e-05 4.351375e-06 1.7545091e-05 -2.5331148e-05
-6.1383557e-06 1.1695142e-06 2.3319102e-05 -2.207554e-06 1.4005305e-05 2.0582791e-05 4.344008e-06 2.048121e-05
3.1511958e-05 1.5749563e-05 -9.027926e-06 2.0451143e-06 7.390517e-06 1.1321231e-05 1.0113931e-05 -2.3354081e-05
-2.4451849e-05 -4.4909193e-05 -3.0152432e-06 -1.7813989e-05 2.5952533e-05 -1.9473575e-05 -1.6031788e-06 2.7998965e-05
1.2651032e-05 -8.346946e-06 -2.8932332e-05 8.934046e-06 1.4755936e-05 2.212854e-06 6.908168e-08 1.6206268e-05
-2.9604376e-05 -4.0509472e-05 1.9111516e-05 -2.1069573e-05 1.8144283e-06 -2.8907349e-05 -2.4774208e-05 4.934315e-07
-3.673518e-05 1.9382136e-05 -7.251627e-06 -9.893235e-06 -3.0616004e-05 3.8688297e-05 -1.091827e-05 6.0036277e-06
1.1273927e-05 -4.177399e-05 5.5644046e-05 -3.553005e-05 1.8725148e-05 -3.2634947e-05 -7.741741e-05 2.4875751e-05
