ISE_Transformer/model/2_room/eil_2_room_198_model/EBC_model_57999.pth (torch, 319288 bytes, 27 tensors)

encoder.embedding.weight f4 [900, 16]
00000000: a5cd 613e 8190 41bf f628 643f 968c f33f
00000010: f72f 133f 2261 503f e447 16b9 d2f6 3b3f
00000020: 6a7f c93f 28ca 8c3f 0463 bf3f b96f 4fbf
00000030: 0186 dc3f 32e5 2dbf b487 82bf ad2e 373f
00000040: 4d41 97bf 018d 1b3e 3c8b 153f d473 18bf
00000050: f375 0c3f 8468 183f 3d57 933e 43d3 293e
00000060: 92e8 7bbf 8720 b3bf d679 0b40 87ff cabf
00000070: 51aa 5c3f b405 2dbe 744a ffbe 6de8 c1bf
00000080: adc6 303f 432d 57bd 3e79 ecbe 6082 f43e
00000090: bdc1 d8bd a4f7 533e e469 d6be 1946 01c0
000000a0: 34e7 25bf cb9c 8d3f 1a23 7cbf b528 dfbd
000000b0: a241 aabf 659f 293d 3318 60c0 8e84 91bf
000000c0: 9e2e c13e 41ec 5dbf eb8e acbf 3a50 45bf
000000d0: 0a85 563f 93f2 d83f 7eff 91bf 4cda df3e
000000e0: 23cf aabf 7211 db3d b8d6 2a3f 4264 acbf
000000f0: 776a 8cbf 8809 30bf 84fd 3cbf 8d82 23c0
00000100: 4d3c 873f 8de0 053f f6af bcbf dccf 1b40
00000110: 0ce1 6fbf 54fb 2dbe 2c18 b9bf 06c2 a33e
00000120: f768 17bf ae68 8bbe 180c 5a3d 3c07 e9bf
00000130: a3cf 0cc0 f38a 17be 1923 02bf fdcf f43d
00000140: b518 193e 4686 2e3f 0daa c83f 767d f33e
00000150: 41a4 80bf 09fb 82bf 3c7d 053f 5be3 f6be
00000160: c4ca 45bf 45a6 2f40 beea fcbf 30f0 d43e
00000170: 139d c83f c321 23bd 97e2 78bf b849 36bf
00000180: b5b7 753e e57c 99bf 171e 883f 144c 2dbf
00000190: 0cd4 29bf 842e ac3e 80b9 043f c4d6 843f
000001a0: 3de2 293d 8d83 573f 5a75 06be fc08 bfbf
000001b0: 2026 ba3e 4ad5 02bf 3846 d6be 3d48 973f
000001c0: 722c 88be d2df 4d3f a67b 9dbe 5f48 ad3f
000001d0: 44c2 2a3f 598f 71be 8154 2fbe 23c7 0f3f
000001e0: dc35 9d3e c8f4 ac3e 7400 053e 6f95 133f
000001f0: d158 a63c c0fd b23f 8f5e b53f c0bf c0bb
00000200: 45e8 61bf e3f6 f9be f994 adbf 1a0e 6fbe
00000210: 1735 ea3f ed78 cb3f 8a5e 363e ba0f 033f
00000220: f0d7 0bbf 86c2 b8bf 323e f6bf af88 90bf
00000230: 94de 803f c211 10bc 91f0 4dbf 8aa0 fb3f
00000240: 0af0 d23f 35e7 113f 9c2e 4abc 3f44 bcbf
00000250: b977 3dbd 9966 08bf bde4 283f 7df5 0b40
00000260: 45c5 f93e 2980 0b40 3a38 bbbf eb0b b2bf
00000270: 9346 ddbe f292 18be f77c d03d d6eb 33be
00000280: f3e7 a43e 5f13 9a3f 16cc ae3d e862 e1bf
00000290: 64f5 733d 0473 a7bf d01c 6c3e 8bbe 753f
000002a0: 40d0 103e 35a8 5c3f 5c43 8cbf 400f 92bf
000002b0: 2191 c0be 6303 83be a74a 91be bba9 8f3f
000002c0: ac14 0440 9122 063e bd48 693f 8468 ca3d
000002d0: ba85 2abf 05a8 6e3f a055 d13f 17dc 8cbf
000002e0: bb40 3c3f 7e9a 0140 377b 3ac0 955f 433e
000002f0: c2b8 2d3e 8734 33bf 8a28 c8bd 91a1 033f
00000300: 6eab 943f 9bc8 3c3e 5ef6 a1bf b637 0840
00000310: 296b 1d3f 46fb 1bbf 30d0 85bf ed41 67bf
00000320: c6ac c63f da0f 943f 86db b23f 4678 45be
00000330: ef83 5cbf e95d cabf 6e73 eabf 7b4a e3bf
00000340: b2f4 de3f b1cd bd3c bb5b 56bf 0436 2e3f
00000350: 7921 e73e 6c2c 00bf 24ac 08be 87b1 adbe
00000360: ee9d 26be 7ba1 f0be 14d1 233f 54c0 34bf
00000370: 48a3 903f 928c a43f 4d76 0e3f 22a0 44bf
00000380: 8f5b a9bf 123a d5bf bd0b 29bf 3c14 9cbe
00000390: 0124 8b3f 861a 233f 9fb9 ddbf b3e3 ddbf
000003a0: 67a5 993f 4251 3d3f d4cb 203e e45d abbf
000003b0: 25ea 99bf 3131 99be 74c5 d4be c058 be3e
000003c0: 2fee 34be c50b c3be d3ec c9bd 47e3 483f
000003d0: f3a3 f43f 125a 183f fb98 88be 4faf b6bf
000003e0: 3020 82be 8604 ebbf c902 a33f 0a12 25be
000003f0: 554e 693f eb4e 073e f37d 1340 9cbd abbd
0.22051103 -0.7561112 0.89125 1.9027278 0.57495064 0.8139821 -0.00014331896 0.7342349
1.5742009 1.0999193 1.4952092 -0.8102985 1.7228395 -0.6792785 -1.0197663 0.71555597
-1.1816803 0.15190507 0.5841558 -0.5955174 0.54867476 0.5953448 0.28777495 0.16584496
-0.9840175 -1.3994302 2.1793113 -1.5859231 0.8619738 -0.16896707 -0.4986149 -1.5149056
0.69053155 -0.0525334 -0.4618625 0.47755718 -0.10583828 0.20699936 -0.41877663 -2.0199034
-0.6480591 1.1063474 -0.9849106 -0.10896436 -1.330128 0.041411776 -3.501477 -1.1368577
0.3773088 -0.8668862 -1.3481115 -0.7707554 0.8379675 1.6949028 -1.1406095 0.43721235
-1.3344463 0.10696687 0.66733885 -1.3468096 -1.096999 -0.68764544 -0.73824334 -2.5548432
1.0565277 0.5229576 -1.4741199 2.4345617 -0.9370277 -0.16990405 -1.4460502 0.31983966
-0.5914454 -0.27228302 0.05323419 -1.8205333 -2.2001731 -0.14799099 -0.50834805 0.11953733
0.14950831 0.68173635 1.5676895 0.47556657 -1.0050126 -1.023286 0.5214422 -0.48220333
-0.7726252 2.7445233 -1.9759138 0.415895 1.5672935 -0.03982712 -0.9722075 -0.71206236
0.2399586 -1.199124 1.0634183 -0.6769421 -0.6633918 0.3362924 0.5184555 1.0378041
0.041475523 0.84185106 -0.13130704 -1.4924617 0.36357212 -0.51106703 -0.41850448 1.181892
-0.2659641 0.8041965 -0.307584 1.3537711 0.66702676 -0.23589839 -0.1712208 0.56163234
0.30705154 0.33780503 0.12988454 0.5764989 0.020306023 1.3983688 1.4169482 -0.0058822334
-0.8824504 -0.48821172 -1.3561088 -0.23345223 1.8297452 1.5896279 0.17809501 0.5119587
-0.5462637 -1.4434364 -1.923773 -1.1291713 1.0067925 -0.008793296 -0.804452 1.9658368
1.6479504 0.5699342 -0.012340214 -1.4708327 -0.046256755 -0.5328155 0.65974027 2.1868584
0.48783317 2.1796973 -1.4626534 -1.3909887 -0.43217906 -0.14899805 0.10180085 -0.17570433
0.32208213 1.2037162 0.0853502 -1.7608309 0.059560195 -1.3081975 0.23057866 0.9599387
0.14141941 0.86194164 -1.0958056 -1.1410904 -0.37610725 -0.2558852 -0.28377268 1.1223673
2.0637617 0.13099124 0.91126615 0.09883216 -0.666103 0.9322513 1.6354256 -1.1004666
0.7353627 2.0250545 -2.9137704 0.1907943 0.16965011 -0.70002025 -0.09773357 0.51418406
1.1614816 0.184359 -1.265331 2.1284003 0.6149164 -0.6093029 -1.0454159 -0.9033497
1.5521476 1.1567338 1.3973243 -0.19284162 -0.86138815 -1.5809909 -1.8316476 -1.7757105
1.7418425 0.02316937 -0.8373372 0.6805117 0.45142725 -0.5006778 -0.13346916 -0.33924505
-0.16271183 -0.469982 0.639909 -0.7060597 1.129983 1.2855399 0.5564926 -0.76806843
-1.3231066 -1.6658347 -0.66033536 -0.30484188 1.0870363 0.63712347 -1.7322272 -1.7335113
1.2003602 0.73952115 0.15702754 -1.3388028 -1.202458 -0.29920343 -0.41556895 0.37177086
-0.17668985 -0.38094917 -0.09859624 0.784718 1.9112533 0.59512436 -0.26679215 -1.427225
-0.25415182 -1.8360755 1.2735225 -0.16120163 0.9113515 0.13213699 2.3045623 -0.083857745

encoder.lstm.weight_ih_l0 f4 [128, 16]
00000000: 5b54 80be 558d 893e 7cb7 c2be fcb8 13bf
00000010: cdb0 b63d 41e5 ca3e 96d6 f3bd a971 813e
00000020: 9944 64be 55f0 55be d4bd 08bf 09fb d8bd
00000030: 2d2a 7b3e d9fe 7c3d 904d 95bd df07 bb3e
00000040: 09f9 243d 7ea3 f93e d2b1 f2be ab2e d4bd
00000050: 8a42 893d c662 c9be f96d 343d 3d6c a93e
00000060: b470 85be d459 5abf 3b69 08bf 0d86 bcbe
00000070: 3098 6a3e 4621 49bf 6e30 9e3d 9544 063d
00000080: 94f2 b33b 7ecc 5dbe 9ac2 5cbe 2f76 6e3e
00000090: 6239 6cbe b46a b73d ecc7 863e 8266 e13d
000000a0: d8a8 843d 619b b6be e5ff d5be e9b1 2c3e
000000b0: 856e 37bd d6e9 843d 3a25 59be c316 9a3e
000000c0: 314f 1bbf cda3 3b3e cb5e 583f 76fd 1a3e
000000d0: 1ecf a33b 74d8 153e 4e27 31be d864 9bbd
000000e0: aff8 cdbd 4fe6 2a3e b1fe 433d 9776 73bf
000000f0: 7782 e0be 9703 df3c b841 5b3e 6ad7 073d
00000100: 203c 0cbe cf6d b93d 7f7a 903e 2ce7 473d
00000110: 9541 1e3f d0a1 363e 6bd1 febd d8e3 92bd
00000120: 2ce1 dcbe 7e8e 4ebc d04a ba3e 2bda 90bd
00000130: edda 8cbe e290 843e 0610 21be 0844 86be
00000140: db4c 8e3e b5e4 0c3f 5447 fb3d 57f4 083e
00000150: b455 f7bc c151 b5bd a2ef 2ebe 7fff 24bd
00000160: ca13 023c 4498 34bf 6dad 81be 04dd 253e
00000170: 2d7a 7b3d 73f7 fd3e e5ad c5be 582c 923e
00000180: 422d 83be 6215 b03d ab43 0c3e a989 c0bd
00000190: d071 dd3e dba4 e33c 2ac0 e93e 5987 043e
000001a0: 3f88 f93d de32 163f c53d 193d de2d bd3e
000001b0: 4bb2 563e 36e8 9fbd 26ed e03d b1b3 083e
000001c0: a0f0 d3be b7e1 53bd b2cb 3dbe dbcf 78be
000001d0: 207b 013f 98bb 153f ac3f d8bb 4288 b03e
000001e0: 9a3a dfbe 4b89 cdbd 25b2 67bf e85d 09be
000001f0: 2d73 84be 7424 863f 3356 d03e d7fe b7be
00000200: 8931 cd3d 5a3d b7be d287 56be 4760 cf3e
00000210: 3659 2d3d ceba a8be 9f73 4e3e 9fe0 0c3f
00000220: dff7 d03d 7d28 803e 806b 2a3e 4e7a c33d
00000230: 8245 943e fa48 fb3e 2aa9 86be 83ad 61bc
00000240: e9e0 603e 3b1b 813e 7d09 b2bd b9a3 ae3d
00000250: 1502 d2be bfc0 96be 9d45 11bd d0a2 bd3e
00000260: 8365 9cbe 1b0f ea3d 3d32 36bf 30df 23be
00000270: 79ea 0c3e ae2e 1b3f 3cd1 84bc cd70 a33e
00000280: 4f81 8a3e 2b1e e03d ad46 0b3e 2f2e 06be
00000290: e9f1 a73d 396c 723e 0691 6dbd eaf2 c73e
000002a0: b1c8 a9be c068 eebe 22a5 7ebe d44d 92bd
000002b0: e9ed 0b3f f669 b33c 50af 183d 7163 cf3d
000002c0: c834 89bd 5cf3 f33e 1be5 4cbf 6143 41bb
000002d0: 415e 183e 5e03 aebe 584e fc3c 0c33 033f
000002e0: d6e4 16bf bcd7 ea3e 9ece 643c 8d8b ac3e
000002f0: 62c5 43be 87cd 2ebd 8969 433e 59bf 5c3e
00000300: 2118 14bc b53b 0f3f 0f8a a7be 4c7b 2f3f
00000310: 7145 51be ac8d 023e 97ce 22bf 75bc 763e
00000320: c281 3e3e 6b5e 943e 20a0 103f d9ff e83d
00000330: a1e6 f13b ac5f c73e 632b 003f 8f73 2a3e
00000340: bbc6 acbd 0aff 573e 340b c9bd 4425 d8bd
00000350: abb9 9dbe 254c 363d 56ef ac3e 4d49 01be
00000360: 8011 d0bd fced 6fbd 70a2 0c3c 1deb c73e
00000370: d842 463d 6643 de3e ade7 86be 9be9 623e
00000380: e841 1e3e 1b27 75be ed46 a6be e0a3 d83e
00000390: ee72 fc3d b109 5c3e 031c 453e 8d49 24bd
000003a0: 6f33 01be b236 36bd 85be 2cbe 5c4f 64be
000003b0: fd6f 77bc cdf8 a0be 06b2 96bd 4478 c13d
000003c0: fb67 023e 09d7 6dbe d448 96be eedd 013e
000003d0: 6cfd 27bd 3448 243f df05 c0be e198 d6bd
000003e0: 3674 da3c e218 803d 5fff 433e 0101 d6be
000003f0: f51f e9be 1cfa 103e 48be a33d 84bc df3d
-0.25064358 0.2686564 -0.38030612 -0.5770414 0.08920441 0.39628032 -0.119061634 0.25282028
-0.22291793 -0.2089246 -0.53414655 -0.10594756 0.24527808 0.06176648 -0.072901845 0.36529443
0.04027656 0.48757547 -0.4740129 -0.10360464 0.067021444 -0.3933317 0.04405019 0.33090392
-0.26062548 -0.85293317 -0.5328557 -0.36821023 0.22909617 -0.78566396 0.07724081 0.03278025
0.005491564 -0.21660039 -0.2155861 0.23287271 -0.23068765 0.08955899 0.26324403 0.1100588
0.06477517 -0.3566542 -0.41796795 0.16864742 -0.044783134 0.06489913 -0.21205607 0.3009549
-0.6066771 0.18324204 0.8451964 0.1513575 0.0049990555 0.14633352 -0.1730015 -0.07587594
-0.10057198 0.16689418 0.047850315 -0.9510283 -0.43849537 0.027223391 0.21411788 0.03316442
-0.13694811 0.090541475 0.28218457 0.048804447 0.6181882 0.17835164 -0.12442287 -0.07172364
-0.43140543 -0.012607215 0.36385202 -0.07072862 -0.27510777 0.25891787 -0.15728769 -0.2622378
0.2779301 0.5503648 0.12269464 0.13374458 -0.030192234 -0.08853484 -0.170836 -0.040282723
0.007939288 -0.7054484 -0.25327626 0.16197592 0.061395813 0.4960285 -0.38609233 0.28549457
-0.25620466 0.085978284 0.13697688 -0.094012566 0.43250895 0.02778857 0.45654422 0.12942256
0.1218419 0.5867137 0.037412424 0.36949056 0.20966451 -0.078079626 0.109827325 0.13349797
-0.4139452 -0.05172893 -0.18534735 -0.2429804 0.505785 0.5848937 -0.006599387 0.34478956
-0.43599397 -0.10035952 -0.905062 -0.13414729 -0.25869122 1.0479875 0.40690765 -0.35936615
0.10019214 -0.35788995 -0.20950249 0.4050314 0.042321406 -0.3295502 0.20161293 0.55030245
0.10203528 0.2503089 0.1664257 0.09544812 0.2895928 0.49079114 -0.26300937 -0.013774279
0.21960796 0.25216088 -0.08693216 0.08527321 -0.41017213 -0.2944393 -0.03546678 0.3703828
-0.30546197 0.114286624 -0.7117041 -0.16003108 0.13761319 0.606181 -0.016213052 0.31921998
0.2705178 0.10943254 0.1360118 -0.13103555 0.082004376 0.23674096 -0.057999633 0.39052516
-0.33160928 -0.46564293 -0.2486768 -0.07143751 0.546599 0.021901112 0.037276566 0.10126389
-0.0669952 0.47646606 -0.8003709 -0.0029489624 0.14879705 -0.33986944 0.030799076 0.51249766
-0.58942926 0.45867717 0.013965277 0.3370022 -0.19118264 -0.042676475 0.19083227 0.21557368
-0.009038956 0.5595048 -0.32722518 0.6854751 -0.20436646 0.12749356 -0.6359648 0.24095328
0.18604186 0.28978285 0.5649433 0.11376924 0.0073822294 0.3894018 0.500662 0.16645645
-0.08436342 0.21093383 -0.0981659 -0.10553983 -0.30805716 0.04450621 0.3377635 -0.12625618
-0.10159588 -0.05857657 0.00858365 0.39046565 0.04840359 0.43410796 -0.2634863 0.22159426
0.15454829 -0.23940699 -0.32475987 0.42312527 0.123266086 0.21488072 0.19248967 -0.040109206
-0.12617277 -0.044485755 -0.16869552 -0.22295898 -0.015102384 -0.3143982 -0.07358174 0.09446767
0.12734978 -0.2322656 -0.29352438 0.12682316 -0.041013166 0.64172673 -0.3750448 -0.10478378
0.026666742 0.06254746 0.19140385 -0.4179764 -0.45532194 0.14157909 0.07995278 0.109246284

encoder.lstm.weight_hh_l0 f4 [128, 32]
00000000: 3603 56bf 9a2a 7abe 4b39 9abe 7a05 aa3e
00000010: 61de 2c3f 7c1a 83be 16c1 18bc 1541 e7be
00000020: 920a e8bd 0063 dfbe ca8e 0ebe 324d 5ebe
00000030: c4a6 e53e 6f6a 13be 0664 023f bcac 27be
00000040: bd58 b53e 4974 c8bd 04cd 00bf c7d0 4bbf
00000050: f70f 08be 8496 4d3e 18ff 39bf feb4 ebbe
00000060: b8a0 823e 6b62 29be 53a1 c83c af0e 84be
00000070: 65bc f1be e7f1 693e 9f90 8cbd 9ea8 07be
00000080: afa5 ffbd d96d a43e d41b ffbe 5cb6 c4bd
00000090: cdc7 f43e 648b fbbe e825 fc3d fb56 9bbd
000000a0: 3590 0cbe cbd6 a5bd 0f1b e1be cdb3 98bd
000000b0: aa42 6bbe 27e8 96bd 42f4 513f 9423 7ebc
000000c0: 0dab 013e cfaf 053f 4bed a93e 4c88 a4bd
000000d0: 84fa 19bf bbdd fb3e 987a 0c3c e8a0 4b3e
000000e0: 0a0e 113f d3cd c53c a64a 3bbd b697 94be
000000f0: 6c8f 3abf d193 163f 5148 233f a57c 0ebe
00000100: 0dd7 153f a644 013e 0326 67bd 6277 7dbe
00000110: 4d1b 843f 833c 31bf a786 813e 5f65 04bc
00000120: 33b0 dbbe c7ff 56bf 88ff 413e 4546 8cbf
00000130: 8218 253d 3d8e 3fbf a7d4 863e 3ff4 aabe
00000140: bae3 123e 2e8b 7abe 3751 e73e 0308 d2be
00000150: 5f2d eebe 92cb e83d 5501 27be 404e 8dbd
00000160: 265c a73e d251 1abf ec86 073e 4256 45bf
00000170: f435 9bbe 9ac7 85bc 3045 dabd a11d 06bf
00000180: 46cc 1fbe 5350 8cbe cb6e 3b3c 3af3 80be
00000190: c149 8cbe 2630 56bf cb12 00be 3521 733e
000001a0: 6312 e63c 65ff 7a3e ab99 c13d e45b febe
000001b0: 9d1c 23be d11a 28bf 6120 4bbe 68cb 943e
000001c0: 7b7f c63e 0376 c9be 978d b53e 1da6 b0bd
000001d0: 69e2 53be 4ded 16be 8151 aebe 3247 0b39
000001e0: fe51 3fbe 4890 eb3e b891 1fbf 347c cabd
000001f0: 273f d5be 48a2 4dbe c9bb ea3d 27f1 b53e
00000200: 3308 9bbe f708 443a 8656 d6bd 697e 0b3e
00000210: b7db 103f 88be 1abf baea febb bd34 183f
00000220: e893 61be 2f8e e7bb 376a 17be 4070 213e
00000230: a393 c33e c1b2 8e3d 7d8d 333f 693b 4c3e
00000240: 5d1d 5e3e 84f2 65be 42f4 bcbc d2ca b1be
00000250: 4a00 a3be 1c26 bb3e 5781 983d 640f 81be
00000260: 0512 a93e 30a6 e33d eed3 b2be b044 bc3e
00000270: 5b2d 15bf 39d8 4d3f ed82 e9be ebf1 dbbe
00000280: f605 ab3e 48eb 77be 079a a3be db85 d6be
00000290: 7e38 8abc 7dc8 cdbe ee71 0f3f 01e7 613f
000002a0: ecfc e9be d5b6 963d ec5c 02bf 9a10 d8bd
000002b0: 08a4 55be d824 cdbd 574c 503d 2ce2 47be
000002c0: 67e7 853e 42ab f2bb 0226 7b3e 4578 c43c
000002d0: 1509 7d3d 6a76 d93e 1390 bf3e 03a5 e8be
000002e0: c59f 58be 6e29 c9be 854b a0be 5dcc 0abf
000002f0: 0f7e 26be 32a4 bc3e 9797 12bf 55a2 62bd
00000300: dcd9 763e f1d9 ef3e 983e b0be 9422 2a3e
00000310: 4374 223e 2455 d0be 5d8e a3bd 6a74 2b3f
00000320: 2766 9dbe 8290 4abd 4380 efbe 559b 1ebf
00000330: 5bb9 b7bd 07e7 01bf 56b9 acbe 9802 1f3e
00000340: 5eb2 aa3b 7026 353c fc6e 08bf 1f3d 353e
00000350: 7255 0abf 0691 2e3f a89f 95bd 2896 73be
00000360: 1296 953f 882b d1be f5ff a03d 4af2 a0be
00000370: 1a5a 59bf c384 a53e f46d abbc ae06 87be
00000380: 52b4 c63d c2fe 81be fb94 4bbf 6d4b 6abe
00000390: e45a 7d3f e9cb f9be 6287 1ebe cb9f 903d
000003a0: 8169 70be 0322 45be dffa c7be 782b 4a3c
000003b0: 5ee7 543e 9af0 f3be 66e7 f23e 8e3e abbd
000003c0: 842e a33e 1ef9 393e 388f 6ebe 4546 29be
000003d0: 4717 8d3d a83b 593e f3ff 2fbf 0470 e1be
000003e0: b932 61be 95a5 2bbf 7276 cfbe 32a3 7abf
000003f0: 91d3 d3be 7955 b33e 6480 f4bd 51be 54be
-0.8359865 -0.24430314 -0.30121836 0.33207303 0.67526823 -0.25606143 -0.009323379 -0.4516684
-0.11330141 -0.43630219 -0.13921657 -0.21709135 0.44853795 -0.1439607 0.50933874 -0.16374487
0.35419264 -0.09787805 -0.5031283 -0.79615444 -0.1328734 0.20076948 -0.7265487 -0.46036524
0.25513244 -0.1654145 0.024490988 -0.25792453 -0.47214046 0.22846185 -0.06863522 -0.13247916
-0.124827735 0.32115057 -0.4982592 -0.09605095 0.47808686 -0.49129784 0.123119175 -0.075849496
-0.13726886 -0.08097609 -0.43965957 -0.07456169 -0.22974649 -0.07368498 0.8201333 -0.015511412
0.12662907 0.5222139 0.33188853 -0.08033809 -0.6014788 0.49192604 0.0085741505 0.198856
0.56662047 0.024145996 -0.045725487 -0.29021996 -0.72875094 0.588193 0.6378222 -0.13914736
0.58531266 0.12623844 -0.056432735 -0.24752572 1.0320832 -0.6923296 0.25298044 -0.008080809
-0.42907867 -0.83984035 0.18945134 -1.0958945 0.040306576 -0.74826413 0.26334116 -0.3338947
0.14344683 -0.24467155 0.4517915 -0.41021737 -0.4651899 0.11366953 -0.16309102 -0.06899691
0.3268749 -0.602811 0.13235062 -0.77084744 -0.303146 -0.016330529 -0.10657728 -0.5238896
-0.15605268 -0.27405033 0.011439989 -0.25185567 -0.2740002 -0.8366722 -0.12507169 0.23743136
0.02808494 0.24511488 0.09453138 -0.49679482 -0.15928884 -0.6566592 -0.1983657 0.29061437
0.38769135 -0.39347848 0.35459587 -0.086254336 -0.20691837 -0.1473896 -0.34046558 0.00013282595
-0.18683621 0.46008515 -0.62331724 -0.09886971 -0.41649744 -0.20081437 0.114615984 0.35535547
-0.30279693 0.00074781425 -0.10465722 0.1362244 0.5658526 -0.6044698 -0.0077794464 0.5945547
-0.22029078 -0.00706651 -0.14786611 0.15765476 0.38198575 0.06967688 0.7013777 0.19944538
0.21690889 -0.22455794 -0.02306569 -0.34725052 -0.31836158 0.36552513 0.074465446 -0.25207055
0.3302156 0.11115682 -0.34927315 0.36771154 -0.5827233 0.80408055 -0.456077 -0.42958006
0.33402985 -0.24210846 -0.3195345 -0.41899 -0.01687264 -0.40192023 0.5603322 0.8824311
-0.45700777 0.07359091 -0.5092304 -0.105500415 -0.20863354 -0.10016793 0.050854053 -0.19519871
0.26153108 -0.0074056694 0.24526218 0.02398313 0.06177624 0.42473155 0.37414607 -0.45438394
-0.21154697 -0.3928942 -0.31307617 -0.54218084 -0.16259025 0.3684402 -0.5726256 -0.055330593
0.24106544 0.46845964 -0.34422755 0.16614753 0.15864663 -0.40689957 -0.07986138 0.6697451
-0.30742 -0.04945422 -0.46777543 -0.6195577 -0.089709006 -0.50743145 -0.3373515 0.15528333
0.0052092513 0.0110565275 -0.5329435 0.17699097 -0.5403663 0.6819004 -0.07305843 -0.23787749
1.1686423 -0.40853524 0.0786132 -0.31434852 -0.8490311 0.32327852 -0.020926453 -0.26372284
0.09702362 -0.25389677 -0.795242 -0.22880335 0.98966813 -0.48788384 -0.15481332 0.07061728
-0.23477747 -0.19251256 -0.39058587 0.012339465 0.20791385 -0.47644502 0.47442168 -0.08361541
0.31871426 0.18161437 -0.23296821 -0.16530712 0.068892054 0.21214163 -0.6874992 -0.44030774
-0.21992005 -0.67049533 -0.40520054 -0.97905266 -0.4137235 0.35026148 -0.11938551 -0.20775725

encoder.lstm.bias_ih_l0 f4 [128]
00000000: 68ca 153f 9cf3 b93e 1677 ad3e 23b0 d83d
00000010: e79e 233e 3267 eb3e 8518 ea3e 2baa bc3e
00000020: a7a6 943e 7c04 cc3e f75c 623d a6a0 933d
00000030: 57cd 753d 795d 2c3f b683 7a3e d4ed 1a3e
00000040: 4692 e73e 6f44 f43e e0d5 173f 4853 e6bc
00000050: a8bb 5b3e 0192 3a3e 5a00 d33e 768b 903e
00000060: 94d1 8b3e bd95 bb3e 7b26 d43e d60d 5a3e
00000070: 01f1 2c3f e99d aa3e f103 aabd c5af 5a3e
00000080: 8011 873e 9c7e 83be ed8f 8d3e e467 d93d
00000090: 2631 023d e93b bd3e 60ed 163e 318b 6f3e
000000a0: 96fd 823e ff8b a33e 88a5 1e3e 670d 033f
000000b0: c8aa 9f3e 6521 6f3e 5692 913e 5e8b 6c3e
000000c0: b0a7 d73e b496 753d 1de3 a13e 7013 703e
000000d0: 667b 433e b415 0e3e 7349 413e 7201 b43e
000000e0: 6756 ac3e b45f 8e3e b162 293e b788 723d
000000f0: b659 433e 9e5f ed3e a7a4 0b3e bf50 84bd
00000100: d881 f1bc 88c5 e1bb 5cf7 06be b212 51be
00000110: 5062 2f3e e72a b0bd ce21 ba3d 5551 f53d
00000120: a7dc 2bbe 19d5 51bd 9c80 bf3c 2056 83be
00000130: 015d 25be 2df2 3dbe a0de a1bc aef9 243e
00000140: 0a21 663d 6e85 4abe 006e 863d 0d2d e7bd
00000150: 0203 01bf 3689 793e b68c 24be 55e4 5bbc
00000160: 949b 603e 2b1b 3dbe 6791 90bd e04e a4bd
00000170: e332 62be fa7d 9c3e 0f23 72be 6ec3 23be
00000180: 7f31 7e3e cb2b 9d3e 8c02 713e 41ac b23e
00000190: 268e 813e c423 c83d 63dd 0c3e 8599 2d3e
000001a0: a645 2b3f d63c 8a3e 152b c3bd 5f55 323e
000001b0: b7ca 3e3e 43a8 b03d 8ae2 7dbe 2290 ec3d
000001c0: 8d18 483e 3b06 dc3e f774 4d3e 400a fd3d
000001d0: 1bc6 c53d 7bb9 4dbe 93c7 a43d 604a 59bd
000001e0: b66a d3bb 4c57 943e 837a 2b3e a6a2 b83d
000001f0: 4682 f43d a49d e4bd 0c96 cfbc 278d e93d
0.5851197 0.36318672 0.33879918 0.105804704 0.15978585 0.4597717 0.45721832 0.36848578
0.29033396 0.3984717 0.05526444 0.07208376 0.06001028 0.6733013 0.24464306 0.15129787
0.45228785 0.4770846 0.5931072 -0.028115883 0.21458304 0.18219759 0.41211206 0.282314
0.27308333 0.3663768 0.41435608 0.2129434 0.6755524 0.333236 -0.08301533 0.21356113
0.2638054 -0.25682533 0.2764887 0.10615519 0.031785153 0.3695977 0.14738989 0.23392941
0.25584096 0.31942746 0.15492833 0.51192325 0.31184983 0.23352583 0.28431958 0.2310004
0.42120123 0.059958175 0.31618586 0.23444915 0.19090042 0.13875467 0.18875675 0.35157353
0.3365967 0.2780739 0.16541554 0.059212413 0.19077191 0.46362013 0.13637029 -0.064607136
-0.02948086 -0.0068900026 -0.13180298 -0.20417288 0.17127347 -0.08601933 0.09088479 0.119784035
-0.16783391 -0.051228616 0.023376755 -0.25651646 -0.1614876 -0.18549414 -0.019759476 0.1611087
0.056183852 -0.19777462 0.065639496 -0.1128789 -0.50395215 0.24368748 -0.16069302 -0.013421138
0.21934348 -0.18467395 -0.07058983 -0.08022857 -0.22089724 0.30564862 -0.23646186 -0.1599252
0.24823569 0.30697474 0.23536128 0.34897044 0.25303763 0.09772447 0.13756327 0.16953094
0.6690315 0.2699954 -0.095297016 0.17415379 0.18632017 0.086258434 -0.24793449 0.11550929
0.19540615 0.42973503 0.2006415 0.12355471 0.09656926 -0.20090286 0.08045878 -0.053049445
-0.00645193 0.28972852 0.16745953 0.09015398 0.1193891 -0.1116288 -0.025340103 0.11403876

encoder.lstm.bias_hh_l0 f4 [128]
00000000: b609 b53e f684 b23e fcd9 b93d e40f 873e
00000010: e75c 543e d746 6a3e 81c0 ad3e 9edb 863e
00000020: da14 933d 16d2 d33e 78c6 923d 9f28 853e
00000030: 14bf a53d d7b6 463f 67d8 713d d17a ad3e
00000040: 4ec7 623e 59f4 093f 88bd b53e 4a66 ffbd
00000050: ff5c a03d 24d2 933e 0ada c23e 5bd2 d73d
00000060: 9fc1 8e3e e83e 0c3f 7575 8e3e 893b f53c
00000070: d84e e73e 2446 f03e 4d1d 96bc d5b1 8b3e
00000080: a66e 173e a3a9 97be 351d 77bc 9fc4 b03d
00000090: 4a12 5e3e d65e c43e 2ca6 8a3d 842b d43e
000000a0: 0081 6d3e e37b e63e 2f7a 133e 9e53 c23e
000000b0: 5a40 863e d09e ea3e ec98 823e d123 783e
000000c0: 51d2 b63e 8178 a33d d697 2b3e 5ac1 6dbc
000000d0: 070d 313e 9ce3 493e b0b9 f6bb b523 a43e
000000e0: 214d 9e3e e19f c53e a361 853e 28a4 a73e
000000f0: c2b2 963e a9af a23e 8a3f a73e ea54 203e
00000100: 7feb ed3d 9a54 6cbe ea5c 8cbe 27f6 3cbe
00000110: 1e1b 8a3d d12a 15be 04b3 3a3e 3457 943d
00000120: 8d73 33bd 58fb 28be 9e12 19be bf95 62be
00000130: acc4 833d 784c a6bd beb1 8a3c de51 cdbd
00000140: ff77 813e e5ad 59be 7663 bcbc b2b7 88bd
00000150: ec19 02bf 31b7 e43c ef97 8ebe 9826 2dbe
00000160: 59ba 393e 09ea 08be 1bba 90be 2aa4 18be
00000170: 469f 55be fcb2 863e 782d a0be 503b 74be
00000180: 3bb1 993e 338a 893e f671 7d3e c1a0 5a3e
00000190: 97da ac3e 36ef 723c 8270 bc3d 43ca fdbd
000001a0: b083 0a3f c19a a73e 87d9 0cbd 17b9 863d
000001b0: 9df9 a83d 8f92 733e c793 b9bd 50d3 08bd
000001c0: 85a3 253d 2c1b 273f ac39 773b 76ea 8c3e
000001d0: 81aa f13b f232 f7bd 5089 8b3d 646a 263e
000001e0: 71c4 86bd 45fb b53d 2ef9 303d f74f 513e
000001f0: 7563 303e 7712 92bd fc7e 643e 4be3 733e
0.3535897 0.34867066 0.0907478 0.2637931 0.20738564 0.22878586 0.3393593 0.2633943
0.071817115 0.4137122 0.07166761 0.26007554 0.08093086 0.7762274 0.059044268 0.33882764
0.22146341 0.5388847 0.35496163 -0.12470682 0.078302376 0.28871262 0.38056976 0.10538169
0.27882096 0.5478349 0.27823988 0.029935615 0.4517734 0.46928513 -0.018324519 0.27284113
0.14788303 -0.2962161 -0.015082647 0.086312525 0.21686664 0.38353604 0.06769976 0.4143945
0.23193741 0.45016393 0.14402078 0.3795442 0.2622097 0.4582429 0.25507295 0.24232413
0.35707334 0.07981969 0.1675714 -0.014511431 0.17290126 0.19715732 -0.00752946 0.32058492
0.3091822 0.3859854 0.26051053 0.3274243 0.29433256 0.31774643 0.32665664 0.15657392
0.11617183 -0.23079148 -0.27414638 -0.18453275 0.067434534 -0.14567114 0.18232352 0.07243195
-0.04381137 -0.1650213 -0.14948508 -0.22127436 0.064339966 -0.08120054 0.016930457 -0.100253806
0.25286862 -0.21257742 -0.022996645 -0.06675662 -0.50820804 0.027919384 -0.2785029 -0.16909254
0.18137492 -0.13370527 -0.28266987 -0.14906374 -0.20861539 0.2630843 -0.3128469 -0.23850751
0.3001803 0.2686325 0.24750504 0.21350385 0.3376052 0.01482754 0.09201147 -0.12392094
0.5410719 0.32735255 -0.034387138 0.06578272 0.08250735 0.23786376 -0.090613894 -0.03340465
0.040439148 0.65275836 0.0037723584 0.2752263 0.007375062 -0.12070264 0.068133 0.16251522
-0.06580437 0.088858165 0.043206386 0.2044066 0.1722544 -0.07132428 0.22314066 0.23817174

policy.net.0.weight f4 [128, 32]
00000000: 4956 9bbe 9d42 a53b e7a6 22bd 92b9 adbe
00000010: 94c3 503d 3ddc f2bc 6db7 033e c4e4 9a3e
00000020: 8ca8 083f eeba 45be bac3 13be 53e8 adbe
00000030: 8e28 96be cd52 a53d fe3f 8cbd a9a7 db3d
00000040: 0159 7bbd 5881 81be bc02 bfbe c696 7b3e
00000050: 468c ea3d 208a b93d 3565 35be 7555 83bd
00000060: 6294 3c3e e071 773e 01c6 8bbe d0df aabe
00000070: d59e debd 1d5d ae3d 4e93 9ebe 345d 8abe
00000080: 93e0 093d 400c 1abc f04d f9bd c79b 933d
00000090: 3609 22bd 5438 833d 82fb adbe bf50 b73e
000000a0: b51f de3e d17e dfbc 3362 68be c1e7 15be
000000b0: 9d61 bcbd c29e fcbd 0a72 35be 1930 2dbe
000000c0: 6b60 853d ed54 3dbe c85b 123d 02eb 1b3d
000000d0: 1644 bdbe 976c 87bc 0cbf 843c 5a5e e13d
000000e0: f6e1 613e 9a1c 983d 2cfc 5d3e 264c fe3d
000000f0: fe71 6fbd e94e 983d cd50 233e b00e adbe
00000100: 1902 36be 8528 38be ec36 a7bd ccc7 f2bd
00000110: 8827 23bd b7b9 bebd 110c 0bbe 2de6 a63e
00000120: 2115 273f d613 86bd 112e 6abd 6fae c23d
00000130: e2e7 9ebe 8d36 68bd b2f8 65be 0c99 e43d
00000140: a5ac 20bd 9f76 2dbc 055e fabd 126e ba3e
00000150: 99ac 9dbd fb26 ef3d b624 99bd a5a6 1abe
00000160: 6032 aebd 35ec 943e 6d67 1dbd d93a 903c
00000170: 73ae c8bc 7107 63bd 33b9 3b3d be2b afbe
00000180: e84e 013f 0fe2 bdbe 9fce 66be 493a a63e
00000190: 7af7 c33e 213c 5dbe cca0 e2be 7dfa 47be
000001a0: a0a9 013f 8b6b 47be a25b 923d ec77 1abf
000001b0: 4f92 19bf fd44 5fbe b14f 9b3e 656d a2be
000001c0: e42a 99be 2868 f43d aec6 d8bd 36a8 5f3d
000001d0: db52 b5be f398 d1bd b6f1 ab3d 20c5 dbbe
000001e0: a600 dbbd f465 203e 19bd 853e ba1c 103f
000001f0: 9845 463e ca2e e5bc 1ac0 8d3e 1da1 72be
00000200: 07eb 133e 1e41 d33e 11c0 69be 0b08 8ebe
00000210: 25d6 0dbe ecbe 8d3e d4ad b2be 5081 a0be
00000220: 0757 a2be 461b 36be 7c10 c23e fc26 ffbe
00000230: c209 79bf a02d 0dbe e7fa 6fbd dac4 c3be
00000240: b007 94be c06b 0fbf b0d7 33bd 404c 43be
00000250: f306 91be 93f4 2abf cedb 25bd 436a 16bd
00000260: 187b cabe 50db d4bc 57a8 d93e 20be 09be
00000270: 66e1 4f3e 957f 0fbf eb48 903e 20a1 cebd
00000280: 13bf bcbc 426f a7be 93b3 7abe a85c 883e
00000290: 2310 5c3e 7628 9abe 3657 d53e 86dc 0bbe
000002a0: db88 5dbd 7206 0e3e 2473 42bd 6698 6e3d
000002b0: 0549 403e 0659 c6be 17a2 16bd bcfc 3fbe
000002c0: 46de 9abd ceef 113e 4ff8 03be 3b73 3b3d
000002d0: 1910 cbbd 7071 4dbe 186b dbba fac8 33be
000002e0: 52b2 6bbe 6246 423d 8a4f c8bd 48cc 713e
000002f0: f708 8a3d 02c1 bdbd 40c9 9abd e0d8 fb3e
00000300: a402 dcbb dcff 643e 1552 013f 3181 0dbf
00000310: d7fc bc3e 9cf8 363c 4b5e f43d 1f84 5cbe
00000320: 375f 4abe 5ef1 80bc ddf6 693e 3b83 163e
00000330: dd0a a5be 195d b23d beff e0be b0fa fbbd
00000340: 020c f1bd 130e 5bbe b66d 5bbe 0452 17bf
00000350: 13b2 a1be f87d e2be f010 f93d ffb2 813e
00000360: d923 3bbc 3232 8c3e 5d0f 913d cf73 313d
00000370: 39f9 8c3e e1e7 ebbe eee1 c7bc 4c44 8dbd
00000380: db25 ee3d dd2a f23d e728 ab3e c197 09bd
00000390: 1ae5 b53c e826 123e ed83 63be fc63 47be
000003a0: de60 da3d eaea e13d 7580 68bc 140a 11be
000003b0: a782 febd 2637 05bd 626f 533d 5796 413d
000003c0: 364b a2bd ae8e a43b 7c1a 8bbd 9fd5 1dbe
000003d0: 6ada ca3d 2fba f2bd c239 62be 915e 29bd
000003e0: 96d8 d53d c9dd db3d 6e76 31be e90d 793d
000003f0: 293b 523d e8ea 573d 31ef 5dbd b75b 363e
-0.30339268 0.0050433413 -0.03970995 -0.3393064 0.050967768 -0.029646033 0.1286294 0.3025266
0.5338218 -0.1930959 -0.14430133 -0.33966312 -0.29327816 0.080724336 -0.06848143 0.10725338
-0.061364178 -0.25293994 -0.37306774 0.24569234 0.11452536 0.090595484 -0.17714389 -0.06412784
0.18415979 0.24164534 -0.27299502 -0.3337388 -0.108701386 0.08513854 -0.3097176 -0.27024233
0.033661436 -0.009402335 -0.121730685 0.072074465 -0.039559565 0.06407228 -0.33980948 0.35803792
0.43383566 -0.02728215 -0.2269371 -0.14639188 -0.09198306 -0.12334968 -0.17719284 -0.16912879
0.06512531 -0.18489428 0.03573206 0.038065918 -0.36966008 -0.016531272 0.01620438 0.11004324
0.22058854 0.0742733 0.21678227 0.12416868 -0.05845832 0.07436926 0.15948792 -0.33800268
-0.17774238 -0.17984207 -0.081647724 -0.118545145 -0.03983262 -0.09312766 -0.13578822 0.32597485
0.65266615 -0.06546752 -0.05717284 0.09505927 -0.31036288 -0.05669265 -0.22458151 0.11162004
-0.039227147 -0.0105873635 -0.12224964 0.36412102 -0.07698936 0.11677357 -0.07477705 -0.15102632
-0.08505702 0.29086462 -0.038428713 0.017606186 -0.024497246 -0.05542702 0.045830917 -0.3421306
0.50511026 -0.37086532 -0.22539757 0.32466343 0.38274747 -0.21604969 -0.44263303 -0.19529147
0.5064945 -0.19474618 0.07146384 -0.60339236 -0.59988874 -0.2180366 0.30334237 -0.31724086
-0.29915535 0.11933929 -0.1058477 0.054603778 -0.35414776 -0.10234251 0.08395712 -0.42923832
-0.10693483 0.15663892 0.26120833 0.56293833 0.19362485 -0.027976412 0.27685624 -0.23694272
0.14445125 0.41260618 -0.22827174 -0.2774051 -0.13851221 0.27684724 -0.34898245 -0.31348658
-0.31707022 -0.17783841 0.37903202 -0.4983443 -0.97280514 -0.13786936 -0.05858889 -0.38236123
-0.28912115 -0.5602379 -0.043906868 -0.19072056 -0.28325614 -0.6677944 -0.040492825 -0.036722433
-0.39547038 -0.025983483 0.42511246 -0.13451433 0.20300826 -0.5605405 0.28180632 -0.10089326
-0.02304033 -0.3270207 -0.24482565 0.2663319 0.2149053 -0.30108994 0.416681 -0.13658342
-0.054085594 0.13869646 -0.047473088 0.058250807 0.18777855 -0.38739794 -0.036775675 -0.18748754
-0.075619265 0.14251634 -0.12887691 0.04576419 -0.0991518 -0.20062804 -0.001674029 -0.17557135
-0.23017243 0.047430404 -0.09780796 0.23613083 0.06739991 -0.09265329 -0.07557917 0.491889
-0.006714182 0.22363228 0.5051587 -0.55275255 0.36911651 0.0111676715 0.119320475 -0.21534775
-0.19762884 -0.015740093 0.22848077 0.14698498 -0.3223485 0.08709163 -0.43945116 -0.12303674
-0.117698684 -0.21392088 -0.2142857 -0.5910952 -0.31581172 -0.44236732 0.12161434 0.25331876
-0.011422121 0.27382046 0.070830084 0.043323334 0.27533892 -0.46075347 -0.024399724 -0.06897792
0.11628314 0.11824582 0.33429644 -0.03359199 0.02220397 0.14272654 -0.22218294 -0.19471735
0.10663007 0.110311344 -0.014190783 -0.14164001 -0.12427264 -0.032523297 0.051619895 0.047262516
-0.079245016 0.0050218916 -0.06792161 -0.15413521 0.099049404 -0.11851918 -0.22092345 -0.04134995
0.10441701 0.107356615 -0.17330334 0.06080428 0.05132595 0.05271426 -0.05418319 0.17808424

policy.net.0.bias f4 [128]
00000000: 7e3b 133e eece 373d cb50 c3bd 7ea7 803d
00000010: 7150 15be d054 b6be deb0 8cbe 7b5d b9be
00000020: b6eb c0bc 7f85 f93d 94f0 6e3e 0ba0 3fbe
00000030: eab7 febd 0fa7 973d 20b7 823d adc4 113c
00000040: f32a c03d 742b 133e 045d 8ebe 4b24 393d
00000050: 4076 843d 64a7 9cbc 93e8 563e 7add c8bc
00000060: b38c f0bd 3269 b1be 4e79 89be 7605 e5bb
00000070: 159d 6abe 9da7 77be 36a9 8dbd 8626 c2be
00000080: 7224 92be 8a1c 3fbe a8e4 4fbe 9a70 1e3e
00000090: 46b8 90bd e688 51be 83d1 103e 0943 a03d
000000a0: 3b6a f93c dbb5 293d 030a 303e 0ec6 abbe
000000b0: 440d a33d 52b6 963d 5523 d7be 6a60 a6be
000000c0: f4a6 eb3d db69 9a3d bea8 91be f2d0 58be
000000d0: cf12 1b3e 2219 cebe f7e1 98be f021 c03d
000000e0: 3b23 98bd 868a d03a cea6 333d 3fdd c0bd
000000f0: 1445 313d 7aaa 813d c609 893e 6e27 a1bd
00000100: 0a10 b5bd c0dc a4bb eac3 c7ba 797a 4a3d
00000110: c9e7 4abd 17dd 18bc f41e c4be b1a7 19be
00000120: c2e3 fb3d c225 edbd f785 763b d369 94be
00000130: c4d6 53bd 7149 3e3e d199 b33d 9413 6d3e
00000140: 0cee cd3d 1097 d0bd 5448 03bd b857 803d
00000150: 633b 86bd 4195 9bbe 0537 8fbe ce2b 14bd
00000160: 9e0a 263e 49bd bbbc 7163 613c fc6a 773e
00000170: 13c6 5bbc 579e 1b3e 6d88 1abe 3dc4 14be
00000180: 9647 05bd 7f47 64be d3f9 21be 5f5d b0be
00000190: 3a93 693e 7965 57bd 3be1 f93d 2f94 b63d
000001a0: f294 c53d 0fe1 073e 92d5 563d 9017 9dbe
000001b0: 6afe 593e cad8 72be 3319 abbd 16ab dc3d
000001c0: b25c 3f3e 5023 2fbd 77f0 94be a816 543e
000001d0: e4e8 00be 8d8f cf3d de0a 69be b7e9 a83d
000001e0: 5551 51be 35e7 313e b950 bd3d 1b6e d8bd
000001f0: 877f 0bbe ee40 183e adde 103e 380a fcbd
0.14378163 0.044875078 -0.095368944 0.062819466 -0.14581467 -0.35611582 -0.2747869 -0.36204132
-0.023549896 0.121836655 0.23333961 -0.18713395 -0.124374226 0.07404911 0.063825846 0.008896989
0.09383192 0.14372045 -0.2780534 0.045200627 0.06467867 -0.019122787 0.20987158 -0.02451967
-0.11745586 -0.3465057 -0.2685036 -0.0069891764 -0.22911485 -0.24185033 -0.0691704 -0.37920016
-0.2854343 -0.1866323 -0.20302069 0.15472642 -0.07066397 -0.20462379 0.14142422 0.07825286
0.030446162 0.041433197 0.17191319 -0.3354954 0.079615146 0.073589936 -0.42019144 -0.32495433
0.11506453 0.075397216 -0.28449053 -0.21173456 0.15143894 -0.4025355 -0.29859897 0.09381473
-0.07428595 0.0015910424 0.04386025 -0.09417199 0.04327877 0.06331344 0.2676527 -0.07868849
-0.0884095 -0.0050311983 -0.0015240882 0.049433205 -0.049537454 -0.009330056 -0.38304865 -0.15005375
0.12299301 -0.11579467 0.003761647 -0.28986987 -0.05171849 0.18582703 0.087695725 0.23152
0.100551695 -0.10185063 -0.0320514 0.06266731 -0.06554296 -0.3038731 -0.27971664 -0.036174588
0.16214988 -0.022917407 0.013756619 0.24161905 -0.013413924 0.1519712 -0.15091105 -0.14527984
-0.032538973 -0.22292899 -0.15817957 -0.34446236 0.22810069 -0.052587006 0.122011624 0.089149825
0.0964755 0.13269447 0.05244977 -0.3068204 0.21288458 -0.23715511 -0.08354416 0.107748196
0.18687704 -0.042758286 -0.2908971 0.20711768 -0.1258884 0.10134802 -0.22758052 0.082477026
-0.20441182 0.17373355 0.09243912 -0.10567876 -0.13622867 0.14868519 0.14147444 -0.123066366

policy.net.2.weight f4 [5, 128]
00000000: 8430 01bf b042 bdbe 4167 9bbf 0ba4 edbe
00000010: 6a54 48c0 a203 d5bf 2ac3 e0bf cfdb b53c
00000020: b443 90be 308f 31bf de16 2fbf 8fab 6ebf
00000030: c8f5 a9be b75e 40bf 7871 fdbe db10 2cbf
00000040: 7e3d 33bf b4a5 e7be 2124 44be 9f73 a6bf
00000050: 1115 14c0 92f7 adbe 25cc 69be 15f2 94bf
00000060: 8850 98bf 3a4a 98bf d23d abbe 620f 39be
00000070: 094f f7be 8c3f aebe 631f f8be 081a a5be
00000080: 19ac 3cbf 5521 3abe d2ac e5be 4e3b 90be
00000090: 2663 8ebf 7f01 23c0 4f49 30bf 3067 6ebf
000000a0: b844 16bf 50c7 42be f2b9 46bf f0f1 9cbe
000000b0: 6620 94bf d5cc b2be 197f 60be aa2e 85be
000000c0: ba0a 10bf 0b8f ffbf fe61 61bf 7e4d debe
000000d0: 3a8e 34bf 0389 29bf 464d d1be 1407 47bf
000000e0: d744 5ac0 8a7d aabf 5c5d 21bf a98e 09c0
000000f0: 51c5 bebe 7bc1 f0be a69a a4be e49f 4bc0
00000100: f5fc 68c0 1b56 2fc0 5121 83be 87db 51c0
00000110: cd3e e1bf fbff 53be a612 bebf 401b 40c0
00000120: 008e 7dbe 2c45 a2be 8ce9 97bf 860c 89bd
00000130: 8a97 12bf 11db b3be 9ecb 5abe 45d2 d4be
00000140: 6af8 87bf f271 98be 27aa 77be 03f2 5abe
00000150: 32a9 d3be e602 20be e903 86bf aa88 0cc0
00000160: 6ed3 1cbf 84a2 cbbe 3aeb 26bf 1bcb 1bbf
00000170: 271d 0abf de52 04c0 5c26 34bf ce36 aabe
00000180: a0a0 82be 06dd 36bf 9fd1 8bbf fb40 8dbe
00000190: 3689 39bf 54b5 1ebf 591b fdbe 7dc8 9ebf
000001a0: b059 b0be 11e0 42bf 567a 3dbf 9f3a eebe
000001b0: 03ef ffbf 02fc 0bbe d062 01bf e6ea ebbf
000001c0: 4b82 51bf a4ee 84bf e58f 84be e489 01bf
000001d0: 8f29 9cbf 0ba8 8bbf b6bf afbf ed6e b3be
000001e0: 0f6b b8be fc99 dbbe 9d32 ddbe 2bde 73be
000001f0: 177b 8fbe c8b4 c0be 7e94 b9be 0c1b a2bf
00000200: a80a 1cbe e409 f2bd e778 fa3d 9c74 243d
00000210: 0819 79bf 11bd 443e 5b1b 9fbd e2bb 1bbe
00000220: 4c77 713d 823f 8b3e 2791 ce3d b75c 733d
00000230: 6777 f33c 4887 e03d 6480 3f3d 220f 3b3d
00000240: 98ed e13c 653a 2b3e 5842 49be 6177 ccbc
00000250: 003a 023e da69 9c3c dd1a 063e c862 8ebc
00000260: 10e0 6c3f 1096 7a3d 2d3a 89bc b2f4 a8be
00000270: ca7a 25bc 4b35 c83d 6218 873d b9d4 733e
00000280: 5d7a 913f 3193 edbd 368d 63be fc53 4d3d
00000290: 082e de3d 5924 10bf 48bb cd3c c3ac 463c
000002a0: b321 90be 74ad 19be e639 91be 8d91 cfbd
000002b0: ffdd 993c 646c 863e 5463 c13d 57b2 f3bd
000002c0: b86c d23d dcf7 d83e 1598 37bf 0536 4e3d
000002d0: 80d6 253d 2c19 e03d a952 21bb e751 cbbd
000002e0: 59c9 273f 1c2d 09be 9215 39bd c92e d43c
000002f0: 72b4 943d aa4f 2b3d 404f d63d 9cf9 8f3e
00000300: be91 843e 5039 4dbe 4a85 fa3c 07d4 9ebe
00000310: f31a 92be d69e b13d 1654 fdbe 9993 693d
00000320: 63d0 e7be 5b73 603d 5ee5 2c3e 549d 0d3d
00000330: aad0 f0be b625 cd3d 10b0 eebe 64cd 85bc
00000340: d36d 503c fb73 113d 8290 ab3d bab4 8ebc
00000350: 3ead ff3d b831 38be bcb8 47be 17d0 7bbf
00000360: ce09 923d 417a d23d 799d 7c3e 7517 063f
00000370: 3379 c13d a2ea 4e3e e0e4 f9bb e9c2 f2be
00000380: 8edc 0b3d 6b08 b83d 9781 77bc d417 89be
00000390: 448d 503d 486e a93d 3c5e b43c 11db 923d
000003a0: cd7f a13c 28aa 33be 3bed 9e3d 7430 3fbf
000003b0: ddc3 93be 8b77 66bf 1c08 fe3d 611b 973e
000003c0: 0963 573e 05f0 e93e ffe9 743d 0572 f9be
000003d0: 606b a33e 4a3c 70be 8d23 4b3d 8b40 953b
000003e0: 28ce 983c f569 453d 0a4d 6cbf 6994 94be
000003f0: 297d a3bc c2d4 6e3d f229 eb3d f88d 42bd
-0.50464654 -0.3696494 -1.2140886 -0.46414217 -3.1301522 -1.6641734 -1.7559559 0.02219954
-0.28176653 -0.6935911 -0.6839427 -0.9323053 -0.3319533 -0.75144523 -0.49500632 -0.6721322
-0.70015705 -0.4524361 -0.19154407 -1.3004035 -2.3137858 -0.33977944 -0.22831781 -1.1636378
-1.1899576 -1.1897652 -0.33445603 -0.18072274 -0.48302487 -0.34032857 -0.48461446 -0.32246423
-0.737001 -0.18176778 -0.44858414 -0.28170246 -1.1124008 -2.5469663 -0.6886186 -0.931262
-0.58698606 -0.19021344 -0.7762748 -0.30653334 -1.1572387 -0.349219 -0.21923484 -0.26012164
-0.5626637 -1.9965528 -0.8804015 -0.43418497 -0.7052952 -0.6622469 -0.40879267 -0.77745175
-3.4104517 -1.3319561 -0.6303308 -2.1493323 -0.37259915 -0.47022614 -0.32149237 -3.181634
-3.6404393 -2.7396305 -0.25611356 -3.279024 -1.759729 -0.20703118 -1.4849441 -3.0016632
-0.247612 -0.316934 -1.1868148 -0.06691842 -0.5726248 -0.35128072 -0.21366736 -0.41566673
-1.0622685 -0.29774433 -0.24186002 -0.21381383 -0.41340023 -0.15626106 -1.0469943 -2.1958413
-0.61260116 -0.39772427 -0.6520268 -0.6085679 -0.5395073 -2.0675578 -0.7037103 -0.33244938
-0.25513172 -0.71431005 -1.0923346 -0.2758864 -0.7247499 -0.61995435 -0.49434927 -1.2404934
-0.34443426 -0.7612315 -0.74014795 -0.465291 -1.9994816 -0.13670352 -0.505414 -1.843106
-0.81839436 -1.0385327 -0.25891033 -0.5060103 -1.2200183 -1.0910658 -1.373038 -0.35045567
-0.3601918 -0.42890918 -0.43202677 -0.23815219 -0.28023598 -0.37637925 -0.36246103 -1.2664504
-0.1523844 -0.11818293 0.122300915 0.04015027 -0.9730382 0.19212748 -0.077688895 -0.1520839
0.05895166 0.2719689 0.10086279 0.05941459 0.029720021 0.10963303 0.046753302 0.04566873
0.027579114 0.16721494 -0.19654214 -0.024959268 0.12717438 0.019093443 0.13096185 -0.017381087
0.9252939 0.061178267 -0.016751373 -0.32999188 -0.010100076 0.0977579 0.065964475 0.23811616
1.1365467 -0.1160034 -0.22221836 0.050128922 0.108486235 -0.5630546 0.025113717 0.012126151
-0.2815071 -0.15007573 -0.28364486 -0.101351835 0.018782614 0.2625457 0.094427735 -0.1189925
0.10274643 0.42376602 -0.71716434 0.050344486 0.040487766 0.10942301 -0.002461592 -0.09927731
0.6554161 -0.13396114 -0.045186587 0.025901215 0.0726098 0.04182402 0.104643345 0.28120124
0.25892442 -0.20041394 0.030581135 -0.3102114 -0.28536186 0.08672874 -0.49478215 0.057025526
-0.45276174 0.05479751 0.16884372 0.034573868 -0.47034198 0.100169584 -0.466187 -0.01633329
0.012721497 0.035511 0.08377172 -0.017420162 0.12484215 -0.17987716 -0.19504064 -0.98364395
0.07130776 0.10277224 0.24669446 0.5237954 0.09446945 0.20206693 -0.007626161 -0.4741433
0.034145884 0.089859806 -0.01510658 -0.26775992 0.05091597 0.082729876 0.02201759 0.0717069
0.01971426 -0.17545378 0.07760092 -0.7468331 -0.2886037 -0.9002616 0.124038905 0.29513076
0.21033873 0.45690933 0.05979347 -0.48719802 0.31917858 -0.23460498 0.04959445 0.0045548133
0.01865299 0.04819675 -0.9230505 -0.29019478 -0.019957142 0.05830837 0.1148261 -0.047498673

policy.net.2.bias f4 [5]
00000000: 34be a2bf aa49 94bd 8ba5 f43d 26ed 1fbd
00000010: a538 1b3e
-1.2714295 -0.07240613 0.11945637 -0.03904452 0.15158327

exp_avg f4 [900, 16]
00000000: 3885 ef37 7e4a a238 fc25 1538 6a16 8d38
00000010: e4e7 8738 d064 1339 a563 8837 0c40 42b8
00000020: ef41 e238 e8ce 95b8 de74 da39 962d 8e38
00000030: 9fdc c138 42b7 07b9 bba3 da38 d306 0fb9
00000040: 0487 cf38 ae98 8738 4a1d cbb8 3b03 23b7
00000050: 6d09 f938 62c9 25b9 98c5 0d39 5486 08b9
00000060: 09f2 c337 c007 9bb8 dc65 8639 5a06 3538
00000070: 5773 dab8 668e 2838 a070 7fb8 0903 bbb8
00000080: bf76 9237 3cf8 0739 049c aeb6 8a02 a3b6
00000090: 55eb e938 9855 75b9 43df 5f38 d2f3 6737
000000a0: 7ba6 40b7 bf3d a138 1626 2439 9879 4f38
000000b0: fd8a 4db9 2d9b 6e39 6613 35b8 f5be 6b37
000000c0: 7269 0bb8 c3dd 6438 d563 ac37 76e8 4938
000000d0: 143b 8c38 9bee 38b8 42e6 9ab7 3b91 0a39
000000e0: be50 18b7 5143 0439 83f3 2939 688b 8437
000000f0: b56a 52b8 854e 5639 7d10 02b7 e998 14b8
00000100: 9832 8739 64c5 a3b8 b27a 06b9 8eb0 00b9
00000110: 39a7 6738 20c0 52b9 9f42 8b34 4054 7eb9
00000120: 72a7 a538 a8cf 4eb8 b70a ac39 6554 94b9
00000130: 55eb 03b8 f4d3 2a39 88ba 52b9 617c 0cb8
00000140: 0000 0000 0000 0000 0000 0000 0000 0000
00000150: 0000 0000 0000 0000 0000 0000 0000 0000
00000160: 0000 0000 0000 0000 0000 0000 0000 0000
00000170: 0000 0000 0000 0000 0000 0000 0000 0000
00000180: 0000 0000 0000 0000 0000 0000 0000 0000
00000190: 0000 0000 0000 0000 0000 0000 0000 0000
000001a0: 0000 0000 0000 0000 0000 0000 0000 0000
000001b0: 0000 0000 0000 0000 0000 0000 0000 0000
000001c0: 0000 0000 0000 0000 0000 0000 0000 0000
000001d0: 0000 0000 0000 0000 0000 0000 0000 0000
000001e0: 0000 0000 0000 0000 0000 0000 0000 0000
000001f0: 0000 0000 0000 0000 0000 0000 0000 0000
00000200: 0000 0000 0000 0000 0000 0000 0000 0000
00000210: 0000 0000 0000 0000 0000 0000 0000 0000
00000220: 0000 0000 0000 0000 0000 0000 0000 0000
00000230: 0000 0000 0000 0000 0000 0000 0000 0000
00000240: 0000 0000 0000 0000 0000 0000 0000 0000
00000250: 0000 0000 0000 0000 0000 0000 0000 0000
00000260: 0000 0000 0000 0000 0000 0000 0000 0000
00000270: 0000 0000 0000 0000 0000 0000 0000 0000
00000280: 0000 0000 0000 0000 0000 0000 0000 0000
00000290: 0000 0000 0000 0000 0000 0000 0000 0000
000002a0: 0000 0000 0000 0000 0000 0000 0000 0000
000002b0: 0000 0000 0000 0000 0000 0000 0000 0000
000002c0: 0000 0000 0000 0000 0000 0000 0000 0000
000002d0: 0000 0000 0000 0000 0000 0000 0000 0000
000002e0: 0000 0000 0000 0000 0000 0000 0000 0000
000002f0: 0000 0000 0000 0000 0000 0000 0000 0000
00000300: 5c38 e136 e956 9c37 62b5 0f38 978f f836
00000310: 90df ddb7 af07 79b7 2eee c4b7 e38e d336
00000320: 21b6 2537 c0ea aeb6 2c16 cf36 f89e 2237
00000330: 1a96 ebb5 57fe efb7 0274 7fb7 a5d6 58b6
00000340: e84e 1a38 14b5 f237 5ce2 70b7 1c7a fa36
00000350: d324 46b8 1bfc 8d37 309f 9ab7 5333 80b6
00000360: 68f7 0fb7 d19a c436 1c6f 2737 66d5 0538
00000370: 4488 d437 4397 5eb8 d031 5d37 a9a7 8a37
00000380: 2c37 0c38 9204 9537 a607 d3b7 9f14 bdb6
00000390: 23a1 dbb7 3aec f337 5a57 65b8 201b 2eb6
000003a0: 26d4 5d38 a835 0437 dfa0 5838 0eab 6c37
000003b0: 8756 fc37 c472 3eb8 3e70 00b7 89b0 0338
000003c0: 674a 2738 5231 0038 3b7a 0038 a372 5c38
000003d0: e4a5 ff37 52ec 0c38 7a36 33b7 f12d 5cb8
000003e0: 9fcd ff37 873f 9338 a8cd abb7 4340 1e38
000003f0: ce54 cd38 8f9a 6c37 7a21 e537 8d26 b4b7
2.8553055e-05 7.738637e-05 3.5559744e-05 6.727579e-05 6.4804946e-05 0.00014056568 1.6258864e-05 -4.6312853e-05
0.00010788801 -7.143413e-05 0.00041667273 6.779579e-05 9.244051e-05 -0.00012942872 0.00010425547 -0.00013640085
9.895678e-05 6.4657404e-05 -9.68525e-05 -9.716309e-06 0.00011875001 -0.00015810647 0.00013520417 -0.00013020012
2.3358518e-05 -7.3924195e-05 0.00025634363 4.3159678e-05 -0.00010416534 4.018694e-05 -6.0901628e-05 -8.91742e-05
1.7459852e-05 0.00012967078 -5.2037667e-06 -4.858074e-06 0.0001115414 -0.00023396907 5.337527e-05 1.3825442e-05
-1.1482854e-05 7.688579e-05 0.00015654447 4.946589e-05 -0.000196021 0.00022755256 -4.317183e-05 1.4051552e-05
-3.3238386e-05 5.4565968e-05 2.0550486e-05 4.813863e-05 6.6867244e-05 -4.4091237e-05 -1.8465453e-05 0.00013214808
-9.078705e-06 0.00012613578 0.00016207811 1.5800542e-05 -5.016728e-05 0.00020437881 -7.752443e-06 -3.542836e-05
0.00025786902 -7.8092125e-05 -0.00012824943 -0.00012272803 5.523043e-05 -0.00020098733 2.593924e-07 -0.00024254713
7.899002e-05 -4.9307622e-05 0.0003281438 -0.0002829164 -3.1452004e-05 0.00016291422 -0.00020096649 -3.3494438e-05
0.0 0.0 0.0 0.0 0.0 0.0 0.0 0.0
0.0 0.0 0.0 0.0 0.0 0.0 0.0 0.0
0.0 0.0 0.0 0.0 0.0 0.0 0.0 0.0
0.0 0.0 0.0 0.0 0.0 0.0 0.0 0.0
0.0 0.0 0.0 0.0 0.0 0.0 0.0 0.0
0.0 0.0 0.0 0.0 0.0 0.0 0.0 0.0
0.0 0.0 0.0 0.0 0.0 0.0 0.0 0.0
0.0 0.0 0.0 0.0 0.0 0.0 0.0 0.0
0.0 0.0 0.0 0.0 0.0 0.0 0.0 0.0
0.0 0.0 0.0 0.0 0.0 0.0 0.0 0.0
0.0 0.0 0.0 0.0 0.0 0.0 0.0 0.0
0.0 0.0 0.0 0.0 0.0 0.0 0.0 0.0
0.0 0.0 0.0 0.0 0.0 0.0 0.0 0.0
0.0 0.0 0.0 0.0 0.0 0.0 0.0 0.0
6.7120836e-06 1.863712e-05 3.4262783e-05 7.407692e-06 -2.6449357e-05 -1.48433455e-05 -2.3475932e-05 6.304924e-06
9.877172e-06 -5.2129326e-06 6.171662e-06 9.692965e-06 -1.755255e-06 -2.8609456e-05 -1.5226195e-05 -3.2311448e-06
3.678995e-05 2.893297e-05 -1.4357818e-05 7.464796e-06 -4.7241174e-05 1.6925906e-05 -1.8432358e-05 -3.820672e-06
-8.581068e-06 5.859278e-06 9.979845e-06 3.1908414e-05 2.5335823e-05 -5.3069798e-05 1.3184224e-05 1.6528955e-05
3.3429984e-05 1.7764312e-05 -2.5156722e-05 -5.6350395e-06 -2.618187e-05 2.9077859e-05 -5.4679207e-05 -2.594381e-06
5.2888085e-05 7.880306e-06 5.1648236e-05 1.4106523e-05 3.0081033e-05 -4.5406414e-05 -7.655528e-06 3.1397245e-05
3.9885195e-05 3.056351e-05 3.0631414e-05 5.255885e-05 3.0475618e-05 3.359869e-05 -1.0681915e-05 -5.2494874e-05
3.0494119e-05 7.021339e-05 -2.0480555e-05 3.7729984e-05 9.790958e-05 1.4102682e-05 2.7314516e-05 -2.1475624e-05
