ISE_Transformer/model/2_room/eil_2_room_198_model/EBC_model_0.pth (torch, 319004 bytes, 27 tensors)

encoder.embedding.weight f4 [900, 16]
0	0xbe04f12e	-0.12982628
1	0xbf2c2064	-0.67236924
2	0x3fd92816	1.6965358
3	0x3fa19e70	1.2626476
4	0x3e3bf840	0.18356419
5	0x3f961e59	1.1728011
6	0xbcae2665	-0.021258542
7	0x3f758ca4	0.95917726
8	0x3f8cef9d	1.1010624
9	0x3e6e7721	0.23287632
10	0x3f5b5f44	0.8569224
11	0xbf9e1122	-1.2348979
12	0x3f92de38	1.1474066
13	0xbecfae7e	-0.40562814
14	0xbfa22cdf	-1.2669944
15	0x3ec93295	0.39296404
16	0xbfa33378	-1.2750082
17	0x3f0b709e	0.54468715
18	0x3f29168b	0.6605002
19	0xbdcae71a	-0.099073604
20	0x3ea75593	0.32682475
21	0x3eb03991	0.3441892
22	0x3ea6940e	0.32534832
23	0x3ed23893	0.41058788
24	0xbf91aeae	-1.1381433
25	0xbfc0c5e8	-1.5060396
26	0x3fcc30ac	1.5952353
27	0xbfefa60a	-1.8722546
28	0x3e57ced9	0.21075
29	0x3dc8dbf3	0.09807577
30	0xbf58527f	-0.8450088
31	0xbfd01c27	-1.6258591
32	0x3f59eca4	0.8512671
33	0x3ec314c9	0.38101795
34	0x3d82ebae	0.063926086
35	0x3f8dc10f	1.1074542
36	0xbec11744	-0.37713063
37	0x3d5e8e10	0.0543347
38	0xbeeca3ba	-0.46218663
39	0xbffe75c3	-1.9879688
40	0xbe5c9e67	-0.215448
41	0x3fb75c85	1.432511
42	0xbf92771b	-1.1442598
43	0x3f24451b	0.64167947
44	0xbf81e157	-1.0146893
45	0x3d87a29e	0.06622814
46	0xc03db958	-2.9644375
47	0xbeda8c1e	-0.42685026
48	0x3efaa8cd	0.4895691
49	0xbf5085db	-0.8145425
50	0xbf34d278	-0.7063365
51	0x3da4b4b4	0.08042279
52	0x3f90be07	1.1307992
53	0x3fd85cc0	1.6903305
54	0xbfc3214d	-1.5244538
55	0x3ee6624f	0.44996879
56	0xbf68c9c9	-0.909329
57	0x3e889bda	0.26681405
58	0x3ef98820	0.48736668
59	0xbfa76365	-1.3077208
60	0xbf38bece	-0.72166145
61	0xbe70930a	-0.23493591
62	0xbf063251	-0.52420527
63	0xbfd43a22	-1.6580241
64	0x3f6d261b	0.9263627
65	0xbc73dfa2	-0.014884861
66	0xbf97debd	-1.1864849
67	0x3fd87bab	1.691274
68	0xbf1d77e4	-0.61511064
69	0xbe84d6ed	-0.25945225
70	0xbfc57668	-1.542676
71	0x3e390bcf	0.18070911
72	0xbdd3fb74	-0.10350695
73	0xbe92691e	-0.28595823
74	0x3c6889ce	0.014193011
75	0xbf77b852	-0.96765625
76	0xc0207140	-2.5069122
77	0xbe1b2e83	-0.15154462
78	0x3e1b45f7	0.15163408
79	0x3e388ddb	0.18022864
80	0x3e1918b5	0.14950831
81	0x3f2e8646	0.68173635
82	0x3fc8aa0d	1.5676895
83	0x3ef37d76	0.47556657
84	0xbf80a441	-1.0050126
85	0xbf82fb09	-1.023286
86	0x3f057d3c	0.5214422
87	0xbef6e35b	-0.48220333
88	0xbf45cac4	-0.7726252
89	0x402fa645	2.7445233
90	0xbffceabe	-1.9759138
91	0x3ed4f030	0.415895
92	0x3fc89d13	1.5672935
93	0xbd2321c3	-0.03982712
94	0xbf78e297	-0.9722075
95	0xbf3649b8	-0.71206236
96	0x3e75b7b5	0.2399586
97	0xbf997ce5	-1.199124
98	0x3f881e17	1.0634183
99	0xbf2d4c14	-0.6769421
100	0xbf29d40c	-0.6633918
101	0x3eac2e84	0.3362924
102	0x3f04b980	0.5184555
103	0x3f84d6c4	1.0378041
104	0x3d29e23d	0.041475523
105	0x3f57838d	0.84185106
106	0xbe06755a	-0.13130704
107	0xbfbf08fc	-1.4924617
108	0x3eba2620	0.36357212
109	0xbf02d54a	-0.51106703
110	0xbed64638	-0.41850448
111	0x3f97483d	1.181892
112	0xbe882c72	-0.2659641
113	0x3f4ddfd2	0.8041965
114	0xbe9d7ba6	-0.307584
115	0x3fad485f	1.3537711
116	0x3f2ac244	0.66702676
117	0xbe718f59	-0.23589839
118	0xbe2f5481	-0.1712208
119	0x3f0fc723	0.56163234
120	0x3e9d35dc	0.30705154
121	0x3eacf4c8	0.33780503
122	0x3e050074	0.12988454
123	0x3f13956f	0.5764989
124	0x3ca658d1	0.020306023
125	0x3fb2fdc0	1.3983688
126	0x3fb55e8f	1.4169482
127	0xbbc0bfc0	-0.0058822334
128	0xbf61e845	-0.8824504
129	0xbef9f6e3	-0.48821172
130	0xbfad94f9	-1.3561088
131	0xbe6f0e1a	-0.23345223
132	0x3fea3517	1.8297452
133	0x3fcb78ed	1.5896279
134	0x3e365e8a	0.17809501
135	0x3f030fba	0.5119587
136	0xbf0bd7f0	-0.5462637
137	0xbfb8c286	-1.4434364
138	0xbff63e32	-1.923773
139	0xbf9088af	-1.1291713
140	0x3f80de94	1.0067925
141	0xbc1011c2	-0.008793296
142	0xbf4df091	-0.804452
143	0x3ffba08a	1.9658368
144	0x3fd2f00a	1.6479504
145	0x3f11e735	0.5699342
146	0xbc4a2e9c	-0.012340214
147	0xbfbc443f	-1.4708327
148	0xbd3d77b9	-0.046256755
149	0xbf086699	-0.5328155
150	0x3f28e4bd	0.65974027
151	0x400bf57d	2.1868584
152	0x3ef9c545	0.48783317
153	0x400b8029	2.1796973
154	0xbfbb383a	-1.4626534
155	0xbfb20beb	-1.3909887
156	0xbedd4693	-0.43217906
157	0xbe1892f2	-0.14899805
158	0x3dd07cf7	0.10180085
159	0xbe33ebd6	-0.17570433
160	0x3ea4e7f3	0.32208213
161	0x3f9a135f	1.2037162
162	0x3daecc16	0.0853502
163	0xbfe162e8	-1.7608309
164	0x3d73f564	0.059560195
165	0xbfa77304	-1.3081975
166	0x3e6c1cd0	0.23057866
167	0x3f75be8b	0.9599387
168	0x3e10d040	0.14141941
169	0x3f5ca835	0.86194164
170	0xbf8c435c	-1.0958056
171	0xbf920f40	-1.1410904
172	0xbec09121	-0.37610725
173	0xbe830363	-0.2558852
174	0xbe914aa7	-0.28377268
175	0x3f8fa9bb	1.1223673
176	0x400414ac	2.0637617
177	0x3e062291	0.13099124
178	0x3f6948bd	0.91126615
179	0x3dca6884	0.09883216
180	0xbf2a85ba	-0.666103
181	0x3f6ea805	0.9322513
182	0x3fd155a0	1.6354256
183	0xbf8cdc17	-1.1004666
184	0x3f3c40bb	0.7353627
185	0x40019a7e	2.0250545
186	0xc03a7b37	-2.9137704
187	0x3e435f95	0.1907943
188	0x3e2db8c2	0.16965011
189	0xbf333487	-0.70002025
190	0xbdc8288a	-0.09773357
191	0x3f03a191	0.51418406
192	0x3f279d26	0.65474164
193	0x3eed55e8	0.46354604
194	0xbf8a9158	-1.0825605
195	0x3fc36807	1.5266122
196	0x3f212937	0.62953514
197	0xbf199d06	-0.60005224
198	0xbf391ae4	-0.72306657
199	0xbe948344	-0.29006398
200	0x3f1f83fe	0.6231078
201	0x3ee1e753	0.441218
202	0x3f85664a	1.0421841
203	0x3d9bc165	0.076052465
204	0xbfb555b2	-1.4166777
205	0xbf93e189	-1.1553203
206	0xbffb14f7	-1.9615773
207	0xc001e4f8	-2.0296001
208	0x3ff9af08	1.950654
209	0x3e07a964	0.13248211
210	0xbf512458	-0.8169608
211	0x3f12209b	0.57081
212	0xbe61f37c	-0.22065538
213	0xbf42f629	-0.7615686
214	0xbda5e671	-0.08100594
215	0xbd90ddbb	-0.07073542
216	0x3eaed7e0	0.34149075
217	0xbe92073a	-0.28521138
218	0x3f6cf74c	0.92564845
219	0xbf003cb9	-0.50092655
220	0x3f9aa3f0	1.208128
221	0x3f5c910d	0.8615883
222	0x3f4b6a52	0.79459107
223	0xbf621add	-0.8832224
224	0xbf7f1aea	-0.9965044
225	0xbfbeff31	-1.4921628
226	0xbf310ebb	-0.691631
227	0xbe5c04d7	-0.21486221
228	0x3f706b83	0.9391405
229	0x3f3832dd	0.7195261
230	0xbfbd4ac0	-1.4788437
231	0xbfcf4a1d	-1.6194493
232	0x3f8b9e14	1.0907617
233	0x3f6c93af	0.9241285
234	0xbe2923c7	-0.16517554
235	0xbf90af72	-1.1303542
236	0xbf9f26e0	-1.2433739
237	0xbf21e67d	-0.6324232
238	0xbf5bde45	-0.8588603
239	0x3ecc6c53	0.39926395
240	0x3d93d3a6	0.07218103
241	0x3d0c5515	0.034260828
242	0x3e8b5579	0.27213648
243	0x3f794fc4	0.9738734
244	0x3fccf413	1.6011986
245	0x3f332584	0.6997912
246	0xbf108b8c	-0.5646293
247	0xbf7797de	-0.96716106
248	0x3f3c1c3f	0.734806
249	0xbfc9229d	-1.5713688
250	0x3f9b2f42	1.2123797
251	0x3e05d14f	0.13068126
252	0x3f471306	0.777634
253	0x3daa9891	0.08329881
254	0x4028826c	2.6329603
255	0xbd9725c9	-0.07380254

encoder.lstm.weight_ih_l0 f4 [128, 16]
0	0xbcf4170f	-0.029796151
1	0x3cdb0a2a	0.026738245
2	0xbe14f786	-0.14547548
3	0xbe11240c	-0.14173907
4	0x3c816c3d	0.015798682
5	0xbce47c8e	-0.027891424
6	0xbd94337c	-0.07236382
7	0xbd687f57	-0.056762066
8	0xbd276424	-0.040866986
9	0xbd424b02	-0.047434814
10	0xbe0e59c7	-0.13901435
11	0xbd5ade19	-0.053434465
12	0x3e142468	0.14467013
13	0xbdd0f931	-0.102037795
14	0xbd62837f	-0.055301186
15	0x3d06c273	0.032900285
16	0xbdfcbd85	-0.123408355
17	0x3e2e046d	0.16993876
18	0xbe250120	-0.1611371
19	0x3e07b1fa	0.13251486
20	0x3da4848b	0.08033093
21	0xbcde38ed	-0.027126754
22	0x3e029de5	0.12755544
23	0xbcc3e8cb	-0.023914715
24	0xbd8f55ac	-0.069987625
25	0xbd2da0e7	-0.042389777
26	0x3e1cca9a	0.15311661
27	0xbe32a2fc	-0.17444986
28	0xbd9051a8	-0.07046825
29	0xbe1e04c7	-0.1543151
30	0x3dec5387	0.11539369
31	0xbe0bb99f	-0.13645028
32	0xbdea9d69	-0.11455805
33	0xbe20fa17	-0.15720402
34	0x3d69ca7a	0.057077862
35	0x3d44217f	0.047883507
36	0xbd3f022c	-0.04663293
37	0x3dbea1a9	0.09308178
38	0x3e1a401b	0.15063517
39	0xbdc0178c	-0.09379491
40	0xbd9518b8	-0.07280105
41	0xbdc46c6d	-0.09590993
42	0x3d9ef60d	0.07761774
43	0x3d555e66	0.05209198
44	0xbdd54102	-0.1041279
45	0x3c5683a7	0.013092912
46	0xbcc31cb7	-0.023817403
47	0x3de6ef16	0.11276071
48	0xbe1526d2	-0.1456559
49	0x3e215ef2	0.15758875
50	0x3e0f18f9	0.1397437
51	0x3df967c0	0.12177992
52	0xbdb37bc2	-0.08763839
53	0x3bf0ce66	0.0073488234
54	0x3e0ea6d4	0.13930827
55	0xbe2b33aa	-0.16718927
56	0xbd56f555	-0.05248006
57	0x3c95e95e	0.018299755
58	0x3df52887	0.119706206
59	0xbe1f86ba	-0.15578738
60	0x3d0cc192	0.03436429
61	0xbc04ece2	-0.008113118
62	0x3c1e260d	0.009652627
63	0xbd5b7d71	-0.053586427
64	0xbe2f3ae1	-0.17112304
65	0x3b48a36a	0.003061498
66	0xbe32345c	-0.17402786
67	0x3d47b281	0.04875422
68	0x3daf484a	0.0855871
69	0x3dc6356d	0.09678159
70	0x3d82321c	0.06357214
71	0x3cb8af08	0.022544399
72	0xbddf439c	-0.10901567
73	0xbde13b1f	-0.109976046
74	0x3dccf158	0.1000697
75	0xbc94d2a8	-0.018166855
76	0xbddb69f6	-0.1071357
77	0x3de98a91	0.114033826
78	0x3e060490	0.13087678
79	0xbe1dee27	-0.15422879
80	0x3d8ef8f9	0.069810815
81	0x3e1101e6	0.1416088
82	0x3d197b4e	0.03747111
83	0xbe123771	-0.14278962
84	0x3e1a2872	0.15054491
85	0xbe23d839	-0.16000451
86	0x3c7c2fc7	0.01539225
87	0x3d3b9e08	0.045805007
88	0x3cbcc459	0.023042845
89	0xbe1b0869	-0.15139927
90	0x3e33fd81	0.17577173
91	0x3d8bd7ab	0.06828245
92	0xbd8c7c03	-0.06859591
93	0x3dad5f58	0.08465451
94	0x3dd62990	0.10457146
95	0x3ca2b640	0.019862294
96	0xbe14bf6d	-0.14526148
97	0x3d0fd22a	0.035112537
98	0xbbf8dbe1	-0.007594571
99	0x3de83d22	0.11339785
100	0x3dab26a0	0.083569765
101	0x3daa0c87	0.08303171
102	0x3d913a9e	0.070912585
103	0x3e1de9ac	0.1542117
104	0xbdf15801	-0.117843635
105	0x3dc9e6d8	0.09858483
106	0x3d47592d	0.04866903
107	0x3d95c04a	0.07312067
108	0x3e08ccbd	0.13359351
109	0xbd05885e	-0.032600753
110	0xbceab895	-0.028652469
111	0x3d8684a7	0.0656827
112	0xbe2acbbc	-0.16679281
113	0x3dd18ab0	0.10231531
114	0x3c1b45e6	0.009477114
115	0xbe1671b2	-0.14691809
116	0xbd2290c1	-0.03968883
117	0x3ba024e3	0.0048872097
118	0x3c0b2dc4	0.008494798
119	0x3de18ba5	0.11012963
120	0xbd942c08	-0.07234961
121	0xbda66ff5	-0.08126823
122	0xbe130892	-0.14358738
123	0xbd5bee9d	-0.053694356
124	0xbda12169	-0.078677006
125	0x3c2528ed	0.010080558
126	0x3e277c98	0.16356122
127	0xbbc9984d	-0.006152189
128	0xbdf6eb74	-0.12056628
129	0x3de795f2	0.11307897
130	0xbd60c7fb	-0.054878216
131	0x3dffdb95	0.12493054
132	0x3e189531	0.14900662
133	0xbe06b63f	-0.13155459
134	0x3cb898d8	0.02253382
135	0x3dde2ac2	0.10847999
136	0x3c05e478	0.008172147
137	0x3e09aa23	0.13443808
138	0x3dd0abda	0.10189028
139	0xbdea19b1	-0.114306815
140	0x3d0dcfff	0.03462219
141	0x3dc32c14	0.095298916
142	0xbd2b1dd5	-0.041776497
143	0xbdccbc84	-0.09996894
144	0xbe12a113	-0.14319257
145	0xbccaad55	-0.024740854
146	0xbd68ca87	-0.05683377
147	0xbd517325	-0.0511352
148	0xbd80a7a3	-0.06281974
149	0xbda79514	-0.08182731
150	0xbdc8cea1	-0.09805036
151	0x3d96ee1b	0.07369634
152	0x3d05a83b	0.03263114
153	0x3df4c127	0.119509034
154	0xbc2bbc66	-0.010481929
155	0xbdda800f	-0.106689565
156	0xbd7c0094	-0.06152399
157	0x3e1e7c81	0.15477182
158	0xbd69a244	-0.057039514
159	0x3d0eb212	0.03483779
160	0x3e1eecdd	0.15520044
161	0x3cd9417c	0.026520483
162	0xbe2f17fb	-0.17098992
163	0x3d8dcb2f	0.0692352
164	0x3dbd748d	0.09250746
165	0x3d17d2dd	0.03706633
166	0xbe2f6a63	-0.17130427
167	0xbc3ba50a	-0.011452923
168	0xbbb3a7f7	-0.0054826695
169	0xbe2e395e	-0.17014071
170	0x3dc57c11	0.096428044
171	0xbe1f5388	-0.15559208
172	0xbce892eb	-0.028390368
173	0x3de8c02a	0.113647774
174	0x3d2ae115	0.04171856
175	0xbde07bbe	-0.10961102
176	0x3b941f09	0.0045203012
177	0x3dfbc51a	0.122934535
178	0xbe173364	-0.14765698
179	0xbdd05267	-0.10171967
180	0xbdb9ed5a	-0.09078474
181	0xbcf31f07	-0.02967788
182	0xbde44f1e	-0.11147903
183	0x3dd326a4	0.103101045
184	0xbd99dc0e	-0.07512675
185	0x3d5a9e65	0.053373713
186	0x3df7c801	0.120986946
187	0x3dccd8a3	0.10002258
188	0xbe0e2641	-0.1388178
189	0xbe0fbd91	-0.14037158
190	0xbdf74ed4	-0.12075582
191	0xbd41c274	-0.047304586
192	0x3d234a87	0.039865997
193	0x3e1d6797	0.15371548
194	0x3cd5fc5f	0.026121316
195	0x3db0f440	0.08640337
196	0x3e077773	0.1322916
197	0x3d9ca319	0.07648296
198	0xbde19ade	-0.11015867
199	0x3d8cfef7	0.06884568
200	0xbdaa391a	-0.083116725
201	0x3d4d3c06	0.05010607
202	0x3cfab982	0.030606035
203	0xbad7e7d4	-0.0016472288
204	0x3bdcce44	0.006738456
205	0x3e06f165	0.13178022
206	0x3e2e9683	0.17049603
207	0x3da23d8f	0.079218976
208	0x3ca50143	0.020142203
209	0x3e3469d4	0.17618495
210	0xbd8a5be9	-0.06755812
211	0x3de2d94b	0.110766016
212	0x3d957aed	0.07298837
213	0xbe2550ea	-0.16144148
214	0x3a2bd989	0.00065555476
215	0x3d926322	0.07147814
216	0xbe0221c3	-0.12708192
217	0x3d64ef2f	0.055892166
218	0x3dc8919c	0.09793398
219	0x3e1d905b	0.15387098
220	0x3db78232	0.0896038
221	0x3d7e2a0e	0.062051825
222	0x3e1a3cea	0.150623
223	0xbd1a5e52	-0.037687607
224	0x3dedc384	0.11609557
225	0x3df4bafd	0.11949728
226	0xbdef2a02	-0.11677934
227	0x3d8a3bec	0.067497104
228	0xbdcac877	-0.09901517
229	0xbdb0e383	-0.086371444
230	0xbd0001da	-0.031251766
231	0xbcbc708a	-0.023002882
232	0xbd9a3af3	-0.07530775
233	0xbe048810	-0.12942529
234	0xbd1f4f95	-0.038894255
235	0xbcbbdaa3	-0.022931403
236	0x3df1e0a8	0.11810428
237	0xbdec373a	-0.11533971
238	0xbc63ee1f	-0.013911753
239	0xbd3ff90c	-0.04686837
240	0x3da406ee	0.08009134
241	0x3d84f7e1	0.06492592
242	0x3db71e3a	0.08941312
243	0x3d9ded49	0.07711274
244	0xbd17c521	-0.03705323
245	0x3e1edb18	0.15513265
246	0x3d0fad47	0.03507736
247	0x3db2de9d	0.08733866
248	0xbe31c70b	-0.17361085
249	0xbd8d59f6	-0.06901924
250	0x3d57e38c	0.05270724
251	0xbd9096fd	-0.07060049
252	0xbe2c5200	-0.16828156
253	0xbdd8de6e	-0.105893
254	0xbdcb4b24	-0.09926441
255	0xbdffcafc	-0.12489888

encoder.lstm.weight_hh_l0 f4 [128, 32]
0	0xbdeb900b	-0.115020834
1	0xbe13839e	-0.14405677
2	0xbdf99ebf	-0.121884815
3	0x3e2b5f1f	0.16735505
4	0x3d8c0477	0.06836789
5	0x3d76c7bf	0.060249086
6	0xbbe4ed3c	-0.0069862884
7	0x3de97ef5	0.11401168
8	0xbda326cf	-0.079663865
9	0xbdc29a36	-0.0950207
10	0x3cd2f0f3	0.02574966
11	0x3dcd9645	0.10038427
12	0xbd8eb19e	-0.069674715
13	0x3d257f7e	0.04040479
14	0x3e2d8ac5	0.16947468
15	0x3d05252f	0.032506164
16	0xbdd679da	-0.1047246
17	0xbdb6b4c8	-0.089212
18	0xbbe8e685	-0.007107558
19	0x3d959723	0.07304218
20	0xbd656c6d	-0.056011606
21	0x3e120b34	0.14262086
22	0xbe2a2c84	-0.16618544
23	0xbe0ef85d	-0.1396193
24	0x3dbf5c43	0.093437694
25	0x3daf9e9d	0.08575175
26	0x3c0aeccc	0.008479308
27	0x3dc3f93e	0.095690235
28	0xbd89da41	-0.06731082
29	0x3da0f900	0.07859993
30	0xbe2d3266	-0.16913757
31	0xbd918555	-0.07105509
32	0x3dfdc4af	0.1239103
33	0xbe18c6c3	-0.14919572
34	0xbdb26d28	-0.08712226
35	0x3e286b98	0.16447294
36	0xbdbb72de	-0.091527686
37	0xb992a5cc	-0.00027970818
38	0x3dd579ac	0.10423598
39	0xbd37770b	-0.044791263
40	0x3e25242b	0.16127078
41	0x3dad4ca2	0.08461882
42	0x3e286001	0.16442873
43	0x3e137624	0.14400536
44	0xbce16440	-0.027513623
45	0x3dfc8980	0.123309135
46	0x3dc91876	0.09819119
47	0x3df5315c	0.11972305
48	0x3e2877bd	0.16451927
49	0x3e2b96eb	0.1675679
50	0xbc0a2bce	-0.008433295
51	0x3dc41a76	0.095753595
52	0xbdcd6ee0	-0.10030913
53	0xbe1a717d	-0.15082355
54	0x3cd8b367	0.026452733
55	0x3e13f8e4	0.14450413
56	0xbd1467d6	-0.03623184
57	0x3dd65d64	0.104670316
58	0xbb620b77	-0.0034491697
59	0x3de5c0e1	0.11218429
60	0xbe2a7c29	-0.16648926
61	0x3e0723a9	0.13197197
62	0xbd0b5a10	-0.034021437
63	0x3e15d395	0.14631493
64	0x3d6823c4	0.056674734
65	0x3d1041c2	0.03521896
66	0x3d2ec244	0.042665735
67	0xbce95a62	-0.02848548
68	0x3d369e62	0.04458464
69	0xbe26461f	-0.16237687
70	0x3c9f41a4	0.01944048
71	0x3e0c0315	0.1367305
72	0x3c66b90a	0.014082203
73	0xbe31c407	-0.17359935
74	0xbc7fe1ec	-0.015617829
75	0xbe2e623d	-0.17029662
76	0x3c74c20f	0.014938845
77	0xbe18f8dc	-0.14938682
78	0x3d7f7a00	0.062372208
79	0xbdf9e24c	-0.12201366
80	0x3cdadfed	0.026718104
81	0x3b688c2a	0.0035483935
82	0xbd1bb9e7	-0.038019087
83	0xbe1d7cad	-0.15379591
84	0x3d83ec7b	0.064415894
85	0x3d501af1	0.050806943
86	0x3cb4882f	0.022037594
87	0x3ddedafb	0.10881611
88	0xbe2c86d8	-0.16848314
89	0x3e26e851	0.16299559
90	0x3d278312	0.040896483
91	0x3d2633c0	0.040576696
92	0xbdbdedc7	-0.09273868
93	0x3de7f53e	0.11326073
94	0x3e1a1cc0	0.1505003
95	0x3d853686	0.0650454
96	0xbc67e25f	-0.014153092
97	0x3dc1662f	0.09443318
98	0xbdda1243	-0.106480144
99	0x3d94d215	0.072666325
100	0xbe28e081	-0.16491891
101	0xbd88f87d	-0.066880204
102	0x3d9c6592	0.076365605
103	0x3e2c5b08	0.168316
104	0x3dfce10d	0.123476125
105	0x3e0e2f88	0.13885319
106	0xbcc1895d	-0.02362507
107	0xbe28acaf	-0.16472124
108	0xbdad338c	-0.084570974
109	0xbc16f1fe	-0.009212969
110	0xbcf5cdcd	-0.03000536
111	0x3de1c741	0.11024333
112	0xbd908d71	-0.07058228
113	0x3e04ab5c	0.12955993
114	0x3e356c81	0.17717172
115	0xbe0ba3a5	-0.13636644
116	0xbcba21a8	-0.022721127
117	0xbe03a9b5	-0.12857707
118	0xbcaa3a4a	-0.020779748
119	0xbe1a040c	-0.15040606
120	0xbda81787	-0.082076125
121	0x3e2fd19e	0.17169806
122	0xbd953ddd	-0.0728719
123	0x3e002591	0.1251433
124	0xbdd1e85c	-0.10249397
125	0xbe2dd486	-0.16975603
126	0x3dcc4c94	0.099755436
127	0xbe1cc4bf	-0.15309428
128	0x3d070c5b	0.032970767
129	0x3de0ec93	0.10982623
130	0xbdb8ce62	-0.090237394
131	0xbd44d4a2	-0.048054345
132	0x3e069cba	0.13145724
133	0xbdc33c67	-0.09533005
134	0xba75b039	-0.00093722675
135	0xbd1a645a	-0.03769336
136	0x3dca3746	0.09873824
137	0x3de725e7	0.11286526
138	0xbd1c33cf	-0.038135346
139	0x3c3155a1	0.010823638
140	0xbbd573aa	-0.0065140324
141	0x3e20a0bd	0.15686317
142	0x3d6def83	0.058089744
143	0x3de26c35	0.11055795
144	0x3d061161	0.032731418
145	0xbdd74319	-0.10510845
146	0x3debe0d0	0.11517489
147	0xbdfa3cf3	-0.122186564
148	0xbc480f4f	-0.012210681
149	0x378590d9	1.5922285e-05
150	0xbd91dfa0	-0.07122731
151	0x3e2cfd44	0.16893488
152	0xbe26fb63	-0.16306834
153	0x3dbc15aa	0.091838196
154	0xbdf5896a	-0.119891
155	0x3daf64c6	0.08564143
156	0xbe1b8c3e	-0.15190217
157	0x3d57f054	0.05271943
158	0x3d085345	0.033282537
159	0xbe0d825b	-0.13819258
160	0x3db37ab3	0.087636374
161	0xbd03cb9a	-0.03217659
162	0x3d194f7d	0.03742932
163	0x3c83b3d5	0.016076962
164	0x3d6d6527	0.057957795
165	0x3d1eec1f	0.0387994
166	0xbd05e5b7	-0.032689776
167	0xbde7d3bb	-0.11319681
168	0xbc251224	-0.010075126
169	0x3de78b28	0.11305839
170	0x3e0c8187	0.13721286
171	0xbd095cc0	-0.03353572
172	0x3c364160	0.011123985
173	0xbd749746	-0.059714578
174	0xbdd01ef0	-0.10162151
175	0x3db1a94b	0.08674868
176	0x3d38d752	0.04512722
177	0xbd91b194	-0.071139485
178	0x3d2bd11d	0.041947473
179	0x3deb4383	0.11487486
180	0x3e1b25cc	0.15151137
181	0x3dc8fe17	0.09814089
182	0xbe20df45	-0.1571017
183	0x3e0640f0	0.13110709
184	0xbe286781	-0.16445734
185	0x3e232e7e	0.15935704
186	0x3d4ce649	0.050024305
187	0xbdd220fa	-0.10260196
188	0xbdd0f5b8	-0.10203117
189	0x3e06964e	0.13143274
190	0xbd8bc78f	-0.06825172
191	0x3de3c34d	0.11121235
192	0x3cabf2fb	0.020989886
193	0x3d885e29	0.066585846
194	0x3d701f82	0.0586238
195	0x3e28b1f2	0.16474131
196	0x3dfe0648	0.12403542
197	0xbe18dbfb	-0.14927666
198	0xbe07d787	-0.13265811
199	0x3d38c71b	0.045111757
200	0x3d976a9a	0.073933795
201	0x3a7053d9	0.0009167768
202	0xbd069cf1	-0.032864515
203	0xbe136c9a	-0.14396897
204	0xbd00ec39	-0.03147528
205	0xbc944737	-0.018100364
206	0xbd8b1f71	-0.06793106
207	0x3e02f102	0.1278725
208	0xbe028f10	-0.12749887
209	0xbcffdce9	-0.031233268
210	0xbe279ad6	-0.16367659
211	0x3dd56dff	0.10421371
212	0x3dec33bd	0.11533306
213	0xbd265a61	-0.040613536
214	0x3c7466f4	0.014917124
215	0xbe255a19	-0.16147651
216	0x3e17a216	0.14807925
217	0x3d9238ee	0.07139765
218	0x3e05ca13	0.13065366
219	0xbdc58e0a	-0.096462324
220	0xbe2c48f6	-0.16824707
221	0xbdf85d75	-0.121272005
222	0xbcbe076d	-0.0231969
223	0x3e291222	0.16510823
224	0x3af14c43	0.0018409569
225	0xbe25b59e	-0.16182563
226	0x3bd80878	0.0065928064
227	0x3dd16527	0.102243714
228	0x3dac41ed	0.08411012
229	0x3e0bdca5	0.13658388
230	0x3e116c2f	0.14201425
231	0x3b9dd2a3	0.0048163696
232	0x3e26b355	0.16279347
233	0xbdbe022b	-0.09277757
234	0xbd4fa53d	-0.050694693
235	0x3de85a3a	0.11345334
236	0xbcc46998	-0.023976132
237	0x3b386847	0.0028138326
238	0x3dec670b	0.115430914
239	0xbdc88ad2	-0.09792103
240	0xbe0f8c33	-0.14018326
241	0x3e2787b1	0.16360356
242	0xbe240134	-0.16016084
243	0x3d565cbc	0.052334532
244	0xbe2c204c	-0.16809195
245	0xbd86f7f3	-0.06590261
246	0xbdd18b0e	-0.10231601
247	0xbd48175e	-0.04885041
248	0xbd6b82b7	-0.057497706
249	0x3e1af312	0.15131786
250	0x3cc4d4e3	0.024027294
251	0xbdd0d42e	-0.1019672
252	0x3d289140	0.041154146
253	0xbdcff72e	-0.10154568
254	0x3ddaa624	0.1067622
255	0x3daee705	0.08540157

encoder.lstm.bias_ih_l0 f4 [128]
0	0x3d909313	0.07059302
1	0xbe0f01db	-0.13965552
2	0x3e31977c	0.17342943
3	0xbe12bc65	-0.1432968
4	0xbdb522ff	-0.088445656
5	0x3e0a39a0	0.13498545
6	0x3d912cb3	0.07088604
7	0x3d7a9882	0.0611806
8	0x3df572be	0.11984776
9	0x3df23bcb	0.11827811
10	0xbe33df94	-0.17565757
11	0xbdbe0f16	-0.09280221
12	0xbdc0b416	-0.09409349
13	0x3d5d0907	0.053963687
14	0x3c9c3252	0.019066963
15	0xbddff08b	-0.10934552
16	0x3db0f689	0.08640773
17	0xbd6c8ade	-0.05774962
18	0x3dec85d0	0.1154896
19	0x3c3137c8	0.010816522
20	0xbcb81be6	-0.02247424
21	0xbe2a3ea2	-0.16625455
22	0x3daec460	0.08533549
23	0x3cc505ab	0.024050554
24	0xbd42d05a	-0.04756198
25	0xbd696a2c	-0.05698602
26	0x3b153315	0.0022766043
27	0x3d488381	0.048953537
28	0x3e28aff7	0.16473375
29	0x3cc44eb3	0.023963308
30	0xbdc01fd4	-0.09381071
31	0xbd96355f	-0.073343985
32	0x3ce56ba3	0.028005427
33	0xbdbec7c2	-0.093154445
34	0x3e034f5b	0.1282324
35	0xbd5578da	-0.052117206
36	0xbe2e211a	-0.17004815
37	0x3e26c371	0.16285492
38	0x3da5c98a	0.08095081
39	0xbceffc1d	-0.029295022
40	0x3ccec736	0.025241476
41	0x3d0310a6	0.0319983
42	0x3dd1f949	0.102526255
43	0x3e068aa9	0.13138832
44	0x3dd380ec	0.10327324
45	0xbdd78caf	-0.1052488
46	0x3b64635f	0.003484927
47	0x3c6f246f	0.014596089
48	0x3e2da84e	0.16958734
49	0xbad3a6b4	-0.0016147704
50	0x3d8a124f	0.06741773
51	0x3d9b132f	0.07572018
52	0x3cf13900	0.029446125
53	0xbd8de515	-0.069284596
54	0x3ca508f7	0.020145876
55	0x3d9e8907	0.0774098
56	0x3dbeaf38	0.09310764
57	0xbc72cd57	-0.014819465
58	0xbdbf8693	-0.0935184
59	0xbdbe7dd6	-0.09301345
60	0xbd5db9b9	-0.054132197
61	0x3e04e287	0.12977038
62	0xbdc377cc	-0.09544334
63	0xbd6738c5	-0.056450624
64	0xbd7bf76b	-0.061515253
65	0x3dc942fb	0.09827229
66	0xbd066a9e	-0.03281652
67	0xbdb9474e	-0.090468034
68	0x3e1e982c	0.15487736
69	0xbd2aebba	-0.041728713
70	0x3cee7203	0.0291071
71	0x3d950146	0.072756335
72	0xbde49ca1	-0.11162687
73	0xbc879f13	-0.016555345
74	0x3d18a712	0.037268706
75	0xbe195ea1	-0.14977504
76	0xbe1b75fb	-0.15181725
77	0xbdbda764	-0.09260443
78	0xbd23c9c9	-0.03998736
79	0x3dea09f0	0.11427677
80	0xbd49f0f9	-0.049302075
81	0xbd65be09	-0.056089435
82	0x3dd35632	0.10319175
83	0xbd4e9647	-0.050436284
84	0xbe028f6f	-0.12750028
85	0x3e2a3515	0.16621812
86	0x3d352569	0.04422513
87	0xbc452097	-0.012031696
88	0x3dc84f89	0.09780795
89	0xbd6785b6	-0.056524
90	0x3e01db74	0.12681371
91	0xbd21ba5b	-0.039484363
92	0xbe319e66	-0.1734558
93	0x3e1bdd43	0.15221123
94	0xbda58d01	-0.08083535
95	0xbd002587	-0.03128579
96	0xbd3381a3	-0.043824803
97	0x3e16ddf0	0.147331
98	0x3dfed370	0.12442672
99	0x3d8fb27a	0.070164636
100	0x3d8b62ae	0.06805931
101	0x3de8f809	0.11375434
102	0x3d93aac0	0.07210302
103	0x3dfc6435	0.123238005
104	0x3e320091	0.17383029
105	0xbc38d081	-0.01128018
106	0xbdac4ed5	-0.084134735
107	0x3e0b44c3	0.1360045
108	0x3d3073a7	0.043079045
109	0xbdbfc33e	-0.09363411
110	0xbe1b8b43	-0.15189843
111	0x3e19b384	0.15009886
112	0x3d4a64ec	0.049412653
113	0xbe274eb8	-0.16338623
114	0x3e027d1a	0.12743035
115	0xbd8cd905	-0.06877331
116	0x3d5f6c97	0.05454692
117	0xbe09b6b2	-0.13448599
118	0x3d8e7eb6	0.06957762
119	0xbe207e9f	-0.15673302
120	0xbdd30d93	-0.103053235
121	0x3e2348bb	0.15945713
122	0xbc76c351	-0.0150612155
123	0xbe00f71f	-0.12594269
124	0xbd879907	-0.066209845
125	0xbe20de6b	-0.15709846
126	0xbe2204e2	-0.15822175
127	0xbc8d63ec	-0.01725956

encoder.lstm.bias_hh_l0 f4 [128]
0	0xbe24ccb0	-0.16093707
1	0xbe1ddf1b	-0.15417139
2	0xbd98d2af	-0.0746206
3	0x3c70bdcd	0.0146936895
4	0xbd274de8	-0.04084578
5	0xbdc49a7d	-0.09599779
6	0xbd40657f	-0.046971794
7	0xbd33d9ca	-0.04390887
8	0xbdca1277	-0.09866803
9	0x3e08b937	0.13351904
10	0xbe231390	-0.15925431
11	0x3dc2f2d9	0.09518976
12	0xbd95dc27	-0.07317381
13	0x3e20a881	0.15689279
14	0xbe2a87e2	-0.16653398
15	0x3da02059	0.0781867
16	0xbe13e2ae	-0.1444194
17	0x3b84c583	0.0040518655
18	0xbdfb2f8a	-0.12264927
19	0xbdafa9ee	-0.085773334
20	0xbe2290a3	-0.15875487
21	0xbd74b18d	-0.059739638
22	0x3d5c5659	0.053793285
23	0xbe1c8d1e	-0.15288207
24	0xbd2b4f96	-0.041823946
25	0x3dfeea99	0.1244709
26	0xbe090dca	-0.13384166
27	0xbe094548	-0.13405335
28	0xbd71dea3	-0.059050214
29	0x3e23da48	0.16001236
30	0xbcee8cb2	-0.029119823
31	0xbc66709c	-0.014064934
32	0xbdb40d1a	-0.087915614
33	0xbe07ba15	-0.13254578
34	0xbe2741d0	-0.16333699
35	0xbd935f9d	-0.07195971
36	0x3c764547	0.015031165
37	0x3e35091f	0.1767926
38	0x3aa5680e	0.0012619512
39	0x3e1acc82	0.15117076
40	0x3aaf5fe0	0.0013380013
41	0x3e26a476	0.16273674
42	0x3dbba23d	0.09161804
43	0xba8223fc	-0.0009928937
44	0x3d5bae90	0.053633273
45	0x3df4ab87	0.11946779
46	0xbcd30964	-0.025761314
47	0x3cd455c7	0.025919808
48	0x3dd7fa8c	0.10545835
49	0x3c9579e5	0.0182466
50	0xbda64c50	-0.08120024
51	0xbe31656e	-0.17323849
52	0x3c3b906f	0.01144801
53	0xbc324918	-0.010881685
54	0xbe345e3e	-0.17614076
55	0x3d3e23cf	0.04642087
56	0x3d8689ec	0.06569275
57	0x3dbea7af	0.09309327
58	0x3acf0137	0.0015793209
59	0x3e3366f8	0.17519748
60	0x3d4a742d	0.0494272
61	0xbc83ec4a	-0.016103882
62	0x3dc23f3b	0.094847165
63	0x3e28af2f	0.16473077
64	0x3dac5146	0.08413939
65	0xbe00a51c	-0.12562984
66	0xbe335dc1	-0.17516233
67	0xbd910e08	-0.070827544
68	0x3d510dd1	0.051038567
69	0xbdcfa038	-0.10137981
70	0x3df6e0cd	0.12054596
71	0x3cd01d19	0.0254045
72	0x3c4b108c	0.012394082
73	0xbe057a3b	-0.13034908
74	0xbe0ad8d1	-0.13559271
75	0xbdea8f9e	-0.11453174
76	0x3d979234	0.07400933
77	0x3c3f8574	0.011689533
78	0xbb581812	-0.0032973331
79	0xbe169e15	-0.14708741
80	0x3e16eaf8	0.14738071
81	0xbd912fde	-0.07089208
82	0x3c6e7950	0.01455529
83	0xbb8d60b7	-0.004314508
84	0xbe06ea95	-0.13175423
85	0xbd4af574	-0.04955049
86	0xbd96b2af	-0.073583
87	0xbe2bba29	-0.16770233
88	0x3d751a6e	0.05983966
89	0xbbb6082d	-0.005555174
90	0xbdaea18d	-0.08526907
91	0xbdddd6c3	-0.10831978
92	0xbe250abb	-0.16117375
93	0x3de08ec6	0.10964732
94	0xbe20fd38	-0.15721595
95	0xbde102b3	-0.10986843
96	0x3c0510f4	0.008121718
97	0x3ddf362f	0.108990066
98	0x3e0bd906	0.13657007
99	0xbd85bb84	-0.065299064
100	0x3e1c4a17	0.15262638
101	0x3cfcc7ab	0.030856928
102	0x3cd97e82	0.026549581
103	0xbe2e4d1f	-0.17021607
104	0x3d3bdf4b	0.045867246
105	0x3d3cb938	0.046075076
106	0xbcbe41e9	-0.023224788
107	0x3ce25c16	0.0276318
108	0xbd78c413	-0.060733866
109	0x3d6d73b9	0.05797169
110	0x3bb1b585	0.00542325
111	0x3a9b2f06	0.0011839576
112	0xbdd82ed8	-0.1055581
113	0x3d7440fa	0.05963228
114	0xbd8e342d	-0.069435455
115	0x3da9c560	0.082895994
116	0xbd0deca9	-0.034649525
117	0xbd5e5b7f	-0.054286476
118	0x3d6a7fac	0.057250664
119	0x3d70f946	0.058831476
120	0xbe264d94	-0.16240531
121	0xbd29a00c	-0.0414124
122	0xbe0ea7dc	-0.13931221
123	0xbc3f8149	-0.011688539
124	0xbc5aa1c3	-0.013344231
125	0xbdef3171	-0.11679352
126	0x3db8da24	0.09025982
127	0x3ddadf95	0.10687176

policy.net.0.weight f4 [128, 32]
0	0xbdf30cc6	-0.11867671
1	0x3e0b5867	0.13607942
2	0x3d48807f	0.04895067
3	0xbe2e54bb	-0.1702451
4	0x3ced01b8	0.028931484
5	0xbda0b55e	-0.07847093
6	0x3dcf2ee2	0.10116364
7	0x3dd4c03b	0.103882276
8	0x3e1b8fa1	0.15191509
9	0xbe0bb712	-0.13644055
10	0xbdb2cf3b	-0.08730932
11	0xbda4fcdb	-0.08056041
12	0xbdd84f7b	-0.10562035
13	0x3e07cf2d	0.13262625
14	0x3db16087	0.08660989
15	0xbdbb2fc0	-0.09139967
16	0xbcfe6581	-0.03105426
17	0x3d8bb99a	0.0682251
18	0xbe0480d4	-0.12939769
19	0xbd5914fc	-0.052998528
20	0x3e00ccb9	0.12578095
21	0x3a143190	0.00056531373
22	0xbda02f5a	-0.078215316
23	0x3e18f2df	0.14936398
24	0x3c5a6d53	0.013331729
25	0x3e2d93ea	0.16950956
26	0xbd9b3399	-0.07578201
27	0xbd88c3a8	-0.066779435
28	0xbca6add3	-0.020346558
29	0xbdab559d	-0.08365939
30	0xbdc71a79	-0.09721846
31	0xbdd6a9aa	-0.104815796
32	0x3d767531	0.060170356
33	0x3dbfe858	0.09370488
34	0xbb361cce	-0.0027788165
35	0x3d876d89	0.06612689
36	0xbe31da14	-0.17368346
37	0x3d4fd4a3	0.050739896
38	0xbd4a9647	-0.049459722
39	0x3e22ce59	0.15899028
40	0x3e062d2d	0.1310317
41	0x3d8732e9	0.06601507
42	0xbda490c4	-0.08035424
43	0x3da5058d	0.08057699
44	0xbd6ab14d	-0.057297993
45	0xbcb793df	-0.022409378
46	0x3dbd8d29	0.0925544
47	0x3da74e84	0.081692725
48	0x3dd9662c	0.10615191
49	0xbdeaab2e	-0.11458431
50	0x3e1c07e7	0.1523739
51	0x3cb33c04	0.021879204
52	0xbdb94689	-0.09046657
53	0xbdf957b6	-0.12174933
54	0x3d08e6e7	0.03342333
55	0x3dec2627	0.115307145
56	0x3e18bf2f	0.14916681
57	0xbe310b01	-0.17289354
58	0x3dfed268	0.124424756
59	0x3d515339	0.051104758
60	0xbdd2e701	-0.10297967
61	0x3dfc3793	0.123152874
62	0x3e207587	0.15669833
63	0xbc83df7f	-0.016097782
64	0xbd8e702f	-0.06954991
65	0x3daf1365	0.08548621
66	0x3d2f4833	0.042793464
67	0xbc95d8b0	-0.018291801
68	0x3e1b1edd	0.15148492
69	0xbdb8d0e3	-0.09024217
70	0x3d31a2c0	0.0433681
71	0x3ddabf57	0.106810264
72	0xbd4fef4c	-0.05076532
73	0x3e0472ef	0.12934469
74	0x3e071e82	0.13195232
75	0x3e330c1a	0.17485085
76	0x3d119f38	0.035552233
77	0x3d8b71d7	0.068088226
78	0xbd6da3a3	-0.058017384
79	0x3c2dfd5d	0.010619489
80	0xbd238da5	-0.039930005
81	0x3db99820	0.09062219
82	0xbda96ae4	-0.08272341
83	0x3e02c014	0.12768584
84	0x3dd8b99a	0.10582276
85	0x3e0af44b	0.13569753
86	0xbe1ea4f7	-0.15492617
87	0x3d38854f	0.045049008
88	0xbda0c0fd	-0.078493096
89	0x3dff81ce	0.1247593
90	0xbdb82d31	-0.089929946
91	0x3e170ddf	0.14751385
92	0xbdb3c664	-0.087780744
93	0xbc44f4d5	-0.012021263
94	0xbd6ca1f0	-0.057771623
95	0xbdc41c9d	-0.0957577
96	0xbc74aaf1	-0.014933334
97	0xbd768e89	-0.060194526
98	0xbce3daf2	-0.027814362
99	0xbce5068c	-0.027957223
100	0x3d897d93	0.067134045
101	0xbd031ece	-0.0320118
102	0xbb266376	-0.0025388873
103	0xbd673dab	-0.056455296
104	0xbd4ee6af	-0.050512966
105	0xbb8e9767	-0.0043515447
106	0x3d990097	0.07470816
107	0x3d5d8fbf	0.054092165
108	0xbe0fbef1	-0.14037682
109	0x3d01d0c6	0.031693242
110	0x3e002d7a	0.12517348
111	0xbe1d82f4	-0.15381986
112	0x3d59cf67	0.05317631
113	0x3d96d2f0	0.07364452
114	0x3e295e05	0.16539772
115	0x3e14e0e5	0.14538915
116	0x3e2bde7b	0.16784088
117	0xbe14e1c1	-0.14539243
118	0x3d8e316d	0.06943021
119	0xbe02982e	-0.12753364
120	0x3e339c1b	0.17540018
121	0xbe2970f8	-0.16547
122	0x3d9981b4	0.07495442
123	0x3d9bc468	0.07605821
124	0x3d39c1e7	0.045350935
125	0x3d895c71	0.06707085
126	0x3d818320	0.06323838
127	0x3d95cb54	0.073141724
128	0x3d010064	0.031494513
129	0xbc82f480	-0.015985727
130	0x3e011421	0.12605335
131	0xbe2f8262	-0.17139581
132	0xbdba2338	-0.09088749
133	0x3e1e5a91	0.15464236
134	0x3d331c58	0.043728203
135	0xbdb59733	-0.088667296
136	0xbe226eaf	-0.15862535
137	0xbdbfbee9	-0.09362585
138	0x3df6d972	0.12053193
139	0xbe14f190	-0.14545274
140	0xbe22d199	-0.15900268
141	0xbd22f9a4	-0.039788857
142	0xbe1cff7f	-0.15331839
143	0x3dccfd02	0.10009195
144	0x3de85876	0.113449976
145	0xbe1e6b65	-0.15470655
146	0x3c5fd5e0	0.013661832
147	0x3e12c31f	0.14332245
148	0x3cd5bb90	0.026090413
149	0xbe2772ce	-0.16352388
150	0x3dd772fa	0.10519977
151	0x3e1e2d8f	0.15447067
152	0xbe2e3aa0	-0.17014551
153	0xbd8b7824	-0.068100244
154	0x3e2888ad	0.16458388
155	0x3e0fead1	0.14054419
156	0x3d6cb1fc	0.057786927
157	0xbda22d6c	-0.0791882
158	0x3e0d52e1	0.13801147
159	0x3dfbe106	0.12298779
160	0x3d1b0c4c	0.037853524
161	0x3cd63d49	0.02615227
162	0xbe1d2c5e	-0.15348956
163	0x3e07c2e1	0.13257934
164	0x3dd0dbdd	0.101981856
165	0xbe1b6e63	-0.15178828
166	0x3da86e7c	0.08224198
167	0xbc65e47a	-0.014031524
168	0x3df38675	0.1189088
169	0xbd36ed62	-0.04465998
170	0xbcfe5ef1	-0.031051131
171	0x3e2b79eb	0.16745727
172	0x3e0c855a	0.13722745
173	0xbe0ef8e2	-0.13962129
174	0xbc4d7a43	-0.0125413565
175	0xbe205cfb	-0.15660469
176	0xbda31140	-0.079622746
177	0x3d8f59b0	0.069995284
178	0xbdc46ebb	-0.09591433
179	0x3e138241	0.14405157
180	0xbc654522	-0.013993533
181	0xbe30c5f4	-0.17263013
182	0x3e004542	0.1252642
183	0x3d844bea	0.06459792
184	0x3c50321d	0.01270726
185	0xbe201ef3	-0.15636806
186	0x3d827056	0.06369083
187	0x3db0b75d	0.08628724
188	0xbd9595c5	-0.07303957
189	0xbe2cc2e7	-0.16871224
190	0xbe0a6929	-0.13516678
191	0x3df9034a	0.121588305
192	0x3dee8d46	0.116480395
193	0x3d252b6e	0.04032462
194	0x3e2078a8	0.15671027
195	0xbe2ab856	-0.16671881
196	0x3e0c7ab0	0.13718677
197	0xbda12e72	-0.07870187
198	0x3d8cd687	0.06876855
199	0x3da67e4e	0.081295595
200	0xbe31c798	-0.17361295
201	0xbd2e2842	-0.04251886
202	0x3e3449c8	0.1760627
203	0x3d8e39ac	0.06944594
204	0xbe10a073	-0.14123707
205	0xbe2aa1eb	-0.1666333
206	0x3c9f7da6	0.019469094
207	0x3d4bbbc9	0.049739633
208	0xbc163901	-0.009168864
209	0x3ce64ee2	0.028113786
210	0x3b46e0ba	0.003034635
211	0x3e092de9	0.1339642
212	0xbdf3c9cf	-0.11903726
213	0x3cfab542	0.030604009
214	0x3dfaf147	0.12253051
215	0x3e30c928	0.17264235
216	0x3d9b3d84	0.075800925
217	0x3e2c2fec	0.16815156
218	0xbd964bc5	-0.07338671
219	0x3d7a14af	0.06105488
220	0xbdfc1620	-0.123089075
221	0xbe321747	-0.17391692
222	0x3e045378	0.12922466
223	0xbe2c92f9	-0.1685294
224	0x3dac06a6	0.083997056
225	0x3e30701d	0.17230268
226	0x3dff2bd2	0.1245953
227	0x3e18b41d	0.14912458
228	0xbe000343	-0.12501244
229	0x3da7c82a	0.08192475
230	0xbc8543c0	-0.016267657
231	0xbdcf6399	-0.101264186
232	0x3de1968e	0.11015044
233	0xbe0ffc3a	-0.1406106
234	0xbe2d7b07	-0.16941462
235	0xbd26517c	-0.040605053
236	0xbe30234a	-0.17200962
237	0x3dc684aa	0.096932724
238	0xbd909a47	-0.07060676
239	0x3da158ba	0.078782514
240	0x3c6b4b70	0.014361247
241	0x3cb74590	0.022372037
242	0x3daf332a	0.08554681
243	0xbdb0d8ee	-0.08635126
244	0x3e0e4361	0.1389289
245	0xbe21d192	-0.15802601
246	0xbcea8370	-0.028627127
247	0xbdca9eb3	-0.09893551
248	0x3cfee8d0	0.031116873
249	0x3e049fdf	0.12951611
250	0xbe0bd56f	-0.13655637
251	0x3e238ecb	0.1597244
252	0xbd0e7b98	-0.034785837
253	0x3cda6280	0.026658297
254	0x3b782400	0.0037863255
255	0x3e16be11	0.14720942

policy.net.0.bias f4 [128]
0	0x3db608cc	0.088883966
1	0x3dddaea0	0.10824323
2	0x3d04a999	0.032388303
3	0x3e22b28c	0.15888423
4	0xbe0e1fba	-0.1387929
5	0xbcd36585	-0.025805244
6	0xbdf13122	-0.117769495
7	0xbe292d70	-0.1652124
8	0x3d85abe4	0.06526926
9	0x3cf2ad0c	0.02962353
10	0x3e07057e	0.13185689
11	0xbdb60f6a	-0.08889659
12	0x3d9045ec	0.070445865
13	0x3c3b3f0b	0.011428605
14	0x3d5effe9	0.054443274
15	0xbc183203	-0.0092892675
16	0x3b47884f	0.0030446236
17	0x3dafbbd8	0.0858075
18	0x3d6f243f	0.058384176
19	0xbdcbe516	-0.09955804
20	0xbdf8f304	-0.121557266
21	0xbd847858	-0.06468266
22	0x3e01521c	0.12628978
23	0xbd965f1a	-0.07342358
24	0xbdc7e4b0	-0.097604156
25	0xbe21afaf	-0.15789674
26	0xbe1c8c52	-0.15287903
27	0xbd5488dd	-0.051888335
28	0xbd022651	-0.031774823
29	0x3c7f150d	0.015568984
30	0x3e080288	0.13282216
31	0xbc525c15	-0.012839337
32	0xbddc63fc	-0.10761258
33	0xbc800cfc	-0.015631191
34	0x3cc70fda	0.02429955
35	0x3d9ea23f	0.0774579
36	0xbd2f5272	-0.042803235
37	0xbd65f1fa	-0.05613897
38	0x3da54e74	0.08071604
39	0x388bb578	6.661838e-05
40	0xbd904f65	-0.07046393
41	0x3de03208	0.10947043
42	0x3de5fdbc	0.112300366
43	0xbdc9d9b5	-0.098559774
44	0x3c9bc503	0.019014841
45	0x3e2236f0	0.1584127
46	0x3cdc825e	0.026917633
47	0xbdd6ed2a	-0.10494454
48	0x3df53ccd	0.119744875
49	0xbd653035	-0.055954177
50	0xbe247a68	-0.1606232
51	0xbd09d6f1	-0.03365225
52	0x3d1ec519	0.038762186
53	0xbe109308	-0.14118588
54	0xbbae70c4	-0.0053235013
55	0xbc137db4	-0.009002138
56	0xbdc9ee38	-0.0985989
57	0xbd1b07ef	-0.037849363
58	0x3dcc6075	0.09979335
59	0xbe2ad705	-0.16683586
60	0x3e3178bd	0.17331214
61	0x3e1bd237	0.1521691
62	0x3dc46631	0.09589804
63	0xbe321ba4	-0.17393357
64	0xbdb5f593	-0.0888473
65	0xbd9a4a58	-0.07533711
66	0x3de3ea39	0.11128659
67	0xbe318b9e	-0.17338416
68	0xbe295cdf	-0.16539334
69	0x3d8d1c76	0.06890194
70	0xbde4aa55	-0.11165301
71	0xbd321838	-0.043480128
72	0x3d01b5a7	0.031667378
73	0x3dcbcf17	0.09951609
74	0xb98148e1	-0.00024659096
75	0xbe23e61c	-0.16005749
76	0xbd3a200d	-0.045440722
77	0x3ccb2eba	0.024802554
78	0x3dee34d0	0.11631167
79	0x3e165350	0.14680219
80	0x3c3516cc	0.0110527985
81	0x3ceeb406	0.029138576
82	0x3dd546f8	0.10413927
83	0x3d1acf3d	0.037795294
84	0xbc93975c	-0.01801651
85	0xbd317d14	-0.043332174
86	0xbdf3036f	-0.11865889
87	0xbe1083ce	-0.1411278
88	0x3d91de60	0.07122493
89	0xbcfa83a2	-0.030580346
90	0xbd6a1afa	-0.057154633
91	0x3e2a6db8	0.16643417
92	0x3e1ce4b1	0.15321614
93	0xbd4efc5c	-0.050533637
94	0x3e157b56	0.1459783
95	0xbdc77e6a	-0.097409084
96	0x3e23fe90	0.16015077
97	0xbcee067a	-0.029055823
98	0xbbbc5257	-0.0057471204
99	0x3d59edaf	0.05320519
100	0x3d583697	0.052786436
101	0xbdd9a063	-0.106262945
102	0x3e16dce8	0.14732707
103	0xbe180048	-0.14843857
104	0x3c04c7d3	0.008104282
105	0x3e257b1a	0.16160241
106	0x3cc66fee	0.024223294
107	0xbdc06a5c	-0.093952864
108	0xbe05df8f	-0.13073562
109	0x3e100546	0.14064512
110	0xbdffdaf9	-0.124929376
111	0x3d38cb85	0.045115966
112	0x3de160f8	0.110048234
113	0xbd33149f	-0.043720838
114	0x3e0df948	0.13864625
115	0x3c214d8a	0.009845147
116	0xbd886a03	-0.06660845
117	0xbe13cefb	-0.14434426
118	0xbd6e4f2a	-0.058180965
119	0x3dfef7fc	0.12449643
120	0x3e2e3974	0.17014104
121	0x3df23e17	0.11828249
122	0xbe1a7567	-0.15083848
123	0x3e2558ca	0.16147152
124	0x3e277c04	0.16355902
125	0x3e0fd11c	0.14044613
126	0x3cd4e076	0.025985938
127	0xbde663bc	-0.112494916

policy.net.2.weight f4 [5, 128]
0	0xbcf4a041	-0.029861571
1	0xbc0e3605	-0.008679871
2	0x3cba69e2	0.022755567
3	0x3d864715	0.065565266
4	0xbce13182	-0.027489427
5	0xbc9324d4	-0.017961897
6	0x3a76e31a	0.0009417996
7	0x3d9af2e7	0.07565861
8	0xbd33e153	-0.043916058
9	0xbc00bbed	-0.007857305
10	0x3cf2c725	0.029635975
11	0x3d8d385a	0.06895514
12	0xbd5c4d6c	-0.053784773
13	0x3c3313ae	0.010929985
14	0x3d7146d7	0.05890545
15	0xbd3dff20	-0.046385884
16	0x3d8a1866	0.06742935
17	0xbc5c31ad	-0.013439578
18	0x3b89a926	0.0042010723
19	0x3d715af9	0.05892465
20	0x3d4d5c3e	0.050136797
21	0xbc20d9f5	-0.00981759
22	0x3d9ddb0b	0.07707795
23	0x3d71dbf6	0.05904766
24	0xbb65adb8	-0.0035046171
25	0x3d85868b	0.06519803
26	0xbd8207ea	-0.06349166
27	0xbc228ee9	-0.009921768
28	0xbd459c9b	-0.048245054
29	0xbd8857aa	-0.066573456
30	0xbc5072ad	-0.012722653
31	0xbd97390a	-0.07383926
32	0xbd2464d7	-0.04013523
33	0xbd3a9080	-0.045547962
34	0x3d8009a7	0.06251841
35	0xbcabbd63	-0.02096433
36	0x3cb194c4	0.021677382
37	0xbd2ef5ef	-0.04271501
38	0xbbcf5f8b	-0.0063285283
39	0xbd474c23	-0.048656594
40	0xbc9bb594	-0.019007482
41	0x3d847a0b	0.0646859
42	0x3da6d47f	0.08145999
43	0xbd78d13c	-0.060746416
44	0xbc80b636	-0.015711885
45	0x3d6fb9cf	0.05852681
46	0xbd1ef4f2	-0.038807817
47	0xbc38678c	-0.011255156
48	0x3cc66aad	0.024220789
49	0x3d3ea314	0.046542242
50	0xbd5c69bd	-0.053811777
51	0x3d901d07	0.070367865
52	0x3c76ab74	0.015055526
53	0x3b973ad0	0.0046151653
54	0x3c98a822	0.01863486
55	0xbd204f92	-0.039138384
56	0xbd604a17	-0.054758158
57	0x3cd818b0	0.02637896
58	0x3d68a023	0.056793343
59	0x3db13581	0.08652783
60	0x3c7da15b	0.015480365
61	0xbd965bf2	-0.07341756
62	0xbcffdf8d	-0.031234527
63	0xbd7b3d24	-0.061337605
64	0x3d96ed09	0.073694296
65	0xbc95321d	-0.018212372
66	0xbd30f34e	-0.043200783
67	0x3d3b34f2	0.04570479
68	0x3c920334	0.017823793
69	0x3d91e881	0.07124425
70	0xbd8c815b	-0.0686061
71	0x3b22e9e0	0.0024858639
72	0x3d5a2cff	0.053265568
73	0xbd89925e	-0.067173705
74	0x3c95a58c	0.018267415
75	0xbd289ae7	-0.04116335
76	0xbd8e4cc2	-0.06948234
77	0xbcdb7f36	-0.026794057
78	0xbc6b783d	-0.014371929
79	0xbc728be5	-0.014803861
80	0xbda96121	-0.08270479
81	0xbc8f015e	-0.017456707
82	0xbdad174e	-0.08451711
83	0x3d9ff639	0.07810635
84	0x3b9b17cc	0.0047330614
85	0x3caf8bd6	0.021428984
86	0xbd8fd868	-0.07023698
87	0x3c44b1d0	0.012005284
88	0xbd6cb770	-0.057792127
89	0xbd436059	-0.047699306
90	0xba575ecc	-0.0008215725
91	0x3d8b873f	0.068129055
92	0x3d97a2cb	0.07404097
93	0xbc15d0df	-0.009144037
94	0xbdb42bf8	-0.08797449
95	0xbd629bfa	-0.055324532
96	0xbd4869d6	-0.048929058
97	0xbd0b62d4	-0.034029797
98	0xbc570f7b	-0.013126249
99	0xbda32bdb	-0.07967349
100	0xbc3bd943	-0.011465373
101	0x3d924983	0.071429275
102	0x3d867295	0.065648235
103	0x3d07b1a7	0.033128407
104	0x3d149a73	0.036280107
105	0x3d16f03f	0.03685021
106	0xbd8e9ca2	-0.06963469
107	0xbd7d7255	-0.061876614
108	0xbd8f640c	-0.07001504
109	0xbcdbabaf	-0.026815264
110	0xbd96b3cb	-0.073585115
111	0x3d851f04	0.065000564
112	0xbd8b40dd	-0.06799481
113	0xbd46e7ba	-0.048560835
114	0xbd4c8019	-0.04992685
115	0x3d7f979f	0.062400457
116	0xbd2b71e8	-0.041856676
117	0x3d5cedbe	0.053937666
118	0xbcab6e00	-0.020926476
119	0x3d720307	0.05908492
120	0xbdacc3ef	-0.08435809
121	0xbdac631f	-0.08417343
122	0x3d6dcda7	0.058057453
123	0xbd0c534a	-0.03425912
124	0xbc84b5a3	-0.016199892
125	0x3d3653c3	0.044513475
126	0xbd15e726	-0.036597393
127	0xbd330ba1	-0.043712262
128	0xbd0b1c63	-0.03396262
129	0xbc9d01ea	-0.019165952
130	0xbd17a758	-0.037024826
131	0xbd6c7996	-0.05773314
132	0x3da02b99	0.078208156
133	0x3d75bc1a	0.05999384
134	0x3c0fa900	0.00876832
135	0x3d81fbdb	0.06346866
136	0x3cfb533d	0.03067934
137	0x3d67ec7c	0.056622013
138	0x3d31c3ad	0.0433995
139	0xbd14774c	-0.036246583
140	0xbd12747d	-0.035755623
141	0x3d8af41c	0.067848414
142	0xbc5f0530	-0.013612077
143	0x3d900240	0.07031679
144	0x3d98f303	0.07468226
145	0x3d801dea	0.06255706
146	0x3d108b8b	0.03528933
147	0xbd915a5a	-0.07097311
148	0xbd49b5e3	-0.049245726
149	0x3d9146d2	0.07093586
150	0x3d8e868b	0.06959256
151	0xbbb8ae21	-0.005635992
152	0x3d56f5d6	0.05248054
153	0x3cc62178	0.024185881
154	0xbc509af8	-0.01273226
155	0x3d0c3272	0.034227796
156	0x3bab9d3d	0.00523725
157	0x3d377919	0.044793222
158	0x3d4fc415	0.050724108
159	0x3d224fd9	0.03962693
160	0xbb9640f0	-0.004585378
161	0xbd83c000	-0.064331055
162	0xbd27c2ef	-0.040957388
163	0x3c2ff9c5	0.010740702
164	0xbd812b0e	-0.0630704
165	0xbc14e238	-0.009087138
166	0xbd8ccae2	-0.06874634
167	0xbd454a9f	-0.048166867
168	0xbd9ad4c9	-0.07560117
169	0xbd7d1a17	-0.06179246
170	0xbdb259ce	-0.08708535
171	0xbcf96181	-0.030442001
172	0x3d7089eb	0.05872528
173	0x3c3904b5	0.011292626
174	0x3c5decef	0.013545259
175	0x3c1de196	0.009636303
176	0x3daa16a7	0.08305102
177	0xbd808611	-0.06275571
178	0xbce98ffa	-0.028511036
179	0x3cf348b5	0.029697755
180	0xbcc6e1ca	-0.024277586
181	0xbd93d874	-0.072190195
182	0x3cb4b1cd	0.022057438
183	0xbcdfad2d	-0.027304256
184	0x3d7a13c2	0.061054
185	0xbd0412fb	-0.032244664
186	0xbd1ed553	-0.03877766
187	0x3dab3071	0.08358849
188	0xbcc3f5d6	-0.023920935
189	0xbd85b491	-0.06528581
190	0x3cbc8e1e	0.023016986
191	0x3d9f27cf	0.07771265
192	0x3d8e2f71	0.069426425
193	0xbd097302	-0.033556946
194	0xbd321644	-0.043478265
195	0xbd96b12f	-0.07358014
196	0xbd92b9f4	-0.07164374
197	0x3cf99aea	0.030469377
198	0xbc97bf48	-0.018523827
199	0xbc0076f8	-0.007840864
200	0x3d89c828	0.0672763
201	0xbcf6e811	-0.030139955
202	0x3d7c77c7	0.061637666
203	0x3d837ed9	0.06420679
204	0xbd9309fc	-0.07179639
205	0xbd2201de	-0.039552562
206	0xbdb26b4a	-0.0871187
207	0xbd665d25	-0.056241173
208	0x3c6bd1bf	0.014393269
209	0x3c53db9b	0.012930776
210	0xba5475e3	-0.00081047247
211	0xbd242155	-0.04007085
212	0x3da6ef76	0.08151142
213	0x3d0037da	0.031303264
214	0xbd84abef	-0.06478106
215	0xbd51d34f	-0.05122691
216	0x3d9c655d	0.07636521
217	0x3cd8532b	0.026406845
218	0x3d54dcde	0.051968448
219	0x3ce05742	0.027385358
220	0x3d829c13	0.06377425
221	0xbc337c3d	-0.010954914
222	0xbda95b6f	-0.08269393
223	0xbcff27b3	-0.03114686
224	0xbd14a3a5	-0.036288876
225	0x3c85e023	0.016342228
226	0x3c806981	0.015675308
227	0xbbf6c2c8	-0.007530544
228	0xbb4985a2	-0.0030749817
229	0x3da06c14	0.07833114
230	0xbceacfa6	-0.028663468
231	0xbd3207d8	-0.04346451
232	0xbd3c5427	-0.04597869
233	0xbd876a89	-0.06612117
234	0x3b40c32f	0.0029413213
235	0xbcd8337e	-0.02639174
236	0xbd45d4a8	-0.048298508
237	0xbcdf0d07	-0.027227892
238	0x3d3a57c4	0.045493856
239	0xbc5225d9	-0.012826406
240	0x3d919051	0.07107604
241	0x3d65735f	0.05601823
242	0x3d384db9	0.044995997
243	0xbd0079c6	-0.031366132
244	0x3db01b80	0.08598995
245	0xbcb46362	-0.022020046
246	0x3d541530	0.05177802
247	0xbd5b1498	-0.053486437
248	0xbd130720	-0.035895467
249	0xbd2a3426	-0.04155364
250	0xbd8c9b8d	-0.068656065
251	0xbd73ee31	-0.05955333
252	0x3d56ea7d	0.05246972
253	0x3d9eebac	0.077597946
254	0x3da09904	0.078416854
255	0xbcf2224b	-0.029557368

policy.net.2.bias f4 [5]
0	0xba54eddc	-0.0008122602
1	0xbcd15e61	-0.025557699
2	0x3bb7d60b	0.0056102327
3	0x3d7146cd	0.05890541
4	0x3a84f594	0.0010143989

exp_avg f4 [900, 16]
0	0x35ddf4ea	1.6537062e-06
1	0xb7a39e9e	-1.9504976e-05
2	0x3578db2f	9.2706154e-07
3	0xb712c2bb	-8.747617e-06
4	0x37451c04	1.1748638e-05
5	0x37ba31ec	2.2196175e-05
6	0x38038737	3.1358762e-05
7	0xb69baace	-4.6392443e-06
8	0xb6482ca6	-2.9828311e-06
9	0x37b69c70	2.1768938e-05
10	0xb62fb417	-2.6181858e-06
11	0x370dd963	8.454869e-06
12	0xb6062199	-1.9987112e-06
13	0x367dfdb3	3.784761e-06
14	0x36b19c56	5.293211e-06
15	0xb69f900e	-4.7553394e-06
16	0x3727a1f3	9.991682e-06
17	0xb74168f3	-1.1528132e-05
18	0x36036f67	1.9585366e-06
19	0xb63bd9f0	-2.7992028e-06
20	0x3704bd42	7.911878e-06
21	0x366558d3	3.4175362e-06
22	0x36e1e70d	6.7324204e-06
23	0xb71095f6	-8.617984e-06
24	0x3723a92b	9.754945e-06
25	0x37528473	1.2547814e-05
26	0x347016e8	2.2360075e-07
27	0xb59efeb8	-1.184605e-06
28	0xb64f2e07	-3.0872195e-06
29	0x36ec8642	7.0489777e-06
30	0x36d5e3b2	6.374402e-06
31	0xb667e65b	-3.4555767e-06
32	0x38088ab3	3.25541e-05
33	0x371359a1	8.782751e-06
34	0xb5d65f9f	-1.5972072e-06
35	0xb605d113	-1.9940242e-06
36	0x37c08da4	2.295414e-05
37	0x37a2ec23	1.9421865e-05
38	0xb78e58fe	-1.696916e-05
39	0xb7783bf5	-1.4795912e-05
40	0xb7204737	-9.553324e-06
41	0xb7abc3b3	-2.0475918e-05
42	0xb7aca5fb	-2.0581288e-05
43	0xb781a3ec	-1.545433e-05
44	0x37467673	1.1829298e-05
45	0x36a71ff7	4.980709e-06
46	0x376f69fb	1.4270186e-05
47	0x3714e552	8.87488e-06
48	0x381d16f6	3.74531e-05
49	0x3798df4c	1.8223793e-05
50	0xb76c641b	-1.4090004e-05
51	0xb69154f4	-4.3312266e-06
52	0x379d566c	1.8756102e-05
53	0x379232aa	1.7428149e-05
54	0xb7ba7759	-2.2228503e-05
55	0xb80b79b8	-3.3253542e-05
56	0xb7413b53	-1.1517509e-05
57	0xb7c391f9	-2.3313785e-05
58	0xb8191a20	-3.6502373e-05
59	0x3562dbcd	8.4511413e-07
60	0x37ee9d9f	2.8445209e-05
61	0x33e27d0f	1.0546693e-07
62	0x37ddc96a	2.6439044e-05
63	0x36f52227	7.305545e-06
64	0x388a873c	6.605542e-05
65	0x376a3398	1.39594995e-05
66	0x361942cc	2.2837658e-06
67	0xb79eb053	-1.8917175e-05
68	0x380e9e00	3.4002587e-05
69	0x384b5424	4.8477334e-05
70	0xb83a46a0	-4.441163e-05
71	0xb8782792	-5.916466e-05
72	0xb7f3cfe7	-2.906467e-05
73	0xb86979d0	-5.5664976e-05
74	0xb8922a06	-6.96965e-05
75	0xb835731a	-4.326096e-05
76	0x37c9830b	2.4022089e-05
77	0xb582b70f	-9.739032e-07
78	0x3807eec1	3.2408865e-05
79	0xb77cb7c8	-1.506316e-05
80	0x00000000	0.0
81	0x00000000	0.0
82	0x00000000	0.0
83	0x00000000	0.0
84	0x00000000	0.0
85	0x00000000	0.0
86	0x00000000	0.0
87	0x00000000	0.0
88	0x00000000	0.0
89	0x00000000	0.0
90	0x00000000	0.0
91	0x00000000	0.0
92	0x00000000	0.0
93	0x00000000	0.0
94	0x00000000	0.0
95	0x00000000	0.0
96	0x00000000	0.0
97	0x00000000	0.0
98	0x00000000	0.0
99	0x00000000	0.0
100	0x00000000	0.0
101	0x00000000	0.0
102	0x00000000	0.0
103	0x00000000	0.0
104	0x00000000	0.0
105	0x00000000	0.0
106	0x00000000	0.0
107	0x00000000	0.0
108	0x00000000	0.0
109	0x00000000	0.0
110	0x00000000	0.0
111	0x00000000	0.0
112	0x00000000	0.0
113	0x00000000	0.0
114	0x00000000	0.0
115	0x00000000	0.0
116	0x00000000	0.0
117	0x00000000	0.0
118	0x00000000	0.0
119	0x00000000	0.0
120	0x00000000	0.0
121	0x00000000	0.0
122	0x00000000	0.0
123	0x00000000	0.0
124	0x00000000	0.0
125	0x00000000	0.0
126	0x00000000	0.0
127	0x00000000	0.0
128	0x00000000	0.0
129	0x00000000	0.0
130	0x00000000	0.0
131	0x00000000	0.0
132	0x00000000	0.0
133	0x00000000	0.0
134	0x00000000	0.0
135	0x00000000	0.0
136	0x00000000	0.0
137	0x00000000	0.0
138	0x00000000	0.0
139	0x00000000	0.0
140	0x00000000	0.0
141	0x00000000	0.0
142	0x00000000	0.0
143	0x00000000	0.0
144	0x00000000	0.0
145	0x00000000	0.0
146	0x00000000	0.0
147	0x00000000	0.0
148	0x00000000	0.0
149	0x00000000	0.0
150	0x00000000	0.0
151	0x00000000	0.0
152	0x00000000	0.0
153	0x00000000	0.0
154	0x00000000	0.0
155	0x00000000	0.0
156	0x00000000	0.0
157	0x00000000	0.0
158	0x00000000	0.0
159	0x00000000	0.0
160	0x00000000	0.0
161	0x00000000	0.0
162	0x00000000	0.0
163	0x00000000	0.0
164	0x00000000	0.0
165	0x00000000	0.0
166	0x00000000	0.0
167	0x00000000	0.0
168	0x00000000	0.0
169	0x00000000	0.0
170	0x00000000	0.0
171	0x00000000	0.0
172	0x00000000	0.0
173	0x00000000	0.0
174	0x00000000	0.0
175	0x00000000	0.0
176	0x00000000	0.0
177	0x00000000	0.0
178	0x00000000	0.0
179	0x00000000	0.0
180	0x00000000	0.0
181	0x00000000	0.0
182	0x00000000	0.0
183	0x00000000	0.0
184	0x00000000	0.0
185	0x00000000	0.0
186	0x00000000	0.0
187	0x00000000	0.0
188	0x00000000	0.0
189	0x00000000	0.0
190	0x00000000	0.0
191	0x00000000	0.0
192	0xb5690102	-8.680073e-07
193	0xb66b2593	-3.50396e-06
194	0x34976e5a	2.8206233e-07
195	0xb74fc3ad	-1.2383721e-05
196	0xb63a8b63	-2.7797294e-06
197	0xb65e4d87	-3.3125705e-06
198	0xb656370b	-3.1920524e-06
199	0xb5af922d	-1.3081059e-06
200	0xb77794b2	-1.4756968e-05
201	0xb65cb70f	-3.2889109e-06
202	0xb67ce3ea	-3.768359e-06
203	0x36d8a532	6.456533e-06
204	0x36eb220a	7.0075084e-06
205	0xb69fb462	-4.7595686e-06
206	0xb74695f7	-1.1836636e-05
207	0xb6e7529d	-6.893954e-06
208	0x35d57892	1.5904827e-06
209	0x3554919d	7.918805e-07
210	0xb4d0f933	-3.8924335e-07
211	0xb508479a	-5.076814e-07
212	0x34d6d935	4.0018645e-07
213	0x3558eee5	8.081391e-07
214	0xb5b00d47	-1.3116886e-06
215	0xb58777f3	-1.0093194e-06
216	0x3575832b	9.1460487e-07
217	0xb58637d7	-1.000003e-06
218	0xb603b56f	-1.962613e-06
219	0xb571d8aa	-9.0094784e-07
220	0x3462f112	2.1135591e-07
221	0xb4d42a47	-3.9518838e-07
222	0x35513fb0	7.7951245e-07
223	0x351273fc	5.455802e-07
224	0x3654950d	3.167722e-06
225	0x36387342	2.7485225e-06
226	0xb5e65e2b	-1.7163742e-06
227	0xb5b5b8f9	-1.3539385e-06
228	0x35586c22	8.0623624e-07
229	0x36006697	1.9133201e-06
230	0xb6377f94	-2.7343385e-06
231	0xb599d483	-1.1461237e-06
232	0x34b1895a	3.3068756e-07
233	0xb62d3a46	-2.5812928e-06
234	0xb65eed48	-3.3218694e-06
235	0xb5ee7d82	-1.7768909e-06
236	0x34f7ea17	4.6177658e-07
237	0x3331c625	4.1391235e-08
238	0x360f44d2	2.134872e-06
239	0xb491e00b	-2.7171367e-07
240	0x369ff289	4.766804e-06
241	0x36790d23	3.7111538e-06
242	0xb66dc8a3	-3.5432538e-06
243	0xb62089be	-2.3922034e-06
244	0x35f8fb58	1.855059e-06
245	0x3677b9b7	3.6913968e-06
246	0xb648fba5	-2.9948799e-06
247	0xb6823715	-3.8807143e-06
248	0x35864294	1.0003155e-06
249	0xb5f973ad	-1.8585612e-06
250	0xb6f5c0ef	-7.3240294e-06
251	0xb62c0a9f	-2.563618e-06
252	0x35d9ab5d	1.6217633e-06
253	0x356fe0eb	8.9361737e-07
254	0x36aaa0b6	5.085104e-06
255	0xb4c75b73	-3.7133177e-07
