ISE_Transformer/model/2_room/eil_2_room_198_model/EBC_model_109999.pth (torch, 319327 bytes, 27 tensors)

encoder.embedding.weight f4 [900, 16]
000000 84 61 35 3e 7b 68 75 bf ca 0c 33 3f d3 c6 01 40
       0.1771298 -0.9586255 0.6994139 2.0277603
000010 90 59 c3 3e 91 1a 4d 3f 2c 2d 6e 3e 64 fe 06 3f
       0.38154268 0.8011866 0.23259419 0.5273192
000020 ab 36 ad 3f 0a ef 9a 3f 56 6e ae 3f f9 69 5d bf
       1.3532308 1.2104199 1.3627422 -0.86489826
000030 6b bd f4 3f 14 85 bf be 0d 11 73 bf 11 d2 32 3f
       1.9120306 -0.37406218 -0.9494789 0.69851786
000040 fd 96 8a bf 46 cb 3b 3d fa eb dc 3e 74 10 19 bf
       -1.0827328 0.045848154 0.43148786 -0.5979073
000050 7b d7 0c 3f 46 55 24 3f 80 cc a8 3e 58 e0 2d bd
       0.550163 0.64192617 0.3296852 -0.04245028
000060 f3 23 75 bf 80 d1 c6 bf e4 bc 11 40 d2 a6 c7 bf
       -0.9575798 -1.5532684 2.277154 -1.5597785
000070 55 4f 67 3f 4f 76 3e be 03 db 67 be ac c6 aa bf
       0.90355426 -0.18599819 -0.2264214 -1.334188
000080 d8 14 09 3f 44 2c 35 be fd e3 15 bf 1e 94 0c 3f
       0.5354743 -0.17692667 -0.5855101 0.5491351
000090 c0 f5 d5 3d 28 46 6e 3e cc 57 b4 be bd 08 ea bf
       0.10447264 0.2326895 -0.35223234 -1.8283917
0000a0 8a 16 43 bf 49 15 89 3f 94 66 67 bf f8 69 79 be
       -0.76206267 1.0709621 -0.90390897 -0.2435683
0000b0 36 88 95 bf 69 0a 0b 3e 60 62 5b c0 07 e6 93 bf
       -1.1682193 0.1357819 -3.4278793 -1.1554574
0000c0 6f f9 d6 3e 7a ad 2a bf bc 1d ba bf b7 1c 75 bf
       0.41987178 -0.66670954 -1.4540324 -0.9574694
0000d0 8c 81 30 3f c4 d7 df 3f cd 7a 89 bf 28 c5 08 3f
       0.6894767 1.7487721 -1.0740601 0.53425837
0000e0 87 d5 b6 bf 36 57 75 3d fb cd 4c 3f bc aa c1 bf
       -1.4283913 0.059897624 0.800018 -1.5130229
0000f0 7e ad 8c bf 68 c7 4a bf 2b f8 46 bf 8d 28 1f c0
       -1.0990446 -0.7921052 -0.77722424 -2.48685
000100 e8 17 5b 3f c7 48 f3 3e 97 be d2 bf 73 8c 1a 40
       0.85583353 0.47516462 -1.6464413 2.4148223
000110 b9 b3 71 bf f7 7f 7d 3d 44 c7 ba bf 67 1f f8 3e
       -0.9441486 0.061889615 -1.4592061 0.48461458
000120 e7 57 5e bf dd 67 4e be f7 ad b2 3d 68 f9 d4 bf
       -0.8685288 -0.20156808 0.087245874 -1.6638613
000130 f3 77 03 c0 e8 e0 c3 bd 92 b4 fa be dd c0 69 3d
       -2.0541961 -0.09564382 -0.4896589 0.057068694
000140 b5 18 19 3e 46 86 2e 3f 0d aa c8 3f 76 7d f3 3e
       0.14950831 0.68173635 1.5676895 0.47556657
000150 41 a4 80 bf 09 fb 82 bf 3c 7d 05 3f 5b e3 f6 be
       -1.0050126 -1.023286 0.5214422 -0.48220333
000160 c4 ca 45 bf 45 a6 2f 40 be ea fc bf 30 f0 d4 3e
       -0.7726252 2.7445233 -1.9759138 0.415895
000170 13 9d c8 3f c3 21 23 bd 97 e2 78 bf b8 49 36 bf
       1.5672935 -0.03982712 -0.9722075 -0.71206236
000180 b5 b7 75 3e e5 7c 99 bf 17 1e 88 3f 14 4c 2d bf
       0.2399586 -1.199124 1.0634183 -0.6769421
000190 0c d4 29 bf 84 2e ac 3e 80 b9 04 3f c4 d6 84 3f
       -0.6633918 0.3362924 0.5184555 1.0378041
0001a0 3d e2 29 3d 8d 83 57 3f 5a 75 06 be fc 08 bf bf
       0.041475523 0.84185106 -0.13130704 -1.4924617
0001b0 20 26 ba 3e 4a d5 02 bf 38 46 d6 be 3d 48 97 3f
       0.36357212 -0.51106703 -0.41850448 1.181892
0001c0 72 2c 88 be d2 df 4d 3f a6 7b 9d be 5f 48 ad 3f
       -0.2659641 0.8041965 -0.307584 1.3537711
0001d0 44 c2 2a 3f 59 8f 71 be 81 54 2f be 23 c7 0f 3f
       0.66702676 -0.23589839 -0.1712208 0.56163234
0001e0 dc 35 9d 3e c8 f4 ac 3e 74 00 05 3e 6f 95 13 3f
       0.30705154 0.33780503 0.12988454 0.5764989
0001f0 d1 58 a6 3c c0 fd b2 3f 8f 5e b5 3f c0 bf c0 bb
       0.020306023 1.3983688 1.4169482 -0.0058822334
000200 45 e8 61 bf e3 f6 f9 be f9 94 ad bf 1a 0e 6f be
       -0.8824504 -0.48821172 -1.3561088 -0.23345223
000210 17 35 ea 3f ed 78 cb 3f 8a 5e 36 3e ba 0f 03 3f
       1.8297452 1.5896279 0.17809501 0.5119587
000220 f0 d7 0b bf 86 c2 b8 bf 32 3e f6 bf af 88 90 bf
       -0.5462637 -1.4434364 -1.923773 -1.1291713
000230 94 de 80 3f c2 11 10 bc 91 f0 4d bf 8a a0 fb 3f
       1.0067925 -0.008793296 -0.804452 1.9658368
000240 0a f0 d2 3f 35 e7 11 3f 9c 2e 4a bc 3f 44 bc bf
       1.6479504 0.5699342 -0.012340214 -1.4708327
000250 b9 77 3d bd 99 66 08 bf bd e4 28 3f 7d f5 0b 40
       -0.046256755 -0.5328155 0.65974027 2.1868584
000260 45 c5 f9 3e 29 80 0b 40 3a 38 bb bf eb 0b b2 bf
       0.48783317 2.1796973 -1.4626534 -1.3909887
000270 93 46 dd be f2 92 18 be f7 7c d0 3d d6 eb 33 be
       -0.43217906 -0.14899805 0.10180085 -0.17570433
000280 f3 e7 a4 3e 5f 13 9a 3f 16 cc ae 3d e8 62 e1 bf
       0.32208213 1.2037162 0.0853502 -1.7608309
000290 64 f5 73 3d 04 73 a7 bf d0 1c 6c 3e 8b be 75 3f
       0.059560195 -1.3081975 0.23057866 0.9599387
0002a0 40 d0 10 3e 35 a8 5c 3f 5c 43 8c bf 40 0f 92 bf
       0.14141941 0.86194164 -1.0958056 -1.1410904
0002b0 21 91 c0 be 63 03 83 be a7 4a 91 be bb a9 8f 3f
       -0.37610725 -0.2558852 -0.28377268 1.1223673
0002c0 ac 14 04 40 91 22 06 3e bd 48 69 3f 84 68 ca 3d
       2.0637617 0.13099124 0.91126615 0.09883216
0002d0 ba 85 2a bf 05 a8 6e 3f a0 55 d1 3f 17 dc 8c bf
       -0.666103 0.9322513 1.6354256 -1.1004666
0002e0 bb 40 3c 3f 7e 9a 01 40 37 7b 3a c0 95 5f 43 3e
       0.7353627 2.0250545 -2.9137704 0.1907943
0002f0 c2 b8 2d 3e 87 34 33 bf 8a 28 c8 bd 91 a1 03 3f
       0.16965011 -0.70002025 -0.09773357 0.51418406
000300 ce ca 62 3f cf 84 6a 3d f9 b7 84 bf 93 b5 f5 3f
       0.88590705 0.057255562 -1.0368644 1.9196037
000310 84 d6 00 3f ac 68 19 bf 77 bd 89 bf f4 71 84 bf
       0.50327325 -0.5992534 -1.0760945 -1.0347276
000320 7b 52 d2 3f 4e 59 96 3f 38 c3 bd 3f db b0 a9 bd
       1.6431421 1.1746004 1.4825201 -0.08285686
000330 c0 4a 46 bf 2b f5 da bf c9 10 f0 bf f0 62 df bf
       -0.7745781 -1.7106069 -1.8755122 -1.7452068
000340 8d e1 ef 3f 8c 49 15 3d e5 02 1e bf e1 d3 1b 3f
       1.8740708 0.036447093 -0.61723167 0.60870177
000350 bc 23 1b 3f f8 58 e5 be 55 32 84 be 4b 7b c4 be
       0.606014 -0.4479444 -0.2581965 -0.38375315
000360 20 4f 5a be 5b d5 24 bf e4 5a 24 3f 73 75 27 bf
       -0.21319246 -0.64388055 0.6420119 -0.6541359
000370 8c 7c 8d 3f d5 1d a5 3f 48 01 24 3f ef e0 20 bf
       1.1053634 1.2899729 0.64064455 -0.6284322
000380 23 5a ad bf 29 81 e4 bf 68 11 e3 be 9b a1 0b bf
       -1.3543133 -1.7851917 -0.44349217 -0.54543465
000390 1d 55 8c 3f 0d 4f 39 3f 04 b0 d0 bf 6f 5f ea bf
       1.0963475 0.72386247 -1.6303716 -1.8310374
0003a0 d4 2d 9e 3f 41 b9 11 3f 20 ab ac 3e c7 bb af bf
       1.2357736 0.569233 0.33724308 -1.372918
0003b0 8b ef 80 bf ba 56 82 be 52 b8 75 be fa 78 ab 3e
       -1.0073103 -0.25456792 -0.23996094 0.33490735
0003c0 70 69 ff bc 72 87 e4 be ed b4 ec bd 8d fd 6a 3f
       -0.031178206 -0.44634587 -0.11557946 0.9179314
0003d0 eb ae f3 3f 3d f8 1e 3f 11 58 df bc a6 5c c7 bf
       1.9037756 0.6209753 -0.027263673 -1.5575149
0003e0 d6 90 eb be 9a 1a ee bf 05 fa a7 3f e1 07 22 be
       -0.4600894 -1.8601868 1.3123175 -0.15823318
0003f0 05 f2 87 3f 14 2c 15 3d 78 7c 1b 40 1e 1c 22 be
       1.0620733 0.03641899 2.429472 -0.15831038

encoder.lstm.weight_ih_l0 f4 [128, 16]
000000 e8 01 06 bf b6 ff 55 3e 29 21 e9 be 84 00 38 bf
       -0.5234666 0.20898327 -0.45533112 -0.71875787
000010 b2 ac c1 bd bc cf d3 3e e4 54 20 be 0f 40 a7 3e
       -0.09456767 0.41369426 -0.15657383 0.3266606
000020 e4 b4 0c be fc 1d a7 be 21 45 1a bf 8c f1 97 bd
       -0.1374088 -0.32640064 -0.6026173 -0.07419118
000030 05 e8 b4 3e 74 91 d0 bd 54 79 25 bd 52 bb fd 3e
       0.35333267 -0.10183993 -0.04039891 0.49556977
000040 cb 5f 17 bb 3b 01 1f 3f c9 57 19 bf 6f 11 64 be
       -0.0023097869 0.6211125 -0.59899575 -0.22272275
000050 8c 02 21 be f6 ba 0e bf 93 f5 40 3e 9c c5 bf 3e
       -0.15723628 -0.5575403 0.18843679 0.3745545
000060 8f 77 31 be ab fd 7c bf 0a 15 a6 be 37 fd 8a be
       -0.17330764 -0.98824567 -0.32437927 -0.27146313
000070 59 e2 9b 3d 65 d9 84 bf 64 4c 29 3e 7f ea 47 bd
       0.07611532 -1.0378844 0.16533047 -0.048807617
000080 7c c4 fe bc 24 83 93 be 51 ad 07 be b7 fa 3f 3e
       -0.03109955 -0.2881099 -0.13249709 0.18747984
000090 e7 0d 25 bd 99 c8 97 3d f8 20 ad 3e 77 33 47 3d
       -0.04029646 0.07411308 0.33814216 0.048633065
0000a0 56 d7 dc 3d 9b 7e ba be b6 5c 97 be be 29 c2 3e
       0.107832596 -0.36424717 -0.2956292 0.37922472
0000b0 50 80 42 3d 2a 8d a2 3d bc 36 13 be 24 49 08 3f
       0.04748565 0.07937081 -0.14376348 0.53236604
0000c0 86 0f 18 bf 1f a0 4b 3e b4 54 44 3f cf 69 a6 3e
       -0.59398687 0.198853 0.76691747 0.325026
0000d0 83 f6 73 bc 83 bb 34 3e 33 b4 42 be a0 14 cb bd
       -0.014890316 0.17649655 -0.19014053 -0.09916043
0000e0 92 1c 93 ba 65 0b bb 3e 6d 31 29 3d f0 fc 88 bf
       -0.0011223725 0.3653213 0.0413069 -1.070219
0000f0 0a fd 06 bf 51 3f 4d be ec 58 b0 3e 35 2d db 3d
       -0.52729857 -0.20043685 0.34442842 0.10701982
000100 01 73 46 3d e8 b0 33 3e 36 a7 b2 3e 6c 31 59 3e
       0.04844952 0.17547953 0.34893197 0.21210259
000110 a5 f6 db 3e 05 fa bc 3e d9 83 0b be 4b 86 8c bc
       0.42961612 0.369095 -0.13624515 -0.01715388
000120 9d a1 03 bf 69 5c 91 bd ce 91 dd 3e 7e 6f dd bd
       -0.5141848 -0.07097704 0.43275303 -0.10812281
000130 4f c8 13 be 82 97 27 3e 82 38 e6 bd 48 ca 3b be
       -0.1443188 0.1636639 -0.11241247 -0.18338883
000140 68 23 9b 3e d4 78 f7 3e 57 82 17 3e 33 7e 25 3e
       0.3030045 0.48334372 0.14795814 0.16161422
000150 3e 09 43 be 7d e0 19 3e 89 5d b8 be db 3d 14 3e
       -0.19046494 0.15027042 -0.36008862 0.14476721
000160 84 0c 9c 3d 96 27 6d bf 28 02 3f be 5a 66 53 3e
       0.07619575 -0.9263853 -0.18653166 0.20644513
000170 ca c6 b7 3e 24 72 f5 3e 14 60 a0 be d3 1e ad 3e
       0.35893852 0.47938645 -0.31323302 0.3381258
000180 0d 74 3a bd 42 88 a0 3e 07 ba 9b 3d af 4a 71 be
       -0.04552083 0.31353956 0.07603841 -0.23563646
000190 d1 d0 09 3f 70 66 e1 bd 53 0b f4 3e a0 89 85 3e
       0.53834254 -0.110058665 0.4766489 0.26081562
0001a0 e5 5f 0d 3e 50 7f 1e 3f 5f cd 9c bd 48 df a2 3e
       0.13806112 0.61913013 -0.07656359 0.31810975
0001b0 87 cf cd 3e b8 b4 18 3e 46 d2 b7 3d c4 11 98 3e
       0.40197393 0.14912689 0.08975653 0.29701054
0001c0 1e ca 6b be 5f 55 0c 3e 28 87 29 bd 53 dc 85 be
       -0.2302632 0.13704441 -0.04138866 -0.26144657
0001d0 7f 17 b9 3e 18 1f 36 3f bc d2 08 3d 3a 7a 84 3e
       0.3615074 0.71141195 0.033404097 0.258745
0001e0 13 67 07 bf 99 3d 46 be f5 ff 7c bf 01 83 73 be
       -0.52891654 -0.19359435 -0.9882806 -0.23780443
0001f0 e0 7e 11 bf d5 dd 91 3f a0 91 cf 3e e8 cb bf be
       -0.5683422 1.1395823 0.4054079 -0.37460256
000200 de 81 3b 3e b8 2d 9d be 53 f4 31 be 29 33 ac 3e
       0.18311259 -0.30698943 -0.17378359 0.33632782
000210 2c f2 55 3d ec 26 fe bd f2 4f 2c 3e db 1e 3b 3f
       0.052232906 -0.124097675 0.16827372 0.73093957
000220 c6 d3 8a 3d 94 52 20 3e 42 ef 7b 3d f6 8c be 3d
       0.06778674 0.15656501 0.06150747 0.0930423
000230 07 b1 d1 3e 59 c0 0e 3f 6c ba ad be aa c7 e6 3d
       0.40955374 0.5576225 -0.3393129 0.11268552
000240 3b 82 9e 3e d3 03 e8 3e e0 e3 44 be 56 4c d6 3d
       0.30958733 0.45315418 -0.19227552 0.10463779
000250 6d 5e 02 bf 4d 6e 5a be 60 b8 f6 b8 75 a2 d4 3e
       -0.5092533 -0.21331139 -0.000117645366 0.41530195
000260 52 17 cb be e0 27 8f 3d 55 cc 1f bf 55 4f 76 be
       -0.3966623 0.069900274 -0.6242116 -0.240537
000270 58 7c 70 3e b0 e8 0b 3f 1b 01 ba 3c 1f 73 d6 3e
       0.23484933 0.5465193 0.022705605 0.41884705
000280 00 02 a4 3e 08 7b cc 3e 78 1d 5f 3e 56 19 6e be
       0.32032776 0.39937615 0.21788585 -0.23251852
000290 26 d9 41 3c e8 d8 e1 3d 29 fb 22 bd 38 29 c8 3e
       0.011831557 0.110277 -0.039790306 0.39093947
0002a0 a3 ac 88 be 87 55 07 bf a3 94 00 be f9 51 9a 3c
       -0.2669421 -0.5286488 -0.125567 0.018837916
0002b0 32 96 2e 3f c6 17 2b be fc a8 0c be ec 75 93 bd
       0.6819793 -0.16708288 -0.13736337 -0.07200226
0002c0 81 17 8c be 7c 09 54 3f 4a a0 27 bf 20 6c 87 be
       -0.27361682 0.8282697 -0.65478957 -0.2644968
0002d0 32 db 8d 3e 16 53 e9 be 31 0c 7c 3d 97 b5 21 3f
       0.27706295 -0.45571202 0.061535064 0.6316771
0002e0 5c e9 5a bf 18 10 b3 3e bc 05 ed bc 9b ba ee 3e
       -0.8551233 0.34973216 -0.028933398 0.46626744
0002f0 ca 96 df be 22 b0 14 bd 4c d2 35 3e cc 86 10 3e
       -0.4366973 -0.036300786 0.17756003 0.14113921
000300 1d 35 41 bc 4b 5a 2c 3f c9 8b d4 be bb 2c 3a 3f
       -0.011792448 0.67325276 -0.41512898 0.72724503
000310 22 f5 82 be e0 81 f1 3d dd 14 44 bf 73 81 7e 3e
       -0.25577646 0.1179235 -0.76594335 0.24854068
000320 28 8f 32 3e 0e e5 91 3e a3 37 1e 3f fd d2 be 3c
       0.17437422 0.28495067 0.61803645 0.023293966
000330 c0 ef ea 3d 3b 66 f4 3e ee 43 1a 3f ed e6 4c 3e
       0.1147151 0.47734246 0.602599 0.20009966
000340 3d da fd bd ea 5c 0c 3e 66 3f 3a bd ab 5b 5f bc
       -0.12395141 0.13707319 -0.045470618 -0.013632695
000350 ad 42 bb be 69 e9 33 3c 3e 4c d3 3e 09 7e 1d be
       -0.36574307 0.010980942 0.41269106 -0.1538011
000360 26 77 44 bd 90 41 8c be c6 b5 fd bc 0a 13 83 3e
       -0.04796519 -0.2739377 -0.030970465 0.25600463
000370 5c f9 a8 3e a0 fb c1 3e 8a 87 6e be 45 2a 45 3e
       0.33002746 0.37887287 -0.23293892 0.19254406
000380 c0 6d 97 3e 4c 9e f0 bd dc fc 54 be 2a 0d d4 3e
       0.2957592 -0.11748943 -0.20799583 0.41416293
000390 25 a5 3c 3e b4 4e 18 3e cc c3 00 3e cd 45 f7 bd
       0.18422373 0.14873773 0.1257469 -0.1207386
0003a0 f3 c3 cb 3b c1 c0 ce bd 65 2c 82 be 02 92 f6 bd
       0.0062184273 -0.10095359 -0.25424495 -0.120395675
0003b0 12 d2 9d bd 3d 68 61 be 13 94 a8 bd 8c 8c a9 3d
       -0.07706083 -0.2201242 -0.08231368 0.0827876
0003c0 69 2e 24 3e f9 a8 e6 be dc 0f 6a be cf 78 b5 3c
       0.16033329 -0.4505079 -0.22857612 0.022152333
0003d0 ca fc 85 be 1f ef 36 3f 9e 1d ba be 3d 7a 78 be
       -0.26169425 0.7145862 -0.3635072 -0.2426538
0003e0 8f 34 42 3d a0 13 14 3e 10 3b 9a 3e 5b 1a e1 be
       0.047413405 0.14460611 0.30123186 -0.4396542
0003f0 eb a2 35 bf a6 fd d0 3d 55 14 83 3e 4a d3 ca 3e
       -0.7095172 0.102046296 0.2560145 0.39614326

encoder.lstm.weight_hh_l0 f4 [128, 32]
000000 31 42 80 bf 3c 70 04 be f8 a2 26 be 41 7e 95 3e
       -1.00202 -0.12933439 -0.16273105 0.29197887
000010 ca 86 06 3f 8e dd b6 be 8c 59 9c bc fa 03 11 bf
       0.5254942 -0.35715908 -0.019085668 -0.5664669
000020 be 68 2f bd 7e 32 23 bf 41 03 23 be 9f de c8 be
       -0.0428245 -0.6374892 -0.1591921 -0.39232346
000030 6e 2a c1 3e 97 09 c2 bd 3a 8c bf 3e 6d d7 89 be
       0.37727684 -0.09474485 0.37411672 -0.2692217
000040 b4 34 b2 3e b6 53 b4 bd d2 7f f4 be 8e 5d 85 bf
       0.34805834 -0.08805029 -0.4775377 -1.0419176
000050 1b 6e fb bd e9 e2 25 3e 99 a5 41 bf ea 60 17 bf
       -0.1227686 0.1619984 -0.75643307 -0.59132254
000060 56 43 4e 3e 26 c9 24 be d6 de 75 bc ff b2 9b bc
       0.20142874 -0.16092357 -0.0150067415 -0.01900625
000070 1e 21 20 bf 99 61 2a 3e f4 8e 4e bc 57 23 89 be
       -0.6255053 0.16638793 -0.012607325 -0.26784775
000080 9f b6 dd bd a4 78 65 3e c8 0c 01 bf 9d 41 03 be
       -0.10825848 0.22409302 -0.5041013 -0.12817998
000090 75 81 1b 3f 47 49 c1 be a3 6f b9 3e 8a bd 01 bc
       0.6074441 -0.3775122 0.36217985 -0.007918725
0000a0 d5 61 85 3d 2c bf 7e bd c7 16 6a be 82 29 65 bd
       0.065128006 -0.062194034 -0.22860251 -0.055947788
0000b0 a6 ec 32 be 62 56 f4 bd 78 43 3e 3f 8b de 69 bd
       -0.17473087 -0.11930539 0.743217 -0.057097
0000c0 a3 18 23 3e de dc e0 3e a6 fb e3 3e 75 03 a1 3c
       0.15927367 0.43918508 0.4452793 0.019654969
0000d0 c3 54 61 bf cd 69 cd 3e bc c5 50 3e 1b a5 fe 3e
       -0.8801996 0.40119782 0.2038793 0.4973534
0000e0 e3 a3 61 3f 68 7a 8b bd 28 c4 97 bd ef d0 c3 be
       0.88140696 -0.068104565 -0.07410461 -0.3824534
0000f0 3f f7 48 bf dd 77 0a 3f f5 14 14 3f 92 19 36 3d
       -0.7850227 0.54089147 0.5784448 0.04445798
000100 86 8e 3b 3f 84 83 aa bc 92 02 df be aa 16 4f be
       0.7326435 -0.020814665 -0.43556648 -0.2022349
000110 ea 8e 99 3f 94 13 c9 be a6 0f 95 3e 63 62 f2 3c
       1.1996739 -0.3927275 0.291135 0.02958793
000120 b8 f6 a0 be 93 a0 8a bf 01 e4 cb 3d 71 5e 99 bf
       -0.3143823 -1.0830253 0.09955598 -1.1981946
000130 1e df 9e bd f8 40 65 bf f8 ab 60 3e c3 0c 5f be
       -0.077574 -0.8955226 0.21940601 -0.21782212
000140 f9 36 37 3e 6f dc f2 be b9 74 39 3f 17 b9 c5 be
       0.17892064 -0.47433802 0.7244373 -0.38617775
000150 d0 6f 13 bf c7 98 1d 3e a0 2c 5a be fe 71 c7 bd
       -0.5759249 0.15390311 -0.21306086 -0.09738539
000160 df 3b 1a 3f 60 57 26 bf e4 28 f3 bd 3a 1e 76 bf
       0.60247606 -0.64977074 -0.11873034 -0.9613987
000170 25 5f ae be e7 39 d6 3d 7b 31 25 be 75 2b 05 bf
       -0.34056965 0.10460263 -0.16132157 -0.52019435
000180 b6 2e c8 bd f7 b3 4f be 88 b4 e3 3e 7e 9e 2d be
       -0.097745344 -0.20283495 0.44473672 -0.16954991
000190 a5 a2 ce be 23 26 48 bf a7 16 98 3d f6 32 ed 3e
       -0.40358463 -0.7818319 0.074261956 0.46327943
0001a0 9f ed 15 3d bf d3 7d 3e d0 cd 0c 3e 3c f8 18 bf
       0.036603566 0.24787806 0.13750386 -0.59753776
0001b0 d5 47 a6 bd 25 bb 81 bf 35 a0 32 be ac 23 a6 3e
       -0.081191696 -1.0135237 -0.17443927 0.3244909
0001c0 f6 8f 19 3f 05 d8 f5 be 27 5a c0 3e 5c c1 92 be
       0.5998529 -0.48016372 0.3756878 -0.28663146
0001d0 65 5a 4b be 5c f8 52 be cf 7f bf be 6d 60 40 3e
       -0.19858702 -0.20602554 -0.37402198 0.18786784
0001e0 8c 7d 07 be 74 37 2d 3f 21 35 25 bf 5e 66 61 be
       -0.13231486 0.6766274 -0.64534193 -0.22011706
0001f0 1f 50 07 bf af 9e bc be d4 72 61 be ca b6 ab 3e
       -0.5285663 -0.36839816 -0.2201646 0.33537894
000200 d3 20 0e bf f4 ed 8d 3e 14 09 db bd c8 eb 82 3e
       -0.55518836 0.27720606 -0.10695091 0.25570512
000210 00 4c 1b 3f 49 bc 52 bf a7 26 34 be c6 50 55 3f
       0.6066284 -0.8231855 -0.1759287 0.83326375
000220 86 cd ef be 7f d6 07 be f4 79 86 be a4 a2 6c 3e
       -0.4683649 -0.13265418 -0.26264918 0.23108917
000230 70 69 e1 3e df 62 44 3d 2d 37 31 3f a3 9a 25 3e
       0.44025755 0.047945853 0.69224817 0.1617227
000240 84 ac c3 3e 1d e6 1d bc 4f b0 0a be 0a e4 c8 be
       0.38217556 -0.009637383 -0.13543819 -0.3923648
000250 b1 95 ea be 68 0d ca 3e cc f6 5c 3e e9 01 c0 be
       -0.4581733 0.39463353 0.2157852 -0.37501457
000260 a8 0d da 3e 7d 5e 5f 3d 32 e0 02 bf ec ac f4 3e
       0.42588544 0.05453347 -0.51123345 0.4778818
000270 72 d7 34 bf d4 d0 a1 3f 10 80 03 bf 65 6e ab be
       -0.70641243 1.2641854 -0.5136728 -0.33482662
000280 1d 74 6a 3e 4c 3b 94 bd 66 18 37 bf 6f 67 eb be
       0.22895856 -0.072378725 -0.71521604 -0.4597735
000290 28 32 4f 3e b8 9a bd be 1b fc 48 3f b8 39 a4 3f
       0.20233977 -0.37032104 0.7850968 1.2830114
0002a0 08 b5 b4 be 24 d2 a0 bc 29 5b 17 bf b3 7d d0 bd
       -0.35294366 -0.019631453 -0.59123474 -0.10180225
0002b0 6c 48 06 be 1b 64 b0 bd 05 31 aa 3d f5 3b 5d be
       -0.13113564 -0.086128436 0.08310131 -0.21604903
0002c0 32 f9 64 3e ed a7 61 3d 92 80 8c 3e 68 24 c1 bd
       0.22360685 0.055091787 0.2744184 -0.09430772
0002d0 33 39 52 3d 74 9a 33 3f 15 a2 e9 3e 85 c8 15 bf
       0.05132408 0.7015755 0.4563147 -0.58509094
0002e0 40 86 ee bd 4b 35 e7 be 32 46 10 bf b4 39 1c bf
       -0.116467 -0.45157847 -0.5635711 -0.6102555
0002f0 d8 a4 b2 be a1 7d e4 3e 4f 0e f2 be 13 79 45 3d
       -0.3489139 0.44627097 -0.47276542 0.04821117
000300 2c 7f a4 3e 86 5a f3 3e f5 0f da be 03 0f 8b 3e
       0.32128274 0.4753 -0.425903 0.2715989
000310 ba 6e 32 3d 27 61 12 bf 26 10 40 be b7 5e 66 3f
       0.04356263 -0.5717949 -0.1875616 0.89988273
000320 2f 62 d5 be 8c f4 aa bd 97 4c 2a bf 5c 83 07 bf
       -0.4167647 -0.08347425 -0.66523117 -0.52934813
000330 8b 9d ad bc 42 37 1d bf 67 19 02 be d6 53 0f 3e
       -0.021193286 -0.6141244 -0.12705003 0.13996825
000340 92 eb 8e bd f5 05 1b 3e 21 3f a7 be 56 d6 8c 3e
       -0.06978525 0.15138991 -0.3266535 0.27507275
000350 c4 e9 45 bf ac 0b 3f 3f 61 8d 2f bb a1 15 8e be
       -0.77309823 0.74627185 -0.002678715 -0.27750877
000360 d6 af ac 3f 4a 09 27 bf a8 da 98 3d fd f5 2f be
       1.3491161 -0.6524855 0.0746358 -0.17183681
000370 31 58 9a bf 92 31 ca 3e c6 09 24 3e aa 12 45 be
       -1.2058164 0.39490944 0.16019353 -0.19245401
000380 6a f3 01 bc 66 87 75 be 38 cf 4e bf fa 45 a3 be
       -0.00793157 -0.23977432 -0.8078494 -0.31889325
000390 30 f5 82 3f 33 1f 08 bf 54 e7 86 be 62 9b 87 3d
       1.0231075 -0.53172606 -0.26348364 0.06621434
0003a0 72 d7 34 be e0 38 62 be f2 3f 82 be 62 61 13 be
       -0.17660311 -0.22092009 -0.2543941 -0.14392617
0003b0 65 e7 6d 3e 6f f9 f4 be 3e 00 31 3f b8 21 78 be
       0.23232801 -0.47846553 0.69140995 -0.24231613
0003c0 a8 92 b6 3e d0 9f 4c 3e e8 f6 50 be 39 36 be 3d
       0.35658765 0.19982839 -0.20406687 0.09287686
0003d0 87 87 24 be 75 99 cf 3e 78 73 2b bf 1e 8f 03 bf
       -0.16067325 0.40546766 -0.66973066 -0.51390254
0003e0 7a 06 98 be 7a c2 36 bf b8 de 24 bf b2 b9 80 bf
       -0.2969244 -0.713905 -0.6440234 -1.005667
0003f0 6b e3 19 bf 1d c8 cc 3e 6a ad 76 be d7 db 5f be
       -0.6011264 0.39996424 -0.2408959 -0.21861206

encoder.lstm.bias_ih_l0 f4 [128]
000000 07 44 4e 3f 06 26 ed 3e b2 71 db 3e 08 aa e0 3d
       0.8057255 0.46318072 0.4286018 0.10969931
000010 5c 9b 77 3e 07 e5 f7 3e 53 35 06 3f b5 2c c0 3e
       0.24180359 0.48416921 0.52425116 0.3753411
000020 82 8d d2 3e 03 9d e7 3e 82 b8 77 3e 23 87 5b bb
       0.41123587 0.45236978 0.24191478 -0.0033497296
000030 49 5b 74 bd e1 52 6e 3f 3e fd 7a 3e 0e 9f 45 3d
       -0.05965737 0.93095213 0.24510667 0.04824739
000040 2a f8 19 3f 8a e2 28 3f c8 99 3e 3f a6 54 9a 3c
       0.60144293 0.6597067 0.744534 0.018839192
000050 e5 fb 9c 3b 4d 63 28 3e 61 3f 08 3f 5a 3c ca 3e
       0.0047907704 0.1644413 0.5322171 0.3949917
000060 4f 03 93 3e 02 2d a5 3e 98 26 ec 3e 0d e1 80 3e
       0.28713462 0.322609 0.46123195 0.251717
000070 48 fe 4d 3f 04 21 0f 3f de 76 0a be 4e 92 45 3e
       0.8046613 0.5590975 -0.13521907 0.19294092
000080 f2 de b7 3e 71 38 cb be 1c 5b dc 3e 8d 9e 28 3e
       0.3591228 -0.396915 0.4303826 0.16466732
000090 f0 6f 32 3c 31 92 ed 3e 66 75 75 3e 03 88 9c 3e
       0.010890946 0.46400598 0.23970565 0.3057252
0000a0 95 bd 4a 3e aa d2 fb 3e fa 1a 44 3e ae 18 24 3f
       0.19798882 0.4918416 0.19150916 0.6410016
0000b0 fb 42 9e 3e 66 cc 9a 3e c5 79 b3 3e 77 01 a4 3e
       0.30910477 0.3023407 0.3505384 0.32032368
0000c0 7f 31 0d 3f d0 a7 15 3e 0e 39 ea 3e e0 fe 77 3e
       0.5515365 0.14614797 0.45746654 0.24218321
0000d0 5f 50 c4 3d cf d0 7a 3e 45 c8 6f 3e bd cd cf 3e
       0.09585642 0.24493717 0.2341624 0.40586653
0000e0 9f b9 be 3e f2 03 c0 3e cf 1e 5c 3e ea 95 f8 3d
       0.37250993 0.3750301 0.21496128 0.12137969
0000f0 94 bd e2 3e ba ae 13 3f b2 c9 66 3e 12 4f da bc
       0.44285262 0.57688487 0.22537878 -0.026649032
000100 b0 6b c4 3c bc 5c 3a 3d 47 c1 f4 bd cf 4f 66 be
       0.02397713 0.045498595 -0.11950927 -0.22491382
000110 59 21 52 3e 74 0c 04 be 44 ad c9 3d e2 82 e1 3d
       0.20520534 -0.12895375 0.09847501 0.11011292
000120 77 80 81 be ee f4 8c bd 71 b4 fd 3d 80 e8 5e be
       -0.25293323 -0.06882654 0.12387932 -0.21768379
000130 ee 25 5a be 51 e9 03 be c2 93 1f bd f3 a0 55 3e
       -0.21303532 -0.12881972 -0.038959272 0.20862179
000140 36 83 84 3c d8 3f 18 be d7 4c 1e 3d c3 21 2c be
       0.016175848 -0.14868104 0.0386475 -0.16809754
000150 73 22 15 bf e1 2e d4 3e 55 4c 23 be d9 f8 9d 3b
       -0.5825569 0.41442016 -0.15947087 0.0048209247
000160 b6 48 a2 3e 94 2e 96 be 9f 9d ee bd 84 0a 3c be
       0.316961 -0.2933241 -0.116511576 -0.18363386
000170 4b a0 aa be e3 11 b1 3e 5b dc 75 be 28 60 10 be
       -0.3332542 0.3458396 -0.2400984 -0.1409918
000180 30 f3 ce 3e 16 2d b2 3e de 39 21 3e d8 a2 e6 3e
       0.40419912 0.34800023 0.15744731 0.45046115
000190 90 ea 12 3e 66 76 ae bc 2c 09 68 3e 45 d2 56 3d
       0.14347291 -0.021296691 0.22659749 0.052446622
0001a0 21 ea 31 3f 7b bf 71 3e 57 13 31 be 89 a3 b5 3d
       0.6949788 0.236082 -0.17292534 0.088690825
0001b0 d9 d3 f0 3d 8d bc 9d bc 03 89 a2 be 92 2c 9e 3d
       0.11759157 -0.019254947 -0.31745157 0.07723345
0001c0 63 5d a4 3d 32 f1 19 3f 18 ae 82 3e 06 ab 9a 3d
       0.080256246 0.6013366 0.25523448 0.075521514
0001d0 aa 8d 34 bd ea 2b e4 be fe 23 13 be 79 5d 93 bd
       -0.044080414 -0.44564754 -0.14369199 -0.07195563
0001e0 0f bf d5 bd 8e 37 54 3e 02 40 20 3e b8 39 b9 3c
       -0.10436832 0.20724317 0.15649417 0.02261053
0001f0 d0 5f 0d 3d 45 cd 5f be 2e 65 f3 bd 5d 70 30 3e
       0.034515202 -0.21855648 -0.11884533 0.17230363

encoder.lstm.bias_hh_l0 f4 [128]
000000 e4 fe 12 3f 61 b7 e5 3e bd e2 38 3e 8c 0e 89 3e
       0.5742018 0.4486647 0.18055244 0.2676891
000010 db 2c 94 3e 1c a1 81 3e a1 12 d0 3e 25 5e 8a 3e
       0.28940472 0.2531823 0.40639213 0.27024952
000020 19 58 45 3e 71 6a ef 3e 25 42 84 3e 9b 12 3d 3e
       0.19271888 0.46760896 0.25831714 0.18464129
000030 36 aa 1e bd 42 56 84 3f b3 bf 73 3d bc 6f 71 3e
       -0.038736545 1.0338824 0.05950899 0.2357778
000040 89 c1 bd 3e a0 b4 38 3f 89 a2 01 3f 44 3c 9f bd
       0.37061718 0.7215061 0.50638634 -0.07775167
000050 c0 a5 06 be 9f ba 8a 3e 5a 2c 00 3f 7c 4b 5f 3e
       -0.13149166 0.27095506 0.50067675 0.21806139
000060 4e f3 95 3e 64 0a 01 3f 8d 75 a6 3e d7 b6 8c 3d
       0.2928719 0.5040648 0.3251156 0.068708114
000070 a4 b4 14 3f d8 f4 31 3f 99 70 90 bd 11 23 81 3e
       0.58088136 0.69514227 -0.07052726 0.25222066
000080 c4 09 79 3e 66 63 df be 5b 24 0e 3e 03 4d 14 3e
       0.24320132 -0.43630522 0.13881056 0.14482503
000090 94 ac 48 3e 1e b5 f4 3e e9 da 23 3e 36 ee f8 3e
       0.19597083 0.4779443 0.16001476 0.4861924
0000a0 76 43 32 3e 16 61 1f 3f a0 ef 38 3e 58 35 02 3f
       0.17408547 0.62257516 0.1806016 0.50862646
0000b0 da d8 84 3e 1a ed 06 3f 5d 80 a4 3e 9e cd a9 3e
       0.25946695 0.5270554 0.32129183 0.33164686
0000c0 bc 8d f9 3e 24 fe 29 3e 24 22 9e 3e 3a 0f de bb
       0.48740947 0.16600853 0.30885422 -0.0067767175
0000d0 8c 73 9f 3d 47 4f 9b 3e 2c 24 1b 3d 00 f0 bf 3e
       0.07785711 0.3033392 0.037876293 0.37487793
0000e0 59 b0 b0 3e 00 44 f7 3e 21 c0 9e 3e 10 79 c7 3e
       0.34509543 0.48294067 0.31005958 0.3895955
0000f0 ea e1 0b 3f b4 ad dc 3e 4f d2 d4 3e f8 32 47 3e
       0.5464159 0.43101275 0.41566703 0.19453037
000100 86 b3 2d 3e 82 af 36 be 9b 11 86 be 47 33 52 be
       0.16963014 -0.17840388 -0.26185307 -0.20527373
000110 b1 98 cf 3d 84 21 41 be ba 78 42 3e ed 88 80 3d
       0.101365454 -0.18860441 0.18991366 0.062761165
000120 03 01 04 be 92 00 3b be 99 a0 48 bd 12 d2 3a be
       -0.12891011 -0.18261936 -0.048981283 -0.18244198
000130 d9 9b 51 3c 47 e9 c8 bc 90 b6 14 bb de 07 58 bd
       0.012793505 -0.024525298 -0.0022691824 -0.052741878
000140 f3 f7 59 3e 4f 68 27 be 7b c0 4c bd 1c ce f9 bd
       0.21285991 -0.16348384 -0.04998825 -0.12197515
000150 5f 39 16 bf f1 6b 4b 3e 69 f7 8d be 28 79 1a be
       -0.5868129 0.19865395 -0.2772782 -0.1508528
000160 b0 d7 8e 3e 20 2c 78 be 0d 3d a8 be ac 43 81 be
       0.27898932 -0.24235582 -0.32859078 -0.25246942
000170 8e 56 a4 be e5 46 9b 3e e5 09 a2 be e7 d7 60 be
       -0.32097286 0.30327526 -0.31648174 -0.2195736
000180 b0 8b e9 3e 80 8b 9e 3e 56 a9 2d 3e 43 47 a1 3e
       0.45614386 0.30965805 0.16959128 0.3149968
000190 01 84 69 3e 4d 63 d5 bd 1f 64 39 3e a7 c9 76 be
       0.22804262 -0.10419331 0.181046 -0.24100362
0001a0 2b 28 11 3f df 3d 96 3e 02 69 e5 bd 2f 39 a1 bc
       0.56701916 0.2934408 -0.11201669 -0.019680588
0001b0 32 c1 61 3c f0 86 07 3e 93 f9 23 be 8d cd 92 bd
       0.0137789715 0.13235068 -0.16013174 -0.07168112
0001c0 82 01 99 bd 18 09 53 3f 42 11 6f 3d da a4 68 3e
       -0.07470991 0.8243575 0.058366068 0.22719136
0001d0 0a 79 08 be f8 1b bb be 1d c3 1f be 0e 0e 13 3e
       -0.13327423 -0.36544776 -0.15601774 0.1436083
0001e0 75 a6 27 be 7e e9 d0 3b ad 0f 04 3d e1 25 0c 3e
       -0.16372092 0.0063754907 0.032241512 0.13686325
0001f0 71 f3 b2 3d cf 87 36 be 9e be 04 3e 96 c6 97 3e
       0.08737839 -0.17825244 0.1296334 0.29643697

policy.net.0.weight f4 [128, 32]
000000 3a de 43 be d5 ff 8b be fb 85 0f 3e 87 03 47 be
       -0.19127741 -0.27343622 0.14015953 -0.1943494
000010 a5 15 51 3d 4a 05 74 3c 1b e9 09 3e 68 8d dd 3e
       0.051046032 0.014893839 0.13467829 0.43271947
000020 41 5e 83 3e 3c f1 78 be 31 fa 49 be ab 88 d2 be
       0.25657848 -0.24310774 -0.19724347 -0.41119894
000030 0c 1a bd be 5e 6d 99 bd 67 a3 75 be e0 59 6e be
       -0.36933935 -0.07491563 -0.23988114 -0.23276472
000040 f3 f2 90 be d2 26 54 bd 4d ca d6 be 9c 6d e8 3e
       -0.28310356 -0.051794834 -0.41951218 0.45396125
000050 4a 15 ce 3e a5 81 dc bd 48 8f 1f be bc eb bf bd
       0.40250617 -0.10766915 -0.15582001 -0.09371135
000060 31 0e 76 be 1e 43 aa 3e 76 a1 6c be 2b b1 ac bd
       -0.24028851 0.3325433 -0.23108467 -0.084322296
000070 ba 0f 0d 3e 1e 0e 37 be d7 84 f9 bd 44 ef 6d be
       0.1377553 -0.17876479 -0.1218354 -0.23235804
000080 e8 b4 23 bd 56 12 85 bc 48 5b f8 bd b0 d8 1b 3e
       -0.039967448 -0.016244095 -0.121267855 0.15219378
000090 91 82 82 3e ec e7 f3 3d 65 87 a2 be 59 53 9a 3d
       0.2549024 0.1190947 -0.31743923 0.075354286
0000a0 64 ff a1 3e c4 9f 34 bc 4b 6f 24 be ba 63 b3 be
       0.3164016 -0.011024419 -0.1605808 -0.35037023
0000b0 9f 87 95 be ee 34 21 3e 2c 9d 31 be b4 46 ee bd
       -0.29205033 0.15742847 -0.17345113 -0.11634579
0000c0 d5 e4 1a be 74 f4 af bd e0 62 8b bd fa 2a 13 3e
       -0.15126355 -0.085915476 -0.06805968 0.14371863
0000d0 40 99 8d be 78 1a 86 bd 84 d2 8f bb db 2f 2e 3e
       -0.27655983 -0.06548017 -0.004389109 0.17010443
0000e0 19 4e f1 3d b2 bc 90 3e b2 54 ee 3e c2 3e 82 3e
       0.11782474 0.28268963 0.46548992 0.25438505
0000f0 23 d8 b8 3d e2 8a 27 bd 3d c4 f9 3d 06 43 c2 be
       0.090256 -0.040903933 0.121956326 -0.3794176
000100 70 98 8d be 1b 0b 91 be 22 ee 2f bd 9b 20 4c bd
       -0.27655363 -0.28328785 -0.04295171 -0.049835782
000110 f4 ea ca 3d e6 ce be be dd 12 6e be a4 62 91 3e
       0.09908095 -0.37267226 -0.23249383 0.2839557
000120 21 b4 42 3f 0c 01 92 bd c5 f8 9d be ce b9 64 be
       0.76056105 -0.07129106 -0.3085386 -0.22336504
000130 48 4d 4d bf 83 ed cd 3d 84 66 f4 be 0d da 66 3e
       -0.80196047 0.100550674 -0.47734463 0.22544117
000140 9b 85 36 be ca 49 31 be 06 55 75 be c8 93 a0 3e
       -0.17824404 -0.17313305 -0.23958215 0.31362748
000150 5e 6a df be 98 08 1a be 8c 4c 96 bd 2a 69 52 be
       -0.4363584 -0.15042341 -0.07338819 -0.2054793
000160 1a 3a 76 be c0 07 f6 3e ca ab 55 3e e2 26 7f 3c
       -0.24045601 0.48052788 0.20866314 0.015573235
000170 9d ab 17 3e 4f 42 77 be 82 fd 7e 3c 70 0e 8b be
       0.14811559 -0.24146388 0.015563371 -0.27159452
000180 32 ba d4 3e 0a 75 06 bf 6d 0d f0 be e7 c6 f3 3e
       0.41548306 -0.5252234 -0.46885243 0.47612688
000190 3e 02 b4 3e bc 72 02 bf 39 15 62 bf 3b 9c 5c 3e
       0.3515796 -0.5095632 -0.88313633 0.21543972
0001a0 88 28 20 3f 23 2c 85 be d1 8e 0e 3e 39 d1 05 bf
       0.62561846 -0.26010236 0.13921668 -0.52272373
0001b0 d8 8f 4e bf 2b 29 ef be 00 f0 11 3d 5f b8 f5 be
       -0.8068824 -0.46711096 0.035629272 -0.47992226
0001c0 c5 4b c5 bd e9 d4 1a 3f 43 e3 61 bd 1a b4 00 bd
       -0.096335925 0.60481125 -0.055148374 -0.03142176
0001d0 0a c8 46 bf f2 dd 53 be 85 a1 2d 3e c6 3b de be
       -0.77648985 -0.20690134 0.16956146 -0.4340498
0001e0 8e cf e1 be 1c a9 6d 3d fc 16 9d 3e b9 7a 2e 3f
       -0.44103664 0.058022603 0.30681598 0.6815601
0001f0 e2 0f 58 3e 99 8a 86 be 9f 5c fc 3e 9a ed 10 bf
       0.21099809 -0.26277617 0.49289414 -0.5661255
000200 ff b6 15 3e 42 46 26 3f f3 81 cb bd 61 90 03 be
       0.14620589 0.64950955 -0.09936895 -0.12848045
000210 bc c3 b3 bd 8a 14 c0 3e 4f 94 f6 be be 30 51 be
       -0.08777568 0.3751567 -0.48160025 -0.2042875
000220 78 2c be be e8 a9 04 bd dc 1c c9 3e 2f e4 49 bf
       -0.37143302 -0.032388598 0.3927983 -0.78863806
000230 8d ef 8c bf 20 0c 69 3d 3c d5 f5 be ac 99 ea be
       -1.1010605 0.05689633 -0.48014247 -0.45820367
000240 b8 15 d6 be 90 5f 45 bf ad 43 12 bd 08 02 91 be
       -0.41813445 -0.7709894 -0.035709072 -0.28321862
000250 7a 61 12 bf 28 8d 07 bf 24 75 1d be 79 5e 1f 3d
       -0.5717999 -0.5294976 -0.15376717 0.038908456
000260 c3 6e 0f bf 98 65 61 3e e4 f4 2e 3f 70 d2 80 be
       -0.56028384 0.22011411 0.68342423 -0.2516055
000270 5e 17 07 3e 6b ee 18 bf 9b 39 8a 3e f7 52 a5 be
       0.13192508 -0.59738797 0.26997074 -0.3228986
000280 e8 a4 26 be 9e f4 d5 be 55 e7 c2 be a4 e6 ba 3e
       -0.16273844 -0.4178819 -0.38067117 0.3650409
000290 11 65 2b 3e 76 86 39 bf b2 7c 16 3f e4 44 0c be
       0.16737773 -0.72470796 0.5878402 -0.13698155
0002a0 74 a8 ad be d1 d4 92 3e b2 0f 4e be 9b cc 8d bc
       -0.33917582 0.2867799 -0.20123175 -0.017309478
0002b0 f3 00 86 3e be 69 32 bf 9a 2e 41 bd c8 40 17 be
       0.261726 -0.696926 -0.047163583 -0.14770806
0002c0 3a f4 ce 3d f4 e9 ec 3e b1 0f ae bd 3a 82 07 be
       0.10105176 0.46272242 -0.08499087 -0.13233271
0002d0 6c 4f b8 bd fc 56 35 3d 18 fd 37 be 55 85 e4 be
       -0.089995235 0.044272408 -0.17967641 -0.44632974
0002e0 68 9c 57 bf 5c 00 10 3e 7a 6b 8b be bd 4a d3 3e
       -0.8422303 0.14062637 -0.27230436 0.41267958
0002f0 6e aa 67 3e a1 b1 3d bd f8 75 19 be e6 c1 13 3f
       0.22623608 -0.04631198 -0.14986408 0.5771774
000300 94 80 37 3c 4a 50 c8 3e c4 44 06 3f 50 8d 3f bf
       0.011200089 0.39123756 0.5244868 -0.74825
000310 d7 1e 41 3f 37 fb b0 3d 8c f8 4b 3e 31 e0 ba be
       0.7543768 0.086416654 0.19919032 -0.3649917
000320 a9 27 e0 bd 4f 29 f9 bc 14 41 3c be 4f 9a bc bd
       -0.109450646 -0.030415205 -0.183842 -0.092091195
000330 7c 51 f9 be 12 d9 be 3d de e9 11 bf 74 09 ee bd
       -0.4869498 0.093187466 -0.5699748 -0.11622897
000340 02 e6 26 be a4 f3 0a bf 63 80 be be e2 b8 07 bf
       -0.16298679 -0.54278016 -0.37207326 -0.53016484
000350 b4 e8 8c 3d 5a f9 88 be d0 5b 13 3e da ef dc 3e
       0.06880322 -0.2675274 0.14390492 0.43151742
000360 3c 1e 15 3e d4 29 d9 3d be a9 90 3c a5 00 40 be
       0.14562315 0.10603681 0.017659064 -0.18750246
000370 1b 1b 34 3e d3 e8 f8 be 5e a6 a3 be 87 32 b9 be
       0.17588465 -0.4861513 -0.31962866 -0.36171362
000380 2b a4 84 bc c4 83 b3 3e b1 14 d6 3e 50 7e 35 be
       -0.016191563 0.35061467 0.4181266 -0.17723966
000390 3f f1 cf 3d 7e 4a 8d 3e ea 04 2b be 42 cd f0 be
       0.10153436 0.27595896 -0.16701093 -0.470316
0003a0 e4 c2 60 bd d6 f9 98 3e fb f7 e6 3b da a7 bb be
       -0.054873362 0.2987811 0.0070486045 -0.36651498
0003b0 7d 8a 67 be dc dd 33 3e ed 88 b6 3d 23 6e 05 bb
       -0.22611423 0.17565101 0.08912835 -0.0020359836
0003c0 6c bd 0b be 1f bf 56 be 33 f0 06 be da 90 ae 3d
       -0.13646477 -0.20971344 -0.13177566 0.08523722
0003d0 9d 12 05 3e 0c 80 01 3d a7 e2 d6 be f5 fb 0c 3c
       0.12995382 0.031616256 -0.41969797 0.008604993
0003e0 c0 0d 49 3e 96 a0 87 3e 08 a4 67 be 46 01 e1 bd
       0.19634151 0.26489705 -0.22621167 -0.10986571
0003f0 14 f4 0a 3d 69 2c 56 3e 31 b9 cb be 5f d6 2e 3e
       0.033924177 0.20915379 -0.39789727 0.17073964

policy.net.0.bias f4 [128]
000000 cf c9 8f be 95 fe 9c be e3 1e ed be df f1 d5 3d
       -0.28083655 -0.3066298 -0.46312627 0.10446524
000010 91 58 5e be cf 57 e7 be ac e8 23 bf f5 ae f1 be
       -0.21713473 -0.4518418 -0.64026904 -0.47203794
000020 51 0b 48 be 03 51 a2 3d c6 3c 9d be 11 be ae be
       -0.19535567 0.07925608 -0.3071043 -0.34129384
000030 25 5f c7 be 62 e9 31 3c c3 26 f1 be 32 17 de be
       -0.38939777 0.010858865 -0.47099885 -0.43377072
000040 44 b4 9e be 0d 41 03 3e a1 b8 e3 be 22 cd ca be
       -0.30996907 0.12817784 -0.44476798 -0.3960963
000050 d0 18 44 3c 30 0b d5 be 56 4c 3b 3d 04 d1 88 be
       0.011968806 -0.41610098 0.045727096 -0.26721966
000060 19 9f 2a be ef 79 e0 be 2c b5 ad be 1b 9a 0a be
       -0.16662253 -0.43843028 -0.33927286 -0.13535349
000070 d6 17 a4 be 31 ab 8c be 94 04 08 bf 66 db fe be
       -0.32049435 -0.2747436 -0.53131986 -0.49776763
000080 b6 af 8d be b9 06 db be 6c 36 7b be b0 17 9a bb
       -0.2767312 -0.42778566 -0.24532479 -0.004702531
000090 b3 70 ee be a6 50 99 be af 5b 37 be 7e 63 b7 be
       -0.46570358 -0.29944342 -0.17906068 -0.35818094
0000a0 e6 50 89 bd 8f 55 42 be 1b 78 1f be 0c 25 f0 be
       -0.06704883 -0.1897795 -0.1557316 -0.46903265
0000b0 91 77 a9 be 6f 98 c0 bb 29 75 f6 be 41 b1 df be
       -0.33099034 -0.0058775465 -0.4813626 -0.43689921
0000c0 81 6f eb bc 51 9b 43 bc 95 4f ff be 09 fb d6 be
       -0.028739693 -0.011938886 -0.49865404 -0.419884
0000d0 a8 72 d4 bd b4 59 e7 be 7c 08 17 bf 49 3b ab be
       -0.103734314 -0.45185626 -0.5899732 -0.33443668
0000e0 54 a1 01 be 94 74 fe 3c ff 7b ce be 6a bf b2 be
       -0.12659198 0.031061448 -0.40328977 -0.34911662
0000f0 ab 65 9d be d5 a3 d3 be b2 8b 51 be e6 e7 69 be
       -0.3074163 -0.4133593 -0.20463446 -0.22842368
000100 96 62 b1 be 20 8d 92 be 31 5e c1 be a5 d1 1a be
       -0.34645528 -0.28623295 -0.37767175 -0.15119036
000110 56 fb d4 be 4f 12 4d be 50 9a 13 bf a2 60 d7 be
       -0.41598004 -0.20026515 -0.5765734 -0.42065912
000120 0c a1 7b bd 92 a7 9d be 19 ae 69 be 5b ad d8 be
       -0.061432883 -0.30791909 -0.22820319 -0.4231976
000130 82 4d e6 bd 31 bb bd bd a9 09 ae 3d fa 1c 64 be
       -0.11245252 -0.092642196 0.08497936 -0.22276679
000140 10 e8 9d be d0 e8 e4 be 6b 86 a2 be 09 72 b5 be
       -0.30841112 -0.44708872 -0.31743178 -0.35438564
000150 ed fa 5a be e1 e8 d8 be cc d8 fd be 9e 03 15 3d
       -0.21384783 -0.42365173 -0.49579465 0.036380403
000160 ab 43 17 3c de b6 9a be 41 1b de be 32 e5 14 3e
       0.009232442 -0.30217642 -0.43380168 0.14540556
000170 c4 da 00 bf 61 d5 f0 3d a6 bf 90 be e0 45 1e be
       -0.5033381 0.11759449 -0.28271216 -0.15456343
000180 90 21 01 bf 8f 1f a1 be ee ca d9 be 4c c6 04 bf
       -0.5044184 -0.3146939 -0.42537636 -0.51865077
000190 e9 3b 36 3e 7d f4 9e be 98 83 70 be 00 d2 06 3d
       0.17796291 -0.31045905 -0.23487699 0.032915115
0001a0 e6 8e a5 3d 54 01 01 3e bd 50 58 be 4c 69 ce be
       0.08083896 0.12598163 -0.21124549 -0.4031471
0001b0 cc 57 6e bc fa 0f cc be 96 82 e7 be 94 43 5a 3c
       -0.0145473 -0.3985594 -0.45216817 0.013321776
0001c0 9f 96 f2 bd d3 aa 4e be c6 97 c7 be d3 9b 28 3e
       -0.11845135 -0.20182352 -0.3898298 0.16465692
0001d0 f3 e2 67 be 99 31 a4 be 12 3b 97 be 21 2b 6d be
       -0.22645168 -0.3206909 -0.29537255 -0.23160984
0001e0 8e 04 d6 be f0 01 8d be d7 b4 05 3e 84 ed 9f be
       -0.4180035 -0.2754054 0.13057266 -0.31235898
0001f0 4d ca 9a be 59 28 63 be 26 b0 a2 3c 26 76 31 be
       -0.30232468 -0.2218336 0.019859385 -0.17330226

policy.net.2.weight f4 [5, 128]
000000 b4 d1 85 bf 76 16 cd be b3 73 a9 bf 25 54 2d bf
       -1.0454621 -0.400562 -1.3238434 -0.6770652
000010 a4 0a 4f c0 3f 24 d5 bf 1a 3c e2 bf c7 ac b5 3c
       -3.2350245 -1.6651686 -1.7674592 0.022177113
000020 4e 03 95 be 78 59 d1 bf 64 a1 af bf d7 ad 6e bf
       -0.29104084 -1.6355429 -1.3721128 -0.9323401
000030 c5 4a aa be e6 68 b6 bf cb 5c 00 bf 42 e3 5d bf
       -0.3326017 -1.4250762 -0.5014159 -0.8667489
000040 e3 d8 a7 bf dd de 24 c0 a4 e2 44 be ef 1d d5 bf
       -1.3113064 -2.5761025 -0.19227082 -1.664976
000050 d0 2b 58 c0 b7 27 04 bf a0 aa 61 bf 1f ee 81 c0
       -3.377674 -0.516231 -0.8815098 -4.0603175
000060 a3 47 bd bf 74 58 98 bf 0b b3 ac be e2 57 99 be
       -1.4787487 -1.1901994 -0.3373035 -0.29949862
000070 65 c0 f7 be 3d 23 af be 99 45 05 bf 6a 89 a8 be
       -0.48388973 -0.34206572 -0.5205932 -0.3291734
000080 b9 23 3d bf ef 0f 3e be 9f 34 04 bf 79 9c 18 bf
       -0.73882633 -0.18560766 -0.51642793 -0.5961376
000090 4e 57 d0 bf ae 81 23 c0 ea 16 5c bf ab 8f 72 bf
       -1.6276643 -2.55479 -0.85972464 -0.9475047
0000a0 c0 72 0b c0 0d ee 6b be d9 0a 87 bf f0 15 9d be
       -2.1788788 -0.23040028 -1.0550185 -0.306808
0000b0 6c 5d d3 bf 8d 45 64 bf c8 8b 62 be 1a b7 8c be
       -1.6512885 -0.89168626 -0.22123635 -0.27483445
0000c0 d3 31 25 bf c7 e9 26 c0 4d 04 67 bf 5b b4 df be
       -0.6452915 -2.6080186 -0.9024094 -0.43692288
0000d0 52 2f 6d bf b1 34 4f bf 72 86 d1 be b2 ec 66 bf
       -0.9265033 -0.80939776 -0.40922886 -0.9020492
0000e0 ee 2c 5b c0 5f a3 b4 bf 3b 66 36 bf 69 a6 0b c0
       -3.4246173 -1.4112357 -0.7124974 -2.1820319
0000f0 86 a2 04 bf b1 23 f3 be 18 ff 1a bf 75 47 89 c0
       -0.5181049 -0.47488168 -0.6054549 -4.289973
000100 89 a7 70 c0 f7 9c 39 c0 84 7d 8d be 6a 26 69 c0
       -3.7602255 -2.9002054 -0.27634823 -3.6429696
000110 cd 5e ea bf 6d e6 16 bf d3 bd c1 bf 6e 27 45 c0
       -1.8310181 -0.5894535 -1.5136055 -3.0805316
000120 e6 22 ae bf 25 a3 4b bf bc 03 a1 bf 3d 0a 8d bd
       -1.36044 -0.79545814 -1.2579265 -0.068867184
000130 0d 80 2f bf 32 4b 42 bf b9 98 13 bf 4c be c4 bf
       -0.68554765 -0.7589599 -0.5765491 -1.5370574
000140 f2 e6 c8 bf c8 39 a2 be 81 02 80 be 4b 5c a7 be
       -1.5695479 -0.3168471 -0.2500191 -0.326876
000150 cf 95 25 bf 9f 4f 20 be ea b1 87 bf 58 d3 10 c0
       -0.64681715 -0.15655373 -1.060117 -2.2628994
000160 8a fb 77 c0 b5 9c 13 bf 54 71 31 bf 0c e9 30 bf
       -3.8747277 -0.5766099 -0.6931355 -0.691056
000170 32 72 26 bf 9b 87 25 c0 01 af 35 bf 26 e5 da be
       -0.65018 -2.5864017 -0.7097016 -0.4275295
000180 53 ab 83 be f2 26 41 bf bc 75 8c bf 0a a3 8d be
       -0.25716648 -0.7545005 -1.097343 -0.2766345
000190 7c 1c dc bf 81 b9 23 bf 89 2c 18 bf 35 7f dd bf
       -1.7196193 -0.6395493 -0.59442955 -1.7304446
0001a0 0c 0e a9 bf 2d 54 98 bf b3 3b 67 bf f6 53 0b bf
       -1.3207412 -1.1900688 -0.9032547 -0.5442499
0001b0 68 e7 41 c0 68 62 0e be 94 19 02 bf c3 2f b1 c0
       -3.029749 -0.13904727 -0.5082028 -5.5370803
0001c0 bb ba 68 c0 78 72 87 bf 7f 27 85 be 20 75 6b c0
       -3.6363971 -1.0581808 -0.26006696 -3.6790237
0001d0 3d b6 9c bf f3 67 b5 bf 00 55 b5 bf fc 1b b9 be
       -1.2243115 -1.4172348 -1.4166565 -0.36154163
0001e0 8f 34 c8 be ec 15 0a bf 6b e3 b4 bf 45 08 80 be
       -0.391026 -0.539397 -1.4131902 -0.2500631
0001f0 9f 58 a9 be 44 c6 c5 be 86 c2 4d bf 0a b2 af bf
       -0.33075425 -0.38627827 -0.80374944 -1.3726208
000200 1c 1b aa bc 74 a6 e5 bc da 54 65 be cd 88 c6 3d
       -0.02076488 -0.028033473 -0.2239565 0.096940614
000210 4c 70 97 bf 12 06 87 3f be c7 e8 be 49 39 14 3d
       -1.1831145 1.0548728 -0.4546489 0.036187444
000220 50 a7 01 3d 64 04 0d 3e 7d 4a 03 3e 42 78 66 bd
       0.031653702 0.13771206 0.12821384 -0.05626703
000230 db e0 97 be d3 cb bf 3d b6 72 06 bd 59 31 30 3e
       -0.2966374 0.09365048 -0.03282424 0.17206325
000240 57 5a 8b 3d 7e 60 d9 3d bd 28 08 bf 2f 0c 0c 3d
       0.0680434 0.106141075 -0.5318716 0.034191307
000250 9b a5 95 3d ed bd 43 3c d4 89 e2 3d 44 3b 19 bd
       0.07306977 0.011947137 0.11061445 -0.037410036
000260 0e bc 0f 3f 1e c1 2c 3e 37 f5 6d bb 68 96 2d bf
       0.56146324 0.16870543 -0.003630949 -0.67807627
000270 45 0f 83 3d ed 35 37 3e ed 34 b9 3e b7 78 81 3e
       0.06399397 0.17891665 0.36173192 0.2528741
000280 b2 ea 17 3f a8 20 68 be ce 1b 15 bf 8e 7c d3 3d
       0.5934249 -0.22668707 -0.5824555 0.10326491
000290 5a 5e a7 3d 0f 4e 46 bf 65 14 a1 bc 2c a0 dc 3c
       0.08172293 -0.7746286 -0.019663045 0.026931845
0002a0 16 40 0b be e2 01 3b be a7 6c 5d 3c 15 4d 79 be
       -0.13598666 -0.18262437 0.013514674 -0.2434581
0002b0 cb 79 2e 3e db c2 61 3e a6 4d e0 3d 24 82 a3 be
       0.17038648 0.22046988 0.1095231 -0.31935227
0002c0 46 41 42 3d 78 3b b6 3e d2 83 18 bf b6 59 83 be
       0.04742553 0.35592246 -0.5957614 -0.25654382
0002d0 17 15 c8 3d 79 5e e1 3d 85 7a 9e be 6c 40 60 bf
       0.097696476 0.11004347 -0.3095285 -0.875983
0002e0 ae c8 1b 3f 66 57 f4 bd 3f 23 17 bf da b3 5c be
       0.6085309 -0.119307324 -0.59038156 -0.21552983
0002f0 07 b5 2b 3c a9 4f 93 3d 4f db 65 3d de 51 15 3e
       0.010480172 0.07192928 0.056117352 0.14582011
000300 4c 2f 93 bd 4b 23 91 bc 9f e1 ce bc 1d 1f b9 bc
       -0.071867555 -0.017717024 -0.025254069 -0.022597844
000310 ef b9 ee bd 36 5f 98 3c 4d d5 e0 be f6 05 4a 3d
       -0.11656558 0.018600088 -0.43912736 0.04932209
000320 74 11 9a be 0c 62 0a 3e 75 c1 b3 3d 88 d8 b6 3d
       -0.3009144 0.13513964 0.087771334 0.08928019
000330 20 fa 04 c0 5a 74 a9 3d 32 f3 33 bf d9 b2 9b 3d
       -2.0777664 0.082741454 -0.7029296 0.07602472
000340 b4 0b cd bb 4a ce 22 3c 7f f1 ea 3d 3f 1c 22 bd
       -0.0062574986 0.009936878 0.11471843 -0.03957772
000350 4f cc f5 3d 36 ea 4b bf ff 16 a9 bf 4b 64 79 bf
       0.120018594 -0.7965425 -1.3210143 -0.9741866
000360 ac c5 87 3d e5 d4 bf 3d 2e 98 16 bc e7 32 db 3e
       0.066295 0.09366778 -0.009191556 0.42812273
000370 d1 f7 98 3e 3b 3b ae 3d c6 5d 8a bf f7 de 1b c0
       0.2987657 0.08507391 -1.0809867 -2.4354837
000380 bb 08 58 be 66 a1 98 bd 6c b2 14 3d ff cb 00 bf
       -0.2109708 -0.07452659 0.03630297 -0.50311273
000390 17 15 19 3e 50 cd 16 3c 8e d7 c4 3c 8b 16 af 3d
       0.14949451 0.009204224 0.024028566 0.085492216
0003a0 20 70 2d 3d 10 19 cf bd d2 a4 08 3e b8 31 1b c0
       0.04234326 -0.10112202 0.13344124 -2.4249096
0003b0 4e 59 3a be bf a5 7a bf 67 04 a1 3d 12 a7 85 3d
       -0.1819813 -0.9790916 0.07862168 0.06526007
0003c0 a0 d7 00 3e b3 a1 a4 3e fd ea ce 3e 22 db 9e be
       0.12582254 0.32154617 0.40413657 -0.3102656
0003d0 5c 75 72 3e 3f 9d 54 be 6a 68 91 3d eb fe 50 3c
       0.23677582 -0.2076311 0.070999935 0.01275609
0003e0 17 48 c4 be f4 cf 82 3d b1 47 9f bf e3 01 6b bf
       -0.3833625 0.0638732 -1.2443753 -0.91799754
0003f0 ff 3e 5c 3e 44 6d d3 bc 46 69 ca 3d a3 44 93 3d
       0.21508406 -0.025808938 0.098833606 0.07190826

policy.net.2.bias f4 [5]
000000 77 c0 f0 c0 f0 c0 99 bd 6f 5f aa 3d 58 01 6c bd
       -7.5234942 -0.07507503 0.08318984 -0.05761847
000010 65 c0 56 3e
       0.2097183
