ISE_Transformer/model/2_room/eil_2_room_198_model/EBC_model_37999.pth (torch, 319288 bytes, 27 tensors)

encoder.embedding.weight f4 [900, 16]
00000000: 4b68 033e 545d 46bf d424 833f e1d7 d93f
00000010: c221 1d3f 7852 613f 095d aebd 6e6b 503f
00000020: 6645 ca3f 18f4 613f 90ad be3f f805 62bf
00000030: 46d0 ca3f cd4b 4fbf 33d4 87bf 6e6d 273f
00000040: c939 8dbf b429 853e 1641 103f 056e 11bf
00000050: 98ae 123f f5c1 0d3f 83ff 5b3e 8a7a 983e
00000060: bc95 65bf 8853 afbf 9096 0440 7ffb d1bf
00000070: 026c 473f 7c6c bbbd 7aff 0dbf 9a93 bdbf
00000080: 2e56 3d3f 5017 05bd db6f b7be 02d3 0e3f
00000090: b30e 50bd 9bf0 883e 779b f1be e267 ffbf
000000a0: a1f0 f5be 191b 823f 6061 79bf 20dc c8bd
000000b0: bf51 a9bf a793 363d e80d 60c0 5062 80bf
000000c0: 7283 bf3e 406c 69bf 0ef7 9ebf bddd 21bf
000000d0: 9b09 693f 324c d03f 683a 92bf 0ff1 f83e
000000e0: 24a8 a4bf 6d79 f73d 1504 2e3f e485 bbbf
000000f0: 6b77 83bf e67e 1cbf ace0 3fbf 59b0 1bc0
00000100: 87aa 893f 112f ee3e ecab bcbf b535 1640
00000110: 68df 72bf 918f 65be 7569 b4bf 4cb8 963e
00000120: 4ec8 f5be 9011 87be a1dc 7f3d 0169 eabf
00000130: 0cb4 10c0 52bc 18be 5700 ebbe 7614 1e3e
00000140: b518 193e 4686 2e3f 0daa c83f 767d f33e
00000150: 41a4 80bf 09fb 82bf 3c7d 053f 5be3 f6be
00000160: c4ca 45bf 45a6 2f40 beea fcbf 30f0 d43e
00000170: 139d c83f c321 23bd 97e2 78bf b849 36bf
00000180: b5b7 753e e57c 99bf 171e 883f 144c 2dbf
00000190: 0cd4 29bf 842e ac3e 80b9 043f c4d6 843f
000001a0: 3de2 293d 8d83 573f 5a75 06be fc08 bfbf
000001b0: 2026 ba3e 4ad5 02bf 3846 d6be 3d48 973f
000001c0: 722c 88be d2df 4d3f a67b 9dbe 5f48 ad3f
000001d0: 44c2 2a3f 598f 71be 8154 2fbe 23c7 0f3f
000001e0: dc35 9d3e c8f4 ac3e 7400 053e 6f95 133f
000001f0: d158 a63c c0fd b23f 8f5e b53f c0bf c0bb
00000200: 45e8 61bf e3f6 f9be f994 adbf 1a0e 6fbe
00000210: 1735 ea3f ed78 cb3f 8a5e 363e ba0f 033f
00000220: f0d7 0bbf 86c2 b8bf 323e f6bf af88 90bf
00000230: 94de 803f c211 10bc 91f0 4dbf 8aa0 fb3f
00000240: 0af0 d23f 35e7 113f 9c2e 4abc 3f44 bcbf
00000250: b977 3dbd 9966 08bf bde4 283f 7df5 0b40
00000260: 45c5 f93e 2980 0b40 3a38 bbbf eb0b b2bf
00000270: 9346 ddbe f292 18be f77c d03d d6eb 33be
00000280: f3e7 a43e 5f13 9a3f 16cc ae3d e862 e1bf
00000290: 64f5 733d 0473 a7bf d01c 6c3e 8bbe 753f
000002a0: 40d0 103e 35a8 5c3f 5c43 8cbf 400f 92bf
000002b0: 2191 c0be 6303 83be a74a 91be bba9 8f3f
000002c0: ac14 0440 9122 063e bd48 693f 8468 ca3d
000002d0: ba85 2abf 05a8 6e3f a055 d13f 17dc 8cbf
000002e0: bb40 3c3f 7e9a 0140 377b 3ac0 955f 433e
000002f0: c2b8 2d3e 8734 33bf 8a28 c8bd 91a1 033f
00000300: 39bb 903f be87 af3e bf24 afbf e5f3 0540
00000310: ec6c 323f 78fe 1abf 337b 88bf c9a2 35bf
00000320: a63c b93f 8879 903f 18a8 b33f a154 31be
00000330: 7510 63bf 3c5c c6bf 2cd4 e8bf 8c2e e1bf
00000340: 79c4 dc3f 0fed 4f3d 57a8 6ebf bc61 193f
00000350: cb98 9a3e 5f17 fabe f212 21be 9b73 a3be
00000360: cdae dbbd 03bc 00bf 2b52 3a3f 486d 35bf
00000370: 71ae 923f 2b2e 8e3f 5663 1a3f add8 56bf
00000380: f22e a5bf b9bd c4bf 1c4f 3bbf 48e0 afbe
00000390: 7a71 913f 7277 273f 238c e0bf 4fef d7bf
000003a0: 39ff 953f 16f1 413f a09f 003e 77a1 a6bf
000003b0: 69e5 9dbf 9b4f cabe d17e e2be 71bb d53e
000003c0: 6127 3abe 3b5a 81be d65f 373d bded 223f
000003d0: 077d ee3f 2fc5 1d3f 5a0f acbe f439 b6bf
000003e0: f83a fabd 43fe ebbf b447 a23f 19ba 73be
000003f0: 6c79 713f b1d9 153e 8559 1240 2187 efbd
0.12832753 -0.7748616 1.0245614 1.7019006 0.61379635 0.8801646 -0.08513839 0.81413925
1.5802429 0.8826308 1.4896717 -0.8829036 1.584481 -0.8097504 -1.0611633 0.6540135
-1.103326 0.2600838 0.56349313 -0.568085 0.5729766 0.5537408 0.21484189 0.2978099
-0.896816 -1.3697367 2.0716896 -1.6404876 0.7789918 -0.09151551 -0.5546795 -1.481067
0.73959625 -0.032492936 -0.35827526 0.5579072 -0.05079527 0.26746067 -0.47188923 -1.9953578
-0.48035148 1.016452 -0.9741421 -0.098076105 -1.3228072 0.044574406 -3.5008488 -1.0030003
0.37404972 -0.911808 -1.2419145 -0.6322897 0.9103028 1.6273253 -1.1424074 0.48621413
-1.2863812 0.12083707 0.6797498 -1.4650235 -1.0270818 -0.6113113 -0.749522 -2.4326384
1.0755166 0.46520284 -1.4739966 2.347028 -0.9487214 -0.22418047 -1.4094683 0.29437482
-0.48004383 -0.26380587 0.062466267 -1.8313295 -2.2609892 -0.14915588 -0.45898697 0.15437493
0.14950831 0.68173635 1.5676895 0.47556657 -1.0050126 -1.023286 0.5214422 -0.48220333
-0.7726252 2.7445233 -1.9759138 0.415895 1.5672935 -0.03982712 -0.9722075 -0.71206236
0.2399586 -1.199124 1.0634183 -0.6769421 -0.6633918 0.3362924 0.5184555 1.0378041
0.041475523 0.84185106 -0.13130704 -1.4924617 0.36357212 -0.51106703 -0.41850448 1.181892
-0.2659641 0.8041965 -0.307584 1.3537711 0.66702676 -0.23589839 -0.1712208 0.56163234
0.30705154 0.33780503 0.12988454 0.5764989 0.020306023 1.3983688 1.4169482 -0.0058822334
-0.8824504 -0.48821172 -1.3561088 -0.23345223 1.8297452 1.5896279 0.17809501 0.5119587
-0.5462637 -1.4434364 -1.923773 -1.1291713 1.0067925 -0.008793296 -0.804452 1.9658368
1.6479504 0.5699342 -0.012340214 -1.4708327 -0.046256755 -0.5328155 0.65974027 2.1868584
0.48783317 2.1796973 -1.4626534 -1.3909887 -0.43217906 -0.14899805 0.10180085 -0.17570433
0.32208213 1.2037162 0.0853502 -1.7608309 0.059560195 -1.3081975 0.23057866 0.9599387
0.14141941 0.86194164 -1.0958056 -1.1410904 -0.37610725 -0.2558852 -0.28377268 1.1223673
2.0637617 0.13099124 0.91126615 0.09883216 -0.666103 0.9322513 1.6354256 -1.1004666
0.7353627 2.0250545 -2.9137704 0.1907943 0.16965011 -0.70002025 -0.09773357 0.51418406
1.1307136 0.3428325 -1.3683089 2.0930111 0.6969745 -0.6054454 -1.0662597 -0.70951515
1.4471633 1.1287088 1.4035673 -0.1731744 -0.88696986 -1.5496898 -1.818975 -1.759233
1.7247459 0.050763186 -0.93225616 0.59914756 0.30194697 -0.48845956 -0.15729883 -0.31924137
-0.107267 -0.50286883 0.7278163 -0.70869875 1.1459485 1.1107839 0.60307825 -0.8392437
-1.2904952 -1.5370399 -0.73167586 -0.343508 1.1362755 0.65416634 -1.7542766 -1.6869906
1.1718513 0.7575849 0.12560892 -1.3018025 -1.2335635 -0.3951386 -0.44237378 0.4174457
-0.18179084 -0.25264153 0.04476913 0.6364401 1.8631905 0.61629003 -0.33605462 -1.4236436
-0.12218279 -1.843697 1.2678132 -0.2380146 0.943259 0.14633824 2.2867138 -0.11695696

encoder.lstm.weight_ih_l0 f4 [128, 16]
00000000: c9d7 34be 3fc2 6f3e be18 a5be 0901 e2be
00000010: e1b3 003e f339 9b3e dfa5 9ebd 8c28 2f3e
00000020: cd2c 59be 1225 91be c616 0abf a397 96bd
00000030: 1de2 953e 24eb 59bb 3efd bdbd e559 983e
00000040: f5a7 863d 787e cf3e 9bf1 f4be edf1 13bd
00000050: 5817 9b3c 22b9 c9be f0b3 5f3c 3b0b 733e
00000060: 43b9 8bbe 8939 4cbf 6cd8 04bf 72b2 c6be
00000070: 6571 323e 7a59 36bf e300 4d3b 12fe 3b3d
00000080: 21f5 96bc a6a9 44be a822 a0be b438 b33d
00000090: c657 74be 090c ac3d ef62 2f3e 20a8 393e
000000a0: b676 5a3d c201 93be 9a39 b8be 6eac 033e
000000b0: faab c2bd 68ab ca3c 07f9 84be 44f8 b03e
000000c0: 9869 08bf d2e4 7d3d f581 423f f117 da3d
000000d0: ea51 383d b9a0 c23d 0c48 66bd 533f 8fbd
000000e0: bca3 30be c088 143e 66ed b73c 8f31 53bf
000000f0: fbd4 c5be c4b6 993d dffe 1d3e a590 263d
00000100: 440d 5bbe 6efc cc3d 30cc 853e 4359 f93c
00000110: a52d 063f a8e3 803d 8309 a0bd 60ae 4ebd
00000120: 0a79 b9be 9347 c2bd 14bd a63e 8355 0bbe
00000130: 54da 97be fb32 7b3e 587e a1bd cbce 8dbe
00000140: 87a9 9b3e 42a2 eb3e 436c fa3d d674 393e
00000150: 01ef 843c b4a3 adbd 4109 a6bd 8d95 9bbb
00000160: 8678 df3d 82fa 10bf 1d1a 43be 34da 8f3d
00000170: e18c 973b a03c e93e 7b03 b9be 5b79 9d3e
00000180: 9957 a1be 07a9 8d3c 37fb 0e3e d9bf 0cbe
00000190: 6cc8 cb3e 9831 803d 5714 e63e aaff 063e
000001a0: 353c fa3d 18e3 063f 49e8 a0bb be9a b13e
000001b0: 5a6e 293e fc7e 14bd 7554 1e3e 9018 623d
000001c0: afdf dcbe f916 d6bd 1e4e 37be cd09 8fbe
000001d0: 4566 e33e fd19 f93e 3c2c c93c 6a5a c43e
000001e0: cfca e1be 43b6 13bc 718a 54bf fabd 02be
000001f0: 8f9c 5dbe bf64 723f 61d3 bd3e 8239 a6be
00000200: b777 be3d 17de 9fbe 9036 4ebe 5e40 d63e
00000210: 0893 e13d f460 abbe 4cc0 383e bcfa ec3e
00000220: 6fdf 973d 639c a63e c522 f63d 1f85 bc3d
00000230: c739 8d3e 6a3b fc3e 254b 8cbe bf20 71bd
00000240: e449 353e c111 683e 1b49 a0bd 5e2e 3d3c
00000250: e5c8 d6be ae24 59be 1579 49bd 7957 b63e
00000260: b909 8dbe 893f 173d a67e 2dbf 4c37 27be
00000270: 473c b73d 6c09 173f 30de 8a3c e67e 923e
00000280: 69a9 8b3e e29a 073d 3204 b53c 2fba 15be
00000290: 4412 8a3d 80d2 933e 04a1 1cbd a4dd c53e
000002a0: 6e1a a6be ccbf c1be 3ae6 5cbe 5adf 24be
000002b0: 2e7c 0b3f 1c79 663d 2286 f3bb e746 d93d
000002c0: a9a1 a33d 5318 ca3e 1975 36bf 17a3 443d
000002d0: f22c 313e d7f9 8abe 84fd 943c eb63 c43e
000002e0: f22c efbe 69c6 f83e 0937 cf3d a56f 813e
000002f0: 411f aabd 6ad5 8bbd d03d d93d 6051 863e
00000300: f2df d9bb eb32 f93e 8f5c 93be 47dd 123f
00000310: 2d12 27be 3c86 073e 0c82 1abf 04a2 543e
00000320: 475e 623e 7c72 943e 6869 df3e 1635 623d
00000330: 0f37 01bd f9c0 c83e ef3e d53e 4532 5c3e
00000340: 5a8a e7bd 30da 0a3e 6adb 48bd fbaf febd
00000350: 10d6 4fbe ee5a e33c dacf bb3e 9f92 5e3d
00000360: c042 c0bd 6f54 1abe 1b3d d5bd 9e3f b33e
00000370: c86d c43b 452c 9d3e fb70 3dbe b8ef 933e
00000380: 8a03 e93d 31bb 69be fa57 a6be f599 9a3e
00000390: ffbd b73d 73ef 573e d11e 363e 9757 5abd
000003a0: bcb7 ebbd 215d a0bd 3c4f f7bd d4d7 4fbe
000003b0: 1fe1 ce3c 7494 9bbe c2c9 b4bd 23f0 b23d
000003c0: 0e24 0c3e 1724 16be 7c76 82be 1325 243e
000003d0: d6c4 dd3c cc00 fb3e 5616 cbbe f0d6 f7bc
000003e0: c865 d23d eeba 123e 1d2f 293e 3b08 a7be
000003f0: ea34 dcbe 409a d63d 9d0b fdbb 1cc0 cb3d
-0.1766044 0.23413943 -0.3224544 -0.44141415 0.12568618 0.3031765 -0.07746481 0.17105311
-0.21208496 -0.28348595 -0.53941 -0.07353141 0.29274073 -0.0033251727 -0.09276818 0.29756084
0.06575004 0.40526175 -0.4784058 -0.03611939 0.01893203 -0.39399058 0.01365374 0.23734753
-0.2728978 -0.7977529 -0.51892734 -0.38808018 0.17426069 -0.7123028 0.0031281046 0.045896597
-0.018427433 -0.1920534 -0.3127644 0.0875105 -0.23861608 0.08400733 0.17127584 0.18130541
0.053335868 -0.2871228 -0.35981447 0.12858745 -0.09505458 0.024739936 -0.25971243 0.34564412
-0.53286123 0.0619858 0.7597955 0.10649098 0.044999994 0.09503312 -0.056221053 -0.069945
-0.1724996 0.14505291 0.022452068 -0.82497495 -0.38639054 0.07505563 0.15429257 0.040665288
-0.21391779 0.10009085 0.26132345 0.030438071 0.524134 0.06293422 -0.07814314 -0.050459266
-0.36225158 -0.09486308 0.3256613 -0.13606839 -0.2965876 0.24531166 -0.07885426 -0.27696833
0.30402777 0.4602223 0.122276805 0.18110976 0.016227247 -0.084784895 -0.08107234 -0.0047480525
0.1091166 -0.56632245 -0.1905293 0.07024041 0.0046249484 0.45554066 -0.36135468 0.3075665
-0.31512144 0.017292513 0.13963018 -0.13745059 0.39801347 0.06259459 0.44937393 0.13183466
0.12218515 0.5269027 -0.004910503 0.3468837 0.16546002 -0.036253914 0.15461905 0.055199206
-0.43139407 -0.104536004 -0.17900893 -0.27937165 0.44413963 0.4865264 0.024557225 0.3835023
-0.44100043 -0.009015623 -0.83023745 -0.12767783 -0.21641754 0.94684976 0.37075332 -0.3246575
0.093001775 -0.3122413 -0.20138001 0.41845983 0.11014372 -0.33472407 0.18042105 0.46285045
0.074156635 0.3254119 0.120183505 0.09205078 0.27583143 0.4926408 -0.2740108 -0.05886912
0.17703968 0.22663023 -0.07826444 0.011546699 -0.41950145 -0.21205398 -0.04918774 0.3561361
-0.2754648 0.036925826 -0.67771375 -0.16329688 0.08947044 0.5899875 0.01695165 0.2861244
0.27277687 0.033106692 0.022096727 -0.14621805 0.06741765 0.28871536 -0.038239494 0.3864566
-0.3244204 -0.37841642 -0.215722 -0.16100827 0.5448636 0.056267843 -0.0074317614 0.10609227
0.079898186 0.39471683 -0.71272427 0.048007097 0.17302302 -0.27143738 0.018187292 0.3835748
-0.46713978 0.48588875 0.10117919 0.2528049 -0.083067425 -0.06827815 0.10607493 0.2623396
-0.006649011 0.4867166 -0.28781554 0.5736889 -0.16315527 0.132348 -0.60354686 0.20764929
0.22106276 0.28993595 0.43635106 0.055226408 -0.03154665 0.39209726 0.41649577 0.21503551
-0.11305685 0.13559794 -0.049037375 -0.12435909 -0.20296502 0.02775332 0.36682016 0.054339048
-0.093877316 -0.15071271 -0.104120456 0.35009474 0.0059945323 0.30697837 -0.1850013 0.28893828
0.11377628 -0.22825314 -0.32488996 0.30195585 0.08971786 0.21087436 0.17785193 -0.05330619
-0.11509654 -0.07830263 -0.1207566 -0.20297176 0.02525383 -0.30386698 -0.08827545 0.08737209
0.13685629 -0.14662205 -0.2548102 0.16029768 0.027071398 0.49024045 -0.39665478 -0.030253857
0.102733195 0.1432912 0.16521879 -0.32623467 -0.4300912 0.104786396 -0.0077223317 0.09948751

encoder.lstm.weight_hh_l0 f4 [128, 32]
00000000: f764 3cbf c792 2fbe f6f8 96be 9042 2b3e
00000010: 5787 483f e616 88be 99dc 7a3d 10a7 d8be
00000020: 0032 4bbe c99c 8bbe 5082 42be 6f39 24be
00000030: 097c f33e 8899 0dbe ef8e f03e 073f 46be
00000040: 10b6 6b3e a8fb e73b c640 eebe 2b43 07bf
00000050: 92b2 28be fa60 833e 941f 2fbf f78f dbbe
00000060: 0038 763e e808 86bd 9777 abbc 9f89 68be
00000070: d9c1 c9be 57ec 3a3e c114 10be a5da 463c
00000080: 5885 57bd 4131 7e3e b1c2 02bf ab6b 3dbc
00000090: 8f4f cf3e 9009 ecbe d6a7 1c3e ac9c 9dbd
000000a0: f51c 46be 023c 7ebd 10f2 debe ffde 82bc
000000b0: ab5d 49be 8c81 a8bd 0cee 373f c978 25bc
000000c0: 325d 1e3e 2690 e63e 8c46 873e 68c0 40be
000000d0: abd4 e6be d788 d03e 085d 2abc d601 5f3e
000000e0: 31e8 ee3e a346 a4bc 56f0 453c 57a1 9ebe
000000f0: 8b83 14bf a606 1b3f 3653 073f f9ee e3bd
00000100: 24f2 cf3e fea3 1d3e 401e 87bd 0b61 4fbe
00000110: dd9a 5b3f b82a 1cbf aa53 9a3e 6a08 e63c
00000120: 7512 c8be fcb0 1fbf e49a de3b ad0f 73bf
00000130: 0e71 413d 21e8 18bf c0cc 763e 266a 57be
00000140: 742a 5d3e 6fcd 8cbe 4ff1 333e d6d3 d0be
00000150: 8a74 c2be cb2f 7a3e b44e 29be 2bbc 993b
00000160: bc8d c43e 2474 cbbe c788 673d e4e4 17bf
00000170: ce70 98be f1db 2dbd f544 40be 16cc e6be
00000180: bee4 53be 6048 69be 1888 10bd c7d0 9dbe
00000190: 66f3 06be 870d 43bf 8144 1fbe 7eef 303e
000001a0: bef0 02bd 61ad 8e3e 7a1f c53d c840 c7be
000001b0: 0d09 8abd 0db4 09bf 7bc9 9fbd a14a 9c3e
000001c0: 999b a83e d5d9 88be dff1 be3e c130 8bbd
000001d0: d74f 27be be8c 88bd 397d 97be 4301 97bd
000001e0: 15ca 46be 5102 ea3e 15b2 13bf 2177 5ebc
000001f0: 82ad c4be 7e41 b6bd 733e 173e 4deb 8f3e
00000200: dd31 4bbe 1805 1abe 3ee9 afbd ec75 a73d
00000210: 2bfc df3e 3697 24bf 6e03 003b 1461 e23e
00000220: 8f67 1fbe 9fd2 b53d fb4b 19be c903 b93d
00000230: a9f6 b23e 9a6f 913b 3cc8 343f 8d6c 213e
00000240: bfd1 753e 0d65 82be b2d5 ee3b c2f2 bbbe
00000250: 48c8 d0be 7e71 a43e 5e01 53ba 156b b2bd
00000260: ba52 9e3e 469f e83d 87ee babe 989b 843e
00000270: 3cea 13bf c54d 2e3f 517b 04bf dd89 b5be
00000280: ef66 983e be9c 66be 64c9 40be 8a83 aabe
00000290: 36ce 2cbd 5399 98be 51ed ed3e e35d 393f
000002a0: 6134 e9be 6d0a 323e 3dce f8be 91ad 30be
000002b0: da0f 4bbe 9070 25be 65e6 2e3d 3e1b 54be
000002c0: 6a14 b63e 499b 073c d923 3e3e 9a48 5cbd
000002d0: 8469 25bc 1338 c03e 006d 793e 5db1 e5be
000002e0: db42 20be 6994 c4be 7cda 70be efba 08bf
000002f0: 8c2b 38be b63e cd3e c3e0 21bf 7479 11be
00000300: b054 433e 0475 f73e a5bb 94be 0de9 8e3d
00000310: 2a22 4d3e 1cb9 e2be a5d7 363d 1275 0c3f
00000320: 24f9 6cbe 57da 393c 36de 98be 8c5a 0bbf
00000330: f65e 0cbe 1837 dabe ffe9 bebe 7387 153e
00000340: d6a4 37bd e4a2 62bd 22ea f5be 753d 523e
00000350: d78b b8be 2c16 0c3f 2a8c 3abd 434c 96be
00000360: d87d 723f 9765 93be eaf9 ae3d 1d4f 85be
00000370: 8334 28bf 5456 943e bcd1 343d 5a61 40be
00000380: ede0 173e e620 8fbe ab7c 38bf d29d 6fbe
00000390: 49f7 6b3f e50f bcbe 1959 31be 07d3 16bd
000003a0: a782 6bbe eaff 61be ba02 aebe 7be3 b4bc
000003b0: a06b 1d3e 73cc c9be 7964 aa3e d6d7 e5bd
000003c0: aba2 5c3e 1463 463e d2b3 5cbe c5cc 10be
000003d0: bfa6 ae3d 1edd 193e 4657 24bf ae26 05bf
000003e0: 3e53 41be 6ac1 25bf 94f4 9fbe eb86 6dbf
000003f0: 396a 99be f5b2 933e fecd 2bbd 6e6a f4bd
-0.7359156 -0.17145835 -0.29486817 0.1672461 0.7833151 -0.2657997 0.061245535 -0.4231496
-0.19843292 -0.27268055 -0.18995023 -0.16037534 0.4755557 -0.13828099 0.4698405 -0.1935998
0.2301867 0.0070795603 -0.46533793 -0.52836865 -0.16474369 0.25659925 -0.6840756 -0.42883274
0.240448 -0.065446675 -0.020931048 -0.22708748 -0.39405707 0.18254219 -0.14070417 0.01213709
-0.0526174 0.24823476 -0.51078326 -0.011561315 0.40490386 -0.46101046 0.152984 -0.076958984
-0.19346984 -0.062068947 -0.43544054 -0.015975473 -0.19664638 -0.08227834 0.71847606 -0.010099598
0.15465239 0.45031852 0.2642101 -0.18823397 -0.45084128 0.407294 -0.010398157 0.21778044
0.46661523 -0.020053213 0.012081226 -0.30982468 -0.5801322 0.6055702 0.52861345 -0.11129565
0.40614426 0.1539459 -0.065975666 -0.20251863 0.8578318 -0.61002684 0.30141956 0.028080184
-0.39076582 -0.6237943 0.0067933667 -0.94945794 0.047226958 -0.597292 0.24101543 -0.21036586
0.21598226 -0.27500483 0.1757252 -0.40786618 -0.37979537 0.24432294 -0.16533929 0.004691621
0.38389385 -0.39737046 0.056526925 -0.59333634 -0.29773563 -0.04244608 -0.18776305 -0.4507758
-0.20692727 -0.22781515 -0.03528604 -0.30823347 -0.13178787 -0.76192516 -0.15553476 0.17278859
-0.03196787 0.27866653 0.09625144 -0.38916612 -0.067400075 -0.5379036 -0.07802101 0.30525687
0.32931212 -0.26728693 0.37293908 -0.067964084 -0.1633905 -0.066674694 -0.29587725 -0.073732875
-0.19413026 0.45704892 -0.57693607 -0.013578207 -0.38413626 -0.088992104 0.14769916 0.28109208
-0.1984324 -0.15041006 -0.08589409 0.08176789 0.43747076 -0.6429323 0.0019533294 0.4421469
-0.15566848 0.088780634 -0.1497039 0.09033925 0.34953812 0.004438353 0.70618033 0.15764065
0.24005793 -0.2546772 0.007288658 -0.36708647 -0.40777802 0.32117838 -0.0008049215 -0.087118305
0.3092249 0.11358504 -0.36510107 0.2589996 -0.5777929 0.68087417 -0.51750666 -0.35456744
0.29766032 -0.2252073 -0.18826824 -0.3330348 -0.042188846 -0.29804477 0.4647012 0.72408885
-0.45547774 0.1738679 -0.48594847 -0.1725371 -0.19830266 -0.1615622 0.04270019 -0.20713517
0.3556245 0.008276769 0.18568362 -0.053780176 -0.010095958 0.3754278 0.24357986 -0.4486188
-0.15650503 -0.38394478 -0.23520845 -0.5341024 -0.17985362 0.40086907 -0.63233584 -0.14206487
0.19075274 0.48331463 -0.2904941 0.06978045 0.20032564 -0.44281852 0.04463925 0.54866135
-0.23141915 0.01134356 -0.29857033 -0.5443504 -0.137081 -0.42620158 -0.372879 0.14602451
-0.044834934 -0.055331126 -0.48030192 0.20531256 -0.3604419 0.5472133 -0.045543827 -0.29355058
0.9472327 -0.28788444 0.08543761 -0.2603692 -0.65705127 0.28972113 0.04414533 -0.18787137
0.14831896 -0.27954787 -0.7206523 -0.23400047 0.921742 -0.36730877 -0.17319144 -0.036822345
-0.22999059 -0.2207028 -0.33986455 -0.022081127 0.15373087 -0.39413795 0.3327978 -0.11222808
0.21546428 0.19373733 -0.21552971 -0.14140613 0.08527898 0.15025756 -0.6419567 -0.52012146
-0.1887941 -0.6474825 -0.31241286 -0.92783993 -0.29963854 0.2884747 -0.041944496 -0.11934362

encoder.lstm.bias_ih_l0 f4 [128]
00000000: 52fc fa3e 8fac 7b3e 983f d63e d572 fe3d
00000010: 7496 113e a45f e03e b522 c53e db8b ac3e
00000020: ccb3 6a3e 42eb c23e 4cd9 9e3c 4ac2 383d
00000030: 667f 103d 451c 1d3f 06ad 853e 1ba7 ff3d
00000040: 5056 b83e e34b d43e cab2 033f 0220 1dbc
00000050: 4bd6 303e 89cc 343e 0097 d53e 68e1 873e
00000060: f83b 813e c023 8d3e 7d58 c63e 9935 6a3e
00000070: 7001 273f c1be a63e 7f2c 22bd ac4e 283e
00000080: 7441 803e 250c 4fbe d20b 8b3e f2c2 b13d
00000090: d3cb d23c ca74 b63e 9160 283e 1ad9 483e
000000a0: 8890 703e e707 9e3e a1d2 f23d 6d19 ce3e
000000b0: a77a 923e e52b 523e 3d4d 9b3e d1b2 423e
000000c0: 3356 c13e bee6 4f3d fba5 973e 2620 743e
000000d0: 71c1 2a3e 3ef0 103e 78a5 3c3e 4234 9a3e
000000e0: 438b ab3e 82af 4e3e 48dd e73d 6d7a cd3c
000000f0: 5bfe f63d 7973 013f 654c fa3d ac29 55bd
00000100: 6eb6 febb 3bb4 55bc da08 b6bd 603a 1ebe
00000110: 46c8 2b3e f66c d1bd 640a a33d 4770 d63d
00000120: de59 2bbe 4ba7 76bd df6c 36bc ffc7 99be
00000130: 7fbe 47be 4f7d 3cbe aaee e7bc 27de 273e
00000140: c2fa 9d3d ce5c 2abe 116e 833d 639a aebd
00000150: 30c2 f3be 970c 6e3e 83f4 f5bd 5727 173c
00000160: bcfc 5f3e d060 11be b35f 32bd c36e 29bd
00000170: 6874 3ebe db95 8e3e 652e 53be 56fe f4bd
00000180: 754f 6d3e b193 943e 5cc4 823e b2e8 aa3e
00000190: 28d3 a83e 2bfe 0e3e 05f4 123e 67ea 4f3e
000001a0: 76ff 123f 3bc4 613e 2489 34bd 9c00 363e
000001b0: 1497 333e d921 fe3d 4cf8 3cbe f0a1 2a3e
000001c0: f75a 3e3e 1781 a93e 1e41 523e 27fa af3d
000001d0: bf50 c73d 7f5c d0bd 10df 3a3e d0f5 1ebd
000001e0: 6bea 603d 8c41 ae3e f54a 4a3e 80cb b63d
000001f0: 75af 2e3e 0dbe babd e237 36bc b998 dc3d
0.4902063 0.24577545 0.41845393 0.12424246 0.1421755 0.43822968 0.38503042 0.3370045
0.2292015 0.38070112 0.019390725 0.045107163 0.035277747 0.6137126 0.2610857 0.12483045
0.3600335 0.41464147 0.51444685 -0.009590151 0.17269246 0.17656149 0.41716766 0.2653916
0.25241065 0.27566338 0.38739386 0.22872008 0.6523657 0.3256741 -0.039593216 0.16436261
0.25049937 -0.20219477 0.27157456 0.08679761 0.025731957 0.35635978 0.16443087 0.19614068
0.23492634 0.30865404 0.118565805 0.40253773 0.286092 0.20524557 0.30332366 0.19013526
0.37761077 0.050757162 0.2961882 0.23840389 0.16675355 0.14154145 0.18422496 0.30117995
0.33504686 0.20184138 0.11321503 0.025082791 0.12060233 0.5056682 0.12221602 -0.052041695
-0.007773212 -0.013043459 -0.08888407 -0.15451956 0.16775617 -0.10225861 0.07960966 0.10470634
-0.167335 -0.060218137 -0.011134355 -0.30035397 -0.19506262 -0.18407176 -0.028312046 0.16393338
0.07713844 -0.16636965 0.06417478 -0.08525541 -0.4760909 0.2324699 -0.120095275 0.009225688
0.21873754 -0.14197087 -0.043548297 -0.041365396 -0.18599093 0.27848706 -0.20623167 -0.11962573
0.23174842 0.2901893 0.25540435 0.33380657 0.329736 0.13964145 0.14350899 0.20304261
0.5742105 0.22047512 -0.0440761 0.1777367 0.175381 0.124088 -0.18454093 0.16663337
0.18589388 0.331063 0.20532653 0.08592635 0.09732198 -0.10173892 0.18249154 -0.038808644
0.05491106 0.34034383 0.19755156 0.08925533 0.17059119 -0.091182806 -0.011121722 0.10771317

encoder.lstm.bias_hh_l0 f4 [128]
00000000: 4171 843e 36cf 6c3e 287e 2e3e b780 903e
00000010: 7f54 423e e837 543e b1ca 883e df7a 6d3e
00000020: eb0c 2f3c dcb8 ca3e c09c 123d beb1 6e3e
00000030: 5e30 663d a375 373f 0d99 9a3d a2ed 9f3e
00000040: ed4e 043e 48f0 f33e c677 8d3e 3875 d9bd
00000050: 1024 153d 76ef 903e b070 c53e c129 b53d
00000060: fb2b 843e dc0b ea3e 83a7 803e 733d 3b3d
00000070: 216f db3e fc66 ec3e 9199 cd3c 4202 653e
00000080: ccce 093e 5162 77be e2ce a3bc ab1f 893d
00000090: 50df 573e b797 bd3e 988d ad3d 7dd2 c03e
000000a0: 8a16 583e cbf7 e03e f97b dc3d fb51 8a3e
000000b0: 9c20 723e 4424 dc3e d453 8c3e 3c4b 4e3e
000000c0: d480 a03e 5ea0 903d d81c 173e 8ef3 2cbc
000000d0: 0c53 183e 40be 4c3e 77a1 45bc 8556 8a3e
000000e0: fd81 9d3e 0598 9e3e d74f 553e bf2a 963e
000000f0: 8e8a 653e 1937 b83e 6900 a03e b932 2d3e
00000100: 6230 0d3e 8da1 72be 41c7 6cbe d51d 0abe
00000110: 60e6 823d bccb 25be a127 2f3e 60ec 6a3d
00000120: f268 31bd 0a30 32be 8669 3cbe 8bbc 87be
00000130: 1707 fc3c 5a62 a3bd 1444 093c a289 c7bd
00000140: 8832 8c3e 4585 39be 7d62 c8bc 614a 20bd
00000150: bdef f5be 4ed0 883c e79c 73be f9f5 15be
00000160: 8f1b 393e df5e babd e9e1 82be ddb0 e1bd
00000170: c9e0 31be a695 713e d3b2 90be 10f7 4abe
00000180: 2d40 913e 34f2 803e 0afc 883e 3f1a 4b3e
00000190: 981f d43e 3c6c 683d 949d c83d 8f28 b9bd
000001a0: 577b e43e d13f 8e3e 18e7 893c d90f 8e3d
000001b0: 2892 923d 8827 8d3e fbfa debc 7127 913c
000001c0: b158 fd3c 68d8 0d3f c48e 0a3c 674c 733e
000001d0: 0c2c 053c 9371 b0bc bd3f 2e3e 7bff 343e
000001e0: d587 91bb f9d1 0e3e c81d 963d a064 503e
000001f0: c3d1 643e be65 50bd 490e 733e e368 6d3e
0.25867656 0.2312592 0.17040312 0.28223202 0.18977545 0.20724452 0.2671714 0.23191403
0.010684232 0.39594162 0.03579402 0.23309991 0.05619847 0.71663874 0.07548723 0.31235987
0.12920733 0.47644258 0.27630442 -0.10618061 0.036411345 0.28307694 0.38562536 0.088458546
0.25814804 0.45712173 0.251278 0.0457129 0.42858222 0.4617232 0.02509764 0.22364143
0.13457793 -0.24158598 -0.01999611 0.06695493 0.2108128 0.37029812 0.084742725 0.3766059
0.21102348 0.4393905 0.107658334 0.2701567 0.23645252 0.42996418 0.27407706 0.20145887
0.31348288 0.070618376 0.14757097 -0.010556115 0.1487543 0.1999445 -0.012062422 0.27019134
0.30763236 0.30975357 0.20831238 0.29329488 0.22416136 0.35979536 0.31250313 0.1691388
0.13787988 -0.23694439 -0.23122884 -0.13487943 0.06391597 -0.16191 0.17104961 0.05735433
-0.043312974 -0.17401138 -0.18399629 -0.26511034 0.0307651 -0.079777434 0.0083780475 -0.09743048
0.27382302 -0.18117245 -0.024461025 -0.039133433 -0.48034468 0.01670089 -0.23790322 -0.14644612
0.18076919 -0.091001265 -0.2556298 -0.11020062 -0.17370905 0.23592243 -0.28261432 -0.1982081
0.28369275 0.25184786 0.2675479 0.19834231 0.41430354 0.056743845 0.09795681 -0.09040939
0.4462535 0.27783063 0.016833827 0.069366165 0.07156783 0.27569222 -0.027219286 0.017719002
0.03092608 0.55408335 0.00845689 0.23759614 0.008128177 -0.021538531 0.17016502 0.17675583
-0.0044412413 0.13947286 0.07329899 0.20350885 0.22345643 -0.05087828 0.23735918 0.23184542

policy.net.0.weight f4 [128, 32]
00000000: 81f1 a8be 111b 4c3a 0484 f7bd afde ccbe
00000010: 41dc 283d 1ca2 0dbe a84c 443b dc1f b73e
00000020: ac3a 033f 1dc1 62be dc36 30be 9244 a4be
00000030: 016f a0be f52e 843d 4532 70bc 9bf3 263e
00000040: 6982 bdbc 57f6 56be 12fb c4be 356e 573e
00000050: 6649 d63d 16cc 9e3d ad26 1fbe 9fb5 aabd
00000060: c7d3 673e 0bd1 6e3e d63a 82be bbb6 b8be
00000070: b7bc 26be 0a10 5f3d 99af 7fbe 215f a1be
00000080: 99b0 3f3c 37b7 2c3c 0d36 febd ba5d 3b3b
00000090: d9cf b3bd 1cd3 51bd 326e bcbe 2cff c23e
000000a0: c094 e33e 3bb9 11be 8a64 2bbe 05fc 91bc
000000b0: ae30 08be 643b cfbd eaf0 0abe b0e8 19bd
000000c0: 8b40 fd3d 4575 14be 2ada adbc ebff d23d
000000d0: 7f9b d2be 212f 7cbd 6a9a 5c3d 8852 323d
000000e0: 99cb 413e 46aa c53d 3a15 503e f534 b63d
000000f0: 0fc1 21be edb9 013e 50bc 803e a4c5 9dbe
00000100: b687 57be 31fd 32be 33a4 a7bd 45b2 63be
00000110: 98b7 3ebd 46a6 3bbe a552 1dbe 9b90 ca3e
00000120: 8ab5 213f 4a52 06be 0c32 6b3d 93de 173e
00000130: 377d c0be f33b b4bd cb37 67be 83a3 263e
00000140: 3057 1fbd 116f e6ba d973 18be cfb9 e23e
00000150: b54f ebbd 4c66 ee3d 1205 acbd 28c8 60be
00000160: eca8 93bd dd74 773e 759d 84bd 3b64 113d
00000170: c054 cbbd 92f2 91ba 2170 db3d 4dc5 bdbe
00000180: 2b7e de3e 7570 b4be 9c08 fabd a599 783e
00000190: 42b1 603e 0ac3 353b 2a47 7dbe 76d7 5dbe
000001a0: 35ad 9b3e 442b b2bd e444 2c3e d4e8 9ebe
000001b0: bf6b 12bf ecd4 c6bd 7635 843e 2c8d 4dbe
000001c0: a58c cabe e928 af3d 9364 e8bc 491b 673d
000001d0: f15a 1fbe c488 62be 64e3 d13d 6d55 c8be
000001e0: df64 a9bd 9e91 f5bb 8633 b43e 8fd2 de3e
000001f0: 0f4b 193e 5f3c d1bd 0dcd 343e 905d 57be
00000200: d4a1 9f3d eae9 ae3e b5c2 56be bdc1 78be
00000210: fd2b 1dbe ab9f 883e 3a60 36be b523 b7be
00000220: 98da 90be c080 05be 2574 d53e 3768 f7be
00000230: a3a7 5abf 69d6 76be 1eac d33d c9ee 81be
00000240: d8d0 80be 9148 d7be ea64 85bc 9355 f9bd
00000250: f455 00bd 720a 31bf 1c36 8bbc bf14 043d
00000260: 44be a5be bf93 febc 3afe b03e f37a d2bc
00000270: 1e14 753e a564 17bf 8f01 933e a812 a5bd
00000280: 2fe4 c23c 950d 0ebe 282d 55be 9a01 863e
00000290: 2c50 613e f5a6 63be 7a44 b93e ea6a 39be
000002a0: 3f7e 48be 2033 d9bc 5a57 63bd 43b9 2a3e
000002b0: 8e2b ab3e 5436 a1bd d2d4 8dbc 18ca 1bbe
000002c0: b145 143d 727b ef3d 6b36 9cbd 4726 4cbc
000002d0: d680 b43d a51a 1abe 0b09 803d a7d0 2ebe
000002e0: 0e91 0cbe 4eb7 a3bd 3d0a 2abd 70eb 403e
000002f0: b2ca 5e3d 4188 0dbe 69b5 5abe 5ff9 c23e
00000300: 31c5 3cbd cf07 0f3e 9d5b fb3e 4f08 c6be
00000310: 0e51 733e 7ecb 7fbd 8051 633d 50f2 34bd
00000320: d86f 73be e58a 9fbd c29a 6d3e dd2f 7f3e
00000330: 4b02 adbe b6e2 863d 9ea2 cabe 1aa8 17be
00000340: bc66 ebbd 1cb4 37be f092 16be 0614 ebbe
00000350: 170f c5be 1969 04bf fe66 333e 5071 bf3e
00000360: 0798 c9bd 5137 a63e 0797 48bb 7aac 703d
00000370: 73d6 ae3e 14df f0be 6f5f c83c b51b d03c
00000380: 4c27 013e 0363 f83d 0918 893d 44a4 f73d
00000390: da1c 07be 98db 06bd 6d72 edbd fc30 08be
000003a0: b6cb ae3d 069b 09bd f08c a8bd 5005 35bc
000003b0: ffc9 00be d00a 113d ada7 933d a581 713c
000003c0: 401f afbc d807 543d 6000 8c3d 846b debc
000003d0: 7415 2b3e 135b 69be e9fb 04bc 2fc7 a33c
000003e0: 1e6a 97bd 66dc ab3d f996 d5bd fe73 e83d
000003f0: 873c a73c 2cf7 423c d0d1 d03c 998f 083e
-0.32996753 0.00077860156 -0.12085727 -0.40013644 0.041225675 -0.13831371 0.0029952917 0.35766494
0.512614 -0.2214398 -0.17208427 -0.32083565 -0.3133469 0.06454269 -0.014660423 0.16303866
-0.023133473 -0.20992409 -0.384728 0.21038134 0.104632184 0.0775377 -0.15542097 -0.08335423
0.2263938 0.23321931 -0.25435513 -0.36076912 -0.16282926 0.054458655 -0.24969329 -0.3151789
0.011699819 0.010541729 -0.12412653 0.00285898 -0.08779878 -0.05122672 -0.36802822 0.38085306
0.44449425 -0.14230816 -0.16737571 -0.017820368 -0.1329982 -0.1011875 -0.13568464 -0.037575424
0.12365826 -0.1449786 -0.021222193 0.10302719 -0.4113426 -0.061568383 0.0538582 0.04353574
0.18925323 0.09651618 0.20320597 0.088968195 -0.15796302 0.12668581 0.2514367 -0.3081485
-0.21047863 -0.17479397 -0.081856154 -0.22235973 -0.046561807 -0.18325147 -0.15363558 0.3956345
0.6316763 -0.13117328 0.057420775 0.14830999 -0.3759553 -0.08800497 -0.22579877 0.16273312
-0.038901508 -0.0017580708 -0.14887942 0.44282386 -0.11489812 0.11640605 -0.083994046 -0.21951354
-0.07209954 0.24165674 -0.06475345 0.035495978 -0.09928274 -0.0011134914 0.10714746 -0.3706459
0.43455634 -0.35242048 -0.12208673 0.2427736 0.21942618 0.002773466 -0.24734178 -0.21664223
0.30405584 -0.086996585 0.16823155 -0.3103701 -0.5719566 -0.097085804 0.25822037 -0.20073384
-0.39560428 0.08552725 -0.02836827 0.056422506 -0.15562035 -0.22122484 0.102484494 -0.39127675
-0.08271193 -0.0074941656 0.3519556 0.43520018 0.14970039 -0.10216593 0.17656346 -0.21031785
0.07794538 0.34162837 -0.20972712 -0.24292655 -0.15348811 0.26684317 -0.17810145 -0.3576943
-0.28291774 -0.13037395 0.41690174 -0.48321697 -0.85412043 -0.24105228 0.10335563 -0.2537749
-0.25159335 -0.4204755 -0.016283471 -0.12174525 -0.03133197 -0.69156563 -0.016993575 0.032246348
-0.32371724 -0.03107631 0.3456896 -0.025693392 0.23933455 -0.59137946 0.28712127 -0.08060199
0.023790447 -0.13872369 -0.20818007 0.26173097 0.2200324 -0.22231658 0.36185056 -0.1810719
-0.19579409 -0.026513636 -0.055503227 0.16672234 0.33431667 -0.078716904 -0.017313395 -0.15213811
0.036199275 0.11693467 -0.07627567 -0.012460298 0.08813636 -0.15049227 0.06251725 -0.17071782
-0.13727209 -0.07993947 -0.04151367 0.18839812 0.054392524 -0.13821508 -0.21358265 0.3808088
-0.046086494 0.13967822 0.49093333 -0.38678214 0.23761389 -0.062449925 0.055497646 -0.0441764
-0.23773134 -0.07790164 0.23203567 0.24920602 -0.33790812 0.065862104 -0.39577192 -0.1481022
-0.114942044 -0.179398 -0.1470449 -0.45913714 -0.38488075 -0.51722866 0.17519757 0.37391138
-0.0984345 0.32464078 -0.0030607597 0.058758236 0.34147987 -0.47045195 0.024459569 0.025403837
0.12612647 0.1212826 0.066940375 0.12091878 -0.131946 -0.032924265 -0.115940906 -0.13299936
0.085349485 -0.033595107 -0.08230007 -0.01104863 -0.12577055 0.035410702 0.07209716 0.014740382
-0.021377206 0.051765293 0.06836009 -0.027150877 0.16707402 -0.22788648 -0.008116701 0.01999244
-0.07393287 0.08391647 -0.104291864 0.11350249 0.020414604 0.011899751 0.025490671 0.13336028

policy.net.0.bias f4 [128]
00000000: cc0f 613e ba31 173e e029 333d 8d61 c33d
00000010: b818 2ebe 27ec 0dbd 2507 2dbe fa33 9dbe
00000020: 646b 7b3d 3352 cf3d 9dee 8f3e 0aed 23bc
00000030: 43db 4b3e 4126 ee3d 8a7b 0d3e 4454 5c3d
00000040: b01d 843d a48e 173e 8338 4bbe aca6 8f3d
00000050: aa3d f53c 235b 783b 5851 3f3e 8bf8 c3bc
00000060: e6a3 d2bd b546 5cbe 010e 5abe 58b0 0ebd
00000070: 3ed2 46bd 1c19 2abe dec4 f53d 8bde d9bd
00000080: 36cc 89be e1d4 b1bd a534 3e3d 5487 0f3e
00000090: 7776 82bd 4695 0fbe a919 4d3e b417 3b3e
000000a0: 675d 9b3d ac16 1e3e a72c 303e f94e 0abe
000000b0: 599c ca3d 0462 013e a730 8cbe a4b5 4cbe
000000c0: 1120 153e f193 783d 86bf 65be 54fb 18bd
000000d0: 9da4 423e eae2 a4be 62d1 43bd b211 da3d
000000e0: e6d3 9bbd 8a2b 87bc cd71 c83d 693c a7bc
000000f0: d3d7 1f3e 97ac 723e 3f18 893e fa2f b6bd
00000100: b986 b1bc 1a74 dfbb b256 5b3d 7756 b33c
00000110: 8478 a2bd ff89 d23d 99ee 86be 2b3f 92bd
00000120: 63d1 d13d 81c7 bcbb 022c a23c f41b 85be
00000130: f52b 43bc 10f3 3d3e eb82 1b3e 9759 7d3e
00000140: 2126 c93d 3024 9c3d 161b 1a3c 0e06 b93d
00000150: 38c2 673d da63 efbd c3b9 57bd 46b7 58bd
00000160: 852a f13d b055 04bc 38d9 153d 6b91 933e
00000170: 0aac 983d b21f 203e df87 623e 6a63 23bd
00000180: f98f 123e fbe2 d13d ef31 2ebc 953a d8bd
00000190: 25ed 603e 0d12 3bbd dda0 2e3e 1d92 a73d
000001a0: 9d25 a13d aee1 123e 3cde 263e 2d36 4cbe
000001b0: 13d1 2c3e b4b2 09be e1b4 a2bd a733 dc3d
000001c0: 5c85 6e3e cd9e 52bd c7c4 99bb 2394 fb3d
000001d0: 5c59 95bd dc27 aa3d a9b7 333d e92c 0e3e
000001e0: 173c 793e 6a4d 553e bbdd 7d3d 1947 b93d
000001f0: 43b7 d5ba 4b99 263e 319b 0f3e 20b0 e2bd
0.21978682 0.14765063 0.043741107 0.09540091 -0.17001617 -0.03464904 -0.16897257 -0.30703717
0.061381713 0.101231 0.28111735 -0.010005245 0.1990786 0.1162839 0.13816658 0.0537913
0.06450975 0.14800507 -0.19845776 0.07014212 0.02993663 0.0037896119 0.18683374 -0.023922225
-0.102851674 -0.21511348 -0.21294405 -0.034836143 -0.048540346 -0.16611141 0.1200044 -0.1063815
-0.26913613 -0.086831816 0.046436924 0.14016467 -0.063702516 -0.14021787 0.2002932 0.18270761
0.075861745 0.15438336 0.17204534 -0.13506688 0.09893102 0.12635046 -0.2738087 -0.19991165
0.14563014 0.060687963 -0.22436342 -0.03734906 0.19008107 -0.32204372 -0.047807105 0.10647906
-0.07608776 -0.016500253 0.09787331 -0.020414548 0.15609674 0.2369865 0.2677631 -0.088958696
-0.021670686 -0.0068192603 0.053549476 0.021891816 -0.07933143 0.10280227 -0.2635391 -0.071409546
0.102450155 -0.0057610874 0.019796375 -0.2599789 -0.011912336 0.18549752 0.1518666 0.24741207
0.09821726 0.0762409 0.009405872 0.09034358 0.056581706 -0.11688967 -0.05266739 -0.05290916
0.11775688 -0.00807707 0.03658411 0.28821883 0.07454689 0.15637091 0.22122143 -0.03988973
0.14312734 0.10248371 -0.010632022 -0.10558049 0.21965463 -0.04567151 0.17053552 0.08182166
0.07868502 0.14343902 0.16295713 -0.19942541 0.1687663 -0.13447076 -0.07944656 0.107520394
0.2329306 -0.051420975 -0.004692647 0.12284114 -0.072924346 0.08308384 0.043876324 0.1388432
0.24339329 0.20830312 0.061979037 0.09046764 -0.0016305227 0.16269414 0.14024045 -0.110687494

policy.net.2.weight f4 [5, 128]
00000000: 5f7f 88be 8e34 96be 4a75 81bf d383 acbe
00000010: c5d1 43c0 f338 d3bf 51c9 d9bf 8ee9 b53c
00000020: 4c43 88be 402e ddbe c344 a9be 6443 67bf
00000030: 83a9 9abe e553 21bf a794 c5be f796 fabe
00000040: bd75 d9be a066 b0be 1bb6 42be e219 9cbf
00000050: 777f f7bf 0628 7cbe cd75 1fbe b267 53bf
00000060: 19cd 97bf c62c 98bf e5f2 aabe 5a84 1cbe
00000070: 126a ebbe b5db acbe 3c36 a8be 8a15 a5be
00000080: a1a9 3cbf 3448 2abe f5fc d7be 7373 42be
00000090: 7c8e 62bf a008 21c0 bd4f e3be 1453 4abf
000000a0: 0981 e9be 3259 1bbe e3d8 02bf 3f11 9bbe
000000b0: 1173 77bf d71b 68be 0b66 5cbe 00e7 84be
000000c0: 99da d7be b118 f2bf 137c 5ebf 3784 c6be
000000d0: 5518 f5be f8b9 01bf 3acc cfbe 5576 14bf
000000e0: 92ce 57c0 6c99 9fbf 4b0e cfbe 0ef8 febf
000000f0: eb58 61be f089 b4be 5fe3 82be ea08 45c0
00000100: 7706 5fc0 163c 21c0 a7a5 70be bbca 47c0
00000110: 0a93 d9bf 05ad 1bbe 0acf b5bf e2c0 39c0
00000120: 51b6 9dbd 1f9e a0be 4033 86bf a3f9 88bd
00000130: 7402 05bf 88f2 a7be fa23 1dbe 7578 8fbe
00000140: 68bc 5fbf 3899 80be c835 6dbe 9207 a0bd
00000150: a189 c5be 9592 1fbe 82f0 83bf 85fb 09c0
00000160: ffad b8be 1634 a9be d1c7 0cbf c9bf e3be
00000170: bb30 99be 8826 f1bf 1389 22bf 559c 98be
00000180: 5842 68be 08dd 1abf 5269 84bf 85bc 8cbe
00000190: 94d1 02bf 298d 05bf 555c 7ebe b7a7 98bf
000001a0: eb4c a1be 04d5 f5be 7fbb fabe f22e edbe
000001b0: 00a0 e6bf f1a1 0bbe 7b27 f6be 7b0e afbf
000001c0: cd17 ebbe f29e 7fbf 7507 80be 0e50 abbe
000001d0: 61b8 94bf a762 61bf 8d67 a9bf aa48 66be
000001e0: ef23 a2be 307e b8be 16d6 92be d8a0 69be
000001f0: dfe4 7ebe 1e17 99be b422 adbe 9eb0 9bbf
00000200: 0e72 94be 1354 adbd d284 0e3e 4e57 d7bc
00000210: 131f 5abf 1128 883b 1c1e 0fbc 546d 743d
00000220: 5eaf 073d e2d8 cb3e 1050 a13d 1c24 97bc
00000230: 97fa ae3c 71eb 133e 0c9c 16bd 467d ed3d
00000240: 2748 923d 424f 3d3e a4ae 6bbd 1f45 03be
00000250: 0512 323e 3530 963d 421f 223e 469e 1d3c
00000260: 87a5 7a3f 19eb 043d 97f6 313d 7007 14be
00000270: fac5 863d 0737 623d 0b05 0d3e 4005 843d
00000280: 8917 993f aaad bfbd 94cf 9dbd fb06 cc3c
00000290: addb cc3d 5c1a efbe 8381 373d 7dae 22be
000002a0: 6194 94be 86fb 04be d9df abbe b659 443d
000002b0: 7375 ba3d fad6 583e caa3 813d 0152 afbb
000002c0: 8759 cf3d 989e e93e 1476 38bf 6c1c 3a3d
000002d0: c254 31bc 064e a13d cf12 2e3d 858b 3cbe
000002e0: 359e 363f 5721 36be 3936 d3bd 94d0 a23d
000002f0: 655d eb3c be5d a5bc 3917 bd3d 3de0 9e3e
00000300: c855 943e 56e9 93be 64bd 8c3c 5ecc acbe
00000310: 51cb cebe afe1 7b3d 219f d4be a3f1 823c
00000320: c069 afbe cdc8 b03c 2544 543e 2e7b 073c
00000330: 20e5 46be 4c25 6a3d cd80 8cbe dbf2 24bd
00000340: 5ed1 6c3d e9a6 fdbc 1984 623d aed0 b3bd
00000350: eaaa dc3d fe80 1a3d 7e3c b0bd 3d39 51bf
00000360: ab99 bc3d ba91 ae3d c123 c33e 1d71 0a3f
00000370: fcab 3e3e 7d35 6f3e f3c2 873c 7e65 71bd
00000380: 5f0c 3cbd 6464 6b3d 532a 653d 046a 593b
00000390: 8a89 703c 71be da3d 28a7 31bd d601 c33d
000003a0: 00b9 803c 4cbb 3ebe 22af 343d b171 513c
000003b0: 89bb c2be 6ac0 b6be 8eec e73d db50 b83e
000003c0: ac5f 6a3e e7f6 d33e be69 723d b101 bdbe
000003d0: 2734 b53e dd2d b5be c738 5a3d 7c69 98bc
000003e0: bd7c 5b3a 2f72 e83c e1c1 46bf be05 85bd
000003f0: 1bee 2c3d b918 d73d 7aac 1c3e 9bef 91bd
-0.26659676 -0.2933697 -1.0113919 -0.33694324 -3.0596783 -1.6501755 -1.7014562 0.022206094
-0.26613843 -0.43199348 -0.33060274 -0.90337205 -0.30207452 -0.6301864 -0.38589975 -0.48943302
-0.4247264 -0.34453297 -0.1901478 -1.2195399 -1.9335774 -0.24624643 -0.15572281 -0.825801
-1.1859466 -1.1888664 -0.3338844 -0.15284863 -0.45979363 -0.33761373 -0.32853878 -0.32242996
-0.73696333 -0.16629106 -0.42185178 -0.18989353 -0.88498664 -2.5161514 -0.44396773 -0.7903302
-0.4560626 -0.15170744 -0.5111219 -0.30286595 -0.9665995 -0.2266687 -0.21523301 -0.2595749
-0.42158964 -1.8913785 -0.8690807 -0.38772747 -0.47870126 -0.5067439 -0.405855 -0.5799306
-3.371983 -1.2468696 -0.40440592 -1.991945 -0.22006576 -0.35261488 -0.25564095 -3.078669
-3.4847696 -2.5192924 -0.23500691 -3.1217487 -1.6997998 -0.1520272 -1.4203808 -2.9023976
-0.0770079 -0.31370637 -1.048439 -0.066882394 -0.5195687 -0.32802224 -0.15345755 -0.2802159
-0.8739686 -0.25116897 -0.23165047 -0.07813944 -0.38581565 -0.1558326 -1.0307772 -2.1559765
-0.36070248 -0.3304755 -0.54992396 -0.44482258 -0.2991999 -1.8839884 -0.6349041 -0.29806772
-0.22681558 -0.60493517 -1.0344641 -0.2748758 -0.5110104 -0.5216852 -0.2483991 -1.1926183
-0.31503996 -0.4801408 -0.48971173 -0.4632488 -1.8017578 -0.13635994 -0.48076996 -1.3676294
-0.45916596 -0.99851906 -0.2500569 -0.33459514 -1.1618768 -0.88041157 -1.3234726 -0.22488657
-0.3166804 -0.36033773 -0.2867896 -0.22815263 -0.24891995 -0.2990045 -0.3381554 -1.2163274
-0.28993267 -0.084633015 0.13917854 -0.026286747 -0.85203665 0.004155167 -0.008735206 0.059674576
0.033126228 0.39813906 0.07876599 -0.018449835 0.021359725 0.14445283 -0.03676991 0.1159616
0.07142668 0.18487266 -0.057539597 -0.12819336 0.17389686 0.073334135 0.15832236 0.009620255
0.97908825 0.03245077 0.043448057 -0.14455962 0.0658073 0.05522826 0.13771455 0.06446314
1.1960307 -0.09359296 -0.07705608 0.024905672 0.10002837 -0.46699798 0.044801246 -0.15886874
-0.29019454 -0.12986574 -0.3356922 0.047937118 0.09104433 0.21175757 0.063300684 -0.005350352
0.10124498 0.4562881 -0.7205517 0.04543726 -0.0108234305 0.0787621 0.042498406 -0.18412597
0.71335155 -0.17786156 -0.103130765 0.07949939 0.028731057 -0.020186301 0.09232945 0.31030455
0.28971696 -0.2888896 0.017180152 -0.3374967 -0.40389493 0.061494526 -0.41527656 0.015984362
-0.34260368 0.021580124 0.2072912 0.008269114 -0.19423342 0.057164475 -0.27442017 -0.040270668
0.057816856 -0.030963378 0.05530176 -0.08780037 0.10774787 0.037720673 -0.08605288 -0.81727964
0.09208997 0.08523889 0.38113216 0.5407885 0.18620294 0.23360248 0.016572451 -0.05893468
-0.045910235 0.057468787 0.055948567 0.0033174763 0.014681229 0.10680855 -0.043372303 0.095218346
0.015713215 -0.18626136 0.044112332 0.012783454 -0.38033703 -0.35693675 0.11324416 0.35999188
0.22888058 0.4139931 0.059182875 -0.36915353 0.35391352 -0.35386553 0.053276803 -0.018604986
0.00083727745 0.02837476 -0.77639586 -0.06495236 0.042219263 0.10502762 0.1530017 -0.07125779

policy.net.2.bias f4 [5]
00000000: 97fa e4be 8547 47bd 588a e73d 6227 a4bc
00000010: 9b1b e13d
-0.44722435 -0.04865219 0.11305684 -0.02003831 0.109915935

exp_avg f4 [900, 16]
00000000: 1ee8 1db6 d23d 31b7 4fda 0e38 42db da37
00000010: 8dc9 4bb7 6c48 e7b4 25d2 0eb8 d103 8735
00000020: da90 b8b6 9771 9138 417e 58b7 98a7 6db7
00000030: 0b24 0d37 d724 88b8 fa06 c037 d51c 2738
00000040: 3365 b4b7 83af 2bb8 760c f6b7 f736 0938
00000050: feed 9bb4 ba89 4337 ed5c 66b6 65bb 3b37
00000060: ec6f 0537 b9f4 4138 2a83 5f37 815d 8836
00000070: 117c dbb7 d04d 13b8 345a 83b7 acb0 85b7
00000080: 9bc0 7437 3bc2 8a38 5990 35b8 14fd 39b6
00000090: 47e5 e8b6 3223 55b8 5618 74b8 e047 43b7
000000a0: af8d 1bb8 7825 3e38 7552 2d37 67dd 3437
000000b0: 8bf2 28b8 5f42 26b7 5a9b 5637 b911 80b7
000000c0: 8cda b437 482f 9738 7a0c 6eb8 5507 75b7
000000d0: 7d0c c4b7 b4ae 2ab8 ede3 abb8 dc35 2933
000000e0: 21bd deb7 f1b0 4f38 bac5 b635 4c76 31b7
000000f0: cd09 64b8 e61d ca37 a973 a636 8f9e 8937
00000100: 3d20 5db7 59e9 d337 776b 1536 3b2d 5638
00000110: 8505 3038 887e 4cb8 a5f1 97b5 576e 44b7
00000120: fe95 95b5 61a2 c938 e378 0db8 9e84 a1b7
00000130: 1cdb 1eb8 3be0 aab3 4050 9b37 8cd7 3db6
00000140: 0000 0000 0000 0000 0000 0000 0000 0000
00000150: 0000 0000 0000 0000 0000 0000 0000 0000
00000160: 0000 0000 0000 0000 0000 0000 0000 0000
00000170: 0000 0000 0000 0000 0000 0000 0000 0000
00000180: 0000 0000 0000 0000 0000 0000 0000 0000
00000190: 0000 0000 0000 0000 0000 0000 0000 0000
000001a0: 0000 0000 0000 0000 0000 0000 0000 0000
000001b0: 0000 0000 0000 0000 0000 0000 0000 0000
000001c0: 0000 0000 0000 0000 0000 0000 0000 0000
000001d0: 0000 0000 0000 0000 0000 0000 0000 0000
000001e0: 0000 0000 0000 0000 0000 0000 0000 0000
000001f0: 0000 0000 0000 0000 0000 0000 0000 0000
00000200: 0000 0000 0000 0000 0000 0000 0000 0000
00000210: 0000 0000 0000 0000 0000 0000 0000 0000
00000220: 0000 0000 0000 0000 0000 0000 0000 0000
00000230: 0000 0000 0000 0000 0000 0000 0000 0000
00000240: 0000 0000 0000 0000 0000 0000 0000 0000
00000250: 0000 0000 0000 0000 0000 0000 0000 0000
00000260: 0000 0000 0000 0000 0000 0000 0000 0000
00000270: 0000 0000 0000 0000 0000 0000 0000 0000
00000280: 0000 0000 0000 0000 0000 0000 0000 0000
00000290: 0000 0000 0000 0000 0000 0000 0000 0000
000002a0: 0000 0000 0000 0000 0000 0000 0000 0000
000002b0: 0000 0000 0000 0000 0000 0000 0000 0000
000002c0: 0000 0000 0000 0000 0000 0000 0000 0000
000002d0: 0000 0000 0000 0000 0000 0000 0000 0000
000002e0: 0000 0000 0000 0000 0000 0000 0000 0000
000002f0: 0000 0000 0000 0000 0000 0000 0000 0000
00000300: a94b 5737 7726 a438 dac9 0cb8 6c8e 9e36
00000310: b7f7 34b8 1093 04b8 19d9 eeb8 1cd6 91b5
00000320: c34d 29b8 c076 64b7 7ae6 95b6 ec91 9fb7
00000330: 1f48 eeb7 1868 14b7 161a 4038 8305 1db7
00000340: a4a4 4bb8 17b4 b438 fab5 3cb8 931a 98b6
00000350: 0a1a bbb6 9594 3fb8 6520 4cb8 c5fe 2b37
00000360: 0233 59b8 6491 8237 e9fd 9436 7e97 beb7
00000370: 2647 61b8 4456 3937 0548 6638 0b65 14b8
00000380: 8c10 ea35 5181 b438 3904 e436 f171 6937
00000390: 5f83 2e37 4feb 81b8 5fab a7b7 8a42 bd37
000003a0: 5a36 aeb8 b339 5ab7 1864 afb7 8f58 ca37
000003b0: 522f bfb7 e707 35b7 f6c6 5538 7a9e 45b8
000003c0: 3b96 1eb8 93fe 7438 694c bcb8 67e4 85b8
000003d0: ea69 d4b7 42da 18b8 6bcf 48b8 0588 9138
000003e0: 80b0 aeb8 5ed3 9fb8 c2bf 9238 60fd f5b5
000003f0: 1506 4bb8 e2dc 98b7 5c64 7ab8 6d4a 5037
-2.3529933e-06 -1.0564416e-05 3.4058754e-05 2.6089725e-05 -1.214667e-05 -4.3079797e-07 -3.405115e-05 1.0059395e-06
-5.5004903e-06 6.9352966e-05 -1.2903999e-05 -1.4165322e-05 8.412647e-06 -6.491847e-05 2.2891432e-05 3.9842755e-05
-2.1504797e-05 -4.0933035e-05 -2.9331288e-05 3.2714535e-05 -2.9044162e-07 1.1654973e-05 -3.432676e-06 1.11897e-05
7.953477e-06 4.62427e-05 1.3322375e-05 4.064001e-06 -2.6164607e-05 -3.512e-05 -1.5658421e-05 -1.5937105e-05
1.4588378e-05 6.616531e-05 -4.3288197e-05 -2.771446e-06 -6.94083e-06 -5.0815936e-05 -5.8196798e-05 -1.163964e-05
-3.7086833e-05 4.5334426e-05 1.0330802e-05 1.0780385e-05 -4.0280207e-05 -9.909824e-06 1.2791565e-05 -1.5267042e-05
2.1559441e-05 7.209048e-05 -5.675524e-05 -1.4604845e-05 -2.3370836e-05 -4.0693863e-05 -8.19637e-05 3.9397364e-08
-2.6552532e-05 4.9517435e-05 1.3617603e-06 -1.0577565e-05 -5.4368564e-05 2.4094199e-05 4.96065e-06 1.6405507e-05
-1.3180133e-05 2.5261821e-05 2.2265283e-06 5.10637e-05 4.196681e-05 -4.875523e-05 -1.1320705e-06 -1.1708201e-05
-1.1145019e-06 9.614672e-05 -3.3729604e-05 -1.925445e-05 -3.7874197e-05 -7.957029e-08 1.851481e-05 -2.828866e-06
0.0 0.0 0.0 0.0 0.0 0.0 0.0 0.0
0.0 0.0 0.0 0.0 0.0 0.0 0.0 0.0
0.0 0.0 0.0 0.0 0.0 0.0 0.0 0.0
0.0 0.0 0.0 0.0 0.0 0.0 0.0 0.0
0.0 0.0 0.0 0.0 0.0 0.0 0.0 0.0
0.0 0.0 0.0 0.0 0.0 0.0 0.0 0.0
0.0 0.0 0.0 0.0 0.0 0.0 0.0 0.0
0.0 0.0 0.0 0.0 0.0 0.0 0.0 0.0
0.0 0.0 0.0 0.0 0.0 0.0 0.0 0.0
0.0 0.0 0.0 0.0 0.0 0.0 0.0 0.0
0.0 0.0 0.0 0.0 0.0 0.0 0.0 0.0
0.0 0.0 0.0 0.0 0.0 0.0 0.0 0.0
0.0 0.0 0.0 0.0 0.0 0.0 0.0 0.0
0.0 0.0 0.0 0.0 0.0 0.0 0.0 0.0
1.2832615e-05 7.827294e-05 -3.356659e-05 4.725347e-06 -4.3146047e-05 -3.1608215e-05 -0.00011389162 -1.0865656e-06
-4.036516e-05 -1.3617508e-05 -4.467377e-06 -1.9022227e-05 -2.8405395e-05 -8.845724e-06 4.580066e-05 -9.3592125e-06
-4.8552305e-05 8.616613e-05 -4.499217e-05 -4.5330466e-06 -5.5760656e-06 -4.5676326e-05 -4.866756e-05 1.0251712e-05
-5.1784336e-05 1.556491e-05 4.4403027e-06 -2.2720309e-05 -5.3710442e-05 1.1046945e-05 5.4903347e-05 -3.5380053e-05
1.7439174e-06 8.607156e-05 6.795421e-06 1.3914411e-05 1.0401795e-05 -6.195029e-05 -1.9987752e-05 2.256154e-05
-8.30709e-05 -1.3007247e-05 -2.0908235e-05 2.4121515e-05 -2.279101e-05 -1.0790281e-05 5.0968454e-05 -4.7116053e-05
-3.781005e-05 5.8411224e-05 -8.978771e-05 -6.3844775e-05 -2.532169e-05 -3.6442892e-05 -4.787689e-05 6.9394744e-05
-8.329842e-05 -7.621081e-05 6.99754e-05 -1.8327664e-06 -4.8404636e-05 -1.8222669e-05 -5.969811e-05 1.2415095e-05
