ISE_Transformer/model/2_room/eil_2_room_198_model/EBC_model_49999.pth (torch, 319288 bytes, 27 tensors)

encoder.embedding.weight f4 [900, 16]
00000000: e322 033e d7a2 41bf 7973 823f 1079 e73f
00000010: 2b50 0f3f 83c9 583f ecef 73bd e65e 4d3f
00000020: 1b1d c93f 1f3a 803f 1721 c13f 9ef3 5abf
00000030: 28c7 d13f 74cb 2dbf d99d 85bf 4f3d 2e3f
00000040: 7b61 90bf 344d 473e 601f 153f 2625 1ebf
00000050: 79b1 093f f505 0d3f 43b6 753e 056b 6c3e
00000060: 5dbb 71bf 710a b3bf dec9 0840 8ed0 cfbf
00000070: eed9 523f 36b3 02be 6d09 09bf 6978 c5bf
00000080: bcb5 353f cd13 febb 32dd d4be fa95 f63e
00000090: d217 b1bd 01b1 3f3e 70c1 f5be 0e9f 00c0
000000a0: e11d 13bf 1cbf 8b3f 1e4f 6abf 6fd7 e7bd
000000b0: 7384 aebf 3be7 d23c a0e9 5fc0 72d5 90bf
000000c0: 0709 d63e 1914 52bf 5213 b0bf b9ab 3ebf
000000d0: 5439 513f ce15 d23f a253 96bf 31db eb3e
000000e0: 9b70 adbf 549c c43d 961d 2d3f e7fc afbf
000000f0: 7651 8fbf 32ed 28bf 1f22 44bf 9b92 23c0
00000100: 8b63 863f d2e3 033f 924c bebf 969b 1c40
00000110: 54bc 71bf 4efb 50be 4c49 b4bf 18a7 a13e
00000120: 00d4 0cbf bc60 7ebe 6950 9e3d 7b3d e5bf
00000130: 4f04 0ec0 1885 13be 92fe efbe 6403 9a3d
00000140: b518 193e 4686 2e3f 0daa c83f 767d f33e
00000150: 41a4 80bf 09fb 82bf 3c7d 053f 5be3 f6be
00000160: c4ca 45bf 45a6 2f40 beea fcbf 30f0 d43e
00000170: 139d c83f c321 23bd 97e2 78bf b849 36bf
00000180: b5b7 753e e57c 99bf 171e 883f 144c 2dbf
00000190: 0cd4 29bf 842e ac3e 80b9 043f c4d6 843f
000001a0: 3de2 293d 8d83 573f 5a75 06be fc08 bfbf
000001b0: 2026 ba3e 4ad5 02bf 3846 d6be 3d48 973f
000001c0: 722c 88be d2df 4d3f a67b 9dbe 5f48 ad3f
000001d0: 44c2 2a3f 598f 71be 8154 2fbe 23c7 0f3f
000001e0: dc35 9d3e c8f4 ac3e 7400 053e 6f95 133f
000001f0: d158 a63c c0fd b23f 8f5e b53f c0bf c0bb
00000200: 45e8 61bf e3f6 f9be f994 adbf 1a0e 6fbe
00000210: 1735 ea3f ed78 cb3f 8a5e 363e ba0f 033f
00000220: f0d7 0bbf 86c2 b8bf 323e f6bf af88 90bf
00000230: 94de 803f c211 10bc 91f0 4dbf 8aa0 fb3f
00000240: 0af0 d23f 35e7 113f 9c2e 4abc 3f44 bcbf
00000250: b977 3dbd 9966 08bf bde4 283f 7df5 0b40
00000260: 45c5 f93e 2980 0b40 3a38 bbbf eb0b b2bf
00000270: 9346 ddbe f292 18be f77c d03d d6eb 33be
00000280: f3e7 a43e 5f13 9a3f 16cc ae3d e862 e1bf
00000290: 64f5 733d 0473 a7bf d01c 6c3e 8bbe 753f
000002a0: 40d0 103e 35a8 5c3f 5c43 8cbf 400f 92bf
000002b0: 2191 c0be 6303 83be a74a 91be bba9 8f3f
000002c0: ac14 0440 9122 063e bd48 693f 8468 ca3d
000002d0: ba85 2abf 05a8 6e3f a055 d13f 17dc 8cbf
000002e0: bb40 3c3f 7e9a 0140 377b 3ac0 955f 433e
000002f0: c2b8 2d3e 8734 33bf 8a28 c8bd 91a1 033f
00000300: 7612 943f 8841 663e e84e a6bf 79ab 0940
00000310: 4e22 263f 1603 1bbf ccab 86bf 96fb 62bf
00000320: 7446 c83f 1a5b 953f 745c b23f ffb9 46be
00000330: 9097 51bf 8990 c2bf cedb edbf b476 e1bf
00000340: 3f5a e33f 46c0 4e3d cee0 58bf 6253 333f
00000350: 02d8 cb3e 6cbe f6be 1cd7 23be 54a8 9ebe
00000360: 60f4 dabd 15c9 eabe 2bb2 293f f5a5 2dbf
00000370: eafd 953f 5ad0 9d3f f845 143f 8b69 3bbf
00000380: 67ab abbf 3675 d6bf 6aea 2fbf c113 99be
00000390: 3c6f 8e3f fd05 2a3f 5bb7 d9bf 719e d9bf
000003a0: 7591 993f b9a5 3e3f 9ff3 063e 31fb acbf
000003b0: 8941 9abf 1fa2 a6be 5fb6 ebbe 70c7 b93e
000003c0: 5a32 26be 892d cabe 6545 a7bd e145 3f3f
000003d0: 492a f23f 4e0d 233f 8ce6 89be dbf4 b5bf
000003e0: 072f 62be 027b ecbf b6b4 9d3f 8183 33be
000003f0: 769f 763f 73e0 e13d 017a 1140 dbe0 0fbe
0.12806277 -0.756391 1.019149 1.808382 0.559817 0.8468248 -0.05955498 0.8022293
1.5712007 1.0017737 1.5088223 -0.8552798 1.6388903 -0.6788857 -1.0438796 0.680623
-1.1279749 0.19463044 0.58251 -0.61775434 0.53786427 0.55087215 0.23995309 0.230877
-0.9442652 -1.3987561 2.137321 -1.6235521 0.82363784 -0.12763676 -0.5353001 -1.5427371
0.7098043 -0.0077538253 -0.4157501 0.48161298 -0.086471215 0.18719865 -0.47999144 -2.009708
-0.57467467 1.0917697 -0.91526973 -0.113203876 -1.363417 0.025745025 -3.4986343 -1.1315138
0.41803762 -0.82061917 -1.3755896 -0.7448078 0.817281 1.6412904 -1.1744273 0.46065667
-1.354999 0.0960013 0.6762327 -1.3749055 -1.1196735 -0.6598693 -0.76614565 -2.555823
1.0499128 0.515195 -1.4867117 2.4469962 -0.9442799 -0.20408365 -1.4084868 0.31572795
-0.55010986 -0.24841589 0.07730181 -1.7909387 -2.219013 -0.1440624 -0.4687391 0.07520178
0.14950831 0.68173635 1.5676895 0.47556657 -1.0050126 -1.023286 0.5214422 -0.48220333
-0.7726252 2.7445233 -1.9759138 0.415895 1.5672935 -0.03982712 -0.9722075 -0.71206236
0.2399586 -1.199124 1.0634183 -0.6769421 -0.6633918 0.3362924 0.5184555 1.0378041
0.041475523 0.84185106 -0.13130704 -1.4924617 0.36357212 -0.51106703 -0.41850448 1.181892
-0.2659641 0.8041965 -0.307584 1.3537711 0.66702676 -0.23589839 -0.1712208 0.56163234
0.30705154 0.33780503 0.12988454 0.5764989 0.020306023 1.3983688 1.4169482 -0.0058822334
-0.8824504 -0.48821172 -1.3561088 -0.23345223 1.8297452 1.5896279 0.17809501 0.5119587
-0.5462637 -1.4434364 -1.923773 -1.1291713 1.0067925 -0.008793296 -0.804452 1.9658368
1.6479504 0.5699342 -0.012340214 -1.4708327 -0.046256755 -0.5328155 0.65974027 2.1868584
0.48783317 2.1796973 -1.4626534 -1.3909887 -0.43217906 -0.14899805 0.10180085 -0.17570433
0.32208213 1.2037162 0.0853502 -1.7608309 0.059560195 -1.3081975 0.23057866 0.9599387
0.14141941 0.86194164 -1.0958056 -1.1410904 -0.37610725 -0.2558852 -0.28377268 1.1223673
2.0637617 0.13099124 0.91126615 0.09883216 -0.666103 0.9322513 1.6354256 -1.1004666
0.7353627 2.0250545 -2.9137704 0.1907943 0.16965011 -0.70002025 -0.09773357 0.51418406
1.1568134 0.22485936 -1.299283 2.1510909 0.64896095 -0.60551584 -1.0521178 -0.8866514
1.56465 1.1668427 1.3934464 -0.1940689 -0.8187189 -1.5200359 -1.8582704 -1.761435
1.7761916 0.050476335 -0.84718025 0.7004911 0.39813238 -0.48192155 -0.16000026 -0.309878
-0.10691142 -0.45856538 0.6628749 -0.67831355 1.1718113 1.2329209 0.57919264 -0.7320792
-1.3411683 -1.675452 -0.6871706 -0.29897884 1.1127696 0.6641539 -1.7009081 -1.7001477
1.1997515 0.7447162 0.13178872 -1.3514158 -1.205125 -0.32545564 -0.46037576 0.3628497
-0.16230145 -0.39487866 -0.08167533 0.74716 1.8919154 0.63692176 -0.26933706 -1.4215349
-0.22088252 -1.8475039 1.2320774 -0.17530634 0.9633707 0.110291384 2.2730715 -0.1405062

encoder.lstm.weight_ih_l0 f4 [128, 16]
00000000: 486f 7ebe 5de2 8e3e 2b42 bbbe ff2d 03bf
00000010: 7d8f e33d 4a87 ba3e e48c b2bd abc5 2f3e
00000020: b583 53be 5aec 6abe 9c92 04bf 1cc2 acbd
00000030: 0c5a 763e e98c e23c 7442 c6bd 64eb b43e
00000040: 0655 863d 884a ff3e fbfb f9be be34 91bd
00000050: 6ce9 e33c 60b4 c3be 0e51 6f3d e17c 943e
00000060: 3f8a 84be 5cba 53bf 0994 0ebf 20d9 bdbe
00000070: 3cfd 4d3e 3c31 41bf 14d0 763d 2506 ba3c
00000080: ed21 f8bc f2b8 4abe dbed 90be b4d3 3c3e
00000090: f3b1 46be 5980 093e 62df 443e 2937 233e
000000a0: 562b 8a3d 7816 9ebe 0c4e d2be 8094 283e
000000b0: cdc2 7abd 239a de3c 2558 53be 2c9f 9a3e
000000c0: af56 0bbf 2933 2b3e f175 543f e667 213e
000000d0: dfd0 333d efa7 c73d f2be 09be 8e98 e4bc
000000e0: 5ef2 f4bd 061b 1f3e 2017 7d3d c6fb 5abf
000000f0: 8c9f cabe 60f5 743c a4ed 793e 528e 2d3d
00000100: 5437 0ebe 15ba d03d 1cdb 733e 1f94 51ba
00000110: 771d 133f a370 183e 678c 0dbe b57e c4bd
00000120: a405 dcbe a800 dcbb a350 c63e 7395 f3bd
00000130: 9c11 8bbe 2f7b 833e 8c8b efbd a5e0 79be
00000140: 26c0 8e3e c36f 0d3f 0180 d93d b76b 1a3e
00000150: 0195 f1bc add2 b8bd 2767 32be d788 5abd
00000160: 3e76 653d e052 23bf b8ce 73be 2d06 e93d
00000170: de46 5a3d 7163 fd3e 1d8a ccbe 317f 953e
00000180: 1bee 7ebe ee35 8a3d 3b80 063e 78e1 dfbd
00000190: 95c5 db3e 61ef 663d 4874 ea3e dae8 0a3e
000001a0: e701 453e 402c 0f3f d900 503d 60eb d03e
000001b0: 33bc 373e fa88 1abd b043 a33d 4221 d53d
000001c0: cea0 dfbe 425a 91bd 599f 22be b34c 90be
000001d0: 26e3 053f a0f6 0e3f 6305 1cbd 328c ac3e
000001e0: b65d b2be 5492 2cbd 6fbc 61bf 045a 08be
000001f0: 56ab 50be 8af9 843f 4849 cf3e 725e b3be
00000200: 7166 b33d e726 a6be 352d 4cbe 0cf0 da3e
00000210: d1dd 653d ed08 a9be 10ca 4f3e 6e0f 003f
00000220: 2639 c93d 291c 863e 21f3 0c3e ddfe b83d
00000230: 347a 883e 1436 eb3e 59bd 90be 4c8d 2ebd
00000240: ac8e 473e 4981 693e 5c7e d7bd 21fb 933d
00000250: 82dc eabe 3153 84be 1169 003d e2db bc3e
00000260: 88c7 99be 8121 193d df51 39bf 4e47 19be
00000270: 71ed 0b3e a87d 0e3f f596 6bbc be20 9b3e
00000280: 12b3 7b3e 1677 c53d 7595 ce3d b6c2 1abe
00000290: eb92 dd3d 6f97 933e 43cd dabc 2fef c33e
000002a0: ce59 99be 33e9 dbbe 79ac 7ebe f1c5 8cbd
000002b0: cb63 0c3f b17c 943d 51a3 803c e8d4 553d
000002c0: 523f aabc e6c2 e43e ade9 46bf e54b 283c
000002d0: e186 3c3e e054 92be 3d3e c5bb 6f60 f03e
000002e0: 256d 04bf 2339 d43e 58e3 8e3d 5407 a13e
000002f0: a63d 2abe b9a1 a6bd fb47 2f3e fb65 8a3e
00000300: 1cae 3ebd 6e3b f83e c547 93be 76fd 263f
00000310: 66ca 60be 0cee b33d a277 20bf 4c58 903e
00000320: b2b9 633e 851c 673e 1730 013f c990 753d
00000330: f024 dcbb fa3f e63e 3694 f13e c35f 643e
00000340: c5ac b8bd 9092 2d3e 474f 87bd 6635 a2bd
00000350: 513b a1be ffb5 aa3c 7c77 b43e 76c6 9fbd
00000360: 2eb8 f0bd ee5e f1bd 7754 c9bc 04ab b93e
00000370: 09ef 3e3d 151e d63e 19e9 83be 33b8 623e
00000380: 1dbb f03d 7afe 91be f15c a1be 0585 b73e
00000390: 5687 133e f4ce 473e 6a52 3c3e 5ee7 42bc
000003a0: 6f0d e6bd c97f 6cbd 77ec 1dbe 3cf4 3dbe
000003b0: 1285 2dbc 849a 95be 3ab9 0dbd b861 db3d
000003c0: efa2 3f3e dac5 47be c6a9 87be 69ec ec3d
000003d0: 0125 bebb 7fd8 153f 0572 c7be 80c3 9ebd
000003e0: 49b2 243d e3b4 c23d 915b 383e 935c cbbe
000003f0: 5096 edbe 51d6 0c3e 6203 883d 696e 0e3e
-0.24847138 0.27907076 -0.3657392 -0.5124206 0.111113526 0.36431342 -0.08718279 0.17165248
-0.20655711 -0.22941723 -0.5178621 -0.08435461 0.24057788 0.027655082 -0.09680644 0.3533584
0.06559186 0.4986155 -0.48825058 -0.07090138 0.027821265 -0.38223553 0.05842691 0.29001525
-0.25886723 -0.82706237 -0.55694634 -0.37079716 0.20116132 -0.7546575 0.060257033 0.022708008
-0.030289615 -0.19797114 -0.2830647 0.18440133 -0.1940382 0.13427867 0.19225839 0.1593901
0.06746547 -0.30876517 -0.4107517 0.16462898 -0.061220933 0.027173107 -0.20639093 0.30199564
-0.54429144 0.16718735 0.82992464 0.1576229 0.043900367 0.09748828 -0.13451746 -0.027904775
-0.1196029 0.15537652 0.06178963 -0.85540426 -0.3957485 0.01495108 0.24407059 0.042372055
-0.13888294 0.10191742 0.23814052 -0.0007994789 0.57466835 0.14886717 -0.1382309 -0.0959448
-0.42973053 -0.0067139454 0.38733396 -0.118937396 -0.27161872 0.2567992 -0.11696538 -0.24402101
0.27880973 0.5524866 0.10620118 0.15080152 -0.029489996 -0.09024558 -0.17422162 -0.053353157
0.056020968 -0.6379833 -0.23809326 0.11378131 0.05329024 0.4948993 -0.39949122 0.29198602
-0.24895518 0.067485675 0.13134854 -0.109316766 0.4292418 0.056380633 0.4579184 0.13565388
0.19239007 0.55926895 0.05078206 0.40804577 0.17942886 -0.037728287 0.07971895 0.10406734
-0.43677372 -0.070972934 -0.15881099 -0.28183517 0.52299726 0.5584507 -0.038091075 0.3370071
-0.3483712 -0.042131737 -0.8817815 -0.13315588 -0.2037786 1.0388653 0.40485597 -0.35032994
0.087597735 -0.32451555 -0.1993912 0.42761266 0.056119744 -0.33014622 0.20291924 0.50023544
0.09825353 0.2619336 0.13764621 0.09032986 0.26655734 0.45939696 -0.2826946 -0.04261522
0.19488019 0.22803225 -0.10522148 0.072256334 -0.4587136 -0.2584472 0.0313502 0.36886507
-0.30035043 0.037385467 -0.7239055 -0.14968607 0.13664795 0.55660486 -0.014379253 0.30298418
0.24580029 0.096418545 0.100871004 -0.15113339 0.10819038 0.28826472 -0.026709205 0.3826842
-0.29951328 -0.42951354 -0.2487048 -0.06873692 0.5483977 0.072503455 0.015702875 0.052204996
-0.020782147 0.44679946 -0.7770031 0.010272001 0.18410827 -0.2858038 -0.0060193823 0.46948573
-0.5172904 0.41449842 0.06976956 0.31450903 -0.1662508 -0.08136315 0.17117302 0.2703093
-0.046552762 0.4848284 -0.28765693 0.652305 -0.21952209 0.08785638 -0.62682545 0.28192365
0.22238806 0.22569473 0.50464004 0.05995253 -0.0067182705 0.44970685 0.47183388 0.22302155
-0.09017328 0.1695044 -0.06606918 -0.07920341 -0.31490567 0.020838736 0.3524741 -0.07801525
-0.117538795 -0.117856845 -0.024576409 0.36263287 0.04661468 0.41819826 -0.25763777 0.22140579
0.11754439 -0.28514463 -0.3151622 0.35843673 0.14407095 0.1951254 0.18390813 -0.011895983
-0.11233031 -0.057739053 -0.15422235 -0.185502 -0.0105908085 -0.2921945 -0.034600474 0.10711998
0.18714498 -0.19509068 -0.26496714 0.11568529 -0.005802751 0.5853347 -0.38954177 -0.077521324
0.04020909 0.09507158 0.1800368 -0.39719066 -0.46403742 0.1375363 0.0664127 0.13909306

encoder.lstm.weight_hh_l0 f4 [128, 32]
00000000: 7db2 3fbf 1c66 5fbe 08c6 a4be 08b9 a63e
00000010: f76f 3e3f aca5 b1be aea2 3b3d 7192 edbe
00000020: 393c 0fbe 8392 c6be 241b 68be be10 6abe
00000030: 5ad8 fb3e c6fe 0dbe 7985 fe3e 3b1e 14be
00000040: 2cfd bb3e f40b 60bd 0351 f0be 9882 3abf
00000050: 786e 32be 256d 613e 96fa 39bf 78b8 fdbe
00000060: 232e 833e 470e 24be d0ec 5f3c 4907 76be
00000070: 3df7 fabe 686c 6a3e 4133 e1bd 9f85 dcbd
00000080: 3464 06be 4e55 b63e 7168 07bf 0027 48bd
00000090: 39c1 e13e c1b4 eebe bd92 233e e0b9 89bd
000000a0: 25d8 5ebe 6901 c1bd 1d15 e1be 6630 3abd
000000b0: be6b 50be 36bb 9fbd a7f4 423f 2514 1e3c
000000c0: 59f2 223e 370e e53e 8b19 9e3e cd94 d9bd
000000d0: 40c2 0ebf c538 eb3e fece 173d 973d 513e
000000e0: a805 143f 778b 81bc b6c7 93bc 8b67 b5be
000000f0: 8123 29bf 368e 183f dad1 083f 6b23 08be
00000100: d86e 063f d539 ac3d c388 893c 4338 89be
00000110: f2cd 803f cc90 3bbf 6678 973e 5eb5 eabc
00000120: c4d5 e1be f41f 42bf f2bd 3b3e 1e45 84bf
00000130: 7153 723d 61b4 3fbf a130 973e f722 9bbe
00000140: 5b8b 2d3e 412a 8dbe cc60 b93e ccba c5be
00000150: 2d28 e6be 6372 e63d e33f 29be 0c04 fdbc
00000160: 27c4 c13e d5f1 09bf a0b8 cb3d 392b 36bf
00000170: c647 9bbe 4907 31bd 13c9 34be 6043 efbe
00000180: 8b88 5dbe 3a46 87be 58fd 4dbd a176 8cbe
00000190: c40f 6ebe 4a06 5dbf 4ab3 0bbe 94b1 893e
000001a0: 3a2b b3bb 3032 933e 7542 023e a165 f0be
000001b0: 6f1b 5ebd e748 22bf d34d 23be d7c4 aa3e
000001c0: 3d23 d03e efb5 bdbe 1e48 c23e a6c1 a0bd
000001d0: 4f56 78be 7fda c4bd 5760 a8be 43ab ac3a
000001e0: 53c4 51be 2e3c fb3e 6d09 20bf 0502 e8bd
000001f0: 63b8 d6be c764 14be 76fe 243d 5c35 a93e
00000200: 914f 8cbe ed77 0ebd dc38 bfbd a4f6 113e
00000210: 0462 153f a2e2 1ebf 6f2d debc ee96 0e3f
00000220: 91a9 0abe a992 603d 4b60 e6bd 1113 143e
00000230: 2af4 b43e a40f 6d3d 9d13 353f e4f9 463e
00000240: 5606 603e 0e76 82be ea1e 37bc 4ec5 c0be
00000250: 8f92 b7be 5baf b33e 6bf3 943c 4269 26be
00000260: 5567 a93e 4bbd 013e a2a0 c5be c1da a23e
00000270: 8cdb 15bf 2cf4 423f 95eb f1be 8432 d6be
00000280: d42f 9a3e 7342 84be 6dd5 5abe 3c62 d6be
00000290: fe8e 7b3a 59ca b0be 81dd 0b3f e87e 593f
000002a0: c07c cabe 1dec 1e3e 4250 01bf 42e8 18be
000002b0: 2c83 6bbe 9dd4 dabd e242 803d df67 5bbe
000002c0: 653c 8f3e 9429 963b 9305 6a3e a320 e53c
000002d0: a2f0 273d 83dd e03e 566c ad3e a9d2 e0be
000002e0: ab92 1bbe 966e acbe d123 99be be1c 17bf
000002f0: ad00 3dbe a56f c13e 5f70 18bf 3631 38bd
00000300: 85ec 603e 6bdd eb3e 426d afbe 15df d63d
00000310: ddb3 3a3e 30e1 cfbe 9f1a debc 5d2b 1e3f
00000320: f628 9ebe 099f 2dbc 5fea d6be 2a46 16bf
00000330: c5e0 62bd 5e28 ebbe aed0 a6be eb36 413e
00000340: 87b0 6a3c 3a37 c03c 977c 0ebf 5795 313e
00000350: 7755 d2be 8a23 253f 71c8 c2bd 2d47 94be
00000360: a644 923f 529c c1be 37cd 4c3d ec75 98be
00000370: 4bf3 51bf 7009 a83e 10d6 9cba b780 82be
00000380: cfa6 a73d 0520 6ebe c3b3 41bf ffde 61be
00000390: fa01 823f b2bb d2be c5c3 0ebe ff77 f63c
000003a0: dfb2 64be f65d 61be 8713 cabe 4c82 cdbb
000003b0: ff06 493e 0fec eabe a2c0 dc3e 16d9 88bd
000003c0: 18f4 913e 0124 4e3e 8c07 5ebe 00fa 23be
000003d0: 2817 583d f139 503e 31d9 28bf 13ac f4be
000003e0: a76c 55be bd14 2bbf 15bb c3be 727e 79bf
000003f0: bb0e b5be d7f8 af3e 4d9f aebd 41fa d9bd
-0.74881727 -0.21816295 -0.32182336 0.32563043 0.74389595 -0.3469671 0.04580944 -0.46400788
-0.13987817 -0.38783655 -0.22666603 -0.22857949 0.491885 -0.1386672 0.49711207 -0.14464657
0.36716592 -0.0546989 -0.46936807 -0.7285552 -0.17424953 0.22014292 -0.7264799 -0.495548
0.25621137 -0.16021071 0.0136673 -0.24026217 -0.49016753 0.22892916 -0.10996104 -0.10767674
-0.13124162 0.35611957 -0.5289374 -0.04886532 0.4409273 -0.4662228 0.15973945 -0.06724906
-0.2176214 -0.09424097 -0.4396142 -0.045456313 -0.203536 -0.077993795 0.7615456 0.0096483575
0.15912761 0.44737408 0.30878863 -0.106240846 -0.5576515 0.4594175 0.037062638 0.20433651
0.5782113 -0.015813572 -0.018039566 -0.3543056 -0.660698 0.59591997 0.5344521 -0.13294761
0.52512884 0.08409468 0.016788846 -0.26800737 1.006285 -0.7326782 0.29584044 -0.028650936
-0.44108403 -0.75830007 0.18334177 -1.0333593 0.059161607 -0.7488461 0.29529288 -0.30300114
0.16947691 -0.275713 0.36206663 -0.38619077 -0.44952527 0.11252286 -0.16528277 -0.030885719
0.37844965 -0.5388463 0.09947324 -0.711597 -0.30328196 -0.04321984 -0.17654829 -0.4673109
-0.21634118 -0.26420766 -0.050290436 -0.27434257 -0.23248202 -0.8633772 -0.13642612 0.26893294
-0.0054677995 0.28749228 0.12720664 -0.46952537 -0.05422538 -0.6339249 -0.15947656 0.33353302
0.40651885 -0.37052867 0.37945646 -0.078494355 -0.24251674 -0.09611987 -0.32886 0.0013173599
-0.20485048 0.4906935 -0.6251438 -0.1132851 -0.4193755 -0.14491569 0.040281735 0.33048522
-0.27404454 -0.03478234 -0.09337017 0.14254242 0.58352685 -0.62064564 -0.027121274 0.5569905
-0.13541247 0.054827366 -0.11248835 0.14460398 0.35342532 0.057876244 0.7073305 0.19431263
0.21877417 -0.25480694 -0.011176804 -0.37650532 -0.35854003 0.35094723 0.018182477 -0.1625109
0.3308665 0.12669866 -0.38599116 0.3180752 -0.58538127 0.76153827 -0.47250047 -0.41835415
0.30114615 -0.25831947 -0.21370478 -0.41871822 0.00095961976 -0.3452938 0.54634863 0.8495927
-0.39548302 0.15519758 -0.5051309 -0.1493235 -0.22999257 -0.10685084 0.06262757 -0.21426342
0.27975765 0.004582593 0.22853689 0.027969664 0.04100097 0.43919 0.33871716 -0.4391072
-0.15192668 -0.3367812 -0.29910138 -0.5902823 -0.18457289 0.3778049 -0.59546465 -0.044968806
0.21965225 0.46067366 -0.34263045 0.10491768 0.18232675 -0.40601492 -0.027112303 0.6178492
-0.30890626 -0.010596999 -0.41975686 -0.5870081 -0.05539014 -0.45929235 -0.32581085 0.18868606
0.014324314 0.023463834 -0.5565886 0.17342125 -0.4108083 0.64507353 -0.095108874 -0.28960553
1.14272 -0.37814575 0.050000396 -0.29777467 -0.8201186 0.328197 -0.0011965651 -0.25488827
0.08186113 -0.23254402 -0.7566492 -0.22057723 1.0156853 -0.41158825 -0.13941868 0.030086515
-0.22333859 -0.220085 -0.39468023 -0.006271636 0.19631575 -0.45883223 0.43115717 -0.06682031
0.2850654 0.20130922 -0.21682566 -0.16013336 0.05275646 0.20334603 -0.6595641 -0.47787532
-0.20842229 -0.6682852 -0.3822867 -0.97458565 -0.353628 0.34369537 -0.08526478 -0.10643435

encoder.lstm.bias_ih_l0 f4 [128]
00000000: 4ba9 103f 2871 ad3e 2fba cb3e 2c0d 0b3e
00000010: e42f 0b3e 8dbf e63e 573b dd3e c383 b43e
00000020: b4eb 863e dc4a d33e 8e9f 433d 2ca5 a33d
00000030: 2745 9a3d 80ad 243f df66 823e 4738 133e
00000040: b682 e03e 86a8 e53e 2553 103f d47f dc3a
00000050: 9d7a 4c3e b51d 513e 83dc c63e bdf7 953e
00000060: f9ee 943e 00f4 a43e 5229 e83e e50a 803e
00000070: 45c4 2a3f 5e2a a13e f32a 8ebd 3a5e 2b3e
00000080: 90dd 713e c533 61be f4e8 743e 4ddc a03d
00000090: 8197 0a3d 93fc bf3e b28c 243e 2b4c 553e
000000a0: 945c 6e3e b2da 9c3e c7da 343e 1201 dd3e
000000b0: 8e85 a73e ed11 763e 12d8 9c3e 2278 503e
000000c0: f6bb cd3e 2e40 903d 92c1 9d3e 5005 563e
000000d0: 558a 213e 43dc 073e 6ce7 533e ec1e b43e
000000e0: a4cc c13e 6c1e 873e fa8c 263e b4a1 333d
000000f0: 2b75 253e d914 f33e 2cab 0c3e 1886 92bd
00000100: 3382 d33b b19f 0bbb 7997 dfbd f336 3dbe
00000110: e1cc 2e3e f4ac c6bd 8be1 9e3d d6aa e23d
00000120: 359d 31be fa1e 2dbd 7551 40ba bd0c 83be
00000130: 1ec6 1cbe 789d 42be 7b1c 04bd 701d 313e
00000140: 5d64 ac3d 154a 57be 77f2 513d 6f93 c9bd
00000150: a45c f8be e9f8 823e fcd9 23be e38e 8e3b
00000160: 5faa 673e 2073 3dbe 1b3b 89bd 72c1 8abd
00000170: 606f 5cbe 1b3e 8c3e 1c32 78be 7d65 1abe
00000180: 158b 7d3e 65c1 9e3e a7cb 703e 7838 ad3e
00000190: af7a 963e e798 dc3d d35b 093e e73f 1e3e
000001a0: fe1d 243f 0a87 673e 28f9 6fbd 6d72 4a3e
000001b0: 13cc 203e 02c1 053e 8e02 5bbe 4835 fa3d
000001c0: 1c3a 513e 6a61 c53e 9c1e 683e 1b88 bc3d
000001d0: ff37 053e 5712 24be d6c8 023e d70c 5fbd
000001e0: ad8b 0a3d 4af7 983e c376 4c3e 10f5 d13d
000001f0: b034 173e a784 c3bd 1f10 96bc 0630 ec3d
0.5650832 0.33875394 0.39790484 0.13579243 0.13592488 0.45068017 0.43209335 0.35256776
0.26351702 0.4126805 0.047759585 0.079904884 0.07532721 0.6432724 0.2546911 0.14376937
0.43849725 0.44855136 0.5637687 0.0016822764 0.19968648 0.20421489 0.38840112 0.29290572
0.29088572 0.32217407 0.45344025 0.25008312 0.66705734 0.31477636 -0.06941786 0.16735163
0.23619676 -0.21992405 0.2391699 0.07854519 0.03383589 0.37497386 0.16069296 0.20829837
0.23277503 0.306356 0.17661582 0.4316488 0.32719082 0.24030276 0.306336 0.20358327
0.40182465 0.07043491 0.30811745 0.20900464 0.15775426 0.13267617 0.20693749 0.35179842
0.3785144 0.26390398 0.16264716 0.043855384 0.16157977 0.47476843 0.13737172 -0.071544826
0.00645473 -0.00213049 -0.10917563 -0.18477993 0.17070343 -0.09700957 0.07757863 0.110677406
-0.17345126 -0.04226587 -0.0007336357 -0.25595656 -0.1530995 -0.19005382 -0.032253724 0.17296386
0.0841758 -0.21024354 0.051256623 -0.09842574 -0.4850818 0.25580528 -0.16001123 0.0043505295
0.22623585 -0.18500948 -0.067007266 -0.06775178 -0.21526861 0.27391133 -0.24237865 -0.15077777
0.24760087 0.31006923 0.23515187 0.33832145 0.29390475 0.10771351 0.13413934 0.15454064
0.64108264 0.22610107 -0.058587223 0.19770212 0.15702848 0.13061908 -0.21387693 0.12217194
0.20432323 0.38550884 0.22667927 0.092056476 0.13009642 -0.16022621 0.12771925 -0.054455604
0.03382461 0.29876167 0.19967179 0.1025182 0.14766192 -0.09546786 -0.018318234 0.11532597

encoder.lstm.bias_hh_l0 f4 [128]
00000000: 85c7 aa3e 8202 a63e 0d73 193e 6f6a 963e
00000010: e5ed 3b3e abf7 603e 53e3 a03e 4a6a 7d3e
00000020: 1952 383d 7618 db3e d267 833d c829 893e
00000030: 8b1d c53d de06 3f3f fc7f 8d3d f79f a93e
00000040: 17a8 543e 87a6 023f eeb7 a63e 5a5f c2bd
00000050: e2da 813d 1f18 9f3e 33b6 b63e 7c83 ed3d
00000060: 05df 973e f9ed 003f 4c78 a23e 485f 893d
00000070: ebf4 e23e 99d2 e63e 2ae6 9abb 2612 683e
00000080: e852 f63d fac4 84be 19a2 56bd 4e72 703d
00000090: ee2b 603e 801f c73e 81e5 a53d e90b c73e
000000a0: 97e2 553e 96ca df3e 6eaf 293e a039 993e
000000b0: 201b 8e3e f516 ee3e a9de 8d3e 8d10 5c3e
000000c0: 97e6 ac3e 54ed b83d 4354 233e 64a8 23bd
000000d0: f61b 0f3e 31aa 433e b182 2e3c 2f41 a43e
000000e0: 5ec3 b33e 995e be3e fef6 833e 44c7 9f3e
000000f0: 83c0 873e e464 a83e c5c2 a73e 2d3a 193e
00000100: 02c2 1b3e fe74 67be 20c7 80be 681a 29be
00000110: 25f0 883d c36b 20be cd12 2d3e a0b0 813d
00000120: f075 4abd e0cd 1fbe 1ec3 31be d302 62be
00000130: 4bf2 943d bba2 afbd 9e5e 913b 9d0a b5bd
00000140: d3cc 8f3e 8c72 66be ee1a 19bd 7d3c 56bd
00000150: 448a fabe 30fd 233d 873e 8ebe ddf3 1abe
00000160: 24c9 403e f941 09be 92e4 8ebe 67dd 0bbe
00000170: c1db 4fbe 12e6 6c3e d334 a3be 5fdd 6abe
00000180: f65d 993e cd1f 8b3e 123b 7d3e c1b9 4f3e
00000190: 1fc7 c13e 394c cb3c 5a6d b53d da3e 0ebe
000001a0: 085c 033f 4c21 913e f936 183b 2ef3 b63d
000001b0: 22f8 593d 9f7f 903e 29a6 67bd f110 dbbc
000001c0: ae29 4a3d d0c8 1b3f 3034 f43c 8b93 793e
000001d0: 4189 273d 9ae4 a3bd 2753 ec3d c2f9 243e
000001e0: a01f d1bc 1b7b c83d 3a75 9a3d 52f9 5d3e
000001f0: fe56 4d3e 2af3 61bd 99af 6b3e 8d34 753e
0.33355346 0.32423788 0.14985295 0.29378077 0.18352468 0.21969478 0.31423435 0.24747577
0.04500017 0.427921 0.064162865 0.2678969 0.096247755 0.74619853 0.06909177 0.33129856
0.20767246 0.5103535 0.32562202 -0.09490843 0.06340577 0.3107309 0.35685882 0.11597344
0.29662338 0.5036312 0.31732404 0.067076266 0.44327483 0.45082548 -0.0047271447 0.22663173
0.12027532 -0.2593153 -0.052400682 0.05870276 0.21891758 0.3889122 0.08100415 0.38876274
0.20887218 0.43709248 0.16570827 0.29926777 0.2775507 0.4650189 0.2770894 0.21490689
0.33769676 0.09029642 0.15950112 -0.03995551 0.1397551 0.19107892 0.010651276 0.3208098
0.3510999 0.37181547 0.25774378 0.31206715 0.26514062 0.32889473 0.32765785 0.14963599
0.15210727 -0.22603223 -0.2515192 -0.1651398 0.06686429 -0.15666108 0.16901703 0.06332517
-0.04942888 -0.15605879 -0.17359588 -0.2207139 0.07272776 -0.0857596 0.004436328 -0.08839915
0.28085956 -0.22504634 -0.037379198 -0.05230378 -0.48933613 0.04003638 -0.2778208 -0.15132089
0.18826729 -0.13404073 -0.2790876 -0.13658677 -0.20298673 0.2313464 -0.3187624 -0.22936009
0.299545 0.271727 0.24729565 0.20285703 0.3784723 0.02481662 0.08858748 -0.13891163
0.51312304 0.28345716 0.0023226126 0.089331016 0.053215154 0.28222367 -0.056554947 -0.026741477
0.049356155 0.6085329 0.029810041 0.2437269 0.04090238 -0.08002587 0.115392976 0.161109
-0.025527775 0.097891055 0.075418904 0.2167714 0.20052716 -0.05516354 0.23016204 0.23945828

policy.net.0.weight f4 [128, 32]
00000000: e1ef acbe 940a 7b3c 12d6 e0bd 20ef c1be
00000010: f707 ec3c 48ab 75bd e6d2 5f3d 0235 9d3e
00000020: e465 073f 1e62 50be 9ccf 1cbe 03e8 a9be
00000030: 7ab5 84be 956c e43d f8a2 37bd 07bf 353e
00000040: 2f06 90bc 0b33 6ebe ffee d3be 60e9 613e
00000050: d77e e93d 0c67 953d a29b 4dbe eb9b bebd
00000060: 8dcb 3c3e d3bf 603e 8bc9 9bbe 93b4 aabe
00000070: 34ec 24be 735b 983d 4608 97be 3a74 a0be
00000080: 36cb 033d e254 8cbb ec33 9cbd 51b0 903d
00000090: fb34 81bd aad2 2d3d 7d4d acbe 98ed b03e
000000a0: 34e9 e33e 7d91 c6bd 5427 60be 223d 87bd
000000b0: 69d4 e7bd 63a6 0fbe 3987 3bbe accc efbd
000000c0: 7be7 923d fab3 53be 8dc9 d1bb 2878 663d
000000d0: 19a1 ccbe 2670 98bd 599d 823d 196b d33d
000000e0: 97bb 363e cd2c cd3d 36b7 6e3e 4815 ed3d
000000f0: 1ea8 9fbd d3a5 c73d 650b 673e d03b 8cbe
00000100: cdae 39be 858c 56be 4b8f a3bd aadd 3fbe
00000110: fe1f 76bd 109c 29be 434a 3ebe 0fed bd3e
00000120: 2a47 243f 9b29 e5bd 759f 4bbc 8920 023e
00000130: 81b0 abbe dcc9 ddbd 9ca4 60be 2ba8 143e
00000140: d233 dbbc c088 9cbb c951 fdbd e338 cc3e
00000150: 03f3 e7bd 06e9 c03d de17 83bd 5bfa 4cbe
00000160: d388 70bd c38c 6b3e dcf6 64bd 6213 483c
00000170: ca6d aabd a07a 973b e516 913d 9b80 bcbe
00000180: 140f e73e af00 e4be 3bc0 40be 125c 823e
00000190: 4c50 953e 1828 00be 71cf cdbe 5972 4dbe
000001a0: ea7d ca3e e6a9 e7bd a140 8e3d 56d8 0abf
000001b0: 57b0 07bf 397d 51be f353 a33e 6b0d 9ebe
000001c0: f3b4 a9be 54ea d63d 324f 95bd b074 113d
000001d0: 8616 92be ceca 0fbe 38fa a93d 7147 e9be
000001e0: 6ef1 a9bd c3f1 113e 45a8 913e 5b7e fc3e
000001f0: eb8d 1f3e e58f a5bd 5a2c 593e 5df3 30be
00000200: f003 fe3d d747 ca3e 1ffd 5bbe 1a15 91be
00000210: da50 13be c1cd 623e e501 96be 1146 b1be
00000220: 89b5 9cbe 05ed 53be 7bcf cb3e c103 efbe
00000230: 5476 76bf b3b5 24be 6b97 dabb a47b a0be
00000240: 352f 8bbe 6796 ffbe 15b6 12bd 98ff 32be
00000250: 69f5 0dbe adef 32bf f26b 84bd 09cb 0ebd
00000260: cff2 c4be d0fc 90bd 882e cb3e db85 afbd
00000270: f4ce 3d3e a76b 10bf 3d4d 913e 4761 eebd
00000280: bc43 00bd 40a8 83be 79a3 5abe 9131 783e
00000290: d602 583e 3cd1 60be af00 ad3e 9797 44be
000002a0: 127e 5cbd 342f 9b3d 7bec 76bd a20d e23d
000002b0: 593d 713e 8a8b 54be 633c e93c 5589 33be
000002c0: 78c8 51bd 017d e03d b4d4 16bd d635 643d
000002d0: f23a e0bc 1936 08be 4c30 11bd 9fab eebd
000002e0: 8c3f 24be 44f7 c83c d97f 65bd e6aa 2d3e
000002f0: 680d 4f3d 27c5 00be 8745 e9bd 8973 ed3e
00000300: 6666 10ba 553a 1a3e 3e0a 003f 9a99 e4be
00000310: 2481 9f3e 7145 c0bc 054a 593d 3534 e4bd
00000320: f651 59be 5f3e 78bb 1adb 7f3e 04a9 413e
00000330: f237 9fbe 32b6 843d ec6e b9be 829b 11be
00000340: 6268 a2bd 98b3 67be d34a 3ebe 24c5 07bf
00000350: f7eb cbbe 5313 00bf de2c 323e 38f8 aa3e
00000360: 7080 e9bc b13d 843e 4070 403d eea1 23b9
00000370: 5644 a93e 8722 f9be 1b43 04bd 6672 ffbc
00000380: df95 113e 0109 183d 650f 1c3e d633 0f3e
00000390: 6c64 cabd 8f6b b9bb 7ab6 f4bd bd1c fbbd
000003a0: f7c5 b43d 7903 49bc 02f2 83bd b6f1 0cbd
000003b0: ff4e e8bd 3c9a c0bb 9c33 e33d fc62 da3c
000003c0: 3261 82bb d256 023d 84dd 863d 9288 62bd
000003d0: 044b ed3d 8d2e 31be 545a 44bc 85af de3c
000003e0: c4cb ffbc 1204 c73d 8351 10be 215a bd3d
000003f0: 7d24 03bd 3b36 7d3d f9a6 603d aad5 153e
-0.33776763 0.015322346 -0.10978331 -0.3787775 0.028812392 -0.0599778 0.054644488 0.30704504
0.5288985 -0.20349929 -0.15313572 -0.33184823 -0.25919706 0.11153523 -0.044833153 0.17748652
-0.017581074 -0.23261659 -0.41393277 0.22061682 0.11401146 0.07295045 -0.200789 -0.09307083
0.18437023 0.21948175 -0.30427203 -0.33340892 -0.1610573 0.074393176 -0.294985 -0.31338674
0.03217622 -0.0042825798 -0.07627091 0.0706488 -0.06308933 0.042437233 -0.3365287 0.3455627
0.44513857 -0.096957184 -0.21890002 -0.06603457 -0.11319811 -0.14028315 -0.18313302 -0.1170896
0.07173058 -0.20674124 -0.0064022006 0.056266934 -0.39966658 -0.074432656 0.06377668 0.10323162
0.17844997 0.10018311 0.23312077 0.11576325 -0.07795738 0.09748425 0.2256294 -0.27389383
-0.18133087 -0.20952041 -0.07986315 -0.18736902 -0.060089104 -0.1656344 -0.18583016 0.37094924
0.6417109 -0.11189576 -0.012428154 0.12707724 -0.335331 -0.10829517 -0.21937793 0.14517276
-0.026758108 -0.004777044 -0.12369115 0.3988715 -0.11325648 0.09419446 -0.06401037 -0.20017378
-0.058724236 0.23002915 -0.055899486 0.0122116525 -0.08321722 0.0046227723 0.07084445 -0.36816868
0.4512869 -0.44531772 -0.1882333 0.2546087 0.29162824 -0.12515295 -0.40197328 -0.20063151
0.3954919 -0.113117024 0.06945921 -0.5423635 -0.5300345 -0.20457925 0.31899986 -0.30869612
-0.33145866 0.10493913 -0.07290496 0.035511672 -0.2853281 -0.14042208 0.082996786 -0.45562318
-0.08298002 0.14252381 0.28448692 0.49315152 0.15581481 -0.08084086 0.21208325 -0.17280336
0.12403095 0.39507934 -0.21483277 -0.28336412 -0.14386311 0.22148801 -0.2929832 -0.3462377
-0.3060725 -0.20695885 0.39806733 -0.46682552 -0.96274304 -0.16084938 -0.0066708825 -0.3134433
-0.27184454 -0.49919435 -0.03581818 -0.17480314 -0.13863148 -0.69896966 -0.064659014 -0.0348616
-0.38466498 -0.0707947 0.39683938 -0.08570453 0.18535978 -0.56414264 0.2837924 -0.11639648
-0.031314597 -0.25714302 -0.21351422 0.24237658 0.21094832 -0.21954817 0.33789584 -0.19198452
-0.053831168 0.07577363 -0.06028412 0.110377565 0.23558559 -0.20756355 0.028471177 -0.17532857
-0.051216573 0.109613426 -0.036823943 0.055715404 -0.027371857 -0.13301887 -0.03544645 -0.11653828
-0.16039866 0.024531968 -0.05603013 0.16959724 0.050549895 -0.12575208 -0.113902144 0.4637721
-0.00055084226 0.15061314 0.5001563 -0.4464844 0.31153214 -0.023470612 0.053049106 -0.1114277
-0.21222672 -0.0037878973 0.24985924 0.1891213 -0.3109737 0.064800635 -0.3621744 -0.14219478
-0.07930066 -0.22627103 -0.1858323 -0.5303519 -0.39828464 -0.50029486 0.17399928 0.333925
-0.028503627 0.25828317 0.04698205 -0.00015605215 0.3305995 -0.48659155 -0.03229056 -0.03118248
0.14217328 0.03711796 0.15240248 0.13984618 -0.09882435 -0.005658574 -0.11948867 -0.12261341
0.08826821 -0.012268894 -0.06442644 -0.0344102 -0.11343192 -0.005877761 0.11093828 0.026658528
-0.0039788717 0.03182108 0.065852195 -0.055306025 0.11586574 -0.17302914 -0.0119844265 0.027183304
-0.031225093 0.09717573 -0.14093594 0.09245706 -0.03201722 0.061819296 0.054846738 0.14632288

policy.net.0.bias f4 [128]
00000000: cc07 443e f627 8e3d cb05 f5ba b261 913d
00000010: ce54 0cbe 3db9 8bbe 617b 72be 1863 a6be
00000020: 2674 86bc 2f65 cc3d 86f8 8a3e ec21 e4bd
00000030: f80c 04bc 22ff 923d 6d0f 003e 852c 313d
00000040: 145f c03d 3a54 183e bc8d 83be c615 863d
00000050: a5e2 743d c3df 2e3b 1422 503e dc72 e8bc
00000060: 32bb ccbd 1e34 a5be e750 7abe c28e 49bd
00000070: c5c8 03be 1c7a 58be 9943 7a3d dcfc bdbe
00000080: dc5f 96be 6d34 26be 2c9b d4bd ef3f 093e
00000090: 6a9e 8fbd 8d63 10be c8d7 353e c27c 1d3e
000000a0: d254 453d 75e9 843d d9fe 2f3e 4a57 93be
000000b0: 6f94 c33d 5ad9 b73d a4de a5be e1e1 96be
000000c0: 5f9a 313e beef 843d 2042 8ebe 5f5d c5bd
000000d0: 772d 433e f296 babe c861 86be 9971 ef3d
000000e0: cffd 8abd 0bd8 c6bb 4487 a03d b7f7 6abd
000000f0: e742 113e a037 363e 3a06 8b3e a3e8 adbd
00000100: 7ae1 85bd 2fb3 7fba 6995 293d 8227 ef3c
00000110: c367 5dbd aaf7 6b3d 94e7 b1be 5303 ffbd
00000120: f12a be3d d2cd fcbd 5d68 4f3c ea4f 90be
00000130: e765 20bd 46e3 2b3e f49a 953d dcdc 783e
00000140: 15d5 d23d 1612 e6ba dcc9 75bc 617f ac3d
00000150: d808 6f3c e3cf 88be d914 50be 966a 3abd
00000160: 49eb 173e dfcf 74bb 51aa c63c 30f8 703e
00000170: dda7 243d 124e 263e 5e75 7a3c ba36 14be
00000180: 8ebe bf3d e4e3 54bd 3ea2 9cbd a72d 91be
00000190: 1748 6a3e 8ef0 aebc 3a13 1e3e 04e0 873d
000001a0: 91c6 d03d 0448 1c3e 218b 363e 66ea 86be
000001b0: a8e3 4d3e 3ad2 53be b9aa acbd cf5f b63d
000001c0: 0b1a 493e 30c7 4cbd f788 51be b760 373e
000001d0: 660d edbd ff16 d93d 643b eabc 1f31 083e
000001e0: fe75 08bc 0862 553e 4178 b43d fefe 54bd
000001f0: b361 efbd 3af3 2a3e e902 1e3e b558 fbbd
0.191436 0.06941216 -0.0018693743 0.07098712 -0.13704225 -0.27289763 -0.23679878 -0.32497478
-0.016412806 0.09980237 0.27142733 -0.111392826 -0.008059733 0.07177569 0.12505884 0.043255348
0.09393135 0.1487588 -0.25694072 0.06547122 0.059786458 0.0026683665 0.203255 -0.028375082
-0.09996642 -0.32266325 -0.24444924 -0.04920841 -0.12869556 -0.21140331 0.061099622 -0.3710698
-0.2937001 -0.16230936 -0.10381159 0.13403295 -0.07012637 -0.14100476 0.17758095 0.15379623
0.048176594 0.06489841 0.1718706 -0.28777534 0.09549796 0.089770034 -0.32396424 -0.29469207
0.17344044 0.0649104 -0.27784824 -0.0963695 0.19060312 -0.36443287 -0.26246476 0.11691589
-0.067866914 -0.006068235 0.078383 -0.057365146 0.14185677 0.17794657 0.27153188 -0.084916376
-0.06537147 -0.00097541785 0.041402254 0.029193643 -0.054054033 0.057609238 -0.34746993 -0.12451806
0.09285534 -0.123439446 0.0126591595 -0.2818597 -0.03915968 0.16785917 0.073049456 0.24303001
0.102945484 -0.0017552997 -0.01500174 0.08422733 0.014589511 -0.26721105 -0.20320453 -0.045511805
0.14835848 -0.0037355346 0.024251135 0.23532176 0.04019915 0.16240719 0.015286772 -0.14474002
0.09362517 -0.051975146 -0.07648133 -0.28355142 0.22879063 -0.02135494 0.15437022 0.066345245
0.101941235 0.15261847 0.17826511 -0.26350707 0.20106375 -0.20685664 -0.08431 0.08904993
0.19638841 -0.049994648 -0.20462404 0.17907988 -0.11574821 0.10600089 -0.028592773 0.13299988
-0.008328913 0.20838177 0.08811999 -0.052000992 -0.116885565 0.16694346 0.15430798 -0.12272779

policy.net.2.weight f4 [5, 128]
00000000: 3b8a c3be b5da b3be af2a 8fbf 3354 d5be
00000010: 25dd 45c0 95d3 d4bf 67e8 ddbf 49de b53c
00000020: cd30 8fbe 86a2 11bf c9af 03bf e61a 6dbf
00000030: 44ea a7be 9a5d 34bf 2cc7 e9be 4b27 17bf
00000040: e301 10bf 93c4 d1be bff5 43be 14a1 a2bf
00000050: a32a 07c0 90ae 97be 03f1 50be a551 7dbf
00000060: 8002 98bf 3a4a 98bf 1838 abbe 929f 2abe
00000070: a09c f5be ae55 adbe a988 dfbe ef19 a5be
00000080: 77ab 3cbf a6ca 35be 7429 e5be 3fbb 73be
00000090: a686 7dbf 3f9b 22c0 260f 11bf c3e5 5fbf
000000a0: dab1 04bf bb47 36be b51e 23bf 2ff0 9cbe
000000b0: e94f 89bf 19c2 96be a87c 60be 0022 85be
000000c0: 56b9 fcbe 6eb8 fabf 286c 60bf af21 d5be
000000d0: 8d85 1cbf 80d2 0fbf 4d3e d1be 2e58 2dbf
000000e0: e6d9 59c0 96cb a6bf 0aef 02bf 7884 04c0
000000f0: be26 a1be df68 dbbe ae4d 9dbe 04b7 47c0
00000100: 29af 64c0 a0a8 27c0 adcf 7dbe cadf 4cc0
00000110: ec4d debf 8165 40be 9dc7 b9bf 77fa 3cc0
00000120: fe46 0fbe 272e a2be 0ed7 8dbf 2f07 89bd
00000130: 45ec 0ebf 9a25 b2be a1ac 41be beae bbbe
00000140: 40b6 7abf 4929 94be 6917 73be e8f1 1bbe
00000150: ad17 ccbe dc02 20be 1f03 86bf 575f 0bc0
00000160: d6f7 f8be d76c babe 272d 1dbf 02c0 0abf
00000170: fc30 dcbe 8e51 ffbf b00f 33bf f7c5 a6be
00000180: 3a00 81be 48da 31bf 1d49 89bf 9638 8dbe
00000190: 6c9a 20bf e63d 16bf 3bb9 bdbe 42d1 9dbf
000001a0: 853b adbe b180 1fbf 7b1f 24bf e3cc edbe
000001b0: 02af f4bf 20f9 0bbe 6b9a 00bf d22f cdbf
000001c0: e3dd 24bf 0d69 83bf cfa5 83be 0a34 cfbe
000001d0: 442d 9bbf 10d2 7cbf dd6a afbf 408d 96be
000001e0: 3e4f b8be 0dd0 ccbe 625f b4be 0be5 72be
000001f0: 3111 87be 2151 b6be 8758 b7be 5beb 9ebf
00000200: 6499 63be d91c 8fbd d62e 123e 4b19 153c
00000210: 470f 70bf a282 353d 8304 9ebd 1a41 d2bc
00000220: 101c 5c3d 8a0e a33e 1ff2 ab3d bfcc 033d
00000230: 39fb 3f3d cbe4 f83d 89e9 173c c302 873d
00000240: d234 023d 5a20 313e d581 0cbe cef3 70bd
00000250: 908a 223e fed9 ff3c 5b24 113e 775a a1bc
00000260: 4002 7c3f 6227 103d cfc8 b63c d0ae 7ebe
00000270: 4db1 a53d 47c9 a43d 52cc a33d 1407 a53e
00000280: 58ed 983f a0d4 b6bd 2e86 cfbc 5129 fd3c
00000290: c0e7 d73d f735 06bf b9c5 103d 4cef aabd
000002a0: 76a7 93be db3a dfbd a168 9bbe a8f0 3cbd
000002b0: 84a6 173d 58e2 773e 2e73 b53d 1f11 10bd
000002c0: 8c8c df3d d2ac da3e d91c 2fbf 940f 673d
000002d0: aa26 143c 614f db3d 493c 373d 5d96 0bbe
000002e0: 5371 2d3f 0d8c 1bbe 3a9f 94bd 955a 3c3d
000002f0: 010f 3a3d 6dc1 713c 7d2a c63d 55a8 963e
00000300: 78fb 853e c16f 6dbe 4465 ac3c 565d 9ebe
00000310: 5965 b6be 17c1 983d dffe f2be 10cf 39bb
00000320: e7c4 dcbe ba1b 513d b2e9 423e d339 df3c
00000330: 6fbd 94be 1886 aa3d 8f88 aabe 2b41 00bd
00000340: 8966 e33c 75f8 8d3c 1966 443d f318 7bbd
00000350: c9d5 f43d 4c48 4bbd 702f 6abd dcbf 6cbf
00000360: 58c9 a03d 012e 9a3d 7d29 a03e 0efa 073f
00000370: 28b3 f53d 35fd 5f3e d12a c23c a7b3 2fbe
00000380: 301b 183c 7f71 8b3d 4372 fbba 11d9 26be
00000390: 76f8 0c3d 4365 c13d 1570 b7ba 55f9 a83d
000003a0: d7a7 a03c 3fc0 3ebe 931f 603d 1f76 d7be
000003b0: be1a abbe a37a 5bbf 7c33 023e 9047 a23e
000003c0: 4f2f 593e c5ca e03e 5428 763d 9935 eebe
000003d0: b71c ae3e c975 9dbe f56a 343d 32b6 f039
000003e0: 382c 413d 2cb9 3b3d d7ab 5bbf 5f78 a4bd
000003f0: dd36 203d 3c43 963d 6346 033e d105 6fbd
-0.381914 -0.35127798 -1.1184901 -0.416658 -3.0916226 -1.662707 -1.7336549 0.02220072
-0.2796692 -0.56888616 -0.514401 -0.9261917 -0.32795918 -0.70455325 -0.4565977 -0.5904433
-0.5625288 -0.40970287 -0.19136713 -1.2705407 -2.1119773 -0.29625368 -0.20404439 -0.98952705
-1.1875763 -1.1897652 -0.33441234 -0.16662434 -0.47971058 -0.3385443 -0.4365895 -0.32246348
-0.73699135 -0.17753085 -0.4475819 -0.23801897 -0.9903358 -2.5407255 -0.5666374 -0.87459964
-0.5183388 -0.178008 -0.6371873 -0.30651996 -1.0727512 -0.2944496 -0.21922553 -0.26002502
-0.4936015 -1.9587533 -0.87665033 -0.4162726 -0.6114128 -0.5618057 -0.40867844 -0.67712677
-3.4039245 -1.303088 -0.51145995 -2.0705853 -0.3147487 -0.42853448 -0.30723327 -3.1205454
-3.573191 -2.619667 -0.24786253 -3.201159 -1.736753 -0.1878872 -1.4514042 -2.9527872
-0.13991925 -0.31675836 -1.1081254 -0.06690823 -0.5582927 -0.34794313 -0.18913509 -0.36656755
-0.9793434 -0.28937748 -0.23739399 -0.15228999 -0.39861813 -0.15626091 -1.0469702 -2.177694
-0.48626584 -0.36411163 -0.6139702 -0.5419923 -0.43006122 -1.9946764 -0.6994581 -0.3257291
-0.25195485 -0.69473696 -1.0725437 -0.27582234 -0.6273563 -0.586882 -0.37055382 -1.2329485
-0.33834472 -0.6230574 -0.64110535 -0.4644538 -1.9115908 -0.13669252 -0.50235623 -1.6030219
-0.6440107 -1.0266434 -0.2571244 -0.4046939 -1.2123189 -0.9875803 -1.3704487 -0.2940464
-0.35997957 -0.4000248 -0.3522902 -0.23720185 -0.26380304 -0.3560877 -0.35809729 -1.2415575
-0.22226483 -0.06987924 0.14275679 0.009100269 -0.9377331 0.044314034 -0.07715704 -0.025665808
0.0537377 0.3184703 0.0839579 0.032177683 0.046870444 0.12153014 0.009271988 0.06592324
0.031788655 0.17297497 -0.13721402 -0.05882626 0.1587317 0.031231876 0.14174025 -0.019696457
0.98440933 0.03519381 0.02231255 -0.24871373 0.08090458 0.08046203 0.079979554 0.32231963
1.1947432 -0.08927274 -0.025332537 0.03090349 0.1054225 -0.52426094 0.035344813 -0.083464235
-0.288387 -0.10899898 -0.30353263 -0.046127945 0.037024036 0.24207437 0.088598594 -0.035172578
0.10915479 0.42709976 -0.68403393 0.05641134 0.009042421 0.107085 0.044735227 -0.13631578
0.67751044 -0.15190144 -0.072569326 0.045984823 0.045424465 0.014755589 0.09676073 0.29425302
0.26168418 -0.23187162 0.021044381 -0.30930585 -0.35624197 0.07458704 -0.47460076 -0.0028352179
-0.43118975 0.051051833 0.1903446 0.027249252 -0.29050776 0.083263576 -0.3330731 -0.03131215
0.027758854 0.017330388 0.04794893 -0.06130309 0.11954839 -0.049629495 -0.057174146 -0.92480254
0.07850903 0.07528306 0.31281653 0.5311593 0.11997062 0.21873935 0.023702057 -0.17158376
0.009283826 0.06808757 -0.0019183833 -0.16293742 0.03441664 0.09443142 -0.0013995195 0.08250681
0.019611282 -0.18628024 0.05471761 -0.42082307 -0.3341884 -0.85734004 0.12714952 0.31695223
0.21209453 0.439047 0.060097054 -0.46525267 0.34006283 -0.30753925 0.044047315 0.00045912113
0.04716131 0.04583089 -0.8580908 -0.080307715 0.03911482 0.07337043 0.12819819 -0.058355156

policy.net.2.bias f4 [5]
00000000: 56fe 5fbf 73fb 8abd c712 e93d 0bab f7bc
00000010: fcd9 103e
-0.8749746 -0.067862414 0.113805346 -0.030232927 0.14145654

exp_avg f4 [900, 16]
00000000: 1076 9239 4093 8e37 035c aab8 3a20 d038
00000010: 80ce 6ab9 da50 67b9 b075 aa38 f9fd 0a38
00000020: 70dc 1db7 c23c 82b8 5691 ecb8 9a94 d0b7
00000030: a1ae 8338 e3bd f4b8 6959 94b9 ce5e dc38
00000040: 88da 08b8 a18a e0b8 af2c a9b7 11d2 e437
00000050: 4a7f 0838 2eca 7b36 c38a 6337 f16b d837
00000060: 2ae2 c8b8 07aa aab7 44b5 0238 b850 83b8
00000070: 723f c2b7 a6ed 94b8 a03d 0338 192b 6338
00000080: 2ceb 15b8 7bc8 f3b8 feda 3c38 7f54 8138
00000090: 7fde 1c38 afdc cd35 8853 bf38 5e34 be37
000000a0: 2d76 9938 f8d7 9337 c69a 13b8 4402 1636
000000b0: 58b0 8a38 624b 7bb7 edc6 f937 15c3 1437
000000c0: 948f aab8 f676 0cb9 0f69 1a38 aceb 4136
000000d0: c6e6 c9b6 b15c 7ab6 8029 e938 bf6a 53b7
000000e0: 4b4e 5936 c909 a337 d955 07b7 2a60 8137
000000f0: c65a 8b38 4185 94b7 eabe b0b7 5b75 16b8
00000100: 25a1 ed38 fb4c 21b8 0751 3cb9 2f44 efb5
00000110: c1fe abb8 8d4f 8bb8 93a0 1637 3c01 2eb8
00000120: e6c4 d7b7 65c0 fa38 6d8c 3c37 a434 efb7
00000130: 1ffa 2538 8075 5db8 22ce 85b7 e432 5f38
00000140: 0000 0000 0000 0000 0000 0000 0000 0000
00000150: 0000 0000 0000 0000 0000 0000 0000 0000
00000160: 0000 0000 0000 0000 0000 0000 0000 0000
00000170: 0000 0000 0000 0000 0000 0000 0000 0000
00000180: 0000 0000 0000 0000 0000 0000 0000 0000
00000190: 0000 0000 0000 0000 0000 0000 0000 0000
000001a0: 0000 0000 0000 0000 0000 0000 0000 0000
000001b0: 0000 0000 0000 0000 0000 0000 0000 0000
000001c0: 0000 0000 0000 0000 0000 0000 0000 0000
000001d0: 0000 0000 0000 0000 0000 0000 0000 0000
000001e0: 0000 0000 0000 0000 0000 0000 0000 0000
000001f0: 0000 0000 0000 0000 0000 0000 0000 0000
00000200: 0000 0000 0000 0000 0000 0000 0000 0000
00000210: 0000 0000 0000 0000 0000 0000 0000 0000
00000220: 0000 0000 0000 0000 0000 0000 0000 0000
00000230: 0000 0000 0000 0000 0000 0000 0000 0000
00000240: 0000 0000 0000 0000 0000 0000 0000 0000
00000250: 0000 0000 0000 0000 0000 0000 0000 0000
00000260: 0000 0000 0000 0000 0000 0000 0000 0000
00000270: 0000 0000 0000 0000 0000 0000 0000 0000
00000280: 0000 0000 0000 0000 0000 0000 0000 0000
00000290: 0000 0000 0000 0000 0000 0000 0000 0000
000002a0: 0000 0000 0000 0000 0000 0000 0000 0000
000002b0: 0000 0000 0000 0000 0000 0000 0000 0000
000002c0: 0000 0000 0000 0000 0000 0000 0000 0000
000002d0: 0000 0000 0000 0000 0000 0000 0000 0000
000002e0: 0000 0000 0000 0000 0000 0000 0000 0000
000002f0: 0000 0000 0000 0000 0000 0000 0000 0000
00000300: cd19 9338 9b56 b537 3012 00b8 c782 5fb7
00000310: b545 0c38 275b e0b7 a143 6f38 b8eb 51b8
00000320: 5984 25b6 1a10 f337 d67b 1c38 d93d 6437
00000330: 7d84 01b8 5a84 8bb6 0726 ab37 a655 05b7
00000340: 25b4 3338 c590 60b7 7b90 49b6 d108 4037
00000350: de4a 4138 593d 0bb8 65f4 3637 2fac b4b7
00000360: fa83 54b7 e324 b9b7 0f8d 2eb7 8a2e 3a35
00000370: d709 bdb7 9060 0cb8 4f35 2438 33d8 3d37
00000380: b16c a538 6f60 a5b7 6a92 45b8 76aa 1838
00000390: efa5 f337 d169 7a37 b3d6 8938 31c2 10b8
000003a0: b679 b9b6 fbd6 28b8 1e7d 7eb7 91b7 8a37
000003b0: 3877 5c37 20bc 9eb7 0b69 ccb7 7558 8436
000003c0: 82be d3b7 702f 8b37 e1b1 1837 edff 3438
000003d0: 69ee fe38 0085 d537 47b7 9538 1b44 04b8
000003e0: c83d 2938 b5d9 0b38 5cef db36 338e 8f38
000003f0: 3378 50b7 8b39 48b8 78ea 8437 afd4 07b8
0.00027935253 1.6996288e-05 -8.12337e-05 9.9242156e-05 -0.00022392906 -0.00022059996 8.128153e-05 3.3138294e-05
-9.409254e-06 -6.2102e-05 -0.00011280428 -2.486473e-05 6.279094e-05 -0.00011670196 -0.00028295376 0.00010508076
-3.262845e-05 -0.00010706974 -2.0167177e-05 2.7277538e-05 3.2543474e-05 3.7519599e-06 1.3562562e-05 2.579947e-05
-9.5788695e-05 -2.0344754e-05 3.1163232e-05 -6.261602e-05 -2.3156146e-05 -7.1014554e-05 3.1290227e-05 5.4161155e-05
-3.574339e-05 -0.00011624485 4.5026645e-05 6.166938e-05 3.7400514e-05 1.5337918e-06 9.1231486e-05 2.267415e-05
7.3176205e-05 1.7624334e-05 -3.5191675e-05 2.235306e-06 6.6131994e-05 -1.4978317e-05 2.9775745e-05 8.8669085e-06
-8.132975e-05 -0.00013395757 3.6814305e-05 2.889642e-06 -6.0171324e-06 -3.7306856e-06 0.00011118036 -1.2601434e-05
3.2381092e-06 1.943567e-05 -8.066615e-06 1.5422778e-05 6.6449444e-05 -1.7705026e-05 -2.1069736e-05 -3.5872083e-05
0.00011331056 -3.8457085e-05 -0.00017959262 -1.7826732e-06 -8.201367e-05 -6.642854e-05 8.978083e-06 -4.1485982e-05
-2.5721685e-05 0.00011956765 1.1238369e-05 -2.8515533e-05 3.957201e-05 -5.2799936e-05 -1.5950824e-05 5.321474e-05
0.0 0.0 0.0 0.0 0.0 0.0 0.0 0.0
0.0 0.0 0.0 0.0 0.0 0.0 0.0 0.0
0.0 0.0 0.0 0.0 0.0 0.0 0.0 0.0
0.0 0.0 0.0 0.0 0.0 0.0 0.0 0.0
0.0 0.0 0.0 0.0 0.0 0.0 0.0 0.0
0.0 0.0 0.0 0.0 0.0 0.0 0.0 0.0
0.0 0.0 0.0 0.0 0.0 0.0 0.0 0.0
0.0 0.0 0.0 0.0 0.0 0.0 0.0 0.0
0.0 0.0 0.0 0.0 0.0 0.0 0.0 0.0
0.0 0.0 0.0 0.0 0.0 0.0 0.0 0.0
0.0 0.0 0.0 0.0 0.0 0.0 0.0 0.0
0.0 0.0 0.0 0.0 0.0 0.0 0.0 0.0
0.0 0.0 0.0 0.0 0.0 0.0 0.0 0.0
0.0 0.0 0.0 0.0 0.0 0.0 0.0 0.0
7.014312e-05 2.161721e-05 -3.0534517e-05 -1.3322285e-05 3.344352e-05 -2.6745327e-05 5.7045025e-05 -5.0049013e-05
-2.4663952e-06 2.8975355e-05 3.730863e-05 1.3604259e-05 -3.0879386e-05 -4.1579306e-06 2.0402496e-05 -7.947359e-06
4.28447e-05 -1.3385147e-05 -3.0035433e-06 1.14461445e-05 4.608451e-05 -3.3197317e-05 1.0904948e-05 -2.1537851e-05
-1.2666913e-05 -2.2070895e-05 -1.0404051e-05 6.935812e-07 -2.2535138e-05 -3.3468532e-05 3.9150294e-05 1.1315616e-05
7.8880585e-05 -1.9714438e-05 -4.710482e-05 3.6398378e-05 2.9045126e-05 1.49257985e-05 6.57266e-05 -3.451313e-05
-5.5275987e-06 -4.0254537e-05 -1.5168711e-05 1.6536362e-05 1.314078e-05 -1.892267e-05 -2.436761e-05 3.9442043e-06
-2.5241872e-05 1.6592181e-05 9.101322e-06 4.3153694e-05 0.00012156071 2.5453512e-05 7.139012e-05 -3.153468e-05
4.0350278e-05 3.3342938e-05 6.5545737e-06 6.845258e-05 -1.2425752e-05 -4.7737307e-05 1.584481e-05 -3.2384585e-05
