ISE_Transformer/model/2_room/eil_2_room_198_model/EBC_model_71999.pth (torch, 319288 bytes, 27 tensors)

encoder.embedding.weight f4 [900, 16]
0.25704914 -0.75416094 0.7503119 1.9255503 0.5305028 0.76822346 0.08754444 0.60125494
1.5503707 1.190689 1.4879858 -0.79461 1.846466 -0.5822241 -1.0083865 0.6803299
-1.1907388 0.027839689 0.49059775 -0.598279 0.5895453 0.54327375 0.3283252 0.13560992
-1.0256338 -1.4145633 2.2157226 -1.6862662 0.88792217 -0.18831378 -0.36568254 -1.462178
0.5956182 -0.06606857 -0.5567691 0.52351475 -0.05077314 0.16045639 -0.34312633 -1.9713072
-0.73138916 1.0656615 -0.9681137 -0.039678633 -1.4110872 0.09570215 -3.428904 -1.198999
0.33013973 -0.85617733 -1.4525102 -0.82327235 0.7708848 1.6942401 -1.0865511 0.45866022
-1.4144905 0.14911978 0.72110385 -1.3818189 -1.1348411 -0.6907459 -0.8095212 -2.607174
1.0807805 0.47389224 -1.545677 2.5034351 -0.9317576 -0.027227249 -1.4458846 0.32885784
-0.6306327 -0.20776108 0.12467564 -1.8341026 -2.133438 -0.14335728 -0.60620576 0.010370665
0.14950831 0.68173635 1.5676895 0.47556657 -1.0050126 -1.023286 0.5214422 -0.48220333
-0.7726252 2.7445233 -1.9759138 0.415895 1.5672935 -0.03982712 -0.9722075 -0.71206236
0.2399586 -1.199124 1.0634183 -0.6769421 -0.6633918 0.3362924 0.5184555 1.0378041
0.041475523 0.84185106 -0.13130704 -1.4924617 0.36357212 -0.51106703 -0.41850448 1.181892
-0.2659641 0.8041965 -0.307584 1.3537711 0.66702676 -0.23589839 -0.1712208 0.56163234
0.30705154 0.33780503 0.12988454 0.5764989 0.020306023 1.3983688 1.4169482 -0.0058822334
-0.8824504 -0.48821172 -1.3561088 -0.23345223 1.8297452 1.5896279 0.17809501 0.5119587
-0.5462637 -1.4434364 -1.923773 -1.1291713 1.0067925 -0.008793296 -0.804452 1.9658368
1.6479504 0.5699342 -0.012340214 -1.4708327 -0.046256755 -0.5328155 0.65974027 2.1868584
0.48783317 2.1796973 -1.4626534 -1.3909887 -0.43217906 -0.14899805 0.10180085 -0.17570433
0.32208213 1.2037162 0.0853502 -1.7608309 0.059560195 -1.3081975 0.23057866 0.9599387
0.14141941 0.86194164 -1.0958056 -1.1410904 -0.37610725 -0.2558852 -0.28377268 1.1223673
2.0637617 0.13099124 0.91126615 0.09883216 -0.666103 0.9322513 1.6354256 -1.1004666
0.7353627 2.0250545 -2.9137704 0.1907943 0.16965011 -0.70002025 -0.09773357 0.51418406
1.1032764 0.13218257 -1.1638876 2.1128657 0.5541477 -0.6567181 -1.1287667 -0.8877256
1.6145712 1.1652733 1.4531134 -0.1721855 -0.82713133 -1.6476864 -1.8724749 -1.7781875
1.6990073 0.015749654 -0.77991277 0.74725974 0.48931748 -0.4883349 -0.11096675 -0.33938655
-0.1749187 -0.517045 0.6164199 -0.75278306 1.1341113 1.2919298 0.56870514 -0.7453843
-1.4204468 -1.6745986 -0.55453354 -0.36975253 1.0717462 0.6418147 -1.6538008 -1.7681922
1.206789 0.6533402 0.20600338 -1.3509549 -1.1670448 -0.26402047 -0.351831 0.39424673
-0.114342906 -0.38963208 -0.16394714 0.8590038 1.9237579 0.5923019 -0.28905907 -1.5351207
-0.28948703 -1.8168261 1.3153967 -0.19814394 0.8776752 0.14021249 2.303876 0.0064617284
00000000: f29b 833e b110 41bf 7114 403f 6f78 f63f
00000010: 08cf 073f 4baa 443f 804a b33d d8eb 193f
00000020: 8c72 c63f 7f68 983f 5276 be3f 906b 4bbf
00000030: ff58 ec3f a30c 15bf cf12 81bf 1a2a 2e3f
00000040: 216a 98bf 0f10 e43c a12f fb3e d028 19bf
00000050: 71ec 163f fd13 0b3f 3e1a a83e 54dd 0a3e
00000060: f847 83bf 6910 b5bf 66ce 0d40 92d7 d7bf
00000070: de4e 633f 54d5 40be be3a bbbe a628 bbbf
00000080: 6f7a 183f f54e 87bd 6b88 0ebf 1005 063f
00000090: 7ff7 4fbd ae4e 243e 41ae afbe cb53 fcbf
000000a0: 523c 3bbf 9967 883f 4dd6 77bf 1086 22bd
000000b0: 819e b4bf 7dff c33d 2a73 5bc0 cd78 99bf
000000c0: 1308 a93e 702e 5bbf dbeb b9bf fac1 52bf
000000d0: b558 453f dcdc d83f 1b14 8bbf 83d5 ea3e
000000e0: 060e b5bf dbb2 183e 439a 383f 71df b0bf
000000f0: 7942 91bf b9d4 30bf c83c 4fbf f0db 26c0
00000100: 0457 8a3f 01a2 f23e bed8 c5bf 4838 2040
00000110: ab87 6ebf ae0b dfbc bf12 b9bf 0e60 a83e
00000120: 2571 21bf 52bf 54be f155 ff3d e0c3 eabf
00000130: 408a 08c0 40cc 12be 4d30 1bbf b9e9 293c
00000140: b518 193e 4686 2e3f 0daa c83f 767d f33e
00000150: 41a4 80bf 09fb 82bf 3c7d 053f 5be3 f6be
00000160: c4ca 45bf 45a6 2f40 beea fcbf 30f0 d43e
00000170: 139d c83f c321 23bd 97e2 78bf b849 36bf
00000180: b5b7 753e e57c 99bf 171e 883f 144c 2dbf
00000190: 0cd4 29bf 842e ac3e 80b9 043f c4d6 843f
000001a0: 3de2 293d 8d83 573f 5a75 06be fc08 bfbf
000001b0: 2026 ba3e 4ad5 02bf 3846 d6be 3d48 973f
000001c0: 722c 88be d2df 4d3f a67b 9dbe 5f48 ad3f
000001d0: 44c2 2a3f 598f 71be 8154 2fbe 23c7 0f3f
000001e0: dc35 9d3e c8f4 ac3e 7400 053e 6f95 133f
000001f0: d158 a63c c0fd b23f 8f5e b53f c0bf c0bb
00000200: 45e8 61bf e3f6 f9be f994 adbf 1a0e 6fbe
00000210: 1735 ea3f ed78 cb3f 8a5e 363e ba0f 033f
00000220: f0d7 0bbf 86c2 b8bf 323e f6bf af88 90bf
00000230: 94de 803f c211 10bc 91f0 4dbf 8aa0 fb3f
00000240: 0af0 d23f 35e7 113f 9c2e 4abc 3f44 bcbf
00000250: b977 3dbd 9966 08bf bde4 283f 7df5 0b40
00000260: 45c5 f93e 2980 0b40 3a38 bbbf eb0b b2bf
00000270: 9346 ddbe f292 18be f77c d03d d6eb 33be
00000280: f3e7 a43e 5f13 9a3f 16cc ae3d e862 e1bf
00000290: 64f5 733d 0473 a7bf d01c 6c3e 8bbe 753f
000002a0: 40d0 103e 35a8 5c3f 5c43 8cbf 400f 92bf
000002b0: 2191 c0be 6303 83be a74a 91be bba9 8f3f
000002c0: ac14 0440 9122 063e bd48 693f 8468 ca3d
000002d0: ba85 2abf 05a8 6e3f a055 d13f 17dc 8cbf
000002e0: bb40 3c3f 7e9a 0140 377b 3ac0 955f 433e
000002f0: c2b8 2d3e 8734 33bf 8a28 c8bd 91a1 033f
00000300: 2938 8d3f de5a 073e 45fa 94bf 3139 0740
00000310: a0dc 0d3f ad1e 28bf 6d7b 90bf fc41 63bf
00000320: 45aa ce3f ad27 953f 9fff b93f 6551 30be
00000330: e1be 53bf 63e7 d2bf 42ad efbf a69b e3bf
00000340: 1279 d93f 6b05 813c 5da8 47bf 6a4c 3f3f
00000350: d287 fa3e 0807 fabe 8942 e3bd 13c4 adbe
00000360: e31d 33be 105d 04bf b2cd 1d3f 64b6 40bf
00000370: 8f2a 913f f55d a53f a996 113f 81d1 3ebf
00000380: 33d1 b5bf 3f59 d6bf e9f5 0dbf 3450 bdbe
00000390: fb2e 893f f84d 243f bfaf d3bf 1f54 e2bf
000003a0: 1078 9a3f 4e41 273f 8df2 523e 17ec acbf
000003b0: b961 95bf b12d 87be 3123 b4be b5da c93e
000003c0: 9d2c eabd db7d c7be c2e1 27be ace7 5b3f
000003d0: b33d f63f 19a1 173f 8dff 93be d67e c4bf
000003e0: a537 94be c28d e8bf eb5e a83f 3fe6 4abe
000003f0: 52af 603f dd93 0f3e b472 1340 e8bc d33b

encoder.lstm.weight_ih_l0 f4 [128, 16]
-0.3859602 0.16160953 -0.4237554 -0.7431905 0.023658775 0.38958877 -0.09441272 0.21656205
-0.17470156 -0.29964572 -0.54083276 -0.1619248 0.2723296 0.061775062 -0.025249941 0.4548551
-0.022102393 0.4916069 -0.5290836 -0.16948892 0.021063732 -0.44426954 0.09045397 0.38971594
-0.24940048 -0.89031875 -0.4522657 -0.30742633 0.1611987 -0.86211276 0.19562277 0.035389446
0.1143796 -0.24319944 -0.25361568 0.25369576 -0.20093739 0.046533097 0.23066922 0.13047771
0.08151047 -0.35345677 -0.29890996 0.22037134 -0.05374513 0.04339353 -0.22355707 0.28697443
-0.68105763 0.09810355 0.78770894 0.1335778 -0.030232064 0.25211123 -0.1638646 -0.16174285
-0.15091422 0.17872731 0.06396297 -0.9963553 -0.46187425 -0.0509481 0.24461076 0.0499532
-0.10817167 0.09078716 0.29111257 0.11032987 0.59682184 0.30479172 -0.13541809 -0.027862277
-0.5112548 -0.015402271 0.3704578 -0.07705299 -0.25806522 0.21921366 -0.16988738 -0.27826667
0.38278311 0.61904526 0.1327383 0.08318202 -0.03715135 -0.060457103 -0.25179335 -0.011162023
0.0037628866 -0.72827476 -0.21197425 0.1753164 0.12741286 0.51410145 -0.33143982 0.28570133
-0.2009243 0.17403986 0.08037084 -0.15868059 0.48187155 -0.015881738 0.5022306 0.16659842
0.076211266 0.5799101 0.018288778 0.45731735 0.27892977 -0.07963838 0.100721635 0.19468762
-0.42663023 0.046339147 -0.14045611 -0.22415832 0.44623685 0.6165814 -0.016278777 0.45857546
-0.45408294 -0.14323622 -1.0179738 -0.1794399 -0.30012417 1.1300573 0.44855347 -0.31825322
0.08808731 -0.37356097 -0.21428527 0.39598843 0.0595977 -0.3142144 0.2515436 0.6042983
0.10789241 0.2599543 0.16180792 0.14740734 0.34650034 0.5509239 -0.20515893 0.0066838507
0.20749675 0.29603827 -0.09220017 0.11432892 -0.42218575 -0.25232884 -0.051044084 0.3258256
-0.2902211 0.06466578 -0.73581076 -0.19214147 0.19798923 0.7480684 0.043603174 0.27760482
0.2993919 0.26750034 0.21154591 -0.1706723 0.06676253 0.17902495 -0.08484386 0.3447679
-0.35796157 -0.39129373 -0.23534249 -0.039830733 0.5247219 0.02199233 -0.12593538 0.07414249
-0.072931774 0.57576764 -0.8399356 -0.025948398 0.216926 -0.43311217 0.0077293245 0.4566464
-0.66226405 0.38826835 0.0132024605 0.3813792 -0.35125136 -0.10773331 0.20838451 0.18204461
-0.007906156 0.5798493 -0.35924944 0.770051 -0.20724785 0.15326361 -0.6565947 0.27037182
0.18927857 0.28389448 0.5682384 0.111103825 0.053263314 0.3350329 0.5363936 0.21505006
-0.009748991 0.15375437 -0.08364698 -0.05502014 -0.3412438 0.06635789 0.3079014 -0.14120583
-0.06813801 -0.15542834 -0.028091101 0.3913698 0.07515926 0.46710762 -0.2632033 0.22000717
0.16127135 -0.2621489 -0.28695634 0.4209325 0.12373252 0.15866339 0.20476985 -0.051609688
-0.20463845 -0.052580554 -0.20160198 -0.1309052 -0.07697787 -0.29827774 -0.12518847 0.124913484
0.14707142 -0.346307 -0.30199713 0.053581726 -0.08853426 0.6840329 -0.41232553 -0.18467115
-0.0022467067 0.038376495 0.22726852 -0.3767672 -0.5024472 0.14936675 0.1252533 0.18213806
00000000: 939c c5be f87c 253e 78f6 d8be bc41 3ebf
00000010: 0cd0 c13c 2e78 c73e 755b c1bd 71c2 5d3e
00000020: f7e4 32be 2a6b 99be 0474 0abf 9dcf 25be
00000030: c96e 8b3e d907 7d3d f7d8 cebc c5e2 e83e
00000040: 1410 b5bc e6b3 fb3e 0672 07bf 818e 2dbe
00000050: d98d ac3c 4c77 e3be ee3f b93d d988 c73e
00000060: d762 7fbe eeeb 63bf 5f8f e7be fc66 9dbe
00000070: 4611 253e 6cb3 5cbf 5651 483e 86f4 103d
00000080: da3f ea3d 4609 79be ead9 81be 69e4 813e
00000090: 88c2 4dbe 7d99 3e3d 8d34 6c3e f39b 053e
000000a0: f6ee a63d 49f8 b4be ba0a 99be 06a9 613e
000000b0: da23 5cbd 6abd 313d 25ec 64be 50ee 923e
000000c0: cb59 2ebf 84ea c83d 4ba7 493f 9ec8 083e
000000d0: 3ca9 f7bc b914 813e 1fcc 27be eb9f 25be
000000e0: 4289 1abe 4b04 373e 05ff 823d 2411 7fbf
000000f0: c87a ecbe f4ae 50bd 3e7b 7a3e ba9b 4c3d
00000100: 1c89 ddbd 9eee b93d b50c 953e a0f4 e13d
00000110: 51c9 183f a90d 9c3e 0aab 0abe 6e3f e4bc
00000120: 98e1 02bf cf59 7cbc a5ac bd3e f5cd 9dbd
00000130: 2021 84be 8c79 603e f5f6 2dbe f878 8ebe
00000140: 26fc c33e c079 1e3f 8dec 073e 565b aa3d
00000150: 042c 18bd dea1 77bd 0feb 80be ebe0 36bc
00000160: c39a 763b 3770 3abf c70f 59be 2486 333e
00000170: 8478 023e 279c 033f 7bb2 a9be 7247 923e
00000180: 1abf 4dbe 8137 323e 7899 a43d 2a7d 22be
00000190: deb7 f63e 6b1a 82bc 2f92 003f c798 2a3e
000001a0: a714 9c3d fd74 143f 59d2 953c 8025 ea3e
000001b0: e2cf 8e3e 7219 a3bd 2547 ce3d 315c 473e
000001c0: 476f dabe 1ece 3d3d bad3 0fbe c289 65be
000001d0: 2879 e43e 47d8 1d3f 125b 85bc 67ca ea3e
000001e0: 8f7d e8be 84ac 12be f74c 82bf 18bf 37be
000001f0: e0a9 99be b8a5 903f cda8 e53e 16f2 a2be
00000200: 1f67 b43d 6243 bfbe 996d 5bbe ffbe ca3e
00000210: b81c 743d b6e0 a0be 53ca 803e 4bb3 1a3f
00000220: b2f6 dc3d bb18 853e fab0 253e f3f1 163e
00000230: 7e68 b13e 5909 0d3f 2f15 52be 3404 db3b
00000240: 077a 543e 5492 973e 71d3 bcbd 4825 ea3d
00000250: bb28 d8be 3f31 81be 9a13 51bd 9dd2 a63e
00000260: dc97 94be 7e6f 843d 185e 3cbf bcc0 44be
00000270: b0bd 4a3e 6981 3f3f 3e99 323d 3822 8e3e
00000280: e549 993e cef5 883e 7e9f 583e b8c4 2ebe
00000290: cbba 883d 5152 373e 9ec2 adbd 6b85 b03e
000002a0: bd46 b7be a757 c8be 9ffd 70be 8d25 23bd
000002b0: 2d54 063f 4229 b43c 34f5 00be 05d8 973d
000002c0: 415d 95bd 8265 133f 0506 57bf bc91 d4bc
000002d0: d921 5e3e e1c0 ddbe 4646 fd3b 8fcd e93e
000002e0: 238a 29bf 1ccb c63e 224f 583c 2244 c33e
000002f0: 38d7 b3be 48a3 dcbd c062 553e e769 3a3e
00000300: d288 01bc 0171 143f 8bef b7be 1022 453f
00000310: c838 54be 23f1 1c3e 9716 28bf 2d6e 8a3e
00000320: 3ed2 413e 9e5a 913e 1278 113f 678a e33d
00000330: a22a 5a3d 6f89 ab3e 1751 093f 1536 5c3e
00000340: 3bba 1fbc c971 1d3e 1c4f abbd cc5c 61bd
00000350: 82b7 aebe a5e6 873d 41a5 9d3e 4398 10be
00000360: f18b 8bbd 9b28 1fbe 4f1f e6bc 9f61 c83e
00000370: 19ed 993d bb28 ef3e 95c2 86be 8f49 613e
00000380: 5124 253e 6138 86be f1eb 92be 7784 d73e
00000390: 7a67 fd3d a878 223e 30af 513e ae64 53bd
000003a0: be8c 51be b55e 57bd c070 4ebe 030c 06be
000003b0: 93a6 9dbd dcb7 98be 6831 00be a4d2 ff3d
000003c0: e499 163e 274f b1be 5e9f 9abe 8378 5b3d
000003d0: 7351 b5bd c81c 2f3f 551c d3be 6f1a 3dbe
000003e0: 7c3d 13bb ac30 1d3d 14b9 683e a1e7 c0be
000003f0: 61a0 00bf 99f3 183e 6742 003e 6682 3a3e

encoder.lstm.weight_hh_l0 f4 [128, 32]
-0.85850894 -0.20429721 -0.26901954 0.3064173 0.6892107 -0.26948974 0.0268475 -0.5401228
-0.05635034 -0.48953894 -0.08937102 -0.4149903 0.38738853 -0.12100667 0.4631998 -0.2511396
0.3434907 -0.04325875 -0.46408495 -0.8091575 -0.1986529 0.28225404 -0.68952984 -0.49929652
0.28754905 -0.17930958 0.08356297 -0.19886391 -0.5160325 0.27984315 0.021661954 -0.25774947
-0.12111928 0.2979768 -0.5303509 -0.025835123 0.56347007 -0.49284595 0.17135672 -0.12895168
-0.035569396 -0.048329134 -0.38612545 -0.05978918 -0.25968692 -0.080890454 0.91489774 -0.04174979
0.10405638 0.58036435 0.3778916 -0.06285304 -0.72804403 0.486555 0.1630314 0.3636713
0.7131678 0.024114942 -0.06692092 -0.27411482 -0.7279565 0.62090516 0.7407492 -0.04832485
0.5953822 0.08859465 -0.28206235 -0.2943121 1.0237622 -0.6730809 0.3420082 -0.031925842
-0.466858 -0.94360757 0.17475657 -1.2294257 0.024079714 -0.91676944 0.29305485 -0.37901348
0.15939067 -0.2908235 0.6052013 -0.3437151 -0.5138398 0.04470556 -0.11215307 -0.103772804
0.4804993 -0.6300863 0.030019883 -0.81452173 -0.27275345 0.010839951 -0.009285522 -0.45785493
-0.13714728 -0.3263667 0.14382559 -0.23395978 -0.37296167 -0.81350523 -0.07138383 0.28268647
0.06375445 0.28206256 0.0620245 -0.5604507 -0.19860236 -0.75192285 -0.1953168 0.29944468
0.5192851 -0.44859254 0.38258266 -0.1094645 -0.18087363 -0.22032964 -0.3605543 0.069108374
-0.14681497 0.5851704 -0.63233274 -0.072945476 -0.438966 -0.26508433 0.026607402 0.40784442
-0.3066226 0.09151786 -0.21036874 0.16159523 0.62174964 -0.7499901 -0.08283284 0.7394249
-0.31099784 -0.0611642 -0.1104329 0.23332481 0.43429637 0.063017756 0.6887685 0.17189252
0.2772177 -0.26845977 -0.04063251 -0.39833674 -0.37140834 0.31948277 0.15230149 -0.29200196
0.40380695 0.041306227 -0.35932314 0.34108832 -0.57970184 0.9699245 -0.3844786 -0.41924927
0.22146064 -0.27871323 -0.45918003 -0.488594 -0.055894185 -0.46213788 0.5633858 1.0307659
-0.41138786 0.0008311068 -0.49851912 -0.12241899 -0.21772636 -0.10878635 0.11061783 -0.188746
0.22432159 0.051691476 0.22662319 0.025303118 0.03601816 0.49124297 0.39169887 -0.5564139
-0.23550561 -0.36889812 -0.48645177 -0.5125861 -0.20450519 0.42437342 -0.5159129 -0.04551705
0.28023332 0.47327754 -0.31999978 0.21790436 0.13801986 -0.43354496 -0.15624489 0.68894875
-0.34829283 -0.01468994 -0.47036183 -0.56521285 -0.10952649 -0.5369536 -0.28962475 0.13374132
0.00388114 0.11515823 -0.50731665 0.15491621 -0.5645001 0.7136813 -0.072244845 -0.24692291
1.2290236 -0.47115684 0.07523317 -0.30953103 -0.8983684 0.33214194 0.06286386 -0.2361703
0.062829316 -0.24093659 -0.7856071 -0.19955485 0.93686134 -0.42884833 -0.23883976 0.122176856
-0.20599951 -0.20375551 -0.37375396 0.0974313 0.2111084 -0.5112357 0.5592515 -0.063503474
0.3607694 0.16374148 -0.24055634 -0.11520984 0.14136857 0.18903741 -0.6533223 -0.44969413
-0.2227025 -0.6990594 -0.45550895 -0.93280816 -0.52003235 0.40589046 -0.14868762 -0.27821162
00000000: 3ec7 5bbf 4a33 51be eebc 89be bae2 9c3e
00000010: 1d70 303f 8ffa 89be 4aef db3c 7d45 0abf
00000020: 9dcf 66bd d9a4 fabe 2708 b7bd 9c79 d4be
00000030: ca57 c63e 58d2 f7bd 8628 ed3e 5f95 80be
00000040: 03de af3e 1630 31bd 8b9c edbe f224 4fbf
00000050: aa6b 4bbe 9a83 903e 0785 30bf cba3 ffbe
00000060: a139 933e ee9c 37be 1023 ab3d fba2 4bbe
00000070: b51a 04bf 9a47 8f3e 6974 b13c bdf7 83be
00000080: 630d f8bd 6a90 983e 14c5 07bf 2ea4 d3bc
00000090: 933f 103f 4e56 fcbe 2378 2f3e e90b 04be
000000a0: 37b1 11bd c5f4 45bd 3cb2 c5be 80e5 74bd
000000b0: aff5 84be e5a9 a5bd bd36 6a3f d401 2bbd
000000c0: 831b d53d c292 143f 027b c13e 18b9 80bd
000000d0: 1861 3abf bd1d f93e b4f1 263e 2033 ba3e
000000e0: 2a92 363f b38c c53c d60d 89bd c758 8cbe
000000f0: 5b5b 3abf a4f3 1e3f bda1 3d3f 47f0 45bd
00000100: f86a 183f 1d71 b53d 7a6a 90be 13b0 96be
00000110: a40a 833f 084f 2cbf b31b af3e acc4 02bd
00000120: 0308 efbe 4490 71bf 63f3 323e d25d 9dbf
00000130: d242 c53c 67b1 6abf 490b 963e 0e0e c2be
00000140: 4f37 233e d1e6 94be 79ee 1a3f 6dfb afbe
00000150: 018b 03bf 2d1d 373d 82b0 e5bd d686 d4bd
00000160: 0104 f63e 564d 21bf 42ec f53c 7f84 50bf
00000170: 57a6 8bbe 0d9a 313c 4d22 18bc f66b eabe
00000180: 5670 0cbe 8919 a7be 0447 133e 2793 6fbe
00000190: d5f4 bebe e141 50bf af31 92bd 48bc 903e
000001a0: b191 823d 816a 903e 670d 7e3d b279 0fbf
000001b0: 6b5e 4bbe 047e 40bf 2101 48be d050 993e
000001c0: deef 043f ecad e5be e0e1 c33e ec2e e0bd
000001d0: f036 39be 189e 61be 939a b8be b188 8d3d
000001e0: aa56 16be bacd 153f 8fe0 21bf 7064 95bd
000001f0: 27c0 e0be 22b9 87be c4f7 d93c fcd0 d03e
00000200: a3fd 9cbe b76d bb3d e76a 57be 3879 253e
00000210: fc2a 1f3f 5aff 3fbf 44a4 a9bd f34a 3d3f
00000220: 1c3b 9fbe 5087 7abd a52a e2bd b3ec 6e3e
00000230: 185c de3e 740f 813d 2253 303f 9804 303e
00000240: 7aef 8d3e 8f73 89be 466e 26bd cbf2 cbbe
00000250: 3c29 bebe 3f93 a33e ecf4 1b3e 4881 95be
00000260: c9bf ce3e b830 293d 34f9 b7be 21a3 ae3e
00000270: 5767 14bf f94c 783f 61da c4be d7a7 d6be
00000280: 94c6 623e 80b3 8ebe a519 ebbe fe28 fabe
00000290: 4df1 64bd 569d ecbe 0d3a 103f 23f0 833f
000002a0: 6ea1 d2be a2de 593a e63d ffbe cfb6 fabd
000002b0: a9f3 5ebe 61cb debd 9a8b e23d a246 41be
000002c0: 8fb4 653e 71ba 533d e90f 683e 7c48 cf3c
000002d0: c787 133d 3384 fb3e c18c c83e 2471 0ebf
000002e0: 6228 71be 37e0 bcbe 3510 f9be d838 03bf
000002f0: cf69 51be 7947 d93e de12 04bf 1670 3abd
00000300: be7a 8f3e 6f51 f23e 03d7 a3be 5222 5f3e
00000310: 1455 0d3e 9bf9 ddbe a9fe 1fbe f25e 303f
00000320: 7053 b2be 13ae 70bc 44d3 f0be cab1 10bf
00000330: 6d4f e0bd cb75 09bf b249 94be 7cf3 083e
00000340: b95a 7e3b 14d8 eb3d 81df 01bf 5ba2 1e3e
00000350: 1483 10bf d1b3 363f 1bf5 93bd 5cd9 7cbe
00000360: a550 9d3f 783b f1be d913 9a3d da7a 9ebe
00000370: 79fb 65bf 820e aa3e c4be 803d a1d6 71be
00000380: a8ac 803d 15b8 76be 8c1d 49bf 1b58 4cbe
00000390: 25d6 6f3f 0292 dbbe 6992 74be dc37 fa3d
000003a0: 89f1 52be 49a5 50be ae5c bfbe 108a c73d
000003b0: cd2c 583e 58e0 02bf 1b2b 0f3f 1c0e 82bd
000003c0: c4b6 b83e d9ab 273e 6754 76be 23f3 ebbd
000003d0: ecc2 103e 0693 413e 2140 27bf 4f3e e6be
000003e0: 200c 64be 8ff5 32bf 7838 e9be 84cc 6ebf
000003f0: d720 05bf e0d0 cf3e 9141 18be c171 8ebe

encoder.lstm.bias_ih_l0 f4 [128]
0.67540425 0.34931925 0.37562513 0.103044376 0.22619826 0.4642099 0.45222384 0.3518389
0.29424456 0.42158702 0.15593189 0.03414061 0.010033897 0.76584303 0.21442781 0.19786698
0.4847707 0.5389149 0.66606146 0.068833835 0.17909865 0.22503616 0.42183512 0.2655519
0.31134534 0.33876488 0.41492364 0.28824168 0.68292737 0.3902232 -0.12730035 0.26854208
0.270277 -0.2696757 0.32425308 0.14258355 -0.00083421206 0.40736634 0.18332246 0.27879694
0.236022 0.36719587 0.20021465 0.55465525 0.28548786 0.25649023 0.30605835 0.25880918
0.4366685 0.049770836 0.31589773 0.24087217 0.21780924 0.21654367 0.17937073 0.34884158
0.45260924 0.3106826 0.211486 0.04328019 0.21753713 0.45013028 0.1649572 -0.08445892
0.0042795963 -0.015337639 -0.13857692 -0.19901873 0.1766954 -0.09505367 0.10644915 0.12847938
-0.18046159 -0.04003715 0.026990118 -0.2419666 -0.17152648 -0.19279863 -0.03189936 0.17056206
0.041996498 -0.1801685 0.06325404 -0.12838414 -0.53070194 0.3214066 -0.16063693 -0.0025359252
0.22305878 -0.23955019 -0.09033852 -0.12141744 -0.2779714 0.30853114 -0.24419044 -0.16104949
0.3164232 0.33773765 0.19706337 0.36683398 0.25188023 0.09464871 0.13999441 0.10429704
0.6896342 0.28183326 -0.16692916 0.20709652 0.16065578 0.023948262 -0.2869775 0.10311735
0.1550547 0.52944595 0.21660678 0.09598798 0.055146847 -0.26552647 0.0006648945 -0.038372084
-0.010339895 0.28430334 0.16707662 0.054057505 0.11446888 -0.18161823 -0.053492673 0.117863074
00000000: 4be7 2c3f f9d9 b23e f051 c03e ee08 d33d
00000010: 84a0 673e ecac ed3e e289 e73e 3a24 b43e
00000020: 39a7 963e 41da d73e 9cac 1f3e 06d7 0b3d
00000030: 3765 243c 4a0e 443f f792 5b3e a49d 4a3e
00000040: dd33 f83e 54f6 093f 0183 2a3f c1f8 8c3d
00000050: a365 373e e16f 663e c6fa d73e 6bf6 873e
00000060: a868 9f3e 9772 ad3e df70 d43e 6a94 933e
00000070: 54d4 2e3f 56cb c73e 065b 02be 597e 893e
00000080: bf61 8a3e ef12 8abe 8004 a63e 6c01 123e
00000090: 06af 5aba 5292 d03e e2b8 3b3e 79be 8e3e
000000a0: c0af 713e 1901 bc3e 1205 4d3e e3fd 0d3f
000000b0: 772b 923e b052 833e aeb3 9c3e a382 843e
000000c0: 0393 df3e 81dc 4b3d 59bd a13e 32a7 763e
000000d0: 6309 5f3e a0bd 5d3e f6ac 373e 5d9b b23e
000000e0: 66bc e73e ca11 9f3e c98f 583e 9246 313d
000000f0: 0ec2 5e3e 7a77 e63e 8aea 283e ccf8 acbd
00000100: db3b 8c3b b84a 7bbc 1ce7 0dbe 91cb 4bbe
00000110: a4ef 343e 80ab c2bd 0302 da3d 1990 033e
00000120: ecca 38be fffd 23bd 611a dd3c 18c6 77be
00000130: a3a4 2fbe 016d 45be e7a8 02bd d2a7 2e3e
00000140: 8504 2c3d 177e 38be 568b 813d 2277 03be
00000150: 15dc 07bf 688f a43e 027e 24be c431 26bb
00000160: 8569 643e a54c 75be 6703 b9bd b5a9 f8bd
00000170: 4452 8ebe cbf7 9d3e 0f0d 7abe 28ea 24be
00000180: 3902 a23e f3eb ac3e fbca 493e aad1 bb3e
00000190: 72f6 803e 2fd7 c13d b25a 0f3e b099 d53d
000001a0: de8b 303f 734c 903e 7aef 2abe 1c11 543e
000001b0: f382 243e 252f c43c b7ee 92be 302f d33d
000001c0: a9c6 1e3e c589 073f 2bce 5d3e 5995 c43d
000001d0: a9e1 613d 16f3 87be 514c 2e3a 0c2c 1dbd
000001e0: aa68 29bc 3590 913e 2216 2b3e 676b 5d3d
000001f0: a96e ea3d 21fa 39be 221b 5bbd 3262 f13d

encoder.lstm.bias_hh_l0 f4 [128]
0.44387636 0.3348032 0.12757418 0.26103258 0.27380005 0.23322362 0.33436483 0.24674812
0.07572844 0.4368275 0.17233501 0.22213343 0.03095446 0.86876917 0.028829867 0.38539726
0.25394842 0.60071295 0.42791522 -0.027757144 0.04281747 0.33155182 0.39029282 0.08861965
0.31708297 0.52022505 0.2788069 0.10523305 0.45914933 0.52627254 -0.06260936 0.32782358
0.15435351 -0.3090658 0.032682013 0.12274128 0.18424684 0.42130467 0.10363181 0.45926166
0.21211882 0.49793234 0.1893071 0.42227927 0.23584801 0.48120594 0.27681178 0.27013293
0.3725406 0.06963218 0.16728449 -0.008087508 0.19981009 0.27494687 -0.016915508 0.31785297
0.42519474 0.4185941 0.30658057 0.3114929 0.32109725 0.3042566 0.35524297 0.13672155
0.14993344 -0.23924004 -0.28091863 -0.1793786 0.0728565 -0.15470535 0.19788796 0.0811275
-0.05643941 -0.15382968 -0.1458717 -0.20672476 0.054301545 -0.08850461 0.0047905496 -0.09080101
0.23868091 -0.1949713 -0.025381783 -0.08226247 -0.53495806 0.10563933 -0.2784454 -0.15820695
0.18508966 -0.18858151 -0.30241758 -0.19025321 -0.2656904 0.2659668 -0.32057685 -0.23963189
0.36836794 0.2993954 0.20920724 0.23136868 0.33644807 0.011751959 0.094442055 -0.18915476
0.5616746 0.33919042 -0.10601959 0.09872489 0.05684394 0.175554 -0.12965657 -0.04579678
8.791094e-05 0.7524674 0.019737436 0.24765837 -0.034047447 -0.18532662 -0.01166094 0.17719133
-0.069692135 0.083434016 0.042823233 0.16831025 0.16733418 -0.1413149 0.19498767 0.24199487
00000000: c343 e33e 536b ab3e cea2 023e 10a6 853e
00000010: 852f 8c3e 2cd2 6e3e de31 ab3e 8aab 7c3e
00000020: 8317 9b3d dba7 df3e 9778 303e f276 633e
00000030: 3594 fd3c a867 5e3f 9d2c ec3c ca52 c53e
00000040: 8705 823e 53c8 193f b417 db3e f362 e3bc
00000050: 5f61 2f3d 29c1 a93e 76d4 c73e 387e b53d
00000060: b358 a23e 782d 053f c7bf 8e3e 6d84 d73d
00000070: 9f15 eb3e ccb9 063f 5639 80bd 7ed8 a73e
00000080: d90e 1e3e df3d 9ebe 93dd 053d c85f fb3d
00000090: 34ab 3c3e 3fb5 d73e ea3c d43d 5824 eb3e
000000a0: ad35 593e fdf0 fe3e b8d9 413e fd34 d83e
000000b0: 2482 713e a060 f63e 46ba 8d3e dd4e 8a3e
000000c0: a4bd be3e 519b 8e3d a04c 2b3e 7881 04bc
000000d0: 049b 4c3e d6c5 8c3e 6492 8abc a0bd a23e
000000e0: 20b3 d93e f751 d63e 21f8 9c3e ff7b 9f3e
000000f0: dc66 a43e 85c7 9b3e 68e2 b53e bc00 0c3e
00000100: 2788 193e 57fb 74be 91d4 8fbe 06af 37be
00000110: ca35 953d 146b 1ebe 24a3 4a3e 2d26 a63d
00000120: 032d 67bd 8785 1dbe 645f 15be a8af 53be
00000130: 4c6b 5e3d e841 b5bd 0bfa 9c3b e1f5 b9bd
00000140: c568 743e 8ea6 47be 75ed cfbc 3a79 a8bd
00000150: 03f3 08bf 6f59 d83d 6590 8ebe 0101 22be
00000160: 2588 3d3e 831b 41be 7ad6 9abe bdd1 42be
00000170: 9208 88be cd2c 883e a622 a4be 1062 75be
00000180: b99a bc3e 5b4a 993e 6c3a 563e e9eb 6c3e
00000190: ec42 ac3e 4a8b 403c d66a c13d c9b1 41be
000001a0: e8c9 0f3f 5eaa ad3e cc20 d9bd 4630 ca3d
000001b0: 31d5 683d 6ec4 333e b1c4 04be 6895 3bbd
000001c0: d45c b838 b4a1 403f 67b0 a13c 289a 7d3e
000001d0: 5675 0bbd 43c6 3dbe 870d 3fbc a571 353e
000001e0: c0ba 8ebd 74df aa3d 6a67 2f3d 8659 2c3e
000001f0: a759 2b3e dab4 10be d9aa 473e 81cd 773e

policy.net.0.weight f4 [128, 32]
-0.2723663 -0.0056287968 0.0057703876 -0.24227922 0.07691951 0.017330676 0.21527429 0.29726106
0.50115395 -0.16098751 -0.167684 -0.37542257 -0.31446406 0.05766163 -0.13975552 0.008838941
-0.12857658 -0.29501346 -0.3586408 0.1941119 0.15021193 0.12872829 -0.16290785 -0.09369505
0.13320354 0.2819954 -0.22942464 -0.27184674 -0.012488837 0.02182558 -0.32528973 -0.17689873
0.0824667 -0.016927136 -0.061095614 0.13271253 0.09866992 0.09280971 -0.27416122 0.28888023
0.42132607 0.07684805 -0.18805958 -0.25075355 -0.17920366 -0.082685634 -0.1284583 -0.2396025
0.005635178 -0.12127874 0.016073793 0.08937174 -0.33056927 0.021861378 -0.053960916 0.16662015
0.16642685 0.063727506 0.29869643 0.17972913 0.017128397 -0.052774187 0.1714575 -0.27729142
-0.23880911 -0.11849461 0.015239255 0.06604578 -0.051193062 -0.051961765 -0.0266864 0.29629335
0.5388396 0.034818016 -0.24160846 0.034598578 -0.37421107 0.016605305 -0.20459437 0.083387226
-0.07404621 -0.07733639 -0.12984347 0.28158098 -0.07431797 -0.0014661466 -0.0035954714 -0.095920466
-0.20531851 0.41392004 0.0143616395 0.05341506 0.16509292 -0.16047856 -0.015793962 -0.23906374
0.5378405 -0.43257597 -0.25498253 0.42766047 0.3154766 -0.38939422 -0.6830958 0.0032423367
0.56396246 -0.26755676 0.11952526 -0.61089575 -0.64434713 -0.34857786 0.20573835 -0.4195471
-0.17410861 0.31208935 -0.13127665 0.08988137 -0.54422385 -0.14477919 0.18944418 -0.44701096
-0.14276738 0.056794994 0.23877811 0.628168 0.23850048 -0.08909017 0.4238834 -0.47387818
0.10152427 0.3461815 -0.17386077 -0.3224741 -0.15494674 0.32841912 -0.38766602 -0.24400802
-0.37792486 -0.21305464 0.3838379 -0.6491479 -0.9599616 -0.07884636 -0.07007167 -0.3882969
-0.3193986 -0.689357 -0.014325165 -0.25237277 -0.38761675 -0.6423714 -0.10738917 -0.016856654
-0.42807633 0.06387476 0.53524625 -0.18369636 0.14298593 -0.5356364 0.24058637 -0.09292487
-0.029043555 -0.43288198 -0.24490856 0.24785626 0.13344657 -0.46003768 0.48451528 -0.110746555
-0.16236517 0.26449203 -0.21569237 0.012030962 0.2690656 -0.5529246 -0.015457485 -0.21119577
0.03175189 0.28334388 -0.10538299 0.009374382 -0.037497547 -0.15449543 -0.06069471 -0.2722784
-0.40192124 0.12528984 -0.15628628 0.34036893 0.14286299 0.0067855166 -0.20149904 0.54274255
-0.022315053 0.22625504 0.50679505 -0.60031533 0.49873036 0.02850847 0.10470565 -0.28376067
-0.058747545 0.012010368 0.13444774 0.04237937 -0.3578784 0.06176196 -0.39091265 -0.10498027
-0.0858427 -0.24554724 -0.23876978 -0.5977704 -0.18285201 -0.35927537 0.092650175 0.321568
0.01115205 0.15682659 0.06025544 -0.01384454 0.23325117 -0.3905607 -0.04747503 -0.10904948
0.074975275 0.24720216 0.36626562 -0.105817355 0.17613882 0.21880326 -0.23294559 -0.40164343
0.0050772475 0.1549414 -0.101195626 -0.24773651 -0.18598759 0.06663064 0.15934065 0.011401256
-0.09125167 -0.020736555 -0.16175333 -0.116333425 0.0686251 -0.045949977 -0.33386534 -0.0005625837
0.19449222 0.13262029 -0.18983865 0.020202387 0.01875186 0.08940926 -0.14527303 0.13151091
00000000: 9873 8bbe c571 b8bb 8515 bd3b 0b18 78be
00000010: fa87 9d3d 10f9 8d3c dd70 5c3e 9a32 983e
00000020: a04b 003f e9d9 24be 5bb5 2bbe 6337 c0be
00000030: 6f01 a1be 9a2e 6c3d 121c 0fbe 35d1 103c
00000040: 94a9 03be 010c 97be c49f b7be 45c5 463e
00000050: 28d1 193e 59d1 033e 51d1 26be 31e3 bfbd
00000060: 8266 083e b361 903e 4bee 6abe 7f2f 8bbe
00000070: fb9d 4cbc 8fcb b23c 608c a6be f124 35be
00000080: 4de4 a83d c7aa 8abc 653f 7abd cbe5 073e
00000090: 7413 ca3d 0413 be3d dc5e 8cbe 1ce8 933e
000000a0: 0db8 d73e 8362 9d3d b192 40be c562 80be
000000b0: 2a81 37be 1657 a9bd 938a 03be 5c5a 75be
000000c0: 4da7 b83b fd60 f8bd 30ad 833c 8808 b73d
000000d0: 6040 a9be a216 b33c 1f06 5dbd 799e 2a3e
000000e0: cd6b 2a3e 9183 823d bdee 983e ea0a 383e
000000f0: da50 8c3c bf29 58bd 8e92 2f3e 24f9 8dbe
00000100: 608a 74be 4dad f2bd 11ae 793c 0343 873d
00000110: d1af 51bd dcd5 54bd 709d dabc c3b3 973e
00000120: 64f1 093f 569d 0e3d 3568 77be 3db7 0d3d
00000130: 9898 bfbe d907 883c 3081 51be ecc6 aa3d
00000140: 8aa5 97bd 8b62 9ebd b0f5 04be 622b 903e
00000150: 0534 98bd b72b c0ba 00a2 6bbb f371 c4bd
00000160: 043f 52be 54ed d33e 154d 6b3c c0c9 5a3d
00000170: 1e0e 293e 7e54 24be 5762 81bc 20cd 74be
00000180: eaaf 093f 997a ddbe 128d 82be 50f6 da3e
00000190: 2686 a13e ae5e c7be 5edf 2ebf 627d 543b
000001a0: d85f 103f 33fd 88be a9c9 f43d aa63 1cbf
000001b0: eff3 24bf cc78 b2be 13ad 523e e1ce d6be
000001c0: 8749 32be 2dca 9f3e 636d 06be b913 b83d
000001d0: 4152 0bbf ff40 14be a8fd 413e 9fde e4be
000001e0: 9d31 12be dea1 683d 4082 743e 9ecf 203f
000001f0: 7839 743e e874 b6bd 3f07 d93e 29a0 f2be
00000200: f5eb cf3d b43e b13e 8f08 32be 531b a5be
00000210: 5caa 1ebe 8d26 a83e 297c c6be 3ddd 79be
00000220: 5e7f c1be ff2a 5abe 6786 c43e 8f2e 26bf
00000230: 0bc0 75bf 337a a1bd bc81 8fbd dace c6be
00000240: 3788 a3be b379 30bf 19b4 6abc 0137 81be
00000250: b475 c6be 7472 24bf daee dbbd f716 8abc
00000260: d22c dbbe c5d0 823d e605 093f e61a 3cbe
00000270: e76a 123e 781f 09bf 465c 763e 654f bebd
00000280: c0ec edbc b5a2 ddbe 4fc9 7abe 08ce 7d3e
00000290: 38a6 083e 0f8a ebbe 6312 f83e 17cf e2bd
000002a0: 0e43 26be 806b 873e 76de 5cbe 831d 453c
000002b0: f7c2 893e 778c 0dbf 6441 7dbc b443 58be
000002c0: 450e 023d 7312 913e 09d3 d7bd 0297 193c
000002d0: 0797 19bd 0d34 1ebe 049b 78bd 1368 8bbe
000002e0: 9fc8 cdbe fb4b 003e 8309 20be d644 ae3e
000002f0: ad4a 123e 0a59 de3b c455 4ebe 2df1 0a3f
00000300: 0fce b6bc 67af 673e 52bd 013f 44ae 19bf
00000310: 9659 ff3e 988a e93c ea6f d63d 1449 91be
00000320: 44a1 70bd 22c7 443c abac 093e fe95 2d3d
00000330: d63b b7be 1cfa 7c3d b425 c8be e5ff d6bd
00000340: 4cce afbd bc70 7bbe 1180 74be 7b07 19bf
00000350: 8f3d 3bbe f1f2 b7be 60bf bd3d 90a4 a43e
00000360: 17b7 363c 2697 203e 69ce 763d 36d4 62bc
00000370: 65d9 6e3e 92f7 c7be 2d75 42bd 5555 dfbd
00000380: a38c 993d 9022 7d3e 2b87 bb3e c5b6 d8bd
00000390: bc5d 343e f60d 603e 4a89 6ebe 35a4 cdbe
000003a0: 0a5f a63b f5a8 1e3e a73f cfbd a4ae 7dbe
000003b0: 8873 3ebe a575 883d 322a 233e 55cc 3a3c
000003c0: 28e2 babd b5df a9bc aaa2 25be 3840 eebd
000003d0: 518b 8c3d 0b36 3cbd 66f0 aabe 5a7a 13ba
000003e0: f828 473e 9dcd 073e 1065 42be 7a7f a53c
000003f0: 809d 993c 341c b73d 74c2 14be ccaa 063e

policy.net.0.bias f4 [128]
0.017660048 -0.09069178 -0.32287258 0.12304981 -0.14453311 -0.45094875 -0.40781304 -0.36077863
-0.049133558 0.13515012 0.07564755 -0.22206622 -0.2563275 0.075817205 -0.28782973 -0.21237744
0.06274052 0.1368434 -0.41757968 0.0024450943 0.0790542 -0.15866981 0.15271214 -0.044513855
-0.11565652 -0.42410493 -0.26837626 -0.017740056 -0.23267671 -0.27333653 -0.250754 -0.40025273
-0.28491467 -0.28202182 -0.23446399 0.158092 -0.2333024 -0.27273044 0.04868867 -0.2547176
0.019357178 -0.022254454 0.1142763 -0.45330954 -0.021382853 0.03983019 -0.4155661 -0.42163974
0.024447162 0.037175827 -0.33966035 -0.30053115 0.102036506 -0.44881412 -0.41848823 -0.11220063
-0.09754872 0.022707788 -0.12399222 -0.301071 -0.026075443 -0.21973199 0.18368946 -0.14119948
-0.13949388 -0.043390915 -0.05949235 0.0630283 -0.0737691 -0.26412067 -0.5146472 -0.19475825
0.09078791 -0.17796046 -0.051130615 -0.33501333 -0.09306479 0.17903794 0.13406917 0.18765114
0.0448286 -0.3279699 -0.13789918 0.035929706 -0.102188565 -0.38261583 -0.35604587 -0.007951774
0.17772286 -0.02851474 -0.02171501 0.22241837 -0.26139572 0.13685957 -0.20438895 -0.10209554
-0.3012585 -0.25408807 -0.3523556 -0.43757167 0.22802761 -0.10236979 -0.09676521 0.10291912
0.09951954 0.13073286 -0.09554394 -0.3340557 0.17215417 -0.28759354 -0.13621688 0.095380075
0.13086845 -0.08337714 -0.31710824 0.20487186 -0.1436776 0.032398578 -0.23875588 -0.18969725
-0.2936223 0.04882968 0.10650591 -0.120505996 -0.19416356 0.07266102 0.034986023 -0.14860485
00000000: ceab 903c 9dbc b9bd 8e4f a5be 8a01 fc3d
00000010: 7d00 14be c1e2 e6be dfcc d0be fab7 b8be
00000020: 4540 49bd cb64 0a3e 1aed 9a3d 5465 63be
00000030: 5c3d 83be 0d46 9b3d 6b5e 93be 7979 59be
00000040: 1a7e 803d ad20 0c3e 01cd d5be e03d 203b
00000050: 2be7 a13d 577a 22be 9260 1c3e 2954 36bd
00000060: 53dd ecbd 4824 d9be 9d68 89be 9853 91bc
00000070: ce42 6ebe c4f2 8bbe d462 80be eded ccbe
00000080: 56e0 91be 2a65 90be 5417 70be dfe2 213e
00000090: d3e6 6ebe 53a3 8bbe c56d 473d 586a 82be
000000a0: f292 9e3c f94e b6bc b109 ea3d 3018 e8be
000000b0: 182b afbc fb24 233d 14c5 d4be 2ae1 d7be
000000c0: 6a45 c83c ae45 183d f6e7 adbe 38df 99be
000000d0: 84f8 d03d f7ca e5be 1744 d6be 72c9 e5bd
000000e0: a0c7 c7bd af05 ba3c a2ef fdbd fa25 9abe
000000f0: 2b9c d5bc 6c01 61be 1719 3c3e 9996 10be
00000100: 7cd7 0ebe acba 31bd 40ae 73bd fb14 813d
00000110: 4114 97bd d33a 87be ebbf 03bf b56e 47be
00000120: 03ef b93d 443b 36be 566e 51bd de86 abbe
00000130: c198 bebd b955 373e 6e49 093e 9f27 403e
00000140: 329e 373d aceb a7be 7135 0dbe 072b 133d
00000150: 3d48 d1bd 39e6 c3be a54b b6be 2848 02bc
00000160: fbfc 353e be97 e9bc ade3 b1bc a4c1 633e
00000170: a9d5 85be ea24 0c3e 564b 51be 7717 d1bd
00000180: 8e3e 9abe d517 82be f467 b4be 6509 e0be
00000190: 1280 693e 41a7 d1bd d72c c6bd 42c7 d23d
000001a0: e7d0 cb3d d6de 053e 8bac c3bd 5909 abbe
000001b0: 2f49 303e 763f 93be 707c 0bbe a156 c33d
000001c0: 6102 063e a2c1 aabd 035c a2be eec9 513e
000001d0: 3920 13be 5fb4 043d 6c7c 74be ff3f 42be
000001e0: a955 96be a101 483d c51f da3d d9cb f6bd
000001f0: d0d2 46be 4dcf 943d 814d 0f3d df2b 18be

policy.net.2.weight f4 [5, 128]
-0.8934626 -0.40043575 -1.3238152 -0.5270639 -3.1822815 -1.664225 -1.767169 0.022190005
-0.28452924 -0.84188825 -1.3392859 -0.93231034 -0.33215222 -0.8834116 -0.501098 -0.86643183
-1.2287085 -0.64814126 -0.1918575 -1.4267477 -2.6409125 -0.48854145 -0.36088553 -2.0579314
-1.2973665 -1.1897671 -0.33475024 -0.27090353 -0.48317677 -0.34175172 -0.5139019 -0.32250726
-0.73746705 -0.18321544 -0.50469667 -0.4447063 -1.6263301 -2.552068 -0.82939774 -0.94748145
-0.81332564 -0.2197577 -0.9557189 -0.3065813 -1.6440004 -0.5256304 -0.21940501 -0.26023644
-0.6182513 -2.1151872 -0.89206535 -0.43420175 -0.8914897 -0.7677851 -0.4087982 -0.9015073
-3.415465 -1.3608507 -0.71244496 -2.182 -0.49340558 -0.47484195 -0.41774032 -3.5548246
-3.7397175 -2.8561177 -0.2763381 -3.3641837 -1.8222755 -0.20867652 -1.5123875 -3.054801
-1.0178777 -0.31995937 -1.2428765 -0.06793435 -0.5932015 -0.3593313 -0.37137896 -0.6735325
-1.4769887 -0.31222472 -0.24661782 -0.31555417 -0.41633067 -0.1563091 -1.0469943 -2.2269113
-1.4479681 -0.523668 -0.68178266 -0.65409356 -0.647232 -2.5243337 -0.70859784 -0.34384358
-0.2571661 -0.7398766 -1.0945498 -0.27658087 -0.9860796 -0.6387937 -0.59205055 -1.2667427
-0.35110733 -0.9813225 -0.8440647 -0.47008333 -2.4930062 -0.13673851 -0.5078956 -2.671599
-1.7614478 -1.0526319 -0.25987706 -1.2189196 -1.2235157 -1.3615005 -1.3730808 -0.36131236
-0.3603894 -0.5264698 -0.6514287 -0.24357237 -0.33070546 -0.38421178 -0.43026727 -1.3010452
-0.0668444 -0.12930489 -0.011629978 0.07994892 -1.0367179 0.7058554 -0.05202387 -0.13299741
0.058456894 0.16423711 0.087253384 0.059404127 0.005034433 0.09314103 0.042125717 0.0428954
-0.0001948452 0.14097741 -0.27466354 0.05754159 0.13473053 0.033693768 0.09991549 -0.058282595
0.8450287 0.14453559 -0.04422454 -0.38273838 -0.059857607 0.12758134 0.050584577 0.30094266
1.0565073 -0.09303676 -0.46464694 0.046950947 0.087062374 -0.64144766 0.055733487 0.011460794
-0.23892693 -0.21177424 -0.13960636 -0.15804875 0.007976973 0.26216453 0.13128826 -0.16668892
0.11635516 0.41183066 -0.7005728 0.009636723 0.07377512 0.13399968 -0.24232535 -0.0053213066
0.6367884 -0.10871754 0.053894415 0.0027059745 0.047983795 0.041662436 0.108201705 0.24122679
0.23004311 -0.12257815 0.032158673 -0.27125937 -0.20360032 0.09388813 -0.4552128 0.09857662
-0.43465698 0.094423585 0.13420714 0.05979751 -0.84488106 0.11598432 -0.6590771 0.01591186
0.0021072489 0.037321027 0.08524615 0.04571568 0.14392072 -0.5509083 -0.4934608 -1.0467622
0.055493142 0.09787215 0.14267114 0.5139541 0.08121297 0.16167948 -0.34334657 -1.2366878
0.042416207 0.16651565 0.12979499 -0.39501148 0.07254067 0.075808555 0.04085247 0.06710244
0.035686962 -0.11440794 0.08869889 -1.2597516 -0.2376062 -1.0041232 0.105317086 0.21107647
0.17526591 0.42674714 0.056138307 -0.457925 0.29716957 -0.14885597 0.06625328 0.0036843915
-0.08776799 0.04338855 -1.1213766 -0.62074596 0.11774593 0.04614159 0.10665481 0.029520728
00000000: f7b9 64bf ea05 cdbe c772 a9bf a9ed 06bf
00000010: 80aa 4bc0 5305 d5bf 9832 e2bf d0c7 b53c
00000020: d1ad 91be fd85 57bf b86d abbf e4ab 6ebf
00000030: db0f aabe 4327 62bf f547 00bf 7ace 5dbf
00000040: 5246 9dbf 96ec 25bf 4b76 44be ab9f b6bf
00000050: b604 29c0 1b22 fabe fdc5 b8be 26b5 03c0
00000060: 1b10 a6bf 4a4a 98bf 6264 abbe deb3 8abe
00000070: f262 f7be 15fa aebe 138f 03bf ac1f a5be
00000080: a4ca 3cbf d49c 3bbe cd33 01bf 8bb0 e3be
00000090: 962b d0bf 1555 23c0 6953 54bf 258e 72bf
000000a0: 1c36 50bf 2a08 61be fea9 74bf 39f8 9cbe
000000b0: 9b6e d2bf b78f 06bf b5ab 60be b63d 85be
000000c0: b845 1ebf 3a5f 07c0 655e 64bf b14f debe
000000d0: ab38 64bf 908d 44bf ff4d d1be 2fc9 66bf
000000e0: fb96 5ac0 5b30 aebf cb62 36bf e3a5 0bc0
000000f0: a89f fcbe 7c1e f3be 0fe2 d5be 3f82 63c0
00000100: 8857 6fc0 a2ca 36c0 307c 8dbe c94e 57c0
00000110: 5340 e9bf 4caf 55be ea95 c1bf dc81 43c0
00000120: d149 82bf b7d1 a3be 9416 9fbf 2a21 8bbd
00000130: 0edc 17bf 46fa b7be 6225 bebe a06c 2cbf
00000140: f70d bdbf ebdb 9fbe 6289 7cbe 5190 a1be
00000150: 4b29 d5be 7e0f 20be e903 86bf b785 0ec0
00000160: 0557 b9bf 1b0f 06bf 4f89 2ebf ad72 27bf
00000170: ffb0 25bf af8e 21c0 ab66 35bf 440c b0be
00000180: 46ab 83be 8e68 3dbf 351a 8cbf 029c 8dbe
00000190: b66f 7cbf fc87 23bf a090 17bf a024 a2bf
000001a0: 57c4 b3be f437 7bbf a014 58bf c3ae f0be
000001b0: 6a8d 1fc0 2e05 0cbe 7205 02bf 7afb 2ac0
000001c0: 1f77 e1bf a4bc 86bf 9b0e 85be 8f05 9cbf
000001d0: 2a9c 9cbf a645 aebf 1dc1 afbf effd b8be
000001e0: f684 b8be bac6 06bf 08c4 26bf 096b 79be
000001f0: 3a52 a9be 68b7 c4be fe4b dcbe a688 a6bf
00000200: b7e5 88bd 8068 04be aa8b 3ebc 42bc a33d
00000210: 2cb3 84bf f1b2 343f fb16 55bd 7930 08be
00000220: 7f70 6f3d c62d 283e e7b1 b23d be51 733d
00000230: e3f7 a43b b9c0 be3d 048c 2c3d 16b3 2f3d
00000240: 5c4f 4cb9 625c 103e b3a0 8cbe bbb0 6b3d
00000250: cdf6 093e 7a02 0a3d 7ea0 cc3d bbb9 6ebd
00000260: cd53 583f 2301 143e cb24 35bd 49f6 c3be
00000270: 402d 75bd afa4 023e c631 4f3d 2815 9a3e
00000280: a23b 873f 0f8a bebd 34e6 edbe a34f 403d
00000290: c24d b23d ea35 24bf cc48 643d 0ec6 3b3c
000002a0: 43a9 74be 59db 58be f8f4 0ebe 88d7 21be
000002b0: dab1 023c 6e3a 863e 6e70 063e 80b0 2abe
000002c0: 9d4b ee3d 78db d23e bd58 33bf 59e3 1d3c
000002d0: 6917 973d 3637 093e 2324 78be 5b5e aebb
000002e0: 9104 233f 4da7 debd 64c0 5c3d b856 313b
000002f0: a88a 443d 3ba6 2a3d db98 dd3d 2804 773e
00000300: 6c90 6b3e 410a fbbd d0b8 033d 82e2 8abe
00000310: 9a7c 50be 6b48 c03d a711 e9be 8ae2 c93d
00000320: 5c8b debe 2761 c13d 996d 093e 3cee 743d
00000330: 204a 58bf 3089 ed3d 47b9 28bf 9759 823c
00000340: c519 0a3b efdd 183d 8995 ae3d 5d40 3b3d
00000350: f45f 133e 5408 0dbf e5a6 fcbe 4efc 85bf
00000360: c74c 633d 3271 c83d 6218 123e 7f92 033f
00000370: fc52 a63d 4e8f 253e 1fcb afbe c94b 9ebf
00000380: 9ebc 2d3d 1483 2a3e fae8 043e f23e cabe
00000390: 3490 943d 8441 9b3d eb54 273d 016d 893d
000003a0: 7e2c 123d b64e eabd c3a7 b53d 8a3f a1bf
000003b0: 0a4f 73be 1c87 80bf 7cb0 d73d 6e24 583e
000003c0: e878 333e 9a7e da3e 48f1 653d 2575 eabe
000003d0: 9c26 983e b36d 18be cdaf 873d d575 713b
000003e0: b4bf b3bd 31b8 313d 4589 8fbf 35e9 1ebf
000003f0: c724 f13d f7fe 3c3d d66d da3d 74d5 f13c

policy.net.2.bias f4 [5]
-2.594108 -0.09454448 0.10923867 -0.041014463 0.18798041
00000000: de05 26c0 89a0 c1bd 86b8 df3d c8fe 27bd
00000010: f07d 403e

exp_avg f4 [900, 16]
1.8489845e-05 6.910231e-05 8.238814e-06 2.9740295e-05 -6.33348e-05 -2.4181414e-05 -5.7607853e-05 6.6984954e-05
-1.17515865e-05 -2.0977472e-05 -5.542502e-05 5.312147e-06 -1.9305157e-06 -9.4036795e-06 -0.00013553476 9.520919e-05
-7.576504e-05 -3.461237e-05 3.827059e-05 -1.1159611e-05 -3.8437698e-05 2.8340697e-05 -2.5614698e-05 6.1556435e-05
-1.0940489e-05 3.690828e-05 1.6273187e-05 -2.8131795e-05 2.0834772e-05 2.3690887e-05 -4.0823514e-05 3.4789013e-05
-2.7841801e-05 -6.445269e-05 6.619163e-05 1.3520001e-05 -3.4737266e-05 1.9095845e-05 3.9037415e-05 1.3946891e-05
2.3927829e-05 -1.7727294e-05 -4.5992914e-05 9.309059e-06 3.1912266e-05 2.3745208e-06 1.2750904e-06 3.2771717e-05
-5.11085e-05 -5.6404773e-05 4.932045e-05 9.8629025e-06 -1.195834e-05 -7.911067e-06 6.47101e-05 1.9853675e-05
-1.565105e-06 6.7058904e-06 -2.033316e-05 5.1220695e-06 2.837468e-05 1.313386e-05 -2.1795266e-05 -1.0794735e-06
3.496185e-06 -8.943546e-06 1.71131e-05 1.1403682e-05 -7.574517e-06 4.07009e-05 -3.856902e-06 1.6550997e-05
-2.117823e-06 -2.166994e-05 -3.8423213e-06 1.1146928e-05 -9.023998e-06 2.0669682e-05 -1.51109625e-05 1.0436312e-05
0.0 0.0 0.0 0.0 0.0 0.0 0.0 0.0
0.0 0.0 0.0 0.0 0.0 0.0 0.0 0.0
0.0 0.0 0.0 0.0 0.0 0.0 0.0 0.0
0.0 0.0 0.0 0.0 0.0 0.0 0.0 0.0
0.0 0.0 0.0 0.0 0.0 0.0 0.0 0.0
0.0 0.0 0.0 0.0 0.0 0.0 0.0 0.0
0.0 0.0 0.0 0.0 0.0 0.0 0.0 0.0
0.0 0.0 0.0 0.0 0.0 0.0 0.0 0.0
0.0 0.0 0.0 0.0 0.0 0.0 0.0 0.0
0.0 0.0 0.0 0.0 0.0 0.0 0.0 0.0
0.0 0.0 0.0 0.0 0.0 0.0 0.0 0.0
0.0 0.0 0.0 0.0 0.0 0.0 0.0 0.0
0.0 0.0 0.0 0.0 0.0 0.0 0.0 0.0
0.0 0.0 0.0 0.0 0.0 0.0 0.0 0.0
1.1029695e-05 8.799549e-06 -8.324239e-06 3.6486836e-06 1.2907439e-05 3.8916718e-05 6.04486e-05 -3.450617e-05
-1.3778356e-05 2.5217558e-05 5.3855416e-05 -5.8464566e-06 1.7665101e-05 -2.8126608e-06 1.5299753e-05 -4.1640593e-05
-4.1975845e-06 -2.3596489e-05 -2.7536378e-06 -2.1024545e-05 -1.116793e-05 -1.899234e-05 2.4230143e-05 -2.1291089e-05
-7.1027885e-06 8.1271406e-07 1.6058155e-05 -3.0836206e-06 1.2072078e-06 -1.641867e-05 4.4536764e-06 -6.6066978e-06
2.1870783e-06 9.782043e-06 1.7884784e-05 1.6829728e-05 5.063432e-05 -1.40342545e-05 3.0446176e-06 1.3816372e-05
-4.5630593e-05 -1.2924793e-05 -1.32973055e-05 1.6726573e-05 3.29352e-05 5.3360923e-06 1.1189871e-05 2.98347e-05
-1.6263342e-05 6.37163e-07 -4.5482975e-06 -1.2390469e-05 -5.516066e-06 1.4849129e-05 -3.824747e-06 1.6041382e-05
-4.689053e-06 -1.3844843e-05 4.2602055e-06 -7.76989e-06 1.0826789e-05 4.933914e-06 -1.3936568e-05 4.091407e-06
00000000: a41a 9b37 05eb 9038 7039 0a37 cc7a f937
00000010: 9dd2 84b8 31d9 cab7 f69f 71b8 467a 8c38
00000020: ae28 45b7 c7f8 afb7 2978 68b8 ff3e b236
00000030: 028e 01b6 7fc4 1db7 561e 0eb9 0bab c738
00000040: 0ce4 9eb8 c02c 11b8 bc84 2038 2a3a 3bb7
00000050: 2a38 21b8 2fbd ed37 25df d6b7 dc17 8138
00000060: 0b8d 37b7 f7cd 1a38 6782 8837 92fc ebb7
00000070: 55c6 ae37 cbbb c637 ea39 2bb8 6bea 1138
00000080: d08d e9b7 c62a 87b8 5cd0 8a38 f6d3 6237
00000090: dbb2 11b8 0430 a037 1bbc 2338 71fd 6937
000000a0: 9fb8 c837 13b5 94b7 84e8 40b8 1b2e 1c37
000000b0: 89d9 0538 f559 1f36 c623 ab35 5d74 0938
000000c0: 565d 56b8 2a94 6cb8 6edd 4e38 d878 2537
000000d0: aea0 48b7 c6b9 04b7 f8b4 8738 718b a637
000000e0: 9910 d2b5 2903 e136 2191 aab7 3ede ab36
000000f0: 2906 ee37 8059 5c37 fad4 b6b7 6de2 90b5
00000100: 00a0 6a36 3d0c 16b7 1a8e 8f37 7152 3f37
00000110: 9b28 feb6 42b6 2a38 896a 81b6 ffd6 8a37
00000120: ec1f 0eb6 d8c7 b5b7 4aed 80b6 b103 3b37
00000130: c765 17b7 ce63 ad37 1785 7db7 9e17 2f37
00000140: 0000 0000 0000 0000 0000 0000 0000 0000
00000150: 0000 0000 0000 0000 0000 0000 0000 0000
00000160: 0000 0000 0000 0000 0000 0000 0000 0000
00000170: 0000 0000 0000 0000 0000 0000 0000 0000
00000180: 0000 0000 0000 0000 0000 0000 0000 0000
00000190: 0000 0000 0000 0000 0000 0000 0000 0000
000001a0: 0000 0000 0000 0000 0000 0000 0000 0000
000001b0: 0000 0000 0000 0000 0000 0000 0000 0000
000001c0: 0000 0000 0000 0000 0000 0000 0000 0000
000001d0: 0000 0000 0000 0000 0000 0000 0000 0000
000001e0: 0000 0000 0000 0000 0000 0000 0000 0000
000001f0: 0000 0000 0000 0000 0000 0000 0000 0000
00000200: 0000 0000 0000 0000 0000 0000 0000 0000
00000210: 0000 0000 0000 0000 0000 0000 0000 0000
00000220: 0000 0000 0000 0000 0000 0000 0000 0000
00000230: 0000 0000 0000 0000 0000 0000 0000 0000
00000240: 0000 0000 0000 0000 0000 0000 0000 0000
00000250: 0000 0000 0000 0000 0000 0000 0000 0000
00000260: 0000 0000 0000 0000 0000 0000 0000 0000
00000270: 0000 0000 0000 0000 0000 0000 0000 0000
00000280: 0000 0000 0000 0000 0000 0000 0000 0000
00000290: 0000 0000 0000 0000 0000 0000 0000 0000
000002a0: 0000 0000 0000 0000 0000 0000 0000 0000
000002b0: 0000 0000 0000 0000 0000 0000 0000 0000
000002c0: 0000 0000 0000 0000 0000 0000 0000 0000
000002d0: 0000 0000 0000 0000 0000 0000 0000 0000
000002e0: 0000 0000 0000 0000 0000 0000 0000 0000
000002f0: 0000 0000 0000 0000 0000 0000 0000 0000
00000300: 2e0c 3937 c6a1 1337 56a8 0bb7 e8db 7436
00000310: 078d 5837 823a 2338 318a 7d38 b8ba 10b8
00000320: 9729 67b7 4b8a d337 d0e2 6138 ae2c c4b6
00000330: 842f 9437 25c1 3cb6 f857 8037 3fa7 2eb8
00000340: fad8 8cb6 13f1 c5b7 23cb 38b6 de5d b0b7
00000350: e55d 3bb7 bd51 9fb7 d641 cb37 449a b2b7
00000360: 7d54 eeb6 4929 5a35 a0b4 8637 33f0 4eb6
00000370: 5807 a235 d3ba 89b7 ca70 9536 1aaf ddb6
00000380: b8c5 1236 8e1d 2437 4807 9637 912d 8d37
00000390: 3060 5438 aa74 6bb7 2252 4c36 decc 6737
000003a0: 7a63 3fb8 90d7 58b7 7e17 5fb7 0b50 8c37
000003b0: e723 0a38 af0c b336 21bc 3b37 8845 fa37
000003c0: 436d 88b7 8209 2b35 949d 98b6 a9e0 4fb7
000003d0: a516 b9b6 8620 7937 5456 80b6 9b90 8637
000003e0: a956 9db6 2647 68b7 e3f2 8e36 6c5b 02b7
000003f0: b4a4 3537 008e a536 1bd1 69b7 eb48 8936
