ISE_Transformer/model/2_room/eil_2_room_198_model/EBC_model_119999.pth (torch, 319327 bytes, 27 tensors)

encoder.embedding.weight f4 [900, 16]
00000000: fdfc 603e f16f 80bf 72db 373f 0d54 0040
00000010: 8d46 cd3e 930c 383f 567f 6a3e 579c ee3e
00000020: 180c b93f 157b a23f f410 b13f 006f 5bbf
00000030: 186b e83f f4d4 e5be 2405 77bf 1ff6 283f
00000040: 5439 88bf c3f3 99bd bf8c dc3e 5e0a 20bf
00000050: 8c03 143f 7101 073f f520 a13e 6023 bebd
00000060: f16c 71bf 83c4 bebf 46e3 1340 52ce cbbf
00000070: 589f 803f 4779 5bbe 1ab2 56be 765b a8bf
00000080: 681d 153f fa9b 36be be7b 16bf 0dc4 ff3e
00000090: 8794 3b3e 1eeb eb3d aaba c7be 2dbb f3bf
000000a0: 0438 47bf ffd0 973f 280a 69bf 1183 78be
000000b0: 8a6d 92bf 559d 623e b7f8 5dc0 0370 93bf
000000c0: f5be e93e 54a4 21bf afaf c2bf 97fb 88bf
000000d0: b53c 393f 4858 db3f 7fdd 93bf 580f f83e
000000e0: 2519 b8bf b53c ef3d 5dd6 5c3f 0a87 bfbf
000000f0: 7154 93bf 2271 49bf becd 46bf 698a 20c0
00000100: 726c 613f 29a2 fa3e 9e5d d8bf 3744 1b40
00000110: 8daf 6dbf d13e 253d ad3e c2bf a2ad fe3e
00000120: 3295 5bbf 99b0 24be 1c23 e93d 5ff4 dabf
00000130: 6c89 03c0 7546 1fbe 0eaf 04bf 51ea f73d
00000140: b518 193e 4686 2e3f 0daa c83f 767d f33e
00000150: 41a4 80bf 09fb 82bf 3c7d 053f 5be3 f6be
00000160: c4ca 45bf 45a6 2f40 beea fcbf 30f0 d43e
00000170: 139d c83f c321 23bd 97e2 78bf b849 36bf
00000180: b5b7 753e e57c 99bf 171e 883f 144c 2dbf
00000190: 0cd4 29bf 842e ac3e 80b9 043f c4d6 843f
000001a0: 3de2 293d 8d83 573f 5a75 06be fc08 bfbf
000001b0: 2026 ba3e 4ad5 02bf 3846 d6be 3d48 973f
000001c0: 722c 88be d2df 4d3f a67b 9dbe 5f48 ad3f
000001d0: 44c2 2a3f 598f 71be 8154 2fbe 23c7 0f3f
000001e0: dc35 9d3e c8f4 ac3e 7400 053e 6f95 133f
000001f0: d158 a63c c0fd b23f 8f5e b53f c0bf c0bb
00000200: 45e8 61bf e3f6 f9be f994 adbf 1a0e 6fbe
00000210: 1735 ea3f ed78 cb3f 8a5e 363e ba0f 033f
00000220: f0d7 0bbf 86c2 b8bf 323e f6bf af88 90bf
00000230: 94de 803f c211 10bc 91f0 4dbf 8aa0 fb3f
00000240: 0af0 d23f 35e7 113f 9c2e 4abc 3f44 bcbf
00000250: b977 3dbd 9966 08bf bde4 283f 7df5 0b40
00000260: 45c5 f93e 2980 0b40 3a38 bbbf eb0b b2bf
00000270: 9346 ddbe f292 18be f77c d03d d6eb 33be
00000280: f3e7 a43e 5f13 9a3f 16cc ae3d e862 e1bf
00000290: 64f5 733d 0473 a7bf d01c 6c3e 8bbe 753f
000002a0: 40d0 103e 35a8 5c3f 5c43 8cbf 400f 92bf
000002b0: 2191 c0be 6303 83be a74a 91be bba9 8f3f
000002c0: ac14 0440 9122 063e bd48 693f 8468 ca3d
000002d0: ba85 2abf 05a8 6e3f a055 d13f 17dc 8cbf
000002e0: bb40 3c3f 7e9a 0140 377b 3ac0 955f 433e
000002f0: c2b8 2d3e 8734 33bf 8a28 c8bd 91a1 033f
00000300: b6d4 5c3f df1a cfbd 53d4 8abf 3ae3 fa3f
00000310: 5dc5 f23e 9b3c 0abf 17a7 88bf 4008 96bf
00000320: 2e68 d43f 7f9c 8f3f 1725 bd3f b532 e9bd
00000330: 5b7f 4fbf 5968 dfbf 5d16 f0bf 29cc e0bf
00000340: 0521 e63f 58a2 e6bd 1f23 1ebf fb4c 173f
00000350: 69fd 2b3f 89a6 eabe 5028 48be 4de2 d5be
00000360: e0c2 2dbe ca12 25bf 4153 213f b0cc 0cbf
00000370: b12a 883f 151d a73f 50ab 193f 086b 31bf
00000380: 8eae a2bf f750 e4bf 16c0 c0be 5031 09bf
00000390: ca01 8f3f 3504 3f3f 8e8b d8bf cb64 efbf
000003a0: a918 a03f 0038 163f 6ced d43e aa9e acbf
000003b0: 07a0 80bf a353 a8be 21a6 8dbe 00ca a53e
000003c0: 9498 3dbc 47c0 e0be f4f3 80bd 5f15 813f
000003d0: 3395 f13f 97e0 1c3f 24c7 eb3c 30a1 d0bf
000003e0: 5a68 03bf 8069 e9bf d490 b13f 5bda 43be
000003f0: fa69 783f 07ec babd 0be2 1740 b303 24be
0.21971507 -1.0034162 0.7181922 2.00513 0.40092888 0.71894187 0.22900137 0.46603653
1.4456816 1.2693812 1.3833299 -0.8571625 1.8157682 -0.44889033 -0.9649222 0.6600055
-1.0642495 -0.07517197 0.4307613 -0.6251582 0.5781791 0.52736574 0.31470457 -0.09284091
-0.94306856 -1.4903721 2.3107467 -1.5922339 1.0048628 -0.21432982 -0.20966378 -1.3152912
0.58247995 -0.17832938 -0.58782566 0.49954262 0.18318377 0.115194544 -0.390096 -1.9041497
-0.7781985 1.1860656 -0.9103112 -0.24268748 -1.1439679 0.2213033 -3.4683053 -1.1518558
0.456535 -0.6314137 -1.5209864 -1.0701779 0.72358257 1.7136316 -1.155197 0.48449206
-1.4382674 0.11681501 0.8626459 -1.4963086 -1.1510144 -0.7868825 -0.7765769 -2.508448
0.880561 0.48951843 -1.690357 2.4260385 -0.92845994 0.04034311 -1.5175377 0.49741846
-0.8577453 -0.16082992 0.1138365 -1.7105826 -2.0552626 -0.15554221 -0.5182961 0.12105239
0.14950831 0.68173635 1.5676895 0.47556657 -1.0050126 -1.023286 0.5214422 -0.48220333
-0.7726252 2.7445233 -1.9759138 0.415895 1.5672935 -0.03982712 -0.9722075 -0.71206236
0.2399586 -1.199124 1.0634183 -0.6769421 -0.6633918 0.3362924 0.5184555 1.0378041
0.041475523 0.84185106 -0.13130704 -1.4924617 0.36357212 -0.51106703 -0.41850448 1.181892
-0.2659641 0.8041965 -0.307584 1.3537711 0.66702676 -0.23589839 -0.1712208 0.56163234
0.30705154 0.33780503 0.12988454 0.5764989 0.020306023 1.3983688 1.4169482 -0.0058822334
-0.8824504 -0.48821172 -1.3561088 -0.23345223 1.8297452 1.5896279 0.17809501 0.5119587
-0.5462637 -1.4434364 -1.923773 -1.1291713 1.0067925 -0.008793296 -0.804452 1.9658368
1.6479504 0.5699342 -0.012340214 -1.4708327 -0.046256755 -0.5328155 0.65974027 2.1868584
0.48783317 2.1796973 -1.4626534 -1.3909887 -0.43217906 -0.14899805 0.10180085 -0.17570433
0.32208213 1.2037162 0.0853502 -1.7608309 0.059560195 -1.3081975 0.23057866 0.9599387
0.14141941 0.86194164 -1.0958056 -1.1410904 -0.37610725 -0.2558852 -0.28377268 1.1223673
2.0637617 0.13099124 0.91126615 0.09883216 -0.666103 0.9322513 1.6354256 -1.1004666
0.7353627 2.0250545 -2.9137704 0.1907943 0.16965011 -0.70002025 -0.09773357 0.51418406
0.8626207 -0.10112547 -1.0846046 1.9600594 0.474162 -0.53998727 -1.0675992 -1.1721268
1.6594293 1.1219634 1.4776944 -0.11386625 -0.81053704 -1.7453719 -1.8756825 -1.7562305
1.7978827 -0.11261433 -0.6177234 0.5910184 0.6718355 -0.4583018 -0.19546628 -0.41774216
-0.1696887 -0.64481795 0.6301766 -0.5499983 1.0638028 1.305575 0.6002703 -0.6930394
-1.270952 -1.7837209 -0.3764655 -0.5359087 1.1172421 0.74615794 -1.6917589 -1.8702635
1.2507526 0.586792 0.4158739 -1.348592 -1.0048836 -0.3287631 -0.2766581 0.32380676
-0.011572022 -0.43896696 -0.0629653 1.0084647 1.8873657 0.61280197 0.028781481 -1.629919
-0.513311 -1.8235321 1.3872323 -0.19126265 0.9703671 -0.0912705 2.3731716 -0.16017036

encoder.lstm.weight_ih_l0 f4 [128, 16]
00000000: 9511 07bf d953 463e 4366 edbe 49f8 2dbf
00000010: 3984 27be f73f f13e f3e4 2ebe c95c 973e
00000020: 9aa0 07be fa44 98be 02dc 25bf f0fe 4cbe
00000030: 3c0e a63e 67b8 e9bd ab0d 8bbc 7be7 f83e
00000040: b32c bf3b 0df0 203f 6b84 23bf 3669 84be
00000050: b4af 27be a9ad efbe 8883 383e 24de b93e
00000060: 12e9 09be 2a84 81bf 23b4 acbe 940e 8abe
00000070: ca1b 50bc 6d48 87bf 2bc2 763e 5f39 cdbd
00000080: 049e 4a3d f151 99be ce9f 0ebe b6b9 333e
00000090: 5fe0 21bc 6d7f 6b3d 7126 b83e fa5b c83d
000000a0: 796d 163e c37c a9be 4631 abbe c598 da3e
000000b0: 5b2e 033d 9530 a43d 2173 47be f52e 183f
000000c0: 0d42 0ebf 0134 5b3e a56e 3d3f 0ced 7e3e
000000d0: 7ed7 67bd e661 403e 1802 61be 3c6d 71bd
000000e0: bed0 d43d b5d0 c43e 8aee aa3d c931 88bf
000000f0: 7e56 16bf a75b 1abe 2392 883e 7048 3f3e
00000100: a675 e33d 6b4c ba3d e367 c23e bc7a 893e
00000110: 9764 b43e 7088 a83e 62f9 e6bd 9838 213d
00000120: 2042 ffbe 0487 7fbd b689 d13e e636 67be
00000130: 932c 50be 2468 643e 5df7 06be d51a 30be
00000140: 1854 943e f433 d63e de48 133e 86e5 373e
00000150: 9369 65be 659b 0f3e af00 9ebe 4275 f53d
00000160: b4b6 013d 2b72 78bf 55da 5ebe 44c8 3f3e
00000170: 01ea d13e 7d66 f03e 2c01 75be 6894 b23e
00000180: dcdd d8bc 6de9 a23e 0f50 a73d 3689 72be
00000190: b74a 0a3f 81d8 d1bd bf6d 023f c6c3 853e
000001a0: 37fc 223e cf99 243f 225f 85bd a719 b03e
000001b0: ba1a b63e 4269 1b3e 8b43 3d3d ac50 8c3e
000001c0: 1ef8 04be b125 a33d 9fc6 3e3b 5463 0bbe
000001d0: 3678 a73e aa86 4b3f 648d bfbc 8179 813e
000001e0: ecc6 03bf b2e7 2bbe a35e 73bf 90a7 8fbe
000001f0: e8dc 0cbf 8e8f 8c3f 72c6 d23e 9195 bfbe
00000200: fa03 743e 54ff 96be 8031 2abe f30e a43e
00000210: 9e66 af3d eb4d 04be f1a3 b63d ec55 433f
00000220: 6e45 d83d 691e 473e 9b5c 6a3d 1b19 0d3e
00000230: d36a be3e 79b4 0d3f 5d33 afbe e7f1 fa3d
00000240: d27a 9f3e f8c3 f13e 74a5 11be b7f8 af3d
00000250: b88f febe 36f1 79be cf38 ce3c 2a59 cc3e
00000260: a905 e4be 6e68 b33d 83c6 16bf d6bc 5bbe
00000270: d1c6 923e 1c8b 133f f440 ce3c d83a e53e
00000280: b361 843e 7b88 a13e 4f3c 943e fbac 75be
00000290: 707c 893c e994 1a3d cde3 f1bd d320 d23e
000002a0: 285d 7dbe b44a 18bf 93b5 37be 61fa 163d
000002b0: 6113 253f ca68 78be 10fc 31be dc8e e2bd
000002c0: 8169 90be 9f22 693f 44c1 24bf 85b0 9ebe
000002d0: 4af8 503e 0d97 05bf d4be c63d fd9f 243f
000002e0: 0582 5cbf c38d c03e 8311 92bd 0b0a ef3e
000002f0: 5d69 d2be a586 98bc 2e1a 173e dcf1 013e
00000300: 63a4 8d3b 935d 2c3f df59 b0be 13d9 5a3f
00000310: d31d 82be f94c d63d ea9e 4abf 5181 4f3e
00000320: de38 3a3e 051d 953e b4db 0a3f f04b a6bb
00000330: 3a72 d13d 5b93 093f c73d 153f 0baf 713e
00000340: 6a8d 19be 2f67 d33d 7cfc 63bd d971 00be
00000350: 2a69 d7be 4bb0 323d fb1d 073f 3fdc 11be
00000360: d853 603c 9652 76be 9696 60bd d5ee 9f3e
00000370: d53c ae3e 366e c33e a14c 90be 531e 463e
00000380: 412e a23e 4870 9cbd 58f8 2ebe 7896 c83e
00000390: 57a5 703d 68e6 1e3e 3310 c33d b795 2abe
000003a0: e285 65bc e186 d4bd e4a4 82be 4167 42be
000003b0: f585 26bb baa7 87be f952 68bd 760c 003e
000003c0: abdc 0c3e cf42 0bbf 5017 6dbe 1779 cfbc
000003d0: 386b 8cbe 580f 3c3f fdfc d2be a073 93be
000003e0: 609b bbbc 3800 183e fe70 953e 3579 eebe
000003f0: 359c 38bf 7ed8 813d 012d 673e 342b d53e
-0.52761203 0.19367923 -0.46367082 -0.6795698 -0.16359033 0.47119114 -0.17079525 0.29562977
-0.13244858 -0.29740125 -0.6478883 -0.20019126 0.32432735 -0.11412125 -0.01697429 0.48614106
0.005834186 0.6286629 -0.6387393 -0.2586152 -0.16375619 -0.4681218 0.18018925 0.36302292
-0.13467816 -1.0118458 -0.33731183 -0.26964247 -0.012701938 -1.0568978 0.24097507 -0.10020708
0.0494671 -0.2994533 -0.13928148 0.17551312 -0.009880154 0.05749457 0.35966828 0.09783168
0.14690198 -0.33102998 -0.3343603 0.4269468 0.03202663 0.08017079 -0.19477512 0.5944665
-0.55569535 0.21406557 0.73996955 0.24895114 -0.056601994 0.18787345 -0.21973455 -0.058942065
0.10391377 0.3844048 0.08346279 -1.0640193 -0.58725727 -0.15074025 0.26673993 0.18679976
0.11106424 0.09096607 0.37969884 0.2685145 0.35232994 0.32916594 -0.11278035 0.039360613
-0.49855137 -0.06238462 0.40925378 -0.22579536 -0.20329504 0.22305351 -0.13180299 -0.17197736
0.28970408 0.41836512 0.14383265 0.1795865 -0.22403555 0.14024122 -0.30859897 0.11985256
0.03166838 -0.97049206 -0.21762975 0.18728739 0.40998843 0.46953192 -0.23926228 0.3487885
-0.026472978 0.31818715 0.08169567 -0.23685154 0.54020256 -0.10246373 0.5094871 0.26125926
0.15916525 0.64297193 -0.06512286 0.3439457 0.35567266 0.15176871 0.046206992 0.27405298
-0.12985274 0.079661734 0.0029110087 -0.1361211 0.327089 0.79502356 -0.02338285 0.25288013
-0.51475406 -0.16787603 -0.9506628 -0.28057528 -0.55024576 1.098131 0.41167027 -0.37418798
0.23829642 -0.29491675 -0.16620445 0.32042655 0.085644946 -0.12920348 0.08917988 0.7630298
0.10560118 0.19445194 0.05721722 0.13779108 0.37190875 0.55353504 -0.34218875 0.122531705
0.31148392 0.47219825 -0.14223272 0.085923605 -0.49719024 -0.24408421 0.025173573 0.39911777
-0.44535568 0.08760153 -0.58896655 -0.21458754 0.2866731 0.5763414 0.025177456 0.44771457
0.2585579 0.3154944 0.28952262 -0.23991768 0.01678297 0.037739668 -0.11811028 0.41040668
-0.24742568 -0.5948899 -0.17940359 0.036859874 0.64482695 -0.24258724 -0.1738131 -0.110624045
-0.28205493 0.9106845 -0.643574 -0.3099405 0.20407215 -0.5218361 0.09704366 0.6430662
-0.86135894 0.37608156 -0.07132246 0.4668735 -0.4109601 -0.018618891 0.1475608 0.12689918
0.004322575 0.6733028 -0.34443566 0.8548748 -0.2541338 0.104639 -0.79148734 0.20264174
0.18185756 0.29123703 0.5424149 -0.0050749704 0.10226865 0.5374047 0.5829739 0.2360193
-0.14995351 0.10322415 -0.05566071 -0.1254343 -0.4207242 0.043625157 0.5278012 -0.14244173
0.013691865 -0.24054942 -0.05483111 0.31236902 0.34030786 0.38170022 -0.28183463 0.19347505
0.31675914 -0.076386034 -0.17086923 0.391773 0.05875143 0.1551758 0.09524574 -0.16658674
-0.014008971 -0.103772886 -0.25516427 -0.189847 -0.0025409434 -0.26495153 -0.056719754 0.12504753
0.13756053 -0.54398817 -0.23153424 -0.025326295 -0.2742555 0.7346091 -0.4120864 -0.28799152
-0.022901237 0.14843833 0.2918777 -0.4657685 -0.72113353 0.06340121 0.22575761 0.41634524

encoder.lstm.weight_hh_l0 f4 [128, 32]
00000000: 2551 80bf 3d9b 2fbe f9fe 16be 4ecf 563e
00000010: a9d9 023f 51cb ccbe 4278 72bd 3d45 09bf
00000020: 415e a6bb a2d5 06bf 5b66 2bbe dd93 d9be
00000030: 5d04 cf3e c72e f0bd 3102 bf3e 76d4 a1be
00000040: 306d aa3e 9e70 a0bd bcc1 11bf 967a 8ebf
00000050: 6491 32be 62f5 1e3e 0559 40bf cc2c 15bf
00000060: 9d51 853e 4631 3abe c4ef d4bd 7c9d 863c
00000070: b067 32bf c48f 353e ba51 7bbd 600d 25be
00000080: 481e 81bd 5076 f13d fc1c 02bf f744 51be
00000090: 4cc8 133f d534 c6be a52f 953e 7e10 9d3d
000000a0: 5b49 363e 8c69 21bd 4070 59be a00e e9bc
000000b0: fabd 43be d14c 1abe d4b0 593f 0ee7 12be
000000c0: 847e 013e 8a71 033f 3de8 f63e 105d 063d
000000d0: a475 70bf c314 b83e f71c 643e 0e78 093f
000000e0: 75a1 513f 363d afbd 7aa5 33bd 0824 9ebe
000000f0: 6709 3cbf 07bd c33e a6ab 2d3f aaed 8c3d
00000100: 34ae 463f 8bf3 993d 1139 f1be 126a 8ebe
00000110: a9ed 983f e9df d1be 76df 953e 318e 943c
00000120: d00b afbe d1fd 81bf e9bb 373d 6f6f 96bf
00000130: c595 77bc 19d4 7cbf 4e83 633e b7ab 6fbe
00000140: c2b0 7d3e f6e7 06bf cb70 263f b641 e8be
00000150: 2f57 17bf e5c3 5a3e d072 53be cfbe 7ebd
00000160: be75 1e3f 5bab 32bf 1d8a 02be 8eb3 84bf
00000170: 2a1d c1be a579 e93d b7a5 09be 1982 0dbf
00000180: 59a1 32be 8ec1 80be 4ce9 063f 4c64 3dbe
00000190: 79e2 abbe b54c 4bbf 84f2 c93d c158 053f
000001a0: 8b0e 913d 14b3 9c3e 2ef6 063d 63a8 3dbf
000001b0: fa4e f8bd 1b22 83bf 4c88 88be 942a b73e
000001c0: 73c4 193f 25d6 0bbf 04b7 b23e 8f4a 9fbe
000001d0: 8a04 9abe e658 95be 2650 c1be b904 e23d
000001e0: d209 4fbe 4f7a 433f 3e55 2ebf 779a a0be
000001f0: 80ac 06bf 49e2 8fbe 7dfd 62be 64c1 e03e
00000200: ea78 1fbf ecda 553e 8a48 31bd b3f7 9f3e
00000210: 87ba 0b3f c0a9 5ebf dddd 97be 044b 613f
00000220: e054 d3be 8831 cbbd ba9d 6fbe 1b8a 923e
00000230: 1a04 083f fc77 4b3d 553c 4c3f cbb7 f03d
00000240: fc34 b43e 4ee6 9e3c 1aee eebd c19a a0be
00000250: 41d6 04bf 627a 7a3e 770b a53e 73cb d5be
00000260: 5fbe e03e 07ce 9abb 2cef fcbe 1d04 143f
00000270: dbae 38bf 13be a73f e7a7 fdbe 033d d5be
00000280: 2912 863e 8c9b 68bd 31a4 3dbf 4aff e3be
00000290: 4b71 113e f7f4 c3be 6b3b 573f 8397 ac3f
000002a0: 1e59 d5be e36c df3c d3fb 1bbf f6ec d2bc
000002b0: 33ab 37be e4cd d7bd 1150 7f3d 4f8f 72be
000002c0: 9463 493e d4b4 a33c 3521 ac3e 685c d0bd
000002d0: 7f75 073e 3fb5 153f 2fcd 0d3f b958 17bf
000002e0: 5e2d 20be 3017 dabe 9905 05bf 3ada 16bf
000002f0: 196f 9fbe 6c5a d43e a0e6 c9be 8648 7e3d
00000300: 88e8 803e 2c4f 043f 37f8 dcbe fcb9 aa3e
00000310: 5dd0 b03d 5361 0ebf 3f43 d1bd 0e11 583f
00000320: e283 e3be ad5a 0dbc d756 1cbf 756e 10bf
00000330: 5058 0dbd f059 12bf 0e55 f9bd de8f 4d3e
00000340: a264 8bbd e9c5 f23d c206 b6be 2543 3e3e
00000350: d9ea 54bf aef1 473f 2ddd 5f3d 9816 8dbe
00000360: 070a b93f 75ec 16bf 5bd1 bb3d a538 45be
00000370: e8fb 9cbf 6e17 cf3e 4fcc 003e 8f52 d4bd
00000380: 2da5 4abc 1d87 83be 0ca4 65bf b959 a2be
00000390: 9cc0 843f 739d 0cbf 60b0 9cbe 2416 163e
000003a0: 6db7 3ebe 13b5 42be 65bd 6dbe c142 2fbe
000003b0: b29a a03e 26be fcbe 1435 343f 3b20 80be
000003c0: d042 a53e c4af 783e b8d6 3ebe ae58 8c3d
000003d0: cdad 21be 5d36 df3e 434d 23bf 47b8 e2be
000003e0: aeff 8ebe 727e 47bf bcc3 31bf 1f65 82bf
000003f0: 7540 2ebf 2284 c93e be8b 47be 14c5 81be
-1.0024763 -0.17149062 -0.14745702 0.20977518 0.51113373 -0.39998868 -0.059196718 -0.53621274
-0.005077154 -0.5266973 -0.16738264 -0.42495623 0.40433016 -0.11727672 0.3730636 -0.31607407
0.33286428 -0.0783398 -0.5693624 -1.113116 -0.17438275 0.15523294 -0.75135833 -0.5827148
0.26038828 -0.18182859 -0.10397294 0.016432516 -0.69689465 0.17730623 -0.061357237 -0.16118383
-0.06304604 0.117901444 -0.50825477 -0.20436464 0.57727504 -0.38712183 0.29137912 0.07669161
0.1780142 -0.039407298 -0.21234226 -0.028449357 -0.19115439 -0.15068366 0.85035443 -0.14345953
0.12645918 0.5134512 0.4822406 0.032803595 -0.93929505 0.3595334 0.22276674 0.53698814
0.8188699 -0.08556597 -0.043858983 -0.30886865 -0.73451847 0.38230154 0.6784004 0.06881268
0.7760956 0.07517155 -0.4711385 -0.278153 1.1947528 -0.40991142 0.2927205 0.018134208
-0.341887 -1.0155584 0.04485694 -1.1752757 -0.015111391 -0.98761135 0.22218058 -0.23405348
0.24774459 -0.52697694 0.6501586 -0.45362633 -0.59117407 0.2136379 -0.20649266 -0.062193688
0.6189841 -0.6979272 -0.12747999 -1.0367296 -0.37717563 0.11400155 -0.13442121 -0.5527664
-0.17444362 -0.2514767 0.5269973 -0.18495291 -0.33571222 -0.7941392 0.09860709 0.5208855
0.07082852 0.30605376 0.03294962 -0.7408506 -0.121244386 -1.0244783 -0.26666486 0.35774672
0.6006538 -0.54623634 0.34905255 -0.3111157 -0.30081588 -0.29169387 -0.3775646 0.11036057
-0.2021859 0.76358503 -0.6809882 -0.31367847 -0.52606964 -0.2810233 -0.2216701 0.43897545
-0.62293875 0.20884293 -0.04328207 0.31243667 0.54581493 -0.8697777 -0.29661456 0.8800509
-0.41275692 -0.09921557 -0.23400012 0.2862099 0.5313126 0.049674973 0.7977956 0.11753806
0.35196674 0.019396927 -0.11666508 -0.31368068 -0.51889426 0.24460748 0.3223531 -0.41756782
0.43895242 -0.0047242674 -0.49401224 0.57818776 -0.7214181 1.3104881 -0.49542162 -0.4164811
0.2618573 -0.056788966 -0.7407866 -0.44530708 0.14203374 -0.3827283 0.8407504 1.3483738
-0.41669554 0.0272736 -0.6093113 -0.025747757 -0.17936401 -0.105373174 0.062332217 -0.2368748
0.19666892 0.019983687 0.33619085 -0.10173875 0.13228415 0.58479685 0.5539121 -0.59119755
-0.15642306 -0.42595816 -0.51961666 -0.5892674 -0.31139448 0.41475236 -0.39433765 0.062080882
0.25177407 0.51683307 -0.43158123 0.3334502 0.08633492 -0.55617255 -0.10217904 0.84401023
-0.44436556 -0.008627576 -0.6107001 -0.56418544 -0.03450805 -0.57168484 -0.12174426 0.20074412
-0.068063036 0.118541546 -0.3555203 0.18580301 -0.8317085 0.7810315 0.05465429 -0.275563
1.4456185 -0.58954555 0.09170791 -0.1925989 -1.2264376 0.40447563 0.12577938 -0.10367309
-0.012368483 -0.2568902 -0.8970344 -0.31709078 1.037128 -0.5492775 -0.30603313 0.14656883
-0.18624659 -0.19014387 -0.2321678 -0.17115308 0.31368023 -0.49363822 0.7039349 -0.2502459
0.32277536 0.242858 -0.18636596 0.06852852 -0.15788956 0.43596163 -0.6378977 -0.44281217
-0.27929443 -0.77927315 -0.6943929 -1.018711 -0.68067104 0.39358622 -0.19486901 -0.2534567

encoder.lstm.bias_ih_l0 f4 [128]
00000000: 1673 4b3f 3de7 eb3e 846b e43e a78a 043e
00000010: bacd 883e c46e e23e d298 093f 8501 d13e
00000020: 27ac bc3e d44e e03e 8692 a43e fe20 07bc
00000030: 0fb3 cebd 3909 683f 932a 863e 71bd 0e3c
00000040: 86e3 1c3f d1e5 313f 3cf0 3f3f bd31 463b
00000050: 4a65 3d3d f983 463e 0eb8 093f 281d 983e
00000060: 2d06 873e c569 a53e f533 dc3e 92e2 523e
00000070: 3903 493f 9d5e 0f3f 9468 8dbe f15c 733e
00000080: 26b9 943e fabd bbbe 6a31 bd3e 9490 643e
00000090: 6a5d f83b eab9 f63e 8469 273e 1e09 953e
000000a0: 536d 553e 10f1 f73e 5023 733e 20bf 303f
000000b0: 1596 a43e b086 ac3e 6cbc a13e 5df8 9f3e
000000c0: 0301 183f ac99 123e 8ffa d83e c719 673e
000000d0: 2201 133e 5787 823e 5d49 973e b7ae e63e
000000e0: 6d6a ab3e 01db d23e 68b6 873e dfa1 263e
000000f0: 5a0c c73e 7732 1f3f fa45 723e b9be 84bd
00000100: 5d06 283d 8aca 8b3d 8f95 adbd 583b 79be
00000110: 978a 413e a5a6 2bbe a80c cd3d 6b6f f93d
00000120: 7b2f 6bbe 2a7d 9cbd 3206 0b3e 5ea6 79be
00000130: d46b 5bbe 42d4 11be a152 c3bb 1328 743e
00000140: 858c 6b3d d37f 37be cd90 953d 3fbf 09be
00000150: 7859 0cbf 1472 bf3e 4bc5 3bbe 8ea9 c93a
00000160: 3597 993e c43a 96be 2cfb e8bd 7d89 63be
00000170: 8cdb 9abe bb93 c83e 388f 31be 67b0 10be
00000180: 8597 d03e c2a4 c13e fb30 0f3e 76c4 de3e
00000190: 95ec 143e 3a92 c9bc 3d04 653e 52be 8d3d
000001a0: 369d 353f e905 6b3e 9993 2cbe 3885 df3d
000001b0: 0ed4 043e db2e 83bd 9500 93be ffc5 7a3d
000001c0: 2246 833c 33ca 133f 398d 9c3e 45f4 d03c
000001d0: bd17 01be 0f23 d7be 24b7 febd aad0 70bd
000001e0: b089 0abe 3b8d 403e fd63 393e 2ad3 c0b9
000001f0: 2ac3 9a3c 5153 83be 4fc5 cfbd d768 a83d
0.7947248 0.46074858 0.44613278 0.12943517 0.26719457 0.44225132 0.5374881 0.40821472
0.36850092 0.4381014 0.3214304 -0.008247612 -0.100927465 0.9063907 0.26204357 0.008712159
0.61284673 0.69491297 0.74975944 0.0030242049 0.046239175 0.19386281 0.5379647 0.29709744
0.263719 0.32307258 0.4300839 0.20594242 0.7852054 0.56003743 -0.2761885 0.23765923
0.29047507 -0.36668378 0.36951762 0.22320777 0.007579495 0.48188716 0.16348845 0.29108518
0.20842485 0.48426104 0.2374394 0.69041634 0.32145754 0.33696508 0.31589067 0.31244174
0.59376544 0.14316434 0.4237866 0.22568427 0.14355901 0.2549388 0.2954816 0.45055172
0.33479634 0.41182712 0.26506352 0.16272686 0.3887661 0.6218638 0.23659506 -0.0648169
0.041021693 0.06825741 -0.08475792 -0.24339044 0.18900524 -0.16762789 0.100121796 0.121794544
-0.22967331 -0.07641061 0.13576582 -0.2437987 -0.21427852 -0.14241126 -0.005960778 0.23843412
0.057507057 -0.17919855 0.07303009 -0.13451861 -0.5482402 0.37391722 -0.1833698 0.0015385614
0.29998174 -0.2934171 -0.11376032 -0.22220416 -0.30245626 0.3917521 -0.1733979 -0.14129792
0.407406 0.37821013 0.13983528 0.43509263 0.14543374 -0.02460586 0.22364898 0.06921066
0.7094301 0.22951473 -0.16853179 0.10914081 0.12971517 -0.06405421 -0.28711382 0.06122398
0.016024653 0.57730407 0.30576494 0.025507102 -0.12606712 -0.42018935 -0.12437275 -0.058792748
-0.13529086 0.18803875 0.18104549 -0.00036778423 0.01889189 -0.25649503 -0.101450555 0.082231216

encoder.lstm.bias_hh_l0 f4 [128]
00000000: f32d 103f 9e78 e43e d5d6 4a3e 4629 933e
00000010: e82c a13e bf55 583e 62d9 d63e f832 9b3e
00000020: c994 193e 421c e83e 67f8 ac3e c20e 383e
00000030: 89da a3bd 6631 813f 988f 9c3d ecf3 483e
00000040: f097 c33e e7b7 413f eef8 023f eb9f bfbd
00000050: de68 b8bd 05cb 993e f7a4 013f 111a f63d
00000060: 28f6 893e ea28 013f ea82 963e e8dc bb3c
00000070: 95b9 0f3f 7132 323f 9c92 58be 8f08 983e
00000080: 33be 323e efe8 cfbe 48a2 9f3d 0a3f 503e
00000090: 7848 453e e6dc fd3e 149e ab3d 4b6f f13e
000000a0: 5df3 3c3e 6d70 1d3f f6f7 673e c0db 0e3f
000000b0: 022c 8b3e 65ca 0f3f 04c3 923e 84c4 a53e
000000c0: 5d96 073f 02f0 263e a5e3 8c3e 29ad bebc
000000d0: a692 003e 3a6e a03e fa26 cb3d fad0 d63e
000000e0: 2561 9d3e a60d 053f 3867 b83e 73a4 dc3e
000000f0: 5812 fc3e 68b5 f33e 4f90 da3e ab1d 203e
00000100: a427 3f3e 6b61 1fbe 548d 68be d81e 65be
00000110: 406b ae3d b2bb 68be 4828 443e 7d75 983d
00000120: 415f d8bd a3c4 42be f4ef 17bd 5e90 55be
00000130: fd3e 3d3c d320 1cbd cdbb fb3c 91d5 bbbc
00000140: 5c25 823e 4aa8 46be b4ad 7fbc 0609 b5bd
00000150: 6470 0dbf 15f2 213e ce33 9abe bdd5 1dbe
00000160: 3326 863e 4d44 78be 8ad4 a6be 4b03 95be
00000170: cf91 94be bdc8 b23e 97c6 7fbe f927 61be
00000180: 0530 eb3e 2c03 ae3e 83a0 1b3e d968 993e
00000190: f985 6b3e 242a dcbd 3f5f 363e 5a9f 65be
000001a0: 40db 143f 23e1 923e 3169 dcbd 99b7 493a
000001b0: 6032 d43c 414e b33d dde8 04be 5297 b3bd
000001c0: b446 0ebe 19e2 4c3f 8e05 df3d c06d 353e
000001d0: 5c6d 5cbe 1d13 aebe b1fa 0bbe 7188 203e
000001e0: 9850 47be fc2c 52bc c29f 683d a63c e93d
000001f0: 4df4 923d 3c61 5dbe 928e 163e 3d51 533e
0.5632011 0.44623274 0.19808514 0.28742427 0.31479573 0.2112646 0.41962725 0.30312324
0.14998163 0.4533406 0.33783266 0.1797438 -0.08000667 1.00932 0.07644576 0.19624299
0.38201857 0.7567124 0.51161087 -0.09356674 -0.09004377 0.30037704 0.5064234 0.120166905
0.26945615 0.50453055 0.29396755 0.022932485 0.5614255 0.6960822 -0.21149677 0.2969403
0.17455368 -0.40607402 0.077946246 0.20336547 0.19265926 0.49582595 0.083797604 0.47155222
0.1845221 0.61499673 0.22653183 0.5580406 0.27182013 0.56168205 0.2866441 0.32376492
0.5296381 0.16302493 0.2751743 -0.023275929 0.12555942 0.31334096 0.099195436 0.4195631
0.30738178 0.5197395 0.3601625 0.43094215 0.49232745 0.4759934 0.42688224 0.15636317
0.18667465 -0.15564506 -0.22710162 -0.22375047 0.0851655 -0.2272785 0.19155991 0.07444284
-0.10565043 -0.19020323 -0.03709407 -0.20855853 0.011550662 -0.03811724 0.030729199 -0.022928985
0.25419128 -0.19400135 -0.015605379 -0.08839612 -0.5524962 0.15815003 -0.3011765 -0.15413566
0.2620102 -0.24244805 -0.3258403 -0.29104075 -0.29017493 0.34918776 -0.249781 -0.21987905
0.45935073 0.33986795 0.15197949 0.29962805 0.23000325 -0.10750225 0.17809771 -0.22424069
0.5814705 0.2868739 -0.10762251 0.00076948997 0.025902927 0.0875516 -0.12979455 -0.087690964
-0.13894159 0.800325 0.10889731 0.17717648 -0.21526092 -0.33998957 -0.1366985 0.15677048
-0.19464338 -0.012828108 0.056792982 0.11388521 0.07175503 -0.21619123 0.14702824 0.20636459

policy.net.0.weight f4 [128, 32]
00000000: 51a6 4fbe d03f a2be 17c0 573e af79 4fbe
00000010: 75b3 b13c 1d28 933d 0173 3b3e c237 e53e
00000020: 0988 693e 16a5 83be 3be5 1fbe 9215 ddbe
00000030: ba85 a6be 8325 55bd 1ea0 94be 14d4 75be
00000040: 1e67 97be 9484 47bd 87cd e3be ef8d 013f
00000050: 3dcf fa3e 8774 26be 3c59 5fbe 2e32 9bbd
00000060: 69ef 83be d9ba b53e 926e 83be d765 9cbd
00000070: 3e2c f83d 1e3c 6ebe 0e43 47be 27fc 80be
00000080: 489d 9cbd c39b 97bc d104 afbd c3af 063e
00000090: 073d 883e 1c05 e13d f762 97be 9e0c b03d
000000a0: f87e c93e ad12 283d 49a2 e0bd 8869 b6be
000000b0: 5c46 a8be 0aa5 383e c9f2 45be 56be c9bd
000000c0: 5555 16be 0d2f 15be 19ac 8ebd 01be ba3d
000000d0: 3993 79be c424 3dbd 297b adbc 2778 7d3e
000000e0: d2b0 733e c602 a73e 6867 d93e 8040 6f3e
000000f0: 4d39 883d 0154 30be 31a2 553d e790 babe
00000100: 3450 a9be d528 86be 65f6 9abb 1908 c8bd
00000110: 6db9 c93d fb8a 96be ab88 81be 9fbd 8f3e
00000120: f367 423f 7e2e 6a3b 64c6 70be 4324 6abe
00000130: d67e 54bf 9e0a 2d3e 620f 05bf 1fe2 a03e
00000140: 1e49 46be 6540 70be ed9d 5fbe e366 ad3e
00000150: f841 d7be 6708 33be aaa3 c3bd 6ea1 3dbe
00000160: e64f 90be 073e 0a3f e093 523e 07ea aebc
00000170: c53e 163e 2d0f adbe 5326 97bd dce4 81be
00000180: aa93 e93e 1a08 02bf d51c 03bf a119 cb3e
00000190: 6506 bb3e 3329 1ebf 7b00 6ebf e6fe 283e
000001a0: 3ab2 183f f597 96be 0b37 163e f352 eabe
000001b0: 7565 38bf 25a2 02bf 7b04 13bc da63 dbbe
000001c0: c94f febd 0c94 1f3f b091 5abd 2a58 07bd
000001d0: 5681 3ebf d18c 72be c117 2b3e b332 e9be
000001e0: bd1a ecbe 8cb1 e23d acb5 6d3e 2f97 393f
000001f0: 7010 0c3e d357 4dbe 52cd 0f3f df22 17bf
00000200: a34c 563e 06d1 263f d3d8 e9bd d7c4 2fbe
00000210: f9e5 9ebd 63d0 ba3e 94a6 14bf 34b7 9cbe
00000220: 1ba0 a9be 0cea 3d3a 7dc3 c53e b6b3 3dbf
00000230: 0e20 85bf 57cf 273e 5c1e edbe 15b1 c9be
00000240: 55d7 dfbe 2f09 51bf ff8c a83c e6ba a3be
00000250: e435 11bf be93 eabe 1df1 57be 6b49 da3b
00000260: 35d1 08bf df3d 443e e8f3 303f d9cc a8be
00000270: ef83 373d 1962 2bbf 5ac5 9c3e c90a ddbe
00000280: 91db 37be 0978 05bf a732 c7be befe 993e
00000290: e312 063e 26c2 48bf c00a 243f 9b99 d6bd
000002a0: 2f87 abbe 2543 553e 50fa 97bd d385 07bd
000002b0: 0d9f 7d3e 4fb2 3abf 6b5e 9e3c adca 6bbe
000002c0: 8cdc eb3d 12e5 063f 7a2d 05be 072b dcbd
000002d0: d481 16be 6f38 023d 524a 43be e607 b0be
000002e0: 7868 70bf 6a87 0a3e 43fa 80be a69a b73e
000002f0: 6959 8d3e e496 513d 75de 31be 3600 183f
00000300: 29bf 09bd d12e 053f 0e27 143f 44e8 41bf
00000310: 271e 5b3f e4a7 a23d dab5 853e 3332 d7be
00000320: a039 30be 7d97 f2bc 9902 6fbe 55aa 1dbe
00000330: 3fff debe eff9 273e 42f4 21bf 6e5e 09bc
00000340: 295b 45be e06d 1cbf 1816 c6be d0da 15bf
00000350: c440 a63d d202 54be 8599 293e ce80 cd3e
00000360: aee3 5a3e 3802 273e c91d e9bd fbd0 21be
00000370: d75b 253e 74b0 dcbe af48 e6be ec71 adbe
00000380: 26a0 80bd 55ad ad3e 1054 e13e 912d 44be
00000390: 7d04 c13d 810c 763e d371 26be 14ed f8be
000003a0: bb07 733c db2c 963e 490e 033d 25b0 bdbe
000003b0: 0e48 86be bcdf 7a3e 7c95 5ebd bbce b7bc
000003c0: 4c97 32be 1d68 42be d606 94be f312 1f3b
000003d0: 0bee 283e 003b 7b3d 5d7f efbe fdcb 9e3c
000003e0: ef21 503e 9568 653e 1563 3cbe b7d1 c1bd
000003f0: 62e8 283d 785b 323e 18bb e1be 3f9f c73c
-0.20278288 -0.3168931 0.2106937 -0.20261262 0.021692017 0.071853854 0.1830559 0.44769102
0.228058 -0.25711888 -0.15614788 -0.4318052 -0.325239 -0.052037727 -0.2902841 -0.24006683
-0.2957086 -0.04871042 -0.44492742 0.506072 0.48986235 -0.16255389 -0.21811384 -0.075779304
-0.25768593 0.35494116 -0.25670296 -0.07636612 0.121178135 -0.2326512 -0.19459173 -0.25192377
-0.076471865 -0.01850689 -0.085458405 0.13152985 0.2660906 0.10987303 -0.29567692 0.085961565
0.39354682 0.041033436 -0.109684534 -0.3562739 -0.3286618 0.18031707 -0.19330896 -0.09850757
-0.14680989 -0.1456873 -0.06966419 0.091182716 -0.24372567 -0.04617764 -0.021176891 0.24752866
0.2379792 0.32619303 0.42461705 0.23364449 0.06651554 -0.17219545 0.05215663 -0.36438677
-0.33069003 -0.26203027 -0.0047290795 -0.097671695 0.0984982 -0.2940291 -0.25299582 0.28074357
0.75939864 0.0035733278 -0.2351318 -0.22865395 -0.83006036 0.16898581 -0.519766 0.31422517
-0.1936383 -0.23462065 -0.21837588 0.3386756 -0.42042518 -0.17483674 -0.09552701 -0.18518612
-0.28185958 0.54000896 0.20564222 -0.021351827 0.14672382 -0.3380064 -0.07380357 -0.25369918
0.4562047 -0.5079361 -0.5121587 0.3966799 0.36528316 -0.61781615 -0.92969483 0.16503486
0.5964695 -0.2941281 0.14669435 -0.4576641 -0.7202981 -0.5102866 -0.008973236 -0.42849618
-0.124175616 0.62335277 -0.053361595 -0.033043064 -0.744161 -0.2368653 0.1670828 -0.45546493
-0.4611415 0.11069021 0.23213834 0.7249631 0.13678145 -0.20053034 0.5617267 -0.59037584
0.20927672 0.65162694 -0.11418309 -0.17164932 -0.077587076 0.3648711 -0.5806668 -0.30608523
-0.33129963 0.00072446535 0.38625708 -0.7410234 -1.0400407 0.16387688 -0.46312225 -0.39392915
-0.43718973 -0.8165464 0.020575045 -0.3197853 -0.56722856 -0.45815843 -0.21088071 0.006661584
-0.53444225 0.19164227 0.6912217 -0.32968786 0.044803556 -0.6694656 0.30619317 -0.4317229
-0.17954852 -0.52136284 -0.38905832 0.30077165 0.13093142 -0.78421247 0.64078903 -0.10478517
-0.33501574 0.20826395 -0.0742079 -0.03308661 0.24767704 -0.7292833 0.019332131 -0.23026533
0.11516675 0.52693284 -0.13005629 -0.10750394 -0.14697963 0.0317921 -0.1907132 -0.34381026
-0.93909407 0.13528219 -0.25190935 0.35860175 0.27607277 0.05116929 -0.17370017 0.5937532
-0.03362957 0.5202456 0.5787209 -0.75745034 0.85592884 0.07942179 0.26115304 -0.42030486
-0.17209482 -0.02961325 -0.23340835 -0.15397008 -0.43554112 0.16403936 -0.6326333 -0.00838433
-0.19273056 -0.61105156 -0.3868873 -0.58537006 0.08117822 -0.20704201 0.1656247 0.40137333
0.21375915 0.1630944 -0.11382634 -0.15802376 0.16148315 -0.43103373 -0.44977328 -0.33875978
-0.06280546 0.33921304 0.44009447 -0.19158007 0.09424684 0.24028207 -0.16254358 -0.48618376
0.014833386 0.29331097 0.031996045 -0.3704845 -0.26226848 0.2449941 -0.05434178 -0.022437444
-0.17440528 -0.18985029 -0.28911465 0.002427277 0.16497056 0.061335564 -0.46776858 0.019384379
0.20325445 0.22403176 -0.18397172 -0.09463828 0.041237243 0.17417705 -0.44088054 0.024367927

policy.net.0.bias f4 [128]
00000000: 2f18 99be 647b acbe 8cf6 edbe 7d1e 183e
00000010: 6ae6 8fbe 3254 efbe 9ac0 0ebf 9a80 01bf
00000020: 076d 65be 1051 4e3d 440a a0be 068d acbe
00000030: fe16 d2be d5cd 2c3d 6088 f9be 8090 e4be
00000040: b414 b7be 3df4 c03d ea54 e7be f180 eabe
00000050: a83b 0fbd 6017 b4be aae5 1fbc d2fc 95be
00000060: be08 24be 662b d3be 2ca7 a8be 2203 1cbe
00000070: 01bf a0be 7938 cabe 5c79 0bbf 41f8 03bf
00000080: e630 92be 12ce e2be 95f7 86be 0c7c bfbc
00000090: a6a0 d6be ceeb 93be 0528 7fbe 2655 ccbe
000000a0: c763 5dbd e210 62be 0e27 26be 0721 dcbe
000000b0: 7364 aebe 1b25 423c b20f e1be de5a d2be
000000c0: 9b10 e5bc 13ad 42bd 1f15 f4be 61ae dfbe
000000d0: 8aac 80be dd80 debe 59fc 0ebf 3d5a bbbe
000000e0: 2714 e9bd 7c1a c13b 79ef e3be 58ce a2be
000000f0: d963 93be 8f84 ddbe 00f8 52be c282 66be
00000100: 4dc3 c5be d573 b2be ddbb cbbe 3d6d 2fbe
00000110: 4921 e9be 2a4c 89be 58ad 0cbf 9ec0 e8be
00000120: 1f3b 99bd 2396 9cbe 103e 41be 1051 d8be
00000130: 10cd 21be a2fd 57be 83bb 2d3d 2e7f 84be
00000140: 0438 b4be 81ff f0be 2e59 aebe e7b1 d5be
00000150: cc4f 89be 629a e6be 54f2 05bf 05b8 733d
00000160: 259e 01bd 18ac bfbe 1f68 dabe 205f c83d
00000170: 6919 0ebf 9c6c c03d 7b5f 93be 4c79 03be
00000180: 8abc 05bf 7d7f 9fbe 4489 f7be 7eb1 0dbf
00000190: b09c 393e 61e5 c0be 4369 b3be e795 14bd
000001a0: cf0f 193d 31e0 bc3d e00a 61be 836a dfbe
000001b0: 5aab f0bc 94c9 c1be 750d f5be e91b 11be
000001c0: c3ad 44be f017 45be a175 f9be e3a7 ef3d
000001d0: 78a5 5fbe a16d 8abe 0868 adbe 76bb 84be
000001e0: a033 ebbe cd6f 63be 17f5 b73d eefc 7abe
000001f0: f53b 96be 7f8c 89be a714 b53b 22b0 5bbe
-0.29901263 -0.3368789 -0.46477163 0.1485538 -0.2810548 -0.46743923 -0.55762637 -0.50586855
-0.22404872 0.050370276 -0.31257832 -0.33701342 -0.41033167 0.042188484 -0.48736858 -0.44641495
-0.35757983 0.09421585 -0.45181972 -0.458015 -0.034969002 -0.35174084 -0.009759346 -0.2929445
-0.1601896 -0.41244048 -0.32940042 -0.1523557 -0.31395724 -0.3949621 -0.54482055 -0.5155068
-0.28552932 -0.44297844 -0.26360765 -0.02337458 -0.4191944 -0.28890842 -0.2491761 -0.39908713
-0.054050233 -0.22076753 -0.16225836 -0.42993948 -0.34061012 0.011849667 -0.43957287 -0.4108495
-0.02796202 -0.047528338 -0.47672364 -0.43687728 -0.25131637 -0.4345769 -0.558538 -0.36592284
-0.11380797 0.0058930498 -0.4451864 -0.31798053 -0.28787115 -0.43265197 -0.20602417 -0.22510818
-0.38625565 -0.34853998 -0.39791766 -0.17131515 -0.45533207 -0.2681592 -0.54952 -0.45459455
-0.074819796 -0.30583295 -0.18871331 -0.42249346 -0.15800881 -0.21092847 0.042415153 -0.2587828
-0.35198987 -0.47069934 -0.34052414 -0.4173729 -0.26818693 -0.4503966 -0.5232289 0.059501667
-0.03164496 -0.37435985 -0.42657563 0.09783769 -0.5550752 0.093957156 -0.28783783 -0.1283924
-0.5224081 -0.31151953 -0.48346913 -0.55348957 0.18126178 -0.37675002 -0.35041246 -0.03627577
0.037368592 0.092224486 -0.21976805 -0.4363595 -0.029378582 -0.37849104 -0.4786183 -0.14170803
-0.1920691 -0.19247413 -0.48722556 0.11701944 -0.21840465 -0.27036765 -0.33868432 -0.2592427
-0.45937824 -0.22210617 0.08982294 -0.24510548 -0.2934262 -0.26865003 0.0055261436 -0.21453908

policy.net.2.weight f4 [5, 128]
00000000: f511 86bf 7616 cdbe 03b6 a9bf a039 77bf
00000010: 4c88 4fc0 5624 d5bf 9340 e2bf bebd b33c
00000020: 2d52 95be 40a9 e9bf 65ef afbf d7ad 6ebf
00000030: dc4a aabe 979a babf cf5c 00bf 42e3 5dbf
00000040: e3d8 a7bf d79f 42c0 2deb 44be d11e d5bf
00000050: 603c 7ec0 b727 04bf 77b6 66bf 8a6a 83c0
00000060: f84a bdbf 095d 98bf e5fe acbe ed56 9abe
00000070: b5c8 f7be 502d afbe b145 05bf 90f2 b3be
00000080: 716e 3dbf 900d 4bbe 6b36 04bf 6d64 1cbf
00000090: 4e57 d0bf 8dda 23c0 f616 5cbf b38f 72bf
000000a0: 239a 0fc0 2eee 6bbe 62e2 8ebf 4017 9dbe
000000b0: 6c5d d3bf 156c 67bf 5a1a 63be cbb8 8cbe
000000c0: f4e8 34bf 130b 2ac0 4d04 67bf a6b5 dfbe
000000d0: 8e9f 6dbf 8106 52bf 7286 d1be 4f47 67bf
000000e0: 80d6 5bc0 8900 b5bf 3b66 36bf 7fa7 0bc0
000000f0: 63c5 0abf ed23 f3be 18ff 1abf 9c54 89c0
00000100: 51b4 70c0 69ab 39c0 ab7f 8dbe 53c5 7dc0
00000110: cd5e eabf 9559 17bf 3ac2 c1bf 6e27 45c0
00000120: b82f aebf 865c 52bf eb0c a1bf 2301 92bd
00000130: d837 37bf 9152 42bf a13b 21bf 4cbe c4bf
00000140: f2e6 c8bf df78 a2be fb85 9cbe 4b5c a7be
00000150: 2231 26bf 10cb 25be eab1 87bf 2d34 11c0
00000160: d610 78c0 b59c 13bf 0a76 31bf b9fe 37bf
00000170: da09 28bf d4db 26c0 a3bc 35bf bfce dfbe
00000180: 53ab 83be 4b4a 41bf d975 8cbf 62a3 8dbe
00000190: 576c ecbf 81b9 23bf cb31 19bf 9e18 e0bf
000001a0: 4401 aebf 35b3 a7bf 12e4 74bf 14fe 0cbf
000001b0: 5aeb 41c0 1bd8 13be 9419 02bf 503d b5c0
000001c0: a8da 6ac0 887a 87bf 7f27 85be 328e 70c0
000001d0: f0bf 9cbf 5a68 b5bf bd42 babf 2123 b9be
000001e0: c441 c8be a122 0abf 3243 b7bf 8990 80be
000001f0: 9f58 a9be 98c9 c5be d715 52bf 89e0 bcbf
00000200: 0e6f 2dbe 1b65 54bd c6b2 a9be 1994 e23d
00000210: 69ac a2bf bb88 953f 86df 13bf 4d8c 8d3d
00000220: f1bd 073d 55ba 143e c275 3d3d 04a4 abbd
00000230: 7c47 e9be 564f e43d 7cf6 bdbd bfc4 2b3e
00000240: 7641 6f3d f54d 5b3d b380 0ebf 9bcc c33a
00000250: 666d be3d 19fb 61bc 6c50 103e b8a3 86bd
00000260: 4e04 013f 2d87 3a3e 8b66 2d3d 346d 7bbf
00000270: 7c19 05bd 227f 523e d82c ec3e f09b 753e
00000280: 15ac 073f d43d 56be 9d23 1ebf ee85 db3d
00000290: add1 9a3d 8fe4 49bf b1e0 29bc bc23 1bbc
000002a0: 5eb1 2cbe 89ef d8be f5ea 853d 2600 6cbe
000002b0: 9bdd 573e 2685 233e a348 083e d489 acbe
000002c0: 5a51 a43d 22c7 b13e 49c4 3abf f8f9 babe
000002d0: 1a1e 8b3d bdfc 123e 8025 bfbe b43a 74bf
000002e0: ebe5 1e3f 553b 09be 89b9 14bf b3f6 75be
000002f0: 3641 763c 079e adbc bbee 5b3d 9abb 1c3e
00000300: bf06 c13c 143b 623c 617b ebbd 3970 bbbd
00000310: 165e 3fbe 95c5 40bd ba59 ebbe bcd0 8c3c
00000320: 03fd 9ebe 5a07 333e dc85 913d 05fd b63d
00000330: 54cd 0cc0 953b 143e dfed 2ebf e12a 763c
00000340: 78fc 52bc 3e86 7fbc 40b6 cb3d e70b 2dbe
00000350: 6eee 113e d59c 44bf 2ad3 afbf dcc2 6fbf
00000360: d843 823d c9a5 693d efbb 983c 14fb d83e
00000370: 8de8 953e ce2a 9f3d 83e8 87bf 4ce3 2bc0
00000380: 6612 a9be a99b f0bd 8e76 473e cd00 13bf
00000390: 514a 0b3e 1ad7 2b3d 9160 563d b92b eb3d
000003a0: ba29 433d 4980 b1bd 14cc fa3d e4e1 24c0
000003b0: e014 2ebe 063e 81bf 35df 90bd ec0a 4bbb
000003c0: 1aa0 203e c7d0 873e 4804 3f3f bb70 96be
000003d0: e33f 623e 4054 19bf 6ec1 723d f82b bebb
000003e0: 556b 14bf 1f72 023d 4406 a3bf a24f 87bf
000003f0: 375a a23e 7e16 0d3d 1429 e73d 9ac3 b83d
-1.047423 -0.400562 -1.325867 -0.96572304 -3.242694 -1.6651714 -1.7675956 0.021941062
-0.29164258 -1.8254776 -1.3744932 -0.9323401 -0.33260238 -1.4578427 -0.50141615 -0.8667489
-1.3113064 -3.0410058 -0.19230337 -1.665003 -3.972435 -0.516231 -0.9012217 -4.1067553
-1.4788504 -1.1903392 -0.3378822 -0.30144444 -0.48395315 -0.34214258 -0.52059466 -0.35145998
-0.73996645 -0.19829392 -0.51645535 -0.6109074 -1.6276643 -2.5602143 -0.85972536 -0.9475052
-2.2437828 -0.23040077 -1.1162837 -0.306818 -1.6512885 -0.90399295 -0.22178021 -0.27484736
-0.7066796 -2.656926 -0.9024094 -0.43693274 -0.92821586 -0.82041174 -0.40922886 -0.90343183
-3.434967 -1.4140788 -0.7124974 -2.1820982 -0.5420744 -0.47488347 -0.6054549 -4.2915783
-3.7610056 -2.901087 -0.27636465 -3.9651687 -1.8310181 -0.59121066 -1.5137398 -3.0805316
-1.3608313 -0.8217243 -1.2582067 -0.07129123 -0.71569586 -0.75907236 -0.6298161 -1.5370574
-1.5695479 -0.31732842 -0.3057097 -0.326876 -0.6491872 -0.16190743 -1.060117 -2.2688096
-3.8760276 -0.5766099 -0.6932074 -0.7187305 -0.6564003 -2.6071672 -0.7099096 -0.43712422
-0.25716648 -0.7550399 -1.0973464 -0.27663714 -1.8470563 -0.6395493 -0.59841603 -1.7507513
-1.3594136 -1.3101565 -0.9566051 -0.5507519 -3.0299897 -0.14437906 -0.5082028 -5.6637344
-3.6695957 -1.0584269 -0.26006696 -3.758679 -1.2246075 -1.417247 -1.4551617 -0.36159614
-0.39112675 -0.5395909 -1.4317381 -0.25110272 -0.33075425 -0.38630366 -0.82064575 -1.4756023
-0.16936895 -0.051854234 -0.33144206 0.11063404 -1.2708865 1.1682352 -0.57762945 0.06911526
0.033140127 0.14524205 0.04625488 -0.08380893 -0.4556235 0.11147945 -0.09275529 0.16774271
0.058412038 0.053541142 -0.5566513 0.0014938297 0.0929821 -0.0137927765 0.14093179 -0.065741956
0.50397193 0.18215628 0.04233412 -0.98213506 -0.032495007 0.2055631 0.46127963 0.23985267
0.5299695 -0.20922023 -0.6177309 0.107189044 0.07559524 -0.7886438 -0.010368512 -0.009468969
-0.16864535 -0.4237025 0.06538955 -0.23046932 0.2108063 0.15968761 0.13308959 -0.33698905
0.08023329 0.3472224 -0.7295576 -0.36518836 0.06792851 0.14354225 -0.37333298 -0.95402074
0.62069577 -0.1340154 -0.58095604 -0.2401989 0.015030196 -0.021193517 0.053694468 0.1530594
0.023562787 0.013808031 -0.11498142 -0.09152264 -0.18688235 -0.04706343 -0.45966893 0.017189376
-0.31052408 0.17483273 0.0710561 0.089349784 -2.2000322 0.14475854 -0.6833171 0.015024872
-0.012877576 -0.015595971 0.09946871 -0.16899072 0.1425111 -0.76801807 -1.3736317 -0.93656707
0.063605964 0.05704287 0.018644301 0.42379057 0.29278985 0.07771836 -1.0617832 -2.685748
-0.3302185 -0.1174844 0.19478819 -0.57423097 0.13602568 0.041953184 0.052338187 0.11482949
0.047647215 -0.086670466 0.12245956 -2.5762873 -0.1700015 -1.0097053 -0.07073823 -0.0030981852
0.15686074 0.26526472 0.7461591 -0.29382882 0.22094683 -0.5989418 0.0592665 -0.0058035813
-0.57976276 0.031847116 -1.2736287 -1.0571177 0.31709453 0.03444528 0.11287132 0.09021683

policy.net.2.bias f4 [5]
00000000: 6f01 0dc1 8327 a7bd 08dc 883d 9ac6 18bd
00000010: b04a 583e
-8.81285 -0.08161833 0.06682593 -0.037298776 0.21122241

exp_avg f4 [900, 16]
00000000: ede1 0d36 2181 bc35 01b6 2db6 106b 24b7
00000010: 72cb 8db6 11c9 4636 53ea 07b7 a611 9937
00000020: f7f8 d536 8eb4 1fb7 8037 db37 93e2 6736
00000030: aed6 3637 7638 f2b7 ae32 ba37 4766 a8b6
00000040: 7b03 6137 fedd abb5 eb25 1cb5 1144 2a37
00000050: da9d 1537 e403 27b6 a81a 7c35 76b2 bab6
00000060: f612 5636 b683 cc36 51f6 1d37 3b10 3bb6
00000070: b235 a1b7 4c39 f6b6 26e1 1736 0642 30b7
00000080: 5e4d 5d37 8d9b a7b6 e32a 68b6 c3f6 e735
00000090: 03dc 2b37 2345 dc36 3064 9036 6e3f 81b7
000000a0: 4068 8936 d152 9437 4272 4137 359e 93b6
000000b0: d147 5035 4d40 10b7 b327 4a37 e09b 7cb7
000000c0: e3a0 19b6 be82 1eb7 7230 17b7 8e9c 8db6
000000d0: fada 2a36 518d fbb6 9eb4 0635 4010 a436
000000e0: c281 2cb6 2273 5237 ae58 b0b6 6d12 50b5
000000f0: 74e7 82b6 35df aeb6 0bbe ea36 b991 aeb6
00000100: 46f3 33b8 9e2d 93b7 9cb0 ccb7 a928 8937
00000110: 9cae 2bb8 9bfd 0037 51c6 b637 301a 2637
00000120: f950 1f38 82ca f137 4bc9 9536 0641 5bb8
00000130: 4bb4 4e37 2718 86b7 8d8f 9537 0747 dc37
00000140: 0000 0000 0000 0000 0000 0000 0000 0000
00000150: 0000 0000 0000 0000 0000 0000 0000 0000
00000160: 0000 0000 0000 0000 0000 0000 0000 0000
00000170: 0000 0000 0000 0000 0000 0000 0000 0000
00000180: 0000 0000 0000 0000 0000 0000 0000 0000
00000190: 0000 0000 0000 0000 0000 0000 0000 0000
000001a0: 0000 0000 0000 0000 0000 0000 0000 0000
000001b0: 0000 0000 0000 0000 0000 0000 0000 0000
000001c0: 0000 0000 0000 0000 0000 0000 0000 0000
000001d0: 0000 0000 0000 0000 0000 0000 0000 0000
000001e0: 0000 0000 0000 0000 0000 0000 0000 0000
000001f0: 0000 0000 0000 0000 0000 0000 0000 0000
00000200: 0000 0000 0000 0000 0000 0000 0000 0000
00000210: 0000 0000 0000 0000 0000 0000 0000 0000
00000220: 0000 0000 0000 0000 0000 0000 0000 0000
00000230: 0000 0000 0000 0000 0000 0000 0000 0000
00000240: 0000 0000 0000 0000 0000 0000 0000 0000
00000250: 0000 0000 0000 0000 0000 0000 0000 0000
00000260: 0000 0000 0000 0000 0000 0000 0000 0000
00000270: 0000 0000 0000 0000 0000 0000 0000 0000
00000280: 0000 0000 0000 0000 0000 0000 0000 0000
00000290: 0000 0000 0000 0000 0000 0000 0000 0000
000002a0: 0000 0000 0000 0000 0000 0000 0000 0000
000002b0: 0000 0000 0000 0000 0000 0000 0000 0000
000002c0: 0000 0000 0000 0000 0000 0000 0000 0000
000002d0: 0000 0000 0000 0000 0000 0000 0000 0000
000002e0: 0000 0000 0000 0000 0000 0000 0000 0000
000002f0: 0000 0000 0000 0000 0000 0000 0000 0000
00000300: 816e 91b6 a83d 17b7 518c c3b5 5daa 14b6
00000310: 0487 3fb6 fc7a a8b6 0f93 42b7 af2b 5b36
00000320: b68a e3b5 7663 1736 b6f7 d7b3 f0f0 29b7
00000330: 1ea9 0bb5 15e4 1237 b3e0 5935 fe65 ed35
00000340: fcc6 68b6 21a1 69b6 dca1 7237 3737 4436
00000350: 0542 4137 601c 5eb7 67f1 6bb6 bad8 86b5
00000360: aba5 23b6 b9eb 5f37 f217 81b5 fd1d 04b5
00000370: 29f5 2d35 e703 2037 5050 2b37 2b59 76b5
00000380: 8d7b 0ab7 09ce a4b7 0911 a3b5 3ce6 0d35
00000390: 2cbf 3237 f6b8 95b6 858d 8037 76ba deb7
000003a0: ed41 9b36 cc8d e636 c768 a535 325d a3b6
000003b0: 6c42 adb6 54e6 4337 bf85 0138 6975 2a37
000003c0: e5f7 4a33 2a17 8cb7 c0d0 cb35 1105 9fb3
000003d0: 2501 1a36 523b 7eb7 d206 d636 d0d0 c3b6
000003e0: 4c3c f7b6 f027 b3b6 6ed6 84b7 b6cb 32b7
000003f0: 8188 f1b6 c4ad 7037 fbd2 b437 cad7 4236
2.1142143e-06 1.4044673e-06 -2.588495e-06 -9.800089e-06 -4.2258116e-06 2.9621335e-06 -8.101185e-06 1.824724e-05
6.376878e-06 -9.519177e-06 2.6132679e-05 3.4553566e-06 1.0898029e-05 -2.887494e-05 2.2196527e-05 -5.018697e-06
1.3411855e-05 -1.2805101e-06 -5.8169707e-07 1.0148638e-05 8.917845e-06 -2.4887204e-06 9.3916105e-07 -5.5640076e-06
3.1899522e-06 6.095007e-06 9.415279e-06 -2.7874619e-06 -1.92177e-05 -7.3380415e-06 2.2631807e-06 -1.050579e-05
1.319064e-05 -4.9950963e-06 -3.4595657e-06 1.7282658e-06 1.024362e-05 6.5645595e-06 4.303198e-06 -1.5407535e-05
4.0950545e-06 1.768154e-05 1.1530299e-05 -4.399359e-06 7.7590545e-07 -8.59804e-06 1.2049381e-05 -1.5056663e-05
-2.2892425e-06 -9.447975e-06 -9.011581e-06 -4.220353e-06 2.5459435e-06 -7.4968343e-06 5.018172e-07 4.8894726e-06
-2.5705526e-06 1.2543782e-05 -5.2555324e-06 -7.751285e-07 -3.9012466e-06 -5.211589e-06 6.9958674e-06 -5.2025684e-06
-4.290349e-05 -1.7545008e-05 -2.4400935e-05 1.6350607e-05 -4.0932195e-05 7.688442e-06 2.1788439e-05 9.900468e-06
3.7983966e-05 2.8823739e-05 4.4639796e-06 -5.2274227e-05 1.2320535e-05 -1.5985292e-05 1.782903e-05 2.6259118e-05
0.0 0.0 0.0 0.0 0.0 0.0 0.0 0.0
0.0 0.0 0.0 0.0 0.0 0.0 0.0 0.0
0.0 0.0 0.0 0.0 0.0 0.0 0.0 0.0
0.0 0.0 0.0 0.0 0.0 0.0 0.0 0.0
0.0 0.0 0.0 0.0 0.0 0.0 0.0 0.0
0.0 0.0 0.0 0.0 0.0 0.0 0.0 0.0
0.0 0.0 0.0 0.0 0.0 0.0 0.0 0.0
0.0 0.0 0.0 0.0 0.0 0.0 0.0 0.0
0.0 0.0 0.0 0.0 0.0 0.0 0.0 0.0
0.0 0.0 0.0 0.0 0.0 0.0 0.0 0.0
0.0 0.0 0.0 0.0 0.0 0.0 0.0 0.0
0.0 0.0 0.0 0.0 0.0 0.0 0.0 0.0
0.0 0.0 0.0 0.0 0.0 0.0 0.0 0.0
0.0 0.0 0.0 0.0 0.0 0.0 0.0 0.0
-4.334201e-06 -9.014657e-06 -1.456947e-06 -2.2152883e-06 -2.8539807e-06 -5.0211074e-06 -1.1597541e-05 3.265897e-06
-1.6953188e-06 2.2558647e-06 -1.0056776e-07 -1.0129283e-05 -5.2027633e-07 8.755383e-06 8.116578e-07 1.768756e-06
-3.4686518e-06 -3.4813495e-06 1.446201e-05 2.9238415e-06 1.1519068e-05 -1.3238838e-05 -3.5158243e-06 -1.0046854e-06
-2.4385324e-06 1.3346719e-05 -9.618218e-07 -4.921747e-07 6.4804277e-07 9.537652e-06 1.02110935e-05 -9.17719e-07
-8.254207e-06 -1.9646266e-05 -1.2149404e-06 5.286163e-07 1.0654137e-05 -4.4620783e-06 1.532469e-05 -2.655129e-05
4.6270347e-06 6.8710415e-06 1.2323952e-06 -4.868628e-06 -5.1635343e-06 1.1676533e-05 3.0880557e-05 1.0160126e-05
4.725725e-08 -1.6700087e-05 1.5185433e-06 -7.404936e-08 2.2948454e-06 -1.5153391e-05 6.378491e-06 -5.835762e-06
-7.368193e-06 -5.339265e-06 -1.5835478e-05 -1.0657057e-05 -7.198251e-06 1.4345573e-05 2.1555918e-05 2.9033858e-06
