ISE_Transformer/model/2_room/eil_2_room_198_model/EBC_model_83999.pth (torch, 319288 bytes, 27 tensors)

encoder.embedding.weight f4 [900, 16]
0.219464 -0.8267699 0.7151589 1.9839432 0.4566252 0.8372193 0.1356869 0.55716836
1.506757 1.1975154 1.3917804 -0.7881596 1.9628414 -0.5534759 -1.07291 0.69077206
-1.1798855 0.038192 0.5075605 -0.6715728 0.51679856 0.5980034 0.39758077 0.08277533
-0.9652297 -1.5039879 2.1871912 -1.6379583 0.8890016 -0.2042892 -0.36478668 -1.3965552
0.65256447 -0.06722991 -0.5235057 0.63105416 0.0063901343 0.21675886 -0.36373717 -1.9407719
-0.6720506 1.1316154 -0.9918943 -0.04762702 -1.2724679 0.16658533 -3.3778696 -1.1065358
0.3854791 -0.72563916 -1.5032405 -0.81559086 0.7105084 1.6645291 -1.1313345 0.5268359
-1.3939043 0.16002765 0.705133 -1.3979086 -1.1161575 -0.6724299 -0.72924465 -2.5478382
0.9263614 0.5088169 -1.5031937 2.4590487 -0.9386328 -0.072975166 -1.4797785 0.44554886
-0.69728535 -0.21522729 0.13484515 -1.7992276 -2.171987 -0.06375409 -0.5650614 0.122867525
0.14950831 0.68173635 1.5676895 0.47556657 -1.0050126 -1.023286 0.5214422 -0.48220333
-0.7726252 2.7445233 -1.9759138 0.415895 1.5672935 -0.03982712 -0.9722075 -0.71206236
0.2399586 -1.199124 1.0634183 -0.6769421 -0.6633918 0.3362924 0.5184555 1.0378041
0.041475523 0.84185106 -0.13130704 -1.4924617 0.36357212 -0.51106703 -0.41850448 1.181892
-0.2659641 0.8041965 -0.307584 1.3537711 0.66702676 -0.23589839 -0.1712208 0.56163234
0.30705154 0.33780503 0.12988454 0.5764989 0.020306023 1.3983688 1.4169482 -0.0058822334
-0.8824504 -0.48821172 -1.3561088 -0.23345223 1.8297452 1.5896279 0.17809501 0.5119587
-0.5462637 -1.4434364 -1.923773 -1.1291713 1.0067925 -0.008793296 -0.804452 1.9658368
1.6479504 0.5699342 -0.012340214 -1.4708327 -0.046256755 -0.5328155 0.65974027 2.1868584
0.48783317 2.1796973 -1.4626534 -1.3909887 -0.43217906 -0.14899805 0.10180085 -0.17570433
0.32208213 1.2037162 0.0853502 -1.7608309 0.059560195 -1.3081975 0.23057866 0.9599387
0.14141941 0.86194164 -1.0958056 -1.1410904 -0.37610725 -0.2558852 -0.28377268 1.1223673
2.0637617 0.13099124 0.91126615 0.09883216 -0.666103 0.9322513 1.6354256 -1.1004666
0.7353627 2.0250545 -2.9137704 0.1907943 0.16965011 -0.70002025 -0.09773357 0.51418406
1.0259974 0.09789797 -1.2630413 2.0590625 0.5209813 -0.6790174 -1.1077014 -0.9635614
1.5453616 1.0814904 1.4518749 -0.20458601 -0.7895417 -1.6799022 -1.8222053 -1.7076594
1.7766168 0.057325576 -0.8085504 0.8105459 0.51503044 -0.49233082 -0.09778757 -0.38848338
-0.26588196 -0.5267037 0.60088855 -0.71639484 1.1544387 1.2563127 0.60853636 -0.73383904
-1.3716874 -1.6274558 -0.5781452 -0.3739238 1.0666157 0.65070146 -1.6357541 -1.7918173
1.2608308 0.6541383 0.20424019 -1.3370209 -1.1046126 -0.26662958 -0.35094562 0.28800306
-0.067402236 -0.36359048 -0.21925732 0.82945615 1.9555441 0.61115175 -0.23515663 -1.5277275
-0.3833835 -1.8904612 1.2614683 -0.16284549 0.9770896 0.04492288 2.3125026 -0.11003282
00000000: 2cbb 603e 31a7 53bf a714 373f daf1 fd3f
00000010: c7ca e93e 0154 563f 82f1 0a3e 96a2 0e3f
00000020: 6add c03f 2f48 993f dc25 b23f d4c4 49bf
00000030: 633e fb3f 99b0 0dbf 1d55 89bf 70d6 303f
00000040: 7d06 97bf 376f 1c3d 7cef 013f 32ec 2bbf
00000050: e94c 043f c016 193f b58f cb3e 1d86 a93d
00000060: 4b19 77bf ad82 c0bf f1fa 0b40 9ea8 d1bf
00000070: 9c95 633f 3031 51be 52c5 babe 52c2 b2bf
00000080: 770e 273f d6af 89bd 7804 06bf c48c 213f
00000090: 5564 d13b 09f6 5d3e c23b babe 376b f8bf
000000a0: 820b 2cbf c6d8 903f c9ec 7dbf 8d14 43bd
000000b0: 3ae0 a2bf 5895 2a3e 042f 58c0 f7a2 8dbf
000000c0: 845d c53e 7dc3 39bf 2f6a c0bf 90ca 50bf
000000d0: e1e3 353f 4a0f d53f 92cf 90bf b8de 063f
000000e0: 756b b2bf 4ade 233e 9983 343f abee b2bf
000000f0: 40de 8ebf 5e24 2cbf c7af 3abf c80f 23c0
00000100: 0526 6d3f d341 023f a768 c0bf 0e61 1d40
00000110: 3d4a 70bf 0174 95bd 6269 bdbf fb1e e43e
00000120: 4b81 32bf 8b64 5cbe d914 0a3e 174d e6bf
00000130: d601 0bc0 8191 82bd dda7 10bf f8a1 fb3d
00000140: b518 193e 4686 2e3f 0daa c83f 767d f33e
00000150: 41a4 80bf 09fb 82bf 3c7d 053f 5be3 f6be
00000160: c4ca 45bf 45a6 2f40 beea fcbf 30f0 d43e
00000170: 139d c83f c321 23bd 97e2 78bf b849 36bf
00000180: b5b7 753e e57c 99bf 171e 883f 144c 2dbf
00000190: 0cd4 29bf 842e ac3e 80b9 043f c4d6 843f
000001a0: 3de2 293d 8d83 573f 5a75 06be fc08 bfbf
000001b0: 2026 ba3e 4ad5 02bf 3846 d6be 3d48 973f
000001c0: 722c 88be d2df 4d3f a67b 9dbe 5f48 ad3f
000001d0: 44c2 2a3f 598f 71be 8154 2fbe 23c7 0f3f
000001e0: dc35 9d3e c8f4 ac3e 7400 053e 6f95 133f
000001f0: d158 a63c c0fd b23f 8f5e b53f c0bf c0bb
00000200: 45e8 61bf e3f6 f9be f994 adbf 1a0e 6fbe
00000210: 1735 ea3f ed78 cb3f 8a5e 363e ba0f 033f
00000220: f0d7 0bbf 86c2 b8bf 323e f6bf af88 90bf
00000230: 94de 803f c211 10bc 91f0 4dbf 8aa0 fb3f
00000240: 0af0 d23f 35e7 113f 9c2e 4abc 3f44 bcbf
00000250: b977 3dbd 9966 08bf bde4 283f 7df5 0b40
00000260: 45c5 f93e 2980 0b40 3a38 bbbf eb0b b2bf
00000270: 9346 ddbe f292 18be f77c d03d d6eb 33be
00000280: f3e7 a43e 5f13 9a3f 16cc ae3d e862 e1bf
00000290: 64f5 733d 0473 a7bf d01c 6c3e 8bbe 753f
000002a0: 40d0 103e 35a8 5c3f 5c43 8cbf 400f 92bf
000002b0: 2191 c0be 6303 83be a74a 91be bba9 8f3f
000002c0: ac14 0440 9122 063e bd48 693f 8468 ca3d
000002d0: ba85 2abf 05a8 6e3f a055 d13f 17dc 8cbf
000002e0: bb40 3c3f 7e9a 0140 377b 3ac0 955f 433e
000002f0: c2b8 2d3e 8734 33bf 8a28 c8bd 91a1 033f
00000300: e253 833f bb7e c83d 56ab a1bf aec7 0340
00000310: 085f 053f 16d4 2dbf 29c9 8dbf f6ab 76bf
00000320: 69ce c53f 476e 8a3f 09d7 b93f ff7e 51be
00000330: 681f 4abf 0907 d7bf 063e e9bf 9594 dabf
00000340: 2e68 e33f 39ce 6a3d 29fd 4ebf f07f 4f3f
00000350: 09d9 033f c912 fcbe d944 c8bd 4be7 c6be
00000360: ae21 88be 0ed6 06bf d5d3 193f a765 37bf
00000370: a6c4 933f dbce a03f 0ac9 1b3f e0dc 3bbf
00000380: 7493 afbf 7950 d0bf 5301 14bf f172 bfbe
00000390: dd86 883f 5f94 263f 6460 d1bf 455a e5bf
000003a0: e762 a13f 9c75 273f 5724 513e 8023 abbf
000003b0: f263 8dbf ac83 88be 25af b3be 2375 933e
000003c0: 2f0a 8abd 8828 babe fe84 60be 3d57 543f
000003d0: 454f fa3f 7174 1c3f e6cc 70be 938c c3bf
000003e0: d84a c4be a2fa f1bf cb77 a13f f8c0 26be
000003f0: 8b22 7a3f 0e01 383d 0b00 1440 e358 e1bd

encoder.lstm.weight_ih_l0 f4 [128, 16]
-0.4239914 0.23658869 -0.4454076 -0.6740306 -0.048051428 0.44833022 -0.11428063 0.27876183
-0.14714578 -0.29575276 -0.5295007 -0.07776165 0.3521063 0.011258023 -0.021387728 0.4658531
-0.025328947 0.5300049 -0.46583694 -0.16905709 -0.031265363 -0.48415706 0.11465654 0.392883
-0.2085875 -0.8883099 -0.39830184 -0.3358849 0.046878915 -0.9428832 0.1726969 0.021407537
0.056669407 -0.23284185 -0.18832746 0.18609291 -0.15680903 0.17768812 0.25643206 0.08980462
0.1412988 -0.2924874 -0.2944356 0.23308648 -0.03881218 0.0660835 -0.24298538 0.35534233
-0.6768374 0.09887586 0.82885367 0.17014623 -0.029647214 0.26380977 -0.112741835 -0.124947056
-0.06293229 0.17698328 0.0886805 -0.9873694 -0.4965508 -0.10888383 0.29116204 0.046824716
-0.023402484 0.08252281 0.36258268 0.10719635 0.56669044 0.3407294 -0.094501 -0.03734668
-0.46483615 -0.06867237 0.31613135 -0.047216207 -0.21158227 0.18483977 -0.20607509 -0.24045001
0.3004252 0.6171878 0.12490079 0.055413555 -0.026464468 -0.060312666 -0.17350392 -0.020992337
0.039472166 -0.8151796 -0.200037 0.21101414 0.30015856 0.47893077 -0.40068924 0.29551378
-0.14956811 0.25909728 0.015147781 -0.232887 0.49039787 -0.02828829 0.47013727 0.1581184
0.14171143 0.6298464 0.0018838034 0.49374962 0.37233275 0.09381428 0.110996835 0.22588459
-0.37510717 0.06854005 -0.10182545 -0.2885769 0.4348742 0.66779405 -0.009105164 0.43890157
-0.44679853 -0.21289851 -1.0471146 -0.1490032 -0.27704546 1.0455537 0.48737782 -0.2772822
0.1828559 -0.27797985 -0.15266994 0.3821043 0.08051566 -0.27880353 0.2773494 0.5037191
0.11464103 0.23658974 0.17136012 0.16181657 0.42929068 0.5779719 -0.2935292 0.026336035
0.3307348 0.35911423 -0.15786114 0.17945786 -0.3719191 -0.25358987 -0.035764128 0.33189481
-0.25875354 0.1464151 -0.71987486 -0.19823492 0.2663572 0.6579778 0.027507773 0.34409523
0.36239585 0.28641438 0.24065 -0.19029097 0.076838255 0.09990189 -0.027224924 0.33456138
-0.3591771 -0.52345586 -0.29190552 0.014011394 0.5478051 -0.021561826 -0.13408238 0.12491314
-0.15513039 0.7152142 -0.8390755 -0.020730477 0.24073195 -0.4772912 0.0544409 0.48233533
-0.7015286 0.33111435 0.022144781 0.42363495 -0.37624988 -0.14629783 0.17041722 0.19547233
0.018145246 0.5812448 -0.33043653 0.7697012 -0.19223605 0.09397876 -0.7212341 0.250627
0.1250315 0.34355623 0.63643247 0.109665655 0.056525704 0.47851348 0.5432183 0.20954536
0.015137587 0.1228619 -0.06554345 -0.012928094 -0.36578873 -0.0020107229 0.33010697 -0.141631
-0.05962761 -0.21943447 -0.02133666 0.38306278 0.16848733 0.46285954 -0.29211307 0.20185508
0.24704759 -0.25433582 -0.2551903 0.4146829 0.17474207 0.14372583 0.2259846 -0.052818127
-0.08756632 -0.013082017 -0.24589396 -0.13236922 -0.034987863 -0.29297212 -0.090521954 0.14484273
0.18404137 -0.34025225 -0.28954238 0.04770546 -0.19775361 0.68936515 -0.4117384 -0.27056164
-0.015803287 0.06500952 0.23374982 -0.40331456 -0.61027926 0.13898134 0.15068491 0.22626281
00000000: 6715 d9be 4e44 723e 770c e4be 458d 2cbf
00000010: 93d1 44bd 8a8b e53e f70b eabd dfb9 8e3e
00000020: 62ad 16be e86c 97be 5c8d 07bf 8041 9fbd
00000030: 4747 b43e 9273 383c 5135 afbc 4c84 ee3e
00000040: a77e cfbc 67ae 073f 2e82 eebe 4d1d 2dbe
00000050: 1c10 00bd 6fe3 f7be 0cd1 ea3d f627 c93e
00000060: f697 55be 4768 63bf 38ee cbbe 1bf9 abbe
00000070: 1b04 403d cb60 71bf 75d7 303e dc5e af3c
00000080: 2e1e 683d 186e 6ebe ead8 40be 248f 3e3e
00000090: 8c92 20be e0f3 353e 104b 833e 7ceb b73d
000000a0: a2b0 103e e9c0 95be 43c0 96be 39ae 6e3e
000000b0: 85f9 1ebd c956 873d 29d1 78be 6eef b53e
000000c0: 3745 2dbf 6d7f ca3d c12f 543f d03a 2e3e
000000d0: b7de f2bc 1312 873e 31e5 e6bd 3ee4 ffbd
000000e0: a5e2 80bd 1b3b 353e 1f9e b53d 3ec4 7cbf
000000f0: e83b febe 7cfe debd 3113 953e 46cb 3f3d
00000100: 91b6 bfbc b801 a93d 70a4 b93e c389 db3d
00000110: a012 113f 1574 ae3e be89 c1bd d5f8 18bd
00000120: 01ff edbe 19a4 8cbd f8db a13e c865 41bd
00000130: 06a9 58be a346 3d3e 5905 53be 8738 76be
00000140: 55d1 993e 0500 1e3f fccb ff3d 53f9 623d
00000150: 03cc d8bc 6a0a 77bd 03ab 31be 1ff8 abbc
00000160: 91ad 213d 9caf 50bf 80d6 4cbe 1714 583e
00000170: 62ae 993e 6a36 f53e 2427 cdbe 954d 973e
00000180: 6228 19be 66a8 843e 662e 783c ee79 6ebe
00000190: 6e15 fb3e d8bc e7bc d5b5 f03e cae9 213e
000001a0: cd1c 113e 9d3d 213f f4e9 f63a c0cc fc3e
000001b0: 66a2 be3e b421 c03d 4f52 e33d 4a4e 673e
000001c0: 0c0e c0be ba5e 8c3d dd89 d0bd 5ac0 93be
000001d0: d5a7 de3e 8df4 2a3f d32d 15bc b5b7 e03e
000001e0: c7c2 e4be 1102 5abe da07 86bf 4b94 18be
000001f0: e7d8 8dbe b4d4 853f 9689 f93e eff7 8dbe
00000200: 943e 3b3e 6053 8ebe 8255 1cbe 2da3 c33e
00000210: 65e5 a43d 56bf 8ebe be00 8e3e bcf3 003f
00000220: ebc8 ea3d 9544 723e 0779 2f3e 3eb3 253e
00000230: fdcb db3e f7f5 133f 7649 96be abbe d73c
00000240: 1256 a93e d2dd b73e 5aa6 21be cdc3 373e
00000250: 2e6c bebe 88d6 81be 687d 12bd 1eee a93e
00000260: 587b 84be d7ed 153e b849 38bf 18fe 4abe
00000270: f95f 883e 3c71 283f fb57 e13c 402d b03e
00000280: f38b b93e e8a4 923e f46c 763e a3db 42be
00000290: 605d 9d3d 5d99 cc3d ce06 dfbc a14b ab3e
000002a0: 10e6 b7be 3401 06bf a474 95be 0c90 653c
000002b0: f43c 0c3f 6da2 b0bc e44c 09be 76d2 ff3d
000002c0: 80da 1ebe 4718 373f a7cd 56bf f6d2 a9bc
000002d0: 7082 763e 835f f4be 6cfd 5e3d a8f4 f63e
000002e0: 6197 33bf d287 a93e f968 b53c aee6 d83e
000002f0: d3a3 c0be 19cf 15be da81 2e3e e629 483e
00000300: 57a5 943c 76cc 143f fa2e a9be 230b 453f
00000310: 87d9 44be f077 c03d cca2 38bf 2f52 803e
00000320: 4208 003e 9ae6 af3e 3ded 223f 6398 e03d
00000330: 7f87 673d b8ff f43e 5b10 0b3f 0f93 563e
00000340: a403 783c 059f fb3d a53b 86bd 5bd0 53bc
00000350: a948 bbbe 55c6 03bb c803 a93e b807 11be
00000360: 153c 74bd 6eb3 60be 38ca aebc ce20 c43e
00000370: f187 2c3e edfb ec3e d88f 95be 19b3 4e3e
00000380: 0bfa 7c3e 4e38 82be 4ea8 82be 5151 d43e
00000390: 96ef 323e dd2c 133e 8268 673e d257 58bd
000003a0: f955 b3bd f555 56bc a0cb 7bbe cc8b 07be
000003b0: 6f4f 0fbd 7100 96be 9363 b9bd a751 143e
000003c0: 5775 3c3e 8b35 aebe e63e 94be cd66 433d
000003d0: ec7f 4abe 3c7a 303f 60cf d2be 0e87 8abe
000003e0: e575 81bc b623 853d 1d5c 6f3e 3f7f cebe
000003f0: 433b 1cbf 2051 0e3e 254d 1a3e 70b1 673e

encoder.lstm.weight_hh_l0 f4 [128, 32]
-0.9960109 -0.19062336 -0.30254924 0.38469025 0.6608873 -0.24102624 0.0032342207 -0.50275046
-0.13882042 -0.48699114 -0.13165312 -0.32622892 0.4382595 -0.08094233 0.499449 -0.13382
0.35773852 -0.077325486 -0.5234966 -0.7887782 -0.12033585 0.20224562 -0.6602753 -0.49158522
0.28410545 -0.16929132 0.0017557732 -0.099551626 -0.5562039 0.15457034 0.0034560508 -0.27218828
-0.18186194 0.24802259 -0.5998627 -0.12803611 0.6167036 -0.49085748 0.10244181 -0.065246165
-0.011517969 -0.060779236 -0.4027673 -0.07567146 -0.21905644 -0.124791585 0.7603087 -0.06808424
0.22929469 0.5469637 0.3691899 -0.08635037 -0.812123 0.44640395 0.09333396 0.402655
0.7674103 0.00883025 -0.06858549 -0.36229435 -0.75687164 0.7044396 0.67356074 -0.021234449
0.57305986 0.04005931 -0.39012447 -0.25616896 1.1858935 -0.56995267 0.27456075 -0.055225287
-0.4547482 -1.0267853 0.12704484 -1.2253242 0.012681134 -0.8593956 0.18643533 -0.24483304
0.19776107 -0.36455092 0.62773496 -0.35736337 -0.5296586 0.06613968 -0.32618317 -0.113937385
0.46251532 -0.5606063 -0.01578664 -0.8764876 -0.35925865 0.10043525 -0.054605436 -0.49413076
-0.1769444 -0.41204137 0.22444294 -0.24062142 -0.4277169 -0.835497 -0.08920861 0.3226552
0.06614587 0.27897555 0.014801251 -0.5513237 -0.17279902 -0.8393605 -0.20894866 0.31243813
0.62783754 -0.41914457 0.35342455 -0.08890723 -0.17440517 -0.23322138 -0.33779743 0.108962156
-0.12873925 0.59631485 -0.6766799 -0.05284582 -0.40231866 -0.28304836 0.009088752 0.4031532
-0.3346482 0.17210881 -0.21625291 0.1449243 0.6235679 -0.8333603 -0.17340514 0.8192229
-0.3866831 -0.10475211 -0.14454447 0.25171402 0.47815824 0.09274088 0.71979016 0.116478205
0.39448878 -0.1519183 -0.057114895 -0.37928003 -0.4843738 0.34410867 0.16005495 -0.3141857
0.42985985 0.017577277 -0.46432355 0.36884108 -0.58774036 1.0311993 -0.416106 -0.4565151
0.09455185 -0.14995861 -0.5671385 -0.54302925 0.03855176 -0.4588485 0.56866086 1.0984381
-0.38087046 -0.009081894 -0.55584925 -0.16748984 -0.13378204 -0.084850244 0.08693112 -0.1727157
0.25016344 0.056724675 0.21049239 0.08302483 0.09869298 0.5043997 0.42544 -0.5484541
-0.21443605 -0.33694518 -0.4846289 -0.55259484 -0.26385185 0.4206235 -0.51336414 -0.0081563685
0.27820444 0.5327788 -0.39201814 0.18887636 0.101411074 -0.39052927 -0.2187845 0.8176149
-0.33577183 0.02545706 -0.5020178 -0.572289 -0.009169756 -0.56301725 -0.31133965 0.25645432
0.04900312 0.12231676 -0.40550128 0.21592553 -0.63289946 0.7680311 -0.06805169 -0.2950207
1.2798786 -0.5168568 0.08382472 -0.2516801 -0.93074226 0.31783822 0.096702754 -0.11425741
0.06777675 -0.27270952 -0.8215336 -0.25428346 0.9452807 -0.44956946 -0.22909796 0.18358791
-0.21817212 -0.25323197 -0.40902734 0.09867283 0.19176818 -0.48043334 0.59978235 -0.11091135
0.45783293 0.16550177 -0.24743961 -0.100074224 0.048032966 0.23069066 -0.67416465 -0.48653212
-0.31290415 -0.6562663 -0.5348578 -0.92225564 -0.5377363 0.41422883 -0.19799827 -0.318861
00000000: 92fa 7ebf c532 43be bce7 9abe 1ff6 c43e
00000010: e92f 293f 95cf 76be 38f5 533b 41b4 00bf
00000020: f126 0ebe e756 f9be 13d0 06be 7a07 a7be
00000030: 8d63 e03e 18c5 a5bd c8b7 ff3e 1c08 09be
00000040: 8129 b73e d35c 9ebd e003 06bf 5eed 49bf
00000050: a472 f6bd 7a19 4f3e cd07 29bf 0fb1 fbbe
00000060: 4576 913e b45a 2dbe f921 e63a b9e1 cbbd
00000070: 6163 0ebf b047 1e3e e97e 623b 435c 8bbe
00000080: 043a 3abe a2f9 7d3e 9a90 19bf e61b 03be
00000090: 4ae0 1d3f ac51 fbbe 03cd d13d c89f 85bd
000000a0: ddb5 3cbc a6f3 78bd 8437 cebe a3f9 9abd
000000b0: 5550 60be bb92 ffbd 97a3 423f c06f 8bbd
000000c0: 3acc 6a3e d005 0c3f 7506 bd3e 76d8 b0bd
000000d0: 4be7 4fbf 0f8f e43e e025 bf3d cc28 ce3e
000000e0: 0075 443f c1ac 103c 8d76 8cbd a57e b9be
000000f0: 57c2 41bf 2756 343f 7a6e 2c3f def3 adbc
00000100: 0db4 123f 3b15 243d 65be c7be 9428 83be
00000110: 5ccb 973f 6be8 11bf 3a93 8c3e e933 62bd
00000120: c2d4 e8be b36d 83bf 0b18 023e 6cd7 9cbf
00000130: 88c4 4f3c 5a01 5cbf e7e8 3e3e 83b5 7abe
00000140: e181 4a3e 6ba6 babe 3db3 203f 55f8 b6be
00000150: b597 07bf 3e74 873d 7b01 a7be 0158 e9bd
00000160: cfce ec3e e583 0fbf fc52 81bc 7e61 60bf
00000170: c0f0 b7be ffb0 cd3d f3a9 5fbd b5fe fcbe
00000180: ea30 35be 16f7 d2be 5fd4 653e 7665 76be
00000190: b6fd dabe 22e3 55bf 01b3 b6bd 1033 a53e
000001a0: 7c77 873d e2d5 8e3e f280 723c 8d23 0dbf
000001b0: 3af2 30be 54e0 56bf a3f6 55be e4f7 9f3e
000001c0: f6b9 203f 1e9a d6be 10f4 b43e fe14 b6bd
000001d0: 4597 32be 96d1 6ebe c9f3 acbe 8d27 df3d
000001e0: 39d4 03be 17a8 183f e53a 2dbf dc74 58bd
000001f0: b6fc cdbe b7eb 90be fde8 143c 196a ce3e
00000200: 0257 abbe 4b3d 303e 6771 5dbe 0967 143e
00000210: 25a2 1f3f 1a57 55bf 1e91 31be 98b8 513f
00000220: 54fb c5be 4688 d6bd 7703 14be a9e0 803e
00000230: 28d1 f43e eeee bd3d 2b44 383f 208c ee3d
00000240: 6ffa c93e 7990 1bbe 4ff1 69bd fe30 c2be
00000250: d8ff f7be 032f b03e 72e5 233e f3dc a0be
00000260: 9716 dc3e 39fe 8f3c d1bb edbe bdd8 bc3e
00000270: 2776 16bf 57fe 833f d80b d5be 59bc e9be
00000280: 66a4 c13d c08e 19be fd2f 11bf f703 0bbf
00000290: 73e8 1d3d 31ee eabe c293 113f 9f99 8c3f
000002a0: 7401 c3be 39cc 14bc 234c 0ebf 7582 2bbe
000002b0: 29fe 08be f7c5 adbd f108 b23d 62dc 30be
000002c0: 6c15 803e 2258 683d 518b 573e ec08 aa3d
000002d0: 8c1f ca3d 5720 013f 46d3 d93e 7d67 0cbf
000002e0: 2095 5bbe 1484 acbe 4721 f8be db76 0dbf
000002f0: 9717 87be f75b d73e d56b 03bf 4aa2 05bc
00000300: d070 8e3e 3164 083f 9ab6 c8be ce68 413e
00000310: 9cb0 cf3d 74f3 c7be 0b09 60be 364f 513f
00000320: 49ea abbe 538b d03c 3d84 00bf 8881 12bf
00000330: bf3c 16bc e621 10bf e967 9fbe fb4d 833e
00000340: 7fb7 483d 3681 fa3d dd9d cfbe 951b 5d3e
00000350: b305 22bf b09d 443f af5e 8bbd f40c 97be
00000360: 10d3 a33f ba50 04bf 4bac ab3d 37dc 80be
00000370: 2045 6ebf b1bb a23e 180c c63d caff e9bd
00000380: 89ce 8a3d 95a0 8bbe 0750 52bf 7131 82be
00000390: eafd 713f f82d e6be a898 6abe 78fe 3b3e
000003a0: 8368 5fbe 9fa7 81be 086c d1be fb14 ca3d
000003b0: e15e 443e 5cfb f5be 568b 193f 7d25 e3bd
000003c0: 1469 ea3e 4c79 293e cf60 7dbe b7f3 ccbd
000003d0: 37be 443d 2c3a 6c3e 0e96 2cbf bd1a f9be
000003e0: f934 a0be 1101 28bf 71ec 08bf f218 6cbf
000003f0: 16a9 09bf cd15 d43e 0fc0 4abe c041 a3be

encoder.lstm.bias_ih_l0 f4 [128]
0.71507275 0.4104019 0.408023 0.09457457 0.25726762 0.5190709 0.40903258 0.3972808
0.35862818 0.43539283 0.15072714 -0.005878125 -0.045917235 0.7993998 0.15001754 0.09438135
0.46962482 0.5073773 0.6747566 0.0054933312 0.15762629 0.1633213 0.5048468 0.3056273
0.2944317 0.37956417 0.48137188 0.2844216 0.6973681 0.45207733 -0.16244106 0.2124718
0.25874415 -0.26787648 0.31817582 0.21241583 -0.048929133 0.38316157 0.18329115 0.28119338
0.20877163 0.4247367 0.18815263 0.5864097 0.31055275 0.31781498 0.33339906 0.2861978
0.48856035 0.06693314 0.3517815 0.26660538 0.17631175 0.20892172 0.1862445 0.36905304
0.43870836 0.30356738 0.19231097 0.10067974 0.20519383 0.5635308 0.1541704 -0.102910906
0.02789323 -0.014260582 -0.14668646 -0.22489822 0.20271054 -0.10849458 0.08619196 0.09311412
-0.19040191 -0.042989913 0.049064 -0.23639666 -0.19253017 -0.19520463 -0.03445156 0.1930543
0.0073737064 -0.18220948 0.10425235 -0.1564824 -0.5531895 0.35438913 -0.17577434 -0.024576219
0.2456267 -0.25745365 -0.085347116 -0.123431675 -0.26895207 0.36487848 -0.21342811 -0.137165
0.3456401 0.37481427 0.14081952 0.42224985 0.22205877 0.06025815 0.13882619 0.090793
0.6889667 0.32810506 -0.16692416 0.18393153 0.12082753 -0.05066824 -0.33668625 0.07386504
0.081785426 0.5141753 0.22070767 0.1012578 0.03779495 -0.34795225 -0.031265724 0.008169089
-0.030094244 0.22231565 0.11458704 0.024615267 0.08276293 -0.20881388 -0.11090398 0.15808108
00000000: 020f 373f 3320 d23e 64e8 d03e 50b0 c13d
00000010: 95b8 833e d5e1 043f b86c d13e 6468 cb3e
00000020: 1d9e b73e cfeb de3e 3758 1a3e 499d c0bb
00000030: b613 3cbd 77a5 4c3f 339e 193e 024b c13d
00000040: aa72 f03e 7be3 013f d9bc 2c3f 6701 b43b
00000050: c968 213e b33d 273e a43d 013f 2e7b 9c3e
00000060: c0bf 963e 3c56 c23e 6076 f63e b59f 913e
00000070: b786 323f ae76 e73e f356 26be 3592 593e
00000080: 1d7a 843e 1b27 89be f1e7 a23e 8983 593e
00000090: ea69 48bd c12d c43e adb0 3b3e 94f8 8f3e
000000a0: 3bc8 553e 1777 d93e 15ab 403e f21e 163f
000000b0: c500 9f3e a5b8 a23e 48b3 aa3e 8588 923e
000000c0: 9524 fa3e 3e14 893d b41c b43e 8080 883e
000000d0: 118b 343e 93ef 553e e1b6 3e3e 85f4 bc3e
000000e0: 629e e03e 2f6d 9b3e 2bed 443e 2e31 ce3d
000000f0: 551e 523e 8e43 103f d8de 1d3e f4c2 d2bd
00000100: 5880 e43c 37a5 69bc fa34 16be b84b 66be
00000110: 5a93 4f3e 6832 debd 6985 b03d 9eb2 be3d
00000120: b8f8 42be 3116 30bd 55f7 483d f711 72be
00000130: a126 45be b9e3 47be 141d 0dbd 07b0 453e
00000140: 229f f13b 1f95 3abe 4282 d53d ec3c 20be
00000150: d49d 0dbf 7e72 b53e 30fe 33be 1154 c9bc
00000160: 9185 7b3e f7d0 83be 78ca aebd bfc9 fcbd
00000170: 16b4 89be 5ad1 ba3e e68c 5abe fb74 0cbe
00000180: bdf7 b03e a8e7 bf3e fe32 103e 2231 d83e
00000190: 6063 633e 40d1 763d 7428 0e3e aef1 b93d
000001a0: 1f60 303f 63fd a73e 2bee 2abe 8c58 3c3e
000001b0: 6d74 f73d 8089 4fbd 2462 acbe 8e46 973d
000001c0: 1e7f a73d fea0 033f 3101 623e 4060 cf3d
000001d0: e1ce 1a3d cc26 b2be 7d10 00bd a5d7 053c
000001e0: 3488 f6bc b7a6 633e 9cac ea3d f5a5 c93c
000001f0: 9c7f a93d 4ed3 55be a021 e3bd 02e0 213e

encoder.lstm.bias_hh_l0 f4 [128]
0.48354918 0.39588585 0.1599727 0.25256404 0.30486858 0.28808358 0.29117358 0.2921896
0.14011224 0.45063332 0.16713004 0.18211448 -0.024996469 0.9023259 -0.0355799 0.28191093
0.23880158 0.56917673 0.4366088 -0.0910978 0.021344582 0.26983732 0.4733045 0.1286957
0.30016923 0.5610243 0.34525493 0.10141299 0.47358972 0.5881259 -0.097750865 0.27175292
0.14282094 -0.30726644 0.026605321 0.1925735 0.13615105 0.3970999 0.10359956 0.4616606
0.18486884 0.55547106 0.17724507 0.4540348 0.26091397 0.5425303 0.3041525 0.29752105
0.42443246 0.08679458 0.20316829 0.01764521 0.15831259 0.26732507 -0.010041445 0.33806443
0.41129386 0.41147888 0.2874078 0.36889315 0.30875382 0.4176586 0.3444566 0.11826981
0.17354725 -0.2381634 -0.28903085 -0.20525809 0.09887076 -0.16814567 0.17763028 0.045762554
-0.06637954 -0.15678276 -0.123796575 -0.20115483 0.033296995 -0.09091123 0.0022383586 -0.06830871
0.20405725 -0.19701228 0.015616582 -0.11036054 -0.5574455 0.13862036 -0.2935835 -0.18024842
0.20765759 -0.20648496 -0.2974254 -0.19226696 -0.2566711 0.32231414 -0.28981444 -0.21574673
0.39758483 0.33647203 0.15296338 0.28678495 0.30662614 -0.022638846 0.09327446 -0.20265816
0.5610071 0.38546222 -0.10601517 0.07555959 0.017015237 0.10093709 -0.1793656 -0.075049266
-0.07318127 0.73719627 0.02383824 0.25292918 -0.051399503 -0.26775247 -0.04359152 0.22373231
-0.08944661 0.021448605 -0.0096658375 0.13886814 0.13562801 -0.16851054 0.13757487 0.2822124
00000000: c293 f73e 8db1 ca3e e2cf 233e 1350 813e
00000010: bc17 9c3e b17f 933e b414 953e e099 953e
00000020: 9579 0f3e 69b9 e63e 2324 2b3e 387c 3a3e
00000030: 65c5 ccbc d5fe 663f 3bbc 11bd a156 903e
00000040: 6788 743e 91b5 113f 308b df3e 7c91 babd
00000050: d5da ae3c 1e28 8a3e f854 f23e cec8 033e
00000060: c8af 993e 4a9f 0f3f 41c5 b03e 9db1 cf3d
00000070: 5a7a f23e 6b8f 163f 9b31 c8bd 3323 8b3e
00000080: a73f 123e 0752 9dbe 67f3 d93c fd31 453e
00000090: 2e6b 0b3e ae50 cb3e 022c d43d c75e ec3e
000000a0: 424e 3d3e 5a33 0e3f bb7f 353e 4077 e83e
000000b0: 8496 853e 44e3 0a3f e0b9 9b3e ae54 983e
000000c0: 364f d93e 5bc1 b13d 590b 503e b08c 903c
000000d0: b21c 223e d5de 883e df84 24bc c816 ad3e
000000e0: 1c95 d23e 5cad d23e 1d27 933e 90df bc3e
000000f0: fb14 9e3e 59d7 d53e 9e5c b03e 7137 f23d
00000100: 5fb6 313e 1be1 73be dafb 93be 2d2f 52be
00000110: c17c ca3d 612e 2cbe b6e4 353e 8471 3b3d
00000120: fff1 87bd a98b 20be 0f89 fdbd 88fb 4dbe
00000130: 6e62 083d ab2f babd 6db1 123b 70e5 8bbd
00000140: 62f4 503e 96bd 49be b1dc 7f3c b504 e2bd
00000150: c0b4 0ebf 7ff2 0d3e 9450 96be 0b93 38be
00000160: 31a4 543e cb70 53be 2448 98be a1e1 44be
00000170: 656a 83be 5c06 a53e 8f62 94be b6ec 5cbe
00000180: 3d90 cb3e 1046 ac3e 6fa2 1c3e 7ad5 923e
00000190: 1afe 9c3e 1a75 b9bc ae06 bf3d 9f85 4fbe
000001a0: 299e 0f3f 4e5b c53e 7b1e d9bd fcbe 9a3d
000001b0: 8a63 8b3c 1bb8 ce3d 9eab 37be 6eb3 99bd
000001c0: 10e0 95bd e5b8 3c3f 6a48 c33c ef7f 813e
000001d0: 4988 52bd da16 89be 068d 32bd 151a 653e
000001e0: c92f b7bd fcb4 af3c 765d 1ebc 7333 0e3e
000001f0: 12e2 0a3e 078e 2cbe 6de0 0c3e 257e 903e

policy.net.0.weight f4 [128, 32]
-0.21633828 -0.09654703 0.08059493 -0.18131146 0.102499284 -0.03740142 0.2070238 0.3058229
0.30339947 -0.15277761 -0.1893674 -0.37974125 -0.35478002 -0.0037954615 -0.18706849 -0.08141539
-0.24001427 -0.21075526 -0.37820306 0.24751112 0.31820294 -0.031985775 -0.017425993 -0.077371076
-0.06196513 0.28987423 -0.14134738 -0.18025415 0.10294429 -0.087708004 -0.2037635 -0.15996735
-0.020660883 -0.017387789 -0.02112354 0.19416404 0.16632172 0.16121835 -0.24365559 0.22998375
0.30111858 0.09389001 -0.23698807 -0.2970436 -0.12720008 -0.037754014 -0.10640156 -0.20745134
-0.06962517 -0.1066971 -0.03636467 0.089802384 -0.22267294 -0.06776601 -0.007501551 0.14876318
0.1599121 0.1295492 0.3283857 0.24776815 0.08551306 -0.07673379 0.16339421 -0.1901956
-0.2489097 -0.25882515 0.06673459 0.055443883 0.031866323 -0.24652477 -0.15515691 0.33252946
0.6779157 0.055266175 -0.3352112 -0.061604805 -0.4804398 0.049615853 -0.21769015 0.0631811
-0.17109543 -0.13381353 -0.15779553 0.2766887 -0.19311984 -0.03364787 -0.040994592 -0.1388572
-0.11487525 0.42796868 0.08227378 0.011797417 0.18777254 -0.17873727 0.066120885 -0.2668019
0.5599753 -0.44624525 -0.4162656 0.44546068 0.25765076 -0.43257707 -0.65601546 0.0815464
0.668778 -0.32677886 0.06763003 -0.5847757 -0.7035412 -0.3872481 0.15033746 -0.42148247
-0.15527394 0.44411588 -0.12731 0.068376385 -0.60958534 -0.20460045 0.1956691 -0.4954387
-0.27287424 0.088399194 0.2017788 0.6849871 0.29581878 -0.16464508 0.51240444 -0.5847508
0.037451815 0.38450602 -0.12624592 -0.27634168 -0.0970818 0.39853027 -0.42288473 -0.17892003
-0.3936358 -0.19328979 0.3315484 -0.7396611 -0.9533432 -0.012952408 -0.13188204 -0.3318079
-0.40651026 -0.6776676 -0.03129813 -0.23532869 -0.4897776 -0.65256476 -0.040527977 0.05095097
-0.45561722 0.19193469 0.5657258 -0.124555714 0.16328393 -0.5513133 0.23806301 -0.12825948
-0.06785895 -0.4385977 -0.23200408 0.2823207 0.09673872 -0.5140339 0.5484715 -0.20619167
-0.22725698 0.248892 -0.19349606 -0.054874945 0.2272161 -0.5720456 -0.023109347 -0.17387748
0.084849544 0.3641599 -0.096943095 -0.042890538 -0.02942802 -0.19088453 -0.11141116 -0.3792055
-0.57645404 0.14445256 -0.19403636 0.38008282 0.20534593 0.10512874 -0.20110916 0.5295659
0.018771438 0.31182048 0.50755686 -0.5639691 0.6385975 0.15399939 0.1566176 -0.2886555
-0.12932085 -0.07499091 -0.055295706 0.021184677 -0.40360382 0.033269025 -0.5213393 -0.03943572
-0.0687814 -0.38855758 -0.34592026 -0.57404953 -0.050688427 -0.25621367 0.12739897 0.3171963
0.08038814 0.116903074 -0.0062775016 -0.1082227 0.12881503 -0.356039 -0.24320182 -0.16259854
0.020684324 0.28302255 0.35205796 -0.10854912 0.14163926 0.33706918 -0.20297788 -0.32879364
-0.097278334 0.19211423 -0.12799564 -0.27571863 -0.19484316 0.04625131 0.18771586 0.013104585
-0.06347624 -0.10275875 -0.17350025 -0.050715204 0.069133915 0.012656354 -0.39412153 -0.017945247
0.23954836 0.19127133 -0.23595873 -0.07879163 -0.005336479 0.12350972 -0.3156632 0.1727848
00000000: c887 5dbe 73ba c5bd f40e a53d b6a9 39be
00000010: 25eb d13d 3b32 19bd 0cfe 533e d294 9c3e
00000020: 2d57 9b3e bc71 1cbe 87e9 41be 726d c2be
00000030: baa5 b5be 47bd 78bb e28e 3fbe 1dbd a6bd
00000040: 4dc6 75be 3ad0 57be d5a3 c1be 8e73 7d3e
00000050: 7feb a23e 8403 03bd f5c0 8ebc ba74 9ebd
00000060: 26cf 7dbd 656a 943e 5ebd 10be 8b94 38be
00000070: 75d4 d23d 41a0 b3bd 61a7 50be 7bce 23be
00000080: 0341 a9bc d670 8ebc 460b adbc f0d2 463e
00000090: 3e50 2a3e 6c16 253e da80 79be dc80 6b3e
000000a0: 372c 9a3e 6849 c03d 00ad 72be 1916 98be
000000b0: bd40 02be f4a3 1abd 10e9 d9bd 206e 54be
000000c0: a497 8ebd 0284 dabd 1ff3 14bd 50ea b73d
000000d0: 6004 64be e8c8 8abd 92cf f5bb 6055 183e
000000e0: ffbf 233e 8ca8 043e 2c22 a83e efb6 7d3e
000000f0: 7921 af3d 9b26 9dbd d050 273e a3c2 42be
00000100: 2fe2 7ebe bb84 84be 25ac 883d 2019 633d
00000110: 4386 023d fd70 7cbe 74e1 1ebe 4d41 aa3e
00000120: e28b 2d3f c95e 623d cda0 abbe 5255 7cbd
00000130: 35fc f5be fe39 4b3d 2bea 5ebe 1865 813d
00000140: a433 2fbe 6a06 09be 2795 21be 24aa 8d3e
00000150: 35c1 45be 59d2 09bd f2e9 27bd 9530 0ebe
00000160: b743 ebbd b61e db3e 287f a83d f449 413c
00000170: 7247 403e e706 37be 636a 873d 429a 88be
00000180: 8b5a 0f3f 427a e4be c420 d5be 6c13 e43e
00000190: cdea 833e be7a ddbe a1f0 27bf cd01 a73d
000001a0: 0935 2b3f 8f4f a7be 9d81 8a3d dcb3 15bf
000001b0: 471b 34bf 6245 c6be 10f2 193e 8dcc d7be
000001c0: 2200 1fbe 2863 e33e 8d5d 02be eb08 8c3d
000001d0: c90d 1cbf c882 51be 7b5d 483e 24aa fdbe
000001e0: 2cb6 8bbe a30a b53d 1a9f 4e3e 515b 2f3f
000001f0: 8f75 973e b898 28be f02c 033f 3ab2 15bf
00000200: 1367 193d f9dd c43e 9c46 01be a87c 8dbe
00000210: d3d2 c6bd 290c cc3e 5984 d8be d036 37be
00000220: a28a c9be c2ed 45be b6c0 a93e 6e5a 3dbf
00000230: 4d0e 74bf 5636 54bc 160c 07be bae2 a9be
00000240: 1d22 d0be a07b 2dbf 7832 00bd 01fa 70be
00000250: 21c4 fabe 7c0e 27bf aa00 26bd f7b1 503d
00000260: a946 e9be 878a 443e 68d3 103f 1117 ffbd
00000270: e733 273e de22 0dbf cac6 733e 7456 03be
00000280: a2f9 8abd e18f e0be 7a92 6dbe 578c 903e
00000290: f31e c63d ba97 03bf a168 0c3f e923 53be
000002a0: 0eb6 68be 8bdd 7e3e d523 46be 8dc4 60bd
000002b0: 56ab 683e 9571 12bf d04f bdbc f00c 32be
000002c0: 99c5 ad3d 2b73 ba3e 1a8a c6bd fdad 2fbd
000002d0: 0813 f1bc 3c77 43be 892b e4bd 3927 c2be
000002e0: 7e92 13bf 5feb 133e 78b1 46be 379a c23e
000002f0: 3446 523e bd4d d73d 8fef 4dbe a191 073f
00000300: 8fc6 993c efa6 9f3e 3fef 013f 4760 10bf
00000310: 207b 233f 04b2 1d3e 5d60 203e a7ca 93be
00000320: af6c 04be d694 99bd c07d 62bd 7d8b ad3c
00000330: 29a5 cebe 1a45 083d 7e76 05bf 5987 21bd
00000340: 43dd 8cbd 05f1 c6be 761c b1be e9f4 12bf
00000350: ab9e 4fbd 702e 83be e074 023e 8e67 a23e
00000360: 8aa2 a43d e16a ef3d 80b3 cdbb dda3 ddbd
00000370: 16e8 033e be4a b6be e609 79be 3b80 26be
00000380: 2c72 a93c 55e8 903e f140 b43e 004f debd
00000390: e209 113e 5594 ac3e 6fd9 4fbe a457 a8be
000003a0: dd39 c7bd 98b9 443e 4a11 03be fe2a 8dbe
000003b0: f784 47be 0372 3d3d 9638 403e 9db4 563c
000003c0: d5ff 81bd 2e73 d2bd 0daa 31be bfba 4fbd
000003d0: 1596 8d3d 995c 4f3c 4cca c9be e901 93bc
000003e0: 2a4c 753e a2dc 433e 2a9f 71be 825d a1bd
000003f0: a1dd aebb aaf2 fc3d 9b9e a1be 80ee 303e

policy.net.0.bias f4 [128]
-0.19627331 -0.18742272 -0.3607753 0.12220412 -0.14250426 -0.4669873 -0.47681996 -0.36316466
-0.110087514 0.13588187 -0.17340757 -0.29846936 -0.34198686 0.10301431 -0.32605904 -0.31382602
-0.02231156 0.12620893 -0.376936 -0.0660659 0.042734217 -0.28140554 0.008992061 -0.08165419
-0.1315739 -0.46057627 -0.2824057 -0.029027298 -0.26765192 -0.27589384 -0.36253694 -0.50173974
-0.27877784 -0.35468575 -0.24219492 0.11688247 -0.39195696 -0.24172066 -0.0023525378 -0.31165287
0.002099954 -0.062017433 0.06799997 -0.3971352 -0.25307345 0.053659324 -0.39551097 -0.4655295
0.00567039 0.026186649 -0.35712916 -0.37066013 0.04074994 -0.3983465 -0.46172184 -0.30366185
-0.10179299 0.022295997 -0.28329238 -0.41931042 -0.12581378 -0.30977687 0.07279464 -0.15208149
-0.20245162 -0.09382094 -0.16874614 0.004141729 -0.2903247 -0.2110834 -0.5309233 -0.21255398
0.054343753 -0.2268662 -0.15478724 -0.3754299 -0.11745173 0.13507037 0.10949162 0.11230893
-0.047481813 -0.33496788 -0.21731943 -0.026099626 -0.1255088 -0.3882017 -0.35833538 -0.0006564976
0.14079824 -0.077911295 -0.10925391 0.18872227 -0.39386737 0.12907317 -0.28574663 -0.09505905
-0.37346083 -0.22890641 -0.35532117 -0.43265072 0.22251335 -0.23402746 -0.21277262 0.077275366
0.07217468 0.084324665 -0.09187964 -0.35701886 0.109167404 -0.28621686 -0.33380127 0.0882929
0.10599307 -0.12051513 -0.35012242 0.21081962 -0.16855936 -0.07852902 -0.22760403 -0.22710933
-0.35874876 -0.16695115 0.16028473 -0.15357457 -0.28366524 -0.12611239 0.023441546 -0.16555217
00000000: dffb 48be beeb 3fbe 8ab7 b8be 2746 fa3d
00000010: a3ec 11be f618 efbe bf21 f4be b8f0 b9be
00000020: 9075 e1bd 9e24 0b3e c191 31be fad0 98be
00000030: e718 afbe 2bf9 d23d 36f1 a6be cead a0be
00000040: bcc6 b6bc ea3c 013e c1fd c0be 8f4d 87bd
00000050: 130a 2f3d 6314 90be 7053 133c 503a a7bd
00000060: 4fbb 06be a7d0 ebbe 7b97 90be a8ca edbc
00000070: ac09 89be f541 8dbe 719e b9be 0472 00bf
00000080: f8bb 8ebe 5f99 b5be f201 78be 1460 ef3d
00000090: 95ae c8be 9f85 77be 092d 1abb f790 9fbe
000000a0: 629f 093b fe05 7ebd 9143 8b3d 4e55 cbbe
000000b0: d892 81be e1c9 5b3d 6a80 cabe e259 eebe
000000c0: aece b93b 6285 d63c a2d9 b6be 2ac7 bdbe
000000d0: 69e9 263d 13f4 cbbe ce66 ecbe 9179 9bbe
000000e0: d878 d0bd 18a6 b63c b30b 91be dbaf d6be
000000f0: 54d5 00be 139b 9ebe 5b15 953d 40bb 1bbe
00000100: 7a4f 4fbe 3125 c0bd cacb 2cbe 57b7 873b
00000110: 70a5 94be 3f26 58be 97ea 07bf c0a7 59be
00000120: 8e97 5e3d 9d4f 68be 8c80 1ebe 5938 c0be
00000130: 888a f0bd e34f 0a3e 243d e03d 3902 e63d
00000140: 4a7c 42bd e980 abbe fc88 5ebe e2ce d5bc
00000150: 6185 00be 60c2 c6be bc77 b7be cf18 2cba
00000160: 6a2d 103e f58f 9fbd 84c0 dfbd 6940 413e
00000170: fca8 c9be c22b 043e 624d 92be 52ae c2bd
00000180: 4236 bfbe 7166 6abe a8ec b5be 6584 ddbe
00000190: 8ada 633e e5a4 6fbe 11e1 59be 8c42 9e3d
000001a0: 52d0 933d 69b2 ac3d 652b bcbd 2dcb b6be
000001b0: 2993 df3d 048b 92be 00e8 aabe e8d2 b43d
000001c0: e512 d93d a3d0 f6bd 3f43 b3be 19e1 573e
000001d0: d39a 2cbe d3d3 a0bd 0811 69be 598f 68be
000001e0: ebad b7be 3ef5 2abe ae21 243e a742 1dbe
000001f0: 923c 91be 9b23 01be 7c08 c03c 8286 29be

policy.net.2.weight f4 [5, 128]
-0.9186948 -0.40055433 -1.3238195 -0.5738225 -3.2162101 -1.665168 -1.767174 0.022178762
-0.29081714 -0.9183625 -1.3719139 -0.9323401 -0.3322482 -0.90340143 -0.50136936 -0.8667489
-1.3097396 -0.8828993 -0.19186828 -1.5536976 -2.8887799 -0.51618 -0.41942215 -3.4235098
-1.4202737 -1.1898142 -0.33682695 -0.2918771 -0.48373753 -0.34194332 -0.5205932 -0.32492143
-0.7382373 -0.18342052 -0.5133849 -0.5714151 -1.6276643 -2.5526621 -0.8570142 -0.9475
-0.97846353 -0.22242875 -1.0146711 -0.30658177 -1.6512885 -0.73066366 -0.22045708 -0.26030734
-0.6283596 -2.1884224 -0.8983458 -0.43424657 -0.92042685 -0.79840297 -0.4092278 -0.9019682
-3.4174058 -1.38767 -0.71249384 -2.1820319 -0.5179021 -0.4748508 -0.51279294 -4.2068143
-3.7582624 -2.8894846 -0.2763435 -3.4001443 -1.8309774 -0.413488 -1.513226 -3.0773385
-1.3443092 -0.33129612 -1.2574004 -0.06808491 -0.6199565 -0.45467854 -0.5275045 -1.2057608
-1.5695392 -0.31231785 -0.24783337 -0.32585633 -0.42388108 -0.15642917 -1.0599694 -2.2512968
-2.9454954 -0.5732455 -0.69086313 -0.67103714 -0.6480531 -2.5740345 -0.7086152 -0.36922303
-0.2571661 -0.75334936 -1.0948842 -0.27660203 -1.1792792 -0.639548 -0.5937458 -1.2964553
-0.40563515 -1.0623097 -0.8570571 -0.49291986 -2.9505703 -0.13694096 -0.5082028 -4.1249995
-2.6374514 -1.0581652 -0.26006487 -1.9831046 -1.2237397 -1.4139893 -1.3734294 -0.36138776
-0.36197987 -0.53934395 -0.8797311 -0.24756859 -0.33073792 -0.38624954 -0.44679257 -1.3115364
-0.023858918 -0.023331016 -0.1523656 0.06718928 -1.0482161 0.7478617 -0.17452994 -0.0067213983
0.08451493 0.13889979 0.04325259 0.04310416 -0.12520373 0.06606351 0.059410233 0.041361008
0.03035861 0.12964521 -0.5157514 0.10139222 0.10781282 0.025430797 0.11319334 -0.04149648
0.7241281 0.19124153 -0.06314945 -0.47694123 -0.08065331 0.1662275 0.07952816 0.2649863
0.9038375 -0.15452279 -0.5050594 0.070386566 0.08691401 -0.70432997 0.029453944 0.020435715
-0.16437273 -0.26251704 -0.050226476 -0.17859301 0.013233229 0.24614425 0.12709627 -0.2368775
0.10661751 0.39220166 -0.7268407 -0.14924686 0.09947518 0.1200322 -0.4070687 -0.052674066
0.6309295 -0.10038915 -0.05543167 -0.014953046 0.029351996 -0.06333045 0.12124474 0.21069372
0.18275972 -0.11593628 0.016108027 -0.18723732 -0.13955276 0.10114857 -0.47066346 0.05240732
-0.38516226 0.12249846 0.10160055 0.034712303 -1.2560011 0.12017519 -0.7024865 0.03780729
0.029991133 -0.06476219 0.05366241 0.08819678 0.14516647 -0.73544794 -1.2115318 -1.0461982
0.04912046 0.1203825 0.050758563 0.49248844 0.21820293 0.10778426 -0.7144806 -1.8281863
-0.037076607 0.06239423 0.0075803194 -0.46469277 0.10277346 0.08096084 0.04198895 0.054041546
0.032435052 -0.09372827 0.112571135 -1.7982682 -0.20548573 -1.0598683 0.10326693 0.14727157
0.17119995 0.35089234 0.098457046 -0.4070536 0.2706966 -0.12601638 0.048428718 0.045140095
-0.16074802 0.04607821 -1.2204392 -0.84264797 0.18686932 0.075356245 0.10881663 0.06619292
00000000: 952f 6bbf 7515 cdbe eb72 a9bf 08e6 12bf
00000010: 63d6 4dc0 3a24 d5bf c232 e2bf 3cb0 b53c
00000020: fce5 94be ce19 6bbf e09a afbf d7ad 6ebf
00000030: 701c aabe 5145 67bf be59 00bf 42e3 5dbf
00000040: 8ca5 a7bf b005 62bf 1e79 44be 90df c6bf
00000050: c5e1 38c0 5f24 04bf 80be d6be c91a 5bc0
00000060: 87cb b5bf d54b 98bf 9574 acbe ea70 95be
00000070: 72ac f7be 3213 afbe 9945 05bf 1a5c a6be
00000080: 1ffd 3cbf 97d2 3bbe 316d 03bf 4348 12bf
00000090: 4e57 d0bf d15e 23c0 4865 5bbf 5c8f 72bf
000000a0: 967c 7abf 5dc4 63be bee0 81bf 49f8 9cbe
000000b0: 6c5d d3bf c60c 3bbf 80bf 61be 0147 85be
000000c0: 2ddc 20bf 1d0f 0cc0 fef9 65bf 9155 debe
000000d0: 18a1 6bbf 2364 4cbf 4e86 d1be 63e7 66bf
000000e0: c7b6 5ac0 2c9f b1bf ff65 36bf 69a6 0bc0
000000f0: 3b95 04bf a51f f3be 6646 03bf 399e 86c0
00000100: 5f87 70c0 51ed 38c0 e57c 8dbe f79b 59c0
00000110: 785d eabf b3b4 d3be 64b1 c1bf 1df3 44c0
00000120: 5312 acbf a59f a9be 7ff2 a0bf 1a70 8bbd
00000130: 78b5 1ebf a0cb e8be 890a 07bf 5f56 9abf
00000140: a9e6 c8bf 20e8 9fbe 08c8 7dbe a4d6 a6be
00000150: f106 d9be f82e 20be 14ad 87bf 3f15 10c0
00000160: ff82 3cc0 38c0 12bf 68dc 30bf 17c9 2bbf
00000170: cfe6 25bf fbbc 24c0 ce67 35bf cd0a bdbe
00000180: 46ab 83be 81db 40bf 2a25 8cbf c89e 8dbe
00000190: 9ff2 96bf 6bb9 23bf baff 17bf 3ff2 a5bf
000001a0: 69af cfbe c4f9 87bf 1868 5bbf fe5f fcbe
000001b0: 25d6 3cc0 403a 0cbe 9419 02bf ffff 83c0
000001c0: 01cc 28c0 f571 87bf 3927 85be 5fd6 fdbf
000001d0: 81a3 9cbf 9afd b4bf 89cc afbf d107 b9be
000001e0: 6d55 b9be 7212 0abf 0f36 61bf 9f82 7dbe
000001f0: 7b56 a9be 80c2 c5be ffc1 e4be 6de0 a7bf
00000200: c773 c3bc b020 bfbc ba05 1cbe 899a 893d
00000210: f22b 86bf dd73 3f3f fab7 32be 2d3f dcbb
00000220: 2a16 ad3d bf3b 0e3e a129 313d fd8d 303d
00000230: 6835 00be 4e4c 873d 2558 733d 296a 293d
00000240: 9fb2 f83c b7c1 043e 4908 04bf b9a6 cf3d
00000250: f8cc dc3d 3f54 d03c e9d1 e73d 37f8 29bd
00000260: 7660 393f d2d4 433e 8054 81bd a431 f4be
00000270: 902d a5bd 8b37 2a3e a9df a23d 49ac 873e
00000280: e561 673f 393b 1ebe 934b 01bf d526 903d
00000290: f9ff b13d f84e 34bf 6649 f13c cd68 a73c
000002a0: 5351 28be a268 86be 47ba 4dbd 16e1 36be
000002b0: 2fd0 583c 3d0d 7c3e 8625 023e 0490 72be
000002c0: 485a da3d a8ce c83e 3b12 3abf 2bd4 18be
000002d0: a5b9 cb3d 71d3 f53d 4f6b d0be c3c0 57bd
000002e0: 9984 213f d498 cdbd 520c 63bd 9ffd 74bc
000002f0: 9973 f03c 65b3 81bd 2a4f f83d 18c0 573e
00000300: 5d25 3b3e 0070 edbd fbf4 833c 24bb 3fbe
00000310: ebe6 0ebe fb26 cf3d cdfa f0be 0fa9 563d
00000320: fd33 c5be 79e0 fa3d f313 d03d 7d2e 0e3d
00000330: a5c4 a0bf 691e f63d 28d6 33bf d1db 1a3d
00000340: f7af f53c 0aa2 84bd 1dcd 5b3d 83a0 b43d
00000350: 85a6 143e 5146 3cbf 7913 9bbf d3e9 85bf
00000360: 8932 493d 1a8b f63d 36e8 4f3d 7227 fc3e
00000370: 9770 5f3e febd dc3d 33e8 36bf 0202 eabf
00000380: a4dd 17bd 1891 7f3d 5464 f83b 36ec edbe
00000390: e47a d23d ccce a53d 9bfc 2b3d ab5a 5d3d
000003a0: 9eda 043d 9bf4 bfbd b28b e63d a72d e6bf
000003b0: da6a 52be c4a9 87bf 9d7d d33d 5cce 163e
000003c0: 0a4f 2f3e 29a8 b33e d9a3 c93d 5469 d0be
000003d0: bf98 8a3e 700a 01be 315d 463d d2e4 383d
000003e0: 219b 24be 81bc 3c3d 5a37 9cbf c7b7 57bf
000003f0: ac5a 3f3e 6054 9a3d 41db de3d 2790 873d

policy.net.2.bias f4 [5]
-4.337151 -0.10474416 0.11436484 -0.038168628 0.19018891
00000000: f1c9 8ac0 1b84 d6bd 1d38 ea3d b556 1cbd
00000010: e2c0 423e

exp_avg f4 [900, 16]
0.00040111513 0.0025359849 0.0043697907 0.0049391515 -6.8795176e-05 0.0025466264 0.00059973326 -0.00027503324
0.0029301418 -0.0010187497 -0.002186842 0.003720231 0.0034079459 -0.00081563543 -0.0053940797 0.00041970596
-0.0013892471 0.003869784 0.0017529733 0.0031923736 0.001661903 -0.0005438598 0.00049023854 0.0004191608
-0.00036843793 -0.0010566927 0.0016445805 0.0017859853 0.002026781 0.0011186097 -4.2935226e-05 -7.86987e-05
-0.0031308976 -0.003548232 0.0027963624 0.0036775686 0.002304848 0.0023805434 0.006844413 0.0014805932
0.0015481659 -0.0027442868 -0.0022681174 0.0008537283 0.0052210814 -0.0021327685 -0.0019163698 -0.0007795255
-0.0023243863 -0.0012245384 0.0029509997 0.00025388322 -0.00044192583 0.0017796675 0.0025527237 -7.734363e-05
0.00041682782 -0.0015910863 -0.0010703744 -0.00076222885 0.0019532954 -0.00033272232 0.00066117075 0.00057532516
-0.00087285566 -0.00063243194 0.0013705525 0.0006360915 -0.0028832906 0.0023421592 -0.0011665658 0.003826425
-0.0011374548 0.00062282424 -0.0015038258 0.0010159977 -0.0001790085 -0.0009776775 0.0010296206 0.0012945238
0.0 0.0 0.0 0.0 0.0 0.0 0.0 0.0
0.0 0.0 0.0 0.0 0.0 0.0 0.0 0.0
0.0 0.0 0.0 0.0 0.0 0.0 0.0 0.0
0.0 0.0 0.0 0.0 0.0 0.0 0.0 0.0
0.0 0.0 0.0 0.0 0.0 0.0 0.0 0.0
0.0 0.0 0.0 0.0 0.0 0.0 0.0 0.0
0.0 0.0 0.0 0.0 0.0 0.0 0.0 0.0
0.0 0.0 0.0 0.0 0.0 0.0 0.0 0.0
0.0 0.0 0.0 0.0 0.0 0.0 0.0 0.0
0.0 0.0 0.0 0.0 0.0 0.0 0.0 0.0
0.0 0.0 0.0 0.0 0.0 0.0 0.0 0.0
0.0 0.0 0.0 0.0 0.0 0.0 0.0 0.0
0.0 0.0 0.0 0.0 0.0 0.0 0.0 0.0
0.0 0.0 0.0 0.0 0.0 0.0 0.0 0.0
3.111538e-05 2.2490836e-05 2.9262259e-05 3.6976176e-05 1.6972456e-06 1.8281646e-05 -2.4832303e-05 1.498466e-05
4.7326243e-06 3.058221e-05 5.257206e-06 3.6261295e-07 -3.0319474e-05 -1.0268626e-05 -1.6314338e-05 8.792507e-07
-2.9841125e-05 1.0639456e-05 2.2672652e-06 1.9660081e-05 -4.211723e-05 -5.444673e-05 -4.918267e-05 4.0605817e-05
-2.4380253e-05 4.027844e-05 -4.435536e-05 1.3681726e-05 -2.6117414e-05 6.194882e-05 -3.2336346e-05 5.063145e-06
2.0057183e-05 2.2878787e-05 2.284272e-05 2.6472953e-05 1.0730908e-05 -2.6906495e-05 -1.7999519e-05 8.138878e-06
-1.6132042e-05 4.412731e-05 -2.3430375e-05 7.027064e-06 -4.3110307e-05 4.9494138e-05 1.0499041e-05 -1.290727e-06
3.0182395e-05 1.9839688e-05 -1.2251524e-05 -1.2059052e-05 -2.1436224e-05 6.8030745e-06 -4.301975e-05 -1.425459e-05
-1.6568332e-05 -2.1243098e-07 2.1603015e-05 -1.3294853e-05 -4.2828757e-05 1.8995033e-05 -2.0169859e-05 -4.6221387e-05
00000000: c34c d239 c432 263b 7630 8f3b 9bd8 a13b
00000010: 2146 90b8 4de5 263b 6b37 1d3a 5632 90b9
00000020: 9f07 403b 9187 85ba 1f51 0fbb 1ecf 733b
00000030: d857 5f3b 5ed0 55ba d2c0 b0bb fb0b dc39
00000040: 6617 b6ba 349c 7d3b 06c4 e53a 2437 513b
00000050: 36d4 d93a d091 0eba 5a83 003a cfc2 db39
00000060: e72a c1b9 b980 8aba f78e d73a b917 ea3a
00000070: bed3 043b 509e 923a 5915 34b8 0b0b a5b8
00000080: bf2f 4dbb 7489 68bb 2d43 373b 5d03 713b
00000090: ef0c 173b e402 1c3b 1947 e03b 7710 c23a
000000a0: d4eb ca3a 7ed9 33bb b2a4 14bb bdcc 5f3a
000000b0: 9b15 ab3b ebc5 0bbb b32e fbba 1259 4cba
000000c0: bb54 18bb b180 a0ba 8f65 413b a11b 8539
000000d0: 48b2 e7b9 bb43 e93a 994b 273b 8c33 a2b8
000000e0: af89 da39 ff8b d0ba ce4b 8cba 50d0 47ba
000000f0: dc02 003b 3c71 aeb9 6b52 2d3a 6bd1 163a
00000100: 5ad0 64ba cac9 25ba 1ca4 b33a 61bf 263a
00000110: 97f5 3cbb e97e 193b 74e7 98ba c2c4 7a3b
00000120: a616 95ba 0745 233a 051c c5ba 3a2b 853a
00000130: 3ab4 3bb9 6a25 80ba 56f4 863a 03ad a93a
00000140: 0000 0000 0000 0000 0000 0000 0000 0000
00000150: 0000 0000 0000 0000 0000 0000 0000 0000
00000160: 0000 0000 0000 0000 0000 0000 0000 0000
00000170: 0000 0000 0000 0000 0000 0000 0000 0000
00000180: 0000 0000 0000 0000 0000 0000 0000 0000
00000190: 0000 0000 0000 0000 0000 0000 0000 0000
000001a0: 0000 0000 0000 0000 0000 0000 0000 0000
000001b0: 0000 0000 0000 0000 0000 0000 0000 0000
000001c0: 0000 0000 0000 0000 0000 0000 0000 0000
000001d0: 0000 0000 0000 0000 0000 0000 0000 0000
000001e0: 0000 0000 0000 0000 0000 0000 0000 0000
000001f0: 0000 0000 0000 0000 0000 0000 0000 0000
00000200: 0000 0000 0000 0000 0000 0000 0000 0000
00000210: 0000 0000 0000 0000 0000 0000 0000 0000
00000220: 0000 0000 0000 0000 0000 0000 0000 0000
00000230: 0000 0000 0000 0000 0000 0000 0000 0000
00000240: 0000 0000 0000 0000 0000 0000 0000 0000
00000250: 0000 0000 0000 0000 0000 0000 0000 0000
00000260: 0000 0000 0000 0000 0000 0000 0000 0000
00000270: 0000 0000 0000 0000 0000 0000 0000 0000
00000280: 0000 0000 0000 0000 0000 0000 0000 0000
00000290: 0000 0000 0000 0000 0000 0000 0000 0000
000002a0: 0000 0000 0000 0000 0000 0000 0000 0000
000002b0: 0000 0000 0000 0000 0000 0000 0000 0000
000002c0: 0000 0000 0000 0000 0000 0000 0000 0000
000002d0: 0000 0000 0000 0000 0000 0000 0000 0000
000002e0: 0000 0000 0000 0000 0000 0000 0000 0000
000002f0: 0000 0000 0000 0000 0000 0000 0000 0000
00000300: e381 0238 b4aa bc37 3978 f537 de16 1b38
00000310: eacc e335 895b 9937 f74e d0b7 a066 7b37
00000320: efcc 9e36 6645 0038 0e67 b036 25ad c234
00000330: 9356 feb7 6a47 2cb7 c6da 88b7 a605 6c35
00000340: 5453 fab7 1e80 3237 5227 1836 b4eb a437
00000350: 08a7 30b8 bb5d 64b8 7d49 4eb8 2a50 2a38
00000360: 3284 ccb7 a5f0 2838 350a 3ab8 918a 6537
00000370: b816 dbb7 85ea 8138 e3a0 07b8 16e4 a936
00000380: 7940 a837 d2eb bf37 5e9e bf37 3c12 de37
00000390: e608 3437 42b5 e1b7 acfd 96b7 378c 0837
000003a0: 4c53 87b7 5715 3938 598c c4b7 05ca eb36
000003b0: 57d1 34b8 ed97 4f38 0a25 3037 0b3d adb5
000003c0: 3330 fd37 686d a637 e58b 4db7 3c51 4ab7
000003d0: f1d1 b3b7 f745 e436 1b70 34b8 ff26 6fb7
000003e0: 39fc 8ab7 9518 64b4 1f38 b537 f50c 5fb7
000003f0: 07a3 33b8 8657 9f37 7132 a9b7 d6dd 41b8
