ISE_Transformer/model/2_room/eil_2_room_198_model/EBC_model_123999.pth (torch, 319327 bytes, 27 tensors)

encoder.embedding.weight f4 [900, 16]
00000000: 8a03 353e 4a2b 89bf 1abc 4a3f 4d65 f93f
00000010: 204e cf3e 5d46 463f c514 573e 1b23 043f
00000020: d5ab b73f 3dbf a33f 68c4 b43f 0659 52bf
00000030: 9d25 dd3f 8a09 ffbe e335 7cbf 618d 273f
00000040: 07f5 8bbf 201c 49bd 3859 ea3e ef22 10bf
00000050: a851 ee3e 429b 173f 9796 933e 13a4 c2bd
00000060: aedc 83bf 0db3 c9bf f697 0d40 55f1 c9bf
00000070: 1c1e 833f 5f8d 71be 8955 6cbe 9035 acbf
00000080: 0afe 253f 4c67 17be ef9a 08bf 18e6 083f
00000090: 1c09 c43d 1526 af3d 2cd7 cdbe dc04 f0bf
000000a0: a24e 59bf 3440 8f3f b42d 80bf cd0d 21be
000000b0: 12a3 8bbf a92a 3d3e ebf8 60c0 01ca 91bf
000000c0: c774 103f 1e46 19bf e1ae c0bf d564 86bf
000000d0: fa6f 2a3f 8cb0 e03f 283b 9bbf 4784 0d3f
000000e0: 4242 bfbf b51e 723d 270e 443f da55 c2bf
000000f0: 8481 92bf 399c 46bf 49fe 56bf 8a18 22c0
00000100: 1301 6b3f 0f63 0a3f 5c35 dcbf caea 1a40
00000110: ded6 89bf 0353 903d f278 d0bf 3420 e83e
00000120: c7d9 65bf f06a 3abe f1fb a03d d955 ddbf
00000130: aa52 05c0 845d 3abd 1184 0abf 074e ba3d
00000140: b518 193e 4686 2e3f 0daa c83f 767d f33e
00000150: 41a4 80bf 09fb 82bf 3c7d 053f 5be3 f6be
00000160: c4ca 45bf 45a6 2f40 beea fcbf 30f0 d43e
00000170: 139d c83f c321 23bd 97e2 78bf b849 36bf
00000180: b5b7 753e e57c 99bf 171e 883f 144c 2dbf
00000190: 0cd4 29bf 842e ac3e 80b9 043f c4d6 843f
000001a0: 3de2 293d 8d83 573f 5a75 06be fc08 bfbf
000001b0: 2026 ba3e 4ad5 02bf 3846 d6be 3d48 973f
000001c0: 722c 88be d2df 4d3f a67b 9dbe 5f48 ad3f
000001d0: 44c2 2a3f 598f 71be 8154 2fbe 23c7 0f3f
000001e0: dc35 9d3e c8f4 ac3e 7400 053e 6f95 133f
000001f0: d158 a63c c0fd b23f 8f5e b53f c0bf c0bb
00000200: 45e8 61bf e3f6 f9be f994 adbf 1a0e 6fbe
00000210: 1735 ea3f ed78 cb3f 8a5e 363e ba0f 033f
00000220: f0d7 0bbf 86c2 b8bf 323e f6bf af88 90bf
00000230: 94de 803f c211 10bc 91f0 4dbf 8aa0 fb3f
00000240: 0af0 d23f 35e7 113f 9c2e 4abc 3f44 bcbf
00000250: b977 3dbd 9966 08bf bde4 283f 7df5 0b40
00000260: 45c5 f93e 2980 0b40 3a38 bbbf eb0b b2bf
00000270: 9346 ddbe f292 18be f77c d03d d6eb 33be
00000280: f3e7 a43e 5f13 9a3f 16cc ae3d e862 e1bf
00000290: 64f5 733d 0473 a7bf d01c 6c3e 8bbe 753f
000002a0: 40d0 103e 35a8 5c3f 5c43 8cbf 400f 92bf
000002b0: 2191 c0be 6303 83be a74a 91be bba9 8f3f
000002c0: ac14 0440 9122 063e bd48 693f 8468 ca3d
000002d0: ba85 2abf 05a8 6e3f a055 d13f 17dc 8cbf
000002e0: bb40 3c3f 7e9a 0140 377b 3ac0 955f 433e
000002f0: c2b8 2d3e 8734 33bf 8a28 c8bd 91a1 033f
00000300: 6490 543f 607d 0dbe d86e 8cbf 5f00 f93f
00000310: 022d ff3e 83b6 0fbf c7a2 89bf 7283 94bf
00000320: 052f d63f e2a5 943f c657 c13f c878 b6bd
00000330: b71e 52bf 5510 dcbf cd3e ebbf fd1f ddbf
00000340: 9686 e43f 34fd 00be d729 25bf 8cf8 0c3f
00000350: 8054 353f de69 f7be 4026 43be e88f d9be
00000360: 9532 47be e980 27bf f166 2d3f 376e 0cbf
00000370: 27e8 853f df6b aa3f 58bb 1f3f bab4 2ebf
00000380: f714 aabf c3f9 e5bf c1a4 b7be 171c 0abf
00000390: f8cd 8b3f 71c7 383f 525c d6bf e9da efbf
000003a0: 1915 9e3f 6d37 1b3f 0154 d73e 04db aebf
000003b0: 670e 81bf 236f 97be 8e73 81be ddac b33e
000003c0: 9beb a6bc 0af4 cabe 9832 6ebd 47d3 7a3f
000003d0: b619 ed3f 0c07 143f cec5 21bd 1ae2 cebf
000003e0: 0f31 10bf 6fd1 edbf 2309 ae3f 8583 5abe
000003f0: 54af 703f 2482 4fbd d4dc 1940 c338 eabd
0.17677131 -1.0716336 0.7919327 1.948404 0.40489292 0.77451116 0.21004017 0.51616067
1.4349314 1.2792736 1.4122438 -0.8216709 1.7277104 -0.49811965 -0.98519725 0.654501
-1.0934151 -0.049099088 0.45771194 -0.56303304 0.46546674 0.5922128 0.28825828 -0.09503951
-1.0301721 -1.5757767 2.2124 -1.5776774 1.0243564 -0.23589085 -0.23079504 -1.3453846
0.6484076 -0.14785498 -0.5336141 0.53476095 0.0957205 0.085521854 -0.40203226 -1.8751483
-0.8488561 1.1191468 -1.0013947 -0.15727921 -1.090914 0.18473305 -3.5151927 -1.1389772
0.5642819 -0.59872615 -1.5053369 -1.0499521 0.6657711 1.7553878 -1.2127428 0.55279964
-1.4942095 0.059111316 0.76584095 -1.518245 -1.1445775 -0.77582127 -0.8398176 -2.5327477
0.91798514 0.540574 -1.7203784 2.4205804 -1.0768697 0.07047083 -1.628691 0.4533707
-0.89785427 -0.18204856 0.07860554 -1.7291824 -2.0831704 -0.04549934 -0.5410777 0.09096914
0.14950831 0.68173635 1.5676895 0.47556657 -1.0050126 -1.023286 0.5214422 -0.48220333
-0.7726252 2.7445233 -1.9759138 0.415895 1.5672935 -0.03982712 -0.9722075 -0.71206236
0.2399586 -1.199124 1.0634183 -0.6769421 -0.6633918 0.3362924 0.5184555 1.0378041
0.041475523 0.84185106 -0.13130704 -1.4924617 0.36357212 -0.51106703 -0.41850448 1.181892
-0.2659641 0.8041965 -0.307584 1.3537711 0.66702676 -0.23589839 -0.1712208 0.56163234
0.30705154 0.33780503 0.12988454 0.5764989 0.020306023 1.3983688 1.4169482 -0.0058822334
-0.8824504 -0.48821172 -1.3561088 -0.23345223 1.8297452 1.5896279 0.17809501 0.5119587
-0.5462637 -1.4434364 -1.923773 -1.1291713 1.0067925 -0.008793296 -0.804452 1.9658368
1.6479504 0.5699342 -0.012340214 -1.4708327 -0.046256755 -0.5328155 0.65974027 2.1868584
0.48783317 2.1796973 -1.4626534 -1.3909887 -0.43217906 -0.14899805 0.10180085 -0.17570433
0.32208213 1.2037162 0.0853502 -1.7608309 0.059560195 -1.3081975 0.23057866 0.9599387
0.14141941 0.86194164 -1.0958056 -1.1410904 -0.37610725 -0.2558852 -0.28377268 1.1223673
2.0637617 0.13099124 0.91126615 0.09883216 -0.666103 0.9322513 1.6354256 -1.1004666
0.7353627 2.0250545 -2.9137704 0.1907943 0.16965011 -0.70002025 -0.09773357 0.51418406
0.8303282 -0.13817358 -1.0971327 1.9453238 0.49839026 -0.56137866 -1.0752801 -1.1602614
1.6733099 1.1613123 1.5104911 -0.08909756 -0.8207812 -1.7192484 -1.837854 -1.7275387
1.7853572 -0.1259659 -0.6451697 0.5506675 0.7083206 -0.48322958 -0.1905756 -0.42492604
-0.1945289 -0.65431076 0.677352 -0.54855675 1.0461472 1.331417 0.6239524 -0.68244517
-1.3287648 -1.7966846 -0.35867885 -0.5394911 1.0922232 0.72179323 -1.6746924 -1.8738681
1.2350188 0.6063145 0.42056277 -1.3660588 -1.008252 -0.29576978 -0.25283474 0.35092822
-0.020376017 -0.39639312 -0.05815372 0.97978634 1.8523471 0.5782325 -0.039495282 -1.6162751
-0.5632486 -1.8579539 1.3596538 -0.21339233 0.9401753 -0.05066122 2.4041033 -0.11436608

encoder.lstm.weight_ih_l0 f4 [128, 16]
00000000: e5fe f1be 4a27 873e bfec dbbe 43a5 31bf
00000010: 8dae 31be bdc7 ea3e 077f fabd b051 863e
00000020: 0989 1ebe 1749 b0be b658 30bf 5b10 2abe
00000030: e096 d43e 801b 90be c6e7 d4bc 2d43 043f
00000040: 6784 42bb 4b78 213f d81e 11bf 4925 80be
00000050: 8568 2fbe 9118 f4be 26a0 2e3e c01f ac3e
00000060: e02e 2bbe 7936 85bf 7555 8ebe e94c 9abe
00000070: 1d55 0dbd beee 86bf 2116 723e a2e5 21bd
00000080: 142a bd3c d381 a4be a0c2 f2bd 38d4 373e
00000090: cddb 283d 9fe4 dd3d 561a e33e e491 583d
000000a0: 5d5b 033e e8c0 8dbe 6ef7 abbe 0d36 cc3e
000000b0: bf1d aebc c837 e63d 6c77 52be 4c65 fa3e
000000c0: a71f 00bf d26c 773e 01d9 4d3f 1122 5e3e
000000d0: 11ad b7bd cdf9 433e 1edb 90be a2d6 b9bd
000000e0: cc97 9b3d 05e9 b83e a2a5 773d 0728 91bf
000000f0: f645 1cbf 9225 30be 98a3 8f3e d925 2d3e
00000100: 3eb8 923d ef27 2c3e dedd 803e d73c 8c3e
00000110: ace6 bd3e 0011 a53e 18f5 19be e42a b53c
00000120: ce93 01bf b396 e03c 25e5 aa3e cb27 48be
00000130: 9e47 e6bd 7cae a93e dcd5 43be 0061 3fbe
00000140: 6457 b53e 3f42 e03e 5787 d13d 7c97 043e
00000150: 203b 6fbe 2044 f93d b35d ddbe 3214 2f3e
00000160: 6a9c 793d 7def 7bbf 9f71 73be 71f8 1d3e
00000170: 7565 e13e 4e89 fa3e b8f0 34be 2659 c63e
00000180: 69cc b6bc 63bc 9d3e cce3 ae3d db1e 80be
00000190: 131c 0a3f 8401 d0bd 2f5f 013f e953 8e3e
000001a0: b1d2 323e c9e3 2a3f 6e79 8ebd 8f1b b13e
000001b0: a8cb d93e 1b81 2a3e 25a4 4a3c 18dc 953e
000001c0: 11cf 26be 573a 6f3d e6e6 2a3d a281 1bbe
000001d0: 0788 b93e 6ca0 413f d934 0dbd e4cf 823e
000001e0: 5520 0bbf 381a 15be 8a3b 73bf 69dc 82be
000001f0: af55 10bf c07f 8f3f 623f fa3e 5c91 b8be
00000200: 702d 3e3e 22cb 7bbe b8dd 5ebe da1a 933e
00000210: b938 a83d 9896 adbd f32e 043d 8354 2f3f
00000220: 7f39 843d 9af4 603e 38f1 b13d 40ce 003e
00000230: 8857 ce3e cdbe 053f 992d c0be 26dc dd3d
00000240: 11cb 9e3e cf93 fa3e f975 04be 7959 563d
00000250: 1805 cdbe a515 54be baba 523d ca3b db3e
00000260: 050d f0be 2c21 ee3d e249 0dbf ddcb 7dbe
00000270: 4639 733e 50fb 1e3f a545 4e3d 07ef bd3e
00000280: 2a47 8c3e 7134 a63e 0401 9b3e f80a 80be
00000290: f890 6a3d 3cf1 c13c 0000 ccbd ed74 b73e
000002a0: f7a5 91be ca3b 18bf 6b2b 19be 696d 393d
000002b0: 1c47 2e3f 6e2e 68be f3be 53be 1442 2dbd
000002c0: 6ece 76be 056f 663f cf07 2cbf b163 91be
000002d0: 5c17 7c3e 3cc8 0cbf e9f3 ed3d f93a 1d3f
000002e0: 7a64 67bf 4132 be3e 410b 4ebd 64ad f83e
000002f0: df49 d9be c1fe aabc c90f ab3d 3586 0e3d
00000300: c8cb 093d c808 223f d2b3 bdbe 91ca 5f3f
00000310: 5a80 5dbe 79fa 143e 06c8 51bf e197 643e
00000320: d8b5 4b3e 9def 993e 5ba6 073f 4539 983d
00000330: 5d00 aa3d 6999 033f 0a60 183f f8cb 6b3e
00000340: ad9a 02be b347 1f3e 74e1 65bd dad7 9dbd
00000350: 3b62 e4be 9dfc 44bc f819 013f cd78 30be
00000360: e52f e2bb 1c77 6cbe 5b0c d5bd f422 ab3e
00000370: 13eb ab3e f992 c23e c550 adbe aff1 343e
00000380: bc8a a53e 858e 99bd 4fc8 51be cf6b c13e
00000390: 854c 3a3d c25e 1f3e 35ff 1b3e 397d 29be
000003a0: a541 ce3c af71 c9bd 6c81 80be 3cee 1ebe
000003b0: f622 5a3d c5c2 86be 5985 65bd 5cda 1d3e
000003c0: ff52 0d3e 530a 0abf 9a11 6abe 7c29 24bd
000003d0: 1948 a8be 04cc 263f 5d1a d9be b881 47be
000003e0: e410 43bd f564 1b3e 8292 6d3e b8bd e1be
000003f0: 5351 40bf 3e88 183e 63ff 833e 1e8b ee3e
-0.47264782 0.26397163 -0.4295406 -0.69392794 -0.17351742 0.45855513 -0.1223126 0.26234198
-0.15481962 -0.34430763 -0.6888536 -0.16607802 0.41521358 -0.2814598 -0.025989424 0.51665
-0.0029680969 0.6307418 -0.5668769 -0.25028446 -0.17129715 -0.47674993 0.1705328 0.33617973
-0.167171 -1.0407249 -0.27799574 -0.30136803 -0.034505 -1.0541608 0.23641254 -0.039525636
0.023091353 -0.32130298 -0.11853528 0.17952049 0.041225243 0.10834622 0.4435603 0.052873507
0.12827821 -0.27686238 -0.3358721 0.39884987 -0.021254418 0.11241108 -0.20553368 0.48905408
-0.500483 0.24162605 0.80409247 0.21692683 -0.08968557 0.1913826 -0.28292173 -0.09074141
0.07597312 0.3611528 0.060460694 -1.134034 -0.6104425 -0.17201832 0.280545 0.16908969
0.07164048 0.16812108 0.2516927 0.27390167 0.3709005 0.32239532 -0.15034902 0.022115178
-0.5061616 0.027415609 0.33377948 -0.1954643 -0.11244129 0.33140934 -0.1912455 -0.18689346
0.35418236 0.43800542 0.10230892 0.12948412 -0.23362398 0.12171197 -0.4323555 0.17097548
0.060940184 -0.98412305 -0.23773812 0.15426804 0.44022718 0.4893288 -0.17669952 0.3873989
-0.022314267 0.3080779 0.085395426 -0.2502354 0.5394909 -0.10156539 0.50535864 0.27798393
0.17463185 0.6675382 -0.069567546 0.34591338 0.4253819 0.16650812 0.012368237 0.2926948
-0.16289927 0.058405247 0.04172411 -0.1518617 0.36236593 0.7563541 -0.034474228 0.25549233
-0.5434621 -0.14560783 -0.95012724 -0.25558785 -0.5638074 1.1210861 0.48876482 -0.360484
0.1857202 -0.24589208 -0.21764266 0.28731424 0.08213944 -0.08475989 0.032271337 0.6848833
0.06456279 0.21968308 0.08688587 0.12578678 0.40301156 0.52244264 -0.37534788 0.108330056
0.31014302 0.48940894 -0.12935628 0.05233142 -0.4004295 -0.20711382 0.051447608 0.42819053
-0.46884933 0.11627421 -0.5519086 -0.24784799 0.23752317 0.6210222 0.050359387 0.37096426
0.27398044 0.32461885 0.30274212 -0.25008368 0.05726716 0.0236746 -0.099609375 0.35831395
-0.28446934 -0.5946623 -0.14957969 0.045270357 0.68077254 -0.22673962 -0.2067831 -0.042299345
-0.24102184 0.9001315 -0.67199415 -0.2839637 0.24618286 -0.54993033 0.11618788 0.6141811
-0.9038769 0.37147716 -0.0503037 0.48569787 -0.42439172 -0.02087343 0.0835262 0.03479596
0.033641607 0.6329465 -0.37051255 0.87418467 -0.21630993 0.14548673 -0.81945837 0.22323562
0.19893587 0.30065623 0.52988213 0.07432798 0.083008505 0.5140596 0.59521544 0.23027027
-0.12754317 0.15554695 -0.056123212 -0.07707186 -0.44606194 -0.012023118 0.5043025 -0.17233582
-0.006902682 -0.23092312 -0.10402747 0.33425105 0.33577785 0.38002756 -0.33850685 0.1767032
0.32332408 -0.074978866 -0.20486568 0.37777564 0.04548313 0.15563491 0.15234073 -0.16551675
0.025177786 -0.098361365 -0.2509874 -0.15520567 0.053255998 -0.26320472 -0.056035373 0.15415329
0.13801192 -0.53922004 -0.22858277 -0.040078625 -0.32867506 0.65155053 -0.42402926 -0.19483078
-0.04762353 0.15175231 0.2320042 -0.44090056 -0.7512409 0.14895722 0.25780782 0.46590513

encoder.lstm.weight_hh_l0 f4 [128, 32]
00000000: 65dc 82bf 9364 1bbe f3c5 38be f829 283e
00000010: 8108 f03e 7fe5 ccbe 4676 90bd 66a2 01bf
00000020: c1a0 863d e5d5 10bf b679 ebbd 7a04 cebe
00000030: 079e c33e b2d2 87bd cd59 b03e f100 9ebe
00000040: 59f1 c93e 0403 1abd fbb8 0cbf a768 80bf
00000050: 9fa9 41be 8b68 0b3e 3f77 46bf f3de 1dbf
00000060: 88e5 4c3e aeb4 fcbd 3397 e2bd bf9e 103d
00000070: 97d3 1cbf f535 c83d b950 b8bd d209 0ebe
00000080: c11a c4bd 269d 3f3e 4a97 0fbf 5cb9 6fbe
00000090: da3c 123f 4751 a1be c007 8a3e 73af 6a3d
000000a0: b138 013e 2512 f0bc 16d4 68be d7c1 05be
000000b0: 9308 04be 15fd dfbd 090d 513f ef5d 99bd
000000c0: d76f 503e 38e2 f93e 3259 df3e 9f16 7e3d
000000d0: fcdf 6fbf 279d bb3e ffb2 343e ed01 ff3e
000000e0: aec0 4c3f ab75 a3bd fc4b c9bd 747f abbe
000000f0: 40ae 41bf 34fb f53e b3f8 293f 1f11 893d
00000100: 0177 493f bedf 763d 2fe0 efbe ad55 98be
00000110: cccc 9d3f 2bec f3be 6f17 a53e 3b73 8b3d
00000120: 9a2a ccbe bc40 80bf 4aa8 413d cfaf 97bf
00000130: adb8 62bc a401 82bf 3869 253e 8bb2 3abe
00000140: 42b0 8d3e c671 16bf 0894 2b3f 6bd3 f6be
00000150: 8729 26bf daaa 6f3e 990f 46be 9ae1 cfbd
00000160: e2d3 373f bc5a 34bf fa9b 30be 8f29 88bf
00000170: 083c a4be c26d c23d e2b6 08be dd92 04bf
00000180: 2cda e4bd bc4e 7cbe 6d1e fe3e e67e aabe
00000190: 5d79 b8be fdf6 52bf f3f6 483d 6445 043f
000001a0: 10d0 dd3d 290c 6c3e 84d8 403d 21b1 48bf
000001b0: c14a 1cbe 07d7 85bf 45ba 81be f032 d23e
000001c0: cf50 1d3f ff87 10bf c137 b43e 4b9f 9ebe
000001d0: b8ad 95be 37bd 88be 8ff4 aebe 256b d43d
000001e0: e936 37be c3ab 3b3f 0e30 28bf 238d 8ebe
000001f0: be7b 01bf e3ce 8ebe af05 8cbe 8fcd df3e
00000200: 174a 1bbf b435 3f3e d2c9 79bd a15f c13e
00000210: 6000 113f 2f64 61bf eb66 97be 0bff 613f
00000220: f885 c7be 5dfc 11be a3fb 5cbe b6a4 763e
00000230: 6f7a 0e3f 775a 5fbd 219c 5d3f e83a 1b3d
00000240: 2619 b73e f7b2 353d 40a5 febd 2249 b2be
00000250: d52e 12bf ab81 763e 40ab c13e 7974 cfbe
00000260: 8167 f23e 229b d0bb 2691 dabe 5262 1f3f
00000270: 517e 48bf 3011 a33f 7c10 01bf 96ce cdbe
00000280: b796 8e3e 9760 30bd 9177 36bf da54 b9be
00000290: aa76 063e 6c56 b2be 7364 4d3f eef4 b43f
000002a0: fd03 b7be f6a4 81bc 7972 33bf 9ebc 743d
000002b0: 8002 2fbe 3201 28be b764 833d dc3f 92be
000002c0: 1c8a 603e cf77 b03d d660 993e 1afc 0abe
000002d0: a264 383e e22b 103f c8eb 173f 5dbc 0abf
000002e0: 4112 53be fefd bfbe 0de9 f2be 1cc2 24bf
000002f0: 0790 9cbe f11c fb3e c051 dbbe b0dc 6c3d
00000300: 9280 8b3e 1241 023f d217 ddbe 7963 b23e
00000310: daf0 f33d 5186 0bbf f16d 8bbd 2799 653f
00000320: 228c dbbe 9b3c 55bd cf16 1abf ce50 00bf
00000330: 769c 4b3c 3f31 28bf 2473 fabd 2507 c53d
00000340: 3cb1 dabd 3ade 143e aaf4 babe 8d79 133e
00000350: d4f2 4dbf 3a6d 453f 9926 893d 0226 6cbe
00000360: 3729 b13f 3122 1cbf bad8 213e 60bd 56be
00000370: 37fa 9dbf 2482 d53e 8298 053e 4ee0 7ebd
00000380: 217c 26bd b690 93be 1867 63bf 8c5f 86be
00000390: 4a35 863f 6f3d fbbe 9999 91be a6b3 163e
000003a0: d82f 23be 6fe4 53be 829d a0be 86e1 18be
000003b0: 1dd1 a03e b64d f6be 8fcf 243f b7bb 81be
000003c0: 797e a43e 236b 933e ccfa 49be 6346 913b
000003d0: 41b2 08be 877f d63e 1b7b 29bf c59e d9be
000003e0: 5e38 97be 2f6b 4fbf 8a44 28bf b7c9 81bf
000003f0: d812 2fbf 431b f53e 2c40 62be 00db aabe
-1.0223509 -0.15175085 -0.18044262 0.1642226 0.46881488 -0.40018842 -0.07053809 -0.50638425
0.0657363 -0.5657638 -0.11497824 -0.4023779 0.38206503 -0.06631984 0.34443513 -0.30860093
0.39441946 -0.037600532 -0.5496976 -1.0031937 -0.18912362 0.13614099 -0.77525705 -0.6166832
0.20009434 -0.123391494 -0.11063995 0.035307642 -0.6126036 0.097759165 -0.089997716 -0.13870934
-0.095754154 0.18712291 -0.56090224 -0.23410553 0.571241 -0.31507322 0.26959038 0.057296228
0.12619282 -0.029305527 -0.22737154 -0.13062225 -0.12893896 -0.109369434 0.81660515 -0.074886195
0.20355164 0.48805404 0.43622738 0.062033292 -0.9370115 0.36643335 0.17646407 0.49806157
0.79981506 -0.07981428 -0.09828946 -0.33495677 -0.7565651 0.48043215 0.6639511 0.06692719
0.7869721 0.06027197 -0.46850726 -0.29752865 1.2328124 -0.4764112 0.3224444 0.06809088
-0.39876252 -1.0019755 0.047279634 -1.1850528 -0.013837975 -1.0156751 0.16153419 -0.18232171
0.27673537 -0.58767354 0.6702275 -0.48208174 -0.64907116 0.23405018 -0.19341888 -0.10150452
0.7180768 -0.7045095 -0.17247 -1.0637683 -0.3207705 0.09493591 -0.13351014 -0.51786596
-0.111744255 -0.2463941 0.49632588 -0.3329994 -0.36030093 -0.82408124 0.049063634 0.5166838
0.108307004 0.23051514 0.047081485 -0.7839528 -0.15262891 -1.0456246 -0.25337425 0.41054487
0.6145143 -0.56457514 0.35198787 -0.30980906 -0.292341 -0.2670686 -0.34170958 0.10371999
-0.1789204 0.7330896 -0.65698326 -0.27842054 -0.5057944 -0.27892217 -0.27348086 0.43711516
-0.6065993 0.1867283 -0.060983486 0.37768272 0.566412 -0.88043493 -0.29570708 0.8827979
-0.38969398 -0.14256425 -0.21580367 0.2408627 0.5565557 -0.054529633 0.8656636 0.037897974
0.35761374 0.044360127 -0.12433863 -0.3482142 -0.5710271 0.24072902 0.37825966 -0.4051855
0.47344592 -0.0063661495 -0.42688864 0.622594 -0.78317744 1.273962 -0.5041578 -0.40196675
0.2784936 -0.043060865 -0.71276194 -0.3619755 0.13131204 -0.3483156 0.802314 1.4137247
-0.3574523 -0.01582573 -0.70096546 0.059750192 -0.17090797 -0.16406706 0.06415694 -0.28564346
0.21927685 0.08616602 0.29956692 -0.13572732 0.18007138 0.5631696 0.5934415 -0.5419367
-0.20612432 -0.37498468 -0.4744343 -0.6435869 -0.30578634 0.49045518 -0.42835808 0.05782765
0.2724653 0.5088054 -0.43182236 0.34841517 0.11911173 -0.54501826 -0.06808079 0.89686817
-0.4288035 -0.05205975 -0.60191053 -0.501233 0.01242744 -0.65700144 -0.122289926 0.09620503
-0.10678336 0.14537898 -0.3651479 0.14401837 -0.8044865 0.7711979 0.06696815 -0.23061374
1.3840703 -0.6098967 0.15805331 -0.20970678 -1.2341985 0.41700852 0.13046458 -0.062225632
-0.040645722 -0.28821343 -0.88829184 -0.2624477 1.0485013 -0.49070308 -0.28437498 0.14716968
-0.1593622 -0.20692609 -0.3137017 -0.1492978 0.3140954 -0.48106164 0.6437921 -0.25338528
0.3212774 0.28792676 -0.19724578 0.0044334396 -0.13349248 0.4189417 -0.6620347 -0.42503944
-0.29535192 -0.81022924 -0.6572958 -1.0139683 -0.6838813 0.47872362 -0.22094792 -0.3337021

encoder.lstm.bias_ih_l0 f4 [128]
00000000: a79c 433f ad9c 063f 7b33 f83e 063a f73d
00000010: e757 aa3e ca0a b73e f416 073f 5694 ce3e
00000020: f871 b13e f53a c83e 7fff b33e 813e c23a
00000030: 0ea2 09be 47a6 683f 95f2 6a3e a696 a83c
00000040: 8565 193f e803 383f 54e1 373f 8bcf 913c
00000050: 452f 3abc 13bb 313e 477e 073f 3615 7e3e
00000060: b2c3 903e a45f 8a3e 93f3 d33e 62a8 4c3e
00000070: 56da 3a3f 279a 0f3f 8b92 5ebe 9b50 533e
00000080: 145f 983e afe3 cabe bdfb b23e f08d 623e
00000090: d8ce 6dbc beb4 e73e 6f0f 163e 43a5 b03e
000000a0: c792 843e e0c5 f83e 92ea 863e 2fa4 303f
000000b0: c41c b53e 1ace b43e fbe4 ba3e 5aee a03e
000000c0: 1b06 0e3f 78ac d23d 0b86 d43e 66ea 603e
000000d0: b5f8 943d fa99 823e 852d 943e f642 d73e
000000e0: ddeb b33e 5c4b db3e 307f 873e 14ca 033e
000000f0: 8cbd da3e 5db2 1c3f 1546 843e 4c00 c7bb
00000100: 6d69 063d 052b 023d 3070 c3bd 1ef2 5fbe
00000110: 2b99 403e 3184 eebd 7afc c83d 7ac6 df3d
00000120: fe42 6dbe d96e 37bd bb89 063e a398 82be
00000130: d082 64be 747b 10be d189 c4bc a672 443e
00000140: 48b3 533d bc30 15be 86c1 ac3d b8ed 13be
00000150: b138 0abf 035b c83e 43ba 2bbe c6de ab3b
00000160: 41ab 963e d427 acbe 707e 00be 1860 51be
00000170: 9bed 93be 86a4 b13e 52ff 32be bb08 27be
00000180: f371 d23e 0f41 c43e ee19 e63d 7fff ce3e
00000190: 474c 253e 83c0 b2bc 630d 603e 8d65 ba3d
000001a0: 427c 403f e508 463e 49ad 6cbe 4bbf e13d
000001b0: 7fa5 1d3e 25cf c3bd 5a2c 9bbe e72c 8e3d
000001c0: 20f6 f93c 36a7 103f 2450 873e f2ed 4ebc
000001d0: 6cec 0bbe 803a ddbe 5ee9 eabd d608 40bd
000001e0: 4879 ebbd d539 583e 01ca 413e bf2a e6ba
000001f0: 0738 133d fbcf 7abe a3f8 92bd f108 793d
0.7641091 0.5258282 0.48476776 0.12071614 0.3327019 0.3575042 0.527694 0.40347546
0.34657264 0.3910748 0.35155866 0.0014819653 -0.13440725 0.9087872 0.229441 0.020579647
0.5992053 0.7188096 0.718282 0.01779916 -0.011363809 0.1735652 0.5292706 0.24812779
0.28274304 0.27026093 0.4139677 0.19986108 0.72989404 0.5609459 -0.21735589 0.20636217
0.2976004 -0.39626834 0.34957686 0.22124457 -0.014514647 0.45255083 0.14654325 0.34501085
0.25893232 0.48588467 0.26350838 0.69000524 0.3537351 0.35313493 0.36502823 0.31431848
0.55478066 0.10286802 0.41508517 0.21964416 0.072739996 0.255081 0.2894098 0.42043275
0.35140887 0.42830932 0.26464224 0.12870055 0.42722738 0.6120966 0.25834718 -0.0060730334
0.032815386 0.031779308 -0.095428824 -0.21869704 0.18808429 -0.11646307 0.09813781 0.10926528
-0.23170087 -0.044783447 0.13138478 -0.25507078 -0.22315526 -0.14109594 -0.023991497 0.1918436
0.051684648 -0.14569372 0.08435349 -0.14446151 -0.53992754 0.39131936 -0.16770272 0.0052450625
0.2942753 -0.33624136 -0.12548232 -0.20446813 -0.28892216 0.34695834 -0.1748021 -0.16311924
0.4110256 0.38330886 0.112354144 0.40429303 0.16142379 -0.021820312 0.21880107 0.091014005
0.751896 0.1933933 -0.23112978 0.11022814 0.15395163 -0.09560994 -0.30307275 0.06942158
0.03051287 0.56505144 0.2642833 -0.012629973 -0.13664407 -0.43208694 -0.114702925 -0.046883427
-0.11497742 0.21115811 0.18924715 -0.0017560347 0.035942104 -0.24493401 -0.0717633 0.060799543

encoder.lstm.bias_hh_l0 f4 [128]
00000000: 8457 083f 5ce5 023f fb66 723e 76b2 8e3e
00000010: 15b7 c23e bd8d 013e ced5 d13e c9c5 983e
00000020: 7b20 033e 6308 d03e 6065 bc3e 4e05 423e
00000030: 826b e8bd 0680 813f 5394 333d ff1a 553e
00000040: e79b bc3e fed5 473f ebd3 f53e 985d a1bd
00000050: aa30 17be ae66 8f3e 87d6 fe3e efcf 913d
00000060: adb3 933e c547 e73e 8842 8e3e 320b 8a3c
00000070: b890 013f fb6d 323f f553 1cbe 5102 883e
00000080: c209 3a3e a40e dfbe 5497 6d3d 663c 4e3e
00000090: b1a8 2e3e c2d7 ee3e cde9 883d a085 063f
000000a0: 80ab 703e e7da 1d3f eb54 813e cfc0 0e3f
000000b0: b1b2 9b3e 46ee 133f 93eb ab3e 81ba a63e
000000c0: 3237 fb3e 1f59 fb3d 216f 883e e626 f0bc
000000d0: 3137 603d f580 a03e e5b7 be3d 3965 c73e
000000e0: 95e2 a53e ee45 093f fc2f b83e 8938 cb3e
000000f0: d9e1 073f 4ab5 ee3e 6db3 e53e 1c45 5c3e
00000100: 77c0 363e f3bb 44be b57a 73be a3d5 4bbe
00000110: 7988 ac3d 2957 34be 3620 423e c398 7d3d
00000120: 0086 dcbd d561 22be 7ae1 29bd 7c1b 61be
00000130: 333a 2f3b 50bd 16bd 560d 503c 8660 8ebd
00000140: 8754 7e3e 3359 24be 624d 8cbb 1366 c9bd
00000150: 9d4f 0bbf 23c4 333e 442e 92be 210a 1abe
00000160: 3f3a 833e 3e0f 92be f8d4 acbe 6fee 8bbe
00000170: dea3 8dbe 88d9 9b3e 699b 80be 4580 77be
00000180: 730a ed3e 799f b03e 23f9 fe3d e2a3 893e
00000190: 9fe5 7b3e b175 d6bd 6368 313e ca4b 4fbe
000001a0: 4cba 1f3f bc62 803e 3a4e 2ebe e65e f33a
000001b0: 5b5f 4d3d fb5b 653d 0c40 15be 60cd a2bd
000001c0: 5fe1 febd 1cbf 493f 3311 8a3d 5660 0e3e
000001d0: 0142 67be 8e2a b4be e413 02be 74ba 2c3e
000001e0: 8d83 32be 2c9d 283c 301c 853d f264 e63d
000001f0: 7edf b53d 908a 51be 17f5 343e 0f5f 3d3e
0.5325854 0.51131225 0.23672096 0.2787053 0.38030306 0.12651725 0.40983433 0.29838398
0.12805359 0.406314 0.36796093 0.18947336 -0.113486305 1.0117195 0.043842625 0.2081108
0.36837694 0.780609 0.48013243 -0.0787918 -0.14764658 0.28008026 0.49773046 0.07119738
0.2884802 0.45171943 0.27785134 0.016851041 0.5061145 0.69699067 -0.15266402 0.26564267
0.18167785 -0.43565857 0.058005646 0.20140228 0.17056538 0.46648985 0.06685219 0.52547646
0.23502922 0.61662143 0.252601 0.5576295 0.30409768 0.5778545 0.33578166 0.32564166
0.49065548 0.12272858 0.26647285 -0.029315423 0.054740135 0.31348386 0.09312419 0.38944414
0.3239943 0.5362233 0.3597411 0.3969157 0.5307899 0.46622688 0.44863454 0.21510738
0.17846857 -0.19212322 -0.23777278 -0.19905715 0.084244676 -0.17611374 0.189576 0.061913263
-0.10767746 -0.15857632 -0.041474797 -0.2198314 0.002673757 -0.036801636 0.012698492 -0.06952004
0.24836932 -0.16049652 -0.0042816857 -0.09833922 -0.54418355 0.17555289 -0.28550923 -0.15042926
0.25630376 -0.28527254 -0.33756232 -0.27330348 -0.27664083 0.304394 -0.2511857 -0.24170025
0.46297035 0.34496668 0.12449863 0.26882845 0.24599312 -0.104716666 0.17324977 -0.20243755
0.6239364 0.25075328 -0.17022029 0.0018567711 0.050139766 0.055995923 -0.14575213 -0.079493284
-0.1244533 0.78807235 0.06741562 0.13903937 -0.22583772 -0.35188717 -0.127029 0.16868001
-0.17432995 0.010291379 0.06499517 0.112497225 0.088805184 -0.20463014 0.1767162 0.18493293

policy.net.0.weight f4 [128, 32]
00000000: ef53 7fbe 8f21 c9be 32a4 8d3e c967 3abe
00000010: d03e 203d 1b10 e33d 9f00 673e a06b e73e
00000020: 48ca 6d3e 2265 8dbe fe15 cabd 14cd c0be
00000030: 0939 babe 7058 7bbd 68dc 9cbe 045f 8cbe
00000040: a5eb cebe 1e6c 0cbd e68c f5be f063 0a3f
00000050: c0c1 093f 9f1b 3ebe 693d 11be 8721 28be
00000060: b3f4 97be 0264 ae3e 37dc 87be 36fc cebb
00000070: f75f 743e 71f7 8dbe a5e8 24be 40dd 86be
00000080: 6294 80bd 7a97 4ebd 91cb d3bd 218f 333e
00000090: d985 613e 4456 153e b074 97be 2e48 883d
000000a0: 1c95 d23e f44c 2c3d b892 05be 8b5d a1be
000000b0: 46ee afbe 2a8a b93d 929f 30be 977b 0fbe
000000c0: 3602 2dbe ebeb b4bd 8628 a2bd 7f12 573d
000000d0: 4d69 61be 4faf 58bd 7a2f 72bc 7348 963e
000000e0: 6a97 5c3e 15cd bd3e 918a da3e 7b39 5f3e
000000f0: 2389 6a3d e5d2 4ebe a4a4 253d 9eac 9ebe
00000100: b8c7 a4be 63f9 99be 2f35 78bd d4cb 04be
00000110: fa01 d23d 92b5 b2be fd31 95be b788 a43e
00000120: 06f8 4f3f bca5 4cbc 560c 6ebe 5d9f 6fbe
00000130: c5f5 54bf eebe fe3d cd82 0ebf 8838 973e
00000140: 47ca 68be a63b 61be 3ed0 4bbe 59d9 a13e
00000150: 0516 debe 931d 80be 8cd5 95bd 2079 40be
00000160: d8c8 95be 8f9d 0c3f aa00 413e 81d4 98bd
00000170: 1c32 383e c633 c7be cc0e cabc cf07 55be
00000180: 708c da3e 0590 0fbf e737 03bf 3558 b13e
00000190: 518f c53e d2a5 20bf d0dd 75bf ff1a 6a3e
000001a0: 1309 1d3f d41a 9abe 2cbb 093e 3be9 e9be
000001b0: d80f 46bf 80a4 0ebf 3720 513d d0a1 ebbe
000001c0: 4d78 10be 38e0 1a3f a3d4 a4bd 8ea7 8e3c
000001d0: 2a21 4ebf 881f 87be 4541 0c3e 9795 0dbf
000001e0: a2c9 e0be acc4 5b3d d977 463e 0570 3e3f
000001f0: 4f8e 043e 38a3 8dbe b58a 073f a83e 08bf
00000200: cc88 413e 7202 253f 0cbe e7bd 44cb 0fbe
00000210: 6319 f8bd c5c6 c23e 1c8c 1dbf 9b2b acbe
00000220: 9ee9 a7be b228 8d3d f841 b93e 135f 47bf
00000230: f035 84bf 90a5 1f3e 83f2 debe 1cce e9be
00000240: 723f e6be c69b 47bf c42a 163b 4806 87be
00000250: 9e02 16bf befd febe 7cdc 44be 65b5 b33d
00000260: cc9f e2be 3020 4d3e 0ebb 323f bf1a 96be
00000270: f43b b43d 9412 2cbf ec74 a83e b420 e3be
00000280: dbf4 38be 2b31 f1be 9e90 babe 5aaa c03e
00000290: 6235 de3d 42ed 38bf 9c07 313f c194 debd
000002a0: 705e 9fbe d391 453e c1b3 2cbe 20dc 3dbd
000002b0: 61dc 8f3e aea3 31bf 03fb f7bc 2321 5abe
000002c0: 11d1 1f3e 6e55 ef3e f41e fcbd a05a 24be
000002d0: 3c13 c4bd 3921 e83c f7ba 0fbe 2b6c 99be
000002e0: f1f4 77bf 2b46 743e b959 6ebe 64be d13e
000002f0: cdcb 923e 0995 41bb 16bd 26be 6cc9 1e3f
00000300: d4e9 2d3c 2224 013f e46e 183f 9d8b 48bf
00000310: 19e3 6c3f 062f 1d3d dc45 963e baa7 d8be
00000320: 6ced 3dbe 80a0 10bc 3006 5dbe 7176 57be
00000330: 7cbf d6be 56b9 5d3e 561e 2dbf d533 903c
00000340: 4dc1 56be a31e 21bf d3eb b2be 9ea0 1abf
00000350: a125 7a3d dfec 4ebe 8f54 203e 9c41 be3e
00000360: 66fa 863e 11fe 123e 56f9 c4bd a3a7 5bbe
00000370: 17f3 cf3d c05f cbbe d40f dfbe cc37 bcbe
00000380: 9a96 90bd c353 9c3e da9e f73e 9adb 50be
00000390: 104f 053e 9f36 753e 0ae5 34be 60da f6be
000003a0: ab79 19bc 5799 973e 3a11 7e3c aa13 d1be
000003b0: f249 79be 3e80 723e f917 a8bd 0b8d d4ba
000003c0: b0b0 18be c946 58be 7e0b 93be b2b8 86bb
000003d0: 7920 fb3d 912d aa3d ebb5 01bf 3e76 dcbc
000003e0: 7fa5 643e 946c 5e3e 0603 44be 00ee eebd
000003f0: 4fd3 343d da30 4f3e 5f26 e0be 1a0a 2d3d
-0.24934362 -0.39283416 0.27664334 -0.18203653 0.039122403 0.11087056 0.2255883 0.451993
0.23221695 -0.2761622 -0.09867476 -0.37656462 -0.3637164 -0.061363637 -0.30636907 -0.2741624
-0.40414158 -0.034282796 -0.4795906 0.5405874 0.53811264 -0.18565224 -0.14183582 -0.1641904
-0.29678878 0.34060675 -0.26535198 -0.006316687 0.23864733 -0.27727845 -0.16104372 -0.26340675
-0.06278302 -0.050437428 -0.103415616 0.17535068 0.22023715 0.14583689 -0.29581213 0.06654392
0.41129386 0.042065576 -0.1304425 -0.3151668 -0.34361476 0.09059556 -0.17248371 -0.1401199
-0.16895375 -0.0883406 -0.079178855 0.052507874 -0.22012825 -0.052901562 -0.014781827 0.2935215
0.21542135 0.37070528 0.42683843 0.21799271 0.05725969 -0.20197637 0.040440217 -0.3099107
-0.32183623 -0.3007308 -0.060597595 -0.1296838 0.10254283 -0.34904152 -0.291397 0.32135555
0.8123783 -0.012490686 -0.23246893 -0.23400636 -0.83187515 0.12438761 -0.55668336 0.29535317
-0.22733413 -0.2199541 -0.19903657 0.31611136 -0.43376175 -0.25022563 -0.073161215 -0.18796206
-0.29254794 0.54927915 0.1884791 -0.07462407 0.17987865 -0.38906687 -0.024665259 -0.2080376
0.4268527 -0.5607913 -0.51257175 0.3463761 0.38585904 -0.6275302 -0.96041584 0.2286186
0.6134197 -0.30098593 0.13450307 -0.45685753 -0.77367926 -0.5571976 0.051056113 -0.4602189
-0.14108391 0.6049838 -0.0804837 0.01741388 -0.80519354 -0.26391244 0.13696773 -0.5530638
-0.43903834 0.053654358 0.19381656 0.7438968 0.12944911 -0.2766359 0.52946025 -0.53220606
0.1889984 0.64456856 -0.113155454 -0.14042383 -0.12114217 0.38042274 -0.61541915 -0.33627018
-0.32795423 0.06892528 0.36183143 -0.77879447 -1.032896 0.15590501 -0.43544397 -0.4566506
-0.4497028 -0.77972066 0.0022913674 -0.2637198 -0.58597744 -0.49802965 -0.19224733 0.08774833
-0.4426254 0.2003181 0.6981667 -0.2931728 0.08800498 -0.6721585 0.32901704 -0.44360888
-0.18062155 -0.47107825 -0.3643846 0.37629968 0.10850026 -0.72237027 0.69152236 -0.10868216
-0.31126738 0.19293909 -0.16865446 -0.046352506 0.28097823 -0.6939038 -0.030271059 -0.21301703
0.15607096 0.46744865 -0.12310591 -0.16050196 -0.09573981 0.028336154 -0.14036165 -0.29965338
-0.96858126 0.23854892 -0.23276414 0.4096557 0.28671113 -0.0029538295 -0.16283068 0.62026095
0.010614831 0.5044576 0.59544206 -0.7833803 0.92534024 0.038374923 0.29350173 -0.42315465
-0.185476 -0.008827329 -0.21584392 -0.21041276 -0.41942966 0.21652731 -0.67624414 0.01760284
-0.20972176 -0.6293737 -0.34945545 -0.6040133 0.061071042 -0.20207547 0.15657257 0.3715943
0.26362914 0.14354731 -0.096178696 -0.21450667 0.101537876 -0.3972149 -0.43566763 -0.3676132
-0.07059975 0.30532655 0.48363382 -0.20396271 0.13018441 0.23946618 -0.17665496 -0.48213482
-0.009367387 0.29609177 0.015507037 -0.40835315 -0.24344614 0.23681733 -0.082076974 -0.001621635
-0.14911151 -0.21120752 -0.28719705 -0.004111373 0.12262053 0.08309472 -0.5066821 -0.026911851
0.22328757 0.21721107 -0.19141778 -0.11666489 0.044146832 0.20233479 -0.43779275 0.04224596

policy.net.0.bias f4 [128]
00000000: cca1 9bbe db19 d1be d58c e5be 1538 0e3e
00000010: 8912 91be 065d 05bf 8ebe 04bf 3a8d fdbe
00000020: ad65 80be d0be bb3c 5078 acbe 3128 bfbe
00000030: d083 d5be a30d e7bb 1c31 01bf 6e6c efbe
00000040: 4580 c6be 5f9e a03d f792 f7be 3d81 01bf
00000050: 8173 97bd bdfe c2be 7d38 03bd 0fdf afbe
00000060: f7c5 16be ee86 bcbe 4183 a5be 2bd8 13be
00000070: a5e8 a9be ba0f d2be 5171 f5be 28c6 0ebf
00000080: b51b 9ebe 4085 debe 4153 92be daf8 38bd
00000090: 4952 f5be 4e28 82be 8413 77be c080 aebe
000000a0: 69ee 15bd 5f23 5cbe 0274 50be 5d64 ddbe
000000b0: 8149 b6be be97 11bc e944 ecbe e9e8 cdbe
000000c0: ca4b abbd be3b c0bd 2ef3 f1be 1d9d ffbe
000000d0: 15c0 80be e36c debe 3c75 0cbf deed c7be
000000e0: 0159 ccbd 38d5 413b 284b d9be 0c64 9dbe
000000f0: 1bc4 a7be 587b e0be c5f1 74be e87b 25be
00000100: 0cdf dbbe 695c 90be eb4f babe c9b3 66be
00000110: 73e9 e5be 4872 86be a295 10bf 21a1 0fbf
00000120: 0c4e d9bd 078b 9fbe 4857 70be 86db d2be
00000130: 6b51 39be e45c 9ebe df9d 1a3d e9bf afbe
00000140: 7e14 d3be 4465 fabe 9afd a7be 2e6c c7be
00000150: 8162 9dbe 687b ecbe 27fd 03bf dcec 803c
00000160: 3eaa adbd 31e8 c2be 79a6 e9be 1f60 dd3d
00000170: f43d 06bf ab15 c83d c970 91be dcd0 9dbd
00000180: aa59 07bf 7ec3 acbe ff04 03bf dc22 10bf
00000190: 0128 103e bc4f a1be 0ee4 c0be 2abd 32bd
000001a0: 10b6 023d ae30 a93d 91c2 81be 11b3 efbe
000001b0: 9d7c 3abd cf2f d0be c6b7 fabe 16fb 5cbe
000001c0: 5a7e 71be e0e4 51be a0ea eabe 4aaf a43d
000001d0: 4df3 68be b3b4 84be 0446 c2be 6dcb 86be
000001e0: 7f78 f1be ae95 82be 9cd9 a53d c88e 93be
000001f0: 9750 a3be d383 93be 0c8e 963b 0bfd 51be
-0.3039688 -0.4084004 -0.4483401 0.13888581 -0.28334454 -0.5209507 -0.51853263 -0.4952181
-0.25077572 0.022918135 -0.3368554 -0.3733535 -0.41702127 -0.007051186 -0.5046556 -0.46762413
-0.38769737 0.07842707 -0.48354313 -0.50587827 -0.073950775 -0.38084975 -0.032036293 -0.34349868
-0.14723955 -0.36821693 -0.323267 -0.1443793 -0.33185306 -0.41027623 -0.47938016 -0.5577111
-0.30880514 -0.43461037 -0.28579143 -0.0451592 -0.4791434 -0.25421375 -0.24128538 -0.34082603
-0.03660432 -0.21497868 -0.20356753 -0.43240634 -0.35602954 -0.008886276 -0.46146324 -0.4021676
-0.08364065 -0.09386395 -0.47255844 -0.49924555 -0.25146547 -0.4344245 -0.54866385 -0.39048666
-0.09977914 0.0029576551 -0.42440152 -0.30740392 -0.32766804 -0.43844104 -0.23920353 -0.16160548
-0.4294361 -0.28195503 -0.36389098 -0.2252952 -0.4490467 -0.26259065 -0.5647832 -0.5610524
-0.106105894 -0.31160757 -0.23470795 -0.41183108 -0.18097465 -0.30930245 0.037748214 -0.34326103
-0.41226572 -0.48905385 -0.3281067 -0.38949722 -0.30739215 -0.46187901 -0.51558155 0.015737943
-0.08479737 -0.38067773 -0.4563482 0.10809349 -0.5243828 0.09769758 -0.2840636 -0.077058524
-0.5287119 -0.337429 -0.511795 -0.5630319 0.1407776 -0.31506145 -0.37673992 -0.043637432
0.03191191 0.08261238 -0.25343755 -0.46816304 -0.045528997 -0.40661475 -0.48968333 -0.21580157
-0.23583356 -0.20497465 -0.4588213 0.08041246 -0.22749062 -0.25919113 -0.37944043 -0.26327077
-0.47162244 -0.25504822 0.08098146 -0.2881987 -0.31897423 -0.2881151 0.00459457 -0.20506684

policy.net.2.weight f4 [5, 128]
00000000: f511 86bf 7616 cdbe 5b2f aabf 7201 94bf
00000010: 05ba 4fc0 5624 d5bf 9440 e2bf 88bd b33c
00000020: 2d52 95be 9b08 fabf 65ef afbf 0aae 6ebf
00000030: e34a aabe 634f bbbf cf5c 00bf 42e3 5dbf
00000040: e3d8 a7bf 526f 4ac0 2deb 44be d11e d5bf
00000050: 8411 84c0 25e2 07bf c568 69bf 3a47 84c0
00000060: f84a bdbf 2773 98bf ce73 adbe 0e90 9abe
00000070: 7ccc f7be d62e afbe 634a 05bf 4646 b4be
00000080: a219 3fbf d33a 4bbe 1943 04bf 7b24 1fbf
00000090: 4e57 d0bf 24fd 23c0 0e17 5cbf 7e9f 72bf
000000a0: 881e 12c0 2eee 6bbe cead 8fbf a51e 9dbe
000000b0: 6c5d d3bf 1cff 67bf 0280 63be d7b9 8cbe
000000c0: 0f94 42bf a92d 2bc0 4d04 67bf 6bb9 dfbe
000000d0: 8e9f 6dbf af20 54bf 7286 d1be 1448 67bf
000000e0: ef02 5cc0 b65c b5bf 8a66 36bf 7fa7 0bc0
000000f0: 726f 0dbf ee23 f3be 18ff 1abf 3a69 89c0
00000100: 51b4 70c0 5ecb 39c0 ab7f 8dbe 9617 82c0
00000110: d75e eabf 9e39 18bf e8c4 c1bf 6e27 45c0
00000120: 1330 aebf 661f 53bf 8d0e a1bf 7287 a3bd
00000130: 7937 38bf 2253 42bf ac96 23bf 4cbe c4bf
00000140: f2e6 c8bf bf7e a2be f330 b1be 3468 a7be
00000150: 0432 26bf 95dc 25be eab1 87bf e5a6 11c0
00000160: ea28 78c0 0e9d 13bf 9776 31bf 8d5c 38bf
00000170: 7417 28bf e247 27c0 54bd 35bf f636 e4be
00000180: 53ab 83be d455 41bf d975 8cbf 62a3 8dbe
00000190: d743 f2bf a2ba 23bf e333 19bf d75e e0bf
000001a0: 7a8d aebf 22ae b4bf 67bc 7bbf ee3e 0dbf
000001b0: a8eb 41c0 9936 21be c019 02bf 5097 b5c0
000001c0: 3910 6cc0 9c7b 87bf 7f27 85be 6ed3 70c0
000001d0: 5ec0 9cbf ad69 b5bf 2cbe bcbf c938 b9be
000001e0: fb42 c8be 364f 0abf dc68 b9bf 9600 81be
000001f0: a058 a9be 30d2 c5be 7298 52bf 56be c0bf
00000200: 3d67 70be 533a 89bd 8602 cebe e024 0d3e
00000210: f4e5 a0bf 6fcf 993f 3a6e 1cbf 7b2e 973d
00000220: e5d3 0d3c 9819 eb3d a3b2 26be 6506 fdbd
00000230: 4b56 f4be 633c 0a3e 6a64 d6bd fbaf 673e
00000240: 27a8 213e 0c80 503d edb6 1fbf ccde db39
00000250: cc6c 2d3d ffa1 15bc 4deb 193e f600 88bd
00000260: c7dc 033f f490 163e a746 ba3c f2ff 8ebf
00000270: 6347 80bd dc73 6c3e a8fd 093f 1569 873e
00000280: e1ae 013f 3e71 52be 52ac 13bf 9819 803d
00000290: 76fa 703d 2bad 5abf b141 443c 751f 19bc
000002a0: c30b 04be 241b f4be 93c7 6f3d c071 62be
000002b0: 6a8d 893e 5d90 2c3e 0610 cf3d 26c0 afbe
000002c0: 7bdb a13d 4e86 b43e 6b3d 46bf 3a80 e7be
000002d0: 6d56 0a3d db6b e93d 8642 e9be 22df 7abf
000002e0: 8625 213f 8800 f3bd c3bf 1ebf d52f 89be
000002f0: 5aaa 2b3d 48d7 adbd ac55 2d3d 5954 2c3e
00000300: 04ae bebb 31f8 de3a 13a6 8cbe bf20 64bd
00000310: d013 83be 531b 97bd df46 dfbe 57f0 9c3c
00000320: 3d71 8bbe f39a 373e 565c 653d 4f5d b63d
00000330: 44cb 1cc0 6a6f 023e 3c88 22bf 9b1f fabc
00000340: a7a0 f2bc 607e bd3b 05b9 d93d 91ac 71be
00000350: 4186 ba3d 3f3e 44bf 60e8 b7bf 5ae3 6dbf
00000360: 3e6b 9d3d 9eda 06be 223e 2e3c 8c56 ce3e
00000370: 25ee 793e d64f a83d 51bc 90bf c50e 2cc0
00000380: 63c4 d5be 0f9b 1fbe b53e 643e 5098 43bf
00000390: 0dbb fd3d d492 253d 15b4 903c 5ac8 033e
000003a0: 959e 853d 7ae5 8ebd 39b2 e23d 52d2 2bc0
000003b0: 396a 19be ff8c 7dbf 4fc8 f4bd 2f08 d1bc
000003c0: 9314 003e 530c 553e 2275 413f 2d52 86be
000003d0: f951 613e 4dc8 1cbf a353 4d3d 466c d6bd
000003e0: 82cc 12bf d139 d33c e515 a0bf 13f2 87bf
000003f0: 6109 943e e3d9 023d c330 083e a6a4 bc3d
-1.047423 -0.400562 -1.3295702 -1.1562941 -3.2457287 -1.6651714 -1.7675958 0.021940961
-0.29164258 -1.9533876 -1.3744932 -0.9323431 -0.3326026 -1.4633602 -0.50141615 -0.8667489
-1.3113064 -3.1630445 -0.19230337 -1.665003 -4.127138 -0.53079444 -0.9117549 -4.1336946
-1.4788504 -1.1910142 -0.33877414 -0.3018803 -0.48398197 -0.3421542 -0.5206663 -0.35209864
-0.7464849 -0.19846658 -0.5166488 -0.6216504 -1.6276643 -2.5623255 -0.8597268 -0.94774616
-2.2831135 -0.23040077 -1.1224916 -0.30687442 -1.6512885 -0.9062364 -0.222168 -0.27485535
-0.7600717 -2.6746619 -0.9024094 -0.4369615 -0.92821586 -0.8286237 -0.40922886 -0.9034436
-3.437679 -1.4168918 -0.7125021 -2.1820982 -0.5524818 -0.4748835 -0.6054549 -4.294095
-3.7610056 -2.9030375 -0.27636465 -4.065379 -1.8310193 -0.59462917 -1.5138216 -3.0805316
-1.3608421 -0.82469785 -1.2582566 -0.079848185 -0.71959645 -0.759081 -0.6390178 -1.5370574
-1.5695479 -0.31737325 -0.34607658 -0.32696688 -0.6492007 -0.16197427 -1.060117 -2.2758114
-3.8774972 -0.5766152 -0.6932158 -0.7201622 -0.65660787 -2.6137624 -0.70992017 -0.44573182
-0.25716648 -0.7552159 -1.0973464 -0.27663714 -1.8926953 -0.63956654 -0.598448 -1.7528943
-1.3636925 -1.4115641 -0.98334354 -0.5517415 -3.0300083 -0.15743484 -0.5082054 -5.674721
-3.6884902 -1.0584598 -0.26006696 -3.7629046 -1.2246206 -1.4172875 -1.4745536 -0.36176136
-0.39113602 -0.54027116 -1.4485126 -0.2519576 -0.33075428 -0.38636923 -0.82263863 -1.5058086
-0.23476882 -0.067005776 -0.402363 0.13783598 -1.2570176 1.2016429 -0.6110569 0.07381912
0.008656477 0.11479491 -0.16279082 -0.12354735 -0.47722086 0.13499598 -0.10468371 0.22625725
0.15786801 0.050903365 -0.623885 0.00041936932 0.042340085 -0.009132861 0.15031166 -0.06640808
0.51508754 0.14703733 0.022738768 -1.1171858 -0.06263616 0.23091072 0.53902674 0.2644736
0.5065747 -0.20551011 -0.57684815 0.062548816 0.05883261 -0.85420483 0.011978553 -0.009345879
-0.12895112 -0.47676957 0.05853994 -0.22113705 0.26865703 0.16851945 0.10110478 -0.34326285
0.07903191 0.35258716 -0.77437466 -0.45215017 0.03377383 0.11397525 -0.45558566 -0.97996724
0.6294788 -0.11865336 -0.62011355 -0.26794305 0.041910507 -0.08488327 0.04231803 0.16829051
-0.005819084 0.0017011223 -0.27470455 -0.05569529 -0.25601053 -0.073782586 -0.43608758 0.019157572
-0.2723483 0.17930202 0.05599626 0.08904516 -2.4499063 0.12737814 -0.6348913 -0.030532649
-0.02961762 0.0057828873 0.10630993 -0.23600985 0.09107638 -0.7665748 -1.436779 -0.92925036
0.076864704 -0.13169333 0.010634931 0.40300405 0.24407251 0.082183525 -1.130747 -2.6884015
-0.41751394 -0.15586494 0.22289546 -0.76404285 0.12389193 0.04042323 0.017663995 0.12869397
0.06524388 -0.06977363 0.110691495 -2.684712 -0.14981927 -0.9904327 -0.11952268 -0.025516598
0.12507848 0.20805483 0.75569355 -0.2623457 0.22003926 -0.61243135 0.05012859 -0.1046987
-0.57343304 0.025784405 -1.2506682 -1.062075 0.28913406 0.031946074 0.13299851 0.09211092

policy.net.2.bias f4 [5]
00000000: 281a 15c1 0690 94bd 333f 8c3d e4ea 33bd
00000010: 0694 523e
-9.318886 -0.07254033 0.06847992 -0.04392518 0.20564279

exp_avg f4 [900, 16]
00000000: 01c4 d636 0f68 d834 10cd 3336 5d37 0037
00000010: e73f 6137 52d2 4f36 f5e0 1fb7 0afd 97b6
00000020: b5d1 e036 8c18 6437 c553 f136 a35f 24b7
00000030: 2564 c7b6 0d5f 3b36 b5c0 b937 8634 3236
00000040: 2f79 bbb6 0449 2236 03b2 d936 b491 3736
00000050: 276a a2b3 a0f9 0137 ab56 4134 cd67 8ab5
00000060: 94c8 9636 01c6 0337 44fd 0fb6 c866 1fb4
00000070: 36af f2b5 01d2 8db6 9909 a4b4 e71b 1936
00000080: 18e1 9e35 9b68 aeb6 47a3 8b36 70db f9b6
00000090: 53f7 edb5 8cfc db36 e52e 8eb6 42de 74b6
000000a0: 86e0 32b6 a43c bb36 e483 8db6 4085 86b6
000000b0: 6383 7736 b7d1 98b6 0d31 8836 260a 6a36
000000c0: 2ed5 aab5 0821 a9b6 ff6b 8fb5 ce6c 67b6
000000d0: 31e6 36b5 aafb 17b4 57e8 d935 816c 91b5
000000e0: 5315 0bb6 96d3 72b5 57c0 05b7 063b c6b3
000000f0: 7169 c133 7e5e 4cb6 2226 2eb6 d418 8934
00000100: e2d5 89b6 02a2 bcb6 33a6 41b6 81d7 df35
00000110: c5cd e435 b0a1 53b5 2aa7 cb36 689e 79b5
00000120: cf1c 6eb6 96ff 5336 4503 b3b6 fa02 69b6
00000130: d276 b436 fddd 63b6 c543 0337 9e72 94b5
00000140: 0000 0000 0000 0000 0000 0000 0000 0000
00000150: 0000 0000 0000 0000 0000 0000 0000 0000
00000160: 0000 0000 0000 0000 0000 0000 0000 0000
00000170: 0000 0000 0000 0000 0000 0000 0000 0000
00000180: 0000 0000 0000 0000 0000 0000 0000 0000
00000190: 0000 0000 0000 0000 0000 0000 0000 0000
000001a0: 0000 0000 0000 0000 0000 0000 0000 0000
000001b0: 0000 0000 0000 0000 0000 0000 0000 0000
000001c0: 0000 0000 0000 0000 0000 0000 0000 0000
000001d0: 0000 0000 0000 0000 0000 0000 0000 0000
000001e0: 0000 0000 0000 0000 0000 0000 0000 0000
000001f0: 0000 0000 0000 0000 0000 0000 0000 0000
00000200: 0000 0000 0000 0000 0000 0000 0000 0000
00000210: 0000 0000 0000 0000 0000 0000 0000 0000
00000220: 0000 0000 0000 0000 0000 0000 0000 0000
00000230: 0000 0000 0000 0000 0000 0000 0000 0000
00000240: 0000 0000 0000 0000 0000 0000 0000 0000
00000250: 0000 0000 0000 0000 0000 0000 0000 0000
00000260: 0000 0000 0000 0000 0000 0000 0000 0000
00000270: 0000 0000 0000 0000 0000 0000 0000 0000
00000280: 0000 0000 0000 0000 0000 0000 0000 0000
00000290: 0000 0000 0000 0000 0000 0000 0000 0000
000002a0: 0000 0000 0000 0000 0000 0000 0000 0000
000002b0: 0000 0000 0000 0000 0000 0000 0000 0000
000002c0: 0000 0000 0000 0000 0000 0000 0000 0000
000002d0: 0000 0000 0000 0000 0000 0000 0000 0000
000002e0: 0000 0000 0000 0000 0000 0000 0000 0000
000002f0: 0000 0000 0000 0000 0000 0000 0000 0000
00000300: 19d8 6737 4859 65b6 5c1e df37 78b1 ffb7
00000310: 8463 7537 8611 06b8 fd11 a1b8 8543 0136
00000320: f1c6 ffb7 5e5e dbb7 8032 f8b7 0581 2138
00000330: 5623 b636 ddc5 b0b5 8a7d 3fb8 e3da 1738
00000340: 24df 9c36 255d 8d35 5e70 8835 15aa 35b5
00000350: 8dbd 06b7 76dd 6eb5 2a2a 5bb5 48b4 1a35
00000360: d76f 3436 730a 10b6 0f5e a736 e930 cdb6
00000370: d124 fd35 2383 bdb6 6f77 22b6 7949 0537
00000380: 9633 f537 255f cab7 8285 4f38 a92d 1338
00000390: 3456 b337 a1f8 0ab8 0698 b938 7800 8db8
000003a0: 9e48 ca38 ec02 05b8 d20f ca38 6d13 17b8
000003b0: 0342 b0b8 33b2 eab7 a79a e838 9340 19b8
000003c0: fcb9 28b7 2c17 52b8 d013 5f38 9502 87b8
000003d0: a671 3337 774c b5b8 21fe 5738 8658 2bb7
000003e0: f0a2 a0b7 17d2 4136 dd65 4638 a6e3 43b8
000003f0: 228b b1b8 2356 8b38 f0f0 6438 4980 a6b8
6.400515e-06 4.0308848e-07 2.679244e-06 7.642285e-06 1.34259235e-05 3.0967826e-06 -9.529515e-06 -4.5296083e-06
6.7001333e-06 1.3595574e-05 7.1921118e-06 -9.797429e-06 -5.9423205e-06 2.7920498e-06 2.2143455e-05 2.655464e-06
-5.587142e-06 2.4182382e-06 6.4878272e-06 2.7353935e-06 -7.563022e-08 7.7471195e-06 1.8006055e-07 -1.0312011e-06
4.4936987e-06 7.85431e-06 -2.145608e-06 -1.484542e-07 -1.8081398e-06 -4.226575e-06 -3.0554364e-07 2.2815018e-06
1.1837428e-06 -5.197782e-06 4.161531e-06 -7.446324e-06 -1.7729857e-06 6.556109e-06 -4.237389e-06 -3.6488204e-06
-2.6654757e-06 5.580094e-06 -4.2174815e-06 -4.0090235e-06 3.6882345e-06 -4.554367e-06 4.058826e-06 3.4874624e-06
-1.272803e-06 -5.040438e-06 -1.0685761e-06 -3.4485015e-06 -6.8135256e-07 -1.4154526e-07 1.623538e-06 -1.0834921e-06
-2.0725026e-06 -9.0459923e-07 -7.9722e-06 -9.23083e-08 9.0064425e-08 -3.045337e-06 -2.5950217e-06 2.5536303e-07
-4.1078174e-06 -5.621697e-06 -2.8855982e-06 1.6677515e-06 1.7047211e-06 -7.883891e-07 6.069332e-06 -9.299024e-07
-3.5481532e-06 3.159022e-06 -5.3349963e-06 -3.4721438e-06 5.3782505e-06 -3.395485e-06 7.823987e-06 -1.1060217e-06
0.0 0.0 0.0 0.0 0.0 0.0 0.0 0.0
0.0 0.0 0.0 0.0 0.0 0.0 0.0 0.0
0.0 0.0 0.0 0.0 0.0 0.0 0.0 0.0
0.0 0.0 0.0 0.0 0.0 0.0 0.0 0.0
0.0 0.0 0.0 0.0 0.0 0.0 0.0 0.0
0.0 0.0 0.0 0.0 0.0 0.0 0.0 0.0
0.0 0.0 0.0 0.0 0.0 0.0 0.0 0.0
0.0 0.0 0.0 0.0 0.0 0.0 0.0 0.0
0.0 0.0 0.0 0.0 0.0 0.0 0.0 0.0
0.0 0.0 0.0 0.0 0.0 0.0 0.0 0.0
0.0 0.0 0.0 0.0 0.0 0.0 0.0 0.0
0.0 0.0 0.0 0.0 0.0 0.0 0.0 0.0
0.0 0.0 0.0 0.0 0.0 0.0 0.0 0.0
0.0 0.0 0.0 0.0 0.0 0.0 0.0 0.0
1.3818987e-05 -3.4175628e-06 2.6597809e-05 -3.048101e-05 1.4626308e-05 -3.196441e-05 -7.680429e-05 1.92618e-06
-3.0491008e-05 -2.6150778e-05 -2.958742e-05 3.850555e-05 5.4281363e-06 -1.3170608e-06 -4.5654866e-05 3.620506e-05
4.6751393e-06 1.0532427e-06 1.0165493e-06 -6.7675256e-07 -8.031156e-06 -8.898418e-07 -8.1645214e-07 5.7631814e-07
2.688719e-06 -2.1463754e-06 4.9879377e-06 -6.11517e-06 1.8860684e-06 -5.6479053e-06 -2.42094e-06 7.944524e-06
2.9230298e-05 -2.4124582e-05 4.9476985e-05 3.5090055e-05 2.1378604e-05 -3.3133318e-05 8.849804e-05 -6.723491e-05
9.6456366e-05 -3.1712392e-05 9.635057e-05 -3.6019297e-05 -8.4046296e-05 -2.7977954e-05 0.00011091428 -3.6538182e-05
-1.0056883e-05 -5.0089482e-05 5.3185795e-05 -6.4377826e-05 1.0695692e-05 -8.644995e-05 5.149667e-05 -1.0213005e-05
-1.914936e-05 2.888153e-06 4.7301746e-05 -4.6703637e-05 -8.465933e-05 6.644081e-05 5.4583827e-05 -7.939392e-05
