ISE_Transformer/model/2_room/eil_2_room_198_model/EBC_model_87999.pth (torch, 319288 bytes, 27 tensors)

encoder.embedding.weight f4 [900, 16]
0.24693394 -0.84368676 0.6982326 1.9744085 0.4247361 0.8138039 0.14605846 0.5545642
1.4892868 1.18611 1.3789173 -0.798422 1.9463953 -0.55809104 -1.0732598 0.6904803
-1.2006704 0.00946819 0.50707746 -0.67527294 0.50022167 0.596022 0.3934212 0.06987713
-0.98112065 -1.5140109 2.1730816 -1.6557695 0.8920338 -0.17973995 -0.3751738 -1.3788733
0.6358574 -0.07982452 -0.5271024 0.5953044 -0.017266082 0.21569021 -0.36805916 -1.9414774
-0.71879 1.1159776 -1.0000907 -0.055841472 -1.2845577 0.19199388 -3.4083261 -1.1182758
0.3906538 -0.744642 -1.5061529 -0.8235094 0.7116306 1.6833434 -1.1067653 0.5022288
-1.4069641 0.15554237 0.7027232 -1.4200995 -1.117897 -0.6802884 -0.7459048 -2.562182
0.92199194 0.4820617 -1.5340701 2.4503253 -0.94566196 -0.058820125 -1.4302257 0.43046322
-0.71814 -0.20084688 0.13629851 -1.8067966 -2.1614647 -0.06412988 -0.57450664 0.08181405
0.14950831 0.68173635 1.5676895 0.47556657 -1.0050126 -1.023286 0.5214422 -0.48220333
-0.7726252 2.7445233 -1.9759138 0.415895 1.5672935 -0.03982712 -0.9722075 -0.71206236
0.2399586 -1.199124 1.0634183 -0.6769421 -0.6633918 0.3362924 0.5184555 1.0378041
0.041475523 0.84185106 -0.13130704 -1.4924617 0.36357212 -0.51106703 -0.41850448 1.181892
-0.2659641 0.8041965 -0.307584 1.3537711 0.66702676 -0.23589839 -0.1712208 0.56163234
0.30705154 0.33780503 0.12988454 0.5764989 0.020306023 1.3983688 1.4169482 -0.0058822334
-0.8824504 -0.48821172 -1.3561088 -0.23345223 1.8297452 1.5896279 0.17809501 0.5119587
-0.5462637 -1.4434364 -1.923773 -1.1291713 1.0067925 -0.008793296 -0.804452 1.9658368
1.6479504 0.5699342 -0.012340214 -1.4708327 -0.046256755 -0.5328155 0.65974027 2.1868584
0.48783317 2.1796973 -1.4626534 -1.3909887 -0.43217906 -0.14899805 0.10180085 -0.17570433
0.32208213 1.2037162 0.0853502 -1.7608309 0.059560195 -1.3081975 0.23057866 0.9599387
0.14141941 0.86194164 -1.0958056 -1.1410904 -0.37610725 -0.2558852 -0.28377268 1.1223673
2.0637617 0.13099124 0.91126615 0.09883216 -0.666103 0.9322513 1.6354256 -1.1004666
0.7353627 2.0250545 -2.9137704 0.1907943 0.16965011 -0.70002025 -0.09773357 0.51418406
1.006769 0.09017305 -1.2745826 2.0134246 0.51357406 -0.659571 -1.1576324 -0.9632571
1.5750269 1.0765281 1.480618 -0.23101749 -0.76791227 -1.6926266 -1.8092488 -1.6669683
1.7966247 0.05358218 -0.7923893 0.7130428 0.48226836 -0.490014 -0.16952094 -0.36842087
-0.21379456 -0.5148826 0.6059722 -0.69186217 1.1695251 1.2593551 0.6120318 -0.72456944
-1.3499842 -1.6868294 -0.5709514 -0.4482567 1.0784959 0.6446241 -1.7075047 -1.7799883
1.2559942 0.6988786 0.22613674 -1.3629475 -1.065673 -0.27566677 -0.33428797 0.29324347
-0.08894356 -0.42518485 -0.24575846 0.8473593 1.9508057 0.63364625 -0.21060292 -1.4786576
-0.4357964 -1.9083897 1.2853541 -0.1528344 0.9880036 -0.0037008624 2.2966278 -0.09159336
00000000: 40dc 7c3e dbfb 57bf 5fbf 323f 6bb9 fc3f
00000010: 0377 d93e 7455 503f 5990 153e ebf7 0d3f
00000020: f3a0 be3f 74d2 973f 5d80 b03f 6265 4cbf
00000030: 7b23 f93f 0edf 0ebf 9460 89bf 51c3 303f
00000040: 91af 99bf 7820 1b3c d4cf 013f b0de 2cbf
00000050: 870e 003f e694 183f 816e c93e be1b 8f3d
00000060: b92a 7bbf 1ccb c1bf c513 0b40 41f0 d3bf
00000070: 545c 643f c00d 38be c816 c0be ec7e b0bf
00000080: 8dc7 223f 0a7b a3bd 2ff0 06bf df65 183f
00000090: 9971 8dbc e5dd 5c3e 4072 bcbe 5582 f8bf
000000a0: 9f02 38bf 5bd8 8e3f f902 80bf 07ba 64bd
000000b0: 636c a4bf 0b9a 443e 0422 5ac0 a923 8fbf
000000c0: c603 c83e dca0 3ebf 9ec9 c0bf 83d1 52bf
000000d0: 6c2d 363f cc77 d73f 7caa 8dbf 1192 003f
000000e0: 6617 b4bf 8046 1f3e abe5 333f d2c5 b5bf
000000f0: 4017 8fbf 6127 2ebf 9ef3 3ebf cafa 23c0
00000100: aa07 6c3f cbd0 f63e 695c c4bf 21d2 1c40
00000110: e716 72bf 5fed 70bd a311 b7bf ad65 dc3e
00000120: 06d8 37bf ceaa 4dbe d691 0b3e 1c45 e7bf
00000130: 7055 0ac0 8756 83bd de12 13bf 208e a73d
00000140: b518 193e 4686 2e3f 0daa c83f 767d f33e
00000150: 41a4 80bf 09fb 82bf 3c7d 053f 5be3 f6be
00000160: c4ca 45bf 45a6 2f40 beea fcbf 30f0 d43e
00000170: 139d c83f c321 23bd 97e2 78bf b849 36bf
00000180: b5b7 753e e57c 99bf 171e 883f 144c 2dbf
00000190: 0cd4 29bf 842e ac3e 80b9 043f c4d6 843f
000001a0: 3de2 293d 8d83 573f 5a75 06be fc08 bfbf
000001b0: 2026 ba3e 4ad5 02bf 3846 d6be 3d48 973f
000001c0: 722c 88be d2df 4d3f a67b 9dbe 5f48 ad3f
000001d0: 44c2 2a3f 598f 71be 8154 2fbe 23c7 0f3f
000001e0: dc35 9d3e c8f4 ac3e 7400 053e 6f95 133f
000001f0: d158 a63c c0fd b23f 8f5e b53f c0bf c0bb
00000200: 45e8 61bf e3f6 f9be f994 adbf 1a0e 6fbe
00000210: 1735 ea3f ed78 cb3f 8a5e 363e ba0f 033f
00000220: f0d7 0bbf 86c2 b8bf 323e f6bf af88 90bf
00000230: 94de 803f c211 10bc 91f0 4dbf 8aa0 fb3f
00000240: 0af0 d23f 35e7 113f 9c2e 4abc 3f44 bcbf
00000250: b977 3dbd 9966 08bf bde4 283f 7df5 0b40
00000260: 45c5 f93e 2980 0b40 3a38 bbbf eb0b b2bf
00000270: 9346 ddbe f292 18be f77c d03d d6eb 33be
00000280: f3e7 a43e 5f13 9a3f 16cc ae3d e862 e1bf
00000290: 64f5 733d 0473 a7bf d01c 6c3e 8bbe 753f
000002a0: 40d0 103e 35a8 5c3f 5c43 8cbf 400f 92bf
000002b0: 2191 c0be 6303 83be a74a 91be bba9 8f3f
000002c0: ac14 0440 9122 063e bd48 693f 8468 ca3d
000002d0: ba85 2abf 05a8 6e3f a055 d13f 17dc 8cbf
000002e0: bb40 3c3f 7e9a 0140 377b 3ac0 955f 433e
000002f0: c2b8 2d3e 8734 33bf 8a28 c8bd 91a1 033f
00000300: cedd 803f a6ac b83d 8625 a3bf f3db 0040
00000310: 9779 033f a5d9 28bf 4c2d 94bf 0498 76bf
00000320: 7b9a c93f accb 893f e484 bd3f d98f 6cbe
00000330: e695 44bf fda7 d8bf 7795 e7bf 385f d5bf
00000340: ccf7 e53f fd78 5b3d 06da 4abf f989 363f
00000350: e1eb f63e 1de3 fabe e696 2dbe a9a1 bcbe
00000360: f6ec 5abe 59cf 03bf fe20 1b3f e11d 31bf
00000370: 00b3 953f 8c32 a13f 1eae 1c3f 627d 39bf
00000380: 48cc acbf 07ea d7bf df29 12bf e781 e5be
00000390: 270c 8a3f 1606 253f 848f dabf a8d6 e3bf
000003a0: 6bc4 a03f b5e9 323f 6490 673e 1075 aebf
000003b0: f967 88bf 3224 8dbe cb27 abbe 0224 963e
000003c0: 0b28 b6bd d4b1 d9be 1ba8 7bbe 8aec 583f
000003d0: 00b4 f93f a436 223f 4ba8 57be a744 bdbf
000003e0: b520 dfbe 1d46 f4bf 7c86 a43f 9f80 1cbe
000003f0: ceed 7c3f 2b8a 72bb f3fb 1240 4d95 bbbd

encoder.lstm.weight_ih_l0 f4 [128, 16]
-0.4549262 0.23635547 -0.4633308 -0.69101226 -0.06580805 0.39165184 -0.11394935 0.2957792
-0.17730562 -0.26289365 -0.5301178 -0.075462066 0.38391387 -0.017977377 -0.048777737 0.45397335
-0.05811253 0.56050134 -0.49658814 -0.18994272 -0.06881355 -0.52812797 0.12056551 0.4272322
-0.21058883 -0.9078409 -0.40210757 -0.3112586 0.06862919 -0.96951824 0.22177598 -0.006642763
0.029165015 -0.2674822 -0.1824824 0.1990087 -0.16618587 0.17962416 0.29176316 0.10239082
0.14170435 -0.3659905 -0.24769974 0.23607019 -0.021723319 0.033987544 -0.22149332 0.41273028
-0.67279017 0.11357931 0.87028074 0.143265 -0.042785805 0.24686523 -0.103259705 -0.1104359
-0.061145525 0.23598729 0.12386777 -0.94943744 -0.47435609 -0.11479942 0.30205354 0.09577431
-0.02133255 0.05294584 0.37609607 0.06654433 0.50471765 0.3900852 -0.101154216 -0.017145941
-0.4316707 -0.07839536 0.30841216 -0.037505597 -0.21152578 0.22187477 -0.2188099 -0.2255946
0.2917146 0.5694557 0.11378996 0.08811867 -0.090523176 -0.039855953 -0.18006022 0.039030533
0.07783563 -0.8496626 -0.23950039 0.2320671 0.31704447 0.45159608 -0.38569334 0.36041966
-0.13130715 0.25995308 0.023059066 -0.22220708 0.47197038 -0.073770754 0.45416334 0.16212396
0.11211878 0.6322043 -0.036392238 0.45602882 0.38771343 0.12995686 0.15787487 0.30026326
-0.35050228 0.058890373 -0.054924477 -0.2749741 0.40085748 0.7241638 0.019401502 0.4073482
-0.50966567 -0.2040621 -0.97122824 -0.14247747 -0.31246167 1.0805808 0.44086203 -0.2633328
0.2096119 -0.34004664 -0.17222951 0.3856491 0.08507539 -0.29304296 0.2562343 0.5495295
0.13810156 0.21898182 0.12252537 0.16137603 0.43932128 0.55230904 -0.31103614 0.0083552245
0.33463153 0.41675323 -0.13130344 0.12844184 -0.38881013 -0.2708091 -0.061495814 0.31646258
-0.29200026 0.14149031 -0.7243667 -0.1802438 0.26091263 0.68178093 0.029175969 0.34770778
0.29654157 0.32711202 0.28580728 -0.19703814 0.05930489 0.13456243 -0.015429358 0.33486453
-0.33757386 -0.49206203 -0.3038315 0.011154475 0.61308724 -0.0061895135 -0.12902331 0.10022303
-0.15422367 0.7276624 -0.837727 -0.06806263 0.23129775 -0.46266812 0.10867076 0.48054692
-0.7564924 0.3745165 -0.061347988 0.44183442 -0.36498234 -0.106934644 0.1970796 0.16350836
0.035544194 0.6094576 -0.26670277 0.80337304 -0.24815822 0.07609673 -0.7321992 0.23714736
0.1311112 0.37774813 0.6073926 0.100038335 0.07774313 0.49924275 0.598856 0.23099282
0.015139646 0.12164766 -0.08190894 0.028522186 -0.37821954 -0.03599881 0.29258603 -0.16119742
-0.00647335 -0.20173882 -0.021380233 0.38019523 0.18544647 0.50762326 -0.26638323 0.18287587
0.2373395 -0.23260292 -0.23547901 0.4600337 0.1391346 0.19111858 0.2755644 -0.04903073
-0.046081547 -0.02026465 -0.23578703 -0.111738056 -0.06397437 -0.33675882 -0.108601645 0.09183811
0.1961679 -0.38042688 -0.21704492 0.023996975 -0.20282254 0.730017 -0.38957873 -0.27333397
0.026520543 0.07671376 0.2620303 -0.44119838 -0.6329108 0.1732368 0.18324342 0.22837561
00000000: 16ec e8be 2b07 723e b239 edbe 2ee6 30bf
00000010: 5fc6 86bd 9786 c83e 475e e9bd 5f70 973e
00000020: 9b8f 35be ff99 86be cdb5 07bf db8b 9abd
00000030: 5c90 c43e 4b45 93bc 2acb 47bd 326f e83e
00000040: 6707 6ebd 047d 0f3f cd40 febe 5880 42be
00000050: 1eee 8cbd 6533 07bf 0deb f63d 2ebe da3e
00000060: 99a4 57be 4368 68bf 0be1 cdbe 4a5d 9fbe
00000070: 768d 8c3d 5932 78bf 3e19 633e 89ab d9bb
00000080: 78eb ee3c 6df3 88be abdc 3abe f0c8 4b3e
00000090: a12c 2abe 65ef 373e fb61 953e 47b2 d13d
000000a0: f21a 113e 1b63 bbbe 00a5 7dbe 62bc 713e
000000b0: 1af5 b1bc 8636 0b3d 25cf 62be 6251 d33e
000000c0: fa3b 2cbf 459c e83d b8ca 5e3f 0fb4 123e
000000d0: 2b40 2fbd 3dca 7c3e d379 d3bd 382c e2bd
000000e0: bb73 7abd a7a6 713e 63ae fd3d 550e 73bf
000000f0: cdde f2be f51b ebbd c3a6 9a3e 5225 c43d
00000100: 9ac1 aebc bddd 583d aa8f c03e 6548 883d
00000110: 2d35 013f 3fb9 c73e f129 cfbd a575 8cbc
00000120: f103 ddbe bf8d a0bd 33e8 9d3e 789f 19bd
00000130: 379a 58be 2433 633e b40f 60be 4502 67be
00000140: 9e5b 953e d9c7 113f b60a e93d 9077 b43d
00000150: 3764 b9bd ff3f 23bd b561 38be 7bde 1f3d
00000160: 4968 9f3d 7d83 59bf 973f 75be ffa2 6d3e
00000170: a753 a23e 9a37 e73e 9979 c5be ed88 b83e
00000180: 6275 06be 9218 853e 5ee6 bc3c 418a 63be
00000190: 1aa6 f13e 1f15 97bd 1988 e83e d303 263e
000001a0: 889e e53d 24d8 213f 0710 15bd 9c7c e93e
000001b0: 6082 c63e 6913 053e f3a9 213e 1bbc 993e
000001c0: 0975 b3be 0837 713d 7df8 60bd 68c9 8cbe
000001d0: 313d cd3e cc62 393f e6ef 9e3c f18f d03e
000001e0: 7379 02bf a8f5 50be 6aa2 78bf 9de5 11be
000001f0: fafa 9fbe 7950 8a3f abb8 e13e 8fd3 86be
00000200: 80a4 563e 981a aebe ef5c 30be cd73 c53e
00000210: 023c ae3d ba09 96be 2431 833e f7ad 0c3f
00000220: 7f6a 0d3e c53c 603e 95ee fa3d c23f 253e
00000230: b8ee e03e 2064 0d3f 2140 9fbe 5ae4 083c
00000240: d354 ab3e ae60 d53e 6974 06be 4286 033e
00000250: 1f12 c7be 7ea7 8abe 09e3 7bbd 6207 a23e
00000260: 0f81 95be d6e2 103e 1970 39bf d591 38be
00000270: 5796 853e 3289 2e3f 7102 ef3c c106 b23e
00000280: 4cd4 973e 3a7b a73e 5555 923e 5ec4 49be
00000290: afe9 723d bcca 093e 6bcb 7cbc 5d73 ab3e
000002a0: 7bd6 acbe 8eef fbbe cd8f 9bbe 42c1 363c
000002b0: 49f3 1c3f 67d1 cabb b01e 04be bb41 cd3d
000002c0: cfec 1dbe 1548 3a3f 4775 56bf 6c64 8bbd
000002d0: 51d9 6c3e d6e2 ecbe c78e de3d 3f0a f63e
000002e0: 7ca9 41bf a0c0 bf3e 0748 7bbd 1f38 e23e
000002f0: f7de babe 8d00 dbbd 3ccf 493e bc6e 273e
00000300: ca96 113d 6a05 1c3f 448d 88be dba9 4d3f
00000310: 301d 7ebe 9ad8 9b3d 6871 3bbf c2d6 723e
00000320: 0442 063e 3468 c13e 157e 1b3f e6e0 cc3d
00000330: ca37 9f3d bf9c ff3e a04e 193f 6289 6c3e
00000340: 470c 783c 6922 f93d e0bf a7bd 5ca7 e93c
00000350: fea5 c1be 7d73 13bd d6cd 953e f010 25be
00000360: 651e d4bb 9f94 4ebe 9925 afbc f3a8 c23e
00000370: aee5 3d3e 99f3 013f 6263 88be d043 3b3e
00000380: 2009 733e 762f 6ebe 6921 71be 8a89 eb3e
00000390: 4d79 0e3e 97b4 433e c716 8d3e 72d4 48bd
000003a0: 01c0 3cbd 0d02 a6bc 2872 71be ecd6 e4bd
000003b0: ff04 83bd a76b acbe 8a6a debd 9e15 bc3d
000003c0: 3de0 483e 50c7 c2be 0641 5ebe 4e95 c43c
000003d0: b6b0 4fbe 65e2 3a3f dd76 c7be 6ef2 8bbe
000003e0: 9c41 d93c 1b1c 9d3d d628 863e c1e4 e1be
000003f0: 7106 22bf fd64 313e 2aa4 3b3e 4cdb 693e

encoder.lstm.weight_hh_l0 f4 [128, 32]
-1.0257566 -0.16378167 -0.28506914 0.36054713 0.64080346 -0.20850053 -0.0725444 -0.45804
-0.076968476 -0.5697054 -0.13188775 -0.31238022 0.43136197 -0.006531852 0.4725993 -0.13899267
0.36548874 -0.07972865 -0.5384863 -0.8204401 -0.11601373 0.24242449 -0.64540786 -0.51626533
0.27678657 -0.12552299 0.04371816 -0.08780515 -0.5326966 0.100120656 0.059455898 -0.26145604
-0.1723606 0.2545321 -0.5655443 -0.10466835 0.5930172 -0.43969733 0.12034186 -0.09977233
0.0019708697 -0.05343977 -0.38605374 -0.09855356 -0.28561622 -0.12559552 0.817105 -0.11720476
0.1468876 0.60171366 0.4297045 0.013443037 -0.8402223 0.4423433 0.11751033 0.44036043
0.73972565 0.058873504 -0.04867058 -0.326138 -0.71488875 0.6365723 0.73195773 0.06116399
0.59282243 0.038765714 -0.39318836 -0.22066648 1.176878 -0.50371426 0.2718173 -0.07418506
-0.37727842 -1.0892116 0.14773327 -1.214911 -0.064789 -0.86980236 0.19909495 -0.24189454
0.15803316 -0.3609016 0.6696624 -0.35155833 -0.55051595 0.0030813739 -0.2815429 -0.15137033
0.4415118 -0.5953902 0.02070328 -0.94445163 -0.30196616 0.13163386 -0.0056449724 -0.47533953
-0.075672545 -0.40091348 0.29049575 -0.16598207 -0.49152625 -0.78446054 -0.070597455 0.35141838
0.001915725 0.29390848 0.006697636 -0.57639194 -0.11596911 -0.8681126 -0.30530176 0.3250943
0.6340647 -0.45031846 0.36657578 -0.1052773 -0.15993497 -0.16483213 -0.28767052 0.11108855
-0.16173849 0.631711 -0.6806972 -0.097666875 -0.45077562 -0.28650856 -0.015051156 0.40612572
-0.33660856 0.15112516 -0.25511476 0.0820134 0.6523009 -0.8531009 -0.22420993 0.9013542
-0.413032 -0.14185405 -0.18734607 0.1963838 0.40566728 0.058867607 0.7721337 0.13931575
0.4202026 -0.16039361 -0.03396766 -0.38635254 -0.5380251 0.37176105 0.05933981 -0.36155003
0.468257 0.017504646 -0.45703062 0.26418686 -0.65685904 1.100317 -0.42553985 -0.37776336
0.11918358 -0.12055134 -0.5373585 -0.50933826 0.06349733 -0.4128917 0.56287146 1.0834477
-0.3897735 -0.041643273 -0.5496611 -0.16710256 -0.09306449 -0.10619869 0.10982102 -0.23831937
0.251692 0.063924685 0.27452993 0.09435737 0.09902005 0.58939165 0.3977838 -0.519024
-0.1823237 -0.38455462 -0.45881584 -0.5935421 -0.3061878 0.39670214 -0.46627265 -0.031617202
0.32555273 0.5923773 -0.40848064 0.20358011 0.13031504 -0.41164872 -0.15982957 0.86308247
-0.3951751 -0.032229457 -0.57998466 -0.58309424 -0.009220758 -0.5457964 -0.31055626 0.23424521
0.007683709 0.16138728 -0.40490648 0.24336329 -0.63455814 0.7629656 -0.042465538 -0.25971898
1.2077545 -0.6061167 0.13592486 -0.32530096 -1.0423605 0.31606704 0.12592588 -0.18495767
0.08670475 -0.28755483 -0.9238306 -0.2623514 0.93073624 -0.46113724 -0.2773348 0.1592524
-0.1940883 -0.2866991 -0.35581958 0.077908635 0.18315803 -0.46951208 0.65705633 -0.15728323
0.45530522 0.2612255 -0.22337545 -0.036866322 0.012444962 0.23209523 -0.6710654 -0.4313915
-0.2909105 -0.81135076 -0.49792886 -0.91635084 -0.56916416 0.37702072 -0.14631733 -0.3411917
00000000: fe4b 83bf 62b6 27be 95f4 91be a299 b83e
00000010: b20b 243f 2a81 55be 2992 94bd 3884 eabe
00000020: a6a1 9dbd 37d8 11bf 950d 07be 4df0 9fbe
00000030: 7adb dc3e 2509 d6bb 89f8 f13e 1854 0ebe
00000040: 5721 bb3e c648 a3bd 3dda 09bf 5d08 52bf
00000050: 9b98 edbd 203e 783e 7339 25bf f729 04bf
00000060: f8b6 8d3e 1989 00be d011 333d 30d3 b3bd
00000070: ce5e 08bf 0f0c cd3d 0788 733d 91dd 85be
00000080: 4c7f 30be 0852 823e 83c7 10bf 5c5c d6bd
00000090: facf 173f 0220 e1be cb75 f63d 6f55 ccbd
000000a0: b529 013b a9e3 5abd d6a8 c5be 73d6 c9bd
000000b0: 4a3c 92be 1d9c 00be cb2d 513f 0d09 f0bd
000000c0: b469 163e e809 1a3f 3a02 dc3e 2f40 5c3c
000000d0: cf18 57bf d27a e23e 42a9 f03d ec76 e13e
000000e0: a95e 3d3f 5825 713d cd5a 47bd 8ffb a6be
000000f0: f302 37bf 67f6 223f 9561 3b3f 1887 7a3d
00000100: 36c3 173f ccc8 1e3d fc4f c9be 65f6 61be
00000110: f0a3 963f 6bf3 00bf a32b 8b3e 56ee 97bd
00000120: a32a c1be 496b 8bbf 6447 173e 3482 9bbf
00000130: 18b0 84bd 5eab 5ebf 8cdf 4b3e 34b3 77be
00000140: 72d3 213e 18c8 b8be ff6e 2b3f 74ff b3be
00000150: 9dee 0cbf e0f0 493b 6426 90be d300 1bbe
00000160: d60d e23e 7e6b 18bf ed99 a93c 95c7 71bf
00000170: 4f9b 9abe 07cb 063e 76f9 b8bb b45f f3be
00000180: 35fa 9abd 8844 cdbe dcbb 943e 34f7 29be
00000190: 54a9 fbbe 68d2 48bf 6695 90bd 1ced b33e
000001a0: 1019 fb3a 2c7b 963e d877 db3b 6c8e 13bf
000001b0: 3681 edbd a13c 5ebf 8350 9cbe c372 a63e
000001c0: 1052 223f 2490 e6be d2af bb3e a09b d7bd
000001d0: fec5 23be c1c9 28be 8d49 93be 6582 e33d
000001e0: c69e 25be d0b7 213f 2c42 2ebf 9205 c8bd
000001f0: 10cc e6be 40b1 92be 2099 76bc b6ef cf3e
00000200: f557 acbe 8ec0 1a3e 679e 82be a4f6 a73d
00000210: 31fd 263f d264 5abf 4a97 65be 26bf 663f
00000220: ee78 d3be 3042 11be a6d7 3fbe d618 493e
00000230: 9fb3 cf3e 291f 713d 8eaa 453f caa8 0e3e
00000240: cc24 d73e 393e 24be ac21 0bbd 00d0 c5be
00000250: 03bc 09bf 7757 be3e 4d0e 733d 161d b9be
00000260: 62bf ef3e e765 8f3c ebff e9be 8043 873e
00000270: ea27 28bf 30d7 8c3f 5ce0 d9be 336a c1be
00000280: 8516 f43d 9fe3 f6bd 5490 09bf fe63 02bf
00000290: e30a 823d 8a66 d3be 5818 103f 6aae 8a3f
000002a0: 6490 c7be 2392 2abd 97b6 0cbf ef1c 2bbe
000002b0: 9898 bebd b37e d9bd d8e9 e03d fe09 74be
000002c0: c6dd 803e f2ea 823d 308f 8c3e 703e c13d
000002d0: 06cb ca3d 5fe2 163f 51aa cb3e c2de 04bf
000002e0: 10b3 3abe 58e4 c4be e9e9 eabe 60f2 17bf
000002f0: a6c4 9cbe 8b1c cb3e 4abb eebe 0a81 01bd
00000300: d9ae a63e 0aa6 173f 6024 d1be 4e77 503e
00000310: 4e71 053e 9fc3 d2be 5daa 23be f9f2 5c3f
00000320: 6454 cabe 0903 04bd e079 14bf aa45 15bf
00000330: aa12 17bc 50b9 0bbf 3b01 9fbe fadd 6f3e
00000340: 9fc7 fb3b b542 253e e74f cfbe 3a34 793e
00000350: 6772 22bf b751 433f 58f0 2dbd e3f9 84be
00000360: b397 9a3f 772a 1bbf e32f 0b3e d98d a6be
00000370: 126c 85bf 8ad3 a13e b7f2 003e 8b65 3dbe
00000380: 4392 b13d 633a 93be 2a80 6cbf ec52 86be
00000390: bb44 6e3f 2e1a ecbe d4fe 8dbe 1013 233e
000003a0: 15bf 46be 39ca 92be fc2d b6be 908e 9f3d
000003b0: c78d 3b3e e363 f0be d834 283f db0e 21be
000003c0: c41d e93e 59bf 853e 89bc 64be 2401 17bd
000003d0: f4e5 4b3c 5faa 6d3e f1ca 2bbf 59df dcbe
000003e0: 39f2 94be afb4 4fbf 88f0 febe f895 6abf
000003f0: beb4 11bf dc08 c13e 36d4 15be aeb0 aebe

encoder.lstm.bias_ih_l0 f4 [128]
0.7219889 0.37723014 0.36329648 0.08939553 0.3015968 0.5502089 0.41274998 0.4104719
0.35283867 0.43953866 0.16231172 0.04337798 -0.021450542 0.76436704 0.14450002 0.07997479
0.50757724 0.577092 0.699798 0.004669553 0.1339588 0.2011978 0.47727072 0.3187659
0.33119342 0.36856207 0.4780265 0.27810135 0.74626523 0.47099707 -0.1721322 0.21735406
0.30934206 -0.24636927 0.33591032 0.18533379 -0.031402875 0.38457856 0.17313522 0.28614128
0.20334557 0.41713354 0.20551836 0.63773984 0.3169254 0.3077533 0.31638238 0.2890466
0.48613778 0.08040752 0.34832934 0.26541707 0.14975016 0.25028953 0.1538478 0.39035103
0.38951176 0.3494615 0.18218815 0.07981667 0.26520422 0.5893733 0.1584239 -0.08094991
0.009278668 -0.02124775 -0.13843839 -0.19906774 0.21465936 -0.119306155 0.09605788 0.12998444
-0.19168386 -0.049073286 0.048248924 -0.21274377 -0.19753264 -0.19396785 -0.024304664 0.2120496
0.0146850925 -0.19045608 0.08602383 -0.14509933 -0.571482 0.34267074 -0.16799317 0.01644268
0.25704423 -0.25878018 -0.095153816 -0.12739065 -0.2833016 0.34045994 -0.23032404 -0.14950274
0.333255 0.41327888 0.17870142 0.41691497 0.22729638 0.03735802 0.13887943 0.11679416
0.67466795 0.33007476 -0.18759058 0.169132 0.14860287 -0.056461826 -0.33966726 0.09327909
0.079911925 0.5290419 0.23085305 0.13120806 0.020685133 -0.3710343 -0.04666501 0.043949544
-0.033864222 0.23379394 0.13293801 0.04877324 0.07725319 -0.19473745 -0.085626766 0.13434021
00000000: 44d4 383f 4f24 c13e ff01 ba3e 0115 b73d
00000010: e56a 9a3e 7eda 0c3f f753 d33e 5f29 d23e
00000020: 45a7 b43e 360b e13e 0b35 263e 1cad 313d
00000030: 0cb9 afbc 8fad 433f d0f7 133e d3c9 a33d
00000040: 95f0 013f 4dbc 133f f625 333f 0d03 993b
00000050: 7f2c 093e cc06 4e3e d45c f43e 4935 a33e
00000060: 2f92 a93e 2bb4 bc3e e4bf f43e 4d63 8e3e
00000070: 3d0b 3f3f 8726 f13e 6c43 30be 1092 5e3e
00000080: 1562 9e3e 3a48 7cbe 70fc ab3e 24c8 3d3e
00000090: 4da0 00bd 7be7 c43e 5c4a 313e 1c81 923e
000000a0: d239 503e 8792 d53e 6873 523e eb42 233f
000000b0: 0c44 a23e d791 9d3e dffc a13e eafd 933e
000000c0: 0de7 f83e b3ac a43d 3958 b23e bfe4 873e
000000d0: 1b58 193e f325 803e 478a 1d3e 17dc c73e
000000e0: 166e c73e 9eec b23e 888f 3a3e ec76 a33d
000000f0: d9c8 873e 2be1 163f e039 223e 11c9 a5bd
00000100: 8e05 183c c30f aebc cbc2 0dbe 6ad8 4bbe
00000110: aacf 5b3e c956 f4bd feb9 c43d a41a 053e
00000120: c648 44be 1201 49bd aaa0 453d 81d9 59be
00000130: ff45 4abe 829f 46be 931a c7bc 8823 593e
00000140: be99 703c eb06 43be 432d b03d eb94 14be
00000150: a54c 12bf 8a72 af3e 6706 2cbe cdb2 863c
00000160: 4d9b 833e d67e 84be 01e0 c2bd b272 02be
00000170: e80c 91be c450 ae3e 11da 6bbe 3f17 19be
00000180: 66a0 aa3e 4a99 d33e 81fd 363e e175 d53e
00000190: 62c0 683e b904 193d 6936 0e3e c731 ef3d
000001a0: 0ab7 2c3f 8fff a83e bf17 40be f030 2d3e
000001b0: 5a2b 183e 8444 67bd dee8 adbe 1c09 bf3d
000001c0: dda8 a33d 4a6f 073f be64 6c3e 685b 063e
000001d0: de73 a93c 35f8 bdbe cf23 3fbd 7004 343d
000001e0: 36b5 0abd ae67 6f3e e720 083e 73c6 473d
000001f0: ec36 9e3d 4169 47be 165d afbd 7b90 093e

encoder.lstm.bias_hh_l0 f4 [128]
0.490465 0.36271408 0.115246035 0.24738511 0.34919775 0.3192201 0.29489097 0.30538067
0.13432188 0.45477915 0.17871462 0.23137014 -0.00052979 0.8672932 -0.04109765 0.26750502
0.27675512 0.6388914 0.46164986 -0.0919215 -0.0023229835 0.30771354 0.4457295 0.14183441
0.33693096 0.550022 0.34190962 0.09509301 0.5224853 0.607044 -0.10744156 0.2766346
0.19341914 -0.28575933 0.04434014 0.16549146 0.15367763 0.3985169 0.09344297 0.4666085
0.17944278 0.54786634 0.1946108 0.50536597 0.26728666 0.5324703 0.2871358 0.30036983
0.4220107 0.10026895 0.19971628 0.016457507 0.13175094 0.30869225 -0.042437978 0.35936242
0.36209726 0.457373 0.2772854 0.3480309 0.36876544 0.44350165 0.3487106 0.14023067
0.15493244 -0.24515074 -0.28078377 -0.17942761 0.11081996 -0.17895713 0.1874959 0.08263269
-0.067660995 -0.16286612 -0.12461177 -0.17750195 0.028294329 -0.08967349 0.01238524 -0.04931327
0.2113685 -0.20525888 -0.002611759 -0.09897763 -0.575738 0.12690246 -0.285802 -0.13922957
0.2190743 -0.20781013 -0.30723163 -0.19622603 -0.27102062 0.2978956 -0.3067103 -0.22808447
0.38519973 0.37493664 0.19084528 0.28144997 0.31186387 -0.045538906 0.093327984 -0.17665717
0.54670835 0.38743192 -0.12668191 0.060759958 0.044790786 0.09514375 -0.1823474 -0.05563519
-0.07505462 0.75206286 0.033984195 0.28287876 -0.06850932 -0.29083452 -0.058990832 0.25951317
-0.093216434 0.032927003 0.008685538 0.16302598 0.13011743 -0.15443411 0.16285194 0.2584724
00000000: 3a1e fb3e a9b5 b93e 1d06 ec3d 8652 7d3e
00000010: 0cca b23e d170 a33e f3fb 963e db5a 9c3e
00000020: ad8b 093e d0d8 e83e f700 373e 4bec 6c3e
00000030: 9be1 0aba ed06 5e3f 0256 28bd 6bf6 883e
00000040: d9b2 8d3e 638e 233f 5f5d ec3e 5741 bcbd
00000050: 323d 18bb a18c 9d3e a836 e43e 0a3d 113e
00000060: 3782 ac3e 3ece 0c3f c70e af3e 20c0 c23d
00000070: 99c1 053f 3c67 1b3f 520a dcbd 0da3 8d3e
00000080: ab0f 463e 0c4f 92be 029e 353d 9876 293e
00000090: ab5d 1d3e 680a cc3e 075f bf3d 4fe7 ee3e
000000a0: d9bf 373e f840 0c3f 0e48 473e aa5f 013f
000000b0: ccd9 883e f94f 083f 7703 933e 13ca 993e
000000c0: c911 d83e cf59 cd3d 6d82 4c3e e5d1 863c
000000d0: b8e9 063e e90c 9e3e 72d3 2dbd 5afe b73e
000000e0: d064 b93e cb2c ea3e 5af8 8d3e 1b31 b23e
000000f0: d3ce bc3e a612 e33e 328a b23e a198 0f3e
00000100: 9ca6 1e3e cc08 7bbe e4c2 8fbe dfbb 37be
00000110: 93f5 e23d 8a40 37be edfe 3f3e 543b a93d
00000120: d991 8abd 60c6 26be 7534 ffbd 12c3 35be
00000130: 82c9 e73c bca6 b7bd 76eb 4a3c b6fc 49bd
00000140: fc70 583e 622f 52be 0b2a 2bbb c9b4 cabd
00000150: 9163 13bf b8f2 013e a454 92be 3292 0ebe
00000160: 0355 603e 2ecc 54be 774d 9dbe 7aef 48be
00000170: 37c3 8abe c685 983e 2209 9dbe fa8e 69be
00000180: e638 c53e b2f7 bf3e f26c 433e 361a 903e
00000190: 9fac 9f3e 0187 3abd be22 bf3d 9ee5 34be
000001a0: 14f5 0b3f 7a5d c63e e7b8 01be 6fdf 783d
000001b0: 8b76 373d bada c23d 47b9 3abe bae1 63bd
000001c0: 3db6 99bd 3187 403f 0333 0b3d 7cd5 903e
000001d0: 9d4e 8cbd 43e8 94be 5fa0 71bd e9de 843e
000001e0: 42e8 bebd 77de 063d c94d 0e3c 48f0 263e
000001f0: 813d 053e fa23 1ebe a9c2 263e 7f56 843e

policy.net.0.weight f4 [128, 32]
-0.19943972 -0.13553187 0.08805878 -0.15957916 0.07399547 -0.03840167 0.17625278 0.34297347
0.29074493 -0.16911855 -0.18489467 -0.38819394 -0.34172115 -0.008717816 -0.13128 -0.1290832
-0.25894976 -0.14285426 -0.3835316 0.31453958 0.36013338 -0.091325864 -0.026114281 -0.044485472
-0.08846987 0.29139063 -0.1499767 -0.15514557 0.11183164 -0.10439934 -0.19513285 -0.16695134
-0.036524862 -0.06995366 -0.07477435 0.16748859 0.25494966 0.14446738 -0.24986632 0.16798572
0.3766037 0.061151884 -0.18641594 -0.35554755 -0.14985423 0.047216717 -0.09899458 -0.19822279
-0.05824393 -0.08409224 -0.07063016 0.060371324 -0.26333228 -0.05272125 -0.05661306 0.14132789
0.15881489 0.23839243 0.33480465 0.21710005 0.03882706 -0.06121813 0.17103541 -0.2644309
-0.241022 -0.24499363 0.053531952 0.012701024 0.030086767 -0.29284558 -0.104643196 0.29927328
0.64695317 0.036526594 -0.32551727 -0.12850606 -0.57139134 0.08110537 -0.31326684 0.073026106
-0.1633641 -0.12458829 -0.15924741 0.29733595 -0.20774244 -0.09988661 -0.021726323 -0.117172025
-0.11177998 0.44305822 0.13892183 -0.020144904 0.16242805 -0.19785628 0.036281474 -0.24738547
0.5028097 -0.45537084 -0.36594203 0.45871794 0.26912457 -0.46112186 -0.7073678 0.14252178
0.6110335 -0.32050538 0.104179725 -0.55928904 -0.73160017 -0.41673505 0.10811732 -0.42960247
-0.16780442 0.47466737 -0.077811465 0.07957569 -0.6318234 -0.21250916 0.24354348 -0.47861284
-0.24301451 0.0733806 0.22039957 0.6876539 0.27713543 -0.20997287 0.44908664 -0.58201534
0.055867862 0.50011945 -0.13572772 -0.25557855 -0.09550101 0.41100892 -0.44282737 -0.18129441
-0.40387693 -0.17328893 0.32232943 -0.7094465 -0.91507065 0.02086548 -0.21273226 -0.28906867
-0.3968761 -0.795972 -0.03744402 -0.31494462 -0.49277434 -0.62192744 -0.060342055 0.029833207
-0.4466521 0.1784763 0.5632395 -0.1285601 0.15171275 -0.54959536 0.24141532 -0.17770799
-0.035706043 -0.4453367 -0.26969728 0.27570584 0.12906493 -0.59925544 0.5643822 -0.1537923
-0.22917101 0.28610078 -0.21792024 -0.09010821 0.21549667 -0.5977097 -0.020376483 -0.17891267
0.09352324 0.40528432 -0.067146525 -0.038049124 -0.10398921 -0.11155664 -0.10234825 -0.379268
-0.57171994 0.12999852 -0.19403872 0.36905238 0.20811713 0.09980482 -0.19818288 0.5336666
0.023356298 0.37588415 0.5296875 -0.6572891 0.7065214 0.18831445 0.13729724 -0.33521348
-0.1476319 -0.084746264 -0.08594119 -0.0075539127 -0.4360918 0.069533974 -0.55179834 -0.024622148
-0.101848304 -0.3566729 -0.303188 -0.55152136 -0.027266534 -0.22900955 0.13463448 0.25625598
-0.0046043172 0.11884237 0.011527282 -0.15282635 0.14277655 -0.31474638 -0.20901912 -0.19582991
-0.005243474 0.3003579 0.3759209 -0.1432772 0.15143152 0.31442627 -0.17681208 -0.36918974
-0.11658657 0.20755006 -0.120381474 -0.28753078 -0.19542773 0.05611811 0.19492176 0.02722198
-0.060850542 -0.14474668 -0.20437805 -0.050045338 0.07173425 0.028597917 -0.4224837 -0.048305597
0.21798225 0.18454012 -0.20170584 -0.09099634 0.018177588 0.1614923 -0.38648063 0.16806126
00000000: ed39 4cbe dec8 0abe 2958 b43d b868 23be
00000010: f08a 973d 124b 1dbd 9c7b 343e 389a af3e
00000020: 85dc 943e 6a2d 2dbe 0755 3dbe 5bc1 c6be
00000030: 13f6 aebe 2cd5 0ebc 446e 06be 632e 04be
00000040: 1095 84be 6348 12be 415e c4be 550b a13e
00000050: 6763 b83e 0e09 bbbd 9eed d5bc 6636 36bd
00000060: b12f b5bd 2731 953e 7e93 19be 7bde 1ebe
00000070: fd07 e53d 52cf d5bd e8d0 47be 4bf5 2abe
00000080: 189b 15bd dd43 8fbd 4b23 99bd 2182 2b3e
00000090: c388 823e 42ef 133e f5dc 7fbe 7304 2c3e
000000a0: 33d2 c03e 667a 7a3d d2e3 3ebe 540a b6be
000000b0: 6373 19be 5166 413d acbd cabd eafa 4abe
000000c0: 3091 6ebd 8d38 acbd 8ca6 90bd ec47 773d
000000d0: 7dd3 86be 3df2 57bd 19e3 67bd 42b8 103e
000000e0: 5fa0 223e 251d 743e 846b ab3e 7a4f 5e3e
000000f0: 2009 1f3d ddbf 7abd e823 2f3e 7d63 87be
00000100: 79ce 76be 9cdf 7abe 5244 5b3d f517 503c
00000110: 8678 f63c dbef 95be 2c4f d6bd 593a 993e
00000120: b99e 253f e99c 153d 33aa a6be 1897 03be
00000130: b446 12bf 921a a63d 8364 a0be b68e 953d
00000140: eb48 27be 2528 ffbd c111 23be 6b3c 983e
00000150: 6fba 54be 5a91 ccbd 67fb b1bc e3f7 efbd
00000160: e7ec e4bd 87d8 e23e 8641 0e3e ed06 a5bc
00000170: 8a53 263e d69a 4abe e29b 143d 9e52 7dbe
00000180: 23b8 003f 5e26 e9be c15c bbbe 14dd ea3e
00000190: b2ca 893e 2a18 ecbe 0e16 35bf 3bf1 113e
000001a0: b16c 1c3f 4819 a4be 2e5c d53d 912d 0fbf
000001b0: 264a 3bbf 4c5e d5be 9d6c dd3d dbf4 dbbe
000001c0: ecd4 2bbe 9a07 f33e 9e5b 9fbd 94f8 a23d
000001d0: 2ebf 21bf 009c 59be 7663 793e be0c f5be
000001e0: ccd8 78be 9148 963d 6db0 613e 160a 303f
000001f0: b2e4 8d3e 2103 57be afee e53e f5fe 14bf
00000200: b3d5 643d d407 003f 35fc 0abe 31db 82be
00000210: 0996 c3bd c36f d23e 45ba e2be 3ea5 39be
00000220: f5c8 cebe a772 31be 5d08 a53e 499e 35bf
00000230: 1242 6abf 15ee aa3c 7cd6 59be cf00 94be
00000240: 5833 cbbe d2c4 4bbf e75e 19bd 6c40 a1be
00000250: eb4c fcbe a336 1fbf 3b29 77bd c564 f43c
00000260: 96af e4be 7ec2 363e 7730 103f 42a5 03be
00000270: 965a 1b3e 48b2 0cbf 9435 773e 15f9 35be
00000280: 8040 12bd 2c03 e4be c315 8abe 5129 8d3e
00000290: 9929 043e ce68 19bf 5a7b 103f bb7b 1dbe
000002a0: ceab 6abe cd7b 923e 7c26 5fbe a78a b8bd
000002b0: 29ab 5c3e 8103 19bf 95ec a6bc e234 37be
000002c0: 1d89 bf3d 6d81 cf3e 1e84 89bd 66d9 1bbd
000002d0: 4cf8 d4bd cf77 e4bd f69b d1bd 6a2f c2be
000002e0: 3d5c 12bf 551e 053e 16b2 46be 6ff4 bc3e
000002f0: a81c 553e 7866 cc3d 74f0 4abe 609e 083f
00000300: b555 bf3c e373 c03e 9a99 073f 1944 28bf
00000310: 96de 343f 81d5 403e a697 0c3e 1aa1 abbe
00000320: d12c 17be 738f adbd ef01 b0bd d086 f7bb
00000330: 6d47 dfbe d467 8e3d a842 0dbf 63b4 c9bc
00000340: d895 d0bd d59d b6be 753b 9bbe 8130 0dbf
00000350: 115e dfbc 7b81 6abe 9fdd 093e fc33 833e
00000360: d0df 96bb a163 f33d eddc 3c3c 837e 1cbe
00000370: 0434 123e 7026 a1be 1c09 56be a387 48be
00000380: 73d1 abbb 83c8 993e b478 c03e 42b7 12be
00000390: dd10 1b3e 7bfc a03e 3a0e 35be 7006 bdbe
000003a0: f1c4 eebd 0188 543e 908a f6bd 3c37 93be
000003b0: 351e 48be 1adc 653d 9299 473e a100 df3c
000003c0: 6b3e 79bd 7938 14be 7b48 51be 57fc 4cbd
000003d0: 68e9 923d 2e46 ea3c c94f d8be 17dc 45bd
000003e0: bd36 5f3e 16f8 3c3e fa8b 4ebe 4a5c babd
000003f0: 2ae9 943c 3d5e 253e cae0 c5be 4018 2c3e

policy.net.0.bias f4 [128]
-0.21039726 -0.23669513 -0.41721615 0.15560609 -0.14504859 -0.46036196 -0.47139132 -0.35224116
-0.16542248 0.15806249 -0.26706108 -0.33226222 -0.34636465 0.10071679 -0.364574 -0.32116684
-0.05625346 0.1401776 -0.4078531 -0.10999954 0.024355166 -0.35266018 0.057014678 -0.070071876
-0.1322065 -0.43081906 -0.28612575 -0.041332126 -0.25815406 -0.29607284 -0.37514564 -0.44656682
-0.26593846 -0.35894665 -0.23703972 0.09021261 -0.42511094 -0.27470955 -0.010279512 -0.29291114
-0.025740402 -0.03337368 0.058040585 -0.4396022 -0.32707247 0.020060195 -0.42046493 -0.479898
-0.01761914 0.026538245 -0.36635208 -0.40221086 0.058985494 -0.42258552 -0.48346248 -0.33104378
-0.090762965 0.014360238 -0.2910097 -0.399826 -0.15219682 -0.34276068 0.08561296 -0.14713505
-0.25339442 -0.11600664 -0.19365893 -0.005864378 -0.3275442 -0.22917329 -0.54662895 -0.24160692
0.050126117 -0.24011497 -0.14136235 -0.3665646 -0.13021725 0.13486578 0.105512835 0.058512248
-0.08841269 -0.34644926 -0.26745847 -0.017916093 -0.12936586 -0.39017847 -0.40187043 0.05674187
0.15753634 -0.08290852 -0.12265039 0.16979359 -0.39208624 0.11028682 -0.27250144 -0.10429923
-0.38495922 -0.2899953 -0.35864133 -0.46256387 0.24466176 -0.2599551 -0.2746401 0.09149224
0.13822886 0.08614425 -0.11951683 -0.36633334 0.108141795 -0.31635526 -0.36162117 0.07371667
0.072934285 -0.13626659 -0.36886597 0.18462472 -0.1952399 -0.1433304 -0.2433431 -0.2697565
-0.40837228 -0.20487817 0.13991088 -0.19734412 -0.2839152 -0.1587368 0.032139767 -0.15154195
00000000: 6172 57be 3560 72be 5b9d d5be 3457 1f3e
00000010: 9e87 14be 90b4 ebbe 345a f1be f458 b4be
00000020: 8364 29be 22db 213e 3bbc 88be 461e aabe
00000030: b556 b1be 9b44 ce3d 71a9 babe fb6f a4be
00000040: 076a 66bd b78a 0f3e 1fd2 d0be 7047 e1bd
00000050: 7c84 c73c e08f b4be 3988 693d d881 8fbd
00000060: 2461 07be 5194 dcbe 137f 92be e04b 29bd
00000070: c52c 84be dc96 97be 1713 c0be 68a4 e4be
00000080: 1629 88be dbc7 b7be 8aba 72be 64c1 b83d
00000090: 24a8 d9be bba6 8cbe 666b 28bc 73f8 95be
000000a0: 89dd d2bc d7b2 08bd f7bb 6d3d 8a13 e1be
000000b0: 0b76 a7be 4755 a43c 2e47 d7be 31b5 f5be
000000c0: 0456 90bc bc66 d93c 8092 bbbe 95ee cdbe
000000d0: c69a 713d 215d d8be 6588 f7be 927e a9be
000000e0: efe1 b9bd 3447 6b3c 39ff 94be feb5 ccbe
000000f0: 7cd9 1bbe 547e afbe d955 af3d 92aa 16be
00000100: eabc 81be e494 edbd 874e 46be f829 c0bb
00000110: e0b3 a7be 67ac 6abe e0ef 0bbf ce67 77be
00000120: 0b51 4d3d b3e0 75be 4bc1 10be 5bae bbbe
00000130: ac57 05be 411a 0a3e 1d17 d83d 8aaa 6f3d
00000140: b611 b5bd cc61 b1be 51f0 88be c5c4 92bc
00000150: 7c78 04be 79c5 c7be f6c1 cdbe 2a6a 683d
00000160: 3551 213e f1cb a9bd 2130 fbbd 5fde 2d3e
00000170: 87bf c8be 0ede e13d 4f85 8bbe d69a d5bd
00000180: 6019 c5be 447a 94be d69f b7be 2cd5 ecbe
00000190: 9d88 7a3e d618 85be a19d 8cbe 4960 bb3d
000001a0: de8b 0d3e 666c b03d 3dc5 f4bd 0b90 bbbe
000001b0: 7279 dd3d 51f9 a1be 6926 b9be c4f8 963d
000001c0: 925e 953d 7889 0bbe 00dc bcbe 430e 3d3e
000001d0: f8ec 47be 34c5 12be ef2e 79be 861d 8abe
000001e0: 2c16 d1be 95cb 51be cc44 0f3e 9414 4abe
000001f0: 555d 91be e68b 22be fda4 033d d02d 1bbe

policy.net.2.weight f4 [5, 128]
-0.9186948 -0.40055433 -1.3238225 -0.598005 -3.2195888 -1.665168 -1.767181 0.022177361
-0.29082486 -1.0082674 -1.3719139 -0.9323401 -0.332389 -0.9399906 -0.5013881 -0.8667489
-1.311231 -1.0582013 -0.19188073 -1.5664985 -2.980084 -0.516231 -0.5117653 -3.7150705
-1.4326715 -1.1898142 -0.33683997 -0.2935149 -0.4837382 -0.34194574 -0.5205932 -0.32492313
-0.7385527 -0.18342885 -0.51566213 -0.5891232 -1.6276643 -2.5527241 -0.85845816 -0.9475
-1.1607218 -0.22835526 -1.0222337 -0.30659136 -1.6512885 -0.83934253 -0.22046092 -0.26030734
-0.6324369 -2.258885 -0.89917547 -0.4342469 -0.9234976 -0.8002532 -0.4092278 -0.9019682
-3.4177763 -1.3933916 -0.7124974 -2.1820319 -0.5179021 -0.47485092 -0.5567588 -4.266484
-3.7592838 -2.8933349 -0.2763482 -3.406691 -1.8310114 -0.5289664 -1.513264 -3.0781622
-1.354791 -0.33694986 -1.2575465 -0.06815651 -0.6234404 -0.48844287 -0.5393273 -1.3971231
-1.5695449 -0.3124825 -0.24792245 -0.32659626 -0.426096 -0.15645546 -1.0599694 -2.254804
-3.237167 -0.57658243 -0.69204664 -0.6757498 -0.6480533 -2.5770342 -0.7086844 -0.37513685
-0.25716648 -0.7536514 -1.0948842 -0.27660504 -1.3636878 -0.6395483 -0.5937458 -1.3156832
-0.4905796 -1.0769491 -0.89123 -0.4966673 -2.9929104 -0.13704544 -0.5082028 -4.4531207
-2.826339 -1.0581721 -0.26006487 -2.1854587 -1.2237397 -1.4170904 -1.3734378 -0.36138776
-0.36198 -0.53934395 -1.0446256 -0.24818404 -0.33074108 -0.38625124 -0.45361507 -1.3150781
-0.047141228 0.02386118 -0.1340561 0.08578312 -1.032821 0.80334795 -0.17134927 -0.009618797
0.07619848 0.157785 0.08257095 0.014089757 -0.09242905 0.09366267 0.08654283 0.06432379
0.010296246 0.124566875 -0.52009684 0.10853275 0.09851956 0.049833663 0.11913479 -0.026924258
0.7063308 0.19282098 -0.059232756 -0.5028573 -0.06415958 0.15431206 0.20878337 0.23634109
0.87497455 -0.2058137 -0.5112691 0.08081623 0.07361617 -0.6900886 0.031794563 -0.049415573
-0.14845502 -0.25134522 -0.010140281 -0.17803943 0.068318404 0.24810867 0.14818357 -0.23932786
0.104744 0.39703262 -0.7000091 -0.15663482 0.08993046 0.121711425 -0.40029025 -0.3485724
0.628022 -0.1143627 -0.07847949 -0.02471231 0.051454812 -0.07382018 0.13184154 0.21709481
0.15776813 -0.07266523 0.019287959 -0.16565207 -0.12799506 0.06789194 -0.44044447 0.06998508
-0.3802819 0.11573787 0.107383996 0.025008596 -1.3810322 0.13304223 -0.72413445 0.059982177
0.0374988 -0.053268284 0.051982462 0.06094099 0.14882188 -0.7854064 -1.2056899 -1.0423293
0.055710863 0.10269873 0.033262957 0.48361194 0.2583292 0.11992099 -0.76685965 -1.9231019
-0.082640074 0.07427453 -0.004290921 -0.44039705 0.105158634 0.08819672 0.079730906 0.08549435
0.05992106 -0.08029012 0.10292534 -1.877941 -0.19995168 -1.0600119 0.098831505 0.14824092
0.14854541 0.33707613 0.082817025 -0.38682547 0.25869894 -0.09885985 0.056523386 0.017193079
-0.20489408 0.037743628 -1.2330958 -0.87531567 0.21243417 0.065715864 0.12055879 0.08432781
00000000: 952f 6bbf 7515 cdbe 0473 a9bf db16 19bf
00000010: be0d 4ec0 3a24 d5bf fd32 e2bf 4cad b53c
00000020: ffe6 94be e80e 81bf e09a afbf d7ad 6ebf
00000030: e42e aabe 39a3 70bf f85a 00bf 42e3 5dbf
00000040: 6bd6 a7bf 2473 87bf 627c 44be 0683 c8bf
00000050: b2b9 3ec0 b727 04bf 0d03 03bf b7c3 6dc0
00000060: c861 b7bf d54b 98bf 4a76 acbe 9647 96be
00000070: 89ac f7be 8313 afbe 9945 05bf 535c a6be
00000080: ca11 3dbf c6d4 3bbe 6f02 04bf c7d0 16bf
00000090: 4e57 d0bf d55f 23c0 eac3 5bbf 5c8f 72bf
000000a0: 8892 94bf f6d5 69be 8ed8 82bf 8bf9 9cbe
000000b0: 6c5d d3bf 27df 56bf 82c0 61be 0147 85be
000000c0: 62e7 21bf 9291 10c0 5d30 66bf 9c55 debe
000000d0: 576a 6cbf 65dd 4cbf 4e86 d1be 63e7 66bf
000000e0: d9bc 5ac0 a85a b2bf 3b66 36bf 69a6 0bc0
000000f0: 3b95 04bf a91f f3be bf87 0ebf 0987 88c0
00000100: 1b98 70c0 662c 39c0 837d 8dbe 3a07 5ac0
00000110: 955e eabf 586a 07bf a2b2 c1bf 9c00 45c0
00000120: cb69 adbf b184 acbe 49f7 a0bf a495 8bbd
00000130: ca99 1fbf 2f15 fabe 5b11 0abf eed4 b2bf
00000140: d9e6 c8bf b5fd 9fbe 62df 7dbe a037 a7be
00000150: 4129 dabe dc35 20be 14ad 87bf b54e 10c0
00000160: be2d 4fc0 e89a 13bf f829 31bf f0fd 2cbf
00000170: d2e6 25bf 21ee 24c0 576c 35bf f011 c0be
00000180: 53ab 83be 4cef 40bf 2a25 8cbf 2d9f 8dbe
00000190: 528d aebf 70b9 23bf baff 17bf 4f68 a8bf
000001a0: 402d fbbe 78d9 89bf a627 64bf 2d4b febe
000001b0: d88b 3fc0 a455 0cbe 9419 02bf f77f 8ec0
000001c0: bde2 34c0 2f72 87bf 3927 85be 8ede 0bc0
000001d0: 81a3 9cbf 3863 b5bf cfcc afbf d107 b9be
000001e0: 7155 b9be 7212 0abf 4bb6 85bf f523 7ebe
000001f0: e556 a9be b9c2 c5be 3c40 e8be 7b54 a8bf
00000200: 2917 41bd 8578 c33c 0146 09be 0faf af3d
00000210: 7b33 84bf 36a8 4d3f 2f76 2fbe 2998 1dbc
00000220: f30d 9c3d 6492 213e f51a a93d b9d8 663c
00000230: 714b bdbd 37d2 bf3d 5e3d b13d 31bc 833d
00000240: 96b1 283c eb1c ff3d 1125 05bf 6b46 de3d
00000250: a0c4 c93d 621e 4c3d f1fc f33d 4390 dcbc
00000260: 18d2 343f dd72 453e 0c9e 72bd 42bb 00bf
00000270: 1966 83bd fb03 1e3e 4fcb 553e 6603 723e
00000280: 55fe 5f3f d4c0 52be 88e2 02bf fb82 a53d
00000290: 13c4 963d a6a9 30bf 043b 023d fc67 4abd
000002a0: 9804 18be 52b0 80be 6c23 26bc f84f 36be
000002b0: 85ea 8b3d 3310 7e3e 6fbd 173e 5d12 75be
000002c0: 0684 d63d dc47 cb3e cc33 33bf e164 20be
000002d0: 762d b83d d743 f93d d8f2 ccbe 1578 b2be
000002e0: 0dc6 203f fe36 eabd dbb9 a0bd 7871 cabc
000002f0: 48c2 523d 092f 97bd 7801 073e 1a4e 5e3e
00000300: f88d 213e 82d1 94bd c801 9e3c b2a0 29be
00000310: 2311 03be ee0a 8b3d f081 e1be 5654 8f3d
00000320: 4fb4 c2be fa07 ed3d 24ec db3d d4de cc3c
00000330: aac5 b0bf 393c 083e e060 39bf dfaf 753d
00000340: 5798 193d d82f 5abd 90eb 543d 429d 793d
00000350: c364 183e 6510 49bf 0c54 9abf 0c6b 85bf
00000360: 1331 643d b653 d23d bd3e 083d fc9b f73e
00000370: ba43 843e 2399 f53d ea50 44bf 3428 f6bf
00000380: 333f a9bd 3f1d 983d db9a 8cbb b97b e1be
00000390: 695d d73d 7ba0 b43d f549 a33d a917 af3d
000003a0: c96f 753d 256f a4bd 85ca d23d 5f60 f0bf
000003b0: 22c0 4cbe 78ae 87bf 2c68 ca3d 78cc 173e
000003c0: 4a1c 183e 3e95 ac3e f99b a93d fd0d c6be
000003d0: 3074 843e 0877 cabd 1185 673d 80d8 8c3c
000003e0: c1cf 51be 1099 1a3d 15d6 9dbf b014 60bf
000003f0: 5888 593e 0a96 863d 87e7 f63d 0fb4 ac3d

policy.net.2.bias f4 [5]
-4.740402 -0.09530627 0.11649103 -0.05347797 0.19550082
00000000: 60b1 97c0 ef2f c3bd d992 ee3d b70b 5bbd
00000010: 5e31 483e

exp_avg f4 [900, 16]
3.4491888e-05 2.7133887e-05 -3.8597733e-05 1.8819565e-05 6.608206e-06 -2.3839682e-05 -2.0154854e-05 2.7347573e-05
-7.0185806e-06 -6.2565755e-06 -4.6530207e-05 -2.8987832e-05 1.5528678e-05 -1.3260189e-05 2.0329962e-05 3.902715e-05
8.192747e-06 2.8819622e-05 -1.5845793e-05 2.6993917e-05 -1.9060265e-06 -1.4474549e-06 -1.5656784e-05 -1.1941931e-05
5.301573e-06 -6.220725e-06 -3.3672704e-06 -2.1182903e-05 -1.6968525e-05 -1.5489226e-05 4.6003825e-06 3.9369456e-06
1.3291455e-05 8.332287e-06 -7.374799e-06 -1.1034222e-05 6.6218554e-06 2.0469386e-06 -4.23906e-06 -1.590074e-06
-9.98587e-06 1.3266738e-05 -3.9928605e-06 3.625668e-06 1.3617347e-06 -8.575201e-06 1.2896589e-05 -4.8379616e-06
-5.724611e-07 -8.5033827e-07 -6.042632e-06 3.4562652e-06 -5.8387013e-06 -3.87016e-06 6.3439165e-07 -1.5548974e-05
-3.282218e-06 2.5974107e-06 -1.3350214e-05 4.513962e-07 -7.8167e-06 -1.1062851e-05 7.768011e-06 -8.56898e-06
4.8133174e-06 -2.5783993e-06 7.57441e-06 -5.1638557e-07 2.2228253e-06 4.6636605e-06 2.8202023e-06 -3.3709472e-07
5.133449e-06 6.3115276e-06 -2.0092632e-05 4.797482e-06 1.5303333e-06 -8.551112e-06 1.3118831e-05 -1.1446219e-05
0.0 0.0 0.0 0.0 0.0 0.0 0.0 0.0
0.0 0.0 0.0 0.0 0.0 0.0 0.0 0.0
0.0 0.0 0.0 0.0 0.0 0.0 0.0 0.0
0.0 0.0 0.0 0.0 0.0 0.0 0.0 0.0
0.0 0.0 0.0 0.0 0.0 0.0 0.0 0.0
0.0 0.0 0.0 0.0 0.0 0.0 0.0 0.0
0.0 0.0 0.0 0.0 0.0 0.0 0.0 0.0
0.0 0.0 0.0 0.0 0.0 0.0 0.0 0.0
0.0 0.0 0.0 0.0 0.0 0.0 0.0 0.0
0.0 0.0 0.0 0.0 0.0 0.0 0.0 0.0
0.0 0.0 0.0 0.0 0.0 0.0 0.0 0.0
0.0 0.0 0.0 0.0 0.0 0.0 0.0 0.0
0.0 0.0 0.0 0.0 0.0 0.0 0.0 0.0
0.0 0.0 0.0 0.0 0.0 0.0 0.0 0.0
-4.91528e-05 3.098159e-05 8.315148e-06 -3.2610107e-05 -2.3503811e-05 -0.00016628312 -1.8983676e-05 1.5248236e-05
-5.7850966e-06 -0.00010483911 -8.6946864e-05 -6.8701644e-07 6.7509325e-05 -2.1107855e-05 2.3166538e-06 1.689996e-05
1.1355936e-05 9.194602e-06 -7.0193187e-06 2.189769e-06 1.3048489e-05 2.8319597e-05 8.019517e-06 -5.611187e-06
-6.983147e-06 -9.702097e-06 -8.886345e-06 1.0093641e-05 2.3590055e-06 -8.053279e-06 7.3059487e-06 -1.2028063e-06
-0.00019732551 0.000119081415 2.4927043e-05 -0.00028026593 -0.00043834455 -9.97031e-05 6.5568333e-06 -0.00027178793
0.00023780443 6.201232e-05 6.973944e-05 -8.8128036e-05 -0.0002931791 1.358614e-05 0.0002447822 -2.573219e-05
-8.859285e-05 -9.8868106e-05 -0.000119169024 -8.162285e-05 -6.379529e-05 -0.00022311872 -2.062649e-05 1.2065355e-05
-1.1729097e-05 2.7069234e-05 -7.479906e-05 5.7999063e-05 -8.01204e-05 5.4760905e-05 4.5759363e-05 -6.600105e-05
00000000: 62ab 1038 949d e337 00e4 21b8 b5de 9d37
00000010: 0fbc dd36 54fb c7b7 3812 a9b7 7768 e537
00000020: 2681 ebb6 93ef d1b6 6e29 43b8 e52a f3b7
00000030: 9543 8237 1478 5eb7 438a aa37 15b1 2338
00000040: 9573 0937 abc1 f137 95ec 84b7 ff70 e237
00000050: 92d2 ffb5 2c46 c2b5 b056 83b7 345a 48b7
00000060: 2ae4 b136 9fbb d0b6 44f9 61b6 f0b1 b1b7
00000070: a157 8eb7 dcee 81b7 fc5c 9a36 1b1a 8436
00000080: 5dfe 5e37 e6ca 0b37 0b75 f7b6 9f1f 39b7
00000090: 4e31 de36 235e 0936 403d 8eb6 876a d5b5
000000a0: fc88 27b7 3594 5e37 69fa 85b6 8050 7336
000000b0: d9c4 b635 35de 0fb7 6e5e 5837 c655 a2b6
000000c0: 3aab 19b5 cd42 64b5 d0c1 cab6 2ff2 6736
000000d0: 10ea c3b6 6cdc 81b6 104b 2a35 2b6f 82b7
000000e0: 1344 5cb6 2d4f 2e36 bcfa 5fb7 6c57 f234
000000f0: 7924 03b7 959a 39b7 5a53 0237 7dc3 0fb7
00000100: 1582 a136 9008 2db6 b027 fe36 bf9d 0ab5
00000110: d92b 1536 8a7c 9c36 b542 3d36 f2f9 b4b4
00000120: fe3f ac36 9cc7 d336 998c a8b7 0efa a036
00000130: da65 cd35 bf76 0fb7 f318 5c37 2309 40b7
00000140: 0000 0000 0000 0000 0000 0000 0000 0000
00000150: 0000 0000 0000 0000 0000 0000 0000 0000
00000160: 0000 0000 0000 0000 0000 0000 0000 0000
00000170: 0000 0000 0000 0000 0000 0000 0000 0000
00000180: 0000 0000 0000 0000 0000 0000 0000 0000
00000190: 0000 0000 0000 0000 0000 0000 0000 0000
000001a0: 0000 0000 0000 0000 0000 0000 0000 0000
000001b0: 0000 0000 0000 0000 0000 0000 0000 0000
000001c0: 0000 0000 0000 0000 0000 0000 0000 0000
000001d0: 0000 0000 0000 0000 0000 0000 0000 0000
000001e0: 0000 0000 0000 0000 0000 0000 0000 0000
000001f0: 0000 0000 0000 0000 0000 0000 0000 0000
00000200: 0000 0000 0000 0000 0000 0000 0000 0000
00000210: 0000 0000 0000 0000 0000 0000 0000 0000
00000220: 0000 0000 0000 0000 0000 0000 0000 0000
00000230: 0000 0000 0000 0000 0000 0000 0000 0000
00000240: 0000 0000 0000 0000 0000 0000 0000 0000
00000250: 0000 0000 0000 0000 0000 0000 0000 0000
00000260: 0000 0000 0000 0000 0000 0000 0000 0000
00000270: 0000 0000 0000 0000 0000 0000 0000 0000
00000280: 0000 0000 0000 0000 0000 0000 0000 0000
00000290: 0000 0000 0000 0000 0000 0000 0000 0000
000002a0: 0000 0000 0000 0000 0000 0000 0000 0000
000002b0: 0000 0000 0000 0000 0000 0000 0000 0000
000002c0: 0000 0000 0000 0000 0000 0000 0000 0000
000002d0: 0000 0000 0000 0000 0000 0000 0000 0000
000002e0: 0000 0000 0000 0000 0000 0000 0000 0000
000002f0: 0000 0000 0000 0000 0000 0000 0000 0000
00000300: 6b29 4eb8 3bf2 0138 4a81 0b37 d6c6 08b8
00000310: 0d2a c5b7 495c 2eb9 223f 9fb7 add2 7f37
00000320: 9a1d c2b6 12dd dbb8 3e57 b6b8 696b 38b5
00000330: cb93 8d38 c610 b1b7 cf77 1b36 63c4 8d37
00000340: 6085 3e37 8442 1a37 7d87 ebb6 f2f3 1236
00000350: d5ea 5a37 df8f ed37 908b 0637 bb47 bcb6
00000360: c750 eab6 30c6 22b7 9016 15b7 dc57 2937
00000370: 684f 1e36 921c 07b7 9f25 f536 1c70 a1b5
00000380: 2ae9 4eb9 59bb f938 6b1a d137 a8f0 92b9
00000390: 9cd1 e5b9 b217 d1b8 c502 dc36 c27e 8eb9
000003a0: 245b 7939 9c0c 8238 1441 9238 61d1 b8b8
000003b0: d5b5 99b9 07f0 6337 1c56 8039 75db d7b7
000003c0: edca b9b8 6957 cfb8 62ea f9b8 ef2c abb8
000003d0: d6c9 85b8 faf4 69b9 0d07 adb7 4e6c 4a37
000003e0: 17c8 44b7 bd12 e337 71dd 9cb8 0544 7338
000003f0: 5006 a8b8 13af 6538 beed 3f38 0b6a 8ab8
