ISE_Transformer/model/2_room/eil_2_room_198_model/EBC_model_135999.pth (torch, 319327 bytes, 27 tensors)

encoder.embedding.weight f4 [900, 16]
000000 f7 ef ef 3d 66 51 91 bf 05 8b 49 3f cb 3e 01 40
       0.117156915 -1.1352966 0.7872775 2.0194576
000010 cf b5 db 3e d7 34 43 3f 41 8b 68 3e b4 c8 07 3f
       0.42912146 0.762525 0.22709371 0.53040624
000020 b8 df c5 3f f0 67 ae 3f ef cc b6 3f d5 ef 54 bf
       1.5458899 1.3625469 1.4281291 -0.83178455
000030 8c 44 d2 3f 2f dd eb be ff 26 76 bf 19 66 23 3f
       1.6427169 -0.46067187 -0.96153253 0.63827664
000040 7a 04 82 bf b0 e7 be bd a5 c1 e6 3e 74 56 10 bf
       -1.0157616 -0.09321535 0.45069614 -0.56381917
000050 f7 a2 f4 3e a1 c0 0a 3f 45 1d a4 3e 71 62 dd bd
       0.47780582 0.5420018 0.3205358 -0.10809792
000060 ae 17 80 bf a7 2d c8 bf 2f 72 0f 40 b1 cd c1 bf
       -1.0007226 -1.5638932 2.2413442 -1.5140897
000070 53 db 7d 3f 0e 17 4b be 1d 5a 6e be fa df b0 bf
       0.9916279 -0.19833013 -0.23276563 -1.3818352
000080 17 6e 1b 3f b4 ad 37 be 71 5f 05 bf 40 3d 01 3f
       0.6071486 -0.17937356 -0.5209876 0.50484085
000090 ee 9d e1 3d bf df 53 3c 9a cf bd be 0f 17 f0 bf
       0.11016451 0.012931763 -0.3707245 -1.8757037
0000a0 39 f5 5a bf f8 16 8e 3f 21 93 69 bf de c9 52 be
       -0.8553043 1.110076 -0.91240126 -0.20584819
0000b0 3e 55 92 bf 12 ed 57 3e e5 a1 64 c0 c0 d2 90 bf
       -1.1432264 0.21086529 -3.5723813 -1.1314316
0000c0 bd 26 0c 3f e1 7f 26 bf cc 86 c5 bf b7 a6 81 bf
       0.5474661 -0.6503888 -1.5431762 -1.0129002
0000d0 32 2a 48 3f 54 82 d7 3f 17 05 a2 bf d3 f0 13 3f
       0.78189385 1.6836648 -1.2657803 0.57789344
0000e0 41 1b be bf cb af bd 3d e4 4c 5d 3f 2f ff c7 bf
       -1.4852067 0.092620455 0.8644545 -1.5624751
0000f0 5d 0b 94 bf e4 70 43 bf 82 76 4f bf 4e 6a 23 c0
       -1.1565968 -0.7634413 -0.81040204 -2.5533633
000100 a6 ed 63 3f 16 96 fa 3e 23 a6 da bf b2 ae 18 40
       0.890345 0.4894263 -1.7081951 2.3856626
000110 3a 51 84 bf be 53 20 3e 6f 87 d1 bf 7a 40 0b 3f
       -1.0337288 0.15656945 -1.6369456 0.5439526
000120 a8 90 5e bf 91 e2 18 be 98 4b 60 3e 34 ad e4 bf
       -0.8693948 -0.14930178 0.21903837 -1.7865357
000130 e7 b7 0a c0 52 cb ea bc 43 79 10 bf 02 72 ba 3d
       -2.1674745 -0.028661404 -0.5643503 0.091037765
000140 b5 18 19 3e 46 86 2e 3f 0d aa c8 3f 76 7d f3 3e
       0.14950831 0.68173635 1.5676895 0.47556657
000150 41 a4 80 bf 09 fb 82 bf 3c 7d 05 3f 5b e3 f6 be
       -1.0050126 -1.023286 0.5214422 -0.48220333
000160 c4 ca 45 bf 45 a6 2f 40 be ea fc bf 30 f0 d4 3e
       -0.7726252 2.7445233 -1.9759138 0.415895
000170 13 9d c8 3f c3 21 23 bd 97 e2 78 bf b8 49 36 bf
       1.5672935 -0.03982712 -0.9722075 -0.71206236
000180 b5 b7 75 3e e5 7c 99 bf 17 1e 88 3f 14 4c 2d bf
       0.2399586 -1.199124 1.0634183 -0.6769421
000190 0c d4 29 bf 84 2e ac 3e 80 b9 04 3f c4 d6 84 3f
       -0.6633918 0.3362924 0.5184555 1.0378041
0001a0 3d e2 29 3d 8d 83 57 3f 5a 75 06 be fc 08 bf bf
       0.041475523 0.84185106 -0.13130704 -1.4924617
0001b0 20 26 ba 3e 4a d5 02 bf 38 46 d6 be 3d 48 97 3f
       0.36357212 -0.51106703 -0.41850448 1.181892
0001c0 72 2c 88 be d2 df 4d 3f a6 7b 9d be 5f 48 ad 3f
       -0.2659641 0.8041965 -0.307584 1.3537711
0001d0 44 c2 2a 3f 59 8f 71 be 81 54 2f be 23 c7 0f 3f
       0.66702676 -0.23589839 -0.1712208 0.56163234
0001e0 dc 35 9d 3e c8 f4 ac 3e 74 00 05 3e 6f 95 13 3f
       0.30705154 0.33780503 0.12988454 0.5764989
0001f0 d1 58 a6 3c c0 fd b2 3f 8f 5e b5 3f c0 bf c0 bb
       0.020306023 1.3983688 1.4169482 -0.0058822334
000200 45 e8 61 bf e3 f6 f9 be f9 94 ad bf 1a 0e 6f be
       -0.8824504 -0.48821172 -1.3561088 -0.23345223
000210 17 35 ea 3f ed 78 cb 3f 8a 5e 36 3e ba 0f 03 3f
       1.8297452 1.5896279 0.17809501 0.5119587
000220 f0 d7 0b bf 86 c2 b8 bf 32 3e f6 bf af 88 90 bf
       -0.5462637 -1.4434364 -1.923773 -1.1291713
000230 94 de 80 3f c2 11 10 bc 91 f0 4d bf 8a a0 fb 3f
       1.0067925 -0.008793296 -0.804452 1.9658368
000240 0a f0 d2 3f 35 e7 11 3f 9c 2e 4a bc 3f 44 bc bf
       1.6479504 0.5699342 -0.012340214 -1.4708327
000250 b9 77 3d bd 99 66 08 bf bd e4 28 3f 7d f5 0b 40
       -0.046256755 -0.5328155 0.65974027 2.1868584
000260 45 c5 f9 3e 29 80 0b 40 3a 38 bb bf eb 0b b2 bf
       0.48783317 2.1796973 -1.4626534 -1.3909887
000270 93 46 dd be f2 92 18 be f7 7c d0 3d d6 eb 33 be
       -0.43217906 -0.14899805 0.10180085 -0.17570433
000280 f3 e7 a4 3e 5f 13 9a 3f 16 cc ae 3d e8 62 e1 bf
       0.32208213 1.2037162 0.0853502 -1.7608309
000290 64 f5 73 3d 04 73 a7 bf d0 1c 6c 3e 8b be 75 3f
       0.059560195 -1.3081975 0.23057866 0.9599387
0002a0 40 d0 10 3e 35 a8 5c 3f 5c 43 8c bf 40 0f 92 bf
       0.14141941 0.86194164 -1.0958056 -1.1410904
0002b0 21 91 c0 be 63 03 83 be a7 4a 91 be bb a9 8f 3f
       -0.37610725 -0.2558852 -0.28377268 1.1223673
0002c0 ac 14 04 40 91 22 06 3e bd 48 69 3f 84 68 ca 3d
       2.0637617 0.13099124 0.91126615 0.09883216
0002d0 ba 85 2a bf 05 a8 6e 3f a0 55 d1 3f 17 dc 8c bf
       -0.666103 0.9322513 1.6354256 -1.1004666
0002e0 bb 40 3c 3f 7e 9a 01 40 37 7b 3a c0 95 5f 43 3e
       0.7353627 2.0250545 -2.9137704 0.1907943
0002f0 c2 b8 2d 3e 87 34 33 bf 8a 28 c8 bd 91 a1 03 3f
       0.16965011 -0.70002025 -0.09773357 0.51418406
000300 2a 0f 4e 3f 4e b6 0a be 07 12 81 bf 86 d9 f7 3f
       0.8049189 -0.13546106 -1.0083627 1.9363258
000310 4e e3 e1 3e 74 1c 0c bf 6e ac 8a bf ab a2 9d bf
       0.44118732 -0.54730916 -1.0833871 -1.2315267
000320 47 b2 db 3f 49 f5 8d 3f 5f 57 b4 3f c6 00 22 be
       1.7163781 1.109048 1.4089164 -0.15820608
000330 00 5f 4d bf 6e 62 df bf 48 47 ee bf 98 80 d5 bf
       -0.80223083 -1.7451913 -1.8615503 -1.6679869
000340 ec 37 e4 3f 7a 37 d3 bd 0b f3 15 bf c0 a2 fe 3e
       1.7829566 -0.10313316 -0.5857398 0.49733543
000350 80 a8 34 3f dd e8 01 bf c3 60 29 be 48 13 06 bf
       0.7056961 -0.50745946 -0.16540818 -0.5237317
000360 36 ef 89 be 13 81 35 bf 53 ee 32 3f 18 0b 1a bf
       -0.26940316 -0.70900077 0.69894904 -0.6017318
000370 74 68 83 3f e5 14 b1 3f 07 6d 27 3f ea 7f 31 bf
       1.0266252 1.3834502 0.6540074 -0.69335806
000380 22 ac a5 bf 03 13 df bf 09 01 d6 be 70 e9 12 bf
       -1.2943156 -1.7427677 -0.41797665 -0.5738745
000390 b0 95 81 3f 84 58 2b 3f 16 ed da bf a4 5e f6 bf
       1.0123806 0.6693194 -1.7103603 -1.9247632
0003a0 8d 7c a6 3f 40 20 13 3f 11 00 c9 3e dc 8b b1 bf
       1.300676 0.57471085 0.39257863 -1.3870807
0003b0 18 5a 80 bf fd bb 87 be a6 f8 7e be bf 44 e1 3e
       -1.0027494 -0.2651061 -0.2489954 0.43997762
0003c0 74 14 d8 bd f2 fd b2 be ae 4e 7b 3d e6 a7 74 3f
       -0.10550776 -0.3495937 0.06135433 0.9556869
0003d0 6b de e0 3f a9 b7 1a 3f ca 6b 0d 3d 22 22 d6 bf
       1.7567877 0.60436493 0.034526624 -1.6729167
0003e0 ad e1 fa be 1d 70 ee bf fb cd b2 3f b5 a1 70 be
       -0.49000302 -1.8627964 1.396911 -0.23499186
0003f0 3a 2e 5e 3f 67 75 3a bd 0b 1a 18 40 2d df 43 be
       0.86789286 -0.04552212 2.3765895 -0.19128104

encoder.lstm.weight_ih_l0 f4 [128, 16]
000000 be 21 cb be 67 6a 83 3e 3a 21 e6 be 18 18 36 bf
       -0.3967418 0.25667116 -0.44947225 -0.71130514
000010 dd 91 3a be 54 80 06 3f dd ed c3 bd 31 9a b0 3e
       -0.18219705 0.52539563 -0.09566853 0.3449264
000020 30 de 9d bd 5a 4e ab be 0b c5 38 bf c5 d5 e8 bd
       -0.077083945 -0.33458215 -0.72175664 -0.11368898
000030 8d df e6 3e 5c 39 8e be 13 c9 95 bd 4e 4d d2 3e
       0.4509243 -0.27778137 -0.073137425 0.41074604
000040 1d 7d a6 3d 89 13 1e 3f 2e c9 2f bf ce 10 7a be
       0.08129332 0.6174856 -0.6866635 -0.24420473
000050 5d 33 18 be ec 38 07 bf 9e 10 51 3e 04 d7 ca 3e
       -0.14863344 -0.5282123 0.20416495 0.3961717
000060 15 b6 70 be 1c 0a 82 bf 92 51 9e be c5 e4 7f be
       -0.23506959 -1.0159335 -0.30921608 -0.24989612
000070 d9 1b 81 bd e6 07 96 bf 79 51 65 3e 16 60 c6 bb
       -0.0630414 -1.172116 0.2239436 -0.006053935
000080 33 15 8a 3d 57 d0 66 be e8 d4 3c be 23 db 17 3e
       0.06742325 -0.22540413 -0.18440592 0.14829688
000090 1c 3d 23 3d c8 ef a6 3d c8 cb cf 3e ea 00 06 3d
       0.0398532 0.081512034 0.4058516 0.032715715
0000a0 f8 5a 4d 3e 95 3b 80 be a7 da ba be e7 ce d5 3e
       0.20054233 -0.25045457 -0.36494943 0.41759416
0000b0 c2 f8 43 3d 49 17 d5 3d df d1 9d be ed a1 0d 3f
       0.047844656 0.10404832 -0.3082418 0.55325204
0000c0 76 e6 12 bf 44 56 96 3e 97 c8 4f 3f 2c 04 8d 3e
       -0.57382905 0.2936269 0.8116545 0.27542245
0000d0 18 fe 21 bd 91 c1 ed 3d e5 d3 5e be b4 31 61 bc
       -0.039548963 0.116091855 -0.21760519 -0.01374476
0000e0 17 e4 a8 3d 38 03 e1 3e e5 31 ea 3d 97 3a 8f bf
       0.0824663 0.43947768 0.11435298 -1.1189755
0000f0 89 2f 1b bf 62 f6 5b be 6f 9e 83 3e 7c 1f 66 3e
       -0.6061941 -0.21480706 0.25706813 0.22472948
000100 6f fd 63 3d 18 6b 97 3d 5a 9a 61 3e 02 2b 4b 3e
       0.055661615 0.073934734 0.22031537 0.19840625
000110 b5 26 c4 3e 62 1e 92 3e 16 c4 1f be 88 2d 77 3d
       0.3831078 0.28538805 -0.15602145 0.060346156
000120 80 34 ea be 04 4a 84 3d c2 6d 9f 3e 93 a5 50 be
       -0.4574318 0.0645943 0.31138426 -0.20375662
000130 28 56 53 bd 98 e7 ac 3e 99 85 aa 3c fa d0 25 be
       -0.051595837 0.33770442 0.020815657 -0.16193
000140 a7 66 8f 3e 1c 71 f6 3e 59 7b 0c 3e b2 da 8c 3d
       0.28008005 0.4813317 0.13718928 0.0687765
000150 d0 e0 61 be bd 6f cc 3c 78 1a f2 be 5b 5e a5 3d
       -0.22058415 0.024955625 -0.4728582 0.080746375
000160 b9 ef 3d 3d be 35 83 bf e1 42 89 be 4f 9d 2c 3e
       0.046371195 -1.0250776 -0.26808837 0.16856883
000170 39 fe c0 3e 2b 99 ea 3e 7c 49 08 be 92 bb e2 3e
       0.37693956 0.45819983 -0.13309282 0.4428373
000180 eb f9 9d bb 7e 8c 93 3e 53 05 9d 3d b7 21 c0 be
       -0.0048210523 0.28818125 0.07667031 -0.37525722
000190 c0 29 13 3f 26 9c db bd ae eb e8 3e 55 5f 86 3e
       0.5748558 -0.10723142 0.4549231 0.26244608
0001a0 05 ef 8b 3e cc c5 35 3f 8f 63 b0 bd c1 09 a9 3e
       0.27330795 0.7100494 -0.08612739 0.33015254
0001b0 29 42 e9 3e dd db 53 3e d2 f7 14 3d a2 9b 71 3e
       0.4555829 0.2068934 0.036369152 0.23594525
0001c0 a2 dd 33 be 4f 80 eb 3d c7 52 0e bd 47 f0 33 be
       -0.17565015 0.11499082 -0.03474691 -0.17572127
0001d0 7a 73 a9 3e 43 bf 3d 3f a9 ad 8c 3c 96 41 ad 3e
       0.33095914 0.7411997 0.017172651 0.338391
0001e0 ab 8d 1a bf 0b a1 60 be e0 1a 7c bf 4c 35 f8 bd
       -0.6037242 -0.21936433 -0.9847851 -0.121195406
0001f0 fb 45 15 bf ba f6 8a 3f 24 91 dd 3e 96 81 bf be
       -0.58309907 1.0856545 0.43274796 -0.37403554
000200 b4 58 e9 3d fa 33 5e be 91 d4 5f be 85 71 45 3e
       0.11393872 -0.21699515 -0.21858431 0.19281586
000210 f0 ea a2 3d 3b 6e d0 bd 2b 58 23 3d 4e 5a 2c 3f
       0.07954967 -0.10177275 0.039879005 0.67325294
000220 43 80 a0 3d fc 9d 43 3e 01 6b 14 3d 14 b0 ef 3d
       0.07836964 0.19103235 0.03623486 0.11703506
000230 84 d3 ee 3e 11 71 09 3f 3f 94 9f be 38 97 09 3e
       0.4664575 0.5368815 -0.3116779 0.13436592
000240 fa cf 6e 3e 67 ce ea 3e 9c 8c f5 bd 53 ce 4f 3d
       0.23321524 0.45860597 -0.1198971 0.050733875
000250 2a 99 b5 be 73 3a 52 be 9f ec 5a 3d 71 7b bd 3e
       -0.35468417 -0.20530109 0.053448316 0.3700824
000260 d5 71 d4 be 7c 33 1c 3e 51 a9 0a bf c7 75 93 be
       -0.41493097 0.15254015 -0.54164606 -0.28800794
000270 af 54 8a 3e b3 d7 24 3f 1b 77 97 3d df b2 d3 3e
       0.27017733 0.6439163 0.073957644 0.41347405
000280 7f 77 9c 3e bc 27 f9 3e 8a ee 78 3e d2 a3 53 be
       0.30559918 0.48663127 0.24309745 -0.20667961
000290 76 64 2f 3c 68 0a a8 3b 1f 29 dc bd a8 d9 bc 3e
       0.010705104 0.0051281936 -0.10750031 0.3688481
0002a0 07 0e b1 be f8 40 17 bf 87 b9 3a be 34 49 f3 3d
       -0.34581015 -0.5908351 -0.18234836 0.11879197
0002b0 55 16 2f 3f b5 70 41 be 9f 93 76 be 70 8d d9 bc
       0.6839345 -0.1889065 -0.2407975 -0.0265567
0002c0 51 15 91 be fb 63 87 3f e4 f8 27 bf 6a 46 c2 be
       -0.28336576 1.0577387 -0.6561415 -0.37944347
0002d0 17 5d 91 3e eb e5 05 bf 7a e7 3e 3c 43 12 1e 3f
       0.28391334 -0.5230395 0.011651868 0.61746615
0002e0 d5 db 76 bf 51 95 d9 3e 17 72 da ba 71 71 ca 3e
       -0.9642919 0.42496732 -0.0016666082 0.39539674
0002f0 24 7b b6 be c6 ed 65 bd a5 31 76 3e dd c3 25 bc
       -0.35640824 -0.05613496 0.24042375 -0.010117498
000300 0b cd 2d 3d 69 e2 1d 3f 11 c5 d2 be 25 11 62 3f
       0.042431872 0.616736 -0.41165975 0.8830741
000310 58 63 55 be 15 e9 f0 3c d3 a6 55 bf bf 8c 81 3e
       -0.20838678 0.029408017 -0.8345768 0.25302693
000320 8c a1 28 3e d8 dc 8e 3e 90 df 0a 3f 07 ce a6 3d
       0.16467875 0.27902865 0.5424738 0.08144765
000330 66 72 7e 3d f8 c4 00 3f 09 21 1f 3f b8 d6 64 3e
       0.062120818 0.5030055 0.6215978 0.22347534
000340 7d 7a cf bd 9d 35 33 3e bd 75 ad bd d2 38 a5 bd
       -0.10130785 0.1750092 -0.084697224 -0.08067478
000350 ab 30 b5 be 30 63 fb bc 21 1e 0b 3f 0c 8a 0a be
       -0.35388693 -0.030686945 0.5434285 -0.13529223
000360 52 f8 b1 bd d5 d6 4f be 30 a6 17 be fe 6c d0 3e
       -0.086899415 -0.20296796 -0.14809489 0.40708154
000370 7c 92 8d 3e 1b ad 9f 3e 22 47 ce be 59 06 62 3e
       0.2765082 0.31186756 -0.40288645 0.22072734
000380 04 95 d5 3e b9 ab cf bd 74 2d 02 be 8d 5c d4 3e
       0.41715252 -0.10140175 -0.12712651 0.4147686
000390 86 c4 7e bc 76 7b 0b 3e de 8a f8 3d 18 14 16 be
       -0.0155497845 0.13621315 0.12135862 -0.14656103
0003a0 59 9a 24 bd 2d d7 e5 bd b0 ec 86 be f7 d8 28 be
       -0.04018626 -0.11222682 -0.26352453 -0.16489016
0003b0 cc b2 cc bd 36 1e a5 be ce d1 1d bd 00 33 3c 3e
       -0.0999504 -0.32249612 -0.038530163 0.1837883
0003c0 a3 3d 1e 3e 70 09 1d bf d8 5d e0 bd 1f 9e e9 bb
       0.154532 -0.61342525 -0.10955399 -0.007129445
0003d0 35 15 9d be 80 df 33 3f 8e ee c4 be 20 f1 24 be
       -0.30680242 0.7026291 -0.38463253 -0.16107607
0003e0 d1 0c 0e bb 03 f2 df 3d bc 0c 25 3e ac fc c1 be
       -0.002167512 0.10934832 0.16118139 -0.37888086
0003f0 d7 32 38 bf 5c 2f 26 3e ef d2 84 3e d7 f3 d2 3e
       -0.71952575 0.16229004 0.2594218 0.4120166

encoder.lstm.weight_hh_l0 f4 [128, 32]
000000 cb f7 88 bf 6c f5 82 be a7 bc 4b be b4 90 4d 3e
       -1.070062 -0.25577867 -0.19896184 0.20074731
000010 8f a9 08 3f 26 a7 fd be 0e 28 a4 3c 8d c2 fb be
       0.53383726 -0.49541587 0.02003863 -0.49171868
000020 cd 50 2c 3d 84 89 f8 be 8d 41 3c be 7f cc f0 be
       0.042069245 -0.48542416 -0.1838438 -0.47031018
000030 db 61 e6 3e ed a9 e8 bd d8 3e c5 3e 1f 8e 88 be
       0.44996533 -0.11360536 0.38524508 -0.2667093
000040 ac 09 c1 3e 66 64 a7 bd 3c f0 06 bf f5 9c 89 bf
       0.37702692 -0.08173446 -0.5271032 -1.0751024
000050 1f 93 29 be 70 71 e7 3d bc 41 29 bf 5d a7 0f bf
       -0.16560028 0.11300933 -0.6611593 -0.5611475
000060 79 07 8d 3e 68 a9 a4 bd 30 b3 38 be 10 43 a8 3d
       0.27544764 -0.08040124 -0.18037105 0.08215916
000070 c4 26 0e bf 90 51 16 3e 21 15 a3 bb 0e fa 05 be
       -0.555279 0.14679551 -0.004976884 -0.1308367
000080 5a c7 47 be de 70 01 3e 32 c7 12 bf 82 85 a0 be
       -0.1950964 0.12640712 -0.573352 -0.31351858
000090 c5 2d 04 3f 30 0f 8e be 76 1d 8b 3e 94 cb 7c 3d
       0.5163234 -0.27745962 0.27170914 0.061717585
0000a0 b1 7f 14 3e 59 a0 b7 bd 03 6f 7f be bc 80 f7 bd
       0.14501835 -0.08966131 -0.24944691 -0.12085101
0000b0 6f 43 73 bd 1f c1 64 be 2d b3 4c 3f b0 c4 5f bd
       -0.05939048 -0.22339295 0.799609 -0.054630935
0000c0 0e d0 df 3d 65 53 dc 3e 3e 27 dc 3e 66 2c ba 3d
       0.10928355 0.43032375 0.4299869 0.090904996
0000d0 37 24 51 bf 23 63 b7 3e ac 54 d5 3d d8 37 04 3f
       -0.81695884 0.35817823 0.104165405 0.5164771
0000e0 8c 1a 49 3f f9 3e 83 bd 81 c0 45 be cd ab b3 be
       0.7855613 -0.064084955 -0.19311716 -0.3509201
0000f0 9e 54 37 bf b8 45 e3 3e 5a 53 28 3f d9 fa 6c 3d
       -0.7161349 0.4438913 0.65752184 0.057856414
000100 25 e9 36 3f c1 88 90 3d 99 76 fa be 89 6d 9b be
       0.714495 0.07057334 -0.48918608 -0.30357006
000110 1b 62 86 3f 7b a8 f7 be e9 42 d1 3e 6f bd d4 3d
       1.049869 -0.48370728 0.4087136 0.10387694
000120 d8 3a a0 be 47 48 7a bf ec 25 07 be 37 9e a3 bf
       -0.31294894 -0.97766536 -0.1319806 -1.2782658
000130 ee a2 84 3d ab 28 92 bf 79 9a 5d 3e cc 11 5d be
       0.06476389 -1.1418661 0.21640958 -0.2158882
000140 13 21 8e 3e 0d fc 09 bf 7b 61 36 3f cb 3a e5 be
       0.2775961 -0.53900224 0.71242493 -0.44771418
000150 29 a8 2f bf 94 6b 52 3e b9 4e 5a be 33 2a 11 be
       -0.6861597 0.2054885 -0.21319093 -0.14176254
000160 1a 83 6e 3f ac 95 2e bf 9c 28 99 be f5 c7 91 bf
       0.93168795 -0.6819713 -0.29913795 -1.1389147
000170 7d d6 c2 be 11 d5 eb 3d 65 f0 6d be ce 92 c0 be
       -0.38054267 0.115152486 -0.23236234 -0.37612003
000180 65 41 35 bd 7f 72 aa be ef f4 eb 3e da f2 9d be
       -0.04425182 -0.3329048 0.46085307 -0.30849344
000190 96 46 d8 be 95 d4 3b bf bb e9 a8 3d ba 2d 1d 3f
       -0.42241353 -0.7337125 0.082477055 0.613979
0001a0 69 f9 88 3d ea 03 32 3e 21 05 5b 3c 3c 8f 63 bf
       0.06688196 0.17384306 0.013367922 -0.88890433
0001b0 20 53 93 be ed fa 86 bf b2 d1 78 be 99 3f c0 3e
       -0.28774357 -1.0545326 -0.24298742 0.3754852
0001c0 ac ae 16 3f 7f e9 21 bf 32 46 ca 3e ec 21 c8 be
       0.5886028 -0.6324691 0.3950668 -0.3908838
0001d0 c4 59 ce be ae d5 58 be c1 bc 88 be b5 2f 6b 3d
       -0.4030286 -0.21175262 -0.26706508 0.057418544
0001e0 c6 72 25 be 3f 53 47 3f e0 f6 0c bf 05 c6 95 be
       -0.16157064 0.778614 -0.550642 -0.2925264
0001f0 ab ac 07 bf fb 2e aa be 44 1b 8f be 53 4f 02 3f
       -0.52997845 -0.33238968 -0.2795049 0.5090229
000200 af c9 12 bf 9d eb 01 3e 58 be b1 bd 33 30 bc 3e
       -0.57338995 0.12687536 -0.08678883 0.36755523
000210 f1 df f2 3e 16 9a 62 bf 53 d6 a2 be 53 e8 5e 3f
       0.4743648 -0.88516366 -0.3180414 0.8707325
000220 b7 2e d3 be 62 dc a6 bd 98 f4 64 be 9c bf 23 3e
       -0.41246578 -0.081475034 -0.2235893 0.15991062
000230 db 53 0e 3f 29 87 fd 3b 22 46 51 3f 05 0a 2c 3d
       0.55596703 0.0077370596 0.8174764 0.042001743
000240 e3 29 cf 3e 00 bd e4 bd c6 89 e1 bd 7d c8 be be
       0.40461645 -0.111688614 -0.11012606 -0.37262335
000250 13 c3 0b bf 16 20 9e 3e d0 e2 ca 3e 4f 70 f4 be
       -0.54594535 0.30883855 0.3962617 -0.47741935
000260 7e cf ed 3e 15 b8 2b bc af 7a fd be 23 83 02 3f
       0.46447366 -0.0104809 -0.49507663 0.5098135
000270 0e 90 58 bf 62 d9 ac 3f f0 31 1c bf 33 d2 a2 be
       -0.8459481 1.350384 -0.610137 -0.31800994
000280 ed 8d 6b 3e c8 0d fe bc 81 d8 35 bf 81 6e d2 be
       0.23003359 -0.03101243 -0.71033484 -0.41099933
000290 d7 61 40 3e ef 88 a3 be 5a c5 4d 3f 64 38 b2 3f
       0.18787323 -0.3194041 0.8037926 1.3923459
0002a0 a7 ac 89 be db fc c8 bd 66 77 24 bf 16 b6 c9 3c
       -0.26889536 -0.09813853 -0.6424469 0.024622958
0002b0 bf 1c 79 be 95 60 cf bd 4b 1e 40 3d 7c 5d 81 be
       -0.24327372 -0.101258434 0.04690389 -0.25266635
0002c0 2b 24 6a 3e f5 b0 d4 3d 52 27 98 3e 58 59 25 be
       0.2286536 0.103853144 0.297175 -0.16147363
0002d0 a8 c2 f7 3d 55 0f 12 3f b7 10 23 3f 96 0b 16 bf
       0.120976746 0.57054645 0.6369738 -0.5861143
0002e0 4e 1a 84 be f4 6c c2 be b0 fa 01 bf 49 93 20 bf
       -0.2580132 -0.3797375 -0.50773144 -0.6272474
0002f0 44 47 a4 be ea 4e 0e 3f bb 86 be be 85 9b ff bb
       -0.3208562 0.55589163 -0.37212166 -0.007800522
000300 c6 1a 98 3e 26 f5 09 3f dc d1 db be 33 7f c3 3e
       0.29707927 0.5388969 -0.42933547 0.38182983
000310 90 62 28 3e 3a 80 17 bf 4e ce be bd 08 0a 4f 3f
       0.16443849 -0.59180033 -0.09316693 0.8087468
000320 65 21 ee be ab 5f 1e 3c 23 08 05 bf a2 5e f4 be
       -0.46509853 0.009666364 -0.5196554 -0.4772845
000330 9e 25 0c bd 63 7f 24 bf 18 6f 84 bc 9b c1 26 3e
       -0.034215562 -0.64256877 -0.016166255 0.16284792
000340 14 40 a8 bc 1e 82 33 3e 4a 2a b4 be 8a 4c 83 3e
       -0.020538367 0.17530105 -0.35188514 0.25644332
000350 ba 0b 5b bf 7c 7a 5f 3f f9 6a 9a 3d bc 96 49 be
       -0.8556477 0.8729627 0.07539935 -0.19686407
000360 2a 12 b8 3f 11 ac 14 bf b7 0d c8 3d fd 5c 77 be
       1.4380543 -0.5807505 0.09768241 -0.24156566
000370 c4 fa 9f bf c6 01 bb 3e ab 51 4e 3e 96 f8 05 3c
       -1.2498403 0.3652479 0.20148341 0.008176943
000380 da 0f 26 bd fc 57 c0 be 0a e3 6a bf 91 c3 90 be
       -0.04054246 -0.37567127 -0.91752684 -0.28274205
000390 95 98 84 3f e7 a2 ec be 6f 5b c3 be c2 66 7c 3d
       1.0359064 -0.46218035 -0.38155696 0.061621435
0003a0 b7 70 57 be 0f f8 6e be ed d1 7c be 9a 4a 20 be
       -0.21039091 -0.23336814 -0.24689455 -0.15653458
0003b0 91 62 c0 3e a5 63 fc be dc d2 25 3f f1 c5 39 be
       0.375752 -0.49294773 0.6477487 -0.18141915
0003c0 23 d5 68 3e 69 6e 71 3e ee 36 51 be d3 02 8a bd
       0.22737555 0.23577274 -0.2043111 -0.0673882
0003d0 30 fe ae bd a6 ff 00 3f 5f 51 24 bf 09 a6 db be
       -0.08544576 0.5039009 -0.6418666 -0.42900112
0003e0 22 3c a1 be 69 7e 4d bf 2f a8 3f bf 6a 8b 82 bf
       -0.3149119 -0.8027101 -0.74866 -1.0198796
0003f0 67 74 2c bf 1a 54 dd 3e e8 38 13 be c3 1f be be
       -0.67365116 0.43228227 -0.14377177 -0.37133607

encoder.lstm.bias_ih_l0 f4 [128]
000000 0b f8 4f 3f fd 5c 02 3f ff 4d e6 3e 44 af 06 3e
       0.8123786 0.5092314 0.4498138 0.13152796
000010 73 64 c4 3e c4 50 ce 3e b1 fe fd 3e 70 08 d6 3e
       0.38357887 0.40295994 0.49608377 0.41803312
000020 3c 29 c8 3e 55 ed db 3e 72 2a c3 3e da 36 94 bd
       0.3909396 0.42954507 0.3811832 -0.072370246
000030 18 e4 15 be ce 9f 68 3f 7d f0 15 3e 83 63 a0 3d
       -0.14637792 0.9086884 0.1464252 0.0783148
000040 e5 c3 12 3f 5f 68 4a 3f 83 6e 4f 3f 20 34 63 bc
       0.5733016 0.7906551 0.81028 -0.013867408
000050 25 5e 71 bc b8 5a 47 3e 40 7a 04 3f b4 b0 a0 3e
       -0.014731918 0.194682 0.5174904 0.31384814
000060 0f b9 83 3e 53 17 89 3e 5f a5 cb 3e 3d ba 09 3e
       0.25727126 0.26775607 0.39774606 0.1344995
000070 d2 c7 56 3f a3 08 20 3f 70 0f 88 be a7 d2 28 3e
       0.8389865 0.6251318 -0.26574278 0.16486607
000080 14 c9 99 3e f3 e1 d7 be 78 04 c7 3e 57 2e 93 3e
       0.30036223 -0.42164573 0.38870597 0.28746292
000090 8e 73 30 3c 72 07 f4 3e e0 63 31 3e 53 b0 c2 3e
       0.010769738 0.4766193 0.17323256 0.3802515
0000a0 7f b6 5a 3e 4d fd 06 3f 41 85 8a 3e bb ec 22 3f
       0.21358679 0.52730256 0.2705479 0.6364247
0000b0 d3 a7 b7 3e a1 74 d6 3e 4e a7 c7 3e 67 60 9c 3e
       0.35870227 0.41885856 0.3899483 0.305423
0000c0 ef e8 1b 3f e3 bd d7 3d bf 9b d3 3e d6 3e 80 3e
       0.60902303 0.10534265 0.41329762 0.2504794
0000d0 b1 3c 5a 3d 31 a7 77 3e 6d 65 81 3e 8b eb d5 3e
       0.053280536 0.24184872 0.25272694 0.41781268
0000e0 1d 6a b7 3e d4 a9 d8 3e 11 b1 7e 3e 27 d4 f6 3d
       0.35823146 0.4231707 0.24872233 0.120521836
0000f0 cd 60 e7 3e 4e 78 1b 3f 60 7b 7c 3e 70 24 9b bc
       0.4519104 0.60730445 0.24656439 -0.018938273
000100 f5 da 1f 3d 64 3e ae 3d 65 5b af bd 0c ab 79 be
       0.039027173 0.08507994 -0.08562354 -0.24381655
000110 a7 db 28 3e 1a 39 e1 bd 6d 58 82 3d 44 d5 ad 3d
       0.1649004 -0.109972194 0.06364522 0.08487943
000120 31 8e 59 be 76 19 22 bd 72 a2 13 3e d3 59 5e be
       -0.21245648 -0.039575063 0.14417437 -0.21713953
000130 01 eb 83 be e2 75 e2 bd 1a 06 40 bd 06 cd 3c 3e
       -0.2576523 -0.110576406 -0.04688082 0.18437585
000140 0e 19 64 3d bb 4b 34 be 24 67 17 3d a5 c2 38 be
       0.055687957 -0.17607014 0.036963597 -0.18043001
000150 34 55 08 bf 44 24 ca 3e 79 1d 47 be 06 02 83 3c
       -0.5325501 0.39480793 -0.19444837 0.015992176
000160 b0 4c 96 3e 70 d0 c2 be 3c e0 13 be 06 06 32 be
       0.29355383 -0.3804965 -0.14441007 -0.1738511
000170 1f 25 ab be 92 c9 c2 3e b5 47 5e be 87 d1 d5 bd
       -0.3342676 0.3804441 -0.21707042 -0.10440355
000180 72 fc e3 3e 6e a4 93 3e 35 aa d9 3d 88 57 d6 3e
       0.44528538 0.28836387 0.106281675 0.41863656
000190 a1 12 1a 3e 07 0b 77 bd 5a b0 51 3e 89 40 91 3c
       0.15046169 -0.06031325 0.20477429 0.017730968
0001a0 c5 28 35 3f 8c ce 2c 3e a6 22 4a be 8b f0 9b 3d
       0.70765334 0.16875666 -0.1973978 0.07614239
0001b0 69 ac 1d 3e f9 1e cd bd ae 0b b2 be 0e 14 d6 3d
       0.153978 -0.10015673 -0.34774536 0.10453044
0001c0 d3 0e 37 bd a7 fb 20 3f 48 18 82 3e df 65 24 bc
       -0.04469187 0.6288399 0.2540915 -0.010034054
0001d0 7d aa 3a be 3b c7 fe be 60 2a bd bd 24 ef 99 bd
       -0.18229099 -0.49761376 -0.09236598 -0.075163156
0001e0 72 10 f0 bd c1 3a 47 3e f6 03 44 3e 65 d9 2e bd
       -0.11721887 0.19456007 0.19142136 -0.042687792
0001f0 54 25 65 bd fe f8 4f be 7b e0 a2 bd 56 a2 b7 bc
       -0.055943802 -0.20309827 -0.079529725 -0.022416275

encoder.lstm.bias_hh_l0 f4 [128]
000000 e8 b2 14 3f 36 4b fd 3e 74 9c 4e 3e 9c 3b 94 3e
       0.5808549 0.49471444 0.2017687 0.28951728
000010 a1 c3 dc 3e ef 19 30 3e d3 a6 c1 3e e3 39 a0 3e
       0.43118003 0.17197393 0.3782259 0.31294164
000020 ad 8e 30 3e c3 ba e3 3e 53 90 cb 3e c6 ca ec 3d
       0.17241926 0.44478425 0.39758548 0.115621135
000030 b3 77 00 be e4 7c 81 3f 10 75 20 bd fa 1c 88 3e
       -0.12545662 1.0116239 -0.03917414 0.26584607
000040 5e 58 af 3e 75 3a 5a 3f 0c 77 12 3f ef 37 e2 bd
       0.34247106 0.8524545 0.572129 -0.11045825
000050 6d a3 1a be 88 36 9a 3e d2 ce f8 3e 81 34 0c 3e
       -0.15101404 0.3011973 0.4859529 0.13691904
000060 0a a9 86 3e 70 ff e5 3e 54 f4 85 3e 7c b2 46 bd
       0.26300842 0.44921446 0.2616297 -0.04851006
000070 34 7e 1d 3f 77 dc 42 3f 4b e0 4d be 04 87 65 3e
       0.61520696 0.7611765 -0.20105092 0.22414786
000080 7f dd 3c 3e e8 0c ec be 57 ee c6 3d 97 05 89 3e
       0.18443869 -0.46103597 0.097134285 0.26762077
000090 f6 8c 48 3e 79 2a fb 3e 7d 92 bf 3d f6 8a 0f 3f
       0.19585022 0.49055842 0.09354112 0.5607141
0000a0 84 3c 42 3e 35 75 28 3f 98 ef 84 3e 5e 09 01 3f
       0.18968397 0.65803844 0.25964046 0.5040492
0000b0 c0 3d 9e 3e b2 c1 24 3f e6 ad b8 3e 8e 2c a2 3e
       0.30906487 0.64358056 0.36070174 0.31674618
0000c0 74 7e 0b 3f 3c 35 00 3e da 84 87 3e 90 32 c7 3a
       0.5448983 0.12520307 0.26468545 0.0015197564
0000d0 4d 82 10 3d 7a ba 99 3e 31 30 67 3d ce 0d c6 3e
       0.035280515 0.30025083 0.056442443 0.38682407
0000e0 d5 60 a9 3e 16 f5 07 3f 35 09 b0 3e 9c 08 c7 3e
       0.3308169 0.53108346 0.34382024 0.38873756
0000f0 ae 33 0e 3f d7 41 ec 3e 09 ab df 3e b2 18 4f 3e
       0.55547607 0.46143982 0.43685177 0.20224264
000100 9b 1c 3d 3e a5 27 0e be 38 70 69 be 95 8e 65 be
       0.18467943 -0.1388231 -0.22796714 -0.22417672
000110 b2 1a 7a 3d 61 b1 2d be 22 ce 1e 3e 76 b6 19 3d
       0.061060615 -0.16962196 0.15508321 0.037527524
000120 ce 1b b5 bd 76 0c 1d be 58 fe ea bc e1 43 3a be
       -0.08843194 -0.15336785 -0.028685734 -0.18189956
000130 3a 59 02 bd 5a da cd bb 22 f7 26 bc 87 ab 9d bd
       -0.031823374 -0.006282133 -0.010190757 -0.07698732
000140 06 37 81 3e 32 74 43 be dc a5 53 bd fc 87 09 be
       0.25237292 -0.19087294 -0.051671848 -0.1343078
000150 20 6c 09 bf 8b 56 37 3e c2 df 9f be e3 08 0f be
       -0.5368061 0.17904107 -0.312254 -0.13968234
000160 b2 db 82 3e da b7 a8 be 9b 85 b6 be cd 82 78 be
       0.2555824 -0.32952768 -0.35648808 -0.24268647
000170 63 db a4 be 94 fe ac 3e 85 3f 96 be 2d 60 3b be
       -0.3219863 0.33787978 -0.29345337 -0.18298407
000180 25 95 fe 3e fd 02 80 3e 4a 89 f2 3d eb fb 90 3e
       0.49723163 0.2500228 0.11842592 0.28317198
000190 01 ac 70 3e 87 a5 12 be 55 0b 23 3e 5a 2b 8d be
       0.23503114 -0.14320956 0.15922292 -0.27572137
0001a0 cf 66 14 3f 0c 8b 67 3e 97 c3 0b be 4a 02 04 bd
       0.57969373 0.22611636 -0.1364883 -0.032228746
0001b0 50 7a 4d 3d 26 bc 52 3d c0 fe 42 be 87 cc 35 bd
       0.050165474 0.051448964 -0.19042492 -0.044384506
0001c0 12 73 4c be 8d 13 5a 3f 7e 64 6a 3d df 08 11 3e
       -0.19965771 0.8518608 0.057224743 0.1416354
0001d0 15 00 8b be 49 b7 d5 be 93 68 d6 bd e8 c4 0f 3e
       -0.271485 -0.41741398 -0.10469165 0.14039958
0001e0 2e cf 34 be d2 a9 ce bb a1 8f 89 3d 23 91 92 3d
       -0.17657158 -0.0063068653 0.06716848 0.07156589
0001f0 04 e7 49 bb a4 b3 26 be ea 00 2d 3e b4 50 d0 3d
       -0.0030807862 -0.16279465 0.1689488 0.10171643

policy.net.0.weight f4 [128, 32]
000000 80 23 1e be 40 a2 e7 be ef e4 d1 3e aa 20 1d be
       -0.1544323 -0.45240974 0.40994975 -0.15344492
000010 c9 5c 9c 3c ed 8d 08 3e 4b fa 4d 3e 25 6e 01 3f
       0.019087212 0.1333539 0.2011501 0.5055869
000020 07 27 39 3e 4d 0f 97 be f8 cc 8f bd a5 6a 94 be
       0.18081294 -0.2950386 -0.070215166 -0.28987613
000030 cd 38 a5 be f2 f1 85 bd 8e 18 9e be 25 12 88 be
       -0.32269898 -0.06540288 -0.3087811 -0.26576343
000040 a3 d8 d2 be 65 e6 f1 bc d6 c0 01 bf 71 47 0d 3f
       -0.41180906 -0.029528806 -0.5068487 0.55187136
000050 7f 8d 1b 3f 4f 55 72 be 0c 9f a6 bd e9 bb 83 be
       0.6076278 -0.23665355 -0.081358045 -0.25729302
000060 82 4f a7 be e5 d9 97 3e 48 60 86 be 06 6c 55 3c
       -0.32677847 0.29658428 -0.26245332 0.013026243
000070 61 7a 98 3e 9b bb 87 be a0 98 20 be 10 fe 93 be
       0.29780868 -0.2651032 -0.15683222 -0.28904772
000080 be 39 b0 bd cf f6 03 bd 15 16 3e bd 7e a2 df 3d
       -0.086047634 -0.032217797 -0.046407778 0.10919665
000090 5d dd 21 3e 33 e7 1b 3e ae 98 92 be 6a da df 3d
       0.158071 0.15224914 -0.2863211 0.10930331
0000a0 50 39 cf 3e 9b a2 60 3d 09 8c 5c be 9f 3d 8e be
       0.40473413 0.054842573 -0.21537794 -0.27781388
0000b0 75 1d b3 be fe 69 22 3b 3a 31 0e be 9c 6c 16 be
       -0.3498341 0.0024782415 -0.13885966 -0.14689869
0000c0 7f 42 ce bd d2 58 93 3c 37 56 f1 bc 31 c5 2f 3e
       -0.10071277 0.017986689 -0.029460056 0.17165066
0000d0 ea d5 61 be 90 f2 b0 bd 56 99 02 bd 35 0b 89 3e
       -0.22054258 -0.08640015 -0.031884514 0.26766363
0000e0 ab e4 80 3e 39 57 e8 3e 00 34 e3 3e cb c5 5e 3e
       0.2517446 0.45379046 0.4437561 0.2175514
0000f0 4c a8 94 bc c2 c3 74 be 2d c0 03 3d 5a ef 96 be
       -0.018146656 -0.239028 0.032165695 -0.29479486
000100 66 b9 c8 be a6 7d 90 be eb ce 78 bc 6e 75 a4 bd
       -0.39203948 -0.28220862 -0.015186052 -0.080302104
000110 cf cb 13 3e b5 28 e4 be 67 f0 85 be 4b 45 b5 3e
       0.14433216 -0.44562307 -0.26159975 0.3540443
000120 a6 ae 4b 3f 68 53 e9 3b b6 4d 63 be 28 85 4d be
       0.7956337 0.0071205385 -0.22197613 -0.20070326
000130 9b de 5f bf 0e 20 d4 3d 55 62 0f bf 18 ac a2 3e
       -0.87449044 0.103576764 -0.5600942 0.31771922
000140 4e 66 77 be fc 44 9c be a2 16 54 be bf 55 9d 3e
       -0.2416012 -0.3052138 -0.20711759 0.30729482
000150 39 fb 01 bf 0b b1 7f be 34 27 30 bd 82 57 62 be
       -0.5077396 -0.2496988 -0.043006137 -0.22103694
000160 46 fc 55 be 7b 8e 14 3f 11 3f 5a 3e 39 59 b3 bd
       -0.20897016 0.5802991 0.2131312 -0.08757252
000170 6d 5a 42 3e 3a 20 fa be b1 22 05 bd 1a 18 60 be
       0.18979807 -0.48852712 -0.032503787 -0.21884194
000180 34 64 b5 3e 8b 6e 0e bf 37 17 04 bf 91 aa bc 3e
       0.3542801 -0.55637425 -0.51597923 0.36848882
000190 fb c3 be 3e 3c 6c 35 bf c3 1e 86 bf d2 90 a5 3e
       0.37258896 -0.7086828 -1.0478138 0.32337052
0001a0 f8 d3 18 3f 33 a5 8f be a1 f8 eb 3d b2 fd e7 be
       0.5969844 -0.28055725 0.115220316 -0.45310742
0001b0 2e 30 43 bf a5 0b 1b bf bc 3a f6 3d 18 39 e6 be
       -0.7624539 -0.60564643 0.120229214 -0.44965434
0001c0 20 33 b7 bd 59 2d 2e 3f d4 c9 11 3d 06 d8 8e 3c
       -0.08945298 0.68037945 0.03559287 0.017436992
0001d0 7b bf 64 bf cd 7d 97 be 7a 9d 2a 3e 48 ab e6 be
       -0.89354676 -0.29588166 0.16661635 -0.45052552
0001e0 b6 8c cf be a3 69 3a 3c 79 58 ef 3d be 3f 2f 3f
       -0.4053704 0.011377725 0.11686797 0.6845664
0001f0 d8 a1 23 bb d4 d3 bd be 18 a1 17 3f 87 25 07 bf
       -0.0024968293 -0.37075675 0.59230185 -0.5279164
000200 e9 2d 74 3e 12 d9 23 3f 5d 71 38 bd 25 46 e3 bd
       0.23845638 0.640031 -0.045029987 -0.110973634
000210 fd 28 f6 bd bb db c9 3e 2a 1b 29 bf 4e d6 ab be
       -0.12019537 0.39425454 -0.66057074 -0.3356194
000220 98 de 54 be ee c7 ac 3d 99 e8 db 3e be cc 3b bf
       -0.20788038 0.08436571 0.42950895 -0.73359287
000230 32 dd 88 bf 84 b7 26 3e 5a 07 d9 be dd 98 e6 be
       -1.0692503 0.16280943 -0.4238842 -0.450385
000240 c8 8f cc be 11 78 47 bf a2 60 75 3d dc a3 82 be
       -0.39953446 -0.7791758 0.05990661 -0.2551564
000250 a8 66 0f bf 95 c6 e2 be 25 c3 5a be 7b f6 11 3e
       -0.56016016 -0.4429213 -0.21363504 0.14254181
000260 a8 08 e9 be 0f 18 61 3e 34 53 3d 3f 62 c6 a4 be
       -0.45514417 0.21981834 0.7395508 -0.32182604
000270 b0 23 4b 3d 27 34 38 bf 68 7d 56 3e d4 08 10 bf
       0.04959458 -0.7195458 0.20946276 -0.5626347
000280 64 00 43 be c4 40 06 bf 55 bf cb be b5 44 b8 3e
       -0.19043118 -0.52442575 -0.39794412 0.3598992
000290 dc bd 15 3e d3 da 42 bf f8 b9 3a 3f 35 e7 af bd
       0.14623207 -0.7611515 0.72940016 -0.08589021
0002a0 09 12 c7 be 92 5d 56 3e fc 4f b0 bd a1 2b 7a bd
       -0.38880947 0.20934132 -0.08609006 -0.061076764
0002b0 44 36 3f 3e 85 d7 47 bf a1 2c 9e bc bd 12 1e be
       0.18673044 -0.7806323 -0.01930839 -0.15436836
0002c0 e5 64 31 3e 32 59 f6 3e 7f 0d 4f bd 9a 5f 0d be
       0.17323644 0.48114926 -0.05054998 -0.13806
0002d0 42 23 80 bd 51 8c c8 3d 7c b6 00 be 86 bd a1 be
       -0.06256725 0.09792388 -0.12569612 -0.31589907
0002e0 3f 18 6b bf d3 fa 89 3e 0f 43 90 be ed e1 fe 3e
       -0.9183387 0.26949176 -0.28176162 0.49781743
0002f0 3c aa 82 3e 4a 47 91 bd b6 4d 24 be ef 61 20 3f
       0.25520504 -0.070936754 -0.1604527 0.62649435
000300 d6 5e 35 3b dc 8f 06 3f b4 d3 15 3f ea 66 4a bf
       0.0027674935 0.5256326 0.5852616 -0.79063284
000310 95 36 7f 3f 43 78 e0 3c 13 4d 8d 3e ba aa bf be
       0.9969266 0.027401095 0.27597865 -0.37434942
000320 a9 e3 a9 bd 51 99 27 3c 41 cb 77 be 52 7b 49 be
       -0.08295376 0.010229425 -0.24198629 -0.19675949
000330 b6 02 d4 be 27 c7 8b 3e 2b 09 38 bf 4c 3c 0c 3d
       -0.41408318 0.2730038 -0.7188899 0.03423719
000340 01 62 55 be 00 b4 1a bf e4 db c2 be e4 2d 19 bf
       -0.20838167 -0.6043091 -0.38058388 -0.5983565
000350 c8 b3 d3 3d bd 5f 04 be 2c 32 96 3d f0 13 b5 3e
       0.10337025 -0.12927146 0.07333788 0.35366774
000360 87 77 3c 3e 95 50 06 3e 33 af a7 bd c3 10 34 be
       0.18404971 0.13116677 -0.081877135 -0.17584519
000370 2e 9e 3d 3e 41 a0 c8 be 4b 10 09 bf 7d a0 da be
       0.18517372 -0.39184764 -0.53540486 -0.42700568
000380 89 42 91 bd bc e8 b9 3e e3 7e f7 3e 93 f5 7d be
       -0.07092769 0.36310375 0.48338994 -0.2480071
000390 16 50 dc 3d ee b5 5b 3e 75 41 51 be 9e 87 da be
       0.10757463 0.2145612 -0.20435126 -0.42681593
0003a0 b9 1c e5 bc af 84 b0 3e 97 6e ca bd 17 93 ec be
       -0.027967798 0.3447623 -0.098843746 -0.4620597
0003b0 70 07 a9 be 79 a8 3a 3e 2f 50 a5 bd 26 95 ac bd
       -0.33013487 0.1822833 -0.080719344 -0.08426885
0003c0 cc f5 5f be 7e 1c 60 be ed 14 95 be 0d 0c af 3d
       -0.21871108 -0.21885869 -0.29117528 0.085472204
0003d0 02 d4 ad 3d ca 05 a9 3d 5e 29 0a bf 50 b1 9c bc
       0.08487703 0.08253057 -0.5396937 -0.019127518
0003e0 1f 70 9d 3e d8 7e ec 3d ab ff 3d be b4 aa 04 be
       0.30749604 0.11547631 -0.18554561 -0.12955743
0003f0 04 3f e9 3d 89 1b 52 3e f5 41 a3 be be 96 c4 3d
       0.113889724 0.20518316 -0.3188626 0.09599064

policy.net.0.bias f4 [128]
000000 fd c3 ae be b6 53 f7 be 78 e2 e2 be 38 19 5b 3e
       -0.34133902 -0.48306054 -0.44313407 0.21396339
000010 75 17 b7 be c2 7b 02 bf dc 35 12 bf 11 43 06 bf
       -0.35760084 -0.5097009 -0.5711343 -0.52446085
000020 32 51 83 be ce 7a 26 3c 36 c1 d3 be aa 91 ba be
       -0.25647885 0.010161115 -0.41358346 -0.36439258
000030 d0 6a d6 be 6e 5b b1 3c e7 79 0d bf 55 d9 04 bf
       -0.41878366 0.021650042 -0.55264133 -0.5189412
000040 f4 03 e8 be 1c 53 48 3d 93 6d 0d bf 7a 07 de be
       -0.45315516 0.048907384 -0.5524532 -0.4336508
000050 34 fb 38 bd 5f 9a df be d6 0e 7f bd 34 22 d9 be
       -0.04516144 -0.43672463 -0.062270008 -0.42408907
000060 5e 17 61 be d9 d4 b0 be 1a 9b 9e be 30 1b f8 bd
       -0.2198157 -0.3453739 -0.30977708 -0.121145606
000070 c2 2f aa be ad ae d7 be ef b7 0c bf f8 8c ff be
       -0.3323956 -0.42125455 -0.5496816 -0.49912238
000080 41 b0 a6 be 93 56 00 bf b0 01 aa be 74 4b 9f bd
       -0.32556346 -0.501321 -0.33204412 -0.077780634
000090 f7 2d 0b bf c7 cc 90 be 91 6e 5b be 4b 06 d6 be
       -0.5436701 -0.28281233 -0.21428896 -0.41801676
0000a0 6d 0e c9 bd 69 2f 86 be 6c 26 6d be aa 10 de be
       -0.098172046 -0.26208046 -0.23159188 -0.4337209
0000b0 71 3a bc be 05 4e 8f bc c3 99 01 bf ae 5f d0 be
       -0.36763337 -0.017493257 -0.50625247 -0.40697998
0000c0 33 68 ef bc 39 3b b3 bd 2c 12 13 bf cd 8f ff be
       -0.02922449 -0.0875153 -0.57449603 -0.499144
0000d0 fd d7 a8 be f1 2c 03 bf 0e 61 14 bf 39 e9 a5 be
       -0.32977286 -0.5124045 -0.57960594 -0.32404497
0000e0 fc 23 03 be b1 e3 93 3c 00 50 d4 be 70 60 b4 be
       -0.12806696 0.018052908 -0.41467285 -0.35229826
0000f0 ea c7 b8 be 8d f4 e1 be 6f 74 7c be 06 06 53 be
       -0.36090022 -0.4413189 -0.24653791 -0.20607767
000100 c9 98 ef be f4 3f ba be 86 d4 dc be 00 08 6a be
       -0.46796253 -0.36376917 -0.43130893 -0.22854614
000110 33 12 f7 be ce df 9b be a9 42 0e bf 21 72 18 bf
       -0.48256072 -0.30444187 -0.55570465 -0.59549147
000120 7a 35 29 be 7b f1 8c be 81 d0 98 be ca 51 c9 be
       -0.16524306 -0.27527985 -0.29846576 -0.39320213
000130 2b 3a 29 be 0b 64 8c be 7c cf 56 bd cf 36 9c be
       -0.16526096 -0.27420077 -0.052443966 -0.30510566
000140 f2 43 e7 be e4 46 ff be ed c7 c7 be b9 16 ea be
       -0.45169026 -0.49858773 -0.3901972 -0.4572046
000150 7a 8e 99 be bf 2f db be 27 58 15 bf fb 1a 8c 3c
       -0.29991513 -0.42809865 -0.58337635 0.017102709
000160 eb 63 83 be ad 93 c2 be 50 e1 f2 be 71 7a b3 3d
       -0.2566217 -0.38003293 -0.47437525 0.08763588
000170 53 bd 0a bf ca 74 ea 3d 81 eb 9f be 20 dc 9f bd
       -0.54195136 0.11448057 -0.31234363 -0.078056574
000180 2d 00 0e bf b9 57 d5 be 33 5a 0b bf 4d bb 0b bf
       -0.5546902 -0.4166849 -0.5443451 -0.54582673
000190 ad c5 09 3e 8c 37 cd be 7c 37 d4 be 74 63 89 bd
       0.13454314 -0.4008144 -0.4144858 -0.06708422
0001a0 29 d3 33 3d ef 51 cf 3d 4d 23 80 be 30 ec f5 be
       0.04390255 0.101230495 -0.25026932 -0.4803176
0001b0 e7 c5 0b be 36 f5 e3 be a9 c4 f6 be e0 68 9d be
       -0.13649713 -0.4452302 -0.48196915 -0.30744076
0001c0 c7 af 7c be 7e f9 84 be 65 59 fb be 75 13 d0 3c
       -0.24676429 -0.25971597 -0.4909164 0.025399903
0001d0 c3 15 81 be 13 c9 a0 be 57 7e c5 be f6 b4 bb be
       -0.25211915 -0.31403407 -0.38572952 -0.366615
0001e0 ca 16 ea be 87 bc 80 be 69 11 6a 3d 30 85 b2 be
       -0.45720512 -0.25143835 0.05714551 -0.3486724
0001f0 2f ef bf be c7 32 8c be c5 42 fb bc 8e c8 4a be
       -0.3748717 -0.2738249 -0.030671487 -0.19803068

policy.net.2.weight f4 [5, 128]
000000 4a 12 86 bf 76 16 cd be 80 45 aa bf 8f 45 b3 bf
       -1.0474331 -0.400562 -1.330246 -1.4005603
000010 ec 83 50 c0 5c 24 d5 bf 0e 42 e2 bf 72 a4 b3 3c
       -3.2580519 -1.6651721 -1.7676408 0.021929
000020 ea 5f 95 be 16 87 16 c0 67 ef af bf 16 ae 6e bf
       -0.2917474 -2.351995 -1.3744935 -0.93234384
000030 10 d4 aa be c0 e9 bc bf cf 5c 00 bf 42 e3 5d bf
       -0.33364916 -1.4758835 -0.50141615 -0.8667489
000040 07 d9 a7 bf cc 09 4f c0 33 eb 44 be b4 1f d5 bf
       -1.3113106 -3.234973 -0.19230346 -1.66503
000050 c1 10 8a c0 eb fc 09 bf 3b 39 6a bf d5 05 85 c0
       -4.314545 -0.5390155 -0.91493577 -4.156962
000060 0c 4b bd bf 60 91 98 bf 48 f1 ad be b8 89 9b be
       -1.4788527 -1.1919365 -0.33973145 -0.3037851
000070 29 d0 f7 be 48 8e af be 99 4a 05 bf f6 7f b4 be
       -0.48401 -0.3428824 -0.5206695 -0.35253876
000080 1c ae 40 bf c2 5b 4b be 9d 09 06 bf 6d 3c 26 bf
       -0.7526567 -0.19859222 -0.5235842 -0.6493595
000090 51 57 d0 bf a1 c1 24 c0 18 58 5f bf 7e 9f 72 bf
       -1.6276647 -2.5743182 -0.87243795 -0.94774616
0000a0 36 1a 15 c0 66 ee 6b be bf 1a 90 bf d8 3b 9d be
       -2.3297248 -0.2304016 -1.1258162 -0.3070972
0000b0 6c 5d d3 bf 7e 78 68 bf 58 99 63 be 86 c6 8c be
       -1.6512885 -0.90808856 -0.22226465 -0.2749521
0000c0 e2 8e 48 bf d3 b0 2d c0 4d 04 67 bf 34 bb df be
       -0.7834302 -2.7139175 -0.9024094 -0.43697512
0000d0 8e 9f 6d bf ab c5 58 bf 72 86 d1 be f1 49 67 bf
       -0.92821586 -0.8467662 -0.40922886 -0.903472
0000e0 89 35 5c c0 9b f6 b5 bf 03 67 36 bf d9 a7 0b c0
       -3.4407675 -1.4215883 -0.71250933 -2.1821196
0000f0 6c 64 15 bf e5 25 f3 be 87 04 1b bf 80 9f 89 c0
       -0.58356357 -0.4748985 -0.60553783 -4.30072
000100 51 b4 70 c0 e4 d6 39 c0 ab 7f 8d be de ad 85 c0
       -3.7610056 -2.903741 -0.27636465 -4.177474
000110 d7 5e ea bf b4 74 19 bf 83 c5 c1 bf 6e 27 45 c0
       -1.8310193 -0.599437 -1.5138401 -3.0805316
000120 37 30 ae bf eb 31 55 bf 1a 14 a1 bf 14 69 b8 bd
       -1.3608464 -0.83279294 -1.258426 -0.09004417
000130 c7 c8 3c bf 4e 66 42 bf e9 f5 25 bf 21 c2 c4 bf
       -0.7374386 -0.75937355 -0.64828354 -1.5371743
000140 f2 e6 c8 bf bf 7e a2 be 20 3e ef be 34 68 a7 be
       -1.5695479 -0.31737325 -0.46727085 -0.32696688
000150 b4 33 26 bf 68 f1 25 be ea b1 87 bf 87 ad 12 c0
       -0.6492264 -0.1620537 -1.060117 -2.2918413
000160 fa 32 78 c0 ae b8 13 bf f8 a4 31 bf c2 86 38 bf
       -3.8781114 -0.57703674 -0.6939235 -0.72080624
000170 12 3a 28 bf 5a 74 27 c0 6f c1 35 bf 35 05 f0 be
       -0.6571361 -2.6164765 -0.7099828 -0.46878973
000180 5b ab 83 be da 55 41 bf fc 78 8c bf 62 a3 8d be
       -0.2571667 -0.75521624 -1.0974422 -0.27663714
000190 39 5f 00 c0 ab ba 23 bf d7 6c 19 bf a9 dd e0 bf
       -2.005812 -0.6395671 -0.599317 -1.7567645
0001a0 6f db af bf 7b f1 be bf 83 8c 87 bf 1c e3 0e bf
       -1.3738841 -1.4917444 -1.0589756 -0.5581529
0001b0 0b f4 41 c0 a0 90 3b be f2 1a 02 bf 1b eb b5 c0
       -3.0305202 -0.18316889 -0.50822365 -5.6849494
0001c0 cb cc 6d c0 38 80 87 bf 7f 27 85 be df 2b 71 c0
       -3.7156246 -1.0586004 -0.26006696 -3.7683027
0001d0 e3 c0 9c bf c1 6f b5 bf 28 fa c1 bf 3c 3a b9 be
       -1.2246364 -1.417473 -1.5154467 -0.36177242
0001e0 3f 6e c8 be 91 69 0a bf 3e 5b be bf 1a 2d 81 be
       -0.3914661 -0.5406733 -1.4871595 -0.25229722
0001f0 e1 58 a9 be 72 68 c6 be 73 ae 53 bf fa 56 c4 bf
       -0.33075622 -0.3875156 -0.82688063 -1.5339043
000200 fd a5 38 be 52 56 0d bf a0 59 08 bf 31 a1 1f 3e
       -0.1803207 -0.5520984 -0.53261757 0.15588833
000210 09 a3 d9 bf 40 12 9b 3f da 1e 46 bf 02 2b a6 bc
       -1.7002879 1.2114944 -0.77390826 -0.02028418
000220 00 e5 85 bc 38 f5 f6 3d 70 11 05 bf 15 1c 35 bd
       -0.016344547 0.120584905 -0.5197973 -0.044216234
000230 68 b7 1a bf 32 81 18 3e 9a 92 83 be 01 ee 75 3e
       -0.60436106 0.14893034 -0.25697786 0.24016573
000240 09 e7 87 3e 1f 8c 8c 3c 9e c7 3c bf a5 ad 91 3d
       0.26543453 0.017156659 -0.7374209 0.07113198
000250 c5 e5 74 3d 43 ca 7c 3c 4b 8f 0a 3e 1e 48 12 bd
       0.059789438 0.015429082 0.13531224 -0.035713308
000260 83 e2 d3 3e f7 71 37 3e 94 93 ea 3d 08 02 a5 bf
       0.41383752 0.17914568 0.114539295 -1.2891245
000270 51 b5 93 bd 90 0f 16 3e 15 5c fc 3e f9 df 7c 3e
       -0.07212318 0.14654374 0.49289003 0.24694814
000280 fc ba cb 3e 1c 7e ca be 6e a0 15 bf 47 f7 63 3d
       0.39791095 -0.3954934 -0.5844792 0.055655744
000290 2a cd d5 bc 06 21 4c bf 3a 49 31 be dc cb 61 bd
       -0.026098806 -0.7973789 -0.1731309 -0.055126056
0002a0 53 f3 30 be de 7a 2d bf 7b 11 4a 3c 4d b1 8e be
       -0.17280321 -0.67765605 0.012333269 -0.27869645
0002b0 ac 86 8d 3e f4 c2 4a 3e fc fd 12 3e d1 13 a2 be
       0.2764181 0.19800931 0.143547 -0.31655744
0002c0 d3 74 ff 3c c7 0c bb 3e a6 4c 5c bf 9a 65 25 bf
       0.031183636 0.36533186 -0.86054456 -0.64608157
0002d0 89 6c 58 3d a9 51 ef 3d 0e 3a fd be 9b 3e 94 bf
       0.052837882 0.11685497 -0.49458355 -1.1581606
0002e0 80 a3 1e 3f d0 5c b9 bd ad eb 8d bf 60 ce 74 be
       0.6196823 -0.09050906 -1.1087548 -0.23906851
0002f0 af 35 ab bd 1d 53 07 be ca 11 64 3d 2d 15 37 3e
       -0.08359849 -0.13215299 0.055681027 0.17879172
000300 5e 27 3b be cd 99 cb 3c ca eb 28 be 38 45 07 be
       -0.18276736 0.024853611 -0.16496196 -0.13209999
000310 1d 04 6b be 3a 9e bc bd bf 22 ed be 58 3f 68 3d
       -0.22950788 -0.09209867 -0.46315572 0.056701034
000320 eb 6c 79 be 65 d6 46 3e 48 79 0c 3e d4 81 a1 3d
       -0.24357955 0.19417723 0.1371814 0.07886091
000330 40 6c 3a c0 98 be 06 3e 05 50 0c bf 7d 8f 62 3d
       -2.912857 0.13158643 -0.548096 0.055312622
000340 e0 7a 2b bc c1 95 70 be 55 71 9d 3c ea c2 8e be
       -0.010466307 -0.23494627 0.01921908 -0.27883083
000350 00 40 51 3d f6 30 69 bf 2c a9 c6 bf 05 ef 6a bf
       0.051086426 -0.91090333 -1.5520377 -0.91770965
000360 a5 48 8a 3d 76 7d 65 be 47 e5 cb 3d 58 d4 ba 3e
       0.06752137 -0.22411141 0.099558406 0.3649013
000370 0d 09 a7 3e e2 23 ba 3d d5 b4 9b bf 73 27 32 c0
       0.32624093 0.09088875 -1.216456 -2.7836578
000380 42 72 17 bf 17 64 1f be 45 55 7f 3e 28 22 67 bf
       -0.5915872 -0.15565525 0.24934871 -0.90286493
000390 d8 fa d6 3d 19 e1 af bc 6a 06 09 be 1b 26 f3 3d
       0.104970634 -0.02146964 -0.13381353 0.118725024
0003a0 ae b8 ff 3c 6d 57 54 bd 11 58 af 3d ed e2 38 c0
       0.031215992 -0.05184119 0.08561719 -2.8888505
0003b0 e1 da 9d bd 92 3f 84 bf 6f 94 4b be a0 96 27 bc
       -0.077077635 -1.03319 -0.19880842 -0.010228783
0003c0 af 2b d4 3d f0 c7 6f 3e e8 20 5c 3f e2 9c 91 be
       0.103598945 0.23416114 0.8598771 -0.28440005
0003d0 9f 56 6b 3e 56 17 30 bf df d1 0c 3d 98 ce 1e bd
       0.22982262 -0.6878561 0.034379836 -0.038771242
0003e0 1d 3a 16 bf 08 8f 88 3d 2d 9e 9f bf 9c 09 88 bf
       -0.58682424 0.06667906 -1.2470146 -1.0627933
0003f0 e5 42 af 3e ee d2 ae bc 01 86 f6 3d 07 d7 eb 3d
       0.34230724 -0.021340813 0.12037278 0.115156226

policy.net.2.bias f4 [5]
000000 91 50 23 c1 85 f2 aa bd 3c eb a6 3d 94 12 32 bd
       -10.20717 -0.08347038 0.08150336 -0.04347475
000010 0b 42 51 3e
       0.2043535
