ISE_Transformer/model/2_room/eil_2_room_198_model/EBC_model_15999.pth (torch, 319288 bytes, 27 tensors)

encoder.embedding.weight f4 [900, 16]
0	0x3e12c2a0	0.14332056
1	0xbf393abe	-0.7235526
2	0x3f98d47b	1.1939844
3	0x3fcdbae8	1.6072664
4	0x3f226e90	0.63449955
5	0x3f820772	1.0158522
6	0xbd9ffe5d	-0.07812188
7	0x3f701dbe	0.9379538
8	0x3fc81d81	1.5634004
9	0x3f225097	0.6340422
10	0x3fb0a801	1.3801271
11	0xbf84a117	-1.0361661
12	0x3fc05645	1.5026327
13	0xbf55e0c1	-0.8354607
14	0xbf848191	-1.035204
15	0x3f31aa98	0.6940093
16	0xbf8cf863	-1.1013302
17	0x3ece7945	0.40326896
18	0x3effcc95	0.4996077
19	0xbed402df	-0.4140844
20	0x3f0375c1	0.51351553
21	0x3f1ecc92	0.620309
22	0x3e6506fb	0.22365944
23	0x3ebd8411	0.3701482
24	0xbf7d9259	-0.99051434
25	0xbfb58b63	-1.4183162
26	0x3ff43b19	1.9080535
27	0xbfe624e8	-1.7980013
28	0x3f269924	0.65077424
29	0xbd7586a7	-0.059942868
30	0xbf2e4e21	-0.68087965
31	0xbfc20108	-1.5156565
32	0x3f453e6f	0.7704839
33	0x3dc211e2	0.09476067
34	0xbe61d1d1	-0.22052695
35	0x3f30b955	0.69032794
36	0xbda5434b	-0.08069476
37	0x3eaf568a	0.34245712
38	0xbf05b4d0	-0.5222902
39	0xc0008bdd	-2.0085366
40	0xbed00e4b	-0.40635905
41	0x3f798afc	0.974777
42	0xbf83cb36	-1.029639
43	0x3e224d9b	0.15849917
44	0xbf9e698a	-1.2375958
45	0xbc9c13da	-0.019052435
46	0xc05dd460	-3.4660873
47	0xbf5cac28	-0.8620019
48	0x3e9adba9	0.30245712
49	0xbf6417c1	-0.89098746
50	0xbf8153e1	-1.0103723
51	0xbebc0e43	-0.3672963
52	0x3f829f72	1.0204909
53	0x3fddbec2	1.732384
54	0xbf94d997	-1.1628903
55	0x3f09087e	0.53528583
56	0xbf911ecd	-1.1337525
57	0x3de6a36e	0.112616405
58	0x3f25cd3c	0.6476629
59	0xbfcb7dd4	-1.5897775
60	0xbf627449	-0.8845869
61	0xbef4dcbc	-0.47824657
62	0xbf4b1140	-0.79323196
63	0xc0087c8e	-2.1326022
64	0x3f6b6314	0.91948056
65	0x3e8802e8	0.26564717
66	0xbfb2b221	-1.3960611
67	0x4007c6bc	2.1215048
68	0xbf4afb27	-0.7928948
69	0xbe9ab0fe	-0.3021316
70	0xbfa8ec58	-1.3197126
71	0x3e8938f1	0.26801255
72	0xbebc178b	-0.36736712
73	0xbe8540d8	-0.26026034
74	0x3da7189b	0.0815899
75	0xbfe04f18	-1.7524137
76	0xc018bb36	-2.3864264
77	0xbe19bc1d	-0.15013166
78	0xbe6d4a7f	-0.23172949
79	0xbca14320	-0.019685328
80	0x3e1918b5	0.14950831
81	0x3f2e8646	0.68173635
82	0x3fc8aa0d	1.5676895
83	0x3ef37d76	0.47556657
84	0xbf80a441	-1.0050126
85	0xbf82fb09	-1.023286
86	0x3f057d3c	0.5214422
87	0xbef6e35b	-0.48220333
88	0xbf45cac4	-0.7726252
89	0x402fa645	2.7445233
90	0xbffceabe	-1.9759138
91	0x3ed4f030	0.415895
92	0x3fc89d13	1.5672935
93	0xbd2321c3	-0.03982712
94	0xbf78e297	-0.9722075
95	0xbf3649b8	-0.71206236
96	0x3e75b7b5	0.2399586
97	0xbf997ce5	-1.199124
98	0x3f881e17	1.0634183
99	0xbf2d4c14	-0.6769421
100	0xbf29d40c	-0.6633918
101	0x3eac2e84	0.3362924
102	0x3f04b980	0.5184555
103	0x3f84d6c4	1.0378041
104	0x3d29e23d	0.041475523
105	0x3f57838d	0.84185106
106	0xbe06755a	-0.13130704
107	0xbfbf08fc	-1.4924617
108	0x3eba2620	0.36357212
109	0xbf02d54a	-0.51106703
110	0xbed64638	-0.41850448
111	0x3f97483d	1.181892
112	0xbe882c72	-0.2659641
113	0x3f4ddfd2	0.8041965
114	0xbe9d7ba6	-0.307584
115	0x3fad485f	1.3537711
116	0x3f2ac244	0.66702676
117	0xbe718f59	-0.23589839
118	0xbe2f5481	-0.1712208
119	0x3f0fc723	0.56163234
120	0x3e9d35dc	0.30705154
121	0x3eacf4c8	0.33780503
122	0x3e050074	0.12988454
123	0x3f13956f	0.5764989
124	0x3ca658d1	0.020306023
125	0x3fb2fdc0	1.3983688
126	0x3fb55e8f	1.4169482
127	0xbbc0bfc0	-0.0058822334
128	0xbf61e845	-0.8824504
129	0xbef9f6e3	-0.48821172
130	0xbfad94f9	-1.3561088
131	0xbe6f0e1a	-0.23345223
132	0x3fea3517	1.8297452
133	0x3fcb78ed	1.5896279
134	0x3e365e8a	0.17809501
135	0x3f030fba	0.5119587
136	0xbf0bd7f0	-0.5462637
137	0xbfb8c286	-1.4434364
138	0xbff63e32	-1.923773
139	0xbf9088af	-1.1291713
140	0x3f80de94	1.0067925
141	0xbc1011c2	-0.008793296
142	0xbf4df091	-0.804452
143	0x3ffba08a	1.9658368
144	0x3fd2f00a	1.6479504
145	0x3f11e735	0.5699342
146	0xbc4a2e9c	-0.012340214
147	0xbfbc443f	-1.4708327
148	0xbd3d77b9	-0.046256755
149	0xbf086699	-0.5328155
150	0x3f28e4bd	0.65974027
151	0x400bf57d	2.1868584
152	0x3ef9c545	0.48783317
153	0x400b8029	2.1796973
154	0xbfbb383a	-1.4626534
155	0xbfb20beb	-1.3909887
156	0xbedd4693	-0.43217906
157	0xbe1892f2	-0.14899805
158	0x3dd07cf7	0.10180085
159	0xbe33ebd6	-0.17570433
160	0x3ea4e7f3	0.32208213
161	0x3f9a135f	1.2037162
162	0x3daecc16	0.0853502
163	0xbfe162e8	-1.7608309
164	0x3d73f564	0.059560195
165	0xbfa77304	-1.3081975
166	0x3e6c1cd0	0.23057866
167	0x3f75be8b	0.9599387
168	0x3e10d040	0.14141941
169	0x3f5ca835	0.86194164
170	0xbf8c435c	-1.0958056
171	0xbf920f40	-1.1410904
172	0xbec09121	-0.37610725
173	0xbe830363	-0.2558852
174	0xbe914aa7	-0.28377268
175	0x3f8fa9bb	1.1223673
176	0x400414ac	2.0637617
177	0x3e062291	0.13099124
178	0x3f6948bd	0.91126615
179	0x3dca6884	0.09883216
180	0xbf2a85ba	-0.666103
181	0x3f6ea805	0.9322513
182	0x3fd155a0	1.6354256
183	0xbf8cdc17	-1.1004666
184	0x3f3c40bb	0.7353627
185	0x40019a7e	2.0250545
186	0xc03a7b37	-2.9137704
187	0x3e435f95	0.1907943
188	0x3e2db8c2	0.16965011
189	0xbf333487	-0.70002025
190	0xbdc8288a	-0.09773357
191	0x3f03a191	0.51418406
192	0x3f9060c9	1.1279536
193	0x3f0ac1d4	0.5420201
194	0xbfbeeee9	-1.491666
195	0x4005091b	2.0786808
196	0x3f52956c	0.8225925
197	0xbef6e3a7	-0.4822056
198	0xbf872daa	-1.056081
199	0xbf0c9bb4	-0.54925084
200	0x3f958acf	1.1682986
201	0x3f71041f	0.94146913
202	0x3fb15a94	1.3855767
203	0xbe54dfde	-0.20788524
204	0xbf7ae629	-0.98007447
205	0xbfc1c4b5	-1.5138155
206	0xbfea7b74	-1.8318925
207	0xbfe1386c	-1.7595344
208	0x3fe02977	1.7512654
209	0x3da85bc9	0.08220632
210	0xbf7fd21f	-0.99929994
211	0x3f061d4f	0.5238847
212	0x3e2d058a	0.16896644
213	0xbf05e40a	-0.52301085
214	0xbea6ad28	-0.32553983
215	0xbe237d25	-0.15965708
216	0x3d88a735	0.06672517
217	0xbf1504c4	-0.58210397
218	0x3f666d31	0.9001036
219	0xbf511e7a	-0.8168713
220	0x3f84cf07	1.037568
221	0x3f8b1704	1.0866399
222	0x3f21fc1c	0.63275313
223	0xbf5e2eaa	-0.86789954
224	0xbf8bd91e	-1.0925634
225	0xbfb5bc74	-1.4198136
226	0xbf4ec07c	-0.8076246
227	0xbe96e664	-0.2947265
228	0x3f8f9d9c	1.1219974
229	0x3f2ba41d	0.6704729
230	0xbfdca146	-1.7236717
231	0xbfdde8a2	-1.7336619
232	0x3f96431d	1.1739231
233	0x3f53d3b8	0.8274493
234	0x3d8782e6	0.06616764
235	0xbfa2d81c	-1.2722201
236	0xbfa2b0f0	-1.2710247
237	0xbf0b823f	-0.54495615
238	0xbf010c1a	-0.5040909
239	0x3ee58261	0.44826034
240	0xbdbdd09f	-0.09268307
241	0xbe161fc7	-0.1466056
242	0x3d8712f9	0.065954156
243	0x3f23ffbe	0.64062107
244	0x3fe43a00	1.78302
245	0x3f293e34	0.6611054
246	0xbec5636c	-0.38552415
247	0xbfb2f86e	-1.3982065
248	0x3ddddf99	0.108336635
249	0xbfe7dd40	-1.8114395
250	0x3fa37b68	1.2772036
251	0xbe14670c	-0.14492434
252	0x3f648195	0.89260226
253	0x3e4b103c	0.19830412
254	0x40171562	2.36068
255	0xbe402cd8	-0.18767107

encoder.lstm.weight_ih_l0 f4 [128, 16]
0	0xbc5983a2	-0.013276013
1	0x3e8d1fac	0.27563226
2	0xbe7dc81c	-0.24783367
3	0xbefebb54	-0.49752295
4	0x3dbe201e	0.092834696
5	0x3daba1db	0.08380481
6	0xbdae9304	-0.08524135
7	0x3dba338a	0.090918615
8	0xbe46af14	-0.19402725
9	0xbdef52ea	-0.116857365
10	0xbefc8bfe	-0.49325556
11	0xbdc4adbf	-0.09603452
12	0x3eb8f0b5	0.36121145
13	0x3c9c47cf	0.01907721
14	0xbd9e10a8	-0.07718021
15	0x3e522534	0.20522004
16	0x3d3a009b	0.045410734
17	0x3eae2dac	0.3401922
18	0xbed17c0f	-0.40914962
19	0xbc8992fe	-0.016793724
20	0x3d40f552	0.047108956
21	0xbe83a89b	-0.25714573
22	0x3c6f496a	0.014604906
23	0x3e6493db	0.22322027
24	0xbe93dde3	-0.28880224
25	0xbf32443b	-0.6963536
26	0xbeaa5316	-0.33266515
27	0xbeacaa23	-0.33723554
28	0x3dc32fad	0.09530578
29	0xbf262b52	-0.6490985
30	0xbd859487	-0.0652247
31	0xbc75982c	-0.014989894
32	0xbce4c4cc	-0.027925871
33	0xbe4d886b	-0.2007157
34	0xbe20eef9	-0.15716161
35	0x3d95b83c	0.073105305
36	0xbe2df2c0	-0.16987133
37	0x3df815d7	0.121135406
38	0x3e1838b4	0.1486538
39	0x3dd98ef1	0.10622967
40	0x3e036a76	0.1283358
41	0xbe51c785	-0.20486267
42	0xbe6cef52	-0.23138168
43	0x3e0f9879	0.14023007
44	0xbe641395	-0.22273095
45	0x3d807eca	0.06274183
46	0xbe8ef578	-0.27921653
47	0x3e9c9614	0.3058325
48	0xbeed98db	-0.46405682
49	0x3bcc64eb	0.0062376163
50	0x3f168d5f	0.58809465
51	0x3d849f1e	0.06475662
52	0x3d41e312	0.04733569
53	0x3d71f2ab	0.059069317
54	0x3d1116ab	0.03542201
55	0xbda6f6d5	-0.08152548
56	0xbe601655	-0.21883519
57	0x3d93dea9	0.072202034
58	0xbcc8ae2c	-0.024497114
59	0xbf25e014	-0.6479504
60	0xbe88506c	-0.26623857
61	0x3e93e733	0.28887329
62	0x3e0036a2	0.12520841
63	0x3bc658d4	0.0060530696
64	0xbe7345e4	-0.2375713
65	0x3e1fd1d9	0.15607394
66	0x3e796654	0.24355441
67	0x3dec1ed1	0.11529315
68	0x3ed6b76b	0.41936812
69	0x3d20f6bf	0.039297815
70	0xbcebdb0b	-0.028790971
71	0xbc196715	-0.009362956
72	0xbe65ff64	-0.22460705
73	0xbd9bbea1	-0.07604719
74	0x3eaf54b5	0.34244314
75	0xbd6d368b	-0.057913344
76	0xbe997f6e	-0.29980034
77	0x3e51f9ba	0.2050542
78	0xbdb5f74b	-0.08885058
79	0xbe54ea55	-0.20792516
80	0x3e8cdf7e	0.2751426
81	0x3ece6579	0.40311792
82	0x3dbc4c87	0.09194284
83	0x3dc14079	0.09436125
84	0x3e6839d5	0.22678311
85	0xbd9eefb8	-0.077605665
86	0xbc32a019	-0.010902428
87	0xbd008c9b	-0.03138409
88	0x3dd57dac	0.10424361
89	0xbef2f76c	-0.47454393
90	0xbda434e9	-0.08017904
91	0x3dbdbd36	0.09264605
92	0xbcd5b5d8	-0.026087686
93	0x3eb5bef2	0.35497242
94	0xbe968f43	-0.29406175
95	0x3e9329dd	0.28742877
96	0xbeb38ef8	-0.35070014
97	0x3b474b6b	0.0030409943
98	0x3e18d338	0.14924324
99	0xbe3a78ff	-0.18210219
100	0x3eb8b1e9	0.36073235
101	0x3ddf79f1	0.1091193
102	0x3ea6ec51	0.3260217
103	0x3e4d9bc3	0.2007895
104	0x3d042c0e	0.032268576
105	0x3ecfbf11	0.4057546
106	0x3b94e18f	0.0045434902
107	0x3ea4649f	0.32108018
108	0x3de95156	0.11392467
109	0xbd1c9743	-0.038230192
110	0x3e040f66	0.12896499
111	0x3d5595a6	0.05214467
112	0xbec74ebf	-0.38927266
113	0xbc74dd42	-0.01494533
114	0xbe3f537d	-0.18684192
115	0xbe6b679c	-0.22988743
116	0x3ecc0a7e	0.39851755
117	0x3ed0d4bb	0.407873
118	0x3c9f309c	0.019432358
119	0x3ec6798a	0.38764602
120	0xbee9bbd6	-0.4565112
121	0x3dbe43dc	0.09290287
122	0xbf30e442	-0.69098294
123	0xbd2f73ec	-0.04283516
124	0xbe320b31	-0.17387082
125	0x3f50a9a6	0.8150886
126	0x3e80c3e7	0.25149462
127	0xbe897021	-0.2684336
128	0x3e78b530	0.24287868
129	0xbe08b607	-0.13350688
130	0xbe0ad03c	-0.13555998
131	0x3ec73796	0.38909596
132	0x3e31622b	0.17322604
133	0xbe940084	-0.28906643
134	0x3d96ec4d	0.073692895
135	0x3eb4db04	0.35323346
136	0x3d6cfe0c	0.057859465
137	0x3eb98ad1	0.3623872
138	0x3e3de0fb	0.18542854
139	0x3d9e4538	0.07728046
140	0x3e6ec3bf	0.23316859
141	0x3ebadde7	0.36497423
142	0xbe83cba0	-0.2574129
143	0xbd8cf1de	-0.0688207
144	0x3d9e71cf	0.07736551
145	0x3e7b50ca	0.24542537
146	0xbc3e119b	-0.011600877
147	0xbdab754a	-0.083719805
148	0xbe8f50ce	-0.27991337
149	0xbe158c4b	-0.14604299
150	0xbdd3d168	-0.103426754
151	0x3eb54526	0.3540432
152	0xbe234d43	-0.15947442
153	0x3d440452	0.047855683
154	0xbefae0dd	-0.48999682
155	0xbe631d6f	-0.22179197
156	0x3dc1973b	0.09452673
157	0x3f115fbb	0.567867
158	0x3dcb868b	0.099377714
159	0x3e8ffe82	0.28123862
160	0x3e856c75	0.2605931
161	0xba6fe2c2	-0.0009150916
162	0xbd31c3c4	-0.043399587
163	0xbd112658	-0.035436958
164	0x3ddff9b8	0.10936302
165	0x3e9de0ce	0.30835575
166	0xbd88b724	-0.06675556
167	0x3e9e17aa	0.3087743
168	0xbe789c8c	-0.24278468
169	0xbe810e82	-0.2520638
170	0xbdec4860	-0.11537242
171	0xbe4b5fcc	-0.19860762
172	0x3eff0d9e	0.49815077
173	0x3d7a5695	0.061117727
174	0xbd81821f	-0.06323647
175	0x3d265a62	0.04061354
176	0x3d92820b	0.0715371
177	0x3e886893	0.26642284
178	0xbf0c7bed	-0.54876596
179	0x3e0332db	0.12812369
180	0x3df30fdc	0.11868259
181	0xbe825537	-0.2545564
182	0x3d5165f0	0.051122606
183	0x3e9504b2	0.29105145
184	0xbed743e7	-0.42043993
185	0x3eb4b4c8	0.35294175
186	0x3e73bfb1	0.23803593
187	0x3e45e4a9	0.19325508
188	0xbcdf2b5e	-0.027242359
189	0xbe3b3794	-0.1828292
190	0xbd8da26a	-0.06915744
191	0x3e4ed942	0.20200065
192	0x3c398295	0.011322637
193	0x3ee7980b	0.45233187
194	0xbdde5cdf	-0.108575575
195	0x3ec30f44	0.38097584
196	0xbe482f14	-0.19549209
197	0x3da21be4	0.07915476
198	0xbf171024	-0.59009004
199	0x3e644710	0.22292733
200	0x3e2377b2	0.15963629
201	0x3e6be799	0.23037566
202	0x3e78e294	0.24305183
203	0xbd6e1357	-0.058123913
204	0xbda2365d	-0.07920525
205	0x3ed705a4	0.4199649
206	0x3e98a14a	0.29810554
207	0x3e42d50b	0.19026582
208	0xbca212cd	-0.019784356
209	0x3e1d30a1	0.15350582
210	0x3c1e1bca	0.00965018
211	0xbe291970	-0.1651361
212	0xbca55565	-0.02018232
213	0xbb921797	-0.0044583785
214	0x3ecdbaab	0.4018148
215	0x3dc56f20	0.09640336
216	0xbe49b1a4	-0.19696671
217	0xbe46235e	-0.19349429
218	0xbddd6c15	-0.10811631
219	0x3eca69f0	0.3953395
220	0xbcdf6767	-0.027270986
221	0x3e537382	0.20649531
222	0xbe06fee9	-0.13183178
223	0x3e76fd8f	0.24120162
224	0x3c5c78f8	0.013456576
225	0xbe1e8a36	-0.15482411
226	0xbe749baa	-0.23887506
227	0x3e57a9ce	0.21060869
228	0xbb9120f2	-0.004428976
229	0x3e117ddb	0.14208166
230	0x3d33ef3a	0.043929316
231	0xbc629455	-0.01382931
232	0xbc7fceb6	-0.015613249
233	0xbdb1f814	-0.08689895
234	0xbdab30a0	-0.08358884
235	0xbe3ca83e	-0.18423554
236	0x3d656d00	0.056012154
237	0xbe889e87	-0.26683447
238	0xbe3f8e65	-0.18706663
239	0x3d33e95f	0.043923732
240	0xbd392f9f	-0.04521143
241	0xbdca0bf1	-0.09865559
242	0xbe3e1ebd	-0.18566413
243	0x3e42fc19	0.1904148
244	0xbd2ef18f	-0.042710837
245	0x3ef01408	0.46890283
246	0xbeba99d2	-0.3644548
247	0x3cbad395	0.022805968
248	0x3de75e51	0.11297286
249	0x3dc2f89a	0.09520073
250	0x3de73842	0.11290027
251	0xbea84f5f	-0.32873055
252	0xbede978e	-0.43475002
253	0xbd702212	-0.058626242
254	0xbd69c35f	-0.057071086
255	0x3dac0e83	0.084012054

encoder.lstm.weight_hh_l0 f4 [128, 32]
0	0xbf0ffa6e	-0.562415
1	0xbe33bf3a	-0.17553416
2	0xbea54322	-0.3227778
3	0x3df7230e	0.12067233
4	0x3f2a1ec2	0.6645318
5	0xbe45d542	-0.19319633
6	0x3d915b3a	0.07097478
7	0xbeae4ea3	-0.3404437
8	0xbe6b2b51	-0.22965743
9	0xbe30897b	-0.17239945
10	0xbe90b2c1	-0.28261378
11	0xbdc69169	-0.096957035
12	0x3eba62a3	0.3640338
13	0xbe158d80	-0.14604759
14	0x3ee3c34f	0.44484946
15	0xbdf2dbab	-0.118583046
16	0x3df10c0a	0.117698744
17	0x3c5243f3	0.012833583
18	0xbeaaefe4	-0.33386147
19	0xbec44bba	-0.38339025
20	0xbe5ea71e	-0.21743438
21	0x3ea5c542	0.32377058
22	0xbf126098	-0.5717864
23	0xbea7cbf4	-0.3277279
24	0x3e8de9a6	0.27717322
25	0xbcd86350	-0.026414543
26	0xbdf7a436	-0.120918676
27	0xbe61ec3e	-0.22062775
28	0xbe9b754d	-0.3036293
29	0x3e4aafbd	0.19793601
30	0xbd897274	-0.06711283
31	0xbce5e4c3	-0.028063184
32	0xbd880d17	-0.06643122
33	0x3dd2f474	0.10300532
34	0xbeec7bf6	-0.46188325
35	0x3d8ff232	0.07028617
36	0x3ea954fa	0.33072644
37	0xbeebf47c	-0.46084964
38	0x3e56d4d4	0.20979625
39	0xbc66bd58	-0.014083229
40	0xbe747760	-0.23873663
41	0xbe19e6f3	-0.15029506
42	0xbeacded1	-0.33763745
43	0xbc689546	-0.014195746
44	0xbe348d18	-0.17631948
45	0xbdba3421	-0.09091974
46	0x3f31bf0c	0.6943214
47	0xbc13b935	-0.009016325
48	0x3e4fb168	0.20282519
49	0x3eb8cc4d	0.3609337
50	0x3e2e58a5	0.17026003
51	0xbea18d02	-0.31552893
52	0xbeb07180	-0.34461594
53	0x3e7ffefd	0.24999614
54	0xbdb18ac7	-0.08669048
55	0x3ddea686	0.108716056
56	0x3ebde948	0.37092042
57	0x3d44cc90	0.04804665
58	0x3c0498a7	0.008093036
59	0xbe088df9	-0.13335408
60	0xbef70fcd	-0.48254243
61	0x3f0f8a88	0.56070757
62	0x3eb518d4	0.35370505
63	0xbdc9b864	-0.09849623
64	0x3e60dc46	0.21959028
65	0x3d70bb80	0.058772564
66	0xbda234b8	-0.079202116
67	0xbe5dc429	-0.2165686
68	0x3f1cd763	0.61266154
69	0xbeed050a	-0.46292907
70	0x3ed57d5f	0.41697213
71	0xbcc925bd	-0.024554128
72	0xbe7c7fe2	-0.24658158
73	0xbec5b300	-0.3861313
74	0xbdc029fe	-0.093830094
75	0xbf2191f1	-0.63113314
76	0x3cde4856	0.027134102
77	0xbeb8e52a	-0.36112338
78	0x3e815e60	0.25267315
79	0xbe37e1f5	-0.1795729
80	0x3e59960f	0.21248649
81	0xbe4285b1	-0.18996312
82	0x3db65129	0.08902199
83	0xbee4c760	-0.4468336
84	0xbe7a5c9b	-0.24449389
85	0x3e8bc089	0.2729533
86	0xbe4deee5	-0.20110662
87	0x3e285928	0.1644026
88	0x3e9379e4	0.28803933
89	0xbe4a3ac6	-0.19748983
90	0xbd17086b	-0.036873262
91	0xbed30917	-0.41217873
92	0xbe5bde22	-0.21471456
93	0x3daebc1d	0.085319735
94	0xbe934b1d	-0.28768244
95	0xbe5e81ce	-0.21729204
96	0xbdff2a27	-0.12459212
97	0xbea923ed	-0.33035222
98	0xbe12ef11	-0.14349009
99	0xbe8e545d	-0.2779874
100	0xbe1c12f2	-0.15241602
101	0xbf14e52d	-0.58162194
102	0xbde4996b	-0.11162075
103	0x3e41f728	0.18941939
104	0x3d070e58	0.032972664
105	0x3e82da08	0.2555697
106	0x3d8dcd0b	0.069238745
107	0xbe90d685	-0.28288665
108	0xbcfc7705	-0.030818472
109	0xbed64cb2	-0.4185539
110	0xbce16e7c	-0.027518503
111	0x3e87e6ac	0.26543176
112	0x3e2d1f31	0.1690643
113	0xbd95a7ef	-0.073074214
114	0x3ea2b017	0.3177497
115	0xbe04c436	-0.12965474
116	0xbe040662	-0.1289306
117	0xbdb371c2	-0.08761932
118	0xbea3e2f5	-0.32009092
119	0xbe8148da	-0.25250894
120	0xbe3ad032	-0.18243483
121	0x3ea84637	0.3286607
122	0xbee119d2	-0.43965012
123	0x3e040a54	0.12894565
124	0xbe98ac45	-0.2981893
125	0xbdac27bc	-0.08406016
126	0x3db87020	0.09005761
127	0x3e5ca130	0.21545863
128	0xbdde89ff	-0.108661644
129	0xbe217d0f	-0.15770362
130	0xbe460c62	-0.19340661
131	0xbc929083	-0.017891174
132	0x3eb11d1b	0.34592518
133	0xbf2228a8	-0.63343287
134	0x3cc96740	0.024585366
135	0x3e91d7f0	0.2848506
136	0xbdb42b4d	-0.087973215
137	0x3c49232e	0.012276454
138	0xbe643283	-0.22284894
139	0xbdb402ee	-0.08789621
140	0x3eb3a1dd	0.3508443
141	0xbdc6f677	-0.09714978
142	0x3f140108	0.57814074
143	0x3e00f224	0.1259237
144	0x3e9a03cc	0.30081022
145	0xbe8d9b7b	-0.27657685
146	0x3d6c87a6	0.057746552
147	0xbe9f70c6	-0.31140727
148	0xbebeeec1	-0.3729153
149	0x3e960d46	0.29307002
150	0xbdd36329	-0.10321648
151	0xbd5e6672	-0.05429692
152	0x3e47d3d0	0.19514394
153	0x3c30bf13	0.010787743
154	0xbed57f8b	-0.4169887
155	0x3df4e659	0.11957998
156	0xbf0e2dab	-0.55538434
157	0x3eeedb5d	0.46651736
158	0xbedf16ab	-0.43571982
159	0xbe8a9b35	-0.2707154
160	0x3e914231	0.28370813
161	0xbde09f9c	-0.10967943
162	0xbdf2b1aa	-0.11850293
163	0xbe131e00	-0.14366913
164	0x3d773513	0.06035335
165	0xbe4e4ca6	-0.20146427
166	0x3ebc7649	0.36808994
167	0x3eb73560	0.3578291
168	0xbf0020ac	-0.50049853
169	0x3e2e91ab	0.17047755
170	0xbe924342	-0.2856694
171	0xbe4ee771	-0.20205475
172	0xbda44348	-0.080206454
173	0xbe6f05be	-0.23342034
174	0x3d085c8a	0.033291377
175	0xbda3bfc0	-0.07995558
176	0x3ee5fea2	0.44920832
177	0xbdb76997	-0.089556865
178	0x3e6127f7	0.21987902
179	0xbe25f5f9	-0.16207112
180	0xbd3c6ff9	-0.046005223
181	0x3ebfbddb	0.37449536
182	0x3d7d1268	0.06178513
183	0xbe043f57	-0.12914787
184	0xbd761a38	-0.060083598
185	0xbe8f1ea2	-0.27953058
186	0xbe0aa81a	-0.13540688
187	0xbede612a	-0.43433505
188	0xbe6c1443	-0.23054604
189	0x3eda8eb9	0.42687014
190	0xbf0e83d0	-0.5566988
191	0xbdecf85e	-0.1157081
192	0x3dcc93a0	0.09989095
193	0x3eb6ce2a	0.35704166
194	0xbe5cd185	-0.215643
195	0x3d80e603	0.06293871
196	0x3e5934cd	0.21211548
197	0xbed86496	-0.4226424
198	0x3da9f9c2	0.08299591
199	0x3eda96e5	0.42693248
200	0xbdeb442c	-0.11487612
201	0x3ba6f11a	0.0050946595
202	0xbe28b016	-0.16473421
203	0xbec955ec	-0.39323366
204	0xbe0d8aa8	-0.13822424
205	0xbea54f79	-0.32287195
206	0xbe918a8b	-0.28426012
207	0x3e4dc48d	0.2009451
208	0xbe1b23db	-0.15150397
209	0xbd9f8ccf	-0.07790529
210	0xbece0c43	-0.4024373
211	0x3e0fff71	0.14062287
212	0xbe31b0b4	-0.17352563
213	0x3e951f80	0.29125595
214	0xbcef46eb	-0.029208621
215	0xbeb85980	-0.36005783
216	0x3f2f4dd4	0.6847813
217	0xbd8f592a	-0.069994286
218	0x3e210f3a	0.15728465
219	0xbe4be9de	-0.19913432
220	0xbf066c20	-0.52508736
221	0x3e5f6682	0.21816447
222	0x3cab3332	0.020898435
223	0xbd3717e1	-0.044700507
224	0x3da23ae1	0.079213865
225	0xbe643d8c	-0.22289103
226	0xbf0d4a31	-0.5519133
227	0xbe6d5a33	-0.2317894
228	0x3f5292f5	0.8225549
229	0xbea2f433	-0.31826934
230	0xbd82278f	-0.063552015
231	0xbe3703b2	-0.17872503
232	0xbe08a505	-0.133442
233	0xbe244461	-0.1604171
234	0xbe653476	-0.22383294
235	0xbe09312c	-0.13397664
236	0x3d7b4f2a	0.061354794
237	0xbe6f2ed1	-0.23357703
238	0x3e2a5df8	0.16637409
239	0xbddac001	-0.10681153
240	0x3d1a3568	0.03764859
241	0x3dd64e00	0.10464096
242	0xbe5dc06a	-0.21655431
243	0xbdece62f	-0.115673415
244	0xbcdbc3a9	-0.026826696
245	0x3d90dfed	0.070739605
246	0xbf167565	-0.5877288
247	0xbf0f85d8	-0.56063604
248	0xbd8f441a	-0.06995411
249	0xbee3fbe8	-0.44528127
250	0xbe6598c0	-0.22421551
251	0xbf525c63	-0.8217222
252	0xbeb737dd	-0.35784808
253	0x3e8ab67b	0.27092347
254	0x3db89a8e	0.09013854
255	0xbc0c247f	-0.008553623

encoder.lstm.bias_ih_l0 f4 [128]
0	0x3ec26728	0.37969327
1	0x3e36ac40	0.17839146
2	0x3eaaf243	0.33387956
3	0x3dc0ddae	0.09417282
4	0x3e1621f1	0.14661385
5	0x3edd28a3	0.43195066
6	0x3e9881cb	0.29786524
7	0x3e984526	0.29740256
8	0x3e884250	0.26613092
9	0x3ea0d9b5	0.31416097
10	0x3ce1720e	0.027520206
11	0x3d0b7f1b	0.034056764
12	0x3d3f06f2	0.046637483
13	0x3ef87176	0.48524064
14	0x3e9cc3fb	0.3061827
15	0x3da7b891	0.081895
16	0x3e91a14a	0.28443366
17	0x3e993e37	0.2993028
18	0x3eecbad6	0.46236295
19	0xbcb0ebe8	-0.021596864
20	0x3e26a714	0.16274673
21	0x3e3f831f	0.18702362
22	0x3eadabd2	0.3392015
23	0x3e95b0ef	0.29236552
24	0x3e5b4d82	0.21416286
25	0x3e4cb256	0.19989905
26	0x3ea4ebcb	0.32211146
27	0x3e64e3b8	0.22352493
28	0x3efcb13e	0.49353975
29	0x3e8f9f20	0.2805109
30	0xbcfa9599	-0.030588912
31	0x3defcd3e	0.11709069
32	0x3e7f2c21	0.24919178
33	0xbe09f004	-0.13470465
34	0x3e86a3a3	0.2629672
35	0x3d851870	0.06498802
36	0x3c90e22e	0.017685976
37	0x3eb847e9	0.35992363
38	0x3e2cc1ef	0.16870855
39	0x3e3ea5e7	0.18617974
40	0x3e3dae1a	0.18523446
41	0x3e4c9d16	0.19981799
42	0x3dd543a2	0.104132906
43	0x3e86a5b4	0.26298296
44	0x3e88852a	0.26664096
45	0x3e34e355	0.17664845
46	0x3e623678	0.2209109
47	0x3e608377	0.2192515
48	0x3ea97a6d	0.33101216
49	0x3daab7e6	0.08335857
50	0x3e8ca14a	0.27466804
51	0x3e5d5d09	0.21617521
52	0x3e18217c	0.14856523
53	0x3da7a768	0.08186227
54	0x3e2067d8	0.15664613
55	0x3e69fa3a	0.2284936
56	0x3e88ffa4	0.26757538
57	0x3e3439c8	0.17600167
58	0x3da744dd	0.081674315
59	0x3c41b59a	0.011823082
60	0x3d2b3c76	0.041805707
61	0x3ed4dde5	0.41575542
62	0x3df75581	0.120768555
63	0xbd72566b	-0.059164446
64	0xbd5287d6	-0.051399074
65	0xbb396ddd	-0.0028294243
66	0xbd5660dc	-0.052338466
67	0xbe0dfb90	-0.13865495
68	0x3e22c57a	0.15895644
69	0xbdcde6e8	-0.100538075
70	0x3d5c5903	0.053795826
71	0x3dcfd306	0.101476714
72	0xbe08fe1a	-0.13378182
73	0xbd10c7ee	-0.035346918
74	0x3cce180e	0.025157955
75	0xbe895116	-0.26819676
76	0xbe3bd127	-0.18341504
77	0xbe288bc4	-0.16459566
78	0xbcbd80c4	-0.02313269
79	0x3e41798e	0.18894026
80	0x3d8102eb	0.06299385
81	0xbe29629c	-0.16541523
82	0x3d9c51c2	0.076327816
83	0xbd9d339b	-0.076758586
84	0xbeb113aa	-0.34585315
85	0x3e65a51e	0.22426268
86	0xbd3e03a6	-0.0463902
87	0x3c9c3fdd	0.019073421
88	0x3e4db84c	0.20089835
89	0xbdf129fb	-0.11775585
90	0x3c8db74e	0.01729932
91	0xbd1f3694	-0.03887041
92	0xbdfa298a	-0.12214954
93	0x3e67dd9c	0.22643131
94	0xbe2898d7	-0.16464554
95	0xbd8c40b7	-0.06848281
96	0x3e488260	0.19580984
97	0x3ea4b47d	0.32168952
98	0x3e622c1b	0.22087137
99	0x3e99c9bd	0.30036727
100	0x3ea7f895	0.3280684
101	0x3e4650eb	0.19366805
102	0x3e1e212e	0.15442345
103	0x3e74ed4d	0.23918648
104	0x3eee33ec	0.46523988
105	0x3e3bc713	0.1833766
106	0x3d816ee7	0.06319981
107	0x3e6814e7	0.22664224
108	0x3e55b1ab	0.20868556
109	0x3e303fd6	0.17211851
110	0xbdb8375e	-0.089949355
111	0x3e56fdd2	0.20995262
112	0x3e3f2a5d	0.18668504
113	0x3e43df68	0.19128191
114	0x3e8feeca	0.2811187
115	0x3dc5936c	0.09647259
116	0x3e034fe3	0.12823443
117	0x3ce93b06	0.028470527
118	0x3e86b39a	0.263089
119	0xbc8ad3d3	-0.016946709
120	0x3d9e5e85	0.07732872
121	0x3eb7685a	0.358218
122	0x3e57daa5	0.210795
123	0x3dff67ba	0.12470956
124	0x3e2b089c	0.16702503
125	0xbd563253	-0.052294087
126	0xbbe31f99	-0.006931257
127	0x3daa38f6	0.08311646

encoder.lstm.bias_hh_l0 f4 [128]
0	0x3e17b822	0.14816335
1	0x3e27cf04	0.16387564
2	0x3dafc777	0.08582967
3	0x3e811b77	0.25216267
4	0x3e46dfff	0.19421385
5	0x3e4dca32	0.20096663
6	0x3e385409	0.18000807
7	0x3e44edd1	0.19231345
8	0x3d430667	0.047613528
9	0x3ea8a74f	0.32940146
10	0x3d33e910	0.043923438
11	0x3e636114	0.22205001
12	0x3d8a5ba1	0.06755758
13	0x3f16922b	0.58816785
14	0x3df6f3d0	0.12058222
15	0x3e89f284	0.26942837
16	0x3d5b9305	0.053607006
17	0x3eb8e29c	0.3611039
18	0x3e659aa6	0.22422275
19	0xbdf20c03	-0.11818697
20	0x3cd8cf26	0.026465964
21	0x3e964a9a	0.2935379
22	0x3e9d8582	0.3076592
23	0x3dec67b8	0.1154322
24	0x3e612dae	0.21990082
25	0x3ec3412a	0.38135654
26	0x3e3e7555	0.18599446
27	0x3d25f5c6	0.04051759
28	0x3e8a1d66	0.26975554
29	0x3ed5475b	0.41656002
30	0x3d0bae46	0.034101747
31	0x3e349a2e	0.1763694
32	0x3e087836	0.13327107
33	0xbe324636	-0.17409596
34	0xbcea4d05	-0.028601179
35	0x3d38ea4d	0.04514532
36	0x3e4fa1a9	0.20276512
37	0x3ebf6ad6	0.37386197
38	0x3db65022	0.08902003
39	0x3ebbb937	0.36664745
40	0x3e25341b	0.16133158
41	0x3ea93e84	0.33055508
42	0x3dbeec9d	0.09322474
43	0x3e05bcc4	0.1306029
44	0x3e5e35df	0.21700238
45	0x3ecd7f88	0.4013636
46	0x3e4443e3	0.19166522
47	0x3e6c1be2	0.23057511
48	0x3e88a50e	0.26688427
49	0x3dd364e3	0.10321977
50	0x3e01131e	0.12604949
51	0xbd06480f	-0.032783564
52	0x3e05b330	0.13056636
53	0x3e0fa1a2	0.14026502
54	0xbd225eaf	-0.03964108
55	0x3e4a3eab	0.19750468
56	0x3e75ec8b	0.24016015
57	0x3e915d25	0.28391376
58	0x3e3503b0	0.17677188
59	0x3e8f60e5	0.28003612
60	0x3e14dab2	0.1453655
61	0x3e8a2e04	0.26988232
62	0x3e9f42f7	0.31105778
63	0x3e25e79a	0.1620163
64	0x3dc108fe	0.09425543
65	0xbe682c37	-0.22673117
66	0xbe475b32	-0.19468382
67	0xbdf3be2e	-0.11901508
68	0x3d61c1c6	0.055116437
69	0xbe2408a2	-0.16018918
70	0x3e14b879	0.14523496
71	0x3d5db241	0.054125074
72	0xbc1fedff	-0.0097613325
73	0xbe18b862	-0.14914086
74	0xbe173f68	-0.14770281
75	0xbe6e8b59	-0.23295344
76	0x3d2db88b	0.042412322
77	0xbd76febf	-0.06030154
78	0x3c5e200b	0.013557444
79	0xbd9452f2	-0.07242383
80	0x3e84f460	0.25967693
81	0xbe388b13	-0.18021803
82	0xbc49a9a1	-0.012308509
83	0xbcfaf9c0	-0.030636668
84	0xbeb34137	-0.35010692
85	0x3c0b2831	0.008493469
86	0xbe28239e	-0.16419837
87	0xbe0be02a	-0.1365973
88	0x3e26d71f	0.16293
89	0xbd88c77b	-0.06678673
90	0xbe477512	-0.19478253
91	0xbddc94c2	-0.10770561
92	0xbde10243	-0.109867595
93	0x3e3c47bb	0.18386738
94	0xbe76cf8d	-0.24102612
95	0xbe169866	-0.14706573
96	0x3e7db3ce	0.24775621
97	0x3e911312	0.28334862
98	0x3e6e9b6a	0.23301473
99	0x3e28dc1a	0.16490212
100	0x3ed34505	0.41263595
101	0x3de2dbcb	0.110770784
102	0x3ddef72f	0.1088699
103	0xbd5e4606	-0.054266
104	0x3eacaf9a	0.33727723
105	0x3e76826d	0.24073191
106	0x3dfe2d42	0.12410976
107	0x3df2383b	0.11827131
108	0x3dd6c77f	0.104872696
109	0x3ea5beeb	0.3237222
110	0x3d89fa95	0.06737248
111	0x3d7a027b	0.06103752
112	0x3d01e901	0.03171635
113	0x3ed41efe	0.41429895
114	0x3dac8bbd	0.084250905
115	0x3e7e18b8	0.24814117
116	0x3d1fe811	0.039039675
117	0x3dde8ef9	0.108671136
118	0x3e8063e2	0.25076205
119	0x3e4b627d	0.19861789
120	0x3c9343c5	0.017976651
121	0x3e211fb5	0.15734752
122	0x3db13d6d	0.08654294
123	0x3e74b2aa	0.2389628
124	0x3e612aea	0.21989027
125	0xbc446fc5	-0.011989539
126	0x3e77590a	0.2415506
127	0x3e5438f1	0.20724846

policy.net.0.weight f4 [128, 32]
0	0xbeb9bab7	-0.36275265
1	0xbc87baaf	-0.01656851
2	0xbe0760fa	-0.13220587
3	0xbed63a5a	-0.41841394
4	0x3cb8c7cf	0.022556214
5	0xbe47b061	-0.19500877
6	0xbc7aadbb	-0.01530021
7	0x3ec37088	0.38171792
8	0x3f0c4aa3	0.54801387
9	0xbe52c044	-0.20581156
10	0xbddc8357	-0.107672386
11	0xbe7e0020	-0.24804735
12	0xbecce55a	-0.4001873
13	0x3d7837ca	0.06060008
14	0x3c72fec2	0.014831247
15	0x3e3726c8	0.17885888
16	0xbd414acd	-0.047190476
17	0xbe36891b	-0.17825739
18	0xbe9e821e	-0.30958647
19	0x3e5843a6	0.21119556
20	0x3d7210fe	0.059098236
21	0x3d860be3	0.06545236
22	0xbe117efe	-0.142086
23	0xbd9e7c15	-0.077385105
24	0x3e35f976	0.17770943
25	0x3e8db94c	0.27680433
26	0xbe548135	-0.20752414
27	0xbeca4ca9	-0.39511612
28	0xbe29cd96	-0.16582331
29	0x3c2209ef	0.009890064
30	0xbe0e4c11	-0.13896205
31	0xbe8edc6b	-0.2790254
32	0xbc70aece	-0.014690114
33	0xbd7110f9	-0.058854077
34	0xbe04f47e	-0.12983891
35	0xbcf40d1d	-0.02979141
36	0xbde1a4df	-0.11017775
37	0xbdaa8195	-0.08325497
38	0xbec3e138	-0.38257766
39	0x3edb0d27	0.42783472
40	0x3f036365	0.5132354
41	0xbe25f582	-0.16206935
42	0xbda556eb	-0.08073219
43	0x3ca7eddb	0.02049916
44	0xbe72b7a5	-0.23702867
45	0xbdc4ee73	-0.09615793
46	0xbe142fd4	-0.1447137
47	0x3d28b4a1	0.041187886
48	0x3db8c8d2	0.090226784
49	0xbe033a11	-0.1281512
50	0xbcfca4bf	-0.030840276
51	0x3d9aa3cd	0.07550774
52	0xbebb1f38	-0.36547256
53	0xbd8c59d5	-0.068530716
54	0xbd072097	-0.032990064
55	0x3d091f4a	0.033477105
56	0x3e315e02	0.17321017
57	0x3d8e7088	0.069550574
58	0x3e68d653	0.22738008
59	0x3d6e8b72	0.058238454
60	0xbe2ee97e	-0.17081258
61	0x3e204204	0.15650183
62	0x3e75be34	0.23998338
63	0xbe82a3a6	-0.2551548
64	0xbe63a334	-0.22230226
65	0xbe3895ae	-0.18025848
66	0xbda8b487	-0.08237558
67	0xbe776992	-0.24161366
68	0x3b8da561	0.004322693
69	0xbe3ecefd	-0.18633647
70	0xbdb5ab70	-0.0887059
71	0x3ec188a8	0.37799573
72	0x3f18a23f	0.5962257
73	0xbde98cc7	-0.11403804
74	0x3e14398a	0.14475074
75	0x3e0b714b	0.13617437
76	0xbec5017e	-0.384777
77	0xbdb7e902	-0.089799896
78	0xbe63b6da	-0.22237721
79	0x3e30191e	0.17197081
80	0xbdc0ef1c	-0.094206065
81	0x3d2016a5	0.039084096
82	0xbe0c223e	-0.13684937
83	0x3ef9567f	0.48698804
84	0xbdb70141	-0.08935786
85	0x3e1b771b	0.15182154
86	0xbdda7a3b	-0.10667845
87	0xbe7d288e	-0.24722502
88	0xbdaa6924	-0.08320835
89	0x3e70bba5	0.2350908
90	0xbd80be30	-0.062862754
91	0x3d9d948c	0.07694349
92	0xbdeddb5f	-0.11614107
93	0xbcf3fef9	-0.029784666
94	0x3dc67696	0.09690587
95	0xbebfafb8	-0.3743875
96	0x3ea11301	0.3145981
97	0xbeb330b4	-0.34998095
98	0x3cd204bf	0.025637029
99	0x3e2f312b	0.171086
100	0x3e10944f	0.14119075
101	0x3d2c6c09	0.042095218
102	0xbe6ec8bc	-0.23318762
103	0xbe46760c	-0.19380969
104	0x3e7dd701	0.24789049
105	0xbd9242cd	-0.071416475
106	0x3e70186d	0.23446818
107	0x3bb820c5	0.005619141
108	0xbf12f4ab	-0.57404584
109	0x3c1d44b6	0.0095989015
110	0x3e269b80	0.16270256
111	0xbe63858c	-0.22218913
112	0xbec1d108	-0.3785479
113	0x3da33766	0.07969551
114	0xbd9e8d27	-0.077417664
115	0x3dd2384b	0.10264643
116	0x3cb75737	0.022380454
117	0xbe834876	-0.2564122
118	0x3db328d7	0.08748024
119	0xbe8c981e	-0.27459806
120	0xbd6aa53f	-0.057286497
121	0xbdd20d8e	-0.102564916
122	0x3ed9ebf3	0.42562827
123	0x3e8a8cfb	0.27060685
124	0x3e0fc6e6	0.14040717
125	0xbd178784	-0.036994472
126	0x3e417ff6	0.1889647
127	0xbdb736c2	-0.08945991
128	0x3d442be6	0.047893427
129	0x3e8bdd36	0.27317208
130	0xbde38be0	-0.111106634
131	0xbe91bf29	-0.28466156
132	0xbd910df9	-0.07082743
133	0x3e4c3350	0.19941449
134	0xbdfaabf8	-0.12239832
135	0xbeaca27b	-0.33717713
136	0xbeadaffb	-0.33923325
137	0xbde83d1f	-0.11339783
138	0x3f05d526	0.52278364
139	0xbecff99e	-0.4062013
140	0xbf2b5f3b	-0.66942185
141	0xbe8495a1	-0.25895408
142	0x3e03887e	0.12845036
143	0xbe030d9f	-0.12798165
144	0xbe7a4518	-0.2444042
145	0xbecb9d95	-0.39768663
146	0x3c656473	0.014001
147	0xbcbafc74	-0.022825457
148	0xbd1d9bb3	-0.038478564
149	0xbf2c79c4	-0.673733
150	0x3c13a913	0.009012478
151	0x3db1746d	0.086647846
152	0xbe41f42d	-0.18940802
153	0xbdc9604c	-0.0983282
154	0x3e9f2c23	0.3108836
155	0xbdf05fe3	-0.11737039
156	0x3e6a683b	0.22891323
157	0xbf0ada30	-0.5423918
158	0x3e84330f	0.25820205
159	0xbcdaf009	-0.026725786
160	0x3d3a6bdb	0.045513015
161	0xbe7f0e99	-0.24907912
162	0xbe759c90	-0.23985505
163	0x3e650377	0.22364603
164	0x3e78e673	0.2430666
165	0xbea64a06	-0.3247835
166	0x3ea2cec8	0.31798387
167	0xbe7b1063	-0.2451797
168	0xbe5051ee	-0.20343754
169	0x3d30a855	0.043129284
170	0xbc01ad12	-0.007914798
171	0x3e0d0132	0.13769987
172	0x3ec47c6b	0.38376173
173	0xbe50d4b4	-0.2039364
174	0x3dd41bf6	0.103568956
175	0xbdf1a8ee	-0.11799799
176	0x3df0e09e	0.11761592
177	0x3e6487c9	0.22317423
178	0xbd37660f	-0.044775065
179	0xbd2e0e27	-0.042493965
180	0xbdc59d83	-0.096491836
181	0xbe16bea8	-0.14721167
182	0xbc2f6983	-0.010706308
183	0xbdc20af1	-0.09474743
184	0xbd856dfc	-0.065151185
185	0xbe581f2e	-0.21105644
186	0xbdf1c686	-0.118054435
187	0x3e6feda5	0.23430498
188	0xbdac287a	-0.08406158
189	0xbd51d3a1	-0.051227216
190	0xbe83a070	-0.25708342
191	0x3eb94e0c	0.36192358
192	0xbd843aa3	-0.064564966
193	0x3d2186ed	0.039435316
194	0x3ee68079	0.45019892
195	0xbe76cb58	-0.24101007
196	0x3dba64af	0.09101235
197	0xbe5f8ba0	-0.21830606
198	0x3db49a75	0.08818523
199	0x3d02a57c	0.0318961
200	0xbea8eaa9	-0.32991531
201	0xbd9ac7a9	-0.075576134
202	0x3eb1c5d4	0.34721243
203	0x3e937f70	0.28808165
204	0xbe944070	-0.28955412
205	0xbd3c9d40	-0.046048403
206	0xbea19748	-0.3156073
207	0xbda06ae6	-0.07832889
208	0xbe3cb611	-0.18428828
209	0xbe21a090	-0.15783906
210	0xbd7839f6	-0.06060215
211	0xbe828ebc	-0.25499523
212	0xbea6f267	-0.32606813
213	0xbeee395d	-0.4652814
214	0x3e5a7b9f	0.2133622
215	0x3eb2d050	0.34924555
216	0xbd59c557	-0.053166714
217	0x3e9bb4f1	0.30411485
218	0xbd5b66ad	-0.053564716
219	0x3b4a6121	0.0030880647
220	0x3e4e1ad5	0.20127423
221	0xbeed45a4	-0.46342194
222	0x3dc3b899	0.095566936
223	0x3ccda81f	0.02510458
224	0x3e01274c	0.12612647
225	0x3df86303	0.1212826
226	0x3d891809	0.066940375
227	0x3df7a444	0.12091878
228	0xbe071cda	-0.131946
229	0xbd06db98	-0.032924265
230	0xbded726d	-0.115940906
231	0xbe0830fc	-0.13299936
232	0x3daecbb6	0.085349485
233	0xbd099b06	-0.033595107
234	0xbda88cf0	-0.08230007
235	0xbc350550	-0.01104863
236	0xbe00c9ff	-0.12577055
237	0x3d110ad0	0.035410702
238	0x3d93a7ad	0.07209716
239	0x3c7181a5	0.014740382
240	0xbcaf1f40	-0.021377206
241	0x3d5407d8	0.051765293
242	0x3d8c0060	0.06836009
243	0xbcde6b84	-0.027150877
244	0x3e2b1574	0.16707402
245	0xbe695b13	-0.22788648
246	0xbc04fbe9	-0.008116701
247	0x3ca3c72f	0.01999244
248	0xbd976a1e	-0.07393287
249	0x3dabdc66	0.08391647
250	0xbdd596f9	-0.104291864
251	0x3de873fe	0.11350249
252	0x3ca73c87	0.020414604
253	0x3c42f72c	0.011899751
254	0x3cd0d1d0	0.025490671
255	0x3e088f99	0.13336028

policy.net.0.bias f4 [128]
0	0x3e50932c	0.20368642
1	0x3e3abf32	0.18236998
2	0x3d8e6587	0.069529586
3	0x3dadff12	0.084959164
4	0xbdcd6cdb	-0.10030528
5	0x3d95c5ff	0.073131554
6	0xbdb5ab10	-0.08870518
7	0xbe9d33fa	-0.30703717
8	0x3da09ba3	0.07842185
9	0x3dbd2130	0.09234846
10	0x3e7baf59	0.24578609
11	0xba24c2ef	-0.0006285151
12	0x3e6e84a5	0.23292787
13	0x3d909fbd	0.07061718
14	0x3dc1d660	0.09464717
15	0x3d2294ef	0.039692815
16	0x3c289af2	0.010290848
17	0x3e361fac	0.1778552
18	0x3d892b9e	0.066977724
19	0x3d26edb7	0.040754046
20	0x3d0e39fd	0.03472327
21	0x3bbee771	0.00582593
22	0x3e076eb3	0.13225822
23	0xbd056505	-0.032567043
24	0xbd8570f0	-0.06515682
25	0xbe145e7f	-0.14489172
26	0xbe045ab8	-0.12925231
27	0x3d160286	0.0366235
28	0x3ddd497a	0.1080503
29	0x3dc89b49	0.09795243
30	0x3e12fb98	0.14353788
31	0x3d955a76	0.07292645
32	0xbe6f2d3a	-0.23357096
33	0xbc474fb8	-0.0121650025
34	0x3dbb254d	0.09137974
35	0x3e13775a	0.14400998
36	0xbcab739c	-0.02092915
37	0x3b1ff422	0.002440699
38	0x3e2e844c	0.17042655
39	0x3e2afad0	0.1669724
40	0x3d1bdcab	0.038052242
41	0x3e531cf8	0.2061652
42	0x3e1c8781	0.15286066
43	0xbc3721a0	-0.01117745
44	0x3dd593fd	0.10428617
45	0x3e47b7a7	0.19503652
46	0x3c65c942	0.014025034
47	0xbc7f4f32	-0.0155828465
48	0x3e6970a5	0.22796877
49	0x3d7d01be	0.06176924
50	0xbe459d7e	-0.1929836
51	0x3cbba146	0.02290405
52	0x3e1810c1	0.14850141
53	0xbe78764e	-0.2426388
54	0x3d95019e	0.07275699
55	0x3d98a270	0.074528575
56	0xbdf720f0	-0.12066829
57	0xbba6ac15	-0.0050864317
58	0x3ddd1026	0.10794096
59	0xbcb91c40	-0.022596478
60	0x3e2bb46e	0.16768047
61	0x3e8094c7	0.25113508
62	0x3e6e6874	0.23282033
63	0xbe11b8df	-0.14230679
64	0x3b96296f	0.004582576
65	0xbd908a11	-0.07057584
66	0x3e0bb66e	0.1364381
67	0xbcf5f3e8	-0.03002353
68	0xbd8aec5b	-0.067833625
69	0x3db55767	0.08854561
70	0xbe6fdbf9	-0.23423757
71	0x3d2d75c3	0.042348634
72	0x3d945379	0.07242484
73	0x3e4baee1	0.1989093
74	0x3dc7a985	0.0974913
75	0xbe3d0adc	-0.18461174
76	0x3d1fe9dc	0.039041385
77	0x3e2fb60f	0.17159294
78	0x3e2bd540	0.16780567
79	0x3e6c0895	0.23050149
80	0x3dbefefd	0.09325979
81	0x3e087ef3	0.13329677
82	0x3e119603	0.14217381
83	0x3d5aea6f	0.05344623
84	0x3dec5d2a	0.11541207
85	0xbc24ab26	-0.010050571
86	0xbccff961	-0.025387468
87	0xbda83ce3	-0.08214738
88	0x3dafcb2b	0.08583673
89	0x3cd5a228	0.026078299
90	0x3c82ba6f	0.01595804
91	0x3eb2bf9c	0.3491181
92	0x3e1a8576	0.15089974
93	0x3e01db19	0.12681235
94	0x3e927c4a	0.2861045
95	0xbcafb211	-0.021447213
96	0x3e58d2b5	0.21174128
97	0x3e06b5c5	0.13155277
98	0x3d17888f	0.036995467
99	0x3e0529c7	0.13004218
100	0x3e36770a	0.17818847
101	0xbd7c7cff	-0.061642643
102	0x3e3fecb0	0.18742633
103	0x3bfdf157	0.007749717
104	0x3d91823f	0.071049206
105	0x3e1d13f2	0.1533964
106	0x3df70e40	0.12063265
107	0xbbd0d9a9	-0.0063736034
108	0x3d8fac9f	0.07015347
109	0x3e0148ee	0.12625477
110	0xbdaf011b	-0.08545133
111	0x3db07a3a	0.08617063
112	0x3e53e185	0.20691498
113	0xbd2e1a5e	-0.042505614
114	0x3e2cb2f7	0.16865145
115	0x3e17c767	0.1482216
116	0xbd5a1dc7	-0.053251054
117	0xbb904bf6	-0.0044035865
118	0x3de57082	0.112031
119	0x3e2c654c	0.16835517
120	0x3e8cf163	0.27527913
121	0x3e809163	0.2511092
122	0xbc197989	-0.009367355
123	0x3e29f054	0.16595584
124	0x3e0c6cbc	0.13713354
125	0x3e232c30	0.15934825
126	0x3e117caf	0.1420772
127	0xbdbff17c	-0.09372231

policy.net.2.weight f4 [5, 128]
0	0xbe1188f5	-0.14212401
1	0xbe1d42ef	-0.15357564
2	0xbf13a9cf	-0.5768098
3	0xbdcee3bd	-0.101020314
4	0xc034f374	-2.8273592
5	0xbf9dee47	-1.2338341
6	0xbfba6a8f	-1.4563769
7	0x3cb5e98e	0.022206094
8	0xbe2943c1	-0.16529752
9	0xbe4e0031	-0.2011726
10	0xbdbaa971	-0.0911435
11	0xbf30d252	-0.69070923
12	0xbe4c48e4	-0.1994968
13	0xbea3e1e8	-0.3200829
14	0xbe2b517c	-0.16730303
15	0xbe7a85c3	-0.24465089
16	0xbe2c9396	-0.16853175
17	0xbe2abf53	-0.16674547
18	0xbe17610f	-0.14783119
19	0xbf7c5ae8	-0.9857621
20	0xbfbd0ac2	-1.4768908
21	0xbe194a28	-0.14969695
22	0xbcc9690c	-0.024586223
23	0xbeedfa8f	-0.46480224
24	0xbf9703b6	-1.1798007
25	0xbf8d4544	-1.1036763
26	0xbea4f270	-0.32216215
27	0xbe119699	-0.14217605
28	0xbe96b3cb	-0.29434046
29	0xbe64be1f	-0.2233815
30	0xbe0ecc83	-0.13945203
31	0xbe840c52	-0.2579065
32	0xbf353fd6	-0.7080053
33	0xbe206260	-0.15662527
34	0xbe89a748	-0.26885438
35	0xbdfb0638	-0.122570455
36	0xbf0d6697	-0.55234665
37	0xc01734dd	-2.3626015
38	0xbe5c4bf6	-0.21513352
39	0xbf01b60c	-0.50668406
40	0xbeba78ae	-0.36420196
41	0xbd7eea1b	-0.06223498
42	0xbe676388	-0.22596562
43	0xbe7dc270	-0.24781203
44	0xbf0a8c82	-0.5412065
45	0xbd5d797f	-0.054070946
46	0xbe33521c	-0.17511791
47	0xbe6db5c5	-0.23213871
48	0xbe32b230	-0.17450786
49	0xbf93fba5	-1.1561171
50	0xbf4bb46f	-0.79572195
51	0xbea9f0d4	-0.3319155
52	0xbe46da4d	-0.19419213
53	0xbe8a06a9	-0.26958206
54	0xbe6b106d	-0.22955485
55	0xbeb8b0b3	-0.3607231
56	0xc034b433	-2.8234985
57	0xbf65765e	-0.8963374
58	0xbe698bad	-0.22807188
59	0xbfd6e14b	-1.6787504
60	0xbdade243	-0.084904216
61	0xbe442c22	-0.1915746
62	0xbe09c26c	-0.13453072
63	0xc02d96dd	-2.712333
64	0xc03849cb	-2.879504
65	0xc0089cbe	-2.1345668
66	0xbe368866	-0.1782547
67	0xc03218fe	-2.7827754
68	0xbfb96756	-1.4484661
69	0xbd4af417	-0.04954919
70	0xbfa4ad7b	-1.2865442
71	0xc02d1575	-2.7044346
72	0xbd784eba	-0.060621955
73	0xbe60a0d1	-0.21936347
74	0xbf506cfd	-0.814163
75	0xbd7887e7	-0.06067648
76	0xbeb360fa	-0.35034925
77	0xbe41cdb0	-0.1892612
78	0xbdca9be0	-0.09893012
79	0xbdfb9f46	-0.12286238
80	0xbf09653b	-0.5367009
81	0xbe16d2d9	-0.1472887
82	0xbe43707e	-0.19085881
83	0x3b8c28f5	0.0042773434
84	0xbe90c4dc	-0.28275192
85	0xbdcd6839	-0.100296445
86	0xbf48798f	-0.78310484
87	0xc0087a83	-2.1324775
88	0xbe36b62d	-0.17842932
89	0xbe81f102	-0.25379187
90	0xbe99b101	-0.30017856
91	0xbde05640	-0.10953951
92	0xbdb91c2b	-0.09038576
93	0xbfa0fd63	-1.2577327
94	0xbea8b90b	-0.32953677
95	0xbe6af191	-0.22943713
96	0xbe21116c	-0.15729302
97	0xbe9f21f1	-0.31080583
98	0xbf2ba3ca	-0.670468
99	0xbe640096	-0.22265849
100	0xbe921bba	-0.2853678
101	0xbe81ef96	-0.25378102
102	0xbddf40a2	-0.109009996
103	0xbf46d232	-0.7766448
104	0xbe02492d	-0.12723227
105	0xbe1e668c	-0.15468806
106	0xbe77e3b9	-0.24207963
107	0xbec4f9ee	-0.3847193
108	0xbfa9dd7f	-1.327072
109	0xbdfdb3e9	-0.12387831
110	0xbe961715	-0.29314485
111	0xbf4bebd6	-0.7965673
112	0xbe4f93e4	-0.2027126
113	0xbf3a8af1	-0.7286826
114	0xbe1ef2e6	-0.15522346
115	0xbe84476e	-0.25835747
116	0xbf58c292	-0.8467189
117	0xbf300ad2	-0.6876651
118	0xbf66d563	-0.9016935
119	0xbe015c62	-0.12632897
120	0xbe477644	-0.19478709
121	0xbe5f1d0d	-0.21788426
122	0xbe844892	-0.25836617
123	0xbe18fd1f	-0.14940308
124	0xbdf0083a	-0.11720319
125	0xbdea1c07	-0.11431127
126	0xbe5f53de	-0.21809337
127	0xbf84bf80	-1.0370941
128	0xbea8e5eb	-0.32987913
129	0xbd38d469	-0.045124445
130	0x3de4f928	0.11180335
131	0xbe195114	-0.14972335
132	0xbf2cc5b4	-0.6748917
133	0x3e7aca67	0.24491273
134	0x3d3b41fe	0.045717232
135	0x3d746d54	0.059674576
136	0x3dfe7c73	0.124260806
137	0x3edfe651	0.43730405
138	0x3d6f4d8e	0.05842357
139	0xb85f6f0d	-5.3270767e-05
140	0xbca2065f	-0.019778429
141	0x3e85b9b6	0.2611825
142	0xbe0eb27c	-0.13935274
143	0x3e76a57c	0.24086565
144	0x3e1e5357	0.15461479
145	0x3e71cdc6	0.23613653
146	0x3b119457	0.0022213662
147	0xbe3a3fe6	-0.18188438
148	0x3e5962a9	0.21229042
149	0x3e2d0e13	0.168999
150	0x3e56d5ba	0.20979968
151	0x3d669048	0.05628994
152	0x3f5c6903	0.86097735
153	0x3d202a60	0.039102912
154	0xbbdf09c2	-0.006806583
155	0xbd60602d	-0.05477922
156	0x3d16a9bb	0.03678296
157	0x3e0854d0	0.13313603
158	0x3e33e537	0.17567907
159	0x3e329811	0.17440821
160	0x3f72dad4	0.94865155
161	0xbdb1a168	-0.08673364
162	0xbe710338	-0.23536384
163	0x3d82616a	0.063662365
164	0x3da66d92	0.08126368
165	0xbec1d161	-0.37855056
166	0x3dd8f3fb	0.105934106
167	0xbe935f0a	-0.28783447
168	0xbe5775a4	-0.2104097
169	0xbe9eacd2	-0.30991226
170	0xbecf0885	-0.40436187
171	0xbc807b6a	-0.015683848
172	0x3e56dabf	0.20981883
173	0x3e231509	0.15925993
174	0x3deacb71	0.114645846
175	0xbda97a5e	-0.08275293
176	0x3e86f80f	0.2636113
177	0x3f001e22	0.5004598
178	0xbdb46239	-0.08807797
179	0x3dbd402f	0.09240758
180	0xbd743286	-0.059618495
181	0xbdaa4752	-0.083143845
182	0x3e19142e	0.14949104
183	0xbe399081	-0.1812153
184	0x3f422949	0.75844246
185	0xbe79435e	-0.24342105
186	0xbdb7c5ee	-0.08973299
187	0x3e1c1d1b	0.15245478
188	0xbd229846	-0.039696
189	0xbd9e2f8a	-0.07723911
190	0x3da1ca21	0.07899881
191	0x3ebdd81e	0.37078947
192	0x3e8636ea	0.2621377
193	0xbebf82a9	-0.37404373
194	0x3b521c34	0.0032060267
195	0xbeafbc22	-0.3432322
196	0xbf010029	-0.5039087
197	0x3d27d0ce	0.040970616
198	0xbec50551	-0.3848062
199	0xbc2ff641	-0.010739864
200	0xbe38276e	-0.17983791
201	0xbc4ec3f4	-0.012619961
202	0x3e5a84d5	0.21339734
203	0xbbf36731	-0.007428073
204	0xbe092624	-0.13393456
205	0x3d06fcd6	0.032955967
206	0xbeaace93	-0.3336073
207	0xbd1c2ff0	-0.038131654
208	0x3e28a931	0.16470791
209	0xbe5d757a	-0.21626845
210	0xbd861ca4	-0.065484315
211	0xbddec562	-0.108774915
212	0x3dcb703c	0.099335164
213	0xbd3b6909	-0.045754466
214	0xbe77ba49	-0.24192156
215	0xbf0286a1	-0.5098668
216	0x3e21b5e5	0.15792044
217	0x3c08f6c4	0.008359615
218	0x3ee4ed4f	0.44712302
219	0x3f172926	0.5904716
220	0x3e8cf2c8	0.27528977
221	0x3e85a001	0.26098636
222	0xbca64715	-0.020297566
223	0xbdde3160	-0.10849261
224	0xbdaf230e	-0.08551608
225	0x3dd44a59	0.10365743
226	0x3e52ccf3	0.20585994
227	0xbde6339c	-0.112403125
228	0xbbc667ab	-0.0060548387
229	0x3e0298da	0.1275362
230	0xbd27dcc4	-0.040982023
231	0x3e1445b1	0.1447971
232	0x3dfa6d42	0.122278705
233	0xbe455ca0	-0.19273615
234	0x3ca411aa	0.020027954
235	0x3c016e8f	0.007899894
236	0xbeeaf544	-0.45890248
237	0xbb275100	-0.0025530457
238	0x3dfcdcd9	0.12346811
239	0x3ede48ef	0.4341502
240	0x3e832e11	0.25621083
241	0x3e95eb53	0.292811
242	0x3dbb181a	0.091354564
243	0xbebcb36a	-0.36855632
244	0x3ebd34eb	0.36954436
245	0xbee3d263	-0.4449645
246	0x3e27e71c	0.16396755
247	0x3c83b41b	0.016077092
248	0xbdafff25	-0.08593587
249	0x3cefab3c	0.029256456
250	0xbf12564b	-0.5716292
251	0xbdf24e93	-0.11831393
252	0x3e62ec86	0.22160539
253	0x3e4ddd73	0.20104007
254	0x3e6c6bd6	0.23088011
255	0xbdbeb846	-0.09312491

policy.net.2.bias f4 [5]
0	0xbdc3b6a1	-0.09556318
1	0xbc8d560a	-0.01725294
2	0x3da1d34d	0.079016306
3	0x3c85ff48	0.01635708
4	0x3d90d1f4	0.070712954

exp_avg f4 [900, 16]
0	0x39519056	0.00019985563
1	0xb93d32bb	-0.00018043343
2	0x38870842	6.43884e-05
3	0x3933b805	0.00017139323
4	0xba13eedb	-0.0005643197
5	0xb99674ca	-0.00028697244
6	0x3935e919	0.00017348341
7	0x394eb8b6	0.00019714501
8	0x390d13a3	0.00013454123
9	0xb7d169d7	-2.4964027e-05
10	0xb893ed41	-7.053698e-05
11	0x39473952	0.00018999472
12	0x3914c11b	0.00014186317
13	0xb81de4ca	-3.7644793e-05
14	0xb9bdfbe5	-0.00036236565
15	0xb844d5be	-4.6929104e-05
16	0xb9d2382f	-0.0004009618
17	0xb9d52878	-0.00040656677
18	0x39833e28	0.00025032577
19	0xb81b06a5	-3.6961068e-05
20	0xb8ba2171	-8.8754e-05
21	0x387b7557	5.9952345e-05
22	0x396288a9	0.0002160395
23	0x39a0e0fa	0.000306852
24	0x381ea440	3.7823105e-05
25	0xb84fbfcf	-4.953128e-05
26	0xb929798b	-0.00016162374
27	0xb8d4abac	-0.00010140924
28	0x39b5f1bd	0.0003470312
29	0x3900f9a8	0.00012300035
30	0xb8a8f25b	-8.0560065e-05
31	0x394a5b3f	0.00019298213
32	0xb9caf05c	-0.00038707524
33	0xba0c29af	-0.00053467875
34	0x3a09ff1a	0.00052641483
35	0x38a0a201	7.65957e-05
36	0x38b9fe4d	8.868855e-05
37	0x38fdda56	0.00012104648
38	0x39ce63d7	0.00039365768
39	0x399ae364	0.00029542588
40	0x39ddf20a	0.00042332738
41	0xb8276b34	-3.9915743e-05
42	0xb8cd3d8e	-9.786627e-05
43	0xb9735c98	-0.0002320878
44	0x39d53a44	0.00040669937
45	0x3926711a	0.00015873127
46	0xb7bd6d59	-2.2581475e-05
47	0x37fdbaba	3.0246902e-05
48	0xb9ef4da0	-0.00045643467
49	0xb9d9c9a7	-0.00041539708
50	0x39af125a	0.00033392274
51	0xb8f0b4df	-0.00011477782
52	0xb93bd9b1	-0.00017914806
53	0xb896c6e7	-7.189606e-05
54	0x39970f82	0.0002881252
55	0xb6d5c2ec	-6.3705866e-06
56	0x3875fe8d	5.864962e-05
57	0x39036ffb	0.0001253485
58	0xb8eb3b7e	-0.000112167545
59	0xb8869ba5	-6.418609e-05
60	0x392b3e1e	0.00016330971
61	0x37d07379	2.4849303e-05
62	0xb9258207	-0.00015784065
63	0xb8fe26b3	-0.00012118872
64	0xb974cfb2	-0.00023347026
65	0xb99b160d	-0.00029580333
66	0xb8833989	-6.2572835e-05
67	0xb9b1897c	-0.00033862505
68	0xb93b7da4	-0.00017880514
69	0x3961de21	0.00021540422
70	0x385e7113	5.3034233e-05
71	0x39856a7c	0.00025447074
72	0xb8f4527b	-0.0001165019
73	0xb83860cb	-4.3959164e-05
74	0x382ea1b7	4.163544e-05
75	0x3845f833	4.7199614e-05
76	0x38b25532	8.50357e-05
77	0x38c933f9	9.5941075e-05
78	0xb89d94dd	-7.514071e-05
79	0xb863a585	-5.427517e-05
80	0x00000000	0.0
81	0x00000000	0.0
82	0x00000000	0.0
83	0x00000000	0.0
84	0x00000000	0.0
85	0x00000000	0.0
86	0x00000000	0.0
87	0x00000000	0.0
88	0x00000000	0.0
89	0x00000000	0.0
90	0x00000000	0.0
91	0x00000000	0.0
92	0x00000000	0.0
93	0x00000000	0.0
94	0x00000000	0.0
95	0x00000000	0.0
96	0x00000000	0.0
97	0x00000000	0.0
98	0x00000000	0.0
99	0x00000000	0.0
100	0x00000000	0.0
101	0x00000000	0.0
102	0x00000000	0.0
103	0x00000000	0.0
104	0x00000000	0.0
105	0x00000000	0.0
106	0x00000000	0.0
107	0x00000000	0.0
108	0x00000000	0.0
109	0x00000000	0.0
110	0x00000000	0.0
111	0x00000000	0.0
112	0x00000000	0.0
113	0x00000000	0.0
114	0x00000000	0.0
115	0x00000000	0.0
116	0x00000000	0.0
117	0x00000000	0.0
118	0x00000000	0.0
119	0x00000000	0.0
120	0x00000000	0.0
121	0x00000000	0.0
122	0x00000000	0.0
123	0x00000000	0.0
124	0x00000000	0.0
125	0x00000000	0.0
126	0x00000000	0.0
127	0x00000000	0.0
128	0x00000000	0.0
129	0x00000000	0.0
130	0x00000000	0.0
131	0x00000000	0.0
132	0x00000000	0.0
133	0x00000000	0.0
134	0x00000000	0.0
135	0x00000000	0.0
136	0x00000000	0.0
137	0x00000000	0.0
138	0x00000000	0.0
139	0x00000000	0.0
140	0x00000000	0.0
141	0x00000000	0.0
142	0x00000000	0.0
143	0x00000000	0.0
144	0x00000000	0.0
145	0x00000000	0.0
146	0x00000000	0.0
147	0x00000000	0.0
148	0x00000000	0.0
149	0x00000000	0.0
150	0x00000000	0.0
151	0x00000000	0.0
152	0x00000000	0.0
153	0x00000000	0.0
154	0x00000000	0.0
155	0x00000000	0.0
156	0x00000000	0.0
157	0x00000000	0.0
158	0x00000000	0.0
159	0x00000000	0.0
160	0x00000000	0.0
161	0x00000000	0.0
162	0x00000000	0.0
163	0x00000000	0.0
164	0x00000000	0.0
165	0x00000000	0.0
166	0x00000000	0.0
167	0x00000000	0.0
168	0x00000000	0.0
169	0x00000000	0.0
170	0x00000000	0.0
171	0x00000000	0.0
172	0x00000000	0.0
173	0x00000000	0.0
174	0x00000000	0.0
175	0x00000000	0.0
176	0x00000000	0.0
177	0x00000000	0.0
178	0x00000000	0.0
179	0x00000000	0.0
180	0x00000000	0.0
181	0x00000000	0.0
182	0x00000000	0.0
183	0x00000000	0.0
184	0x00000000	0.0
185	0x00000000	0.0
186	0x00000000	0.0
187	0x00000000	0.0
188	0x00000000	0.0
189	0x00000000	0.0
190	0x00000000	0.0
191	0x00000000	0.0
192	0x3986d58d	0.0002571758
193	0x38e6e941	0.000110107016
194	0xb912bab0	-0.00013993192
195	0x38b99d19	8.850749e-05
196	0xb80cbddf	-3.3555432e-05
197	0x39a5d6b5	0.00031631222
198	0x39d15a0a	0.0003993067
199	0xb99bed86	-0.00029740873
200	0x3799b389	1.8322624e-05
201	0xb91e748e	-0.00015111474
202	0xb95b8279	-0.00020934072
203	0x38c73a17	9.4998795e-05
204	0x3909e464	0.0001315042
205	0xb9f7dc81	-0.000472758
206	0xb7a0d1fa	-1.9171264e-05
207	0xb8d06610	-9.9372235e-05
208	0x39e8f24a	0.00044431008
209	0x39488b6e	0.00019125428
210	0xb97e2898	-0.0002423845
211	0x3881d574	6.190958e-05
212	0xb811ae67	-3.473312e-05
213	0x39a20436	0.00030902185
214	0x398ae8af	0.00026494774
215	0xb982c9f0	-0.00024945987
216	0xb8812272	-6.157615e-05
217	0xb9949e8b	-0.00028346883
218	0xb99436cc	-0.00028269587
219	0x390dcdbc	0.0001352345
220	0x395b3392	0.00020904679
221	0xba0fa016	-0.0005478872
222	0x383f000f	4.5538003e-05
223	0xb74781f3	-1.18915805e-05
224	0x39e2a44c	0.0004322849
225	0x39606f6d	0.00021403814
226	0xb9c40339	-0.00037386434
227	0x38d49b17	0.000101378355
228	0xb9070ae3	-0.00012878659
229	0x39ca3bff	0.00038573143
230	0x391c122a	0.00014884086
231	0xb9b2a6b8	-0.0003407502
232	0x38c1bf2c	9.238566e-05
233	0xb95889d5	-0.00020650712
234	0xb9069bbb	-0.0001283725
235	0x3829b5fe	4.0462233e-05
236	0x39187700	0.0001454018
237	0xba2133b9	-0.000614937
238	0xb9119bca	-0.00013886314
239	0x38b0f7f9	8.4385225e-05
240	0x39529c3f	0.00020085367
241	0x38fd1213	0.00012067347
242	0xb919bf68	-0.00014662521
243	0x38f38e78	0.0001161368
244	0x37091e48	8.172887e-06
245	0x3951415a	0.00019956139
246	0x38fd8c27	0.000120900855
247	0xb993dee1	-0.00028204083
248	0x392aeb51	0.00016300126
249	0xb7b94a68	-2.2088367e-05
250	0xb8e06d2b	-0.000107014865
251	0x3959c76e	0.00020769026
252	0x3978b751	0.00023719414
253	0xb9dd24b2	-0.00042179745
254	0x39a80022	0.00032043556
255	0xb8a203e3	-7.725486e-05
