ISE_Transformer/model/2_room/eil_2_room_198_model/EBC_model_127999.pth (torch, 319327 bytes, 27 tensors)

encoder.embedding.weight f4 [900, 16]
0	0x3e08b05f	0.1334853
1	0xbf87af58	-1.0600386
2	0x3f46fae3	0.7772657
3	0x3ffb3f1e	1.9628637
4	0x3ebfecfc	0.37485492
5	0x3f413912	0.7547771
6	0x3e499187	0.1968442
7	0x3f14a715	0.58067447
8	0x3fbbd1e2	1.4673426
9	0x3fa778b7	1.3083714
10	0x3fb49249	1.4107143
11	0xbf617260	-0.8806515
12	0x3fd9f6fa	1.7028496
13	0xbedd2b77	-0.43197224
14	0xbf78ba16	-0.97158945
15	0x3f258a65	0.646643
16	0xbf828f1c	-1.0199924
17	0xbd304355	-0.043032963
18	0x3ee1ae22	0.44078165
19	0xbf12b345	-0.57304794
20	0x3ed3f388	0.41396737
21	0x3f0c396a	0.54775107
22	0x3e8a5916	0.27021092
23	0xbd9208b5	-0.07130567
24	0xbf83c03c	-1.029304
25	0xbfcb6088	-1.5888834
26	0x400be1b6	2.1856513
27	0xbfc8ac9c	-1.5677676
28	0x3f82e0eb	1.022489
29	0xbe43f154	-0.19135028
30	0xbe8351a6	-0.2564823
31	0xbfad5bf2	-1.3543684
32	0x3f2460cd	0.64210206
33	0xbdeeff4d	-0.116697885
34	0xbf0006f5	-0.50010616
35	0x3f0d0710	0.550889
36	0x3dddaa81	0.10823537
37	0x3c73cccb	0.014880369
38	0xbebb1cad	-0.36545315
39	0xbfed2d37	-1.8529423
40	0xbf54fca5	-0.83198005
41	0x3f8ee8ce	1.1164796
42	0xbf7b3b94	-0.98137784
43	0xbe12b070	-0.14325118
44	0xbf94a5fe	-1.1613157
45	0x3e32c443	0.1745768
46	0xc063ba9f	-3.5582654
47	0xbf945ce9	-1.1590854
48	0x3f147080	0.5798416
49	0xbf21bc18	-0.63177633
50	0xbfc34ffd	-1.5258785
51	0xbf7e18fb	-0.9925687
52	0x3f38831f	0.72075075
53	0x3fdbaad8	1.7161512
54	0xbf9fed50	-1.2494297
55	0x3f07f677	0.5311045
56	0xbfc01da1	-1.5009042
57	0x3d1eae6c	0.03874056
58	0x3f4c6ad5	0.7985051
59	0xbfc8c23e	-1.5684278
60	0xbf90d205	-1.1314093
61	0xbf498b89	-0.7872854
62	0xbf5bcfdd	-0.8586405
63	0xc0256e69	-2.584864
64	0x3f67abd3	0.9049656
65	0x3f0b9790	0.5452814
66	0xbfd8dc7b	-1.6942285
67	0x401d07ba	2.4535966
68	0xbf859fff	-1.0439452
69	0x3ddba112	0.10724081
70	0xbfcb8bcb	-1.5902036
71	0x3ef52893	0.47882518
72	0xbf6700dc	-0.90235686
73	0xbe2fe25a	-0.1717619
74	0x3dd70e5b	0.10500785
75	0xbfe1549b	-1.7603945
76	0xc0061c91	-2.0954936
77	0xbcd57afa	-0.026059616
78	0xbf0edcb5	-0.5580552
79	0x3d666574	0.056249097
80	0x3e1918b5	0.14950831
81	0x3f2e8646	0.68173635
82	0x3fc8aa0d	1.5676895
83	0x3ef37d76	0.47556657
84	0xbf80a441	-1.0050126
85	0xbf82fb09	-1.023286
86	0x3f057d3c	0.5214422
87	0xbef6e35b	-0.48220333
88	0xbf45cac4	-0.7726252
89	0x402fa645	2.7445233
90	0xbffceabe	-1.9759138
91	0x3ed4f030	0.415895
92	0x3fc89d13	1.5672935
93	0xbd2321c3	-0.03982712
94	0xbf78e297	-0.9722075
95	0xbf3649b8	-0.71206236
96	0x3e75b7b5	0.2399586
97	0xbf997ce5	-1.199124
98	0x3f881e17	1.0634183
99	0xbf2d4c14	-0.6769421
100	0xbf29d40c	-0.6633918
101	0x3eac2e84	0.3362924
102	0x3f04b980	0.5184555
103	0x3f84d6c4	1.0378041
104	0x3d29e23d	0.041475523
105	0x3f57838d	0.84185106
106	0xbe06755a	-0.13130704
107	0xbfbf08fc	-1.4924617
108	0x3eba2620	0.36357212
109	0xbf02d54a	-0.51106703
110	0xbed64638	-0.41850448
111	0x3f97483d	1.181892
112	0xbe882c72	-0.2659641
113	0x3f4ddfd2	0.8041965
114	0xbe9d7ba6	-0.307584
115	0x3fad485f	1.3537711
116	0x3f2ac244	0.66702676
117	0xbe718f59	-0.23589839
118	0xbe2f5481	-0.1712208
119	0x3f0fc723	0.56163234
120	0x3e9d35dc	0.30705154
121	0x3eacf4c8	0.33780503
122	0x3e050074	0.12988454
123	0x3f13956f	0.5764989
124	0x3ca658d1	0.020306023
125	0x3fb2fdc0	1.3983688
126	0x3fb55e8f	1.4169482
127	0xbbc0bfc0	-0.0058822334
128	0xbf61e845	-0.8824504
129	0xbef9f6e3	-0.48821172
130	0xbfad94f9	-1.3561088
131	0xbe6f0e1a	-0.23345223
132	0x3fea3517	1.8297452
133	0x3fcb78ed	1.5896279
134	0x3e365e8a	0.17809501
135	0x3f030fba	0.5119587
136	0xbf0bd7f0	-0.5462637
137	0xbfb8c286	-1.4434364
138	0xbff63e32	-1.923773
139	0xbf9088af	-1.1291713
140	0x3f80de94	1.0067925
141	0xbc1011c2	-0.008793296
142	0xbf4df091	-0.804452
143	0x3ffba08a	1.9658368
144	0x3fd2f00a	1.6479504
145	0x3f11e735	0.5699342
146	0xbc4a2e9c	-0.012340214
147	0xbfbc443f	-1.4708327
148	0xbd3d77b9	-0.046256755
149	0xbf086699	-0.5328155
150	0x3f28e4bd	0.65974027
151	0x400bf57d	2.1868584
152	0x3ef9c545	0.48783317
153	0x400b8029	2.1796973
154	0xbfbb383a	-1.4626534
155	0xbfb20beb	-1.3909887
156	0xbedd4693	-0.43217906
157	0xbe1892f2	-0.14899805
158	0x3dd07cf7	0.10180085
159	0xbe33ebd6	-0.17570433
160	0x3ea4e7f3	0.32208213
161	0x3f9a135f	1.2037162
162	0x3daecc16	0.0853502
163	0xbfe162e8	-1.7608309
164	0x3d73f564	0.059560195
165	0xbfa77304	-1.3081975
166	0x3e6c1cd0	0.23057866
167	0x3f75be8b	0.9599387
168	0x3e10d040	0.14141941
169	0x3f5ca835	0.86194164
170	0xbf8c435c	-1.0958056
171	0xbf920f40	-1.1410904
172	0xbec09121	-0.37610725
173	0xbe830363	-0.2558852
174	0xbe914aa7	-0.28377268
175	0x3f8fa9bb	1.1223673
176	0x400414ac	2.0637617
177	0x3e062291	0.13099124
178	0x3f6948bd	0.91126615
179	0x3dca6884	0.09883216
180	0xbf2a85ba	-0.666103
181	0x3f6ea805	0.9322513
182	0x3fd155a0	1.6354256
183	0xbf8cdc17	-1.1004666
184	0x3f3c40bb	0.7353627
185	0x40019a7e	2.0250545
186	0xc03a7b37	-2.9137704
187	0x3e435f95	0.1907943
188	0x3e2db8c2	0.16965011
189	0xbf333487	-0.70002025
190	0xbdc8288a	-0.09773357
191	0x3f03a191	0.51418406
192	0x3f6803ec	0.90630984
193	0xbe02a91a	-0.1275982
194	0xbf82e882	-1.0227206
195	0x3ffafb68	1.9607973
196	0x3ef5026d	0.47853413
197	0xbf0dcbe1	-0.5538922
198	0xbf8b5ece	-1.0888307
199	0xbf9a5040	-1.205574
200	0x3fd8b79c	1.6931033
201	0x3f92154f	1.1412753
202	0x3fb677f9	1.4255363
203	0xbe0de798	-0.13857877
204	0xbf55fad3	-0.8358585
205	0xbfda057a	-1.7032921
206	0xbfe9f20c	-1.8276992
207	0xbfd565cd	-1.6671692
208	0x3fe94e09	1.822694
209	0xbd8e4167	-0.06946068
210	0xbf233db8	-0.6376605
211	0x3f05bfb9	0.5224567
212	0x3f374eb3	0.7160446
213	0xbee43dc9	-0.44578388
214	0xbe4a6433	-0.19764785
215	0xbef6eb08	-0.4822619
216	0xbe3eb4c5	-0.18623646
217	0xbf305509	-0.68879753
218	0x3f2de3c2	0.67925656
219	0xbf130a60	-0.57437706
220	0x3f81ce26	1.0141037
221	0x3fabd6a1	1.3424875
222	0x3f20d9a7	0.6283211
223	0xbf253c53	-0.6454517
224	0xbfa71803	-1.3054203
225	0xbfe5774d	-1.7927033
226	0xbee1667f	-0.4402351
227	0xbf0f4c0d	-0.5597542
228	0x3f876984	1.0579076
229	0x3f38fcbf	0.7226066
230	0xbfd62cd2	-1.6732428
231	0xbff46d66	-1.9095886
232	0x3fa1859b	1.2618898
233	0x3f18c574	0.5967629
234	0x3ec62015	0.38696352
235	0xbfaf0ce5	-1.367581
236	0xbf81e37b	-1.0147547
237	0xbeadd5fe	-0.33952326
238	0xbe6a49de	-0.2287974
239	0x3ec4ef96	0.3846404
240	0xbdaa8726	-0.08326559
241	0xbebaa277	-0.36452076
242	0x3b8f85fb	0.0043799854
243	0x3f700c48	0.9376874
244	0x3fe4249c	1.7823672
245	0x3f19a247	0.6001324
246	0x3c59bf45	0.013290231
247	0xbfd62023	-1.6728557
248	0xbf035f36	-0.51317155
249	0xbfef3ad1	-1.8689824
250	0x3fb2abf7	1.395873
251	0xbe55130f	-0.20808052
252	0x3f53c695	0.8272489
253	0xbd9b68b4	-0.0758833
254	0x4019c4f1	2.4026453
255	0xbe260847	-0.16214095

encoder.lstm.weight_ih_l0 f4 [128, 16]
0	0xbebecd84	-0.3726617
1	0x3e85958c	0.26090658
2	0xbee80a5e	-0.4532041
3	0xbf28d6c9	-0.65952736
4	0xbe069d81	-0.1314602
5	0x3f0676a9	0.5252481
6	0xbe2e076e	-0.16995022
7	0x3e9c5e5a	0.30540735
8	0xbdd192a7	-0.1023305
9	0xbeba8c0f	-0.3643498
10	0xbf2c887e	-0.6739577
11	0xbdff3e82	-0.12463094
12	0x3ee41034	0.44543612
13	0xbea1768a	-0.3153575
14	0xbcb2112b	-0.021736702
15	0x3ed366ec	0.4128946
16	0x3cadf47f	0.021234749
17	0x3f11f1fe	0.57009876
18	0xbf23a39c	-0.63921523
19	0xbe98a86a	-0.2981599
20	0xbde1a814	-0.110183865
21	0xbf068677	-0.5254893
22	0x3e3053ee	0.17219517
23	0x3eb2ea98	0.34944606
24	0xbe666570	-0.22499633
25	0xbf821aea	-1.0164464
26	0xbe9c4fc1	-0.30529597
27	0xbe8db544	-0.27677357
28	0xbd5d9ad0	-0.05410272
29	0xbf8ea0f7	-1.1142873
30	0x3e80d563	0.251628
31	0xbc187f18	-0.009307645
32	0x3ce8c76f	0.02841541
33	0xbe8ccbe3	-0.27499303
34	0xbe24fa36	-0.16111073
35	0x3e37ebf7	0.17961107
36	0x3d44f5e1	0.04808605
37	0x3dfe76ef	0.124250285
38	0x3edb7fdc	0.42870986
39	0x3d8aebc5	0.06783251
40	0x3e2fa4d4	0.1715272
41	0xbe849a62	-0.25899035
42	0xbec28eb7	-0.37999508
43	0x3edf6460	0.43631268
44	0x3d979269	0.074009724
45	0x3db0b240	0.086277485
46	0xbe855c86	-0.26047152
47	0x3f0ba3eb	0.54546994
48	0xbf015fa6	-0.5053657
49	0x3e86029f	0.26173875
50	0x3f539cbe	0.82661045
51	0x3e7cd931	0.24692227
52	0xbd7f3f43	-0.06231619
53	0x3e0c21e6	0.13684806
54	0xbe7a303c	-0.24432462
55	0xbcc92e5a	-0.024558235
56	0x3cc558a5	0.02409012
57	0x3ed360e6	0.41284865
58	0x3dcdf9cb	0.1005741
59	0xbf8e2add	-1.1106831
60	0xbf184074	-0.5947335
61	0xbe1e7b19	-0.15476646
62	0x3e5d89ef	0.21634649
63	0x3e0a3971	0.13498475
64	0x3e099371	0.1343515
65	0x3e5045c5	0.20339115
66	0x3e6c87a2	0.23098615
67	0x3e911d8d	0.28342858
68	0x3ecd19ef	0.40058848
69	0x3e91756c	0.28409898
70	0xbdf81398	-0.12113112
71	0x3ca80dab	0.02051433
72	0xbf12f087	-0.57398266
73	0xbbcaa11d	-0.006183757
74	0x3e98cbb1	0.29842904
75	0xbe0b173f	-0.13583086
76	0xbd2c6d45	-0.042096395
77	0x3e8340eb	0.25635466
78	0xbd8c93d8	-0.068641365
79	0xbe46ac56	-0.19401678
80	0x3e880fde	0.26574606
81	0x3ef34904	0.47516644
82	0x3dff6817	0.124710254
83	0x3dc6ae01	0.09701157
84	0xbe83785b	-0.2567776
85	0x3db90638	0.09034389
86	0xbeed3807	-0.46331808
87	0x3e089561	0.13338234
88	0x3dc066dd	0.093946196
89	0xbf73e11c	-0.95265365
90	0xbe6f6937	-0.2337998
91	0x3dfb87e0	0.122817755
92	0x3ec4823c	0.3838061
93	0x3ef1e64a	0.4724601
94	0xbdcad431	-0.099037535
95	0x3ee05a0a	0.43818694
96	0xbd1bfdcd	-0.03808384
97	0x3ea66b89	0.32503918
98	0x3dabf25c	0.08395836
99	0xbea61741	-0.32439616
100	0x3f0e850a	0.5567175
101	0xbd98577b	-0.074385606
102	0x3f01df21	0.5073109
103	0x3e9c186e	0.30487388
104	0x3e6285ca	0.22121349
105	0x3f33de93	0.70261496
106	0xbdc52097	-0.09625357
107	0x3ebfc420	0.3745432
108	0x3ee60b3f	0.44930455
109	0x3e60efd0	0.21966481
110	0x3d1bf96f	0.038079675
111	0x3e8d7315	0.27626863
112	0xbe394774	-0.18093663
113	0x3d87ff2b	0.06640466
114	0x39d67ebc	0.00040911685
115	0xbe242840	-0.16030979
116	0x3eb37eb7	0.35057613
117	0x3f31f0ae	0.69507873
118	0xbd9099c2	-0.07060577
119	0x3e93d4f9	0.28873423
120	0xbf0b8cbd	-0.54511625
121	0xbe31e6e8	-0.1737324
122	0xbf7216cb	-0.9456603
123	0xbe5371bb	-0.20648853
124	0xbf123411	-0.571107
125	0x3f896aa3	1.0735668
126	0x3ee69655	0.4503657
127	0xbec51d9e	-0.3849916
128	0x3e4e228b	0.20130365
129	0xbe43c37d	-0.19117542
130	0xbe5122cc	-0.2042343
131	0x3e60002d	0.21875067
132	0x3d41d3ae	0.047321014
133	0xbdcf0226	-0.10107832
134	0x3d885fd0	0.066589
135	0x3f3c5468	0.73566294
136	0x3d3abf5f	0.045592662
137	0x3e466474	0.19374257
138	0x3d2ead7a	0.04264591
139	0x3e126285	0.14295395
140	0x3ed0d06c	0.40784013
141	0x3f12b6cb	0.5731017
142	0xbecbe4d8	-0.3982303
143	0x3e2bf814	0.16793853
144	0x3e865c0e	0.26242107
145	0x3ef29269	0.47377327
146	0xbe04431a	-0.12916222
147	0x3d998179	0.07495398
148	0xbec93b0e	-0.39302868
149	0xbe57d59d	-0.21077581
150	0x3dc34111	0.09533895
151	0x3ecb3602	0.39689642
152	0xbee71767	-0.45135042
153	0x3e15c2a9	0.14625038
154	0xbf0970a3	-0.53687495
155	0xbe5d3fc1	-0.21606351
156	0x3e9a811e	0.30176634
157	0x3f1d00ab	0.61329144
158	0x3d8dd30d	0.0692502
159	0x3ed411da	0.4141987
160	0x3e931d65	0.28733364
161	0x3ed22b63	0.41048726
162	0x3ea35480	0.31900406
163	0xbe863c58	-0.26217914
164	0x3d24b212	0.040208884
165	0xbcb31ad6	-0.021863382
166	0xbe18ce53	-0.14922456
167	0x3ec2acfc	0.38022602
168	0xbeb0fee6	-0.34569472
169	0xbf19e7d9	-0.60119396
170	0xbe1a5f2f	-0.15075372
171	0x3ddf3f64	0.10900763
172	0x3f2327a2	0.6373235
173	0xbe617552	-0.2201741
174	0xbe57f28c	-0.21088618
175	0xbc7666b6	-0.015039137
176	0xbe53834e	-0.20655558
177	0x3f798821	0.9747334
178	0xbf339a70	-0.7015753
179	0xbe9c39f4	-0.30512965
180	0x3e583f5c	0.2111792
181	0xbf07f83d	-0.53113157
182	0x3dc7bb9d	0.09752581
183	0x3f1c96e1	0.6116772
184	0xbf655c0c	-0.8959358
185	0x3ec69721	0.38787177
186	0xbd209e71	-0.0392136
187	0x3ef0239b	0.46902165
188	0xbee5a6e4	-0.4485389
189	0xbb4c67e2	-0.0031189849
190	0x3e090eeb	0.13384597
191	0x3d14d88f	0.03633934
192	0x3cbce1ea	0.023056943
193	0x3f21c6c6	0.6319393
194	0xbec89a9c	-0.39180458
195	0x3f60694b	0.87660664
196	0xbe3dd003	-0.18536381
197	0x3deae51e	0.11469482
198	0xbf4aac7d	-0.79169446
199	0x3e567a46	0.20945081
200	0x3e11e01f	0.14245652
201	0x3e9a1407	0.30093405
202	0x3f0e8797	0.55675644
203	0x3c44995e	0.011999456
204	0x3da5e82a	0.081009224
205	0x3f046be3	0.5172712
206	0x3f1e66e3	0.6187574
207	0x3e591474	0.21199208
208	0xbe227589	-0.15865149
209	0x3dfe9373	0.124304675
210	0xbd523cd0	-0.051327527
211	0xbd02d583	-0.031941902
212	0xbecb49b2	-0.39704663
213	0xbd619530	-0.055073917
214	0x3efa9a95	0.48946062
215	0xbe1b5073	-0.15167408
216	0xbd4d57d9	-0.050132606
217	0xbe62fba7	-0.2216631
218	0xbe0516a4	-0.12996918
219	0x3ebcdb94	0.36886275
220	0x3e873054	0.2640406
221	0x3ec2e6cf	0.38066718
222	0xbeada89e	-0.33917707
223	0x3e49d7dc	0.1971125
224	0x3ebae416	0.3650214
225	0xbdcd42ef	-0.10022532
226	0xbe42f091	-0.19037081
227	0x3eb66588	0.35624337
228	0x3d2490f0	0.040177286
229	0x3de734d2	0.112893716
230	0x3e0f2877	0.1398028
231	0xbe481946	-0.19540891
232	0xbcdcee61	-0.026969137
233	0xbd8d27f4	-0.06892386
234	0xbe88a792	-0.26690346
235	0xbe18ae8b	-0.14910333
236	0xbc0e6ac2	-0.008692445
237	0xbe8653c8	-0.26235795
238	0xbdb53f65	-0.08849982
239	0x3e28778d	0.16451855
240	0x3e20ce14	0.15703613
241	0xbf126205	-0.57180816
242	0xbe223efb	-0.15844338
243	0x3c7e4ffc	0.015521999
244	0xbe9d5f17	-0.3073661
245	0x3f33695f	0.7008266
246	0xbecdd127	-0.40198633
247	0xbe314d16	-0.17314562
248	0xbd155d11	-0.03646571
249	0x3e147315	0.14497025
250	0x3e492ad0	0.19645238
251	0xbedc851f	-0.43070313
252	0xbf3cfbaa	-0.7382151
253	0x3e2c477e	0.16824147
254	0x3e8107ce	0.25201267
255	0x3ee5e67a	0.44902402

encoder.lstm.weight_hh_l0 f4 [128, 32]
0	0xbf8af93e	-1.0857313
1	0xbe7fcdef	-0.24980901
2	0xbe33a8c3	-0.17544846
3	0x3e33a551	0.17543532
4	0x3f0c51ac	0.5481212
5	0xbeec980d	-0.46209756
6	0x3ce15b3f	0.02750933
7	0xbf085073	-0.53247756
8	0x3dcd01fe	0.100101456
9	0xbf0dc902	-0.5538484
10	0xbdf43edd	-0.11926053
11	0xbee0739b	-0.438382
12	0x3ed950d4	0.4244448
13	0xbdefca51	-0.11708511
14	0x3ec9294c	0.3928932
15	0xbe8a5d9d	-0.27024546
16	0x3ec32826	0.38116568
17	0xbd6c807a	-0.057739712
18	0xbf0bfca0	-0.5468235
19	0xbf8115c1	-1.0084764
20	0xbe250b68	-0.16117632
21	0x3e052072	0.13000658
22	0xbf36dca2	-0.7143041
23	0xbf12da11	-0.5736399
24	0x3e896d70	0.26841307
25	0xbd8db763	-0.06919744
26	0xbe2ca642	-0.16860297
27	0x3d90f6ed	0.07078347
28	0xbf1ce14e	-0.6128129
29	0x3db67003	0.08908083
30	0xbbd47af7	-0.006484385
31	0xbe0d6e86	-0.13811693
32	0xbe265727	-0.16244183
33	0x3e230fd1	0.15924002
34	0xbf057603	-0.52133197
35	0xbe8c21e5	-0.2736961
36	0x3f129afb	0.5726773
37	0xbe90b18b	-0.28260455
38	0x3ea1fee4	0.3163978
39	0x3cdb8c8a	0.026800413
40	0x3e1cec7d	0.15324588
41	0xbd6a1b0f	-0.05715471
42	0xbe9b8714	-0.30376494
43	0xbde27a95	-0.11058537
44	0xbd8e3c1f	-0.06945061
45	0xbe5ef0b2	-0.21771505
46	0x3f5fa01b	0.87353677
47	0xbdb5cb3d	-0.08876655
48	0x3e265e27	0.16246854
49	0x3f047aae	0.51749694
50	0x3eebd656	0.46061963
51	0x3dcab128	0.09897071
52	0xbf5af913	-0.8553631
53	0x3eb45ce1	0.3522711
54	0x3e0c992b	0.13730304
55	0x3f0c8faa	0.54906714
56	0x3f4322b6	0.7622484
57	0xbd7d6d60	-0.061871886
58	0xbe00b13a	-0.12567607
59	0xbeb0b348	-0.3451178
60	0xbf416e55	-0.7555898
61	0x3ee98ac2	0.45613676
62	0x3f2b1c5c	0.6684015
63	0x3ddc8bdf	0.10768866
64	0x3f400bd8	0.7501807
65	0x3cdf74aa	0.02727731
66	0xbeec3102	-0.4613114
67	0xbe9d44ed	-0.3071665
68	0x3f9376ed	1.1520668
69	0xbf06a000	-0.5258789
70	0x3eb4d89f	0.3532152
71	0x3dc7f065	0.097626485
72	0xbeb641ed	-0.35597172
73	0xbf776b60	-0.96648216
74	0xbce39a88	-0.027783647
75	0xbf9f6270	-1.2451916
76	0x3ace4268	0.0015736343
77	0xbf8e8488	-1.1134195
78	0x3e320e3a	0.1738824
79	0xbe4fe88d	-0.20303555
80	0x3e7d934a	0.24763218
81	0xbf0c1aaa	-0.54728186
82	0x3f37edf5	0.7184747
83	0xbee8577c	-0.45379245
84	0xbf246468	-0.6421571
85	0x3e532413	0.2061923
86	0xbe632b45	-0.22184475
87	0xbda1409c	-0.078736514
88	0x3f56050f	0.8360147
89	0xbf30a7ee	-0.6900624
90	0xbe7e3521	-0.24824955
91	0xbf8e71e9	-1.1128513
92	0xbea3aa4e	-0.3196587
93	0x3dfb9b27	0.12285452
94	0xbe1a9848	-0.15097153
95	0xbed286c1	-0.41118434
96	0xbe0ba1dc	-0.13635963
97	0xbe997ebd	-0.29979506
98	0x3edd06e1	0.4316931
99	0xbe998054	-0.2998072
100	0xbec320b7	-0.38110897
101	0xbf4fac6b	-0.81122464
102	0x3db453a9	0.088050194
103	0x3f03c496	0.5147184
104	0x3d82395f	0.06358599
105	0x3e7c19f5	0.24619277
106	0x3d2d6bbb	0.042339068
107	0xbf6331eb	-0.88748044
108	0xbe7d045b	-0.24708693
109	0xbf87be30	-1.0604916
110	0xbe82918a	-0.25501662
111	0x3ecfadd4	0.40562308
112	0x3f12d585	0.57357055
113	0xbf22ca9e	-0.6359042
114	0x3ee2ba4e	0.44282764
115	0xbec43891	-0.38324407
116	0xbebbf8ee	-0.36713356
117	0xbe545f0a	-0.2073938
118	0xbeb3f946	-0.35151118
119	0x3d3778a0	0.04479277
120	0xbe0cde7d	-0.13756748
121	0x3f3a4438	0.72760344
122	0xbf34c292	-0.7060939
123	0xbea12e9e	-0.3148088
124	0xbf06a892	-0.5260097
125	0xbe891939	-0.26777056
126	0xbe59461e	-0.21218154
127	0x3f01546a	0.5051943
128	0xbf1dacb7	-0.61591667
129	0x3e674269	0.22583927
130	0xbd1b3f95	-0.037902433
131	0x3edb04af	0.4277701
132	0x3ef077c9	0.4696639
133	0xbf56b954	-0.8387654
134	0xbe917ba9	-0.28414658
135	0x3f55834c	0.8340347
136	0xbef46ad6	-0.4773776
137	0xbd3ca826	-0.046058796
138	0xbe2117f5	-0.15731795
139	0x3e84a1f8	0.25904822
140	0x3f1af55b	0.6053063
141	0xbc98c481	-0.018648388
142	0x3f4fbd36	0.8114809
143	0x3d56d6ed	0.052451063
144	0x3eb60561	0.3555098
145	0xbdef6cdc	-0.11690685
146	0xbd97b4d4	-0.07407537
147	0xbebfb956	-0.37446088
148	0xbf0fb72a	-0.5613886
149	0x3e5eb335	0.2174805
150	0x3ee16aa7	0.44026682
151	0xbec7c8a7	-0.39020273
152	0x3efd926d	0.49525777
153	0x3cf2ee2d	0.029654587
154	0xbef5eda5	-0.4803287
155	0x3f140492	0.57819474
156	0xbf46025d	-0.77347356
157	0x3faa2bd2	1.3294623
158	0xbf15111c	-0.5822923
159	0xbeab0b63	-0.33407125
160	0x3e7e0d42	0.24809745
161	0xbc70c06b	-0.0146943135
162	0xbf343df9	-0.7040706
163	0xbed08017	-0.40722725
164	0x3e23f586	0.16011629
165	0xbea45521	-0.32096198
166	0x3f469b96	0.77581155
167	0x3fb6bceb	1.4276403
168	0xbe98a90e	-0.29816478
169	0xbdf4b186	-0.119479224
170	0xbf31334d	-0.69218904
171	0x3d5edf7f	0.05441236
172	0xbe4ba866	-0.19888458
173	0xbdd14940	-0.102190495
174	0x3cd4362d	0.02590474
175	0xbe7c5543	-0.246419
176	0x3e650b7b	0.2236766
177	0x3d3b7600	0.04576683
178	0x3e8eab7d	0.2786521
179	0xbe3f86e3	-0.18703799
180	0x3de363f1	0.11103047
181	0x3f081616	0.531587
182	0x3f216619	0.63046414
183	0xbf0f7276	-0.5603403
184	0xbe734c72	-0.2375963
185	0xbeb9bcd8	-0.3627689
186	0xbf011b93	-0.504327
187	0xbf1a777c	-0.6033857
188	0xbec22e7b	-0.37926087
189	0x3f017fb7	0.505855
190	0xbebca21c	-0.3684243
191	0xbbf1b878	-0.0073767267
192	0x3e8ac905	0.2710649
193	0x3f009536	0.5022768
194	0xbedb1a84	-0.42793667
195	0x3eb002d2	0.34377152
196	0x3dd49728	0.10380393
197	0xbf0bd2ed	-0.5461872
198	0xbdfc7bed	-0.123283245
199	0x3f578d8b	0.8420035
200	0xbee87668	-0.45402837
201	0xbccd19f4	-0.02503679
202	0xbf0daa4b	-0.5533797
203	0xbeefbc08	-0.46823144
204	0x3c29a283	0.010353687
205	0xbf19023b	-0.5976903
206	0xbd9b05cc	-0.07569465
207	0x3e1efe11	0.15526606
208	0xbd988903	-0.07448008
209	0x3e1ee137	0.155156
210	0xbeaf16a3	-0.34196958
211	0x3e34c23b	0.17652218
212	0xbf4f815a	-0.8105675
213	0x3f527132	0.8220397
214	0x3dadf45d	0.08493874
215	0xbe3b5885	-0.18295486
216	0x3fb62003	1.4228519
217	0xbf182428	-0.5943017
218	0x3db98170	0.09057891
219	0xbe5b8acc	-0.21439666
220	0xbf99330d	-1.1968704
221	0x3ebde936	0.37091988
222	0x3e21662a	0.15761629
223	0x3ba1ee9b	0.004941774
224	0x3c9fe320	0.019517481
225	0xbea37cb9	-0.31931093
226	0xbf6cd759	-0.92516094
227	0xbea03ccc	-0.31296384
228	0x3f8c6e00	1.0971069
229	0xbeffd954	-0.49970496
230	0xbea7592a	-0.32685214
231	0x3dcb805d	0.09936593
232	0xbe37baa5	-0.17942293
233	0xbe66f220	-0.22553301
234	0xbe890b90	-0.26766634
235	0xbe4f18cf	-0.20224307
236	0x3ead8798	0.33892512
237	0xbf0301d0	-0.5117464
238	0x3f2fd5d2	0.6868564
239	0xbe63220d	-0.22180958
240	0x3e90855a	0.2822674
241	0x3e538784	0.20657164
242	0xbe3f4844	-0.18679911
243	0x3a94345d	0.0011307109
244	0xbe0e30b9	-0.13885774
245	0x3ef5c1f6	0.47999543
246	0xbf236ec7	-0.6384091
247	0xbef10f94	-0.47082198
248	0xbe8c1be0	-0.27365017
249	0xbf5154e0	-0.81770134
250	0xbf2ef9df	-0.68350023
251	0xbf89a2f8	-1.0752859
252	0xbf3d0214	-0.73831296
253	0x3ef67595	0.48136583
254	0xbe40dfcc	-0.18835372
255	0xbebbd4a5	-0.36685672

encoder.lstm.bias_ih_l0 f4 [128]
0	0x3f4662c1	0.77494437
1	0x3ef17f31	0.47167352
2	0x3edcb1f9	0.43104532
3	0x3e44f8c2	0.19235519
4	0x3ead7762	0.33880144
5	0x3ee09744	0.43865407
6	0x3ef2c359	0.47414663
7	0x3ecec012	0.40380913
8	0x3eae137d	0.33999243
9	0x3ec52b49	0.38509586
10	0x3eb9eb00	0.36312103
11	0xbdaf059e	-0.08545993
12	0xbe1ecc56	-0.15507635
13	0x3f6de0bf	0.9292106
14	0x3e6839b4	0.22678262
15	0x3d01ec29	0.03171936
16	0x3f210e21	0.62912184
17	0x3f41645d	0.7554377
18	0x3f450517	0.7696089
19	0xb7a5e3b5	-1.9775567e-05
20	0x3b4f0e06	0.0031594052
21	0x3e80e525	0.25174823
22	0x3f091c77	0.5355906
23	0x3e835f5d	0.25658694
24	0x3ea0ae32	0.313829
25	0x3e68f6d0	0.22750401
26	0x3ecb4dfd	0.39707938
27	0x3e41f96d	0.18942805
28	0x3f589bdb	0.84612817
29	0x3f1fef2b	0.62474316
30	0xbe6e01a6	-0.23242816
31	0x3e47db0e	0.19517156
32	0x3eae4b55	0.3404185
33	0xbed5e62d	-0.41777173
34	0x3eacf308	0.33779168
35	0x3eab9400	0.33511353
36	0xbcbbb862	-0.022915069
37	0x3ee7efa0	0.45300007
38	0x3e0dc489	0.13844503
39	0x3eb3f667	0.35148928
40	0x3e3e61b3	0.18591957
41	0x3ee52b31	0.44759515
42	0x3e711a45	0.23545177
43	0x3f30701e	0.6892108
44	0x3ecb0e81	0.39659503
45	0x3eca94ab	0.3956655
46	0x3ea0c9fd	0.31404105
47	0x3ea51a9b	0.3224686
48	0x3f19450a	0.5987097
49	0x3d64dce5	0.055874724
50	0x3edcecd1	0.43149427
51	0x3e595d43	0.21226983
52	0x3daa5820	0.0831759
53	0x3e815673	0.25261268
54	0x3e83bfb4	0.25732195
55	0x3ec66037	0.3874528
56	0x3eba6bea	0.36410457
57	0x3ecc51a3	0.39906034
58	0x3e81777e	0.25286478
59	0x3e265112	0.16241863
60	0x3efba291	0.49147466
61	0x3f1a7885	0.6034015
62	0x3e845bc5	0.25851265
63	0xbd360b3c	-0.044444308
64	0x3d1a405a	0.037659027
65	0x3da0a10f	0.078432195
66	0xbd368244	-0.044557825
67	0xbe8c58f1	-0.27411607
68	0x3e1fd48a	0.15608421
69	0xbe11038e	-0.14161512
70	0x3db56f97	0.08859175
71	0x3da12876	0.078690454
72	0xbe6bd447	-0.23030196
73	0xbd595fe2	-0.053069957
74	0x3e295779	0.16537274
75	0xbe5ea306	-0.21741876
76	0xbe76a33d	-0.24085708
77	0xbe0c2909	-0.13687529
78	0xbc806691	-0.015673907
79	0x3e4d3648	0.20040238
80	0x3d856f80	0.065154076
81	0xbe277564	-0.16353375
82	0x3d387767	0.045035746
83	0xbe0ebe98	-0.13939893
84	0xbf064b07	-0.5245823
85	0x3ecd9693	0.40153942
86	0xbe4d03bc	-0.20020956
87	0x3d1a198f	0.03762203
88	0x3e93427b	0.28761658
89	0xbeb587d5	-0.35455194
90	0xbe18bcf2	-0.14915827
91	0xbe4b36fd	-0.19845195
92	0xbeac9be9	-0.337127
93	0x3ec0ded6	0.3767001
94	0xbe60dcaf	-0.21959184
95	0xbe1b8f75	-0.15191443
96	0x3ed8af5d	0.42321292
97	0x3eb84134	0.35987246
98	0x3db3f346	0.08786635
99	0x3ee022c6	0.4377653
100	0x3e593e8f	0.2121527
101	0xbcb79ebb	-0.022414556
102	0x3e3c646a	0.1839768
103	0x3da46f8a	0.08029087
104	0x3f3986e6	0.72471464
105	0x3e20d238	0.15705192
106	0xbe52010c	-0.20508212
107	0x3de19e3c	0.11016509
108	0x3e283a36	0.16428456
109	0xbddaec9d	-0.10689662
110	0xbeaf2070	-0.34204435
111	0x3d9f6c0f	0.077842824
112	0x3cbce1e1	0.023056926
113	0x3f210da2	0.6291143
114	0x3e9cde07	0.30638143
115	0xbc3aa832	-0.01139264
116	0xbe2236db	-0.15841238
117	0xbef2c89d	-0.4741868
118	0xbd8457bf	-0.06462049
119	0xbdd10c4c	-0.102074236
120	0xbda61e21	-0.081112154
121	0x3e328bfd	0.17436214
122	0x3e1ea349	0.15491976
123	0xbb988150	-0.004654087
124	0x3d2fabf7	0.042888608
125	0xbe5a56ff	-0.21322249
126	0xbd533078	-0.051559895
127	0x3b4fc263	0.0031701557

encoder.lstm.bias_hh_l0 f4 [128]
0	0x3f0b1d9e	0.5434207
1	0x3eea106d	0.45715657
2	0x3e3b6405	0.18299873
3	0x3eb36050	0.35034418
4	0x3ec5d690	0.3864026
5	0x3e54a6c7	0.20766746
6	0x3eb66b7b	0.35628876
7	0x3e98f185	0.29871765
8	0x3df8c70e	0.12147342
9	0x3eccf8b7	0.40033504
10	0x3ec250e1	0.3795233
11	0x3dd1fc00	0.10253143
12	0xbe095ff7	-0.13415514
13	0x3f841d31	1.0321409
14	0x3d28b09d	0.041184057
15	0x3e608348	0.2192508
16	0x3ecbed0d	0.39829293
17	0x3f513673	0.8172371
18	0x3f080da0	0.5314579
19	0xbdc5dbc8	-0.096610606
20	0xbe08517d	-0.13312335
21	0x3eb76e47	0.35826322
22	0x3f010991	0.5040522
23	0x3da3231e	0.079656824
24	0x3ea39e2d	0.31956616
25	0x3ed1638d	0.40896264
26	0x3e859cf2	0.26096302
27	0x3bd25111	0.0064183553
28	0x3f1f523d	0.6223486
29	0x3f42c2ff	0.7607879
30	0xbe2bc316	-0.16773638
31	0x3e824796	0.2544524
32	0x3e65e23b	0.22449581
33	0xbeea1122	-0.45716196
34	0x3d3d52ac	0.04622142
35	0x3ea16b40	0.31527138
36	0x3e260e96	0.16216502
37	0x3eef12a4	0.4669391
38	0x3d70a7d8	0.05875382
39	0x3f082e24	0.53195405
40	0x3e25e7b8	0.16201675
41	0x3f140d61	0.57832915
42	0x3e65eefa	0.22454444
43	0x3f0e8cbe	0.55683506
44	0x3eb1a46e	0.34695762
45	0x3f1ed18c	0.62038493
46	0x3e91d095	0.28479448
47	0x3eaae6c2	0.3337918
48	0x3f08da8f	0.53458494
49	0x3d9b1b11	0.07573522
50	0x3e90d5e7	0.28288195
51	0xbd1647f4	-0.036689714
52	0x3d857af2	0.065175906
53	0x3e9f3d57	0.31101486
54	0x3d7a0299	0.061037634
55	0x3eb6827a	0.3564642
56	0x3eac62a2	0.33669
57	0x3f01c92c	0.5069759
58	0x3eb22844	0.34796345
59	0x3edc7c12	0.43063408
60	0x3f185472	0.59503853
61	0x3eea41c5	0.45753303
62	0x3ee5c91c	0.44879997
63	0x3e34fa63	0.1767364
64	0x3e3bb624	0.183312
65	0xbe14f62e	-0.14547035
66	0xbe3f6334	-0.18690187
67	0xbe824ab3	-0.25447616
68	0x3d55fe71	0.052244607
69	0xbe4e188c	-0.20126551
70	0x3e3859af	0.18002962
71	0x3d005cec	0.031338617
72	0xbdd9a851	-0.10627807
73	0xbe2ade13	-0.16686277
74	0xbbf5560a	-0.0074870633
75	0xbe3a8d1a	-0.18217888
76	0xbc7636d1	-0.015027718
77	0xbd05737b	-0.032580834
78	0x3cac29fc	0.021016113
79	0xbd79b2d5	-0.060961563
80	0x3e860fc8	0.26183915
81	0xbe369ddb	-0.17833655
82	0xbd32959a	-0.043599702
83	0xbdbf07bb	-0.09327646
84	0xbf0761f3	-0.52883834
85	0x3e3e3b4c	0.18577307
86	0xbea2d2fa	-0.31801587
87	0xbdf1c550	-0.118052125
88	0x3e7fa2ef	0.24964498
89	0xbe9b6f3f	-0.30358312
90	0xbeb8f422	-0.3612376
91	0xbe88d9f7	-0.26728794
92	0xbea6522d	-0.3248457
93	0x3eab13d8	0.33413577
94	0xbe978a22	-0.29597574
95	0xbe6c06ff	-0.23049544
96	0x3ef347dd	0.47515765
97	0x3ea49f9e	0.32153028
98	0x3dccd263	0.100010656
99	0x3e9ac729	0.30230072
100	0x3e97ebf4	0.29672205
101	0xbdd7ad42	-0.10531093
102	0x3e0dbf6a	0.1384255
103	0xbe5a46fd	-0.21316142
104	0x3f18c4f0	0.596755
105	0x3e5b8eb8	0.21441162
106	0xbe13a1fd	-0.14417262
107	0x3aeb1cf2	0.0017937704
108	0x3d77b1c4	0.060472265
109	0x3d3720fd	0.044709194
110	0xbe3d2831	-0.18472363
111	0xbd918e35	-0.07107202
112	0xbe07131f	-0.13190888
113	0x3f5a2588	0.8521352
114	0x3de048af	0.10951363
115	0x3e0fa4b9	0.1402768
116	0xbe7d8c88	-0.2476064
117	0xbec9b8ab	-0.39398703
118	0xbd9d95f1	-0.07694615
119	0x3de86cf5	0.11348907
120	0xbe0fd5f4	-0.1404646
121	0xbcd920f6	-0.026504975
122	0x3cfb3bc3	0.030668145
123	0x3de07590	0.10959923
124	0x3dc4196d	0.09575162
125	0xbe311198	-0.17291868
126	0x3e49a546	0.19691953
127	0x3e025bca	0.12730327

policy.net.0.weight f4 [128, 32]
0	0xbe5139cd	-0.20432205
1	0xbec1436e	-0.37746757
2	0x3ea48097	0.32129356
3	0xbe49d219	-0.19709052
4	0x3ada95c0	0.0016676709
5	0x3df6440e	0.12024699
6	0x3e37d4c5	0.17952259
7	0x3efe2e7e	0.49644846
8	0x3e667f07	0.22509395
9	0xbe9b9449	-0.3038657
10	0xbe0827c0	-0.13296413
11	0xbeacf859	-0.33783224
12	0xbeb20f1b	-0.3477715
13	0xbdab2512	-0.0835668
14	0xbeae2bfd	-0.34017935
15	0xbe84e105	-0.25952926
16	0xbebc9656	-0.36833447
17	0xbca3e99a	-0.02000885
18	0xbeef52a3	-0.46742734
19	0x3f06ec10	0.5270395
20	0x3f153730	0.58287334
21	0xbe2b7e4d	-0.16747399
22	0xbe180604	-0.14846045
23	0xbe5108a7	-0.20413457
24	0xbea38a5b	-0.31941494
25	0x3e90491e	0.28180784
26	0xbe8997c9	-0.26873615
27	0xbbc611ad	-0.0060445876
28	0x3e40eb83	0.1883984
29	0xbe84a99c	-0.25910652
30	0xbe272560	-0.16322851
31	0xbe99cdaf	-0.30039737
32	0xbd1d12cc	-0.038348004
33	0xbcbc323e	-0.022973176
34	0xbd74633d	-0.059664954
35	0x3e0c6cfd	0.1371345
36	0x3e1a7a75	0.15085776
37	0x3e3eb844	0.1862498
38	0xbe9062ef	-0.2820048
39	0x3d4341a5	0.047670025
40	0x3ec6c8b8	0.3882501
41	0x3cfb999b	0.030712893
42	0xbe27ed0e	-0.16399023
43	0xbe8f25b6	-0.2795846
44	0xbeaf2cd2	-0.34213883
45	0xbbe941be	-0.007118433
46	0xbe065267	-0.13117371
47	0xbe285ea0	-0.16442347
48	0xbe17690e	-0.14786169
49	0xba9b01b0	-0.0011826064
50	0xbd20550e	-0.039143614
51	0x3e0a4cad	0.13505812
52	0xbe259f0b	-0.16173951
53	0xbdd622e8	-0.104558766
54	0xbd03f36d	-0.03221457
55	0x3e93ac56	0.2884242
56	0x3e3b00fa	0.18262091
57	0x3ed8808a	0.42285568
58	0x3ed07642	0.40715224
59	0x3e831ff4	0.25610316
60	0x3ca3e10e	0.020004775
61	0xbe515b84	-0.20445067
62	0x3d95b52a	0.07309945
63	0xbe95d52f	-0.2926421
64	0xbeb07046	-0.34460658
65	0xbe99bcf8	-0.30026984
66	0xbd054209	-0.03253368
67	0xbd9739c3	-0.07384064
68	0x3df361b1	0.118838675
69	0xbec92424	-0.39285386
70	0xbe8feb82	-0.28109366
71	0x3e8ccd5a	0.2750042
72	0x3f4b40f9	0.79396015
73	0xbb8c6f1d	-0.0042857067
74	0xbe6c74ea	-0.23091474
75	0xbe703749	-0.2345859
76	0xbf4ce3ed	-0.8003529
77	0x3dd5eacb	0.10445174
78	0xbf082994	-0.53188443
79	0x3e984988	0.297436
80	0xbe807aa2	-0.2509356
81	0xbe84081f	-0.25787446
82	0xbe2c5ee6	-0.16833076
83	0x3ea07163	0.31336507
84	0xbee8adfe	-0.45445246
85	0xbe8b5af8	-0.2721784
86	0xbd81089a	-0.06300469
87	0xbe5dc5bf	-0.21657465
88	0xbea6fc4b	-0.3261436
89	0x3f163366	0.5867218
90	0x3e5317bf	0.20614527
91	0xbd082c6a	-0.03324548
92	0x3e36eabb	0.1786298
93	0xbed7a07b	-0.42114624
94	0xbc81b53e	-0.015833493
95	0xbe3dd61c	-0.18538707
96	0x3ed08076	0.40723008
97	0xbf01b8be	-0.5067252
98	0xbefd0ec3	-0.49425325
99	0x3ecd959d	0.40153208
100	0x3ede7744	0.43450367
101	0xbf209100	-0.6272125
102	0xbf787797	-0.9705748
103	0x3e6054d1	0.21907355
104	0x3f2446d6	0.6417059
105	0xbea89a98	-0.32930446
106	0x3e21c747	0.15798675
107	0xbee64bd0	-0.44979715
108	0xbf4afb2b	-0.792895
109	0xbf1b3bef	-0.60638326
110	0x3de7a278	0.11310285
111	0xbef01cb0	-0.46896887
112	0xbdfcea23	-0.123493455
113	0x3f1c87bb	0.6114461
114	0xbd44c88e	-0.048042826
115	0x3d435ff9	0.04769895
116	0xbf54b431	-0.8308745
117	0xbe98c149	-0.29834965
118	0x3dbda102	0.092592254
119	0xbf00508f	-0.5012292
120	0xbebe8c96	-0.37216634
121	0x3c84e6d7	0.016223354
122	0x3e151e56	0.14562353
123	0x3f3b503a	0.7316929
124	0x3d939a27	0.072071366
125	0xbe9d210b	-0.30689272
126	0x3f1a2018	0.6020522
127	0xbf08c66e	-0.5342778
128	0x3e272f57	0.16326652
129	0x3f2515a6	0.6448616
130	0xbdac950c	-0.08426866
131	0xbdfd9cc5	-0.12383417
132	0xbd9a35dc	-0.07529804
133	0x3ec31dd7	0.38108703
134	0xbf18dd3a	-0.59712565
135	0xbea35a48	-0.31904817
136	0xbe8431d6	-0.25819272
137	0x3ca150c1	0.019691827
138	0x3ec712ee	0.3888163
139	0xbf451151	-0.7697955
140	0xbf898ae3	-1.074551
141	0x3e310c55	0.1728986
142	0xbeccf141	-0.40027812
143	0xbef2bcd0	-0.47409678
144	0xbed4bf38	-0.41552138
145	0xbf3bed7e	-0.7340926
146	0x3cdcd997	0.026959224
147	0xbe868635	-0.26274267
148	0xbf1146ee	-0.56748855
149	0xbef4396a	-0.47700053
150	0xbe5c0d95	-0.21489556
151	0x3e0e04db	0.1386904
152	0xbef70390	-0.48244905
153	0x3e5da7ea	0.21646085
154	0x3f403417	0.7507948
155	0xbe9b2e1d	-0.3030862
156	0x3d4316c1	0.04762912
157	0xbf34e6d2	-0.70664704
158	0x3e908a60	0.28230572
159	0xbef3aa79	-0.47590998
160	0xbe5ca271	-0.21546341
161	0xbf1066af	-0.5640668
162	0xbeaaa2c6	-0.3332731
163	0x3eb9bcce	0.3627686
164	0x3e5d62a4	0.2161966
165	0xbf3fe168	-0.7495332
166	0x3f3b9731	0.73277575
167	0xbe0fe8be	-0.14053628
168	0xbe9fccd1	-0.3121095
169	0x3e30dcee	0.17271778
170	0xbdf9ddc0	-0.122004986
171	0xbce3fda0	-0.027830899
172	0x3e585bb4	0.21128732
173	0xbf3cbc2a	-0.73724616
174	0x3cdee219	0.027207421
175	0xbe554249	-0.20826067
176	0x3e19dc69	0.15025486
177	0x3edd4dcf	0.43223426
178	0xbe27cdb1	-0.16387059
179	0xbe02f750	-0.12789655
180	0xbdd7640b	-0.105171286
181	0x3da02262	0.07819058
182	0xbe3bce75	-0.18340476
183	0xbe90c94e	-0.28278583
184	0xbf67ed16	-0.9059614
185	0x3e864f7c	0.26232517
186	0xbe768e35	-0.24077685
187	0x3ecfe7fc	0.40606678
188	0x3e5602d6	0.2089952
189	0xbd1dd0a1	-0.038529042
190	0xbe0b3129	-0.13592972
191	0x3f1f4250	0.6221056
192	0x3caa0619	0.02075486
193	0x3f08f75e	0.5350245
194	0x3f01f365	0.50762016
195	0xbf51601d	-0.8178728
196	0x3f72def5	0.94871455
197	0xbb9e8883	-0.004838051
198	0x3e7f0efb	0.24908058
199	0xbec2bee2	-0.38036257
200	0xbe21c011	-0.15795924
201	0xbbf228a4	-0.0073900986
202	0xbe5b2431	-0.21400525
203	0xbe680ef0	-0.22661948
204	0xbee75eb3	-0.45189437
205	0x3e8406c5	0.25786415
206	0xbf2e0ba5	-0.6798652
207	0x3af7fad7	0.0018919361
208	0xbe6fc60c	-0.23415393
209	0xbf1f2d02	-0.6217805
210	0xbec24323	-0.37941846
211	0xbf1c6760	-0.6109524
212	0x3d9bb4d6	0.07602851
213	0xbe395ed7	-0.18102585
214	0x3dd8c565	0.10584525
215	0x3ea4d94b	0.3219703
216	0x3e7b76e7	0.24557076
217	0x3e054369	0.13013996
218	0xbdc14e17	-0.094387226
219	0xbe6f6b78	-0.2338084
220	0x3de57d0e	0.11205493
221	0xbecd6c95	-0.40121904
222	0xbef92309	-0.48659542
223	0xbee20e64	-0.44151604
224	0xbd4a2b30	-0.049357593
225	0x3eb0d4a4	0.34537232
226	0x3f001a55	0.5004018
227	0xbe5f84ab	-0.21827953
228	0x3e1558ee	0.14584705
229	0x3e7fd0f1	0.24982049
230	0xbe3cf5ca	-0.18453136
231	0xbeccee16	-0.40025395
232	0xbd2d59e6	-0.042322062
233	0x3e9f8542	0.31156355
234	0xbd8f082a	-0.06983979
235	0xbee65041	-0.44983104
236	0xbe9f93a5	-0.3116733
237	0x3e7a5e17	0.24449955
238	0xbe0e8e47	-0.13921462
239	0xbd67e2f0	-0.05661291
240	0xbe46f891	-0.19430758
241	0xbe7a633a	-0.24451914
242	0xbe9744ca	-0.2954467
243	0x3c680b46	0.014162844
244	0x3ddd92b1	0.10818995
245	0x3df54e41	0.119778164
246	0xbf0c534a	-0.5481459
247	0xbd3f8390	-0.046756327
248	0x3e885431	0.26626733
249	0x3e2f87c9	0.17141642
250	0xbe43d7da	-0.1912531
251	0xbe1f7fe8	-0.15576136
252	0x3dbc15b5	0.09183828
253	0x3e4cdb7d	0.20005603
254	0xbec4b535	-0.384195
255	0x3d138777	0.03601786

policy.net.0.bias f4 [128]
0	0xbea45e23	-0.3210307
1	0xbef57c28	-0.47946286
2	0xbef4efb2	-0.47839123
3	0x3e330077	0.17480646
4	0xbeafcb13	-0.3433462
5	0xbf0e13dc	-0.55499053
6	0xbf0e8010	-0.5566416
7	0xbef70d26	-0.4825222
8	0xbe69bada	-0.22825184
9	0x3da50c3d	0.08058975
10	0xbec62d7b	-0.38706574
11	0xbea70a85	-0.32625213
12	0xbec5cd42	-0.38633162
13	0x3cfc2c32	0.030782793
14	0xbf0955c9	-0.5364652
15	0xbef66f27	-0.48131678
16	0xbee50652	-0.44731385
17	0x3d9b8743	0.075941585
18	0xbf0fc4f1	-0.56159884
19	0xbec1f7ee	-0.37884468
20	0xbd458c14	-0.048229292
21	0xbed6a3d6	-0.41921872
22	0xbd0573b7	-0.032581057
23	0xbeb61346	-0.3556158
24	0xbe1c3829	-0.15255798
25	0xbebfdcff	-0.37473294
26	0xbea5e2a0	-0.32399464
27	0xbe02710e	-0.1273844
28	0xbeb56004	-0.35424817
29	0xbebb332f	-0.36562487
30	0xbf047f58	-0.5175681
31	0xbf1598a9	-0.58436066
32	0xbe95acb1	-0.29233316
33	0xbf019f32	-0.5063354
34	0xbe9341f6	-0.28761262
35	0xbd0ecfd5	-0.034866173
36	0xbf0148f8	-0.50501966
37	0xbe9ac8dd	-0.30231372
38	0xbe9a033a	-0.30080587
39	0xbeb96f13	-0.36217555
40	0xbd8b2e4c	-0.0679594
41	0xbe769865	-0.24081571
42	0xbe56079c	-0.2090134
43	0xbee798df	-0.4523382
44	0xbe9a661c	-0.30156028
45	0xbd002c79	-0.031292412
46	0xbf072c18	-0.52801657
47	0xbec3e2a2	-0.38258845
48	0xbd76b4df	-0.060231086
49	0xbdac6e0f	-0.084194295
50	0xbf1b43df	-0.6065044
51	0xbeff775f	-0.4989576
52	0xbe9c8971	-0.3057361
53	0xbef06281	-0.46950153
54	0xbf130fd8	-0.5744605
55	0xbecd2a5b	-0.40071377
56	0xbda98cb6	-0.082787916
57	0x3c581474	0.01318847
58	0xbed36510	-0.41288042
59	0xbeab11b7	-0.33411953
60	0xbea622f8	-0.32448554
61	0xbedecbc2	-0.4351483
62	0xbe5754b6	-0.21028408
63	0xbe390ccb	-0.18071286
64	0xbefb4d9f	-0.49082658
65	0xbeaab03a	-0.33337575
66	0xbedfd228	-0.43715024
67	0xbe67c05f	-0.22631977
68	0xbee5cd9a	-0.44883424
69	0xbe957214	-0.29188597
70	0xbf198f2b	-0.5998408
71	0xbf161b5f	-0.58635515
72	0xbe1631d9	-0.14667453
73	0xbe897437	-0.26846477
74	0xbe91f401	-0.28506473
75	0xbebbf735	-0.36712041
76	0xbe275913	-0.16342573
77	0xbeaac0f8	-0.33350348
78	0x3caa6cc6	0.02080382
79	0xbe87a84c	-0.26495588
80	0xbed0b230	-0.40760946
81	0xbf00cbf0	-0.50311184
82	0xbeb9fae2	-0.3632422
83	0xbee64b97	-0.44979545
84	0xbea540fc	-0.32276142
85	0xbef08435	-0.46975866
86	0xbf05ca4a	-0.52261794
87	0x3b9854b4	0.0046487693
88	0xbe2a3a2d	-0.16623755
89	0xbed79411	-0.42105153
90	0xbefbb7ac	-0.49163568
91	0x3df0bd58	0.117548645
92	0xbf086a00	-0.53286743
93	0x3dafa7f1	0.08576954
94	0xbea00699	-0.31255034
95	0xbd39160f	-0.045187052
96	0xbf0d2819	-0.5513931
97	0xbed17f3f	-0.40917394
98	0xbf0463ba	-0.5171467
99	0xbf0b59dc	-0.5443399
100	0x3e222576	0.15834603
101	0xbeb0dcda	-0.34543496
102	0xbec896d0	-0.3917756
103	0xbd74150d	-0.059590388
104	0x3d02b901	0.031914715
105	0x3dcc391b	0.099718295
106	0xbe6806a2	-0.2265878
107	0xbef15aa6	-0.47139472
108	0xbd509441	-0.050922636
109	0xbedfe003	-0.43725595
110	0xbeef1f1a	-0.46703416
111	0xbe7a1267	-0.24421082
112	0xbe12dabb	-0.14341252
113	0xbe74ede9	-0.2391888
114	0xbeef3524	-0.4672023
115	0x3d92e91d	0.07173369
116	0xbe81d73a	-0.25359517
117	0xbe9ac08b	-0.30225024
118	0xbec8de83	-0.39232263
119	0xbe9ab036	-0.30212563
120	0xbef68b64	-0.48153222
121	0xbe652773	-0.2237833
122	0x3d63002a	0.05542008
123	0xbe8f7b8e	-0.28023952
124	0xbea0c45a	-0.31399804
125	0xbe8c0422	-0.27346903
126	0xbd196fed	-0.037460256
127	0xbe5c871b	-0.21535914

policy.net.2.weight f4 [5, 128]
0	0xbf8611f5	-1.047423
1	0xbecd1676	-0.400562
2	0xbfaa4580	-1.330246
3	0xbf9b2917	-1.2121915
4	0xc04febed	-3.2487748
5	0xbfd5245c	-1.6651721
6	0xbfe241ec	-1.7676368
7	0x3cb3bd37	0.02194081
8	0xbe9553ce	-0.291655
9	0xc005fc2a	-2.0935159
10	0xbfafef65	-1.3744932
11	0xbf6eae11	-0.93234354
12	0xbeaad107	-0.333626
13	0xbfbbaf03	-1.4662784
14	0xbf005ccf	-0.50141615
15	0xbf5de342	-0.8667489
16	0xbfa7d907	-1.3113106
17	0xc04cc3c9	-3.1994498
18	0xbe44eb2d	-0.19230337
19	0xbfd51f86	-1.6650245
20	0xc0860f7a	-4.189389
21	0xbf09f27a	-0.53885615
22	0xbf69c91b	-0.9132249
23	0xc0849703	-4.143434
24	0xbfbd4b0c	-1.4788527
25	0xbf987901	-1.1911927
26	0xbead834f	-0.33889243
27	0xbe9ae27d	-0.30250922
28	0xbef7cd9d	-0.48399058
29	0xbeaf860b	-0.34281954
30	0xbf054a8d	-0.5206688
31	0xbeb44bfb	-0.35214218
32	0xbf3ff173	-0.749778
33	0xbe4b59a6	-0.19858417
34	0xbf04e147	-0.51906246
35	0xbf223742	-0.63365567
36	0xbfd05751	-1.6276647
37	0xc0242684	-2.5648508
38	0xbf5c1722	-0.859728
39	0xbf729f7e	-0.94774616
40	0xc013f9ec	-2.312129
41	0xbe6bee2e	-0.23040077
42	0xbf8fddc4	-1.1239552
43	0xbe9d2ab8	-0.30696654
44	0xbfd35d6c	-1.6512885
45	0xbf682573	-0.9068214
46	0xbe6388b6	-0.2222012
47	0xbe8cc359	-0.27492788
48	0xbf456194	-0.7710202
49	0xc02bdd61	-2.685387
50	0xbf67044d	-0.9024094
51	0xbedfba52	-0.4369684
52	0xbf6d9f8e	-0.92821586
53	0xbf5535f7	-0.8328547
54	0xbed18672	-0.40922886
55	0xbf67487c	-0.9034498
56	0xc05c1322	-3.4386678
57	0xbfb59e0d	-1.4188858
58	0xbf3666b0	-0.7125044
59	0xc00ba7d4	-2.1821184
60	0xbf0eedd3	-0.5583164
61	0xbef323ee	-0.4748835
62	0xbf1b000a	-0.60546935
63	0xc0897917	-4.2960315
64	0xc070b451	-3.7610056
65	0xc039d11b	-2.9033878
66	0xbe8d7fab	-0.27636465
67	0xc083927b	-4.111631
68	0xbfea5ed7	-1.8310193
69	0xbf18df97	-0.5971617
70	0xbfc1c4e8	-1.5138216
71	0xc045276e	-3.0805316
72	0xbfae3037	-1.3608464
73	0xbf53bfc1	-0.8271447
74	0xbfa10f9f	-1.2582892
75	0xbdaf38b4	-0.08555737
76	0xbf396674	-0.72421956
77	0xbf425322	-0.759081
78	0xbf24d86b	-0.6439273
79	0xbfc4c201	-1.5371705
80	0xbfc8e6f2	-1.5695479
81	0xbea27ebf	-0.31737325
82	0xbebde3a9	-0.37087753
83	0xbea76834	-0.32696688
84	0xbf2633b4	-0.6492264
85	0xbe25dd84	-0.16197783
86	0xbf87b1ea	-1.060117
87	0xc012139c	-2.2824469
88	0xc0782c3b	-3.8776996
89	0xbf13a39f	-0.5767154
90	0xbf3176ac	-0.69321704
91	0xbf386da1	-0.7204228
92	0xbf282b04	-0.65690637
93	0xc02759b5	-2.6148503
94	0xbf35bef9	-0.70994526
95	0xbee8d2d7	-0.45473358
96	0xbe83ab53	-0.25716648
97	0xbf4155d4	-0.7552159
98	0xbf8c75d9	-1.0973464
99	0xbe8da362	-0.27663714
100	0xbff71a8f	-1.930498
101	0xbf23baa3	-0.6395666
102	0xbf1933e3	-0.598448
103	0xbfe09969	-1.7546817
104	0xbfaedfcb	-1.3662046
105	0xbfb7fc55	-1.4373881
106	0xbf8026ff	-1.0011901
107	0xbf0d6428	-0.5523095
108	0xc041f047	-3.0302904
109	0xbe2d316c	-0.16913384
110	0xbf021a03	-0.5082094
111	0xc0b5eb0d	-5.6849427
112	0xc06c663d	-3.6937401
113	0xbf877e4e	-1.058542
114	0xbe85277f	-0.26006696
115	0xc070f5cd	-3.7650025
116	0xbf9cc0b7	-1.2246312
117	0xbfb56e3a	-1.4174263
118	0xbfbe69ad	-1.4876
119	0xbeb938cf	-0.36176154
120	0xbec85b59	-0.39132193
121	0xbf0a526f	-0.54032034
122	0xbfbb39ca	-1.4627011
123	0xbe811d4b	-0.2521766
124	0xbea958e1	-0.33075622
125	0xbec5f1fd	-0.38661185
126	0xbf52f98c	-0.8241203
127	0xbfc261ee	-1.5186136
128	0xbe15613f	-0.14587878
129	0xbdc797a7	-0.09745722
130	0xbefbac6e	-0.4915499
131	0x3e0973d0	0.13423085
132	0xbfa09eee	-1.2548501
133	0x3f987bb2	1.1912749
134	0xbf25d618	-0.64779806
135	0x3cd42a08	0.025898948
136	0x3d773f68	0.060363203
137	0x3e179513	0.14802961
138	0xbef58353	-0.47951755
139	0xbe095625	-0.13411768
140	0xbf0585ef	-0.5215749
141	0x3e0d112e	0.13776085
142	0xbdf2c8fa	-0.118547395
143	0x3e611173	0.21979313
144	0x3e32e1ac	0.174689
145	0x3d113680	0.035452366
146	0xbf3a2e73	-0.72727126
147	0x3d3cc066	0.046081923
148	0x3d2cf8b8	0.042229384
149	0x3d5fcb5d	0.0546373
150	0x3e145eb4	0.14489251
151	0xbd5f1563	-0.054463755
152	0x3ef60398	0.48049617
153	0x3e3e83f3	0.18605022
154	0x3dbab2ac	0.0911611
155	0xbf94d7a1	-1.1628305
156	0xbdbb3bfd	-0.09142301
157	0x3e7b749f	0.24556206
158	0x3eed4dde	0.4634847
159	0x3e882526	0.26590842
160	0x3efd2dfc	0.49449146
161	0xbe88b425	-0.2669994
162	0xbf1df63f	-0.61703867
163	0x3cc6f3e4	0.024286218
164	0x3d7ca99b	0.061685186
165	0xbf52347e	-0.82111347
166	0xbaf9dbbf	-0.0019062682
167	0xbd027e76	-0.031858884
168	0xbe1fd90a	-0.15610138
169	0xbf182117	-0.5942549
170	0x3d46cb62	0.048533805
171	0xbe32d487	-0.17463885
172	0x3eb356a2	0.35027033
173	0x3e250dcf	0.16118549
174	0x3ddc699d	0.10762332
175	0xbeab0ae5	-0.3340675
176	0x3dc23f2a	0.09484704
177	0x3eadd323	0.33950147
178	0xbf575a6d	-0.84122354
179	0xbf01ffc3	-0.50780886
180	0x3dbf4063	0.09338453
181	0x3e0c5b34	0.13706666
182	0xbeffae1e	-0.49937528
183	0xbf857523	-1.0426372
184	0x3f1c75b8	0.61117125
185	0xbe008d13	-0.12553816
186	0xbf5a288a	-0.8521811
187	0xbe95df2f	-0.29271838
188	0xbcb2639e	-0.021776017
189	0xbcf7c41b	-0.030244878
190	0x3d233de4	0.039853945
191	0x3e2ce311	0.16883494
192	0xbdfe0eca	-0.124051645
193	0x3d366743	0.04453207
194	0xbe57919c	-0.2105164
195	0xbdcf5179	-0.101229616
196	0xbe74fe3a	-0.23925105
197	0xbd51a09b	-0.051178556
198	0xbeea6330	-0.457788
199	0x3d3e5313	0.046465944
200	0xbe4db88b	-0.20089929
201	0x3e58042e	0.21095344
202	0x3dbd9a0c	0.09257898
203	0x3d76b2a8	0.060228974
204	0xc0288f1a	-2.6337342
205	0x3e2aebed	0.16691561
206	0xbf1f32d7	-0.6218695
207	0x3b04c3ec	0.002025838
208	0x3baaf32a	0.0052169757
209	0x3b96d693	0.004603216
210	0x3d173be1	0.03692234
211	0xbe71a148	-0.2359668
212	0x3dcc1903	0.09965708
213	0xbf4511f4	-0.7698052
214	0xbfc6fcdc	-1.5545917
215	0xbf6baea9	-0.92063385
216	0x3ddf39ef	0.10899722
217	0xbdc743ab	-0.097297035
218	0x3cd47958	0.025936767
219	0x3ec3b2f7	0.38222477
220	0x3ea4192a	0.3205045
221	0x3d364044	0.044494882
222	0xbf9365b1	-1.1515409
223	0xc02f3bfe	-2.7380366
224	0xbeddb103	-0.43299112
225	0xbe3be59a	-0.18349305
226	0x3e45ad8d	0.19304486
227	0xbf6b1e3e	-0.9184302
228	0x3dadf487	0.084939055
229	0x3d4f6e8e	0.050642543
230	0xbd2d7e71	-0.042356912
231	0x3de58945	0.11207823
232	0x3d850e76	0.06496899
233	0xbd7925a7	-0.060826924
234	0x3da040aa	0.07824834
235	0xc02c6537	-2.6936777
236	0xbdece441	-0.115669735
237	0xbf818203	-1.0117801
238	0xbdca9de8	-0.098933995
239	0xbca32c3c	-0.019918554
240	0x3e3182d2	0.1733506
241	0x3e512e96	0.20427927
242	0x3f4e1a7a	0.8050915
243	0xbe8a6911	-0.27033284
244	0x3e68630a	0.2269403
245	0xbf2b75ff	-0.6697692
246	0x3ce6a6f3	0.02815578
247	0xbde3d8d6	-0.111253425
248	0xbf04a86d	-0.518195
249	0x3d957619	0.07297916
250	0xbfa2fe9c	-1.2733951
251	0xbf878b02	-1.0589297
252	0x3ea4bdf6	0.3217618
253	0x3d93335e	0.07187532
254	0x3e00014b	0.12500493
255	0x3dde13cb	0.10843619

policy.net.2.bias f4 [5]
0	0xc11976ad	-9.591474
1	0xbdab0a1e	-0.08351539
2	0x3d853ca0	0.06505704
3	0xbd0826d4	-0.033240154
4	0x3e563953	0.20920305

exp_avg f4 [900, 16]
0	0x370bd363	8.334263e-06
1	0x36f7a60d	7.3805045e-06
2	0x3797b199	1.8083303e-05
3	0x37402783	1.1453291e-05
4	0x34de001a	4.1350796e-07
5	0xb71bbf07	-9.283197e-06
6	0x34f17b1f	4.497933e-07
7	0x360c5e1d	2.0916407e-06
8	0x37500f7c	1.2401371e-05
9	0x373e1238	1.1329124e-05
10	0xb74d1110	-1.2222925e-05
11	0x371bf5bf	9.295937e-06
12	0xb6c52077	-5.874837e-06
13	0x3748f83f	1.1978728e-05
14	0xb6ce3c8e	-6.146328e-06
15	0x3667b196	3.452505e-06
16	0xb7308815	-1.0522102e-05
17	0x361a147c	2.2959712e-06
18	0x37aff744	2.0976768e-05
19	0x3693552a	4.390856e-06
20	0xb76e1f89	-1.4193248e-05
21	0x368f3b3b	4.2686274e-06
22	0xb542fb4a	-7.2636306e-07
23	0xb66851a1	-3.4618208e-06
24	0x36aeeb5f	5.213005e-06
25	0xb5a6037b	-1.2368977e-06
26	0xb6af6cc8	-5.22807e-06
27	0xb6490c4b	-2.995849e-06
28	0x37146076	8.8439465e-06
29	0x369b4433	4.6272994e-06
30	0x366ae68c	3.5002913e-06
31	0x368b9c4d	4.1607186e-06
32	0x36d378e6	6.3023645e-06
33	0xb7a68b79	-1.9853689e-05
34	0x3716aebe	8.981382e-06
35	0x37948853	1.7706456e-05
36	0xb71965af	-9.143186e-06
37	0x377c1abd	1.5026596e-05
38	0x36c3299f	5.816298e-06
39	0xb69d9d2c	-4.697262e-06
40	0x373a7ca3	1.1115483e-05
41	0x3501e6c0	4.839203e-07
42	0xb7cd580f	-2.447891e-05
43	0xb7595092	-1.2952967e-05
44	0x37d13466	2.4939141e-05
45	0x35726aab	9.030725e-07
46	0x370bc429	8.330718e-06
47	0x36f0a92e	7.1722525e-06
48	0xb3eabc8d	-1.0930771e-07
49	0xb7323d61	-1.0623918e-05
50	0xb6cd9683	-6.126998e-06
51	0x3701e510	7.742332e-06
52	0xb7026b41	-7.773576e-06
53	0xb6eee5af	-7.1196914e-06
54	0x37073d91	8.060962e-06
55	0x358cf909	1.0503292e-06
56	0xb5cd9449	-1.5316847e-06
57	0xb4d0ff40	-3.8928738e-07
58	0xb7b483b9	-2.151901e-05
59	0xb68c6df5	-4.185126e-06
60	0x362e456d	2.5968432e-06
61	0xb48bec42	-2.6062668e-07
62	0x36ff0875	7.6005767e-06
63	0xb6159580	-2.228975e-06
64	0x379cc7a8	1.8689621e-05
65	0xb71a597d	-9.199951e-06
66	0xb6a23414	-4.834039e-06
67	0x378bf466	1.6683898e-05
68	0xb5ea5e8f	-1.7461879e-06
69	0x3787515b	1.6131138e-05
70	0x37e5b544	2.7383336e-05
71	0x368a7df4	4.1273834e-06
72	0x360802ae	2.026714e-06
73	0x37068540	8.018047e-06
74	0xb77bc0d7	-1.5005665e-05
75	0xb73965ed	-1.1050591e-05
76	0x37631967	1.3536169e-05
77	0x3738585b	1.09878265e-05
78	0x37a53fc3	1.9699224e-05
79	0xb72b1123	-1.0196384e-05
80	0x00000000	0.0
81	0x00000000	0.0
82	0x00000000	0.0
83	0x00000000	0.0
84	0x00000000	0.0
85	0x00000000	0.0
86	0x00000000	0.0
87	0x00000000	0.0
88	0x00000000	0.0
89	0x00000000	0.0
90	0x00000000	0.0
91	0x00000000	0.0
92	0x00000000	0.0
93	0x00000000	0.0
94	0x00000000	0.0
95	0x00000000	0.0
96	0x00000000	0.0
97	0x00000000	0.0
98	0x00000000	0.0
99	0x00000000	0.0
100	0x00000000	0.0
101	0x00000000	0.0
102	0x00000000	0.0
103	0x00000000	0.0
104	0x00000000	0.0
105	0x00000000	0.0
106	0x00000000	0.0
107	0x00000000	0.0
108	0x00000000	0.0
109	0x00000000	0.0
110	0x00000000	0.0
111	0x00000000	0.0
112	0x00000000	0.0
113	0x00000000	0.0
114	0x00000000	0.0
115	0x00000000	0.0
116	0x00000000	0.0
117	0x00000000	0.0
118	0x00000000	0.0
119	0x00000000	0.0
120	0x00000000	0.0
121	0x00000000	0.0
122	0x00000000	0.0
123	0x00000000	0.0
124	0x00000000	0.0
125	0x00000000	0.0
126	0x00000000	0.0
127	0x00000000	0.0
128	0x00000000	0.0
129	0x00000000	0.0
130	0x00000000	0.0
131	0x00000000	0.0
132	0x00000000	0.0
133	0x00000000	0.0
134	0x00000000	0.0
135	0x00000000	0.0
136	0x00000000	0.0
137	0x00000000	0.0
138	0x00000000	0.0
139	0x00000000	0.0
140	0x00000000	0.0
141	0x00000000	0.0
142	0x00000000	0.0
143	0x00000000	0.0
144	0x00000000	0.0
145	0x00000000	0.0
146	0x00000000	0.0
147	0x00000000	0.0
148	0x00000000	0.0
149	0x00000000	0.0
150	0x00000000	0.0
151	0x00000000	0.0
152	0x00000000	0.0
153	0x00000000	0.0
154	0x00000000	0.0
155	0x00000000	0.0
156	0x00000000	0.0
157	0x00000000	0.0
158	0x00000000	0.0
159	0x00000000	0.0
160	0x00000000	0.0
161	0x00000000	0.0
162	0x00000000	0.0
163	0x00000000	0.0
164	0x00000000	0.0
165	0x00000000	0.0
166	0x00000000	0.0
167	0x00000000	0.0
168	0x00000000	0.0
169	0x00000000	0.0
170	0x00000000	0.0
171	0x00000000	0.0
172	0x00000000	0.0
173	0x00000000	0.0
174	0x00000000	0.0
175	0x00000000	0.0
176	0x00000000	0.0
177	0x00000000	0.0
178	0x00000000	0.0
179	0x00000000	0.0
180	0x00000000	0.0
181	0x00000000	0.0
182	0x00000000	0.0
183	0x00000000	0.0
184	0x00000000	0.0
185	0x00000000	0.0
186	0x00000000	0.0
187	0x00000000	0.0
188	0x00000000	0.0
189	0x00000000	0.0
190	0x00000000	0.0
191	0x00000000	0.0
192	0x37da6deb	2.603881e-05
193	0x3722db55	9.70702e-06
194	0xb71542ee	-8.896675e-06
195	0x372e1716	1.0376583e-05
196	0x37d9797c	2.5924986e-05
197	0x37aca25d	2.0579604e-05
198	0x3800baf1	3.069168e-05
199	0x375835a6	1.2887094e-05
200	0x36ac8e68	5.1425777e-06
201	0x36e5c8a1	6.848088e-06
202	0x3608adf9	2.0366845e-06
203	0x379c5ba2	1.8639319e-05
204	0x3718870a	9.091347e-06
205	0xb59baf1e	-1.1599366e-06
206	0xb76b3219	-1.4018756e-05
207	0xb6722cc2	-3.6086863e-06
208	0x3747eb49	1.1916106e-05
209	0xb72c1d17	-1.0258772e-05
210	0xb7412236	-1.1511662e-05
211	0xb78bd1f3	-1.6667856e-05
212	0x37915fe8	1.7330007e-05
213	0xb784259d	-1.5753141e-05
214	0x36943725	4.4171634e-06
215	0xb6c19a8e	-5.7698408e-06
216	0x37d6ca6c	2.5605048e-05
217	0x37074b36	8.0641385e-06
218	0xb68dc5cd	-4.2251545e-06
219	0x38022735	3.103093e-05
220	0xb6ba8104	-5.5582514e-06
221	0xb78f1375	-1.7055989e-05
222	0x380dc5a6	3.3801094e-05
223	0x376a264b	1.3956403e-05
224	0x37407586	1.1471455e-05
225	0xb72af78a	-1.0190424e-05
226	0xb70b097d	-8.287255e-06
227	0x3774b63b	1.4585962e-05
228	0x36a34531	4.8658335e-06
229	0x377338c8	1.4497149e-05
230	0x377abeb5	1.4945564e-05
231	0xb72b4bbc	-1.02100275e-05
232	0x37dbfe7c	2.6225338e-05
233	0xb787249e	-1.6110305e-05
234	0x36708f98	3.584637e-06
235	0x37f8dc54	2.9666502e-05
236	0xb5ef8964	-1.7846874e-06
237	0xb6ebc706	-7.026715e-06
238	0x375fb743	1.3334505e-05
239	0xb6fe390e	-7.576432e-06
240	0xb7268ea5	-9.927583e-06
241	0x36c08c18	5.738355e-06
242	0x37c0caf4	2.2982691e-05
243	0xb7e2d91c	-2.7042399e-05
244	0x37444540	1.1698634e-05
245	0x375d5158	1.3191566e-05
246	0x3696c9f6	4.4938597e-06
247	0xb72d9ea5	-1.0348541e-05
248	0x377ce0d2	1.50727155e-05
249	0x3759f577	1.299136e-05
250	0x376d32dd	1.4138143e-05
251	0x378ae8e6	1.6559334e-05
252	0xb79ce290	-1.870215e-05
253	0x36e0d295	6.700235e-06
254	0xb77ef17d	-1.5195806e-05
255	0xb72207f2	-9.657802e-06
